trees/save/cycle/7bits/split_75.0_0.1_5_50/models/model.pth (torch, 65494 bytes, 12 tensors)

embedding_layers.weight f4 [494, 7]
000000 12 b8 ef ba db 3b ed b9 78 06 8d 3a 2b 35 e0 bb
       -0.001828911 -0.00045248758 0.0010759374 -0.0068422756
000010 db 95 07 3b 84 a4 f6 3b ca 33 bf bb 97 04 8d 3b
       0.0020688686 0.007526936 -0.005835031 0.0043035257
000020 b6 a9 ff 3b 83 7e 14 3c 4c f8 24 ba 21 6e 4c 3b
       0.0078022135 0.009063366 -0.00062931026 0.0031193572
000030 89 69 50 3a 46 5f f6 3b 7e 24 c7 b9 6c 86 b5 ba
       0.0007950296 0.0075186817 -0.00037983427 -0.0013849265
000040 97 6c 06 3c 8a 0c ca bb 04 ac a6 ba 03 d9 b8 bb
       0.008204601 -0.0061660456 -0.001271606 -0.005641104
000050 5d 72 12 bb 5b ff 20 bc a5 77 bd bb 8d 0c 24 3b
       -0.0022345998 -0.0098265065 -0.005782085 0.0025031895
000060 1f d2 13 3b 39 1f 72 bb 45 c1 68 ba d8 3d dc 39
       0.0022555662 -0.003694488 -0.0008878897 0.00042007747
000070 ac 77 74 bb 87 8c cf 3b 3d 42 a2 3a a8 f3 44 bc
       -0.0037302775 0.006333891 0.001237936 -0.012020983
000080 d4 46 1c bb 7e a3 df 3b de a5 f9 ba f6 f4 46 39
       -0.0023845928 0.0068249097 -0.0019046625 0.00018974007
000090 c2 98 08 3c f1 71 01 bc c8 34 8d 3b f1 02 36 3b
       0.008337202 -0.007900701 0.0043092705 0.002777275
0000a0 1e 87 39 bc dc 72 2e 3c f0 12 5e 3b 5b 69 a9 bb
       -0.011323718 0.010647502 0.00338858 -0.00517003
0000b0 68 ed bf 3b b4 98 00 3c a5 5f 8d 3a df 45 2f bc
       0.0058571585 0.007848907 0.001078595 -0.010697811
0000c0 4b 07 02 bb 18 07 dc bb 7b 4c 1f bb 58 50 d7 bb
       -0.0019840773 -0.006714713 -0.002430706 -0.006570857
0000d0 2d 9d 1e bb 30 32 08 3c 6f 9f a8 b9 90 c0 a5 39
       -0.002420257 0.008312747 -0.00032162244 0.00031614723
0000e0 98 d5 9f 3b 69 4c ac ba 6d c7 64 bb 9e 49 98 3a
       0.0048777573 -0.0013145331 -0.0034908906 0.0011618619
0000f0 25 a7 b8 3b f5 65 96 3b 8b 1b 89 3b f8 2a 3b 3c
       0.0056351596 0.004589791 0.0041841916 0.011423819
000100 96 42 b9 ba cf 99 be ba 56 3f 40 ba 3b 18 ca bb
       -0.0014134224 -0.0014541688 -0.00073336565 -0.0061674393
000110 59 72 1b bc 52 c8 15 3c f5 19 71 3b ca d5 b4 bb
       -0.009487712 0.009141998 0.0036789153 -0.0055186497
000120 e2 cd 77 bb b3 8d 5f 3b 66 cd 2d 3b 01 01 a4 3b
       -0.0037811925 0.003411156 0.0026520132 0.0050050025
000130 3f cd f5 3b 5e c3 6d ba a7 97 00 bc ff c1 16 3c
       0.007501274 -0.00090699445 -0.007848657 0.009201526
000140 93 cb b6 3a e7 69 0f 3b a3 11 76 b7 d5 c1 79 bb
       0.0013946168 0.002188319 -1.4666849e-05 -0.0038109918
000150 be b0 10 bb d4 e8 4c 3b d3 91 26 bc 82 5c 81 3b
       -0.0022078003 0.0031266706 -0.010166603 0.0039477954
000160 e3 b9 22 bc ad 68 a7 ba 04 f0 80 38 13 99 ae 3b
       -0.009932014 -0.0012772285 6.148222e-05 0.0053283065
000170 8a ee 26 3b b7 06 0f 3c 84 93 b3 3a 5b 19 bd 3b
       0.002547177 0.008729628 0.0013700579 0.005770845
000180 8e 8f 43 ba 45 78 76 3a c8 18 0a bc a5 77 8d 3a
       -0.0007460051 0.0009402077 -0.00842876 0.0010793103
000190 8f 53 26 3b cd d6 fb bb 67 6d a2 3a 33 8b 67 ba
       0.0025379395 -0.0076855184 0.0012392224 -0.0008832693
0001a0 15 7a 97 38 61 43 d8 bb ef f1 d1 bb 89 48 4c 39
       7.222981e-05 -0.006599829 -0.0064070146 0.00019481978
0001b0 fe 8d 26 bb ce a0 45 3c 41 6e ba 3b d3 fd db 39
       -0.0025414224 0.012062265 0.005689413 0.0004196005
0001c0 57 64 b5 3b d2 99 d0 3b fe 17 9d 3b 29 63 9d 3a
       0.005535643 0.006365993 0.00479412 0.0012007701
0001d0 cb 56 2f bb 0b b0 2c bb 46 4c 0d ba 3d 5e 18 ba
       -0.0026754614 -0.0026350047 -0.0005390089 -0.00058123824
0001e0 18 a3 68 ba 2a 0c 8b 3b 3b 81 3f bb e1 09 c4 ba
       -0.00088744005 0.0042433934 -0.0029221314 -0.0014956557
0001f0 78 81 b4 3a 1e 14 42 3b cc d1 00 bc 3d 37 9c 3b
       0.0013771495 0.0029614042 -0.0078625195 0.004767327
000200 8f 3c 98 bb 48 65 24 bc 91 98 02 3c 84 ec 19 3b
       -0.004645891 -0.010033913 0.007970945 0.0023486922
000210 c4 fb b8 bb c2 e6 7a 3b 3a 0a 7d bb 52 5a 10 3c
       -0.005645247 0.0038284515 -0.0038610832 0.008810597
000220 02 02 04 bc f6 1a 4a 3b 7b c6 1e 3b a4 7f 90 3b
       -0.008057119 0.0030838824 0.002422719 0.004409747
000230 34 fc cd bb 4d 0a 0b 3c c3 e4 08 3c 90 e8 d4 3a
       -0.0062861685 0.008486343 0.008355322 0.0016243625
000240 aa bb 23 ba 34 83 92 bb 95 f3 1f ba 37 18 46 3c
       -0.00062459207 -0.004471207 -0.0006101665 0.012090734
000250 6e c5 21 3c 51 b6 a6 3b 48 1b 97 bb db d8 61 3b
       0.009873731 0.005087652 -0.0046114065 0.0034461531
000260 0b 2c e1 bb 4d 7b ff 3b 84 f8 9d 3a c4 3f 30 3b
       -0.0068717054 0.007796681 0.0012052213 0.0026893476
000270 37 62 28 3b 2e 78 fb 3b 18 4b 09 3c 4d fb a1 bb
       0.0025693306 0.0076742386 0.00837972 -0.0049432875
000280 97 81 92 3b 17 72 e0 b9 75 49 02 bc 32 6b 23 bb
       0.0044710147 -0.00042809613 -0.007952084 -0.002493572
000290 1f 0b de bb 13 c4 e6 3b 10 a7 2c bb 02 73 87 bb
       -0.006776228 0.007042417 -0.0026344694 -0.004133583
0002a0 dd 9b e6 3b 1e 68 36 bc 29 67 f0 3b 80 9e 9f b5
       0.0070376233 -0.011133222 0.0073365164 -1.1892553e-06
0002b0 6a f9 50 bb 17 96 06 bb b7 18 0e 3b 4a 77 3b bb
       -0.0031886944 -0.0020536238 0.0021682212 -0.0028605037
0002c0 9b 57 05 3c 64 00 87 bb a7 97 9d 3b ae 38 21 3b
       0.008138563 -0.0041199196 0.004809338 0.0024600434
0002d0 75 fb 9c 3b dc f4 02 3c c1 f1 1c 3b ee 9e 1d ba
       0.004790718 0.007992949 0.0023947807 -0.0006012757
0002e0 58 61 51 3c 5e b7 bc ba eb 05 af bb 46 79 58 bb
       0.012779556 -0.0014397909 -0.0053412816 -0.003303127
0002f0 a5 80 1a 3b 2f d7 39 3a ca 11 01 bc 78 ad 11 3c
       0.0023575213 0.0007089255 -0.007877776 0.008891456
000300 42 25 0d 3b a6 80 29 3b 52 e5 08 bb 8d c8 40 3b
       0.00215371 0.0025864034 -0.0020888639 0.0029416413
000310 1c ed 98 ba 5b b0 59 3b 32 c5 1a 3c b8 9d 8c bb
       -0.0011667344 0.0033216688 0.009446429 -0.0042912625
000320 1e c6 cd bb dd 56 1f bb a8 68 11 3c a1 51 42 ba
       -0.006279721 -0.002431325 0.00887505 -0.00074126764
000330 1c 7d 9c 39 23 1c ea 3a 60 4a 01 3b ec 5d 30 bc
       0.00029847852 0.0017861169 0.001972817 -0.01076458
000340 f7 6a ef 3b ef df 98 bb 8e 7e a5 3b 04 e4 c8 bb
       0.0073064524 -0.004665367 0.005050487 -0.006130697
000350 be ab 68 39 d5 52 f9 3b 5f 5d e7 3a 73 5f 37 bb
       0.00022189223 0.0076087513 0.0017651728 -0.0027980476
000360 dd 5f 4e 3b 5b 9e 76 bb 6b 0d 8a 39 45 d8 ab 3b
       0.0031490244 -0.0037631008 0.00026331408 0.005244287
000370 58 f9 ca 3b 70 68 a2 3a d0 4a 48 bc 26 6f d5 bb
       0.006194275 0.0012390744 -0.012224868 -0.006513494
000380 41 d3 0c bb 25 59 f4 b8 5f 47 60 3a 11 c3 cf bb
       -0.0021488222 -0.00011651431 0.0008555557 -0.0063403924
000390 cf 61 70 3b 76 d6 42 bc 9d be d0 3a 62 b1 3f ba
       0.0036679392 -0.011891952 0.0015925948 -0.0007312504
0003a0 ff 59 ef 3b 0b 4f 77 3b 3a 0d 20 3c ec 6c 6c bb
       0.0073044295 0.0037736322 0.009768778 -0.0036075665
0003b0 da aa 87 ba 28 d9 f8 bb 3d a5 1d 3c 5c f0 0b bc
       -0.00103506 -0.0075942464 0.009621915 -0.008541193
0003c0 9a 2e 99 3b 74 de f7 ba a9 2e 93 3b 8f 17 2d bb
       0.004674745 -0.0018910901 0.0044916463 -0.0026411747
0003d0 c1 db f0 3b 9b ee 07 3b 0e 27 97 3a 4e 33 dc 3b
       0.0073504155 0.0020741585 0.0011532025 0.006719983
0003e0 26 ea af bb 86 2c 40 bc b2 01 d6 bb dd ce 13 bb
       -0.005368489 -0.011729365 -0.006530964 -0.002255372
0003f0 bf 2c f4 ba 25 54 3e bc ee 13 00 bb 0e 03 98 3b
       -0.0018629058 -0.011616741 -0.001954313 0.004639036

layers.0.weight f4 [100, 14]
000000 45 91 d8 3e 93 67 b6 3e 8c 56 0c bf f0 fe 93 3d
       0.42298332 0.35625896 -0.5481956 0.0722636
000010 a2 71 16 be de e2 2d 3f 0e 51 6b 3e a3 61 d7 be
       -0.14691785 0.67924297 0.22980139 -0.42066678
000020 d7 c9 b9 be 6f 2f 0a 3f b1 0a 9c bd 06 fd 1e 3e
       -0.36286804 0.5397863 -0.07619227 0.15526208
000030 df e1 2d bf 0a 5a 67 be 22 91 1f 3e f3 39 3a be
       -0.67922777 -0.22592941 0.15582708 -0.18186168
000040 6a 14 cd 3d 07 6f 47 bf 73 55 28 3e e3 4d 22 be
       0.10013659 -0.7790379 0.16438846 -0.15850024
000050 a1 85 1e 3e e9 1f b5 3e 08 94 8c 3e 1a d7 98 3e
       0.15480663 0.35375908 0.2745669 0.2985161
000060 13 a9 16 3f 9c ff 82 3e c5 79 0d 3e e6 96 9e 3e
       0.58851737 0.2558564 0.13815983 0.309745
000070 d5 3b cb be 2b 7e b1 3d 50 de 6d bc 6f 06 44 3e
       -0.39694086 0.08666643 -0.014518335 0.19143079
000080 e5 64 44 be 6a 3f ea 3d 17 f0 87 3e d9 57 df bd
       -0.19179113 0.114378765 0.26550362 -0.109054275
000090 fb 9e 22 bf b1 2e ee be 02 07 bc 3e 35 a9 41 3e
       -0.63523835 -0.46519998 0.36724097 0.18912204
0000a0 62 f3 9b be dd 69 4d 3e 01 43 14 bf d2 e2 0d bd
       -0.30459124 0.20059915 -0.5791474 -0.03464014
0000b0 83 6b 3c be c5 6c 31 3e e6 d2 c1 be 43 1d 0e bf
       -0.18400387 0.17326649 -0.37856215 -0.555134
0000c0 dc 17 06 be 84 92 ee 3e 44 32 44 be ac 21 56 be
       -0.13095039 0.46596158 -0.191598 -0.20911282
0000d0 2d f5 97 3e 56 98 74 3e 9f eb fd bd 89 b4 e2 3d
       0.29679242 0.23886237 -0.12398457 0.110695906
0000e0 e4 64 23 bf 10 de a7 3e 4d 7e ea bc f5 b3 04 3f
       -0.6382582 0.32786608 -0.028624678 0.5183709
0000f0 ee 4f 93 3c 3a 34 32 3e 5a a8 a1 3e 84 85 23 3f
       0.01798245 0.17402735 0.31573755 0.63875604
000100 3e f7 a6 be a0 43 07 3d 86 92 04 bf 60 c8 b1 bc
       -0.32610506 0.033023477 -0.5178608 -0.021701992
000110 ed 16 2c be f9 2f a0 be a8 82 c1 be 84 bc 8a bc
       -0.1680562 -0.312866 -0.37794995 -0.016935594
000120 10 23 36 3e 09 62 f1 bc 2e 06 c1 3e ce 6b 5f be
       0.17786813 -0.029465692 0.37700027 -0.21818468
000130 14 94 e4 bd a7 81 b1 3d 56 bd f5 3e 18 d2 45 be
       -0.11161056 0.08667307 0.47996014 -0.19318426
000140 ec ee 13 3d 48 70 55 be 58 b6 22 be 1d 3a e9 3d
       0.036116526 -0.20843613 -0.15889871 0.11388037
000150 4f 0e 36 bf 14 c6 13 3e 3c 79 e2 3d 48 db cb 3e
       -0.71115583 0.1443103 0.1105828 0.39815736
000160 1c 92 e4 bd 28 53 94 3e 83 53 3a be bd 57 ed 3e
       -0.11160681 0.28969693 -0.1819592 0.46356001
000170 bc 38 be 3d 7a 18 7e be 68 7c d5 3e ff 05 98 bd
       0.09288165 -0.24814025 0.41696477 -0.07423019
000180 e2 9d 8c be 7c fa cf 3e f2 df 74 3d 32 90 db 3e
       -0.27464205 0.40620792 0.059783883 0.4288345
000190 dc b7 00 3e 3a 4a 19 3f a8 3e 99 be b1 74 59 be
       0.12570137 0.59878886 -0.29930615 -0.2123592
0001a0 fd 0f 54 3e e7 60 99 3d 05 4b e2 bd 1d d1 17 be
       0.20709224 0.07489186 -0.11049465 -0.14825864
0001b0 71 ec 8b be 8c 1e 9f be d1 54 83 3e d3 89 f9 be
       -0.27328828 -0.31077993 0.25650647 -0.48737964
0001c0 50 5d 39 3e 28 e0 ce bd b5 cd a2 be 17 8a 70 3d
       0.18102002 -0.10101348 -0.31797567 0.058725443
0001d0 5f 46 87 3d 85 27 11 bc 4e b7 67 3d a4 7a 78 be
       0.06605219 -0.00885952 0.056571297 -0.24265534
0001e0 48 7f 9c 3d 27 4f c0 3d 29 ec c2 3e 15 0b 9a 3e
       0.076414645 0.09390097 0.380708 0.3008658
0001f0 43 00 eb 3d 7b 0b 52 be 59 70 21 bd ca 9a 94 3c
       0.11474659 -0.20512192 -0.039413784 0.018140215
000200 ac 81 cc 39 c0 0e 25 bd 44 e7 3e bc fc da 5a bd
       0.00039006525 -0.04029727 -0.011651818 -0.053431496
000210 bd 0e 87 3d e3 0b 1c bd f1 cb 47 bc 2e 15 ef 3b
       0.06594608 -0.038097274 -0.0121946195 0.007296226
000220 f9 13 a9 bc 25 1b 80 3c 48 41 91 3c 8a 59 47 3d
       -0.020639407 0.015637944 0.017731324 0.048669375
000230 0c 1d dd bb e7 04 c8 bc 0e 09 16 bd 56 20 8b bb
       -0.0067478474 -0.0244164 -0.03662973 -0.004245798
000240 78 01 34 bc 23 99 4a 3c 57 1b 73 3c 95 3b 09 3d
       -0.010986678 0.012365612 0.014838061 0.033504087
000250 9c e1 87 bc 65 98 1b 3d 94 c5 b2 3c 40 7f e3 3c
       -0.016587071 0.03798713 0.021822728 0.027770638
000260 9a 53 b2 3c 40 36 29 3c ec 0e 84 bd cb 40 a1 3c
       0.02176838 0.010327876 -0.064481586 0.019684216
000270 54 3e e0 3c 2a 13 a6 3d d1 cd 79 3c 4d ea 96 bc
       0.02737347 0.08109124 0.015246824 -0.01842227
000280 2f 29 39 3c 57 bd 79 3a 98 c3 5f 3d d2 cb 3b 3c
       0.011301323 0.000952681 0.054629892 0.011462169
000290 33 10 ba bc 5d db 41 bc 25 a2 e2 bc be 7c 4c 3c
       -0.022712803 -0.011832085 -0.027665207 0.012480913
0002a0 b7 64 49 bd 2e 52 4d 3c 97 57 f1 be 0b 28 7b be
       -0.049168315 0.0125318 -0.47137138 -0.24526994
0002b0 cc da 26 bd 29 66 96 3e b3 f9 42 3e f1 56 a0 be
       -0.040736005 0.29374817 0.19040565 -0.3131633
0002c0 30 99 4c bc 4a ba 29 3f 9d 62 4a bd 11 09 8c 3e
       -0.012487695 0.6629988 -0.04941045 0.27350667
0002d0 5e ba 15 bf 31 bf a1 3d 60 04 f5 3e 1f 2b 8a 3e
       -0.584875 0.07897795 0.478549 0.26986024
0002e0 8a 9c 2f be 2e 29 4a 3e cb 40 13 bf 37 d5 66 3e
       -0.17149559 0.19742271 -0.5752074 0.22542273
0002f0 ee 2f e8 3e bd 65 f7 be 1a 7b 8b be 6f c5 2c 3e
       0.45349067 -0.48319808 -0.27242357 0.1687219
000300 f2 2a 49 be 66 ff 13 3f 59 4c 69 be 31 f4 e7 be
       -0.19645289 0.5781158 -0.2278303 -0.4530349
000310 04 48 7a bc 64 ec 87 bc e5 09 e6 3c cb 59 10 bd
       -0.015275959 -0.016592212 0.02808089 -0.035241883
000320 b0 39 ec 3c 3b 30 13 bd 33 49 e6 3b 47 2c 3a 3c
       0.028836101 -0.035934668 0.007027769 0.011363096
000330 39 5a 02 3d 8d 1c 55 bb 3c d5 1c 3d 04 f0 4b bb
       0.031824324 -0.0032518238 0.038289294 -0.0031118402
000340 c4 17 3d 3c ff 2d d1 3c 4c 74 83 be 23 f4 f7 3d
       0.011541311 0.025534628 -0.25674665 0.12107112
000350 ed 5d 22 3e 7b 7b 8b 3e 77 93 88 be c1 57 2b bf
       0.15856142 0.27242646 -0.26675007 -0.66930777
000360 5d 93 13 3e df 03 cb be 49 cf 1e 3d 54 ba 20 3d
       0.14411683 -0.3965139 0.0387719 0.039240196
000370 72 b5 c3 be ac 8f 82 3d b4 3c f9 3e 21 1e 5c 3e
       -0.3822437 0.063750595 0.48679125 0.21495868
000380 76 65 ff 39 c9 19 f6 be b7 08 90 bc 3f 16 8e 3e
       0.00048712984 -0.48066548 -0.01758228 0.27751347
000390 d1 1f 22 3e fa 3b e8 3e 2b ff e7 3c 11 c5 c8 3e
       0.1583245 0.45358258 0.028319916 0.3921285
0003a0 ae 59 c5 3d 5a 08 01 bf fc 7c 02 3e 66 64 13 3f
       0.09636246 -0.5040337 0.1274299 0.5757507
0003b0 ec 23 8e 3e ee 6e 19 3d 27 70 af be 12 a0 22 3e
       0.2776178 0.037459306 -0.34265253 0.15881374
0003c0 65 87 bb 3d 2d 2e a7 3e b5 6f 10 bf 04 4e 20 bf
       0.09156684 0.32652417 -0.5642045 -0.6261904
0003d0 48 03 a9 bd 7f c7 ae 3e f9 d2 22 be 77 70 b7 bd
       -0.08252579 0.34136578 -0.15900792 -0.08956998
0003e0 5e 2f a7 be e9 f9 0f 3f ca 99 20 3f f7 14 a4 3d
       -0.32653326 0.5624071 0.62734663 0.08011811
0003f0 a2 50 2b 3e 1f 26 fa 3d f9 de d4 3e 30 ff d8 3e
       0.16729978 0.12214302 0.41576365 0.42382193

layers.0.bias f4 [100]
000000 60 ef 2d 3c 8f 39 4b 3d 4a d2 21 bf ef 27 30 bf
       0.0106161535 0.04961544 -0.632115 -0.68810934
000010 67 72 ae 3b ad aa 5e bf e0 51 a6 bd 62 03 5b be
       0.0053236964 -0.8697918 -0.08121085 -0.21388009
000020 ae e1 24 bf ea 19 f5 be 4d 0d b0 be 83 7c fb be
       -0.6440686 -0.47871333 -0.34385148 -0.49118432
000030 0b 7e 9c be cb b6 37 3b 12 6a c9 be 28 39 c4 bc
       -0.30564913 0.0028032537 -0.39338738 -0.023953035
000040 31 ce 3e bf 55 59 15 3b f2 84 ed 3d 64 51 b2 be
       -0.74533373 0.0022788842 0.11597623 -0.3482772
000050 19 c5 fc 3c dc 28 81 3e 78 22 85 3b c2 08 d2 3e
       0.030855702 0.25226486 0.004062947 0.41022307
000060 5e 8b d0 3c 8b c4 cd be 35 6f c9 3d ea e3 a4 3e
       0.02545708 -0.40189013 0.09835664 0.32205135
000070 27 6e 55 bd 2a 70 11 bf 4a 59 30 bf 7f 42 75 bc
       -0.052107003 -0.56811774 -0.68886244 -0.014969467
000080 3a 1f 28 be 93 31 c4 bd 19 6a e4 be d1 f9 4c be
       -0.16418162 -0.09579768 -0.44612196 -0.20017172
000090 c3 49 00 bd ec 53 a4 be 5c d7 fb bd 47 ba 05 bf
       -0.031320345 -0.32095277 -0.12296936 -0.5223736
0000a0 74 50 12 bf ea 2c 14 be 7c aa 6d bf 67 f4 9f bf
       -0.5715401 -0.14470258 -0.92838264 -1.2496461
0000b0 b5 9b fc bd b1 5c 9b bf 81 7f 27 bf 38 3d 7f bf
       -0.12334386 -1.2137662 -0.6542893 -0.9970279
0000c0 04 aa 26 3e 1f 41 5a bf 8a d5 19 be 47 b4 22 3e
       0.16275793 -0.85255617 -0.15022865 0.15889083
0000d0 80 ee f9 be a7 2a 0b bf e2 db 84 bf 10 18 05 bf
       -0.48814774 -0.5436196 -1.0379603 -0.5198984
0000e0 4b 54 41 be 27 f4 60 bd e5 ef 05 bf bd 15 53 bf
       -0.18879811 -0.05492034 -0.52319175 -0.82455045
0000f0 6f 35 03 be ec b7 b6 be 8b 64 72 bf f2 83 56 3d
       -0.12813352 -0.35687196 -0.94684666 0.052371927
000100 6a d1 62 bf 44 c3 05 bf 23 fd c8 bd e3 5d 17 bf
       -0.8860079 -0.52251077 -0.09813907 -0.59127635
000110 21 e4 68 3e 99 d3 07 be af 01 89 3c 7d ce dd be
       0.22743274 -0.13264312 0.016724436 -0.433216
000120 17 da ea be 5c 31 6f be f4 57 ad be 13 e5 b5 3e
       -0.45869514 -0.23358673 -0.33856165 0.35526332
000130 95 7a 52 bf 7a 56 96 3e 07 53 26 3d 59 c7 55 bf
       -0.82218295 0.2936285 0.040606525 -0.83507305
000140 75 d3 27 3d 84 08 2b 3a be a4 d4 be 8e b4 ae be
       0.040973146 0.0006524401 -0.41531938 -0.34122127
000150 5b 2f 6b be d0 1f 40 3e 99 f1 b7 3c 8a 6e 7f 3c
       -0.22967283 0.18762136 0.02245407 0.015590319
000160 c5 24 bf 3e 9a cc a4 3b 3a 77 59 bf 36 c9 51 bf
       0.3733274 0.005029273 -0.8494755 -0.8194765
000170 f0 78 6f bb 4e b3 a0 3b 6c d0 80 be d2 c3 5e bf
       -0.003654059 0.0049041873 -0.25159013 -0.8701755
000180 62 64 4d 3d 89 87 a8 be 74 44 91 3d 06 aa 2e bf
       0.05014456 -0.32915905 0.070931345 -0.68228185

layers.2.weight f4 [1, 100]
000000 c9 3d 09 3f 9a 2b 74 be 33 54 a7 3e 86 85 a5 be
       0.536099 -0.23844758 0.32681426 -0.32328433
000010 ea 33 c0 3e eb db d3 be f8 7e 81 be 52 cf 61 be
       0.37539607 -0.41378722 -0.25292182 -0.22051743
000020 7d b7 a1 be 4b 16 ad 3c 90 d2 a2 3a 21 01 ef 38
       -0.31585303 0.021128794 0.0012422372 0.00011396618
000030 1d 0c 68 be d3 43 ce 3e 84 8d 44 3c 09 14 54 be
       -0.22660871 0.4028612 0.011996631 -0.20710768
000040 d1 25 b4 be cd 3b df 3e c4 47 d1 bd 24 aa 87 be
       -0.35185102 0.43600312 -0.10218766 -0.26496994
000050 e8 87 bb 3e 7f ae 12 be 30 f8 d8 3e 22 c4 60 be
       0.36627126 -0.14324377 0.42376852 -0.21949819
000060 4b 5a d1 3e a6 67 87 be 26 c4 34 be cc 47 14 be
       0.408892 -0.26446265 -0.1765295 -0.14480513
000070 13 bc 69 be 7f 9d 1d bc f6 7b 98 be ee 4f 39 be
       -0.22825651 -0.0096200695 -0.29782075 -0.18096897
000080 f4 93 35 be 7d 18 88 be 06 b1 f0 bb 8d 48 3c be
       -0.17732221 -0.26581183 -0.0073453216 -0.18387051
000090 07 20 28 be 63 d6 99 3b 4c 28 58 be 82 20 71 bc
       -0.16418467 0.0046947463 -0.21109122 -0.014717223
0000a0 4a 16 aa be a4 f3 81 be 22 1b d1 3e ed ef 4d 3f
       -0.3322013 -0.25381196 0.40841013 0.8044422
0000b0 b8 18 82 be 1d 57 3b bf 62 47 01 3b 98 ec c2 be
       -0.25409484 -0.731798 0.0019726385 -0.38071132
0000c0 67 7f 43 be 95 04 bb be 8e 7b 7f be 61 03 96 be
       -0.19091569 -0.36526933 -0.24949476 -0.29299453
0000d0 14 55 8c be 4d f3 8b be 99 1b da be d7 78 97 be
       -0.2740866 -0.2733406 -0.4259918 -0.2958438
0000e0 61 63 97 be a0 7f 30 be a1 d6 6c be f8 07 8a be
       -0.29568008 -0.17236185 -0.2312875 -0.26959205
0000f0 3d 4b 87 be b7 59 42 be bf 49 f6 3e a4 e6 94 be
       -0.2642459 -0.18979536 0.4810314 -0.29082215
000100 a6 9d aa be d1 6a cb 3e db 9f 01 be a3 65 83 be
       -0.333234 0.39729932 -0.12658636 -0.2566348
000110 3f 63 76 be b0 ba 3f be 8c e8 85 3e f5 bf 93 be
       -0.24061297 -0.1872356 0.26153982 -0.2885739
000120 d0 65 60 be 22 06 e0 be 22 36 a9 ba 7f d6 42 be
       -0.21913838 -0.4375468 -0.001290981 -0.19027136
000130 cf d0 d0 3e 23 58 f6 bd 00 4c 78 be 58 0d a2 be
       0.40784308 -0.120285295 -0.24247742 -0.31650805
000140 a9 10 f8 bd 8b 35 0b 3f 54 e7 cc 3b df 3c 7d be
       -0.12112553 0.54378575 0.0062531624 -0.24730252
000150 40 fa a6 be 72 a4 a6 bd 36 68 08 3f 0f 2c 94 be
       -0.326128 -0.08136834 0.53284013 -0.28939864
000160 76 b7 5d be 03 b9 54 be 37 df d7 be fe 3e b7 be
       -0.21652016 -0.20773701 -0.42162487 -0.35790247
000170 39 c4 11 3f 9d 44 0e be 3c da 7b be 63 fb 9e be
       0.56940037 -0.13893361 -0.24594969 -0.31051168
000180 b7 2c 8c 3e a3 87 bd bb 61 ba b5 3e ce 47 b4 be
       0.27377865 -0.0057839914 0.35493758 -0.35211033

grad_avg f4 [494, 7]
000000 00 00 00 00 00 00 00 00 00 00 00 00 00 00 00 00
       0.0 0.0 0.0 0.0
000010 00 00 00 00 00 00 00 00 00 00 00 00 00 00 00 00
       0.0 0.0 0.0 0.0
000020 00 00 00 00 00 00 00 00 00 00 00 00 00 00 00 00
       0.0 0.0 0.0 0.0
000030 00 00 00 00 00 00 00 00 00 00 00 00 00 00 00 00
       0.0 0.0 0.0 0.0
000040 00 00 00 00 00 00 00 00 00 00 00 00 00 00 00 00
       0.0 0.0 0.0 0.0
000050 00 00 00 00 00 00 00 00 00 00 00 00 00 00 00 00
       0.0 0.0 0.0 0.0
000060 00 00 00 00 00 00 00 00 00 00 00 00 00 00 00 00
       0.0 0.0 0.0 0.0
000070 00 00 00 00 00 00 00 00 00 00 00 00 00 00 00 00
       0.0 0.0 0.0 0.0
000080 00 00 00 00 00 00 00 00 00 00 00 00 00 00 00 00
       0.0 0.0 0.0 0.0
000090 00 00 00 00 00 00 00 00 00 00 00 00 00 00 00 00
       0.0 0.0 0.0 0.0
0000a0 00 00 00 00 00 00 00 00 00 00 00 00 00 00 00 00
       0.0 0.0 0.0 0.0
0000b0 00 00 00 00 00 00 00 00 00 00 00 00 00 00 00 00
       0.0 0.0 0.0 0.0
0000c0 00 00 00 00 00 00 00 00 00 00 00 00 00 00 00 00
       0.0 0.0 0.0 0.0
0000d0 00 00 00 00 00 00 00 00 00 00 00 00 00 00 00 00
       0.0 0.0 0.0 0.0
0000e0 00 00 00 00 00 00 00 00 00 00 00 00 00 00 00 00
       0.0 0.0 0.0 0.0
0000f0 00 00 00 00 00 00 00 00 00 00 00 00 00 00 00 00
       0.0 0.0 0.0 0.0
000100 00 00 00 00 00 00 00 00 00 00 00 00 00 00 00 00
       0.0 0.0 0.0 0.0
000110 00 00 00 00 00 00 00 00 00 00 00 00 00 00 00 00
       0.0 0.0 0.0 0.0
000120 00 00 00 00 00 00 00 00 00 00 00 00 00 00 00 00
       0.0 0.0 0.0 0.0
000130 00 00 00 00 00 00 00 00 00 00 00 00 00 00 00 00
       0.0 0.0 0.0 0.0
000140 00 00 00 00 00 00 00 00 00 00 00 00 00 00 00 00
       0.0 0.0 0.0 0.0
000150 00 00 00 00 00 00 00 00 00 00 00 00 00 00 00 00
       0.0 0.0 0.0 0.0
000160 00 00 00 00 00 00 00 00 00 00 00 00 00 00 00 00
       0.0 0.0 0.0 0.0
000170 00 00 00 00 00 00 00 00 00 00 00 00 00 00 00 00
       0.0 0.0 0.0 0.0
000180 00 00 00 00 00 00 00 00 00 00 00 00 00 00 00 00
       0.0 0.0 0.0 0.0
000190 00 00 00 00 00 00 00 00 00 00 00 00 00 00 00 00
       0.0 0.0 0.0 0.0
0001a0 00 00 00 00 00 00 00 00 00 00 00 00 00 00 00 00
       0.0 0.0 0.0 0.0
0001b0 00 00 00 00 00 00 00 00 00 00 00 00 00 00 00 00
       0.0 0.0 0.0 0.0
0001c0 00 00 00 00 00 00 00 00 00 00 00 00 00 00 00 00
       0.0 0.0 0.0 0.0
0001d0 00 00 00 00 00 00 00 00 00 00 00 00 00 00 00 00
       0.0 0.0 0.0 0.0
0001e0 00 00 00 00 00 00 00 00 00 00 00 00 00 00 00 00
       0.0 0.0 0.0 0.0
0001f0 00 00 00 00 00 00 00 00 00 00 00 00 00 00 00 00
       0.0 0.0 0.0 0.0
000200 00 00 00 00 00 00 00 00 00 00 00 00 00 00 00 00
       0.0 0.0 0.0 0.0
000210 00 00 00 00 00 00 00 00 00 00 00 00 00 00 00 00
       0.0 0.0 0.0 0.0
000220 00 00 00 00 00 00 00 00 00 00 00 00 00 00 00 00
       0.0 0.0 0.0 0.0
000230 00 00 00 00 00 00 00 00 00 00 00 00 00 00 00 00
       0.0 0.0 0.0 0.0
000240 00 00 00 00 00 00 00 00 00 00 00 00 00 00 00 00
       0.0 0.0 0.0 0.0
000250 00 00 00 00 00 00 00 00 00 00 00 00 00 00 00 00
       0.0 0.0 0.0 0.0
000260 00 00 00 00 00 00 00 00 00 00 00 00 00 00 00 00
       0.0 0.0 0.0 0.0
000270 00 00 00 00 00 00 00 00 00 00 00 00 00 00 00 00
       0.0 0.0 0.0 0.0
000280 00 00 00 00 00 00 00 00 00 00 00 00 00 00 00 00
       0.0 0.0 0.0 0.0
000290 00 00 00 00 00 00 00 00 00 00 00 00 00 00 00 00
       0.0 0.0 0.0 0.0
0002a0 00 00 00 00 00 00 00 00 00 00 00 00 00 00 00 00
       0.0 0.0 0.0 0.0
0002b0 00 00 00 00 00 00 00 00 00 00 00 00 00 00 00 00
       0.0 0.0 0.0 0.0
0002c0 00 00 00 00 00 00 00 00 00 00 00 00 00 00 00 00
       0.0 0.0 0.0 0.0
0002d0 00 00 00 00 00 00 00 00 00 00 00 00 00 00 00 00
       0.0 0.0 0.0 0.0
0002e0 00 00 00 00 00 00 00 00 00 00 00 00 00 00 00 00
       0.0 0.0 0.0 0.0
0002f0 00 00 00 00 00 00 00 00 00 00 00 00 00 00 00 00
       0.0 0.0 0.0 0.0
000300 00 00 00 00 00 00 00 00 00 00 00 00 00 00 00 00
       0.0 0.0 0.0 0.0
000310 00 00 00 00 00 00 00 00 00 00 00 00 00 00 00 00
       0.0 0.0 0.0 0.0
000320 00 00 00 00 00 00 00 00 00 00 00 00 00 00 00 00
       0.0 0.0 0.0 0.0
000330 00 00 00 00 00 00 00 00 00 00 00 00 00 00 00 00
       0.0 0.0 0.0 0.0
000340 00 00 00 00 00 00 00 00 00 00 00 00 00 00 00 00
       0.0 0.0 0.0 0.0
000350 00 00 00 00 00 00 00 00 00 00 00 00 00 00 00 00
       0.0 0.0 0.0 0.0
000360 00 00 00 00 00 00 00 00 00 00 00 00 00 00 00 00
       0.0 0.0 0.0 0.0
000370 00 00 00 00 00 00 00 00 00 00 00 00 00 00 00 00
       0.0 0.0 0.0 0.0
000380 00 00 00 00 00 00 00 00 00 00 00 00 00 00 00 00
       0.0 0.0 0.0 0.0
000390 00 00 00 00 00 00 00 00 00 00 00 00 00 00 00 00
       0.0 0.0 0.0 0.0
0003a0 00 00 00 00 00 00 00 00 00 00 00 00 00 00 00 00
       0.0 0.0 0.0 0.0
0003b0 00 00 00 00 00 00 00 00 00 00 00 00 00 00 00 00
       0.0 0.0 0.0 0.0
0003c0 00 00 00 00 00 00 00 00 00 00 00 00 00 00 00 00
       0.0 0.0 0.0 0.0
0003d0 00 00 00 00 00 00 00 00 00 00 00 00 00 00 00 00
       0.0 0.0 0.0 0.0
0003e0 00 00 00 00 00 00 00 00 00 00 00 00 00 00 00 00
       0.0 0.0 0.0 0.0
0003f0 00 00 00 00 00 00 00 00 00 00 00 00 00 00 00 00
       0.0 0.0 0.0 0.0

sqr_avg f4 [494, 7]
000000 00 00 00 00 00 00 00 00 00 00 00 00 00 00 00 00
       0.0 0.0 0.0 0.0
000010 00 00 00 00 00 00 00 00 00 00 00 00 00 00 00 00
       0.0 0.0 0.0 0.0
000020 00 00 00 00 00 00 00 00 00 00 00 00 00 00 00 00
       0.0 0.0 0.0 0.0
000030 00 00 00 00 00 00 00 00 00 00 00 00 00 00 00 00
       0.0 0.0 0.0 0.0
000040 00 00 00 00 00 00 00 00 00 00 00 00 00 00 00 00
       0.0 0.0 0.0 0.0
000050 00 00 00 00 00 00 00 00 00 00 00 00 00 00 00 00
       0.0 0.0 0.0 0.0
000060 00 00 00 00 00 00 00 00 00 00 00 00 00 00 00 00
       0.0 0.0 0.0 0.0
000070 00 00 00 00 00 00 00 00 00 00 00 00 00 00 00 00
       0.0 0.0 0.0 0.0
000080 00 00 00 00 00 00 00 00 00 00 00 00 00 00 00 00
       0.0 0.0 0.0 0.0
000090 00 00 00 00 00 00 00 00 00 00 00 00 00 00 00 00
       0.0 0.0 0.0 0.0
0000a0 00 00 00 00 00 00 00 00 00 00 00 00 00 00 00 00
       0.0 0.0 0.0 0.0
0000b0 00 00 00 00 00 00 00 00 00 00 00 00 00 00 00 00
       0.0 0.0 0.0 0.0
0000c0 00 00 00 00 00 00 00 00 00 00 00 00 00 00 00 00
       0.0 0.0 0.0 0.0
0000d0 00 00 00 00 00 00 00 00 00 00 00 00 00 00 00 00
       0.0 0.0 0.0 0.0
0000e0 00 00 00 00 00 00 00 00 00 00 00 00 00 00 00 00
       0.0 0.0 0.0 0.0
0000f0 00 00 00 00 00 00 00 00 00 00 00 00 00 00 00 00
       0.0 0.0 0.0 0.0
000100 00 00 00 00 00 00 00 00 00 00 00 00 00 00 00 00
       0.0 0.0 0.0 0.0
000110 00 00 00 00 00 00 00 00 00 00 00 00 00 00 00 00
       0.0 0.0 0.0 0.0
000120 00 00 00 00 00 00 00 00 00 00 00 00 00 00 00 00
       0.0 0.0 0.0 0.0
000130 00 00 00 00 00 00 00 00 00 00 00 00 00 00 00 00
       0.0 0.0 0.0 0.0
000140 00 00 00 00 00 00 00 00 00 00 00 00 00 00 00 00
       0.0 0.0 0.0 0.0
000150 00 00 00 00 00 00 00 00 00 00 00 00 00 00 00 00
       0.0 0.0 0.0 0.0
000160 00 00 00 00 00 00 00 00 00 00 00 00 00 00 00 00
       0.0 0.0 0.0 0.0
000170 00 00 00 00 00 00 00 00 00 00 00 00 00 00 00 00
       0.0 0.0 0.0 0.0
000180 00 00 00 00 00 00 00 00 00 00 00 00 00 00 00 00
       0.0 0.0 0.0 0.0
000190 00 00 00 00 00 00 00 00 00 00 00 00 00 00 00 00
       0.0 0.0 0.0 0.0
0001a0 00 00 00 00 00 00 00 00 00 00 00 00 00 00 00 00
       0.0 0.0 0.0 0.0
0001b0 00 00 00 00 00 00 00 00 00 00 00 00 00 00 00 00
       0.0 0.0 0.0 0.0
0001c0 00 00 00 00 00 00 00 00 00 00 00 00 00 00 00 00
       0.0 0.0 0.0 0.0
0001d0 00 00 00 00 00 00 00 00 00 00 00 00 00 00 00 00
       0.0 0.0 0.0 0.0
0001e0 00 00 00 00 00 00 00 00 00 00 00 00 00 00 00 00
       0.0 0.0 0.0 0.0
0001f0 00 00 00 00 00 00 00 00 00 00 00 00 00 00 00 00
       0.0 0.0 0.0 0.0
000200 00 00 00 00 00 00 00 00 00 00 00 00 00 00 00 00
       0.0 0.0 0.0 0.0
000210 00 00 00 00 00 00 00 00 00 00 00 00 00 00 00 00
       0.0 0.0 0.0 0.0
000220 00 00 00 00 00 00 00 00 00 00 00 00 00 00 00 00
       0.0 0.0 0.0 0.0
000230 00 00 00 00 00 00 00 00 00 00 00 00 00 00 00 00
       0.0 0.0 0.0 0.0
000240 00 00 00 00 00 00 00 00 00 00 00 00 00 00 00 00
       0.0 0.0 0.0 0.0
000250 00 00 00 00 00 00 00 00 00 00 00 00 00 00 00 00
       0.0 0.0 0.0 0.0
000260 00 00 00 00 00 00 00 00 00 00 00 00 00 00 00 00
       0.0 0.0 0.0 0.0
000270 00 00 00 00 00 00 00 00 00 00 00 00 00 00 00 00
       0.0 0.0 0.0 0.0
000280 00 00 00 00 00 00 00 00 00 00 00 00 00 00 00 00
       0.0 0.0 0.0 0.0
000290 00 00 00 00 00 00 00 00 00 00 00 00 00 00 00 00
       0.0 0.0 0.0 0.0
0002a0 00 00 00 00 00 00 00 00 00 00 00 00 00 00 00 00
       0.0 0.0 0.0 0.0
0002b0 00 00 00 00 00 00 00 00 00 00 00 00 00 00 00 00
       0.0 0.0 0.0 0.0
0002c0 00 00 00 00 00 00 00 00 00 00 00 00 00 00 00 00
       0.0 0.0 0.0 0.0
0002d0 00 00 00 00 00 00 00 00 00 00 00 00 00 00 00 00
       0.0 0.0 0.0 0.0
0002e0 00 00 00 00 00 00 00 00 00 00 00 00 00 00 00 00
       0.0 0.0 0.0 0.0
0002f0 00 00 00 00 00 00 00 00 00 00 00 00 00 00 00 00
       0.0 0.0 0.0 0.0
000300 00 00 00 00 00 00 00 00 00 00 00 00 00 00 00 00
       0.0 0.0 0.0 0.0
000310 00 00 00 00 00 00 00 00 00 00 00 00 00 00 00 00
       0.0 0.0 0.0 0.0
000320 00 00 00 00 00 00 00 00 00 00 00 00 00 00 00 00
       0.0 0.0 0.0 0.0
000330 00 00 00 00 00 00 00 00 00 00 00 00 00 00 00 00
       0.0 0.0 0.0 0.0
000340 00 00 00 00 00 00 00 00 00 00 00 00 00 00 00 00
       0.0 0.0 0.0 0.0
000350 00 00 00 00 00 00 00 00 00 00 00 00 00 00 00 00
       0.0 0.0 0.0 0.0
000360 00 00 00 00 00 00 00 00 00 00 00 00 00 00 00 00
       0.0 0.0 0.0 0.0
000370 00 00 00 00 00 00 00 00 00 00 00 00 00 00 00 00
       0.0 0.0 0.0 0.0
000380 00 00 00 00 00 00 00 00 00 00 00 00 00 00 00 00
       0.0 0.0 0.0 0.0
000390 00 00 00 00 00 00 00 00 00 00 00 00 00 00 00 00
       0.0 0.0 0.0 0.0
0003a0 00 00 00 00 00 00 00 00 00 00 00 00 00 00 00 00
       0.0 0.0 0.0 0.0
0003b0 00 00 00 00 00 00 00 00 00 00 00 00 00 00 00 00
       0.0 0.0 0.0 0.0
0003c0 00 00 00 00 00 00 00 00 00 00 00 00 00 00 00 00
       0.0 0.0 0.0 0.0
0003d0 00 00 00 00 00 00 00 00 00 00 00 00 00 00 00 00
       0.0 0.0 0.0 0.0
0003e0 00 00 00 00 00 00 00 00 00 00 00 00 00 00 00 00
       0.0 0.0 0.0 0.0
0003f0 00 00 00 00 00 00 00 00 00 00 00 00 00 00 00 00
       0.0 0.0 0.0 0.0

grad_avg f4 [100, 14]
000000 74 73 68 bc 6e 79 33 bd 28 fc 91 3c 8b b7 da 3b
       -0.014187682 -0.043816976 0.017820433 0.006674712
000010 a9 23 1b ba b6 42 87 39 2e 3f 52 bc 85 da 9a bb
       -0.00059180945 0.0002579891 -0.012832446 -0.0047257566
000020 4a 2a e0 3b 2c 3c 33 3b 87 48 45 bc db b9 a3 3b
       0.0068409787 0.0027349098 -0.012041218 0.004996521
000030 45 23 47 bc b1 4e 69 bc e6 89 08 bb fe 71 e8 3b
       -0.012154405 -0.014239953 -0.0020834147 0.007093667
000040 8a 74 bb bb 03 c7 83 bb 5c 6e 20 3c ae 5e ca 3b
       -0.0057206796 -0.004021527 0.009791937 0.0061758375
000050 dd 91 3b 3b c6 d1 5f bb 39 2c 6b ba a9 6f e5 ba
       0.0028620877 -0.0034152134 -0.0008971128 -0.0017504591
000060 79 d0 56 3c 9c 19 37 ba ea aa ca 3b c9 5d 0c bb
       0.013111227 -0.0006984712 0.0061849253 -0.0021418205
000070 05 2e a4 bb 6b c9 73 bb aa 60 27 3c c3 df 8f 3b
       -0.005010369 -0.0037198912 0.010215918 0.004390688
000080 0b 8a ba 3b 1b 8e eb bb f8 71 2b bc bb 6f 31 bc
       0.0056927255 -0.007188571 -0.010464184 -0.010829861
000090 e5 56 bb ba 89 4a fc 3b 87 ad 18 bc ae 27 fb 39
       -0.0014292864 0.007699315 -0.009318716 0.00047904014
0000a0 98 76 46 b9 b6 0c 44 bb 3f 17 b4 ba 79 b2 2e bb
       -0.00018926931 -0.0029914803 -0.0013739838 -0.002665667
0000b0 dd 9e 11 bc 34 c6 b9 bb 83 ac 22 3c d5 49 9a 3b
       -0.008887974 -0.0056693796 0.009928825 0.0047085085
0000c0 09 43 21 3a c8 e1 25 3b b9 51 78 bb c2 d1 bf 3a
       0.00061516516 0.0025311578 -0.0037890507 0.0014634656
0000d0 97 56 8f 3c 0e 96 40 bc cf 4a 1f 3c a7 1d 2a bb
       0.017497344 -0.011754526 0.009722426 -0.0025957616
0000e0 02 b1 99 bc ad 38 c8 bc 08 d9 a6 3c e6 37 08 3c
       -0.018761162 -0.024441088 0.02036716 0.0083141085
0000f0 ce 8e 06 bc 0d fa 21 bc fe c7 d2 3b 09 58 cd bc
       -0.008212758 -0.009886277 0.0064325323 -0.025066392
000100 04 11 8d 3c d8 9b 10 3c bc 33 13 bc f2 0d 36 3c
       0.017220028 0.008826219 -0.008984502 0.011111723
000110 c4 6e 77 bc 33 37 ab ba 88 cf ea bb c7 52 0b 3c
       -0.015102092 -0.0013062715 -0.007165853 0.008503622
000120 72 17 14 bb 87 30 4e bb d5 10 82 b8 c4 2f 9a 3b
       -0.0022596982 -0.003146203 -6.202018e-05 0.004705401
000130 f1 9a bb b9 18 57 17 bc 42 cc 9e 3b 41 a2 cc ba
       -0.0003578286 -0.009237073 0.004846127 -0.001561232
000140 b9 c6 88 3c d8 71 16 bb 62 a8 1a 3a d4 d1 29 3c
       0.01669632 -0.002295604 0.0005899725 0.010364968
000150 0d c3 10 bb a3 af 24 bb 8d 06 c6 bb 95 f8 c7 3a
       -0.0022088916 -0.0025129102 -0.0060432614 0.0015256578
000160 0c bb 14 3a 3a 3b 52 3c 5d d4 9c bb aa a2 85 ba
       0.0005673624 0.0128315035 -0.004786058 -0.0010195572
000170 02 97 b1 3b 1a e7 b0 b9 75 f0 53 3c 5b 71 d1 bb
       0.005419613 -0.0003374152 0.012935747 -0.006391687
000180 6e 1d 8e 3b 88 58 a1 3b 22 fa 7f 3c 13 9c 4b 3c
       0.0043370044 0.004923884 0.015623601 0.012427348
000190 4e a4 9b bb 64 ef f5 bb f9 7a 08 3c 25 ce 13 bb
       -0.0047498113 -0.007505344 0.0083301 -0.0022553292
0001a0 30 ac 1e ba 20 df 35 3c 80 a7 fd bb b0 a9 09 bc
       -0.00060528796 0.01110056 -0.007740915 -0.008402273
0001b0 ea 88 f2 3a 82 fc fe b9 46 d5 0a 3c 9b 21 05 bc
       0.0018503938 -0.00048634788 0.0084737 -0.008125688
0001c0 26 d3 05 3b df 47 2f 3c 76 fc 4e ba c9 fa 99 3a
       0.0020420044 0.010698288 -0.0007895896 0.0011747713
0001d0 0e cc 59 3b c2 a6 a7 bb 57 3e 1c 3c 79 96 36 3b
       0.0033233198 -0.0051163146 0.009536347 0.0027860685
0001e0 55 09 b2 3b ae c7 8a 3a ef fb 85 3c 0e f2 2d 3b
       0.0054332414 0.0010588074 0.016355483 0.002654198
0001f0 38 db 09 3c 00 d3 ed ba 04 00 00 00 04 00 00 00
       0.008414082 -0.0018144548 6e-45 6e-45
000200 04 00 00 80 04 00 00 80 04 00 00 80 04 00 00 80
       -6e-45 -6e-45 -6e-45 -6e-45
000210 04 00 00 00 04 00 00 80 04 00 00 80 04 00 00 00
       6e-45 -6e-45 -6e-45 6e-45
000220 04 00 00 80 04 00 00 00 04 00 00 00 04 00 00 00
       -6e-45 6e-45 6e-45 6e-45
000230 03 00 00 80 03 00 00 80 03 00 00 80 03 00 00 80
       -4e-45 -4e-45 -4e-45 -4e-45
000240 03 00 00 80 03 00 00 80 03 00 00 00 03 00 00 00
       -4e-45 -4e-45 4e-45 4e-45
000250 03 00 00 80 03 00 00 00 03 00 00 00 03 00 00 00
       -4e-45 4e-45 4e-45 4e-45
000260 03 00 00 00 03 00 00 00 03 00 00 80 03 00 00 00
       4e-45 4e-45 -4e-45 4e-45
000270 03 00 00 00 03 00 00 00 03 00 00 80 03 00 00 00
       4e-45 4e-45 -4e-45 4e-45
000280 03 00 00 80 03 00 00 00 03 00 00 00 03 00 00 00
       -4e-45 4e-45 4e-45 4e-45
000290 03 00 00 80 03 00 00 00 03 00 00 80 03 00 00 00
       -4e-45 4e-45 -4e-45 4e-45
0002a0 f8 fb 78 3b f6 30 5f 3c 0d 0b 2d bc 6d aa 53 bb
       0.0037991982 0.013622513 -0.010561717 -0.0032297627
0002b0 29 75 84 3b 92 53 1d 3b dc 7a 06 bb 9d 66 f2 ba
       0.004042287 0.002400611 -0.0020520007 -0.0018493716
0002c0 96 37 74 bb ab cb b1 bb 3f e1 af 3b 6d 4c c2 bb
       -0.0037264577 -0.0054258904 0.0053674276 -0.005929521
0002d0 a0 15 a4 3b b6 ca 23 3c 19 ea b7 bc 2b b7 cf bc
       0.0050074607 0.0099970605 -0.022450494 -0.025355896
0002e0 f2 8b 36 3c 98 04 bd ba 1d c7 1c bb f7 58 4d bb
       0.011141764 -0.0014420925 -0.0023922392 -0.0031333545
0002f0 c9 5d 1f bc 3c fc b7 bb 50 93 6d 3a 31 5c 13 3c
       -0.00972695 -0.0056147855 0.0009062784 0.008994148
000300 d6 d7 d1 bb fb d1 13 3b bc 6c a7 bc 67 e2 65 bc
       -0.0064039035 0.0022555578 -0.02043759 -0.014031029
000310 03 00 00 00 03 00 00 80 03 00 00 00 03 00 00 80
       4e-45 -4e-45 4e-45 -4e-45
000320 03 00 00 00 03 00 00 80 03 00 00 00 03 00 00 00
       4e-45 -4e-45 4e-45 4e-45
000330 03 00 00 00 03 00 00 80 03 00 00 00 03 00 00 80
       4e-45 -4e-45 4e-45 -4e-45
000340 03 00 00 80 03 00 00 00 47 18 ed 3b 0b 7f a8 3b
       -4e-45 4e-45 0.00723556 0.005142098
000350 ba 8c 14 bc b3 81 f9 bb 44 4d 51 3a 42 f7 70 b8
       -0.009066755 -0.0076143383 0.0007984231 -5.7450736e-05
000360 07 7c ad bb 2b 7a 01 bb cf 1a 33 3a 02 a5 19 bc
       -0.005294326 -0.0019756656 0.0006832303 -0.00937772
000370 72 ec 66 3c 4a f1 de bb 68 e6 b6 3b 4b 1a 4c bb
       0.014094459 -0.0068036662 0.005581666 -0.0031143602
000380 bf dd bb 3b b1 1b 68 3c 79 d8 7c ba 7b c2 70 ba
       0.0057332213 0.014166758 -0.0009645294 -0.0009184253
000390 d3 83 5d b9 a0 2e 5c 3b 4e 12 7f 3c 82 a3 58 3b
       -0.00021125311 0.0033597127 0.015568329 0.0033056443
0003a0 ec 8c 7d 3a 11 68 d2 bb 55 ce 89 3c 4a 04 50 3c
       0.0009672183 -0.006421097 0.01682202 0.012696335
0003b0 11 19 73 3c 93 37 9e 3b 2f a9 1a bc b8 1a bb bc
       0.014837519 0.0048284023 -0.009439751 -0.022839889
0003c0 ec 0b 33 3c 85 ad a6 bb 4e fe 80 bc 7d aa 5d bc
       0.010928135 -0.005086603 -0.015746262 -0.013529417
0003d0 ac 29 eb bb 78 fd 5f bc 2c 1f f1 3b 85 98 3d 3c
       -0.0071765985 -0.0136712715 0.0073584523 0.011572008
0003e0 dd 47 e8 bc 55 0a 49 3b dc 96 9e bc 90 fb 4a 3c
       -0.02835458 0.0030676324 -0.019359045 0.012389079
0003f0 8a e5 d3 3b 9e 18 ba 3b a7 8e 4d bb 20 05 35 bb
       0.006466572 0.005679204 -0.0031365545 -0.0027621463

sqr_avg f4 [100, 14]
000000 ad a4 58 3c e8 a4 66 3c c2 ef 61 3c 78 51 75 3c
       0.0132228555 0.014077403 0.013790073 0.014973037
000010 71 93 62 3c ab 23 4a 3c 9b d1 66 3c 6a 8b 7a 3c
       0.013829098 0.0123376055 0.01408806 0.015292028
000020 6e c4 49 3c 24 f5 6f 3c 28 6e 64 3c 20 5a 73 3c
       0.012314899 0.014645848 0.013942279 0.01485303
000030 a6 d0 6e 3c d9 85 57 3c f5 0d 21 3b 13 a5 23 3b
       0.014576113 0.01315447 0.002457497 0.0024970218
000040 84 d8 2f 3b b0 0f 1d 3b 84 ca 2f 3b ad 9c 1b 3b
       0.0026831934 0.002396565 0.002682359 0.002374451
000050 1a 31 1d 3b a0 9a 25 3b 8c 72 1f 3b 82 66 37 3b
       0.0023985566 0.0025269166 0.002432975 0.0027984683
000060 80 45 24 3b 19 ce 3d 3b 65 b1 05 3b fb 03 20 3b
       0.002506584 0.0028961955 0.0020399925 0.0024416435
000070 16 cb 42 3b 84 74 3f 3b 7e a1 3b 3b 9e d6 39 3b
       0.00297231 0.0029213736 0.0028630192 0.0028356682
000080 ae 62 42 3b 9b 98 43 3b 9b 66 56 3b 02 4f 71 3b
       0.0029660868 0.0029845599 0.0032714966 0.0036820774
000090 37 52 3a 3b d1 f8 43 3b c2 9e 59 3b fd fb 44 3b
       0.0028430352 0.0029902945 0.00332062 0.0030057423
0000a0 58 1a 3e 3b 98 f1 44 3b ad 44 39 3b aa b3 42 3b
       0.0029007401 0.0030051228 0.0028269694 0.002970914
0000b0 c7 f7 44 3b d0 42 3e 3b 38 e4 3f 3b eb 30 79 3b
       0.0030054913 0.0029031523 0.0029280316 0.0038023542
0000c0 cd 83 23 3b 24 13 3b 3b 27 59 1c 3b a3 d4 58 3b
       0.0024950386 0.0028545344 0.002385685 0.0033085726
0000d0 f0 5b 50 3b 93 c3 40 3b d2 33 3b 3b 4f 9a 50 3b
       0.003179308 0.0029413446 0.0028564823 0.0031830256
0000e0 97 10 e1 3b 3d 08 f2 3b 65 e9 f3 3b 5a 25 01 3c
       0.0068684327 0.007386236 0.0074435943 0.00788244
0000f0 f0 be c4 3b f8 1d f0 3b af 72 fc 3b 73 c9 01 3c
       0.006004207 0.0073277913 0.007704101 0.007921564
000100 da 75 d7 3b af 03 ef 3b 0f 77 f6 3b d0 05 f0 3b
       0.0065753283 0.0072941403 0.007521517 0.0073249117
000110 46 f7 01 3c 90 44 e0 3b 61 28 17 3b c9 67 00 3b
       0.00793249 0.006844111 0.002306484 0.001959311
000120 7e bf 13 3b 33 6e 00 3b 6f 22 13 3b 58 23 1c 3b
       0.0022544558 0.0019596934 0.0022450944 0.0023824777
000130 94 b0 1f 3b a5 e7 db 3a a2 2b 2b 3b a1 a6 1c 3b
       0.0024366723 0.001677741 0.0026118536 0.002390303
000140 7e d4 0d 3b a8 3c ff 3a bc 42 15 3b 9e 83 03 3b
       0.0021641548 0.0019473033 0.0022775372 0.0020067464
000150 da 78 36 3b 0d 94 47 3b 64 d1 47 3b 4a ac 60 3b
       0.002784303 0.0030453235 0.0030489797 0.003428238
000160 e1 c6 38 3b e6 b0 64 3b df e8 59 3b ce 74 47 3b
       0.0028194713 0.0034895479 0.0033250374 0.0030434611
000170 63 72 18 3b 61 37 66 3b 23 7d 54 3b 4c 87 47 3b
       0.002326154 0.0035128223 0.003242322 0.0030445633
000180 5d 64 62 3b c7 26 49 3b 91 c5 01 3b e6 88 0b 3b
       0.0034544684 0.003069328 0.0019801597 0.0021291315
000190 b6 90 15 3b 00 ac 26 3b e6 aa 09 3b 97 9e 1f 3b
       0.002282185 0.002543211 0.0021006404 0.0024356002
0001a0 17 ec 1a 3b 47 ee 24 3b 24 9c 0c 3b cc d9 2a 3b
       0.0023639256 0.0025166438 0.0021455372 0.0026069758
0001b0 0c c1 15 3b 7c dd 0d 3b 74 b8 26 3b 52 86 00 3b
       0.002285066 0.0021646908 0.0025439532 0.001961131
0001c0 2d c7 d3 3a 8f ee da 3a c1 f8 0a 3b a6 b0 d5 3a
       0.0016157381 0.0016703176 0.0021205398 0.0016303256
0001d0 ea 64 fa 3a d5 bc e9 3a 3e bb 07 3b 4f 00 e8 3a
       0.0019103561 0.0017832766 0.002071097 0.0017700287
0001e0 5f ed cd 3a 2d 48 e1 3a a3 b3 0d 3b 8b 32 de 3a
       0.0015711001 0.0017187648 0.0021621964 0.0016952319
0001f0 41 8f d5 3a 34 49 bf 3a 32 00 00 00 32 00 00 00
       0.0016293303 0.001459396 7e-44 7e-44
000200 32 00 00 00 32 00 00 00 32 00 00 00 32 00 00 00
       7e-44 7e-44 7e-44 7e-44
000210 32 00 00 00 32 00 00 00 32 00 00 00 32 00 00 00
       7e-44 7e-44 7e-44 7e-44
000220 32 00 00 00 32 00 00 00 32 00 00 00 32 00 00 00
       7e-44 7e-44 7e-44 7e-44
000230 32 00 00 00 32 00 00 00 32 00 00 00 32 00 00 00
       7e-44 7e-44 7e-44 7e-44
000240 32 00 00 00 32 00 00 00 32 00 00 00 32 00 00 00
       7e-44 7e-44 7e-44 7e-44
000250 32 00 00 00 32 00 00 00 32 00 00 00 32 00 00 00
       7e-44 7e-44 7e-44 7e-44
000260 32 00 00 00 32 00 00 00 32 00 00 00 32 00 00 00
       7e-44 7e-44 7e-44 7e-44
000270 32 00 00 00 32 00 00 00 32 00 00 00 32 00 00 00
       7e-44 7e-44 7e-44 7e-44
000280 32 00 00 00 32 00 00 00 32 00 00 00 32 00 00 00
       7e-44 7e-44 7e-44 7e-44
000290 32 00 00 00 32 00 00 00 32 00 00 00 32 00 00 00
       7e-44 7e-44 7e-44 7e-44
0002a0 d3 41 dd 3a 76 e6 01 3b cf 9f f5 3a ec 1a 01 3b
       0.0016880579 0.0019821203 0.0018739643 0.0019699885
0002b0 92 54 cf 3a 46 5a fb 3a 5c 84 06 3b 1e 74 f3 3a
       0.0015818051 0.0019176684 0.002052567 0.0018574034
0002c0 d1 aa b4 3a 57 c3 03 3b dc 27 f2 3a 41 9d e8 3a
       0.0013783817 0.0020105445 0.0018475014 0.0017747061
0002d0 d9 07 dd 3a 09 c4 f9 3a c3 ab 08 3c 01 d3 f7 3b
       0.0016863301 0.0019055615 0.008341732 0.0075629954
0002e0 17 ce fb 3b 6c 95 1d 3c 8c d7 f7 3b 81 f5 fe 3b
       0.00768448 0.0096181445 0.007563537 0.007780731
0002f0 b7 56 00 3c c3 29 e5 3b ef bc fc 3b ae ef 05 3c
       0.007833174 0.006993504 0.0077129523 0.00817482
000300 74 52 0b 3c 53 c7 f5 3b 83 66 04 3c a4 0e ec 3b
       0.008503545 0.007500568 0.008081081 0.0072038937
000310 32 00 00 00 32 00 00 00 32 00 00 00 32 00 00 00
       7e-44 7e-44 7e-44 7e-44
000320 32 00 00 00 32 00 00 00 32 00 00 00 32 00 00 00
       7e-44 7e-44 7e-44 7e-44
000330 32 00 00 00 32 00 00 00 32 00 00 00 32 00 00 00
       7e-44 7e-44 7e-44 7e-44
000340 32 00 00 00 32 00 00 00 77 86 eb 3a ba 24 0e 3b
       7e-44 7e-44 0.0017969151 0.0021689371
000350 ff 39 03 3b 66 21 07 3b 5f 46 f6 3a c4 27 f7 3a
       0.0020023582 0.0020619272 0.0018789283 0.0018856456
000360 22 71 03 3b e2 ac 09 3b f4 7e e7 3a 2d 3b 0f 3b
       0.0020056446 0.0021007587 0.0017661736 0.002185534
000370 66 20 fa 3a 15 ad df 3a d0 21 f1 3a f1 1a 02 3b
       0.0019083142 0.0017065132 0.0018396918 0.0019852484
000380 88 cc 30 3b be b5 27 3b a8 1e 4b 3b 03 a9 41 3b
       0.002697738 0.0025590505 0.0030993614 0.0029550202
000390 6c fc 35 3b 30 fd 3f 3b 2d 75 63 3b ed 7f 5a 3b
       0.0027768863 0.0029295199 0.0034707293 0.003334041
0003a0 e1 12 31 3b c9 49 53 3b 27 7c 44 3b ea d4 42 3b
       0.002701931 0.0032240024 0.0029981227 0.0029728957
0003b0 1e 86 4c 3b d6 e7 1c 3b 54 b2 09 3c 3d f7 09 3c
       0.003120787 0.0023941896 0.008404333 0.008420763
0003c0 ee 09 19 3c 30 e3 15 3c f3 cc 06 3c 17 48 17 3c
       0.009340746 0.009148404 0.008227575 0.009233496
0003d0 cf 39 01 3c 15 ec 27 3c a8 d6 f8 3b 45 02 2c 3c
       0.007887318 0.010249157 0.0075939484 0.010498588
0003e0 98 5d 0c 3c 6c 9d f7 3b 3a bb f5 3b 9a 72 07 3c
       0.008567236 0.007556608 0.007499126 0.008267069
0003f0 c1 82 13 3a ce 4d 0d 3a a7 34 13 3a 7c ba 11 3a
       0.0005627089 0.0005390317 0.0005615451 0.00055590994

grad_avg f4 [100]
000000 ec ff 5a bc 69 ee 18 3c 97 80 01 bc 37 c0 8c bb
       -0.013366681 0.009334185 -0.007904193 -0.0042953747
000010 fb 8e 3b bc 97 28 b4 3b c3 25 02 3c 6b 88 a5 3b
       -0.011447663 0.0054980027 0.007943573 0.0050516627
000020 65 7d 21 3c 04 00 00 00 03 00 00 00 03 00 00 00
       0.009856557 6e-45 4e-45 4e-45
000030 05 79 83 3a 87 31 c9 3a 03 00 00 00 ba bd d7 ba
       0.0010030573 0.0015349843 4e-45 -0.0016459741
000040 4d 0e be 3b 7b 5f 91 bb c8 7b 70 3b f8 6c 84 ba
       0.0058000446 -0.004436431 0.0036694873 -0.0010103276
000050 81 85 c1 bc 59 c1 bf 3b 33 f3 eb bc 67 0c 18 3c
       -0.02362323 0.0058519063 -0.02880249 0.009280301
000060 e8 ae 23 bd f9 8c 1c 3c f2 5d 0b 3b 71 bf e2 3b
       -0.039961725 0.009555095 0.0021265713 0.0069197943
000070 e5 f9 13 3c 03 00 00 00 fe cf 57 3b e6 e9 e4 3b
       0.0090317475 4e-45 0.003293037 0.0069858907
000080 7a e2 b1 3b fe b9 fd 3b 03 00 00 00 b5 8c 1d 3b
       0.0054286094 0.0077431193 4e-45 0.0024040167
000090 db c4 25 3c 03 00 00 00 a6 57 46 3b 05 00 00 00
       0.010117735 4e-45 0.0030264645 7e-45
0000a0 39 61 2b 3c 7f dd 2d 3c ff 9d a0 3b 4b e4 39 3b
       0.010460191 0.010611891 0.004901647 0.0028364833
0000b0 7a 2d cd 39 7b 24 36 3c 03 00 00 00 dc c0 4d 3c
       0.0003913453 0.011117096 4e-45 0.012558188
0000c0 6f 6e 20 3c cb 8c 0c bb fb f6 c9 3b fd 62 7a 3c
       0.009791954 -0.0021446224 0.0061634756 0.01528239
0000d0 b1 eb aa bb 52 6b 78 3c 4b 1a b8 3b 6b b2 64 3c
       -0.005216085 0.015162306 0.0056183687 0.013958554
0000e0 08 8a fe 3b fb 3e aa 3b e5 fa ef 3b ff e1 e1 3b
       0.0077679195 0.005195496 0.00732361 0.006893396
0000f0 9d 27 c2 ba 9c 96 c0 3b 89 48 8d ba 18 d1 41 3b
       -0.0014812831 0.005877329 -0.0010779063 0.0029574092
000100 0c c8 c9 bb d0 3b dc bb d4 a9 9c 3b 34 52 c3 ba
       -0.0061578806 -0.0067209974 0.0047809873 -0.0014901818
000110 22 07 c1 3b 7f 0e 2f 3c 38 a8 90 b9 2a 57 0d 3b
       0.005890743 0.0106846085 -0.00027591153 0.0021566846
000120 ac cf 25 ba 8a a9 7a 3c 03 00 00 00 5d 5b 5a 3c
       -0.0006325196 0.01529921 4e-45 0.013327447
000130 49 87 68 3b 7a a5 77 3b c4 61 73 3b dc 47 28 3b
       0.0035481027 0.003778784 0.003713713 0.0025677597
000140 44 cb bb 39 e0 17 71 3b 03 00 00 00 02 bd e8 3b
       0.00035818864 0.0036787912 4e-45 0.0071026096
000150 94 49 87 3c 94 30 51 3a cb e3 39 3c bd 85 9b 3c
       0.016514577 0.0007979956 0.011345814 0.01898467
000160 46 84 80 39 77 6f ab 3b 3c 48 42 3b 00 79 b6 3b
       0.00024512614 0.0052317935 0.0029645106 0.0055686235
000170 bb ce c4 bb 12 76 5a 3b c4 6b 91 bb dc 8a f5 bb
       -0.0060060895 0.0033334536 -0.0044378955 -0.00749336
000180 b8 f5 9a bc 03 00 00 00 0f c7 f0 bb c8 1e 82 3c
       -0.018915996 4e-45 -0.0073479484 0.015883818

sqr_avg f4 [100]
000000 27 73 80 3c f4 20 2f 3b d2 ed 53 3b 22 71 67 3b
       0.015679909 0.0026722522 0.0032337797 0.0035315235
000010 3a f9 07 3c 38 bc 1e 3b 22 a0 55 3b 3d 08 2a 3b
       0.008299166 0.0024221074 0.0032596667 0.0025944852
000020 b5 39 09 3b 32 00 00 00 32 00 00 00 32 00 00 00
       0.0020938937 7e-44 7e-44 7e-44
000030 a5 af 16 3b e3 b7 13 3c 32 00 00 00 a8 0b 00 3b
       0.0022992876 0.00901601 7e-44 0.0019538198
000040 2e 10 57 3b af b4 18 3c ef ff 1a 3a b3 d5 2b 3b
       0.003281604 0.009320422 0.0005912771 0.0026219904
000050 d5 f4 e3 3b 73 75 9e 3a 60 67 21 3c f3 d8 65 3b
       0.0069566765 0.0012089446 0.009851307 0.0035071939
000060 95 e2 19 3c 1b 94 2a 3b 69 60 fc 3a 5d 87 b4 3a
       0.0093924 0.002602822 0.0019254807 0.0013773252
000070 78 f5 39 3b 32 00 00 00 88 1b 2b 3b bb 28 de 3a
       0.002837507 7e-44 0.002610894 0.0016949394
000080 a3 80 cd 3a c3 82 57 3b 32 00 00 00 38 be a1 3a
       0.0015678596 0.0032884337 7e-44 0.0012340015
000090 9c 78 c4 3a 32 00 00 00 af 2f 0e 3b 75 cb b3 02
       0.0014989558 7e-44 0.0021695902 2.6418465e-37
0000a0 f8 d4 7b 3b c3 3f 3f 3b 05 ca 53 3b 6f a3 83 3b
       0.00384265 0.0029182292 0.0032316458 0.0040172855
0000b0 9b 7d 3f 3b 67 43 9c 3b 32 00 00 00 45 50 23 3b
       0.0029219154 0.004768777 7e-44 0.002491967
0000c0 c9 a7 0c 3b 3d 7e 4b 3b 37 a3 25 3b 1a 90 aa 3b
       0.0021462312 0.0031050586 0.0025274286 0.0052051665
0000d0 0d eb 2d 3b 67 3d 1f 3b c1 41 00 3b 3d de 50 3b
       0.0026537806 0.0024298073 0.0019570442 0.0031870746
0000e0 63 da 73 3b 15 7c d1 3a e8 3f cf 3a 96 49 cd 3a
       0.0037209026 0.0015982414 0.0015811892 0.0015662189
0000f0 1e bf 58 3b 22 da a9 3a 0c 03 56 3b d0 8e 7c 3b
       0.00330729 0.0012958685 0.0032655625 0.0038537271
000100 ef fb 2c 3b a5 66 a0 3b 34 c5 27 3a 59 ed 13 3b
       0.0026395281 0.0048950487 0.000639993 0.002257189
000110 2c 5d 50 3b c4 dc fd 3a 24 fe 65 3b 9d a8 52 3b
       0.0031793816 0.0019368161 0.0035094107 0.0032143958
000120 79 99 da 3a 18 79 0f 3c 32 00 00 00 45 e7 27 3b
       0.0016677818 0.008756898 7e-44 0.0025620025
000130 ec 43 52 3b 87 30 6d 3a f2 49 50 3b 99 c1 0a 3b
       0.0032083942 0.00090480637 0.0031782356 0.0021172522
000140 55 c8 53 3a 94 ec 7f 3c 32 00 00 00 6d 4e 2c 3b
       0.0008078863 0.015620369 7e-44 0.0026291863
000150 3a 8d b2 3b a4 19 ec 39 33 d6 6e 3c d5 45 87 3b
       0.0054489644 0.00045032531 0.014577436 0.0041281977
000160 0a 7b 43 3b f0 fc 0a 3b 85 ca 64 3b 6a e5 51 3b
       0.0029827976 0.0021207891 0.003491075 0.003202761
000170 95 8a 94 3c f5 c3 78 3a 5d 22 15 3b 05 8b a0 3a
       0.018132487 0.0009489649 0.0022756078 0.0012248462
000180 45 24 83 3b 32 00 00 00 1b 6b bc 3b de 2c 82 3b
       0.0040021264 7e-44 0.0057500727 0.0039726337
