trees/save/0.5_5_1000/models/model.pth (torch, 20088 bytes, 12 tensors)

node_factors.weight f4 [494, 1]
00000000: 7fc6 7bba 1792 b73f 1d7e 983f c6eb bd3f
00000010: 94bd 343f 0b0d c73f 1985 6e3f a58d 943f
00000020: 9346 af3f eb25 223f 1bcd 873f 8ede 4a3f
00000030: e61f 0a3f f551 333f f3a3 233f 3a3b b03f
00000040: 71a5 9a3f 53b7 693f 58fd b13e 89f3 963f
00000050: e156 753f e11f 553f 43f2 4f3f 63da c73e
00000060: aad1 cc3e 1d4e 13bf eff1 b83e 5e81 993f
00000070: 79ba 903f 3168 d53e 5f12 263e 1c6f 663d
00000080: 5c29 c13e 63cb 5e3f 8f9f 583f e199 a43f
00000090: b96d 473f 2e81 3b3f a725 9b3f f702 423e
000000a0: 5cc0 823f d6af d13d 4f9b ce3e dbfe 6e3e
000000b0: 8bdf 9a3f 1005 e23d 37b0 9e3f 370a c43e
000000c0: 0940 d83e 82ab 813f 4d7a b33e 619b ee3e
000000d0: 44ad 93bd fe9b 433f 995b 8e3f 1f26 9c3f
000000e0: 7ca1 263e 6a9d 2e3f e1db 8d3e a8e3 203f
000000f0: 3d8b 063e 393d f7be 842b db3d 479d 0bbf
00000100: c542 a43f e5f5 d9bd e22f 883f 99fd abbd
00000110: b29a ba3f bbcf 0a3e 954e 50be 5556 89be
00000120: dd24 4c3e 2462 663e 0af8 1c3e 8da9 c83d
00000130: 4013 8b3f 7260 b03f 9362 7b3f 8992 983f
00000140: 53e0 6c3f 0515 543f 16a7 373f 5afa 1bbe
00000150: 8f45 07be fc1e df3e 1d7b f33e 4a7e 623f
00000160: 91fe 353e ba49 953f b353 b03f 3251 973e
00000170: 96ab 2fbe 38f2 d03e cf9f 783f c8b5 40be
00000180: 12cc 843e 48e9 293f ea67 eb3e be09 873e
00000190: 9137 08be 8340 dabe be30 bb3e 92ac 8a3f
000001a0: f5d6 ec3e 4a48 923f 8f9a 243f b18b 323f
000001b0: ce39 6ebe 7399 b5be 1f6a 72be 1aea 02bf
000001c0: 9f89 893f 4417 1ebf 3904 8d3e bfdd 52be
000001d0: 8fd4 3d3e 50ed 183f 0e5f 783f 5425 2b3f
000001e0: 014b 8f3f c962 203f 443e 8f3f 72f8 983f
000001f0: 0aae 433e dbfd 4fbe ace7 303f a1fc 30be
00000200: deb8 d03d 1666 15bf 38a0 2fbf b3a9 513e
00000210: e16c dbbe 8a5f 5bbe 1292 813f f180 323f
00000220: 11c3 963f 92b1 fbbe 9a6e 9e3e 38ad 15bf
00000230: 1905 c3be 374e cc3e 640a 85be 74b5 1cbf
00000240: c8aa 933e 9737 86be 9297 843e 71b5 5bbe
00000250: ffc7 263e cc63 9b3e f1a2 31bf b4bc 8b3f
00000260: d132 723e b14e 233f f383 773e a7ea 1c3f
00000270: e713 fbbe e92a 5f3e 96f1 ba3e 2b59 0e3e
00000280: ee31 14bf 37e1 c5be eb09 29bf b35a 083f
00000290: d4a9 113e 13c5 ad3d 3494 73bd e50a 113f
000002a0: c016 e53c 46e6 943f dd5c 8d3e 26cf 703f
000002b0: 65b4 3f3f f9c3 053f 8432 af3e 5242 b23e
000002c0: c846 073f 2fae a3be 9981 07bf ce95 26bf
000002d0: a2ce 5d3e 0ea2 3bbf 157b 11bf dd65 8f3e
000002e0: ae22 5f3e b47a 8d3d 9421 a53e 1495 99be
000002f0: 6ce0 8f3f eed1 8e3f eb8b 6e3e e663 e03e
00000300: 71a3 bb3e 317e e63e b60c 653f 24bb b83e
00000310: 8b5e 3c3f c5a0 07bf adff 0bbf 4c53 9f3e
00000320: e295 da3e ffc2 29bf f14b 25bf 4c14 63be
00000330: ef8c 8e3e 6797 2d3e 1f44 83be 13cb 94be
00000340: cf5a 133f 9dfd 903f 843f 113f aa94 863f
00000350: 0f61 f03e a95f 6a3f 330d 6d3d b103 d0bd
00000360: 69c4 c83e f875 d53d fce9 643c 302a 003f
00000370: 53df 123f 5759 4a3d a58c c93e be9e c43e
00000380: 620a a3be 5f0e b83e 2739 8f3e f6cb e3be
00000390: 3785 5d3f 6c00 8c3f b8a8 253f 716a 993f
000003a0: cd90 973e cd48 703e e469 123f 576f 1a3e
000003b0: d338 153f cd4f 1f3e e3f3 bc3d 7bd2 c8be
000003c0: ee25 24be 7f9c 8c3e 7df3 1f3f 5703 04bf
000003d0: bb55 2abf ceb2 09be 4594 d7be ca78 cf3e
000003e0: 0002 3dbf 3a0f 2dbf d23d b6bf 4223 6a3f
000003f0: 1beb 8d3f 7ee5 443f d17e 07bf e6fa d43e
-0.00096044684 1.4341458 1.1913487 1.4837577 0.70601773 1.5550855 0.9317184 1.1605726
1.3693413 0.6333911 1.0609468 0.7924584 0.53954923 0.7004693 0.6392204 1.3768075
1.2081739 0.91295356 0.34763598 1.1793071 0.9583569 0.8325177 0.8122904 0.39033803
0.4000371 -0.57541066 0.3612208 1.1992605 1.1306907 0.41681054 0.16217946 0.056258306
0.37726867 0.87029094 0.8461847 1.285946 0.779018 0.7324399 1.2120866 0.18946443
1.0214953 0.10238616 0.40352866 0.23339407 1.209947 0.11036122 1.2397527 0.38289043
0.42236355 1.0130465 0.35054246 0.4660292 -0.07210782 0.764099 1.1121703 1.2199134
0.16272539 0.68208945 0.27706817 0.62847376 0.13139053 -0.48288897 0.10701659 -0.5453686
1.2832876 -0.10642604 1.0639613 -0.08397979 1.4578459 0.13555805 -0.20342477 -0.2682368
0.19935937 0.22498375 0.15328994 0.09797964 1.086525 1.3779433 0.9819729 1.1919719
0.9252979 0.82844573 0.7173933 -0.1523222 -0.13210128 0.43578327 0.47554865 0.8847395
0.1777289 1.1663125 1.3775543 0.29554135 -0.17155299 0.40809798 0.9711885 -0.18819344
0.25936943 0.66371584 0.45977718 0.2637462 -0.13302447 -0.42627344 0.36560625 1.0833914
0.4625775 1.1428311 0.6429834 0.697444 -0.23264238 -0.35468635 -0.23673294 -0.5113846
1.0745124 -0.6175425 0.27542284 -0.20592402 0.18538116 0.5973711 0.9702004 0.66853833
1.1194764 0.62650734 1.1190877 1.195082 0.1910936 -0.20311682 0.69103503 -0.1728387
0.101915106 -0.58358896 -0.6860385 0.20474891 -0.42856506 -0.21423164 1.0122702 0.69728
1.177828 -0.49158913 0.30943757 -0.58467436 -0.38089827 0.39903423 -0.2598449 -0.61214375
0.28841233 -0.26214287 0.2589689 -0.21455933 0.1628723 0.30349576 -0.69389254 1.0916963
0.23652197 0.6379195 0.24171428 0.6129555 -0.49038622 0.21793713 0.3651244 0.13901202
-0.57888687 -0.38648388 -0.6603076 0.53263396 0.1422494 0.084848545 -0.05946751 0.5665725
0.02796495 1.1632774 0.27609912 0.94066083 0.74884635 0.52252156 0.34218228 0.34816223
0.5284238 -0.3196883 -0.52932125 -0.65072334 0.21660855 -0.7329415 -0.56828433 0.28007403
0.21790573 0.069081694 0.3225218 -0.2999655 1.1240363 1.1157815 0.23295562 0.43826216
0.36648133 0.4501815 0.8947252 0.36080277 0.7358176 -0.5297969 -0.54687005 0.31118238
0.42692477 -0.66313165 -0.64569 -0.22175711 0.278419 0.16952287 -0.2563791 -0.29061183
0.5756044 1.1327397 0.5673754 1.0514119 0.4694905 0.91552216 0.057873916 -0.10156954
0.3921235 0.104228914 0.013971802 0.50064373 0.57372016 0.049401607 0.39365116 0.3840236
-0.3184386 0.35948464 0.2797329 -0.44491547 0.86531395 1.0937629 0.6471057 1.1985608
0.29602662 0.23465271 0.57192826 0.15081535 0.5828983 0.15557785 0.09226205 -0.39223084
-0.16030094 0.27463147 0.6248091 -0.51567596 -0.66537064 -0.13447115 -0.42105308 0.40521842
-0.73831177 -0.6760136 -1.4237616 0.9146005 1.1087373 0.7691268 -0.5292788 0.4159767

layers.0.weight f4 [200, 2]
00000000: b1da c6be 3c00 67be 966b ad3d 882d 7cbd
00000010: 2dfa 33bd 7df1 323d 6036 aebc 840e 59bc
00000020: 8574 f839 7b6f 253b 018b 69bd 34ec 9a3c
00000030: 651b dabe 87d2 12bf 809f 44be ace4 103e
00000040: 7819 f93b b648 af3b 99de 113e 2dfa 00be
00000050: cb56 b837 2631 00ba 6ee2 463f 21ee 33bf
00000060: 2abf 5dbe 5692 6bbe 8db5 3d3b c166 123b
00000070: f03a e53e e1dd e8be af7c 00bd e206 103d
00000080: a3df a9bd ac13 9f3d da10 373f c48c 53bf
00000090: 74ca 9bbf 6255 9d3f 26b5 5cbb a46f 20bb
000000a0: 494c 633e 8fc9 9a3c 8667 4cbe c4ae babe
000000b0: 7197 db3e 5276 78bd cfe9 c7bd c19d 66bd
000000c0: f834 efbd 58f7 913d d59d 983a c049 933b
000000d0: 7631 bc3a 3250 f93a b9b2 f43d 8031 1d3c
000000e0: 7c30 183d 9fb8 98bd ddb9 50be 3ee9 013e
000000f0: 2d2e 1d3f 005a 1c3f c5a3 043f 5757 c43e
00000100: 8f28 1d3e c999 96bb 9a0e 08be 7acf 12be
00000110: 61e4 9d3f 3979 9ebf bb2d 8e3f f0ac 8ebf
00000120: 1881 143c 68f1 ee3d 9ba0 0ebf 1e29 253f
00000130: 983a b03c 30e0 1c3e aac2 f23a bf75 273b
00000140: 3379 f3bc 9adb 87bd 18d6 2c3f 9b69 3bbf
00000150: d27b bcbd f9cb 4abc 0808 2c3f 10d9 fc3e
00000160: 5a09 9139 150f 903b 8104 023f 45b2 013f
00000170: 04f6 f93e dc72 333f cc61 ea3c c93f 52be
00000180: d359 033e de05 243e f6a7 d0be 44a5 c43e
00000190: 8d8c 7d3a d491 c43b 2716 0e3f 2e6f d13e
000001a0: 5af6 dc3a f2f9 0ebb 43a9 08bb 7148 813b
000001b0: fa9e f5be 4a0a e23e e57d a4bc 3127 30be
000001c0: 3b49 b73d 6eb0 29be 3134 93be a96e 94be
000001d0: 61c0 9e3b 72e6 c23a fcb5 2d3b 661e db37
000001e0: 5376 1d3f 53a0 05bf 3ad9 d03e 8782 973e
000001f0: 2185 e13d ffcd 21be f625 fb3a 4a87 dc3a
00000200: d5ad 303e 7f88 8b3e 27b1 403e ac75 793b
00000210: 7f17 e4bd dc3b 6ebe 2b19 81bd 0901 6fbd
00000220: aa25 9ebd 26ac a23d d597 5ebe 5b73 50bd
00000230: 99fe aabb 4521 25be 82e2 96be 3bc8 9cbe
00000240: acd9 823f 85b4 52bf eff5 933d ab40 bbbd
00000250: fc75 bbbb eeb3 83be 1d5f 963d 37c9 c33d
00000260: 9265 6dbc 31cb 923c 3b01 9bbe b039 bbbe
00000270: 3af0 f3be bef3 de3e d05d fa3b 01a3 6c3d
00000280: e0e1 13bd 714f 0b3e beea 093e 90ea 61be
00000290: e70d e0bd 4dc5 cfbd 265f 9b3c 69bf 5dbd
000002a0: 5434 a13c ed5c e53c 360f 033b 8f3b 4ebe
000002b0: 1fe0 f2bd b7f3 b83d ff35 03be ca44 49be
000002c0: aa88 d9bd f8ec 5d3f 3533 b63c 0488 edbd
000002d0: f19e 5a3e 4a41 9ebc e5da 2c3f fe98 283f
000002e0: 4039 2dbe 161a 45bc bbee 063e 25f2 52be
000002f0: f12b 4d3e ea39 4f3e a4c9 8b3f a53e 8cbf
00000300: c1b0 0d3e 93c7 f93c c762 083c 1253 853b
00000310: a6ba 993c 4535 76be 0148 b9be f5df 8d3e
00000320: 440c 133d 68ad a7bd d1ee 503f 334d f2be
00000330: be8d 863b 979c 943b 5dc7 1939 ed57 5d37
00000340: aa5f c33d 228e c2bc dd05 533b 9993 c43b
00000350: 672b a9bd e0aa 27be 87ba fe3e a4c5 d7be
00000360: e85c 00bf 88dd 00bf 167c 10be 9b3b aa3d
00000370: de65 2cbc 14b9 80be e3c8 0ebe 2cae ec3d
00000380: fe47 90bd d7dc e4bd 9f95 19be 39c1 e53b
00000390: daee 0f3e 8bf1 103e 88e8 87b9 fd77 6f3b
000003a0: 00ac 8e3e d6d4 8e3e 01f8 febe 69cb 123f
000003b0: d6f1 fcbd b737 09be 83cb 62be ad2d 8abc
000003c0: a51d 71be 9a1b dbbe ae6e 3b3c cc92 a83d
000003d0: 511f 413d cde2 723d 97c0 bebe 9aa9 abbe
000003e0: f652 843d 70d9 0dbf 1394 15be 5c81 14be
000003f0: fa4f 243b 8d8a 733b 1268 0bbe 4362 fcbd
-0.38838723 -0.22558683 0.08467786 -0.06156686 -0.043939758 0.043687332 -0.021266162 -0.01324809
0.0004738906 0.002524345 -0.05701733 0.018911459 -0.42599025 -0.5735249 -0.1920147 0.14149731
0.007601913 0.005349244 0.1424507 -0.12595434 2.1974925e-05 -0.0004890136 0.77689254 -0.7028523
-0.21654955 -0.23005041 0.0028947324 0.0022339078 0.44771528 -0.4548178 -0.031368908 0.035162814
-0.082946084 0.07767424 0.7151009 -0.82636666 -1.2171159 1.2291682 -0.0033677309 -0.0024480605
0.22197069 0.018894939 -0.19961366 -0.3646146 0.42888978 -0.060659714 -0.09761392 -0.05630279
-0.11680025 0.07127255 0.0011643717 0.0044948757 0.0014358002 0.0019021092 0.11948151 0.009594321
0.037155613 -0.07457089 -0.20383401 0.12686631 0.61398584 0.6107483 0.5181239 0.38347885
0.15347503 -0.0045959693 -0.1328682 -0.14336959 1.2335321 -1.2380744 1.1107706 -1.1146526
0.0090639815 0.11667138 -0.55713814 0.64515865 0.021512315 0.15319896 0.0018521149 0.002555236
-0.029720878 -0.066336825 0.6751418 -0.73208016 -0.09203304 -0.012377732 0.67199755 0.49384356
0.00027663523 0.004396329 0.5078812 0.5066264 0.48820508 0.70097136 0.028611086 -0.20532145
0.12827234 0.16017863 -0.40753144 0.38407338 0.0009672128 0.0059988294 0.5550255 0.40905136
0.0016858086 -0.002181646 -0.002085284 0.0039454033 -0.47972852 0.44148475 -0.020079562 -0.1720245
0.089495145 -0.16571209 -0.28750756 -0.28990677 0.0048447107 0.0014869703 0.0026506176 2.612099e-05
0.61508673 -0.5219776 0.4079073 0.29591772 0.110117204 -0.15801238 0.0019161094 0.0016824987
0.17253812 0.27252576 0.18817578 0.0038064523 -0.11137294 -0.23265022 -0.063036285 -0.058350597
-0.077220276 0.07942991 -0.21737607 -0.05089126 -0.0052183387 -0.16125973 -0.29469687 -0.30621514
1.0222678 -0.823067 0.072246425 -0.09143194 -0.005720852 -0.25723213 0.0734236 0.09559863
-0.014489548 0.017919155 -0.30274376 -0.3656745 -0.47644216 0.43545336 0.007640578 0.05777264
-0.036104083 0.13604523 0.13468453 -0.22062135 -0.10940152 -0.10145054 0.018966269 -0.05413762
0.019678272 0.027998412 0.001999808 -0.20139907 -0.11859154 0.0903086 -0.12813567 -0.19655147
-0.1062177 0.8668971 0.022241214 -0.115982085 0.21349694 -0.019318242 0.67521507 0.6585845
-0.1691637 -0.012030145 0.13177006 -0.20600183 0.20036294 0.20236936 1.0920911 -1.0956618
0.13836958 0.030490672 0.008324332 0.0040687406 0.018765759 -0.24043758 -0.36187747 0.27709928
0.03590037 -0.081873715 0.81614405 -0.47324523 0.0041062525 0.0045352685 0.00014665486 1.3193098e-05
0.09539731 -0.023749415 0.003219954 0.0059990403 -0.082602315 -0.16373777 0.49751684 -0.42142975
-0.50141764 -0.5033803 -0.14109835 0.0831215 -0.010522334 -0.25141203 -0.1394382 0.11556658
-0.070449814 -0.11174934 -0.14998482 0.0070115593 0.14055958 0.14154641 -0.00025922456 0.0036540024
0.278656 0.27896756 -0.49798587 0.5734163 -0.12350814 -0.1340016 -0.22147946 -0.016867483
-0.23546465 -0.42794496 0.011439962 0.08231124 0.047149006 0.059298325 -0.3725631 -0.33527833
0.06461136 -0.5540991 -0.14607267 -0.14502472 0.0025072084 0.003716144 -0.13613918 -0.123234294

layers.0.bias f4 [200]
00000000: 6aa2 51bf 26fc 0c3f 2e49 5a3f d129 f0bd
00000010: 2bf3 ccbb a07f 29bf 82cd bcbe a42d 2bbf
00000020: c49c e2bc fb92 7f3e 8883 7bbc 677a 82be
00000030: 12a5 ec3e af5d 0fbc 5345 5cbf 56a7 1abe
00000040: 55ac ef3e 1567 933e 240b eab9 dd10 a1bc
00000050: df85 02bf c20a 34bf c51a b73e c1c6 803e
00000060: 95db c0be 6b93 48bc 166d 05bc fc51 f63e
00000070: eb8f 833e ddb5 32bf d27e 99be e1e9 943e
00000080: e833 b2be b5ee 18bf f1b5 913a 89be 8d3a
00000090: 7a5a 85be f1fc 5ebf 3349 b5be f197 6abc
000000a0: 8572 483e bb5a 7b3e 2bb7 ae3e a633 bf3e
000000b0: 88ce 31bc aa3e 81be 2f88 bc3e 54ae 0abf
000000c0: 537b 0fbf f516 3ebf 6e2a 4cbc fd4e 9e3e
000000d0: 4c40 41bc a152 16bc d8b5 5dbf e179 453f
000000e0: c088 f0be 1b74 58bf 7a45 81bc 2d44 9bbb
000000f0: b5c6 50bf 5afb 663e 1bda 913e cd44 84bb
00000100: 6022 3ebf 1d13 cabe e92f c53e 03da 593f
00000110: b5da 98be c0be 4a3f 8422 c2be d01d 223f
00000120: a446 b4be 0914 99be 1746 393f d3c5 ab3e
00000130: db03 09be 9010 77bf 2332 57bf bf42 07be
00000140: 4131 1bbf f469 1ebf b615 f9be 981f 32be
00000150: 74de dcbd 68a6 ebbe fd19 f5be 8c97 b33e
00000160: eb2f 113d f0c2 f83e aa36 e6be 226f 9ebe
00000170: bb5e ddbe 99bf 2cbf 9c24 b53e 8807 c638
00000180: 0223 003f a61b c3bc 4d0e 11bf 9196 2dbf
00000190: 1c76 ab3e 2902 0dbf 7378 7dbc 4ac1 b5b9
000001a0: e558 a53d 2382 9fbc 92e7 1bbf 8edb 28bf
000001b0: 39fe 23bf 310a edbe 05af 1d3f 62e3 093f
000001c0: 893e 303f c6d0 4f3f d91d 0abf 7e3d dfbb
000001d0: 719b b23e 4d72 46bf ffb5 0a3f 7577 573f
000001e0: 0d55 65bf c714 46be 23fd e73e b396 53bf
000001f0: 0c6b 8ebe 7e53 0e3f dd9b 58bc c953 10bf
00000200: 2b41 5cbe 5d14 53bc 445c bd3d b2f2 ebbe
00000210: 6ba8 a63e a90e 55be 0f0f 1f3f f5dd 113f
00000220: 3985 89be c942 53be 1988 0f3f ba4c 7bbe
00000230: 1926 afbe 34c1 1b3f 6cf1 60bc 623f d1bc
00000240: 2193 3f3f f21f 43bf 6199 c4bb 4bf6 61bc
00000250: 65f7 2cbf 3818 2b3f 5c9e 3dbc 0777 03bf
00000260: 5677 e13e 439e 13bf 665f 373e 488d df3e
00000270: 4f77 013f 616c 1fbf 300d 3d3f 5195 1c3f
00000280: 3c91 df3e afa0 213e 4ea3 e8be ba94 78bc
00000290: c55c 54bb bf16 d03e 8aec 4ebe 04d8 83bc
000002a0: 3a36 30bf c79e 31bf 91f3 22bf 2f5c f7be
000002b0: 7d46 cebe 9b9e e4be b2db 94be 7510 54bf
000002c0: 1517 14bf 1ff9 493c b16a 25bf 3792 5cbf
000002d0: d9d2 0e3f f048 8e3e a388 07bf df74 9b3e
000002e0: 5d4e 28bc 4505 8c3e d7af 03bf 5311 503f
000002f0: 3c6c 02bb ea43 313e c17d 043f 652d 49bf
00000300: ea74 1f3e c35e 463f 8465 71bb f448 d1be
00000310: 9ef5 28bf 9377 9abe 3adc 4dbf 606f 523f
-0.8188845 0.5507225 0.85267913 -0.11726726 -0.006254574 -0.66210365 -0.3687554 -0.6686652
-0.027662642 0.24958412 -0.015351184 -0.2548401 0.4621969 -0.008750363 -0.8604328 -0.15102896
0.46811166 0.28789583 -0.00044640258 -0.019661361 -0.5098552 -0.70328915 0.3576261 0.25151637
-0.37667528 -0.012242178 -0.008143684 0.48109424 0.25695738 -0.6980875 -0.2997957 0.29084685
-0.34805226 -0.5973924 0.0011116845 0.001081423 -0.2604559 -0.8710471 -0.3540741 -0.014318452
0.19574936 0.2454633 0.3412412 0.37344092 -0.010852464 -0.2524312 0.3682265 -0.54172254
-0.5604755 -0.7425378 -0.012461288 0.30919638 -0.011795115 -0.009174974 -0.86605597 0.771391
-0.46979332 -0.8455216 -0.0157802 -0.004738352 -0.815532 0.2255682 0.28486714 -0.004036522
-0.742712 -0.39467707 0.38513115 0.85098284 -0.2985436 0.7919731 -0.37916958 0.6332674
-0.35210145 -0.29898098 0.72372574 0.33549365 -0.13380377 -0.9650965 -0.8406088 -0.13209055
-0.6062203 -0.6188042 -0.48649377 -0.17394865 -0.10784617 -0.46025395 -0.4787139 0.3507656
0.03544609 0.48586226 -0.4496358 -0.30944163 -0.43236336 -0.67479855 0.35379493 9.4427785e-05
0.5005342 -0.023816895 -0.56662446 -0.6780787 0.33488548 -0.5508142 -0.015470612 -0.00034667022
0.08073596 -0.019471234 -0.60900223 -0.65960014 -0.6405979 -0.46296838 0.61595184 0.53862584
0.6884542 0.8117794 -0.53951794 -0.0068127504 0.34884217 -0.7751816 0.54183954 0.8416665
-0.895829 -0.19343863 0.45310315 -0.82651824 -0.27816045 0.5559615 -0.013220754 -0.56377846
-0.21509235 -0.012883273 0.09246114 -0.460836 0.32550368 -0.20806374 0.6213235 0.56979305
-0.26859453 -0.20630945 0.56067044 -0.24540988 -0.34208754 0.6084168 -0.013729434 -0.025542919
0.74833876 -0.7622062 -0.0059997295 -0.013791631 -0.67564994 0.6683383 -0.0115734 -0.51353496
0.4403636 -0.57663363 0.17907485 0.43662477 0.50572675 -0.6227475 0.7384825 0.6116534
0.43665493 0.15783952 -0.45437092 -0.015172178 -0.0032403928 0.40642354 -0.2020742 -0.016094215
-0.68832743 -0.693829 -0.636529 -0.48312518 -0.40288153 -0.44652256 -0.29073864 -0.8283761
-0.5784772 0.0123274615 -0.64615923 -0.86160606 0.5579048 0.27790022 -0.52942866 0.30362603
-0.0102725895 0.2734777 -0.51440185 0.81276435 -0.0019900938 0.17311063 0.51754385 -0.7858489
0.15571943 0.77488345 -0.003683419 -0.4087597 -0.6599978 -0.30169353 -0.80414164 0.82201195

layers.2.weight f4 [1, 200]
00000000: 82bb 98bf ad1a febd 8c4f 47be 12f5 b5bb
00000010: 719d e7b8 a756 353c 538c 0abf 95dc 87bb
00000020: 1c8c 9b3a 9535 84bd b8a2 ba39 6f81 43bf
00000030: 7b2b 2dbe f383 ea38 ec37 09c0 3a8c 9ebb
00000040: f0cc eabd 14d6 03bf 82f0 b43f 9b1e 0f3a
00000050: d89d 6ebc b21a 53bf 9669 54be 3ecb 84bd
00000060: 731a e9bb 6f16 0d3a 3f63 07b8 0edb a9bd
00000070: fd13 57bd a2c8 d73b 7fbd 5cbf 09b2 9bbe
00000080: bee6 ffbb f279 5dbe d77c a53f 7bb9 9f3f
00000090: ae0b 80bc 3973 c93f 0e06 31bb 663e 3f39
000000a0: 4b54 31bd 3926 e6be c5b1 a1bd b696 babe
000000b0: bf8f 8b39 f18c f0be 5175 a8be 8ded 19bc
000000c0: b1ce babc 94e2 68bf 9658 2db9 0dea 78be
000000d0: e4e0 eb38 9ae9 bab9 13e6 4dbf 6000 49be
000000e0: dbf4 dc3d 4446 d9be 1e18 e239 46c4 1dba
000000f0: af52 933f a67b 48be f516 78bd 92ff 05b9
00000100: 43f7 59bf 0551 b93b 2420 08be eff8 4cbe
00000110: d756 11bd 0b38 48be c58b 013c ca41 3ebe
00000120: 398e 96bf 6497 843b 8f9c 2ebe 3eaf 3fbd
00000130: 4031 4bbc 5119 a1bf 72fc 9fbf fb0b 8c3a
00000140: 2e68 abbc a411 a83d 8509 a8be 19df 3cbc
00000150: 890b 143c 9bbe f0bb e15b 143c 2c01 f5bd
00000160: a85f c4be b2a7 e9bd d99b 933b 3791 50bf
00000170: f3b0 8dba 643f b53d e8df a6bd 2c1e 8e3f
00000180: f25c a8bd e074 653a 002a fd3d 0f58 7fbe
00000190: f86d 9dbd f15f 66bf 6256 8839 cfcf 32b6
000001a0: a425 32bc 8482 b8ba 761c 973c 771e 363f
000001b0: 10a5 623f 8115 363c 349c 28be 54c4 00be
000001c0: a3db 33be 2796 35be f7d1 81be 6c1f cc38
000001d0: e5ad bb3d 1b43 9d3f add3 21be b26d 42be
000001e0: 8c21 4dbf b9fb 0cbc b3e2 c1bd ae38 2abf
000001f0: e0f4 be3e 62fa 19be 8ac4 de39 dc71 46be
00000200: e96e e63c 6431 5b3a b443 bfbb 1318 333b
00000210: 17bf adbe 779d 86bb 3743 1cbe 28c1 e1bd
00000220: 2e60 90bf ac58 2bbf 3a97 01be 16d6 e93f
00000230: 9093 07bf 524f eebd 0f22 97b9 6ecf 633a
00000240: 3c9d 1cbe 1074 843f 02d9 0fb7 29f7 0938
00000250: f8cf 34be 95c8 17be 9621 bcb8 a237 ce3c
00000260: 9f6e a7bd ec02 9e3c 76da c8be a2b5 12be
00000270: 0af7 12be c25f 13bc 6a78 1bbe 702b 04be
00000280: 5490 56be 6e58 95be ed0e 913c efcf c138
00000290: 1b2e 28b9 3225 f4be 0980 33bf 1d4c f238
000002a0: 0fbe 9fbf 8927 1abf 101a 6dbb ba56 18be
000002b0: c4ba 8abf 5b30 823b c09f 81bf 1748 5abf
000002c0: 81e6 1cb9 640a 01ba e982 1d3f 21f7 e93f
000002d0: d4ec e0be f15b 82be 81f7 283c 9bc1 75bd
000002e0: 379f a437 4b86 55bd 120e 65bb 5e5c 50be
000002f0: b183 5b38 5abc fdbc 71f1 14be 966d f4be
00000300: 22a2 9ebc e3b8 34be fa20 84b7 7832 27bf
00000310: 7986 813c 802e 28bf 1224 a2be 0fb4 31be
-1.1932223 -0.12407432 -0.19463938 -0.0055528963 -0.00011044264 0.011068023 -0.5412037 -0.0041461685
0.0011867317 -0.064555325 0.0003559792 -0.76369375 -0.16911118 0.00011182567 -2.1440382 -0.0048384937
-0.1146487 -0.5149853 1.4135897 0.00054595777 -0.014564 -0.8246261 -0.20743403 -0.06484078
-0.0071137487 0.0005382066 -3.227894e-05 -0.082937345 -0.052509297 0.0065851966 -0.8622665 -0.30409268
-0.007809489 -0.2162855 1.2928723 1.2478479 -0.01563057 1.5738288 -0.0027011666 0.00018238425
-0.04329328 -0.44951037 -0.07895235 -0.36443108 0.00026619245 -0.4698253 -0.32902005 -0.009395015
-0.022803636 -0.9097073 -0.00016531567 -0.24308033 0.00011247562 -0.0003565073 -0.8042919 -0.1962905
0.1078889 -0.4243642 0.00043124048 -0.0006018322 1.1509608 -0.19578418 -0.06056877 -0.00012779076
-0.85142916 0.0056554102 -0.1329351 -0.20016836 -0.035483208 -0.19552629 0.007906859 -0.18579784
-1.1762153 0.0040463675 -0.1705191 -0.046797983 -0.012401879 -1.2585851 -1.2498915 0.0010684723
-0.0209237 0.0820649 -0.32819763 -0.0115278 0.009035953 -0.0073469407 0.009055109 -0.11963114
-0.3835423 -0.114089385 0.0045046625 -0.8147158 -0.0010810181 0.088499814 -0.081481755 1.1102958
-0.08220853 0.00087530725 0.123615265 -0.24935935 -0.076869905 -0.89990145 0.00026004302 -2.6645027e-06
-0.010873232 -0.0014076983 0.018446188 0.71140236 0.88533115 0.011113525 -0.16465837 -0.12574893
-0.17564254 -0.1773306 -0.25355503 9.733331e-05 0.09164027 1.2286104 -0.15803404 -0.18987158
-0.80129313 -0.008604937 -0.094670676 -0.66492736 0.372962 -0.1503692 0.00042489573 -0.19379371
0.028129058 0.0008361547 -0.0058369283 0.0027327582 -0.33934852 -0.0041081267 -0.15260015 -0.1102317
-1.1279352 -0.6693218 -0.12655345 1.8268459 -0.5295954 -0.11636223 -0.0002882634 0.0008690272
-0.15294355 1.034792 -8.57399e-06 3.289353e-05 -0.17657459 -0.1482261 -8.9707944e-05 0.025173012
-0.08175396 0.019288503 -0.39229172 -0.143271 -0.1435205 -0.008994998 -0.15182653 -0.12907195
-0.20953494 -0.2916903 0.017707312 9.241688e-05 -0.00016038904 -0.47684628 -0.7011724 0.000115536364
-1.2479876 -0.60216576 -0.0036178865 -0.14876834 -1.0838246 0.0039730496 -1.0126877 -0.8526625
-0.00014963189 -0.0004922508 0.6152788 1.8278543 -0.43930686 -0.2546077 0.010312916 -0.05999909
1.9624464e-05 -0.052130025 -0.0034951014 -0.20347735 5.2336316e-05 -0.030973602 -0.14545228 -0.47739857
-0.01936442 -0.17648654 -1.5750982e-05 -0.65311384 0.015811192 -0.65695953 -0.31668144 -0.17353843

grad_avg f4 [494, 1]
00000000: 0000 0000 999f 9a33 c7ec 38b8 b461 bab8
00000010: 86b4 2f39 96d6 5cb9 6711 52b9 a507 a034
00000020: b274 66ba 0ee7 bc3b 853b a9ba d391 d63a
00000030: 856a 1dbc 9d2f a53a f19b 5936 c322 a1b6
00000040: 0609 413b 5340 1837 7bee 85b7 694f 5e3a
00000050: e5ed aab9 2a04 93b8 fac6 923b adc8 2739
00000060: 8110 d63b 8473 34bb 618e 403c cdbc 933b
00000070: 6868 24b9 cb79 66ba 60d9 40bc 2562 6e3a
00000080: e7ed 2c3a d6a3 c6b9 a3b2 f83b a044 91ba
00000090: a16b a6b9 dcde c0b9 3c37 1fba 8494 3ab9
000000a0: 5a7b 29bb 7c47 543a d552 4eba a9ec f6b9
000000b0: 8327 c23a edd3 e53a 8ba2 cabb b223 1ab9
000000c0: eb00 a6ba 78c3 883a 4dea 7038 d5af 0a3b
000000d0: bef0 f0b9 6e6b 423b cd22 dc3b c190 02b9
000000e0: 05e5 693c a732 dbb8 3c55 e13b d772 35bb
000000f0: 7afb 223c 5d60 50ba cb69 4039 2f63 3f3c
00000100: 9a77 e53b 1c5a f9b9 342e 81b9 5ce0 1a39
00000110: a1a2 19ba c1bc 02ba 04a8 9a3a 4d88 89ba
00000120: 2e4b 703b 86d6 d23a 8448 ce3b 5443 24bb
00000130: c5ec 3e3b 9567 7a3a 202e 88bb 05f5 563a
00000140: 7980 e13a 2170 9339 0d8c 36bb 2122 653b
00000150: b535 7fba d5c2 5cbb 368f ae38 fbb3 13b8
00000160: 33a6 ca3a 96ed 003c 2fe7 72ba 57d7 493c
00000170: ce32 b43b 6585 d3ba 72a4 23bb 4307 33bc
00000180: 1631 ee39 bf56 6c3b 873f 253c c0ab 30bc
00000190: e639 bd3c 4829 98bc 7ce7 09bc 528d 9a3a
000001a0: a2cd b7bb 50f1 b4bb e26f 7d3b 1cdb 5d3b
000001b0: aaba 14bb 270e 0bbc 3ba5 caba f0bc 43ba
000001c0: 2278 213b 7d8f 803b 758e 9dbb fb22 c43b
000001d0: 91c1 c23b ba41 bcbb beb2 a1bb 518a 263b
000001e0: f1a4 ec38 85cb 473c 6edd 26bb 380a aabb
000001f0: c41a 573b 7eda 0f3c 1ecd a1bc 6ee7 12bc
00000200: a378 e3bb 369d 76bc 4db1 74ba 5a6d 50bb
00000210: 4bc2 4c3b 4353 89bb 2084 96bb fdf7 553b
00000220: 0803 7bbb 678f 47bc 881a 233c 3b92 123b
00000230: 15ae 2fbb 4fbe b43c 7262 083c 39d8 efba
00000240: d9df 83bc 8db7 97bb 3ef3 4f3c 4e62 0bbb
00000250: f4c0 61b9 6d70 b1ba 94dc 203c 153e c63b
00000260: 3448 49bc 7337 22bb ae3e 203b 9465 493b
00000270: 8c71 cabc 5d7c 5abb 9dcd 66bc 53cb 833b
00000280: 8b1a 5dba f230 d2bb bbe8 5fba 0f6e cb3b
00000290: 9e43 8e3c f00d 783b 74db edbb f115 9bbb
000002a0: 3916 3dbc 6adc 15bc 589c 47bd 928f c737
000002b0: 99e8 42bb 8bb6 b23a 02c8 4ebc 3510 323b
000002c0: dfb3 df3c 42af ee3c 8eae cfbb 0676 dfb9
000002d0: aea9 b9b7 05d3 963c 9c9d c7bc ad1f fa3a
000002e0: d67a 87bb 4d8d 3e3b d42d d43c 1998 c93c
000002f0: a3a6 7d3a 1a91 5abb 7e2f 9cbc dde0 9aba
00000300: 6eeb 0cbd 746f a7b8 ad6b 233b aeab f6bb
00000310: bee7 c33a f9d5 533d 4524 f8bc a803 a1bb
00000320: 6b77 b63c fcc1 4fbc 191e a83b 74ce dbbb
00000330: a99d 533b 34e5 393d 0140 503d 059e 8ebd
00000340: 28e8 083b 67c9 163b 5cb3 d03b bf9c e0b9
00000350: 3ce6 6e38 dc15 263b 6520 163c f095 553b
00000360: 15c5 563c e623 813b 5344 99bc 5c56 9bbb
00000370: a2f3 3a3a 5318 51bb 7850 b5bb e510 17bc
00000380: 2e86 b23b 1b84 9ebc 547c 3d3b 3874 90bb
00000390: 4ba4 29ba 616b 1abc bdd7 efb9 a81b d4ba
000003a0: a6da a23b d6d4 81b9 f87f c8bc ab5d 0abb
000003b0: ad86 c2bb cdc2 93b9 e5bc 7bbc 98f1 47bb
000003c0: 21dc a4bc 25bc 8f3c 7b45 38ba a51e b2bc
000003d0: c550 0e3b 6669 353c b7dd 113a 1028 00bc
000003e0: adc7 163b 1641 0ebc 29f3 0dba 619b bc3b
000003f0: bdd8 d4ba 9dbc b5ba 81e3 f6bc 2b98 aab9
0.0 7.2002145e-08 -4.4089535e-05 -8.88737e-05 0.00016756551 -0.00021060774 -0.00020033644 2.9807885e-07
-0.00087911927 0.0057648486 -0.0012911415 0.0016370363 -0.009607916 0.0012602691 3.242629e-06 -4.8022207e-06
0.0029454841 9.074883e-06 -1.5965887e-05 0.0008480461 -0.00032602172 -7.010282e-05 0.0044792863 0.00016001119
0.006532729 -0.0027534673 0.011752696 0.004508591 -0.00015679153 -0.0008791952 -0.011770576 0.0009093604
0.00065967295 -0.0003788757 0.0075896545 -0.0011083074 -0.00031742177 -0.00036787137 -0.0006073599 -0.00017793669
-0.0025860877 0.000809781 -0.00078706193 -0.00047097102 0.0014812801 0.0017534472 -0.0061839274 -0.00014699882
-0.0012665068 0.0010434231 5.743867e-05 0.0021161933 -0.00045955734 0.0029666084 0.0067180158 -0.00012451691
0.014275794 -0.000104521685 0.006876616 -0.0027686858 0.009947652 -0.00079489296 0.00018349958 0.011681362
0.007002783 -0.00047560118 -0.0002463922 0.00014770165 -0.00058607204 -0.0004987233 0.001179934 -0.0010492891
0.0036665904 0.0016085661 0.0062952656 -0.0025064545 0.0029132825 0.0009552178 -0.004155889 0.0008199963
0.0017204426 0.00028121567 -0.0027854473 0.003496297 -0.0009735481 -0.0033685465 8.323642e-05 -3.521515e-05
0.0015460908 0.007869145 -0.00092660164 0.012319407 0.0054992205 -0.0016137777 -0.0024969843 -0.010927024
0.0004543147 0.0036062447 0.010085947 -0.010783136 0.023098897 -0.018574372 -0.008417007 0.0011791384
-0.00560923 -0.0055219308 0.0038671424 0.0033852523 -0.0022694268 -0.008487261 -0.001546062 -0.00074668135
0.0024638255 0.003923355 -0.004808242 0.0059856153 0.005943485 -0.00574514 -0.004934638 0.0025412033
0.0001128408 0.012194519 -0.0025461572 -0.0051892065 0.003282235 0.00878012 -0.019751128 -0.00896631
-0.0069418713 -0.01505213 -0.0009334281 -0.003180346 0.0031243737 -0.004190834 -0.0045933872 0.0032649033
-0.0038301367 -0.012180186 0.009955056 0.0022364992 -0.0026806642 0.022063402 0.008324252 -0.0018298692
-0.01609795 -0.0046300353 0.012692271 -0.002126831 -0.00021529553 -0.0013537534 0.009818215 0.006049881
-0.012285281 -0.0024752289 0.0024451423 0.0030730711 -0.024712346 -0.0033338286 -0.014087108 0.004022041
-0.0008434436 -0.006414526 -0.00085414544 0.0062081884 0.017366227 0.0037850104 -0.007258827 -0.00473284
-0.011540943 -0.009146789 -0.048733085 2.3789504e-05 -0.002974069 0.0013634724 -0.012620928 0.0027170305
0.027307449 0.029136304 -0.006337947 -0.0004262181 -2.2132732e-05 0.018411169 -0.024367146 0.0019082926
-0.004134516 0.002907592 0.025900759 0.024608659 0.0009676015 -0.0033350647 -0.019065615 -0.0011816282
-0.03440421 -7.98394e-05 0.0024936006 -0.00752779 0.0014946384 0.051717732 -0.030290732 -0.004913766
0.02227374 -0.012680527 0.005130541 -0.0067079607 0.0032290018 0.0453846 0.05084229 -0.069637336
0.002089033 0.0023008229 0.0063690376 -0.00042841394 5.6958044e-05 0.002534262 0.009162997 0.003259059
0.013108511 0.003941047 -0.018709337 -0.0047405194 0.0007131641 -0.0031905368 -0.0055332743 -0.009220337
0.0054481244 -0.019350102 0.0028913217 -0.0044083856 -0.000647132 -0.009425015 -0.0004574637 -0.0016182559
0.0049699126 -0.00024763372 -0.024475083 -0.002111296 -0.0059364648 -0.00028183163 -0.01536486 -0.0030508991
-0.020124497 0.017545769 -0.00070293964 -0.021743128 0.0021715623 0.011072492 0.0005564349 -0.007822052
0.00230072 -0.00868251 -0.0005414957 0.0057558273 -0.001623891 -0.0013865415 -0.03013778 -0.000325383

sqr_avg f4 [494, 1]
00000000: 0000 0000 619b e734 8f67 3136 04db e135
00000010: d566 4038 672a 2c36 1b8a d437 4547 bb36
00000020: 6041 5837 45f6 e438 045a 1938 a5d0 2338
00000030: b12c 3f39 c11c 4738 3dc8 3039 2efb 9537
00000040: b7d0 9638 d882 4538 9645 8f38 bef7 cf38
00000050: 738d d839 622b 1039 9d50 3739 031d 3c39
00000060: b88b 5f39 4f38 c939 a1f2 c73a 36e2 da38
00000070: 5bac 0139 3ae2 0e3a 1810 bb3a d309 9039
00000080: a387 7839 34dd cf38 b9a8 2f39 f272 7d38
00000090: 9627 fc38 eb51 1e39 1cc5 9738 6239 a439
000000a0: 2261 7939 54ad 1a39 2c84 e638 0629 723a
000000b0: 817f e638 fe7b f039 4a94 3639 7c9b b239
000000c0: 8cf7 283a c63c b239 723f 6739 ae33 ba39
000000d0: 239e 2a3a 97b1 e039 5e47 ba38 1acd a238
000000e0: 27f6 da3a 7c11 c539 92d3 043a 5b3f 363a
000000f0: b638 743a 1ff2 8f3a 5d21 dd39 e8f5 283a
00000100: 3845 e138 890a 303a f86a d839 0aa7 c639
00000110: 6818 1138 b9cb 3a39 0379 9c3a d337 243b
00000120: cd76 7639 cd5f c73a c4c8 ae39 be8c 1d39
00000130: 4598 be39 95bb c537 d441 d539 8511 0f39
00000140: e8a9 3c39 d0ec a939 71d4 3539 e17b 8c39
00000150: 9404 2b39 abb0 e538 8cdc be38 03cc 5d39
00000160: 59a8 da39 3175 c039 5c4f 5d38 e8a8 323a
00000170: 823c 8d3a 3d8a a639 1d64 c939 06bd 693a
00000180: c334 573a 3d5a ce39 b51a 5c3a a781 5f3a
00000190: 021a aa3a 88f1 693b 2f86 023a bf98 9839
000001a0: 5d1b 643a 551b de39 9714 a639 fb5a 203a
000001b0: ac0f 043b 84b0 573b c2cf 0e3b 9200 c63a
000001c0: 5727 243a fcc6 703a db3b 0b3b eb47 253b
000001d0: dc41 803a 6fea 9d39 49f1 143a e377 c539
000001e0: 8c79 7b39 0bf0 653a 1e71 043b fe8a e439
000001f0: cd6e 603a ec1d 4d3b 6c40 813a 949d ba3b
00000200: f043 673a b85d d83a c96c 233a d42e a73a
00000210: aa27 e53a f7eb 2f3b 5741 5e3a b198 4a3a
00000220: 2051 c139 3ced 193b ae65 9a3b d6c3 823a
00000230: 7b31 063b 1a96 e63a 9db4 763b 6d0a 4b3a
00000240: 4fca aa3a 1279 883b 692e 313b 1ffe 923b
00000250: 66c6 e23a fb5e a23a 6b76 ae3a 3b9e 3f3a
00000260: d719 913b 8ba0 823a 01b7 033b a5e8 893a
00000270: caff 913b 591c 1f3b 79a8 183b 2bb7 683a
00000280: b836 883a 6d86 b23a 5891 663a e96b 823a
00000290: 63d6 5d3a b014 833a 87c7 5e3b 7fcb e439
000002a0: 8014 be3a 8b6b af39 0902 cb3b 5b46 fd39
000002b0: 6795 303a 6b36 3b3a ecd0 a03a dac9 eb3a
000002c0: a083 983a a3d9 833b 2c3c 3c3b 9145 ed3a
000002d0: f0c3 3e3b 66c1 1e3b 1dd9 983a ab85 8a3b
000002e0: 36bb d33a 6370 973a a74c 983b 1545 423c
000002f0: cbaf 9e39 ac27 583a db30 833b 7366 243a
00000300: cfd0 3c3b a667 bc3a 6032 793a 1bcb 153b
00000310: d8c9 c939 90dd 293b aaea 3b3b 4227 b83a
00000320: ca9a 8e3a fb9b 6c3a d192 323a 3d3b 873b
00000330: d0cc 403b b7d2 933b 4058 023c cdfd 223c
00000340: 4ba6 823a 2351 ea39 08c1 993a bb3d 073a
00000350: 2fed 9a3a 2933 b53a eac7 863a 698a 343b
00000360: 00b7 603a 5a7b db3a 9770 0c3b b12f 163b
00000370: 0583 f03a c9b9 ec3a b816 363b 4d01 7c3a
00000380: 6d6c 453c 37d4 bc3b b334 423b 702a 973b
00000390: d677 4f3a b92c 533a b89a 683a f938 603a
000003a0: c788 003b 1072 1e3b 89c3 b33a 681e 963a
000003b0: 137e d93a f104 633a fceb b13b ea91 243c
000003c0: 2f57 b43b 37b6 c23a 648b a33a 8e8f 8c3b
000003d0: c28e 283b f7fd 993c 358c 023c 6e36 013b
000003e0: b3b0 283b 920d 0a3b c433 613a f431 8c3a
000003f0: be00 5c3a 9398 db39 472e 493b 0221 973a
0.0 4.3140156e-07 2.6435334e-06 1.6827548e-06 4.5872137e-05 2.5654679e-06 2.533668e-05 5.581331e-06
1.2889825e-05 0.000109177585 3.6561876e-05 3.9056544e-05 0.00018231828 4.7472076e-05 0.00016859263 1.7879149e-05
7.1914335e-05 4.7090318e-05 6.831733e-05 9.916675e-05 0.00041304118 0.00013749072 0.00017482271 0.00017939885
0.00021318987 0.0003837966 0.0015254804 0.00010437185 0.00012366606 0.00054505805 0.0014271764 0.0002747314
0.00023701652 9.9117315e-05 0.00016752155 6.042695e-05 0.0001202367 0.00015098571 7.2369556e-05 0.0003132327
0.00023782675 0.00014751154 0.000109918736 0.00092376804 0.00010991004 0.0004586875 0.00017412115 0.0003406665
0.0006445579 0.00033996085 0.00022053512 0.0003551519 0.00065085496 0.00042856924 8.882464e-05 7.762965e-05
0.0016705439 0.00037587795 0.0005066927 0.000695219 0.0009316312 0.0010982192 0.00042177262 0.00064453343
0.00010741729 0.0006715437 0.00041278428 0.00037889957 3.4593424e-05 0.00017814235 0.001193792 0.0025057688
0.00023504645 0.0015211046 0.00033337448 0.00015025117 0.00036353074 2.357158e-05 0.00040675572 0.00013644069
0.00017992372 0.0003241063 0.00017340646 0.00026795178 0.00016309536 0.00010952478 9.100986e-05 0.00021152203
0.0004170563 0.00036708408 5.2764415e-05 0.000681533 0.0010775479 0.00031764983 0.00038412298 0.00089164113
0.0008209461 0.00039358615 0.00083963136 0.00085260946 0.0012977722 0.0035696942 0.00049791014 0.00029105504
0.0008701587 0.00042363504 0.00031677328 0.0006117073 0.0020150943 0.0032911608 0.0021791314 0.0015106371
0.00062619656 0.00091849244 0.0021245393 0.0025219868 0.0009785253 0.0003012004 0.0005681706 0.0003766409
0.00023982505 0.0008771426 0.0020209025 0.00043591106 0.00085614325 0.0031298352 0.0009861118 0.0056950543
0.0008822074 0.0016507423 0.0006234167 0.0012755045 0.0017483134 0.0026843527 0.00084783643 0.0007728441
0.0003687227 0.002348735 0.004711828 0.0009976577 0.002047627 0.0017592341 0.0037644275 0.0007745389
0.0013030263 0.0041648233 0.002703572 0.00448586 0.0017301559 0.0012387926 0.0013310438 0.000730965
0.004428129 0.0009966058 0.0020098093 0.0010521604 0.0044555413 0.002427837 0.0023293777 0.0008877392
0.0010392284 0.0013620384 0.00087954616 0.0009950373 0.0008462427 0.0010000672 0.003399344 0.00043639165
0.0014501959 0.00033458727 0.006195311 0.0004830834 0.000673613 0.0007141593 0.0012269295 0.0017989234
0.0011635907 0.004023747 0.0028722389 0.0018102397 0.0029108487 0.0024224161 0.0011661384 0.0042273602
0.0016153816 0.001155388 0.0046478095 0.011857291 0.00030267084 0.00082456577 0.0040036268 0.00062713696
0.0028810983 0.0014374151 0.00095061027 0.0022856656 0.00038488093 0.0025919415 0.0028673806 0.0014049786
0.0010879871 0.00090259284 0.00068120385 0.004126935 0.0029418953 0.004511203 0.007955611 0.009948206
0.0009967772 0.0004469241 0.0011730501 0.000515904 0.0011819954 0.0013824451 0.0010282968 0.002754832
0.0008572191 0.0016745136 0.0021429413 0.002291661 0.0018349594 0.0018060739 0.0027784538 0.0009613231
0.0120497765 0.0057626027 0.0029633462 0.0046132132 0.000791428 0.00080556754 0.00088731525 0.00085534115
0.0019612776 0.0024176873 0.001371489 0.0011453154 0.0016593359 0.0008660099 0.005429743 0.010044554
0.005503557 0.001485533 0.0012477455 0.004289574 0.0025719856 0.018797858 0.007967998 0.001971628
0.0025740087 0.0021065217 0.00085907825 0.001069604 0.00083924446 0.00041884612 0.003069775 0.0011530223

grad_avg f4 [200, 2]
00000000: 6d5f 3a3b 1b80 873b 6b18 8f3b 75ac 483c
00000010: 139c e03b 4601 9e3c 0300 0080 0300 0080
00000020: 0300 0000 0300 0000 0000 0000 0000 0000
00000030: 8b2f d5bc 7433 18bb 0300 0080 0300 0000
00000040: 0300 0000 0300 0000 ecba db3a 3f0f e03b
00000050: 0300 0000 0300 0000 8465 293b 8419 093d
00000060: a716 bf3b 93e4 873c 0300 0000 0300 0000
00000070: 977a 9fbc b0a4 8e3d 0300 0080 0300 0000
00000080: b970 833b 6cf3 3a3c c7e1 d03c ee5f 5c3d
00000090: 6df9 393d 7045 853c 0300 0080 0300 0080
000000a0: 0300 0000 0300 0000 2561 353b da24 c03b
000000b0: b61c 1d3c 47ef c93c ff55 113b 7871 cf3b
000000c0: 0300 0080 0300 0000 0400 0000 0300 0000
000000d0: 0300 0000 0300 0000 6098 3f3b 5be7 063c
000000e0: 662c ef3a 6d22 a73b 0000 0000 0000 0000
000000f0: 930e f43c c8cf da3c 8957 bb3c 2a7a 003d
00000100: 0300 0000 0300 0000 0300 0080 0300 0080
00000110: 9819 aebd adfb 0fbe c745 a9bd 5c99 0bbe
00000120: 0300 0080 0300 0000 4bc7 96bc 103e 4e3c
00000130: 0300 0000 0300 0000 0300 0000 0300 0000
00000140: 12e9 c03a d686 883b 01a9 be3c 0dcf 4d3d
00000150: 8cfd 323b 6e75 ff3b 9168 e23c f875 193d
00000160: 0300 0000 0300 0000 5d1a 813c 622c 713c
00000170: 3dce e43c 4113 723c 0300 0000 0300 0080
00000180: 0000 0000 0000 0000 50e0 783c 12a9 36bc
00000190: 0300 0000 0300 0000 46dd 923c ede8 ce3c
000001a0: 0300 0000 0300 0080 0300 0080 0300 0080
000001b0: f7b8 5b3c 1543 21bc 084e e23b 337e 9e3c
000001c0: 0300 0000 0300 0080 5595 d737 5595 d737
000001d0: 0300 0000 0300 0000 0300 0000 0300 0080
000001e0: 3e0e c13a bbce 13ba a089 573c b2c1 be3c
000001f0: a9ae b23a 915b d53b 94de 4532 bd38 b133
00000200: 0300 0000 0300 0000 0300 0000 0300 0080
00000210: 9009 a03b 3316 583c 0dd3 e63b a418 a23c
00000220: 0300 0080 0300 0000 0eda e03b 4949 9e3c
00000230: 0300 0000 0300 0080 fecf d73b 175c 963c
00000240: 97ab 013c 25e2 353d 0000 0000 0000 0000
00000250: f947 c43b da37 893c fa83 d83a aa33 9c3b
00000260: 0000 0000 0000 0000 30cf 9f38 30cf 9f38
00000270: 9f33 ab3c a14f 7bbc 0300 0000 0300 0000
00000280: 0000 0000 0000 0000 0300 0000 0300 0080
00000290: 0300 0080 0300 0080 0000 0000 0000 0000
000002a0: 0300 0000 0300 0000 0300 0000 0300 0080
000002b0: 0300 0080 0300 0000 e382 8d3b 8498 413c
000002c0: 551f f93b 2dcb 9a3a fb01 833b 06a3 373c
000002d0: 0300 0000 0300 0080 edef 163d e909 c13c
000002e0: 0300 0080 0300 0080 0300 0000 0300 0080
000002f0: 4109 143b 18a4 ea3b c50e 9cbd a0f1 fdbd
00000300: 1c35 3e3b 6005 063c 0300 0000 0300 0000
00000310: 0300 0080 0300 0080 1015 7e3b d6b5 35bb
00000320: 47f9 2f3b 0998 f63b 7e35 b1bc 91cf 003d
00000330: 0300 0000 0300 0000 0300 0080 0300 0000
00000340: 10d0 2b3a 3e2c 7c3a 0300 0000 0300 0000
00000350: 0000 0000 0000 0000 d64e aaba 5a50 c538
00000360: 59c9 163d b0b7 7dbc 0000 0000 0000 0000
00000370: 1868 bd3b 2552 843c 4c24 903b a72f 4d3c
00000380: 8725 ca3b 42ea 8d3c 2b09 cc3b 02c9 8f3c
00000390: 0300 0000 0300 0000 0300 0080 0300 0000
000003a0: 0c53 ebbb 926a eebb 94be 6abc 9cac 203c
000003b0: e142 b53b 52ba 7e3c 4a5a da3b b1d6 993c
000003c0: 7d24 62ba c002 baba 0300 0080 0300 0000
000003d0: d930 5a3b bf91 1a3c 7d16 363b 1862 453b
000003e0: fe9b 7dbb e9f5 afbc c63e ac3b 5c35 723c
000003f0: 0300 0000 0300 0000 0300 0080 0300 0080
0.0028438226 0.0041351444 0.0043669245 0.012248148 0.006854543 0.019287717 -4e-45 -4e-45
4e-45 4e-45 0.0 0.0 -0.026023647 -0.0023224028 -4e-45 4e-45
4e-45 4e-45 0.0016764081 0.006837755 4e-45 4e-45 0.0025847862 0.0334716
0.005831558 0.016588485 4e-45 4e-45 -0.019467635 0.069650054 -4e-45 4e-45
0.0040112403 0.011410575 0.025498284 0.053802423 0.045403887 0.016268462 -4e-45 -4e-45
4e-45 4e-45 0.002767631 0.005863768 0.009589365 0.02465023 0.0022176502 0.006330665
-4e-45 4e-45 6e-45 4e-45 4e-45 4e-45 0.002923511 0.00823387
0.0018247485 0.0051005394 0.0 0.0 0.029792106 0.026710406 0.022868888 0.031366505
4e-45 4e-45 -4e-45 -4e-45 -0.08500975 -0.1406085 -0.08265262 -0.1363272
-4e-45 4e-45 -0.018405577 0.012588039 4e-45 4e-45 4e-45 4e-45
0.0014717898 0.0041664643 0.023273947 0.050246287 0.002731177 0.007795981 0.027637752 0.03746602
4e-45 4e-45 0.015759641 0.014720054 0.027930373 0.014775098 4e-45 -4e-45
0.0 0.0 0.015190199 -0.011148708 4e-45 4e-45 0.017927777 0.025257552
4e-45 -4e-45 -4e-45 -4e-45 0.013410798 -0.009842654 0.0069062747 0.019347286
4e-45 -4e-45 2.5699535e-05 2.5699535e-05 4e-45 4e-45 4e-45 -4e-45
0.0014728976 -0.000563841 0.013155371 0.02328572 0.0013632375 0.0065111597 1.1517518e-08 8.2525254e-08
4e-45 4e-45 4e-45 -4e-45 0.0048839524 0.013188886 0.007044202 0.01978714
-4e-45 4e-45 0.0068619316 0.019322054 4e-45 -4e-45 0.006586074 0.018354459
0.007914445 0.04440512 0.0 0.0 0.005990025 0.016750265 0.0016518824 0.004766901
0.0 0.0 7.6203025e-05 7.6203025e-05 0.020898638 -0.015338809 4e-45 4e-45
0.0 0.0 4e-45 -4e-45 -4e-45 -4e-45 0.0 0.0
4e-45 4e-45 4e-45 -4e-45 -4e-45 4e-45 0.0043185814 0.011816148
0.007602612 0.0011809819 0.003998039 0.011208301 4e-45 -4e-45 0.036849905 0.023564296
-4e-45 -4e-45 4e-45 -4e-45 0.0022588524 0.007160675 -0.076200046 -0.12399602
0.0029023355 0.008179992 4e-45 4e-45 -4e-45 -4e-45 0.0038769878 -0.002772679
0.0026851462 0.007525448 -0.021631952 0.03144795 4e-45 4e-45 -4e-45 4e-45
0.0006554136 0.000961963 4e-45 4e-45 0.0 0.0 -0.0012993466 9.408659e-05
0.036813114 -0.015485689 0.0 0.0 0.005780231 0.01615245 0.004398858 0.012523568
0.0061690244 0.017323617 0.006226679 0.017551903 4e-45 4e-45 -4e-45 4e-45
-0.007181531 -0.0072758878 -0.014327664 0.009806778 0.005531654 0.015547352 0.0066635953 0.01877913
-0.0008626653 -0.0014191493 -4e-45 4e-45 0.0033293276 0.009434163 0.00277844 0.0030118283
-0.0038697715 -0.021479564 0.0052565066 0.01478323 4e-45 4e-45 -4e-45 -4e-45

sqr_avg f4 [200, 2]
00000000: dc76 b03c 6afd f83b f1c7 473b edd4 813b
00000010: 64c9 f33b 16cf 1e3c 3200 0000 3200 0000
00000020: 2cd5 001f c642 f11e 0000 0000 0000 0000
00000030: 2541 003d 9652 233d 3200 0000 3200 0000
00000040: 3200 0000 3200 0000 9853 4d3a a8b4 8d3a
00000050: 98e4 960d 6271 980d 5d2c cf3c f4e9 a93d
00000060: 010a b73b c038 ee3b 009a 1d29 79e1 5029
00000070: 7b56 4b3c b3d0 863d 3200 0000 3200 0000
00000080: ba94 2a3b dc2f 5e3b 11f0 9e3c 9591 463d
00000090: 5c63 a13e bf09 2a3e 3200 0000 3200 0000
000000a0: 3200 0000 3200 0000 e2fe 6a3b 7bcb 013c
000000b0: 2c6d 513b 39a0 163c 33fa 603a ea36 913a
000000c0: 3200 0000 3200 0000 a494 3e2f 1977 622f
000000d0: 7c1e 9926 c648 a426 31ca b43a b4d2 ea3a
000000e0: 4e17 193a 9764 443a 0000 0000 0000 0000
000000f0: 6c29 a83c 7a1d d73c a03c c23b a729 183c
00000100: 3200 0000 3200 0000 3200 0000 3200 0000
00000110: 7808 d13d 572f 8a3e b4a0 c33d 2c57 813e
00000120: 3200 0000 3200 0000 d6c1 923d ac32 033d
00000130: 3200 0000 3200 0000 3200 0000 3200 0000
00000140: db12 d739 8923 093a f8e5 653c 1749 123d
00000150: fe71 a33a 0322 d43a 73ab 083c 866b 593c
00000160: f81c 7f0b aeca 6e0b d00a c43b 98e4 fa3b
00000170: 2c1a 073c 4899 173c 3200 0000 3200 0000
00000180: 0000 0000 0000 0000 1dc9 fb3b e812 303b
00000190: cd4a e009 b0f7 030a 3b41 793b 4ff5 c23b
000001a0: 5ad1 0200 80ed 0400 f078 2121 4d45 1821
000001b0: 437d c33b 260b 073b 13e6 f73b 9046 213c
000001c0: 3200 0000 3200 0000 adf1 b137 90e5 1838
000001d0: be01 0000 6b02 0000 4d9b 2a0e 73c5 3e0e
000001e0: 28f0 683c 790b 2d3d ad99 1d3b 8f59 7c3b
000001f0: c76e 423a d269 7a3a 39f3 7033 5c5d ac33
00000200: 88a3 6022 6cd5 4222 3200 0000 3200 0000
00000210: 7395 633b 9d88 943b 4bcb 003c 7bb8 273c
00000220: 3200 0000 3200 0000 0b2a f53b 4aad 1f3c
00000230: 3200 0000 3200 0000 35a5 db3b 5669 0f3c
00000240: 39b1 7a3d cefb 363e 0000 0000 0000 0000
00000250: 8eca ba3b addd f23b 9fed f339 792d 1e3a
00000260: 0000 0000 0000 0000 9ec1 b938 1400 8a38
00000270: 5f1e 693c 702e a73b 3200 0000 3200 0000
00000280: 0000 0000 0000 0000 3200 0000 3200 0000
00000290: 3200 0000 3200 0000 0000 0000 0000 0000
000002a0: 3200 0000 3200 0000 3200 0000 3200 0000
000002b0: 3200 0000 3200 0000 e299 383b 7e7b 703b
000002c0: 5c9c 3d3c ed9e 3f3c 27ba 283b 4011 5b3b
000002d0: 3200 0000 3200 0000 65ba 9f3c 73cb c53c
000002e0: 3200 0000 3200 0000 3200 0000 3200 0000
000002f0: 58ca 713a aed5 9a3a ceae 983d 15f8 4c3e
00000300: 79aa b13a aee1 e63a 3200 0000 3200 0000
00000310: 3200 0000 3200 0000 cfbe bb39 f53a 1439
00000320: 762c 9d3a 9e27 cb3a 3427 d13c 70e9 303d
00000330: 9488 9518 8cf8 8c18 87b3 210f 8318 300f
00000340: de48 a537 3ed0 2c38 3200 0000 3200 0000
00000350: 0000 0000 0000 0000 9228 b43b 8295 843c
00000360: 123b 833d 4868 6d3d 0000 0000 0000 0000
00000370: b486 ae3b fec7 e23b 4af4 4b3b 04f8 843b
00000380: 7564 c63b 9a17 013c 51ae c93b 6b65 033c
00000390: 4ee1 a208 90ef 8508 6c6c 1705 3dd4 1b05
000003a0: 1070 7b3a 08c8 a63a c412 333d 73fd 9e3c
000003b0: a8b2 a03b aafa d03b 0fff e63b 867e 163c
000003c0: 11df 5d3b e6f3 803b 3200 0000 3200 0000
000003d0: 9943 eb3a 4cff 183b 9431 983a de74 8c3a
000003e0: dbbd c23b af8f b13c c22c 913b d7ce bc3b
000003f0: 3200 0000 3200 0000 3200 0000 3200 0000
0.021541052 0.0075985687 0.0030484165 0.0039621503 0.007439779 0.009692928 7e-44 7e-44
2.7281386e-20 2.5544484e-20 0.0 0.0 0.031312127 0.039873682 7e-44 7e-44
7e-44 7e-44 0.0007832586 0.0010811286 9.299496e-31 9.395019e-31 0.025289709 0.08296576
0.0055859094 0.0072699487 3.4994577e-14 4.6380844e-14 0.012410755 0.06582775 7e-44 7e-44
0.002602859 0.0033903038 0.019401582 0.04847868 0.31521118 0.1660528 7e-44 7e-44
7e-44 7e-44 0.0035857488 0.007922049 0.003195594 0.0091934735 0.00085822045 0.0011078988
7e-44 7e-44 1.7333207e-10 2.0596892e-10 1.062477e-15 1.1399511e-15 0.0013793168 0.0017915578
0.00058399595 0.00074917957 0.0 0.0 0.020527564 0.026259173 0.005927637 0.009287274
7e-44 7e-44 7e-44 7e-44 0.102066934 0.26989242 0.09552136 0.2526182
7e-44 7e-44 0.071658775 0.032030746 7e-44 7e-44 7e-44 7e-44
0.00041022044 0.00052314304 0.01403188 0.035714235 0.0012469885 0.0016184453 0.008341658 0.0132702645
4.9133007e-32 4.5989612e-32 0.0059827343 0.007656645 0.008245986 0.009252854 7e-44 7e-44
0.0 0.0 0.0076838867 0.0026866738 5.399638e-33 6.3540054e-33 0.0038033265 0.005949653
2.58772e-40 4.52541e-40 5.470898e-19 5.159132e-19 0.00596586 0.002060601 0.007565269 0.009843484
7e-44 7e-44 2.1212583e-05 3.645342e-05 6.25e-43 8.67e-43 2.1028892e-30 2.3514376e-30
0.014217414 0.04224727 0.0024047897 0.003850553 0.000741702 0.00095525116 5.6100564e-08 8.026356e-08
3.0444234e-18 2.6404887e-18 7e-44 7e-44 0.003472653 0.004532887 0.007860969 0.010236855
7e-44 7e-44 0.0074818186 0.009745905 7e-44 7e-44 0.006703044 0.008753141
0.06120417 0.17869493 0.0 0.0 0.005700416 0.0074116797 0.00046525613 0.00060339976
0.0 0.0 8.8575514e-05 6.580367e-05 0.014228432 0.0051019713 7e-44 7e-44
0.0 0.0 7e-44 7e-44 7e-44 7e-44 0.0 0.0
7e-44 7e-44 7e-44 7e-44 7e-44 7e-44 0.0028167893 0.00366947
0.0115729235 0.011695606 0.002574572 0.003342703 7e-44 7e-44 0.01949806 0.024144864
7e-44 7e-44 7e-44 7e-44 0.0009223572 0.0011812949 0.07455216 0.20016511
0.0013554833 0.0017614865 7e-44 7e-44 7e-44 7e-44 0.00035809583 0.00014136343
0.00119914 0.0015499478 0.025531389 0.043191373 3.8653506e-24 3.644012e-24 7.9724886e-30 8.682191e-30
1.9703464e-05 4.1201936e-05 7e-44 7e-44 0.0 0.0 0.0054980004 0.016184572
0.06407751 0.05796078 0.0 0.0 0.0053261165 0.0069208136 0.003112095 0.004057886
0.006054456 0.007879162 0.0061548133 0.008019785 9.802989e-34 8.060967e-34 7.1199e-36 7.327047e-36
0.0009591589 0.0012724409 0.04371907 0.019407963 0.00490411 0.0063775377 0.0070494483 0.009185439
0.0033854882 0.003935325 7e-44 7e-44 0.0017949223 0.0023345528 0.0011611455 0.0010715981
0.0059430427 0.021674959 0.0044303844 0.005761962 7e-44 7e-44 7e-44 7e-44
