trees/save/tree/5bits/split_75.0_0.1_5_50/models/model.pth (torch, 48790 bytes, 12 tensors)

embedding_layers.weight f4 [494, 5]
0	0x3be03412	0.0068421448
1	0xbbef0e03	-0.0072953715
2	0xbb77ee12	-0.003783111
3	0x3c5c632d	0.01345138
4	0xbada9ffa	-0.0016679757
5	0x3b38caa3	0.0028196953
6	0xba808524	-0.0009805304
7	0xbbf5b7d3	-0.00749872
8	0x3c0db5bc	0.008649286
9	0x3b4d5a0e	0.0031334194
10	0x3baf21d7	0.00534461
11	0x3b55f66a	0.0032648095
12	0xbbfce5d5	-0.007717828
13	0xba512272	-0.000797785
14	0xba447fd7	-0.0007495856
15	0x3c39d283	0.011341694
16	0x3b1af9e6	0.0023647486
17	0x39ac1819	0.0003282435
18	0xbc13d105	-0.009022002
19	0x3c0c1783	0.0085505275
20	0x3bcd0dea	0.006257762
21	0x3bad5f8f	0.0052909325
22	0xb9c158b5	-0.0003687792
23	0xb9a0db62	-0.0003068103
24	0xbb860497	-0.0040899026
25	0xbbcb799b	-0.006209565
26	0xbc02b1dd	-0.007976976
27	0x3b9fedc4	0.004880639
28	0x3b4539c0	0.0030094236
29	0xbb3eee0c	-0.0029133586
30	0xbc3a6b53	-0.011378127
31	0xbb6f72c9	-0.0036536923
32	0xb9d5d3ba	-0.00040784274
33	0xbc457ea1	-0.012054116
34	0x3bc320ca	0.0059548365
35	0x3be36a11	0.0069401343
36	0xbbb971c4	-0.005659314
37	0xbb8d6fab	-0.0043162904
38	0xbbfa8c4d	-0.0076461197
39	0x3bb4e138	0.005520012
40	0x3c00262b	0.0078216
41	0x3a6dc47e	0.0009070112
42	0x38458a35	4.7097175e-05
43	0xba2b36c9	-0.0006531296
44	0x38c5c0f5	9.429633e-05
45	0xbbb58a7e	-0.005540191
46	0x3bfc4a9f	0.007699325
47	0x3b8f0f4e	0.004365838
48	0x3a583651	0.000824784
49	0x37befa2f	2.2766266e-05
50	0xbc1a0083	-0.009399536
51	0xbc2f9623	-0.010716948
52	0x3bf61b96	0.0075106127
53	0x3c1b1354	0.009465057
54	0xbc8bb7be	-0.017055389
55	0x3c0d901f	0.008640318
56	0x3ae5a609	0.0017520796
57	0x3c02c2d2	0.007981019
58	0x3c3db36f	0.011578425
59	0x3c23e31f	0.01000288
60	0xba7dc38c	-0.0009680323
61	0x3b70dde9	0.0036753363
62	0x3bdd6345	0.0067562186
63	0xba187f0a	-0.000581727
64	0xbc4fe37b	-0.012688513
65	0x3c39b0a4	0.011333618
66	0x3b902a01	0.0043995385
67	0x3c039565	0.008031224
68	0xbc56bbf3	-0.013106334
69	0xbaad67c4	-0.0013229777
70	0x3b45ab94	0.0030162083
71	0x3ada4087	0.0016651311
72	0x3c4720fc	0.01215386
73	0xbc80b821	-0.0157128
74	0x3c69396f	0.014234885
75	0xbb22e8ea	-0.0024858066
76	0xbc09f25c	-0.008419599
77	0xbc247449	-0.01003749
78	0x3c215f79	0.009849423
79	0xbba9b5f2	-0.0051791603
80	0xba4652ef	-0.00075654587
81	0xbc3a7209	-0.011379727
82	0xbbf1aaef	-0.007375113
83	0x3bcf0cca	0.0063186632
84	0x3bac4d46	0.005258235
85	0xbad13be2	-0.0015963281
86	0xb9088b56	-0.00013021877
87	0xbba9cb8f	-0.005181737
88	0xbc0cd602	-0.008595945
89	0xb7f21970	-2.8860493e-05
90	0xbc2ff998	-0.01074066
91	0x3c825e12	0.015913997
92	0x3b254dc5	0.0025223356
93	0xbb1bc717	-0.002376979
94	0xbb51b0d2	-0.0031996262
95	0x3c496dc8	0.01229424
96	0xbc558fb7	-0.013034753
97	0x3c5ae43c	0.013360079
98	0xb8199b04	-3.6622412e-05
99	0xbb9f07ca	-0.0048532235
100	0x3b961ffb	0.004581449
101	0x3b112a05	0.002215029
102	0x3be3d73d	0.0069531486
103	0x3b9651f5	0.0045874068
104	0xbc097c37	-0.0083914315
105	0xbc0d0913	-0.0086081205
106	0xbc06aad3	-0.008219439
107	0xbb9df01e	-0.004819884
108	0x3c5e4544	0.013566319
109	0xbc57d922	-0.013174327
110	0x3c76eaa1	0.015070588
111	0x3ab2cb77	0.001364096
112	0xbc30150c	-0.0107472055
113	0xbc15b194	-0.009136576
114	0xba8ac53b	-0.0010587344
115	0x3a5c3d08	0.00084014283
116	0xbc2ce0c9	-0.01055164
117	0x3a3e24e2	0.0007253421
118	0xbc266e0d	-0.010158074
119	0xbc0a2289	-0.008431085
120	0xba904bce	-0.001100892
121	0xb931d272	-0.00016958432
122	0xbbd67667	-0.0065448764
123	0xbc0851a8	-0.00832025
124	0x3c4ead5e	0.012614576
125	0xbad7ede8	-0.00164741
126	0x3b5f4900	0.003407061
127	0xbbab2416	-0.0052228076
128	0xbc4d00fd	-0.012512443
129	0x3ab51b4c	0.0013817339
130	0xb9f1c6c8	-0.00046115206
131	0xbb827ca5	-0.003982144
132	0x3c4f3da5	0.012648975
133	0xbc258fb7	-0.010105065
134	0x3c3ced3a	0.011531169
135	0xbbcec52c	-0.006310126
136	0xba4a8252	-0.0007725108
137	0x3a13f70a	0.00056444167
138	0xbb154c4a	-0.0022781068
139	0x3bc3c9cb	0.0059749833
140	0xb9c4854e	-0.00037483353
141	0x3bc1e118	0.005916726
142	0x3aef2b88	0.0018247226
143	0xbbc35e57	-0.005962174
144	0x3bb3e40a	0.005489831
145	0xbb25441c	-0.0025217598
146	0x3c4a7ec9	0.0123593295
147	0x3c27d3d8	0.010243379
148	0x3c001687	0.007817871
149	0xbc0bf365	-0.0085419165
150	0xbaf1db86	-0.0018452264
151	0x39a1f16d	0.0003088819
152	0x3c5d858c	0.01352061
153	0x3c42728a	0.011868129
154	0x3a87d08d	0.0010361836
155	0xb9650ed2	-0.00021844663
156	0x3c4b1e95	0.012397428
157	0x3bcc09b1	0.0062267412
158	0x3b9853f7	0.0046486813
159	0xbbead743	-0.0071667745
160	0x3bc98c64	0.006150769
161	0x3aaaf804	0.0013043885
162	0x3c422937	0.011850647
163	0xbbc817a1	-0.0061063324
164	0xba0b2eb0	-0.0005309386
165	0xbbde40b1	-0.006782614
166	0xbb4bec7e	-0.0031116302
167	0x3c36ae80	0.0111500025
168	0x3be93b35	0.0071176537
169	0xbc1b4051	-0.009475783
170	0xbb80b7c1	-0.003928155
171	0x3aadefcc	0.0013270318
172	0x3bbae732	0.00570383
173	0xba2d2bbf	-0.0006605945
174	0x3bc40198	0.0059816353
175	0x3b100109	0.0021973273
176	0xbb3b6a5e	-0.0028597335
177	0x39eb53ff	0.00044885275
178	0x3c276371	0.01021658
179	0xbba00a3d	-0.004884033
180	0x3ad659a6	0.0016353622
181	0xbaf4182e	-0.0018622929
182	0x3bd05e71	0.0063589145
183	0x3b6d3969	0.003619755
184	0xbbba24d3	-0.0056806593
185	0x3ba22c7c	0.0049491506
186	0xbab960ef	-0.0014143268
187	0x3ac23709	0.0014817427
188	0x3c3954df	0.011311739
189	0x3a7f434b	0.00097375055
190	0xbb13fece	-0.0022582295
191	0x3ad12246	0.0015955649
192	0xbb9ee9b9	-0.0048496393
193	0xbae53f63	-0.0017490204
194	0xbc1c7753	-0.0095499335
195	0xbbee7929	-0.007277627
196	0xbc4668d5	-0.012109955
197	0x396db65d	0.00022670017
198	0xbbcc5baf	-0.0062365155
199	0x3aabe47b	0.0013114357
200	0xbb9d5d9e	-0.00480242
201	0xbbc18efa	-0.0059069367
202	0xbae435e3	-0.0017411079
203	0x3b8d790c	0.0043174084
204	0xba8acc96	-0.0010589536
205	0x3c6948a4	0.01423851
206	0x3b650bbc	0.0034949621
207	0x3bf26dff	0.0073983665
208	0x3bf8861d	0.007584347
209	0x3be19f7b	0.0068854666
210	0xbb008c36	-0.0019614822
211	0xba54a9a9	-0.00081124395
212	0x39894137	0.00026179265
213	0x3bed10bf	0.0072346623
214	0x3a4eb720	0.0007885564
215	0xbbc70aa9	-0.006074269
216	0xbbbf3791	-0.0058354815
217	0x3bf7f407	0.007566932
218	0x3bb2e750	0.0054597035
219	0x3c6cdba5	0.014456664
220	0x3afb25e8	0.0019161077
221	0x3c7bd87d	0.015371439
222	0xbc1d7290	-0.009609833
223	0xbb81af9e	-0.003957703
224	0x3c2cc2f4	0.010544527
225	0x3c3ac0d5	0.011398514
226	0xbacf3d20	-0.0015811063
227	0x3b104cc7	0.002201842
228	0xbb3a27f5	-0.0028405164
229	0x3bdbbbce	0.0067057377
230	0xba8b5277	-0.0010629435
231	0x3c2c990e	0.010534538
232	0x3ba38ccc	0.0049911495
233	0x3c7c3b03	0.015394929
234	0x3b82c654	0.0039909277
235	0xbab30771	-0.0013658834
236	0xbb9e6f11	-0.0048350175
237	0xbbaff2a8	-0.005369503
238	0xbc215c04	-0.009848598
239	0xba14059a	-0.00056465867
240	0xbc352c39	-0.011057907
241	0x3c38ccfc	0.011279341
242	0xbc27d83f	-0.010244428
243	0x3c009ffc	0.007850643
244	0x3ba8eaaa	0.0051549273
245	0x3b8e0a4f	0.004334725
246	0x3c89ad35	0.016806224
247	0xbbaee1f2	-0.0053369934
248	0x3c4560f5	0.012047042
249	0xbc311202	-0.010807516
250	0x3c664e9c	0.014056828
251	0xbc3796b4	-0.011205364
252	0xbb4bfddf	-0.003112666
253	0x3bdef3ae	0.006803951
254	0xbc86dfd1	-0.016464146
255	0xbb5d4dff	-0.0033768413

layers.0.weight f4 [100, 10]
0	0xbcffd808	-0.031230941
1	0x3eaeb26d	0.34120503
2	0x3eae9bdf	0.34103295
3	0xbe0cb13b	-0.13739483
4	0x3e29417a	0.16528884
5	0x3e50d83c	0.20394987
6	0xbeb2b9a8	-0.3490727
7	0x3d6ae8cd	0.057350922
8	0x3ebeb59f	0.3724794
9	0xbda22a78	-0.079182565
10	0x3e2cd91b	0.16879694
11	0xbcd7ead0	-0.026357085
12	0x3d96518e	0.07339774
13	0xbd0ab5ae	-0.03386467
14	0x3c7a4d2a	0.015277186
15	0x3e5c32af	0.2150371
16	0xbe82b1de	-0.25526327
17	0xbe8d0d75	-0.2754933
18	0x3e8e521d	0.27797022
19	0x3e5cfdd1	0.21581198
20	0x3d8654f4	0.06559172
21	0xbe02fd47	-0.1279193
22	0xbd6a7938	-0.05724451
23	0xbcbb1eb3	-0.022841787
24	0xbcce5f81	-0.025192024
25	0xbdc1aea5	-0.09457139
26	0x3de7c331	0.11316527
27	0x3e1e015b	0.15430205
28	0x3cdf5282	0.027261022
29	0xbdbbefe3	-0.09176614
30	0xbb6a9268	-0.0035792831
31	0xbc19f52e	-0.009396834
32	0xbb549b3b	-0.0032441157
33	0x3ba0b97e	0.004904925
34	0x3c6184e4	0.013764594
35	0x3a65a347	0.0008759987
36	0x3c8eb2b2	0.017419193
37	0xbc84f608	-0.016230598
38	0xbc1e9253	-0.009678441
39	0x3c41ee82	0.01183665
40	0xbe3a5a94	-0.18198615
41	0xbe9c8929	-0.30573395
42	0xbee7fc92	-0.45309883
43	0xbd311e91	-0.04324204
44	0x3e2b63b0	0.16737247
45	0x3ddf1a1c	0.10893652
46	0x3df5a99c	0.11995241
47	0xbe4c9abb	-0.199809
48	0x3e703eba	0.23461428
49	0xbe1a089e	-0.1504235
50	0x3d933ab0	0.07188928
51	0xbd44c166	-0.048036
52	0x3d2e52ff	0.04255962
53	0x3cc24561	0.023714723
54	0xbcfc9df9	-0.030837046
55	0xbb966d4a	-0.004590665
56	0x3d22cd36	0.039746486
57	0xbd2bba82	-0.041925915
58	0x3c78a17e	0.0151752215
59	0xbccbd039	-0.024879562
60	0x3d22205f	0.039581653
61	0xbc856b5a	-0.01628654
62	0x3cf86a38	0.030324087
63	0x3d4b71fe	0.04966926
64	0xbcf3357d	-0.029688591
65	0xbc7ebd0d	-0.015548003
66	0x3c713b06	0.014723545
67	0xbb5b10cf	-0.0033426767
68	0xbc1734a3	-0.009228858
69	0x3c3e01d3	0.011597115
70	0x3e921b65	0.28536525
71	0xbe2d5311	-0.16926219
72	0xbe93d388	-0.28872323
73	0xbe8dbb59	-0.27681997
74	0x3e2d5fca	0.16931072
75	0xb93f9394	-0.00018270157
76	0xbb96e2a6	-0.0046046553
77	0xbde58242	-0.11206485
78	0xbc2d778a	-0.010587582
79	0xbee73db8	-0.45164275
80	0xbd91388e	-0.07090865
81	0x3e878a6d	0.26472798
82	0x3de9e066	0.11419754
83	0x3d2b6ddb	0.041852813
84	0x3ea7f4c8	0.3280394
85	0x3e211f04	0.15734488
86	0x3e21e03d	0.15808196
87	0x3d6c0902	0.057625778
88	0xbd72a4af	-0.059239086
89	0xbdec56c6	-0.11539988
90	0x3d76b3f4	0.06023021
91	0x3c157f4b	0.009124587
92	0xbd6121dc	-0.05496393
93	0xbb9ecb4b	-0.0048460118
94	0x3c2f71a0	0.010708243
95	0x3c995ff8	0.01872252
96	0x3bbdcf0c	0.005792504
97	0x3dc79575	0.097453035
98	0x3e0b00d6	0.13574538
99	0x3d90219f	0.07037663
100	0x3da1bdcb	0.07897528
101	0xbda7d6f0	-0.08195293
102	0xbefb8cab	-0.4913076
103	0xbdcda65e	-0.10041498
104	0x3e73e1a8	0.2381655
105	0xbe820cee	-0.2540049
106	0xbe32c69b	-0.17458574
107	0x3ee131f9	0.4398344
108	0xbeb1d8e2	-0.3473578
109	0x3ea210a3	0.31653318
110	0xbd9b80a0	-0.07592893
111	0x3e952961	0.29133132
112	0x3e973e5f	0.29539773
113	0x3e0cbc36	0.13743672
114	0x3db355c2	0.087565914
115	0xbeaa3643	-0.33244523
116	0x3e90664a	0.2820304
117	0xbe80545c	-0.2506436
118	0x3df6df06	0.12054257
119	0x3cfee632	0.031115625
120	0xbe9d6e8b	-0.307484
121	0xbe9e4871	-0.30914643
122	0xbe838553	-0.25687656
123	0xbe321f08	-0.1739465
124	0xbdf10c71	-0.11769951
125	0xb805d225	-3.1905383e-05
126	0x3e421292	0.18952397
127	0xbedf16e0	-0.4357214
128	0x3e761b77	0.24033915
129	0x3e581c1e	0.21104476
130	0x3e18e880	0.14932442
131	0x3e9ae12d	0.3024992
132	0xbe10d19b	-0.14142458
133	0xbe3aaf33	-0.18230896
134	0x3e486cd5	0.19572766
135	0x3e131b3e	0.14365861
136	0xbe957e9a	-0.29198152
137	0x3d751da2	0.059842713
138	0xbdac13f6	-0.08402245
139	0xbd5d9bcf	-0.05410367
140	0x3e822194	0.25416243
141	0x3dc021d6	0.09381454
142	0xbe1c7d4e	-0.15282175
143	0xbdd64217	-0.104618244
144	0x3e1e8734	0.15481263
145	0x3eb1c942	0.3472386
146	0x3ded6b88	0.115927756
147	0xbecd7b30	-0.40133047
148	0xbe7ae119	-0.2449993
149	0x3dde49b9	0.10853905
150	0xbb3178fb	-0.0027080167
151	0x3bdf01cc	0.006805634
152	0x3b4ff024	0.0031728828
153	0xbc277b82	-0.010222318
154	0x3cb0dd26	0.021589827
155	0xbcbe75c5	-0.023249516
156	0x3d16918d	0.0367599
157	0x3c3d02b4	0.011536289
158	0xbca23302	-0.019799713
159	0x3b9315e5	0.004488694
160	0x3eb7c055	0.35888925
161	0xbe9bb92e	-0.30414718
162	0xbe230548	-0.15919983
163	0x3d9d1a2d	0.07671008
164	0x3dd87fee	0.10571276
165	0x3e8f32e0	0.27968502
166	0x3daff958	0.085924804
167	0xbd3d6a37	-0.046243872
168	0x3b9109a3	0.0044261976
169	0xbe13bc0b	-0.14427201
170	0xbe399d82	-0.1812649
171	0xbe113510	-0.14180398
172	0xbea97260	-0.33095074
173	0x3dcb371c	0.09922621
174	0x3d2309a2	0.03980411
175	0x3e2cd642	0.16878608
176	0xbd85e545	-0.0653787
177	0xbe6e8a90	-0.23295045
178	0x3d15ce21	0.036573533
179	0x3e25b588	0.1618253
180	0x3cfc5dcc	0.030806445
181	0x3ddda3f0	0.10822284
182	0x3c4cc0c2	0.012497129
183	0x3dc6bb78	0.097037256
184	0x3c24b30d	0.010052455
185	0x3d69e4ad	0.057102848
186	0xbd17a931	-0.037026588
187	0xbbbedbca	-0.0058245407
188	0x3d1fcb65	0.03901233
189	0x3d1b8773	0.03797097
190	0x3d407199	0.046983335
191	0x3b51b0d9	0.0031996279
192	0x3cfdb43a	0.030969728
193	0x3c9da798	0.019244954
194	0xbc95c403	-0.018281942
195	0x3cefbaf7	0.029263956
196	0xbbc3f68b	-0.005980318
197	0xbceb9a3c	-0.028760068
198	0x3d173f80	0.036925793
199	0xbc676b0a	-0.014124641
200	0x3e65f231	0.2245567
201	0x3e11684d	0.14199944
202	0x3bdaf54f	0.006682075
203	0x3d43dae8	0.047816187
204	0x3e43459f	0.19069527
205	0x3e15d9e8	0.14633906
206	0x3dbef42a	0.09323914
207	0xbd372d0c	-0.044720694
208	0x3e62e24d	0.2215664
209	0xbe3027ef	-0.17202733
210	0xbe7f2255	-0.2491544
211	0x3ebc59ae	0.3678717
212	0xbdcdba2d	-0.10045276
213	0xbdb1e2d7	-0.086858444
214	0x3eddd724	0.43328202
215	0xbe90b7c8	-0.28265214
216	0x3e3ac46b	0.1823899
217	0xbe90dd0d	-0.28293648
218	0x3e48a35f	0.19593571
219	0x3da520ed	0.08062921
220	0xbe832d79	-0.2562063
221	0xbe162e4b	-0.14666097
222	0xbdb411b6	-0.087924406
223	0x3e2f6187	0.17127047
224	0x3e07aea0	0.13250208
225	0x3e5dbc91	0.21653964
226	0xbe8dff71	-0.2773395
227	0x3e6ba71f	0.2301297
228	0xbeb1b1c5	-0.3470594
229	0xbe9739ea	-0.29536372
230	0xbe35ca37	-0.1775292
231	0x3e853e4e	0.26024097
232	0x3e596314	0.21229202
233	0xbe8a36d2	-0.2699495
234	0x3eca2782	0.39483267
235	0xbea2f8ec	-0.31830537
236	0x3eb0d002	0.34533697
237	0x3e64e3a3	0.22352462
238	0xbd192615	-0.037389833
239	0x3ee1733e	0.44033235
240	0xbe660536	-0.22462925
241	0xbe43aba1	-0.1910844
242	0xbe06622d	-0.13123389
243	0xbe62d1df	-0.22150372
244	0xbeec177a	-0.4611166
245	0xbe20b023	-0.15692191
246	0x3e523c73	0.20530872
247	0x3e568c05	0.2095185
248	0xbefa8c5b	-0.48935208
249	0xbdd52d57	-0.104090385
250	0x3e53857b	0.20656388
251	0xbd1f7f3c	-0.0389397
252	0xbe32267e	-0.17397496
253	0x3d0ddeef	0.034636434
254	0xbd0a36dd	-0.033743728
255	0x3e0040f9	0.12524785

layers.0.bias f4 [100]
0	0x3e4d52b9	0.20051087
1	0xbf1fa315	-0.6235822
2	0xbd6f5f11	-0.05844027
3	0xbe0cc2c3	-0.1374617
4	0xbeeac746	-0.4585516
5	0xbe18fcbf	-0.14940165
6	0xbe8d86f0	-0.27642012
7	0x3e8cd8e2	0.27509218
8	0xbd6707a5	-0.056403775
9	0xbf00dee5	-0.5034011
10	0x3e131658	0.14363992
11	0xbe17205e	-0.14758441
12	0xbe0d3158	-0.13788354
13	0x3d59ffe9	0.05322257
14	0xbe84bf56	-0.25927228
15	0xbe20ec4b	-0.15715139
16	0xbf2326a6	-0.6373085
17	0xbf04bbea	-0.51849234
18	0xbe3c0992	-0.18363026
19	0xbe83abe3	-0.25717077
20	0xbda355ce	-0.0797535
21	0x3e86cc14	0.26327574
22	0x3cc53b16	0.024076026
23	0xbe487ca5	-0.19578798
24	0xbd8402da	-0.064458564
25	0x3dc40eaf	0.09573113
26	0xbe4f97d9	-0.20272769
27	0xbcedfa6b	-0.029050073
28	0xbeeff4f7	-0.4686658
29	0xbe4f1bc6	-0.20225438
30	0xbe96a5b0	-0.29423285
31	0xbec001d7	-0.37501404
32	0xbeb5a28b	-0.35475573
33	0xbf27294f	-0.65297407
34	0xbdbc7631	-0.09202231
35	0xbeeccf15	-0.4625174
36	0xbe69bb01	-0.22825243
37	0xbe4990db	-0.19684164
38	0xbe924f30	-0.2857604
39	0xbc88dd03	-0.01670695
40	0xbdf4b40d	-0.119484045
41	0x3e8d170a	0.2755664
42	0xbdd0bbd4	-0.10192075
43	0x3e2e9767	0.17049943
44	0xbed0a62c	-0.4075178
45	0xbeab6f88	-0.3348353
46	0xbe3e9306	-0.18610772
47	0xbe8d1c90	-0.27560854
48	0xbed4c85e	-0.41559118
49	0xbe22fa23	-0.15915732
50	0x3d93428e	0.07190429
51	0xbe5a80a7	-0.2133814
52	0xbe5435b8	-0.20723617
53	0xbe39eb4e	-0.18156168
54	0xbc406f5d	-0.011745301
55	0xbdcd7e61	-0.100338705
56	0x3cc67ac5	0.024228463
57	0x3ed89c0d	0.42306557
58	0xbd56f686	-0.052481197
59	0xbefc6736	-0.49297494
60	0x3d830b9e	0.063987
61	0xbe9e02fa	-0.30861646
62	0x3e341792	0.17587116
63	0xbf02a3b1	-0.51031023
64	0xbe6d1940	-0.23154163
65	0x3e1d9d04	0.15391928
66	0xbeb92ca9	-0.36166885
67	0xbe9851ac	-0.2974981
68	0xbec6e101	-0.3884354
69	0xbf044651	-0.51669794
70	0x3dd51a28	0.104053795
71	0xbe92eb13	-0.28694972
72	0xbed71257	-0.4200618
73	0xbeb35367	-0.35024568
74	0xbf4348f1	-0.76283175
75	0xbf1cfbf6	-0.6132196
76	0xbef765ce	-0.48319858
77	0xbe89d1ff	-0.26918027
78	0xbf1ac1cc	-0.6045196
79	0xbebac90a	-0.36481506
80	0xbed505c7	-0.4160597
81	0xbeae1206	-0.33998126
82	0x3ea143b4	0.31496966
83	0xbe87e30c	-0.2654041
84	0x3e8fac32	0.28061062
85	0xbe95ffb6	-0.29296654
86	0xbf22444d	-0.6338547
87	0x3e4a280a	0.19741836
88	0xbe21fc6e	-0.1581895
89	0xbf3df06c	-0.7419498
90	0x3eb7a987	0.35871527
91	0xbe87473e	-0.2642154
92	0xbedc3aa6	-0.43013495
93	0xbe7cf8e0	-0.24704313
94	0xbc2421e4	-0.010017846
95	0xbe19f955	-0.15036519
96	0xbe9bdef4	-0.30443537
97	0x3dc25b05	0.09490017
98	0xbe5419ac	-0.20712918
99	0x3c8d41b5	0.017243246

layers.2.weight f4 [1, 100]
0	0xbdf5e738	-0.12006992
1	0x3e823b12	0.25435692
2	0x3ab73564	0.0013977704
3	0xb9731bcd	-0.00023184642
4	0xbe1e153a	-0.15437785
5	0xbd038005	-0.03210451
6	0xbc3dd4e2	-0.0115864
7	0xbdc1e9ca	-0.0946842
8	0xbcd12e8e	-0.025534894
9	0xbc06bb3f	-0.008223354
10	0xbe484ed7	-0.19561325
11	0xbd212aee	-0.03934758
12	0xbda8a565	-0.082346715
13	0xbd194dd2	-0.03742773
14	0xbe33e070	-0.17566085
15	0xba56c79b	-0.00081931957
16	0x3e4b57d2	0.1985772
17	0xbe5b5a83	-0.21421246
18	0x3b9fb8a6	0.0048743067
19	0x390a9c74	0.00013218989
20	0xbdafa2e8	-0.08575994
21	0xbe06e979	-0.13175
22	0xbdd2d1a1	-0.1029389
23	0xbe1c54b0	-0.1526668
24	0xbe05d1a3	-0.13068251
25	0xbc363f16	-0.011123439
26	0xbe14bb70	-0.14524627
27	0xbdcd742b	-0.10031923
28	0x39a18170	0.0003080475
29	0x3a9b552f	0.0011850948
30	0xbddf08b3	-0.10890331
31	0xbe23d3d3	-0.15998773
32	0xb685410b	-3.971281e-06
33	0xbe595af2	-0.21226099
34	0xbe31d3a9	-0.17365898
35	0xbe217d06	-0.15770349
36	0x3b358055	0.00276949
37	0x39ad4f25	0.000330561
38	0x39828cf5	0.00024900553
39	0xbdef9b69	-0.11699564
40	0xbe349205	-0.17633827
41	0xbdb28022	-0.08715846
42	0xbdb0c0b6	-0.08630507
43	0xbd60b3f8	-0.05485913
44	0xbd99fc40	-0.07518816
45	0x3a7c3041	0.00096202275
46	0xb8bf7f93	-9.131352e-05
47	0x3a87c91d	0.0010359619
48	0xbe23befc	-0.15990824
49	0xbe015374	-0.12629491
50	0xbdb4f1d6	-0.08835189
51	0x3a9aa197	0.0011797425
52	0xba7a9839	-0.0009559426
53	0xbb2efa14	-0.002669935
54	0xbdc40afd	-0.09572408
55	0xbe39d899	-0.18149032
56	0xbdf76a06	-0.12080769
57	0xbe04e87d	-0.12979312
58	0xbd121c77	-0.035671677
59	0xbc245fc7	-0.010032601
60	0xbdbf54a9	-0.093423195
61	0xbe266b20	-0.16251802
62	0xbde7bed8	-0.113156974
63	0x3e78a338	0.24281013
64	0x392cbe2d	0.00016474044
65	0xbde90c6e	-0.11379324
66	0xbe675969	-0.22592701
67	0xbb219328	-0.0024654362
68	0x391159a7	0.00013861676
69	0xbc45d27f	-0.012074112
70	0xbe2f2526	-0.17104015
71	0xba72a349	-0.0009255899
72	0xbe1ba356	-0.15199026
73	0xbc1bc828	-0.00950817
74	0x3ebec238	0.37257552
75	0xbe911105	-0.28333297
76	0xb9c469af	-0.00037462774
77	0xbdfd64ba	-0.12372728
78	0xbeabc28b	-0.33546862
79	0xbde1e6b9	-0.11030335
80	0x3b25aafd	0.002527892
81	0xbb650afa	-0.003494917
82	0xbe3de8f3	-0.18545894
83	0xbb8f90e9	-0.0043812883
84	0xbdc3eeba	-0.09567018
85	0x3a0d134f	0.00053816003
86	0x3e893538	0.26798415
87	0xbcbf83f2	-0.023378346
88	0x3a160052	0.00057220936
89	0xbef89393	-0.4855009
90	0xbddb7735	-0.10716096
91	0x3a081041	0.00051904103
92	0x3b8e9d13	0.004352221
93	0xbe0fbc9a	-0.1403679
94	0xbdc7c7d0	-0.09754908
95	0x3b81ec7d	0.003964959
96	0x39732b17	0.00023190338
97	0xbd4658b3	-0.048424434
98	0x38ef1b40	0.00011401484
99	0xbe02b00e	-0.12762472

grad_avg f4 [494, 5]
0	0x00000000	0.0
1	0x00000000	0.0
2	0x00000000	0.0
3	0x00000000	0.0
4	0x00000000	0.0
5	0x00000000	0.0
6	0x00000000	0.0
7	0x00000000	0.0
8	0x00000000	0.0
9	0x00000000	0.0
10	0x00000000	0.0
11	0x00000000	0.0
12	0x00000000	0.0
13	0x00000000	0.0
14	0x00000000	0.0
15	0x00000000	0.0
16	0x00000000	0.0
17	0x00000000	0.0
18	0x00000000	0.0
19	0x00000000	0.0
20	0x00000000	0.0
21	0x00000000	0.0
22	0x00000000	0.0
23	0x00000000	0.0
24	0x00000000	0.0
25	0x00000000	0.0
26	0x00000000	0.0
27	0x00000000	0.0
28	0x00000000	0.0
29	0x00000000	0.0
30	0x00000000	0.0
31	0x00000000	0.0
32	0x00000000	0.0
33	0x00000000	0.0
34	0x00000000	0.0
35	0x00000000	0.0
36	0x00000000	0.0
37	0x00000000	0.0
38	0x00000000	0.0
39	0x00000000	0.0
40	0x00000000	0.0
41	0x00000000	0.0
42	0x00000000	0.0
43	0x00000000	0.0
44	0x00000000	0.0
45	0x00000000	0.0
46	0x00000000	0.0
47	0x00000000	0.0
48	0x00000000	0.0
49	0x00000000	0.0
50	0x00000000	0.0
51	0x00000000	0.0
52	0x00000000	0.0
53	0x00000000	0.0
54	0x00000000	0.0
55	0x00000000	0.0
56	0x00000000	0.0
57	0x00000000	0.0
58	0x00000000	0.0
59	0x00000000	0.0
60	0x00000000	0.0
61	0x00000000	0.0
62	0x00000000	0.0
63	0x00000000	0.0
64	0x00000000	0.0
65	0x00000000	0.0
66	0x00000000	0.0
67	0x00000000	0.0
68	0x00000000	0.0
69	0x00000000	0.0
70	0x00000000	0.0
71	0x00000000	0.0
72	0x00000000	0.0
73	0x00000000	0.0
74	0x00000000	0.0
75	0x00000000	0.0
76	0x00000000	0.0
77	0x00000000	0.0
78	0x00000000	0.0
79	0x00000000	0.0
80	0x00000000	0.0
81	0x00000000	0.0
82	0x00000000	0.0
83	0x00000000	0.0
84	0x00000000	0.0
85	0x00000000	0.0
86	0x00000000	0.0
87	0x00000000	0.0
88	0x00000000	0.0
89	0x00000000	0.0
90	0x00000000	0.0
91	0x00000000	0.0
92	0x00000000	0.0
93	0x00000000	0.0
94	0x00000000	0.0
95	0x00000000	0.0
96	0x00000000	0.0
97	0x00000000	0.0
98	0x00000000	0.0
99	0x00000000	0.0
100	0x00000000	0.0
101	0x00000000	0.0
102	0x00000000	0.0
103	0x00000000	0.0
104	0x00000000	0.0
105	0x00000000	0.0
106	0x00000000	0.0
107	0x00000000	0.0
108	0x00000000	0.0
109	0x00000000	0.0
110	0x00000000	0.0
111	0x00000000	0.0
112	0x00000000	0.0
113	0x00000000	0.0
114	0x00000000	0.0
115	0x00000000	0.0
116	0x00000000	0.0
117	0x00000000	0.0
118	0x00000000	0.0
119	0x00000000	0.0
120	0x00000000	0.0
121	0x00000000	0.0
122	0x00000000	0.0
123	0x00000000	0.0
124	0x00000000	0.0
125	0x00000000	0.0
126	0x00000000	0.0
127	0x00000000	0.0
128	0x00000000	0.0
129	0x00000000	0.0
130	0x00000000	0.0
131	0x00000000	0.0
132	0x00000000	0.0
133	0x00000000	0.0
134	0x00000000	0.0
135	0x00000000	0.0
136	0x00000000	0.0
137	0x00000000	0.0
138	0x00000000	0.0
139	0x00000000	0.0
140	0x00000000	0.0
141	0x00000000	0.0
142	0x00000000	0.0
143	0x00000000	0.0
144	0x00000000	0.0
145	0x00000000	0.0
146	0x00000000	0.0
147	0x00000000	0.0
148	0x00000000	0.0
149	0x00000000	0.0
150	0x00000000	0.0
151	0x00000000	0.0
152	0x00000000	0.0
153	0x00000000	0.0
154	0x00000000	0.0
155	0x00000000	0.0
156	0x00000000	0.0
157	0x00000000	0.0
158	0x00000000	0.0
159	0x00000000	0.0
160	0x00000000	0.0
161	0x00000000	0.0
162	0x00000000	0.0
163	0x00000000	0.0
164	0x00000000	0.0
165	0x00000000	0.0
166	0x00000000	0.0
167	0x00000000	0.0
168	0x00000000	0.0
169	0x00000000	0.0
170	0x00000000	0.0
171	0x00000000	0.0
172	0x00000000	0.0
173	0x00000000	0.0
174	0x00000000	0.0
175	0x00000000	0.0
176	0x00000000	0.0
177	0x00000000	0.0
178	0x00000000	0.0
179	0x00000000	0.0
180	0x00000000	0.0
181	0x00000000	0.0
182	0x00000000	0.0
183	0x00000000	0.0
184	0x00000000	0.0
185	0x00000000	0.0
186	0x00000000	0.0
187	0x00000000	0.0
188	0x00000000	0.0
189	0x00000000	0.0
190	0x00000000	0.0
191	0x00000000	0.0
192	0x00000000	0.0
193	0x00000000	0.0
194	0x00000000	0.0
195	0x00000000	0.0
196	0x00000000	0.0
197	0x00000000	0.0
198	0x00000000	0.0
199	0x00000000	0.0
200	0x00000000	0.0
201	0x00000000	0.0
202	0x00000000	0.0
203	0x00000000	0.0
204	0x00000000	0.0
205	0x00000000	0.0
206	0x00000000	0.0
207	0x00000000	0.0
208	0x00000000	0.0
209	0x00000000	0.0
210	0x00000000	0.0
211	0x00000000	0.0
212	0x00000000	0.0
213	0x00000000	0.0
214	0x00000000	0.0
215	0x00000000	0.0
216	0x00000000	0.0
217	0x00000000	0.0
218	0x00000000	0.0
219	0x00000000	0.0
220	0x00000000	0.0
221	0x00000000	0.0
222	0x00000000	0.0
223	0x00000000	0.0
224	0x00000000	0.0
225	0x00000000	0.0
226	0x00000000	0.0
227	0x00000000	0.0
228	0x00000000	0.0
229	0x00000000	0.0
230	0x00000000	0.0
231	0x00000000	0.0
232	0x00000000	0.0
233	0x00000000	0.0
234	0x00000000	0.0
235	0x00000000	0.0
236	0x00000000	0.0
237	0x00000000	0.0
238	0x00000000	0.0
239	0x00000000	0.0
240	0x00000000	0.0
241	0x00000000	0.0
242	0x00000000	0.0
243	0x00000000	0.0
244	0x00000000	0.0
245	0x00000000	0.0
246	0x00000000	0.0
247	0x00000000	0.0
248	0x00000000	0.0
249	0x00000000	0.0
250	0x00000000	0.0
251	0x00000000	0.0
252	0x00000000	0.0
253	0x00000000	0.0
254	0x00000000	0.0
255	0x00000000	0.0

sqr_avg f4 [494, 5]
0	0x00000000	0.0
1	0x00000000	0.0
2	0x00000000	0.0
3	0x00000000	0.0
4	0x00000000	0.0
5	0x00000000	0.0
6	0x00000000	0.0
7	0x00000000	0.0
8	0x00000000	0.0
9	0x00000000	0.0
10	0x00000000	0.0
11	0x00000000	0.0
12	0x00000000	0.0
13	0x00000000	0.0
14	0x00000000	0.0
15	0x00000000	0.0
16	0x00000000	0.0
17	0x00000000	0.0
18	0x00000000	0.0
19	0x00000000	0.0
20	0x00000000	0.0
21	0x00000000	0.0
22	0x00000000	0.0
23	0x00000000	0.0
24	0x00000000	0.0
25	0x00000000	0.0
26	0x00000000	0.0
27	0x00000000	0.0
28	0x00000000	0.0
29	0x00000000	0.0
30	0x00000000	0.0
31	0x00000000	0.0
32	0x00000000	0.0
33	0x00000000	0.0
34	0x00000000	0.0
35	0x00000000	0.0
36	0x00000000	0.0
37	0x00000000	0.0
38	0x00000000	0.0
39	0x00000000	0.0
40	0x00000000	0.0
41	0x00000000	0.0
42	0x00000000	0.0
43	0x00000000	0.0
44	0x00000000	0.0
45	0x00000000	0.0
46	0x00000000	0.0
47	0x00000000	0.0
48	0x00000000	0.0
49	0x00000000	0.0
50	0x00000000	0.0
51	0x00000000	0.0
52	0x00000000	0.0
53	0x00000000	0.0
54	0x00000000	0.0
55	0x00000000	0.0
56	0x00000000	0.0
57	0x00000000	0.0
58	0x00000000	0.0
59	0x00000000	0.0
60	0x00000000	0.0
61	0x00000000	0.0
62	0x00000000	0.0
63	0x00000000	0.0
64	0x00000000	0.0
65	0x00000000	0.0
66	0x00000000	0.0
67	0x00000000	0.0
68	0x00000000	0.0
69	0x00000000	0.0
70	0x00000000	0.0
71	0x00000000	0.0
72	0x00000000	0.0
73	0x00000000	0.0
74	0x00000000	0.0
75	0x00000000	0.0
76	0x00000000	0.0
77	0x00000000	0.0
78	0x00000000	0.0
79	0x00000000	0.0
80	0x00000000	0.0
81	0x00000000	0.0
82	0x00000000	0.0
83	0x00000000	0.0
84	0x00000000	0.0
85	0x00000000	0.0
86	0x00000000	0.0
87	0x00000000	0.0
88	0x00000000	0.0
89	0x00000000	0.0
90	0x00000000	0.0
91	0x00000000	0.0
92	0x00000000	0.0
93	0x00000000	0.0
94	0x00000000	0.0
95	0x00000000	0.0
96	0x00000000	0.0
97	0x00000000	0.0
98	0x00000000	0.0
99	0x00000000	0.0
100	0x00000000	0.0
101	0x00000000	0.0
102	0x00000000	0.0
103	0x00000000	0.0
104	0x00000000	0.0
105	0x00000000	0.0
106	0x00000000	0.0
107	0x00000000	0.0
108	0x00000000	0.0
109	0x00000000	0.0
110	0x00000000	0.0
111	0x00000000	0.0
112	0x00000000	0.0
113	0x00000000	0.0
114	0x00000000	0.0
115	0x00000000	0.0
116	0x00000000	0.0
117	0x00000000	0.0
118	0x00000000	0.0
119	0x00000000	0.0
120	0x00000000	0.0
121	0x00000000	0.0
122	0x00000000	0.0
123	0x00000000	0.0
124	0x00000000	0.0
125	0x00000000	0.0
126	0x00000000	0.0
127	0x00000000	0.0
128	0x00000000	0.0
129	0x00000000	0.0
130	0x00000000	0.0
131	0x00000000	0.0
132	0x00000000	0.0
133	0x00000000	0.0
134	0x00000000	0.0
135	0x00000000	0.0
136	0x00000000	0.0
137	0x00000000	0.0
138	0x00000000	0.0
139	0x00000000	0.0
140	0x00000000	0.0
141	0x00000000	0.0
142	0x00000000	0.0
143	0x00000000	0.0
144	0x00000000	0.0
145	0x00000000	0.0
146	0x00000000	0.0
147	0x00000000	0.0
148	0x00000000	0.0
149	0x00000000	0.0
150	0x00000000	0.0
151	0x00000000	0.0
152	0x00000000	0.0
153	0x00000000	0.0
154	0x00000000	0.0
155	0x00000000	0.0
156	0x00000000	0.0
157	0x00000000	0.0
158	0x00000000	0.0
159	0x00000000	0.0
160	0x00000000	0.0
161	0x00000000	0.0
162	0x00000000	0.0
163	0x00000000	0.0
164	0x00000000	0.0
165	0x00000000	0.0
166	0x00000000	0.0
167	0x00000000	0.0
168	0x00000000	0.0
169	0x00000000	0.0
170	0x00000000	0.0
171	0x00000000	0.0
172	0x00000000	0.0
173	0x00000000	0.0
174	0x00000000	0.0
175	0x00000000	0.0
176	0x00000000	0.0
177	0x00000000	0.0
178	0x00000000	0.0
179	0x00000000	0.0
180	0x00000000	0.0
181	0x00000000	0.0
182	0x00000000	0.0
183	0x00000000	0.0
184	0x00000000	0.0
185	0x00000000	0.0
186	0x00000000	0.0
187	0x00000000	0.0
188	0x00000000	0.0
189	0x00000000	0.0
190	0x00000000	0.0
191	0x00000000	0.0
192	0x00000000	0.0
193	0x00000000	0.0
194	0x00000000	0.0
195	0x00000000	0.0
196	0x00000000	0.0
197	0x00000000	0.0
198	0x00000000	0.0
199	0x00000000	0.0
200	0x00000000	0.0
201	0x00000000	0.0
202	0x00000000	0.0
203	0x00000000	0.0
204	0x00000000	0.0
205	0x00000000	0.0
206	0x00000000	0.0
207	0x00000000	0.0
208	0x00000000	0.0
209	0x00000000	0.0
210	0x00000000	0.0
211	0x00000000	0.0
212	0x00000000	0.0
213	0x00000000	0.0
214	0x00000000	0.0
215	0x00000000	0.0
216	0x00000000	0.0
217	0x00000000	0.0
218	0x00000000	0.0
219	0x00000000	0.0
220	0x00000000	0.0
221	0x00000000	0.0
222	0x00000000	0.0
223	0x00000000	0.0
224	0x00000000	0.0
225	0x00000000	0.0
226	0x00000000	0.0
227	0x00000000	0.0
228	0x00000000	0.0
229	0x00000000	0.0
230	0x00000000	0.0
231	0x00000000	0.0
232	0x00000000	0.0
233	0x00000000	0.0
234	0x00000000	0.0
235	0x00000000	0.0
236	0x00000000	0.0
237	0x00000000	0.0
238	0x00000000	0.0
239	0x00000000	0.0
240	0x00000000	0.0
241	0x00000000	0.0
242	0x00000000	0.0
243	0x00000000	0.0
244	0x00000000	0.0
245	0x00000000	0.0
246	0x00000000	0.0
247	0x00000000	0.0
248	0x00000000	0.0
249	0x00000000	0.0
250	0x00000000	0.0
251	0x00000000	0.0
252	0x00000000	0.0
253	0x00000000	0.0
254	0x00000000	0.0
255	0x00000000	0.0

grad_avg f4 [100, 10]
0	0x3b8a1540	0.004213959
1	0xbadd95c8	-0.00169056
2	0x3b4a5de2	0.0030878712
3	0xbb909ea3	-0.004413442
4	0x39bef617	0.00036422975
5	0x3b2438dc	0.0025058305
6	0x3b4e720c	0.0031501083
7	0x3b67c57b	0.003536551
8	0xba8caf45	-0.0010733387
9	0xbc129a3b	-0.008947904
10	0xbb2db1c8	-0.002650367
11	0xba3d9688	-0.0007232209
12	0x3b8a4719	0.0042199013
13	0x39b9c8b1	0.00035435476
14	0x3ba6f861	0.005095527
15	0xbbdb372d	-0.006689927
16	0x3aa605a1	0.0012666472
17	0xbabd5658	-0.0014445288
18	0x3ab85dc3	0.0014066029
19	0x38e7ae94	0.00011047456
20	0x379cf0da	1.8708804e-05
21	0x38c95bd8	9.601534e-05
22	0xb8d493b8	-0.000101364625
23	0x3822abe3	3.878389e-05
24	0x379fb889	1.9040208e-05
25	0xb8ad551d	-8.2651364e-05
26	0xb882a65a	-6.2298684e-05
27	0xb8ccfe6b	-9.774867e-05
28	0x38502b6c	4.9631504e-05
29	0x381cea7c	3.741168e-05
30	0x80000003	-4e-45
31	0x80000003	-4e-45
32	0x00000003	4e-45
33	0x00000003	4e-45
34	0x00000003	4e-45
35	0x00000003	4e-45
36	0x00000003	4e-45
37	0x80000003	-4e-45
38	0x80000003	-4e-45
39	0x80000003	-4e-45
40	0xbb4feb37	-0.0031725892
41	0xbb64dccc	-0.0034921644
42	0x3b1463e7	0.0022642554
43	0x3b5daaba	0.0033823685
44	0x3b0efe7a	0.002181916
45	0x3bc875c1	0.006117553
46	0x3b76a63d	0.0037635707
47	0xba4f5b7f	-0.00079100573
48	0xbaba181f	-0.0014197862
49	0xba86be7d	-0.0010280159
50	0x394fddb9	0.00019823656
51	0xb9e665eb	-0.00043944953
52	0x3a4e5665	0.000787115
53	0x396d1309	0.00022609172
54	0xb9f03c7f	-0.0004582144
55	0xb7bea211	-2.2725233e-05
56	0x399e56c0	0.00030200742
57	0x3956b6a3	0.00020476668
58	0xb9b9f3ed	-0.0003546769
59	0x39b4912d	0.0003444044
60	0x00000003	4e-45
61	0x80000003	-4e-45
62	0x00000003	4e-45
63	0x00000003	4e-45
64	0x80000003	-4e-45
65	0x80000003	-4e-45
66	0x80000003	-4e-45
67	0x80000003	-4e-45
68	0x80000003	-4e-45
69	0x80000003	-4e-45
70	0x3b11c289	0.0022241196
71	0xbb506299	-0.003179705
72	0x3bfe0ee5	0.0077532404
73	0xbb84a380	-0.004047811
74	0x3a73df89	0.00093030237
75	0x3b9c817b	0.0047761775
76	0xb9ae2e6f	-0.00033222462
77	0x3b1531e9	0.0022765344
78	0xbacc9acf	-0.0015610101
79	0xbbd234d9	-0.0064149913
80	0x3a085491	0.00052005897
81	0x3630a910	2.632445e-06
82	0x3a9767b2	0.0011551289
83	0xbaac3434	-0.0013138116
84	0xb8db3fe5	-0.00010454635
85	0x39b067c3	0.00033646644
86	0x3acb062f	0.0015489514
87	0x399b5004	0.0002962352
88	0xb9e3ace6	-0.00043425633
89	0xba91f767	-0.0011136354
90	0x00000004	6e-45
91	0x00000004	6e-45
92	0x80000004	-6e-45
93	0x80000004	-6e-45
94	0x00000004	6e-45
95	0x80000004	-6e-45
96	0x80000004	-6e-45
97	0x00000004	6e-45
98	0x00000004	6e-45
99	0x00000004	6e-45
100	0x3b165331	0.002293777
101	0xbc0e1752	-0.008672552
102	0x3c878cf6	0.016546708
103	0xbc5ad3a3	-0.013356122
104	0x3ad4ea18	0.0016244082
105	0x3bf60bdf	0.0075087394
106	0x3ad955f4	0.0016581402
107	0x3c2c5bfd	0.010519979
108	0xbbf758d1	-0.0075484295
109	0x3bd28416	0.0064244373
110	0x39c2ee65	0.0003718018
111	0xbab9b785	-0.0014169073
112	0x3b022fc1	0.001986489
113	0xb9a28a49	-0.00031002078
114	0x3882deb8	6.240368e-05
115	0xb9849315	-0.00025286587
116	0x3a5f2927	0.0008512907
117	0x3a3415ac	0.00068696844
118	0xbabe122f	-0.0014501269
119	0xba713fee	-0.00092029467
120	0x3578f417	9.2742397e-07
121	0xbaecb3e8	-0.0018058987
122	0x3961cfd8	0.000215351
123	0xba089c26	-0.0005211256
124	0xbb37fc4c	-0.0028073965
125	0x3b8e547c	0.0043435674
126	0x3b676934	0.0035310509
127	0xb91f4250	-0.00015188125
128	0x396abd61	0.00022386528
129	0x3855987d	5.0925173e-05
130	0x3ab06f63	0.001346093
131	0x36ea96ca	6.9912976e-06
132	0xba209390	-0.0006125504
133	0xbb0c3f11	-0.0021399895
134	0xba8db148	-0.001081028
135	0xb97983b9	-0.00023795561
136	0xba06a27f	-0.0005135908
137	0x3a9536b8	0.0011384105
138	0xb9808b50	-0.00024517858
139	0xbb07594b	-0.0020652588
140	0x3b2b9ce1	0.0026186036
141	0x3badf0c1	0.005308241
142	0xbb8b917e	-0.0042592874
143	0xbbce7847	-0.0063009593
144	0xbb9e9676	-0.0048397137
145	0x3c14c44a	0.009080002
146	0x3baf40dd	0.0053483085
147	0x3a4173ee	0.00073796406
148	0xbb23ba47	-0.0024982856
149	0xba58afc0	-0.0008265935
150	0x00000003	4e-45
151	0x00000003	4e-45
152	0x80000003	-4e-45
153	0x80000003	-4e-45
154	0x00000003	4e-45
155	0x80000003	-4e-45
156	0x00000003	4e-45
157	0x00000003	4e-45
158	0x80000003	-4e-45
159	0x00000003	4e-45
160	0xbb71522f	-0.0036822667
161	0x3b47cf5c	0.0030488586
162	0xbb6ec84e	-0.003643531
163	0x3b2ed4ed	0.0026677207
164	0x3b1573dd	0.0022804656
165	0xbaaa7f0f	-0.0013007837
166	0xbab71c9d	-0.0013970319
167	0xba65f989	-0.00087728404
168	0x3a69cf6d	0.00089191535
169	0xbb981cf9	-0.0046421257
170	0xba655503	-0.00087483245
171	0x3b281c10	0.0025651492
172	0xbb897947	-0.0041953656
173	0xb8c24909	-9.264245e-05
174	0xbb16c027	-0.0023002715
175	0x3bdfc1fc	0.0068285447
176	0x3bbb4774	0.005715305
177	0x38ec7a4b	0.00011276136
178	0x3a641571	0.0008700705
179	0x3b28d78f	0.0025763249
180	0xb7eeb6e2	-2.8456972e-05
181	0x3751b8dd	1.2500413e-05
182	0x37d4c661	2.5364747e-05
183	0x36a56cd6	4.9300534e-06
184	0x37ce994b	2.4628496e-05
185	0xb6a30400	-4.858244e-06
186	0xb8c6a97f	-9.472947e-05
187	0x3791f9f7	1.7401746e-05
188	0x384e9f48	4.926257e-05
189	0x3756c5f8	1.2801487e-05
190	0x00000003	4e-45
191	0x00000003	4e-45
192	0x00000003	4e-45
193	0x00000003	4e-45
194	0x80000003	-4e-45
195	0x00000003	4e-45
196	0x80000003	-4e-45
197	0x80000003	-4e-45
198	0x00000003	4e-45
199	0x80000003	-4e-45
200	0x3b313810	0.0027041472
201	0xb93c33fe	-0.00017948446
202	0x3b8715ad	0.004122457
203	0xbb89cbed	-0.004205218
204	0xba1a7990	-0.0005892748
205	0x3a8019e4	0.0009773341
206	0x3b2af975	0.002608863
207	0x39878bc2	0.00025853334
208	0xba4c2f66	-0.00077890453
209	0x3847f748	4.7675596e-05
210	0x3b4cf905	0.0031276357
211	0xbb324750	-0.002720315
212	0x388cf9b0	6.722228e-05
213	0xbb81a8ad	-0.0039568753
214	0x3ac08a96	0.0014689739
215	0x3ba28fe7	0.004961002
216	0x3b5284b1	0.0032122547
217	0x3aff6a54	0.0019486644
218	0xbb37d3b7	-0.0028049776
219	0xbb61005b	-0.0034332487
220	0xb9cb615a	-0.0003879171
221	0xbbc651a5	-0.0060522133
222	0x3b80189a	0.0039091827
223	0xbb6ee482	-0.003645212
224	0xbb73bc85	-0.0037191224
225	0x39eaf9bf	0.00044818033
226	0x3bbaa190	0.0056955293
227	0x3bd20538	0.0064093135
228	0xbbaaf248	-0.0052168705
229	0xbb843308	-0.0040344037
230	0x3b19c290	0.0023461916
231	0xbb713585	-0.0036805582
232	0x3bd31bd7	0.0064425278
233	0xbbf3cb6e	-0.007440022
234	0xba372697	-0.00069866463
235	0x3b9b865e	0.0047462424
236	0x3c0cbaba	0.008589441
237	0x3bf94d5c	0.007608099
238	0xbb81dcbd	-0.0039630816
239	0xb9eed02f	-0.00045550006
240	0x3a5f8e36	0.0008527966
241	0xbbe4569b	-0.006968332
242	0x3c1c0fca	0.009525249
243	0xbb9e53d5	-0.004831771
244	0xbb7ce72f	-0.0038589945
245	0x3bd8e16a	0.0066186683
246	0x3b92e00d	0.0044822753
247	0x3bb2d989	0.005458061
248	0xbc1bbb8f	-0.009505167
249	0xbb25ca27	-0.0025297494
250	0x3914a0f3	0.00014174338
251	0xb91e70c8	-0.00015110068
252	0x39a3bbe6	0.00031229778
253	0xb9b09768	-0.00033682142
254	0xba1f9b32	-0.00060884946
255	0x3a5eca91	0.00084988127

sqr_avg f4 [100, 10]
0	0x3a9297f1	0.0011184198
1	0x3a663137	0.00087811373
2	0x3a951749	0.0011374737
3	0x3a899243	0.001049586
4	0x3a659e24	0.00087592215
5	0x3a6251d9	0.0008633412
6	0x3a896aa0	0.0010484047
7	0x3a58d39a	0.0008271277
8	0x3a98527e	0.0011621264
9	0x3a6fa359	0.0009141467
10	0x3a5c5417	0.00084048643
11	0x3a7b375a	0.0009583138
12	0x3a6133d6	0.0008590793
13	0x3a5d786d	0.0008448426
14	0x3a4f6fdb	0.0007913091
15	0x3a73e638	0.00093040196
16	0x3a7f237d	0.0009732766
17	0x3a5b60f5	0.0008368635
18	0x3a84aafc	0.0010121758
19	0x3a4fc0d4	0.0007925157
20	0x340067ba	1.1958664e-07
21	0x33eaf503	1.09410415e-07
22	0x33e8c555	1.0839236e-07
23	0x33ed5088	1.1050821e-07
24	0x33d10d3d	9.734729e-08
25	0x3402929d	1.2160531e-07
26	0x33de0314	1.03382405e-07
27	0x33d36fc3	9.8457825e-08
28	0x33ef1420	1.11329655e-07
29	0x33f294f2	1.1296096e-07
30	0x16136b81	1.1908488e-25
31	0x160b0eb6	1.1232973e-25
32	0x1607de61	1.0975384e-25
33	0x1616980c	1.2164881e-25
34	0x160f58e1	1.1579493e-25
35	0x1626cbd4	1.347369e-25
36	0x15e0ef7c	9.085072e-26
37	0x161a97a8	1.2487875e-25
38	0x162221a6	1.3096873e-25
39	0x15ef3d00	9.662757e-26
40	0x3a3fd51e	0.0007317829
41	0x3a3f205b	0.0007290893
42	0x3a54289b	0.0008093209
43	0x3a49b38f	0.0007694298
44	0x3a4427f0	0.0007482758
45	0x3a59fcc8	0.00083155604
46	0x3a42d027	0.000743153
47	0x3a267dcc	0.00063511427
48	0x3a327c35	0.00068086694
49	0x3a4ef3fd	0.00078946335
50	0x37945830	1.768404e-05
51	0x3758153e	1.2879549e-05
52	0x378112f9	1.5386833e-05
53	0x3771fd56	1.4423704e-05
54	0x376b1c30	1.4013654e-05
55	0x37641bdb	1.3596345e-05
56	0x3782fd58	1.561518e-05
57	0x3764f752	1.3647443e-05
58	0x377408d8	1.4545592e-05
59	0x375a58c9	1.30144845e-05
60	0x17e3a314	1.4710698e-24
61	0x17c143ee	1.2489481e-24
62	0x17abd007	1.1103129e-24
63	0x17d76b25	1.3921096e-24
64	0x17c06978	1.2434333e-24
65	0x17ce757e	1.3342097e-24
66	0x17acaf87	1.1159549e-24
67	0x17ca2d59	1.3065391e-24
68	0x17df3176	1.4423523e-24
69	0x17b40c79	1.1635376e-24
70	0x3a49c5de	0.0007697026
71	0x3a3dc86b	0.00072396424
72	0x3a2f020a	0.0006676024
73	0x3a52a37d	0.0008035226
74	0x3a310334	0.00067524915
75	0x3a30a601	0.00067386037
76	0x3a367e5a	0.0006961577
77	0x3a1ae524	0.00059087784
78	0x3a17ab42	0.0005785712
79	0x3a4a4edd	0.000771744
80	0x37f8bd18	2.9651957e-05
81	0x38053718	3.176098e-05
82	0x38203848	3.819939e-05
83	0x38229694	3.8764047e-05
84	0x38141fd8	3.5315607e-05
85	0x380f65da	3.4188713e-05
86	0x38284512	4.0118648e-05
87	0x380b1baf	3.3165965e-05
88	0x380aaf62	3.3065102e-05
89	0x3808a601	3.257953e-05
90	0x1b1c3514	1.2921168e-22
91	0x1b06d773	1.1153836e-22
92	0x1acaa8c1	8.381788e-23
93	0x1b2339fc	1.350178e-22
94	0x1aa403a5	6.78347e-23
95	0x1b0e203d	1.1756381e-22
96	0x1b2757b2	1.3842252e-22
97	0x1b082999	1.1263097e-22
98	0x1b06e1bd	1.115716e-22
99	0x1b146145	1.2273703e-22
100	0x3b4a1b7a	0.0030839131
101	0x3b398fc9	0.0028314462
102	0x3b39b61b	0.0028337303
103	0x3b298c68	0.0025871042
104	0x3b4ccc4c	0.00312497
105	0x3b5fc662	0.0034145345
106	0x3b39803f	0.00283052
107	0x3b2ad1c4	0.0026064971
108	0x3b46eed9	0.0030354767
109	0x3b2aebda	0.002608052
110	0x3893a3e4	7.040033e-05
111	0x38a06899	7.648877e-05
112	0x388d4520	6.7362795e-05
113	0x3889458f	6.5456254e-05
114	0x385f7ed3	5.3285457e-05
115	0x38a2362a	7.734851e-05
116	0x388920a0	6.538746e-05
117	0x3890c788	6.903621e-05
118	0x38833b02	6.257558e-05
119	0x38920aa5	6.963805e-05
120	0x39b6622f	0.00034786898
121	0x39aad74e	0.0003258534
122	0x39b4ff65	0.0003452256
123	0x39a1a537	0.00030831408
124	0x39997a5a	0.00029273593
125	0x39ae243d	0.00033214866
126	0x39ab086d	0.0003262194
127	0x39b30f23	0.00034152818
128	0x39b5e4d0	0.0003469349
129	0x39a173b6	0.00030794524
130	0x38da4074	0.000104070554
131	0x38b1bc19	8.4750536e-05
132	0x38ded3a1	0.00010625204
133	0x38d004df	9.91912e-05
134	0x38c0b507	9.1889924e-05
135	0x38b1576a	8.4563e-05
136	0x38c730cf	9.498151e-05
137	0x389d91dd	7.5135125e-05
138	0x38bbeb3f	8.960673e-05
139	0x38cae932	9.6755466e-05
140	0x3abababe	0.0014246327
141	0x3a9a0548	0.0011750842
142	0x3aa83cdc	0.001283552
143	0x3abbf570	0.0014340114
144	0x3aac6760	0.0013153367
145	0x3aa26591	0.0012389888
146	0x3ab1dac8	0.001356923
147	0x3aac1156	0.0013127725
148	0x3ab1d779	0.0013568244
149	0x3a97c7ad	0.0011579894
150	0x14c55dba	1.9928885e-26
151	0x14b99491	1.8738825e-26
152	0x14c591ad	1.9949376e-26
153	0x14d3044a	2.1307247e-26
154	0x14e20807	2.2823334e-26
155	0x14bfc167	1.9362355e-26
156	0x14e1b71e	2.2791421e-26
157	0x14bc2598	1.8997977e-26
158	0x14d110fa	2.1110303e-26
159	0x14c22a05	1.9605568e-26
160	0x3a4199dc	0.00073852926
161	0x3a5e44fc	0.00084789074
162	0x3a491615	0.0007670832
163	0x3a542cf8	0.0008093859
164	0x3a48bbff	0.0007657408
165	0x3a5d3f27	0.00084398914
166	0x3a3385b2	0.000684823
167	0x3a4ae8fc	0.0007740406
168	0x3a6c74f2	0.0009020112
169	0x3a3eba21	0.000727566
170	0x3a1dc889	0.0006018957
171	0x3a67ec5c	0.0008847171
172	0x3a5a665b	0.0008331292
173	0x3a4a526c	0.00077179703
174	0x3a342b08	0.0006872867
175	0x3a6649c0	0.00087847933
176	0x3a6a417a	0.00089361484
177	0x3a4f6b70	0.0007912433
178	0x3a611d8f	0.00085874734
179	0x3a61a648	0.00086078467
180	0x34a47844	3.0634885e-07
181	0x348ef3e1	2.6627006e-07
182	0x3499e9f1	2.8668686e-07
183	0x34c7c909	3.721291e-07
184	0x349f48c1	2.9668993e-07
185	0x3491319d	2.7044453e-07
186	0x34b16bbc	3.3047206e-07
187	0x34984db6	2.8368748e-07
188	0x34a8cbe9	3.1440803e-07
189	0x34bb5d7d	3.4899486e-07
190	0x164e7b9f	1.6679555e-25
191	0x1685ff42	2.16484e-25
192	0x16649f45	1.846795e-25
193	0x1662eee7	1.8331519e-25
194	0x166cd317	1.9130536e-25
195	0x166b269b	1.899533e-25
196	0x16694847	1.8844397e-25
197	0x1686edf0	2.1799027e-25
198	0x167e93d5	2.0564604e-25
199	0x1634b222	1.4596493e-25
200	0x39b68b3e	0.0003481749
201	0x39aed837	0.0003334896
202	0x39c7394f	0.00037998936
203	0x39d4beee	0.00040578045
204	0x39bf64a3	0.0003650534
205	0x39b660b7	0.00034785803
206	0x39baaa9c	0.00035603798
207	0x39a62aae	0.00031693786
208	0x39a15431	0.0003077104
209	0x39c7f0ea	0.00038135733
210	0x3ab91b7f	0.0014122574
211	0x3aa4c1d4	0.0012569972
212	0x3aa5989b	0.0012633981
213	0x3a9b11e8	0.0011830898
214	0x3a8d7a6c	0.0010793931
215	0x3aa5c966	0.0012648522
216	0x3a936ace	0.001124704
217	0x3a92407c	0.0011158134
218	0x3aa883d9	0.0012856676
219	0x3aa3ab7c	0.0012487019
220	0x3a3049cf	0.00067248655
221	0x3a3f90c8	0.0007307646
222	0x3a25ba05	0.00063219696
223	0x3a667a81	0.0008792058
224	0x3a3f58c0	0.00072992966
225	0x3a403163	0.0007331578
226	0x3a4aec54	0.0007740904
227	0x3a2e7bf1	0.0006656042
228	0x3a466ba5	0.0007569141
229	0x3a2f1ab0	0.0006679697
230	0x3abc1473	0.0014349356
231	0x3a9df72e	0.0012051815
232	0x3aa3737e	0.0012470332
233	0x3a931687	0.0011221924
234	0x3a987855	0.0011632541
235	0x3aa22228	0.0012369798
236	0x3a883e0d	0.0010394469
237	0x3aa1917c	0.0012326683
238	0x3aa74cd8	0.001276399
239	0x3a84e451	0.0010138844
240	0x3aa2630f	0.0012389141
241	0x3a94a93a	0.0011341937
242	0x3a867b36	0.0010260108
243	0x3a8be0d8	0.0010671867
244	0x3a8b3c59	0.0010622843
245	0x3abce55e	0.0014411618
246	0x3a975072	0.001154436
247	0x3a8f8069	0.0010948303
248	0x3a9ae77c	0.0011818255
249	0x3a83efdb	0.0010065989
250	0x373187dd	1.0581655e-05
251	0x3712f08b	8.758284e-06
252	0x372340a8	9.730611e-06
253	0x37218ff8	9.629868e-06
254	0x371691e6	8.974666e-06
255	0x3707a0f2	8.0841e-06

grad_avg f4 [100]
0	0x3c056663	0.008142087
1	0xbaad4cbf	-0.0013221725
2	0xb89798d9	-7.228711e-05
3	0x00000003	4e-45
4	0x3b9c9ff8	0.004779812
5	0x39e29095	0.000432138
6	0x00000003	4e-45
7	0x3bfe6af9	0.007764217
8	0x3a9663e4	0.0011473862
9	0x00000004	6e-45
10	0x3c1b607d	0.009483454
11	0x39f1fc13	0.00046154912
12	0x3b3159ef	0.0027061661
13	0x3b0e402e	0.0021705735
14	0x3baecb4f	0.005334295
15	0x00000003	4e-45
16	0xbab2700c	-0.0013613715
17	0x3afc423d	0.0019245815
18	0x373f2027	1.1391973e-05
19	0x00000003	4e-45
20	0x3b290c4e	0.0025794688
21	0x3b8b99ec	0.0042602923
22	0x3be5c756	0.007012288
23	0x3bb674e8	0.0055681355
24	0x3c38622c	0.011253875
25	0x3a3293a3	0.0006812161
26	0x3beb4784	0.007180156
27	0x3c0c2778	0.008554332
28	0x00000003	4e-45
29	0x00000003	4e-45
30	0xb9dd39b8	-0.0004219541
31	0x3bd898a0	0.006609991
32	0x00000004	6e-45
33	0x3c3e63c3	0.011620465
34	0x3b9d64e9	0.004803289
35	0x3bd7f3d1	0.0065903445
36	0x00000003	4e-45
37	0x00000003	4e-45
38	0x00000009	1.3e-44
39	0xbae5aaf1	-0.0017522258
40	0x3bc8aaa0	0.0061238557
41	0x3bc652fb	0.0060523725
42	0x3b89028f	0.004181213
43	0x3b38e897	0.0028214806
44	0xb9dd1550	-0.00042168284
45	0x00000003	4e-45
46	0x1955537a	1.10287e-23
47	0x00000004	6e-45
48	0x3b50e6b0	0.0031875782
49	0x3ae16b41	0.0017198102
50	0x3b347dbf	0.002754077
51	0x00000003	4e-45
52	0x00000004	6e-45
53	0x00000006	8e-45
54	0x3c063dca	0.008193443
55	0x3c411647	0.0117850965
56	0x3b6f423c	0.0036507985
57	0x3c618881	0.013765455
58	0x3a5f6af6	0.00085227133
59	0x00000003	4e-45
60	0x3c097f3d	0.008392152
61	0x3c486359	0.012230718
62	0xb92d194a	-0.00016507987
63	0xbb8feedf	-0.0043924893
64	0x00000003	4e-45
65	0x3c132393	0.0089806495
66	0x3c3be6e2	0.011468621
67	0x00000004	6e-45
68	0x00000003	4e-45
69	0x00000003	4e-45
70	0x3ba0b142	0.0049039433
71	0x00000003	4e-45
72	0x3b8a8519	0.0042272923
73	0x00000003	4e-45
74	0xbc1cf40b	-0.009579669
75	0x3b47f0d2	0.003050853
76	0x00000004	6e-45
77	0x3b300f85	0.002686472
78	0x3c08b15c	0.008343067
79	0x3b8607c6	0.004090282
80	0x00000003	4e-45
81	0x00000003	4e-45
82	0x3c566142	0.0130847115
83	0x00000003	4e-45
84	0x3bf989d6	0.0076153083
85	0x00000003	4e-45
86	0xbc0b0b91	-0.008486644
87	0x3ad816ee	0.0016486326
88	0xb6b08201	-5.260343e-06
89	0x3a45dc52	0.0007547784
90	0x3c1e8c97	0.009677074
91	0x00000006	8e-45
92	0x00000003	4e-45
93	0x3bf1d991	0.0073806723
94	0x3b9ddb92	0.0048174346
95	0x00000003	4e-45
96	0x00000003	4e-45
97	0x3b8ef428	0.004362602
98	0x00000006	8e-45
99	0x3b84c87b	0.0040522194

sqr_avg f4 [100]
0	0x3a8b1d63	0.0010613616
1	0x3a77cf79	0.0009453218
2	0x33e9aef9	1.0881735e-07
3	0x16507fd8	1.6842447e-25
4	0x3a49000e	0.00076675497
5	0x378ceeb9	1.6800464e-05
6	0x17ed64bf	1.5341198e-24
7	0x3a3a4028	0.0007104897
8	0x38075c52	3.2272488e-05
9	0x1b0735d2	1.1184329e-22
10	0x3b3a221e	0.0028401683
11	0x38aaeed6	8.150718e-05
12	0x399e332b	0.00030174232
13	0x38cb5f10	9.697501e-05
14	0x3ab110bc	0.0013509016
15	0x151386c0	2.9792713e-26
16	0x3a485d8a	0.0007643333
17	0x3a564bf2	0.0008174769
18	0x3496aae1	2.8064008e-07
19	0x1686a173	2.1750756e-25
20	0x39b90f18	0.00035297195
21	0x3aa2b018	0.0012412099
22	0x3a372f24	0.00069879205
23	0x3aa8906e	0.0012860426
24	0x3a98c1ea	0.001165447
25	0x37022e80	7.75943e-06
26	0x3a96893b	0.001148499
27	0x3a2ae36f	0.00065188756
28	0x16f04281	3.881606e-25
29	0x1675ca89	1.9854851e-25
30	0x3a17e772	0.0005794681
31	0x3a925d4d	0.0011166722
32	0x1ca167dc	1.0680933e-21
33	0x3a76143d	0.0009387171
34	0x3acafe28	0.0015487121
35	0x3a6a366f	0.0008934503
36	0x1510ca01	2.923992e-26
37	0x15b60679	7.3519427e-26
38	0x25a88a26	2.9236967e-16
39	0x3a45dc52	0.0007547784
40	0x3ad4b861	0.0016229266
41	0x3a12ee8f	0.0005605006
42	0x39ccc655	0.0003905768
43	0x3951219c	0.00019944314
44	0x378cab3e	1.6769041e-05
45	0x132b51ca	2.162356e-27
46	0x29947ab7	6.593808e-14
47	0x19a15bd3	1.6684097e-23
48	0x3a9e4a43	0.0012076575
49	0x3a697d14	0.0008906883
50	0x3a11d861	0.0005563554
51	0x161063f4	1.1663767e-25
52	0x1c9db955	1.0437296e-21
53	0x20c1538a	3.2750753e-19
54	0x39e5137e	0.00043692807
55	0x3ad85768	0.0016505541
56	0x3a497031	0.00076842593
57	0x3ac8878c	0.0015299185
58	0x3885d881	6.382261e-05
59	0x16d0b2b6	3.3716995e-25
60	0x3a245077	0.0006268094
61	0x3a8f68bb	0.0010941246
62	0x3a50f02c	0.0007970359
63	0x3aba5fe1	0.0014219248
64	0x139cc4cb	3.957399e-27
65	0x3a53fa63	0.0008086322
66	0x3b2a2e0d	0.002596739
67	0x1ee0ec5f	2.3814683e-20
68	0x16af0f3c	2.828239e-25
69	0x1489f719	1.3930928e-26
70	0x3b054501	0.002033532
71	0x189cdc36	4.054741e-24
72	0x3a7096dd	0.0009177754
73	0x151bd938	3.1473356e-26
74	0x3b25caba	0.0025297836
75	0x3a8d8b90	0.0010799039
76	0x191b614f	8.0329635e-24
77	0x3a3d1560	0.0007212963
78	0x3a1f6659	0.00060806196
79	0x39d45901	0.00040502104
80	0x14aff124	1.7765597e-26
81	0x15be366b	7.6826245e-26
82	0x3b3cb67b	0.002879529
83	0x1a870a6c	5.585153e-23
84	0x3a54bec6	0.00081155857
85	0x15c6ed3a	8.034584e-26
86	0x3a88d77c	0.0010440196
87	0x3855f6f0	5.1013136e-05
88	0x322d74b8	1.0096464e-08
89	0x3b4c6aef	0.0031191667
90	0x3a9ba9c9	0.0011876161
91	0x2011a25e	1.23357e-19
92	0x1a09ea60	2.8520263e-23
93	0x3a888555	0.0010415713
94	0x3a1ca0ed	0.00059749075
95	0x146c3699	1.19257226e-26
96	0x15029b13	2.6375623e-26
97	0x392cc4d9	0.0001647653
98	0x1f1f0c3c	3.367968e-20
99	0x3a943e2d	0.0011310034
