trees/save/0.5_4_1000/models/model.pth (torch, 15672 bytes, 12 tensors)

node_factors.weight f4 [118, 1]
000000 ab c7 a1 ba a0 ad da be af 10 71 bf 20 08 32 bf
       -0.0012342831 -0.4271059 -0.9416608 -0.6954365
000010 a4 4c 75 bf 93 e4 ce be 0b b2 0b bf e6 4d 41 bf
       -0.9582007 -0.40408763 -0.54568547 -0.7550949
000020 76 41 7c bf 69 a6 50 bf 69 22 bd be ab 5f bd be
       -0.98537385 -0.8150392 -0.36940315 -0.3698705
000030 df 24 21 be ed c1 74 bf 47 63 4a bf 5f 85 4e be
       -0.15736721 -0.9560841 -0.79057735 -0.20168065
000040 0a 04 cd be 53 c6 d0 be 90 98 c9 3e 78 dd 4c bf
       -0.40042144 -0.4077631 0.39374208 -0.80025434
000050 ff 09 47 be 56 45 44 be e9 f2 74 bf c7 75 c4 be
       -0.19437407 -0.19167075 -0.9568315 -0.38371107
000060 1b 27 c8 be b7 99 c6 be 49 6a ba be c3 b7 7d bf
       -0.39092335 -0.3878915 -0.36409214 -0.99108523
000070 bf 1f 52 bf 84 4f 2e bf 4f b4 1f be 94 f2 2d bf
       -0.8207969 -0.6809008 -0.15596126 -0.6794827
000080 95 2a f1 3e 92 8d f1 3e ba 59 74 bf 28 28 d3 be
       0.471028 0.47178322 -0.9544941 -0.41241574
000090 11 ff d2 be 1e 90 32 bf ee cf cf 3e 89 d8 f9 3e
       -0.41210225 -0.69751155 0.40588325 0.48798016
0000a0 c8 dd f9 3e ba fa 1e 3e bc df d3 be 97 f9 7d bf
       0.48802018 0.15525332 -0.41381633 -0.9920897
0000b0 6d 79 bb be 73 cf 27 bf f7 e4 31 bf 13 c8 b5 be
       -0.36616078 -0.6555092 -0.6949 -0.35504207
0000c0 b9 0c f2 3e 69 bb 0b 3f f6 c6 29 be 91 9b 0b 3f
       0.47275332 0.5458284 -0.16579804 0.5453425
0000d0 bb 38 27 be 87 79 7c bf 88 8d 35 bf 9d db 1e bf
       -0.16330235 -0.98622936 -0.70919085 -0.62053853
0000e0 27 b0 ef 3e f4 30 b7 be e1 17 b8 be f8 60 1a be
       0.4681408 -0.35779536 -0.35955718 -0.15076053
0000f0 b9 4c 05 bf fb 22 0f be a5 6f ef 3e ed b8 19 3e
       -0.52070194 -0.13978188 0.46764866 0.1501195
000100 a7 e0 73 bf fb 88 d2 be 94 85 d1 be 8e ee 24 3e
       -0.9526467 -0.41120133 -0.40922225 0.16106626
000110 2d 85 48 bf 9c 15 d4 be ae 5c cf 3e b5 fa 50 be
       -0.7832821 -0.41422737 0.40500396 -0.20408137
000120 fd 06 21 3e 93 e4 4e be 1f 1d 52 be e8 10 d6 bd
       0.15725322 -0.20204382 -0.20518921 -0.10452443
000130 82 e0 d0 be 01 9e 73 bf c9 0f d3 be c2 91 52 be
       -0.40796286 -0.9516297 -0.4122298 -0.20563415
000140 69 77 1f 3e 61 e6 30 bf 63 f8 c9 3e 8a 0e 23 bd
       0.15572895 -0.6910153 0.39447317 -0.039808787
000150 51 f2 f9 3e 5d d8 10 3f 37 7f 53 be 1f 2b d2 be
       0.48817685 0.56580144 -0.20653997 -0.41048524
000160 5d 62 d4 be 5e 5e 30 bf 7a 85 ce 3e 4d 69 74 bf
       -0.41481295 -0.6889399 0.4033621 -0.95473176
000170 6e 61 d0 be 2d 0a fa 3e 81 c9 c3 3e aa 3d 49 bf
       -0.40699333 0.48835889 0.38239673 -0.78609717
000180 db 88 50 be 4e c3 4f be c0 02 d0 be c7 0e 20 3e
       -0.20364706 -0.20289347 -0.40627098 0.15630637
000190 7d 8a d1 be 14 f7 d2 be 31 72 50 be 39 f3 4b bf
       -0.4092597 -0.4120413 -0.2035606 -0.79668003
0001a0 d9 b7 77 bf 56 5c a8 3e 95 4c c6 be e1 e8 f5 3e
       -0.96764904 0.32882947 -0.38730302 0.48029235
0001b0 cc 9b f5 3e 86 8e c6 be 15 fd c8 be ac 09 80 3e
       0.47970426 -0.38780612 -0.39255586 0.2500738
0001c0 2a 62 48 be 18 cd 4b be d4 d8 0e 3f 36 c7 0e 3f
       -0.19568697 -0.19902456 0.55799603 0.5577272
0001d0 34 02 c8 be e5 7a 1f 3f
       -0.3906418 0.622969

layers.0.weight f4 [200, 2]
000000 8c ed fd be 23 58 08 bf 84 16 f4 be 58 19 f4 be
       -0.49595296 -0.53259486 -0.47673428 -0.47675586
000010 a0 ed b8 3e ad 06 cb 3e 62 4f 1a bb c1 4e a9 ba
       0.36118793 0.3965353 -0.002354585 -0.0012917147
000020 ae b7 5d be c1 c8 d8 3e fc 3d 49 3e ee 21 91 3e
       -0.216521 0.42340663 0.19652551 0.283462
000030 77 c1 f7 be e1 b2 f7 be f6 c8 cc bd be d3 dc be
       -0.4838979 -0.4837866 -0.09999268 -0.43130296
000040 28 b0 ab be b3 ce 42 3e 0d 4d b7 be 85 52 4c 3e
       -0.33532834 0.19024162 -0.35800973 0.19953354
000050 83 62 35 bc 72 67 23 bd 36 45 65 be da 1a 27 be
       -0.01107085 -0.039893575 -0.22389683 -0.16318837
000060 be c8 28 bf d6 df 2b bf 3d e6 f4 39 6b 14 3a bb
       -0.6593131 -0.6713842 0.00046710848 -0.0028393518
000070 bc bf 46 3f 71 57 86 3f 0b 5b ad bc 88 6c 83 3e
       0.77636313 1.0495435 -0.021161577 0.2566874
000080 13 81 ff be 45 8f ff be 99 48 8e 3e 48 60 01 be
       -0.49903163 -0.49913993 0.27789763 -0.12634385
000090 66 c7 82 3e a0 c8 a3 3d 9c a9 53 3e d5 ac 0a 3e
       0.25542754 0.079972506 0.2067017 0.13542493
0000a0 27 2f 47 bd 7a 13 96 be 6e 6f 2b be 43 fb c6 3c
       -0.048628952 -0.29311734 -0.16741726 0.024289733
0000b0 1c cb 00 3e 4e 80 3e 3e 6f 61 2a be e1 4f b3 3d
       0.1257748 0.18603632 -0.1663873 0.0875547
0000c0 8a 84 00 3f 7e 05 01 3f aa ee e5 3d 86 60 8d be
       0.5020224 0.50399005 0.11227162 -0.27612704
0000d0 93 de f4 3b f8 11 3d 3c 77 e5 ba 3c 4c 40 a9 3c
       0.007472822 0.011539929 0.022814495 0.020660542
0000e0 52 2a 78 3f fb 5a 7a 3d 07 58 9d 3e c2 13 95 bd
       0.96939576 0.061121922 0.30731222 -0.07279159
0000f0 96 a1 66 bf aa ab 6a bf b2 4f 07 3b 04 fb 85 3d
       -0.9009031 -0.9166819 0.0020646867 0.06542018
000100 13 37 92 be bd 25 c3 3e 8e c4 26 3e b3 5e c4 3e
       -0.28557643 0.3811473 0.16285917 0.383535
000110 1d 25 c2 3d 0f ee 95 be c3 e9 b5 bd be d6 80 3e
       0.09479735 -0.29283187 -0.08882477 0.25163835
000120 a8 8f 75 3e b0 ad e1 be 39 ac 40 bf 22 43 4a 3f
       0.23980582 -0.44077826 -0.7526279 0.79008687
000130 48 a4 ce be 80 1e b5 3e 50 a8 0b bf 2c cf 12 3f
       -0.40359712 0.35374832 -0.545537 0.5734737
000140 7c ac c4 3b ce 52 30 3c a0 b4 d6 be 1c 69 d9 be
       0.006002007 0.01076193 -0.4193468 -0.42463005
000150 fb f3 d4 be f1 57 7a be 29 73 17 be 3a 2f 4c 3b
       -0.41592392 -0.2444761 -0.14790024 0.003115608
000160 e7 ba 60 3d ae a2 c0 3c 83 21 d0 3e b8 0f 67 3e
       0.054865744 0.023515072 0.40650567 0.2256459
000170 0d cb d3 3d 51 e0 94 3e aa 7d c5 be d3 e7 94 be
       0.10341463 0.2907739 -0.38572437 -0.29083118
000180 aa 09 94 3c 37 8b 74 3e 32 69 7a 3e 8e 08 a5 3c
       0.018071014 0.23881231 0.24454191 0.02014568
000190 d5 9e 6a 3e 34 39 4a 3e b5 77 9d 3d 72 d1 48 bd
       0.22912152 0.19748384 0.07688848 -0.049027868
0001a0 0a 60 42 3d 99 60 9b bd 66 1c ff be 7b 5c fe be
       0.04745487 -0.07586784 -0.49826354 -0.49679932
0001b0 ce fd a7 3b 23 9c 20 bc ec 7b 43 bf 29 2b 4d 3f
       0.0051266914 -0.009802851 -0.76360965 0.8014398
0001c0 cc b9 b2 3d dc 58 86 be 35 c1 a7 bb 91 e6 ba 3e
       0.08726844 -0.2623967 -0.0051194676 0.36504033
0001d0 08 f3 4a 3b 7c 85 3b 3c e8 d1 ae 3d 8b cb d7 bd
       0.0030967612 0.011445399 0.0853613 -0.105368696
0001e0 fa ed 12 bf e3 6d a3 be b4 6d 01 be b7 2d c3 3e
       -0.57394373 -0.31919774 -0.12639505 0.38120815
0001f0 fb 87 a8 bb 92 06 5d bb 7f 03 78 be 82 b9 25 3d
       -0.0051431633 -0.003372584 -0.24220084 0.040460117
000200 6d 47 30 bd 27 6d 40 be 82 ee e4 3d df 79 ea 3d
       -0.043036867 -0.18791638 0.11178304 0.11449026
000210 52 4f 80 be d3 3b 99 3e c2 38 5f 3f bd 3f 6c bf
       -0.25060517 0.29928455 0.8719598 -0.92284757
000220 57 39 ca 3d de af 37 be 9d 79 58 3e f4 73 96 3d
       0.09874218 -0.17938182 0.21140142 0.07346335
000230 1f 26 dd be 71 de e6 3d ee 8a cd 3e e3 03 f8 3a
       -0.43193147 0.11272896 0.40145057 0.0018922057
000240 96 12 fe bd e0 c0 59 bc 5e a0 30 3f 10 85 59 3f
       -0.12405889 -0.013290614 0.689947 0.8496866
000250 ce 53 11 3c 1d 9c 21 3c 4d 01 07 3f ee 74 07 3f
       0.008870078 0.00986388 0.5273636 0.52912796
000260 8e a5 1c 3f 5f cf 07 bf f4 04 08 bf 1c 02 06 bf
       0.61190116 -0.530508 -0.5313256 -0.5234697
000270 09 16 8c 3e 8f fa 58 be 59 02 89 3e e6 b9 93 bd
       0.2736056 -0.2118933 0.26759604 -0.07213192
000280 42 b2 c1 bc 56 6d 79 3e 18 1b 2c be 29 77 13 be
       -0.02364457 0.24358115 -0.1680721 -0.14400925
000290 1c 93 9f bd 06 37 88 bd 1b 78 ed be 4a 63 a8 bd
       -0.07791731 -0.0665112 -0.46380696 -0.08222063
0002a0 74 f8 a3 bc 78 b9 4a bc f9 c8 ea 3e 63 9f da be
       -0.020015933 -0.012373321 0.45856455 -0.42699727
0002b0 09 56 75 bf a0 4a 75 3f 70 43 17 bf 8c e1 24 bf
       -0.95834404 0.95816994 -0.59087276 -0.6440666
0002c0 e2 31 f5 3b 08 a5 99 be fa 62 6a 3e 8d f4 80 3e
       0.007482753 -0.3000872 0.22889319 0.25186577
0002d0 5a 76 2e 3e 6d f0 b6 be 3a bb 3f 3f dd 09 4b bf
       0.17037335 -0.35730305 0.7489506 -0.79311925
0002e0 70 06 57 be 3e 42 23 be 52 82 57 be 82 29 80 3d
       -0.2099855 -0.15943238 -0.21045807 0.06257917
0002f0 50 45 17 bf 17 e6 36 bf 84 a6 e2 3d 31 7e 23 3e
       -0.5909014 -0.7144484 0.110669166 0.15966107
000300 81 8b e3 3b 56 76 3c be e9 c3 0a be 74 06 89 bd
       0.0069441204 -0.18404517 -0.13551296 -0.06690684
000310 ea a4 26 bf 42 7e 29 bf c2 62 b3 3e 18 8e ab 3d
       -0.6509539 -0.6620828 0.35036284 0.083767116
000320 a7 95 37 bf 0e 99 37 bf 51 8a ee be 76 70 ed be
       -0.71712726 -0.7171792 -0.46589902 -0.46374863
000330 86 61 82 3e 2a 7f 7e 3e 38 52 59 3e 5c b8 80 bd
       0.2546503 0.24853197 0.2122277 -0.06285164
000340 90 aa e5 bd ce d3 38 3e 84 3a 03 bf 0f 63 03 bf
       -0.11214173 0.18049547 -0.5126116 -0.51323026
000350 0b 11 28 3f 4a 11 32 bf 37 dd ee 3e 22 4b 81 3e
       0.65651006 -0.6955763 0.4665315 0.25252634
000360 03 00 b2 3d c7 39 91 bc 4b 9e 95 bd 33 36 e8 3d
       0.086914085 -0.017727746 -0.073055826 0.11338463
000370 5c 07 5f bd 12 5b db 3d 8f 55 aa be 56 88 61 be
       -0.054450378 0.1071073 -0.332684 -0.22024664
000380 cb f8 4e 3f 94 f1 4e 3f c8 2e 29 be de f0 8e 3e
       0.8084838 0.8083737 -0.16521752 0.27918142
000390 03 3b 13 be 6a c6 49 be 5f 04 58 3b 2e 2a 77 3b
       -0.1437798 -0.19704595 0.003296159 0.003771435
0003a0 f1 b1 43 bf 7a 61 4d 3f 9e e2 00 be a2 8f b9 bd
       -0.7644339 0.8022686 -0.12586448 -0.09060599
0003b0 f3 33 92 3e bf 41 36 3e 79 60 61 bf 97 53 65 bf
       0.2855526 0.17798518 -0.8803783 -0.8958067
0003c0 b6 80 fb bd 27 cb d9 bc 75 44 e9 be 70 c5 e8 be
       -0.12280409 -0.026586128 -0.4556004 -0.45463133
0003d0 12 93 af bb c7 78 b5 bb 7e b0 82 bf 3f aa 82 3f
       -0.0053581083 -0.0055380794 -1.0210111 1.0208205
0003e0 e7 e2 78 3d 25 0c de be 45 76 4c bf 6a 91 56 3f
       0.060763266 -0.4336864 -0.79867965 0.83815634
0003f0 c9 83 a2 3e 14 ba 83 bd 99 c6 77 3f 35 1b 83 bf
       0.3174117 -0.06431976 0.9678741 -1.0242678

layers.0.bias f4 [200]
000000 7a c5 06 3e e5 1e cc bd 48 e1 0e bf 1d b1 fe bb
       0.13161269 -0.0996683 -0.558125 -0.0077725784
000010 93 a6 07 bf 11 fa 0d 3f 7c 96 60 bf 6c 07 0b bf
       -0.5298855 0.55459696 -0.8772962 -0.543082
000020 06 d5 02 3f 7c 94 d6 3e 16 52 75 be 51 71 21 3f
       0.511063 0.4191016 -0.23957095 0.6306353
000030 ec 99 ca 3c 23 52 d9 bb c2 39 f7 be d3 d6 73 be
       0.024731599 -0.006632106 -0.48286253 -0.23812418
000040 72 a7 67 bf 34 34 1b bf 46 97 e9 3e be 38 9d 3e
       -0.90489876 -0.6062653 0.45623225 0.30707353
000050 82 c6 24 3f a3 f3 31 bf ab d8 2c 3f f1 91 e2 3e
       0.643654 -0.69512385 0.6751811 0.4425197
000060 55 f7 84 3e bb b1 cc be ee db 45 bc 0a 92 e3 bc
       0.2596995 -0.39979348 -0.012076361 -0.027779598
000070 b0 4c d1 bd 22 75 15 bf 99 6f 13 3d 1e 9f 87 3d
       -0.10219705 -0.58381855 0.0359951 0.06622146
000080 16 12 32 bf 87 19 06 3f b0 e4 c6 3e 21 5e 11 bf
       -0.69558847 0.523827 0.3884635 -0.56784254
000090 8a 68 1b bf ca 34 9d 3e 1e 42 0d 3f 41 63 64 3e
       -0.6070639 0.30704337 0.5517901 0.22303487
0000a0 8c c3 37 bc ee f1 4f 3c 5e dc 33 bf d6 30 c4 3e
       -0.011216056 0.012691958 -0.7025813 0.3831851
0000b0 ea 68 96 bd 05 90 fe be 8f 19 82 be 35 58 20 3f
       -0.073442295 -0.49719253 -0.25410125 0.62634593
0000c0 6c c3 8a be c4 91 f8 be e4 de c3 3e 6a 54 55 3e
       -0.2710222 -0.4854871 0.3825599 0.20832983
0000d0 66 5d 1b 3f 18 ea 66 bf 17 f3 86 bc 07 76 9f 3e
       0.6068939 -0.9020095 -0.016473336 0.31144735
0000e0 8d 37 0b 3f 92 02 bb 3e 23 5c 19 bc e8 9b 3f be
       0.5438164 0.36525398 -0.009360346 -0.18711817
0000f0 63 34 cd be c4 60 c3 be 7b 5d e4 bc 6b 85 0f 3f
       -0.4007903 -0.38159764 -0.027876606 0.56062955
000100 66 09 b8 be 84 66 f7 be 04 25 d4 3e b2 a8 a4 3e
       -0.3594467 -0.483204 0.4143449 0.32159954
000110 2d a9 aa be cd 83 dc 3e a5 7d 13 bf e6 e1 b1 be
       -0.33332196 0.43069306 -0.57613593 -0.3474266
000120 c6 ac 68 be d9 ce 05 bf 65 95 4d bc d3 c4 8b 3e
       -0.22722158 -0.5226875 -0.012547825 0.27298602
000130 62 27 34 bf 3c b7 a7 3e 50 b2 d2 be d1 0c ee be
       -0.70372593 0.32756984 -0.41151667 -0.46494153
000140 2e fa 82 3e 83 bc f7 3e d2 eb 89 3e 49 15 0e bf
       0.25581497 0.4838601 0.2693773 -0.5550123
000150 e1 b1 07 bd c3 48 0c bf db 94 53 b5 e8 b5 b7 be
       -0.033128623 -0.54798526 -7.882024e-07 -0.3588097
000160 c3 3e 14 3f 97 73 09 3e da 92 12 bf 8a 72 8d 3e
       0.57908267 0.13423 -0.5725533 0.2762645
000170 df 9e 9d 3e 92 65 2a 3e 2c 45 b3 3e 14 e8 aa be
       0.30785272 0.16640308 0.3501371 -0.33380187
000180 c5 70 ff be 19 2c 32 bf 2e 94 c9 3c 25 cf 97 be
       -0.49890724 -0.6959854 0.02460679 -0.29650226
000190 ae 92 19 be e0 c9 57 bf 10 f7 00 3f 54 70 ff be
       -0.1499736 -0.8429241 0.5037699 -0.49890387
0001a0 54 9b cb 3e 07 10 6e bf c3 0d 78 3e f6 76 d5 be
       0.39766943 -0.92993206 0.24224 -0.41692322
0001b0 8a 5e 6a 3e 73 03 90 3e c4 b4 26 3f 10 77 10 bf
       0.22887626 0.28127632 0.65119576 -0.56431675
0001c0 6d 2a 2d 3e e8 70 b4 3e 79 8b 14 bf e2 d7 9f bb
       0.16910715 0.3524239 -0.5802532 -0.00487803
0001d0 62 9e 9f 3e 3e c3 bd 3e 6a 73 14 3f 95 65 11 3d
       0.31175524 0.3706302 0.5798861 0.035497267
0001e0 c8 03 86 be 1c 3c 53 bf 80 d6 3d bc 6c b0 1b b7
       -0.2617476 -0.82513595 -0.011586785 -9.279796e-06
0001f0 33 05 0c bf 0d bd a6 3e 2e f6 c9 3e 8c c0 b6 3e
       -0.54695433 0.3256611 0.39445633 0.35693777
000200 88 fb ac bc 33 c1 93 be e9 08 a5 3e 17 0c a8 3e
       -0.021116033 -0.28858337 0.3223336 0.32821724
000210 36 1b 4e bf 19 cc 5a be a4 36 b0 3e 57 26 bb be
       -0.8051027 -0.2136692 0.34416687 -0.36552688
000220 1a e6 23 bf a3 ea a9 3e 5e 87 1f bf 25 9d 23 3d
       -0.6402298 0.33186826 -0.6231593 0.039944787
000230 00 5c cb bb 2a ab 20 bf 2b e0 9f be 3f 92 35 3e
       -0.0062060356 -0.62761176 -0.31225714 0.1773157
000240 7f 32 d0 3e 59 b2 a4 bd 6c 8f ec be ca 9d 19 bf
       0.40663525 -0.080418296 -0.46203172 -0.6000639
000250 f4 2d 93 3e a9 52 19 3f 53 14 1b 3f 87 66 b8 3d
       0.28745997 0.59891754 0.6057789 0.090039305
000260 b2 ba e3 3e 42 68 d0 be 62 07 ca 38 12 a8 13 bf
       0.44478375 -0.40704542 9.633486e-05 -0.5767833
000270 a9 70 54 bf 0d d7 f4 be 0a 35 24 bf 6f 0f 41 3e
       -0.82984406 -0.4782032 -0.6414343 0.18853544
000280 2a 27 20 bd 9a 86 74 3e 8f 91 f2 3e 67 2f 10 bf
       -0.03909985 0.23879471 0.47376677 -0.5632233
000290 b8 cd 63 be 03 6e 01 3f 29 33 20 bf 1c 62 ec 3e
       -0.22246444 0.5055849 -0.62578064 0.46168602
0002a0 ac c6 9c bc 1e f5 12 bf 57 78 ab be 11 d2 d1 bc
       -0.019137703 -0.5740527 -0.3349025 -0.025612863
0002b0 e0 a9 2f bc 36 80 93 be 05 cf 07 bd 44 dc 06 3f
       -0.010721654 -0.28808755 -0.033156414 0.5267985
0002c0 aa 05 99 3e 32 94 ca be b7 84 26 bf e6 2c 0f be
       0.29887134 -0.3956619 -0.65046257 -0.13981971
0002d0 e8 f1 bc bd f0 2a 21 3f 75 f7 5b bd 56 9b 0a bc
       -0.092258275 0.6295614 -0.05370279 -0.008459887
0002e0 a3 c5 bc 3e b6 99 eb be 60 6c 3b bd 37 8f a8 3e
       0.36869535 -0.4601571 -0.04575765 0.32921764
0002f0 7c cb a7 be 90 7e ae bc 62 da 51 3e 57 44 e4 b6
       -0.32772434 -0.021300584 0.20493463 -6.8028853e-06
000300 7d 04 28 3f 5b 8b 1b 3f aa 51 10 3f 2c a2 89 3e
       0.6563185 0.60759515 0.5637461 0.2688154
000310 cb c8 ba 3c b9 0d bd be b0 28 a7 bd 51 10 02 bf
       0.022800824 -0.36924532 -0.081620574 -0.50806147

layers.2.weight f4 [1, 200]
000000 a1 63 98 be 54 ef d5 3e f8 9d 39 bd bd df 62 3a
       -0.2976351 0.41784155 -0.045316666 0.00086545554
000010 a6 f1 ee bb e7 63 92 bd 69 f9 c7 c0 47 43 20 3d
       -0.0072919903 -0.07147961 -6.2491956 0.03912666
000020 72 7d d8 bd 32 07 70 bd 4e 08 34 3a 3f 38 de bd
       -0.10570802 -0.058600612 0.00068676926 -0.10850572
000030 d2 22 8a be 5b 35 d4 b8 3d b2 d4 bf 20 d4 1f bd
       -0.2697969 -0.00010118886 -1.6616894 -0.039020658
000040 d2 ff d1 c0 8c e3 22 3d 4c fa 82 bd f3 5a 51 bd
       -6.562478 0.039767787 -0.063953966 -0.051112127
000050 d5 4e c9 bd f0 fe 05 3d d9 f4 bb bd 82 82 a6 bd
       -0.09829489 0.03271383 -0.0917756 -0.08130361
000060 c0 21 8c be fe 6d 1d 3c c2 ab 20 bb da ae 28 3a
       -0.273695 0.009608744 -0.0024516438 0.00064347463
000070 93 0f 06 bf e3 07 07 3b 35 5a a2 be bd 25 8d bb
       -0.52367514 0.0020604066 -0.31709448 -0.0043074773
000080 10 ac f8 bc c7 08 85 bd 46 70 62 bd 2d a9 e5 3c
       -0.030355483 -0.06495815 -0.055282854 0.02803477
000090 6f de 08 bd 7f 21 ec be c2 c0 b9 bd 2e 36 b5 be
       -0.033415254 -0.46119305 -0.09069969 -0.35392898
0000a0 dd 18 2a ba d8 ca 47 be cb 41 73 bb 62 d2 8f bd
       -0.000648869 -0.19510972 -0.0037118073 -0.07022549
0000b0 49 3e 82 3c cb 54 2d 3d c4 6e cf 3b 4b 3e 92 bd
       0.01589884 0.042317193 0.006330343 -0.07140788
0000c0 35 ca 1b bd bb d4 23 bd 5f e3 7d bd 9f 9d df bc
       -0.038034637 -0.039997797 -0.061984416 -0.02729684
0000d0 ba 2f c8 bd d6 c8 d2 c0 0d 36 4d ba 12 81 c1 be
       -0.09774728 -6.587016 -0.00078281836 -0.37793785
0000e0 62 6f 99 bd 78 e6 8e bd bd f2 47 3a e0 2f 81 bb
       -0.07491948 -0.06977552 0.00076274184 -0.0039424747
0000f0 34 6b 27 bf 60 7e 9c bc 10 fe 2b 3b 7d 17 a5 bd
       -0.65397954 -0.019103229 0.0026243962 -0.08061121
000100 a3 56 59 ba 5c 1b 06 3d 07 27 84 bd b8 15 06 bf
       -0.0008290803 0.032740936 -0.064527564 -0.5237689
000110 b7 e1 67 3c b5 c7 9a bd f4 7d 9e bc e5 19 be 3c
       0.014152936 -0.07557622 -0.019347169 0.023205707
000120 65 1f e6 3b d5 e2 91 bf 84 32 7a ba 6a e1 6f be
       0.0070227855 -1.1397349 -0.00095442706 -0.23425832
000130 32 5e 1a 40 51 c1 96 be 1b 8a 3f bc 59 48 20 3c
       2.4119992 -0.29444364 -0.011690642 0.009782874
000140 8c 7f ba bd c0 a8 99 bd 1e 55 c3 bc ba 24 4a 3b
       -0.09106359 -0.0750289 -0.023844298 0.0030844645
000150 13 a5 1e 3b 55 02 dc 3f 7c 6b 3a 3f 88 31 d9 bf
       0.0024207279 1.7188212 0.7282026 -1.6968241
000160 c8 6c 9d bd a1 6e 03 be b6 21 19 bc 56 f8 ea be
       -0.07686764 -0.1283517 -0.009346416 -0.4589259
000170 ab 55 34 bd 31 3f 4d bd 21 44 7b be a5 0b b4 3c
       -0.04402701 -0.050109092 -0.24537708 0.021978209
000180 8b ba 05 3d 7b 5d 17 3d 43 7d a8 be 4e e8 09 3d
       0.032648604 0.036954384 -0.32908067 0.03366881
000190 f1 95 51 3f 0e 7c c4 c0 79 f7 83 bd cd 78 97 bb
       0.8186942 -6.1401434 -0.06443686 -0.004622555
0001a0 b2 d9 45 bd 67 7e de c0 f0 57 eb be ff fc ce bf
       -0.048303314 -6.95293 -0.45965528 -1.6170958
0001b0 d3 2a 25 bd e5 11 0a bd 1c f9 c9 bd 3e 36 b3 3c
       -0.040324043 -0.03370847 -0.09861967 0.02187645
0001c0 65 ed 30 3f 66 85 69 bd 05 38 1f bc b2 11 15 39
       0.69112235 -0.057011984 -0.009717946 0.0001421634
0001d0 8a 62 d6 be f6 10 9f bd 8d 31 a2 bd 5b 07 d2 be
       -0.41872054 -0.07766907 -0.07919607 -0.41021237
0001e0 3a 7a 33 bd 8a f1 c5 c0 ce e0 7f ba 4f 9b 45 3f
       -0.043817736 -6.1857347 -0.00097609765 0.7719011
0001f0 58 11 c0 3c 63 99 e3 be 24 b1 92 bd 1f 4d 1a bf
       0.02344577 -0.44452962 -0.07162693 -0.6027393
000200 3b ea fa b7 5d 81 cb 3c 7b 49 e4 bc 3a b7 5f be
       -2.9911394e-05 0.024841959 -0.02786707 -0.21847239
000210 12 22 4b c0 5d 0d 95 3f 11 28 aa bd df a9 8c bf
       -3.1739545 1.1644703 -0.08308423 -1.098934
000220 1c b1 de bf 28 7d 79 bd f5 d2 17 3c c1 b1 41 be
       -1.73978 -0.060910374 0.009266605 -0.18915464
000230 bd 4f ef b8 03 27 00 c0 40 d9 02 bf ee 7c 64 bd
       -0.000114112605 -2.002381 -0.5111275 -0.055783205
000240 c4 03 75 bd c9 e9 7b 3b 2d fb c8 bb 99 1b b6 3b
       -0.059818044 0.0038438907 -0.006133458 0.005557489
000250 4c b6 3d bd d8 fa 96 bd 7c 23 d6 bd 3b bf 1e bc
       -0.04631643 -0.073720634 -0.10455987 -0.009689148
000260 69 a9 2a bd 06 86 e0 ba 95 a3 56 3f 21 18 60 3c
       -0.04166547 -0.0017129786 0.83843356 0.013677628
000270 9b 81 30 40 e8 7a 45 3d 8e 3a a8 3c 00 67 e0 bc
       2.7579105 0.048212916 0.020535734 -0.027392864
000280 d9 bd 00 39 22 9d c1 be 4e 85 bb bd a5 a4 15 bc
       0.00012277755 -0.37815195 -0.09156285 -0.009133493
000290 1f 39 b5 3c c2 1a 91 bd ec 6f 21 bd ac 90 8d bd
       0.022121964 -0.07085182 -0.039413378 -0.069123596
0002a0 11 e6 52 bb d8 87 a4 3c 48 0d 03 40 0b d6 81 3b
       -0.0032180587 0.020084307 2.0476856 0.0039622835
0002b0 9c 1c e6 39 83 79 00 bc 63 54 2a 3c cb 31 b7 bd
       0.00043890334 -0.007841471 0.010396096 -0.08945044
0002c0 4b 33 1b bd b2 cc 02 40 2e 99 85 3c ae 5f 0b bf
       -0.037890714 2.0437436 0.016308393 -0.5444287
0002d0 42 51 85 be 2a 68 ad bd eb 4c 32 bb 30 7d 2e 39
       -0.26038557 -0.08467133 -0.0027206491 0.00016640569
0002e0 f8 dc 9f bd 9d 15 4b 40 30 82 38 3d 01 0b ce be
       -0.07805818 3.1731942 0.04504603 -0.4024277
0002f0 df 79 01 bf 1c 8c 60 39 b5 63 1e be c9 2a 4a 3f
       -0.50576586 0.000214145 -0.15467723 0.78971535
000300 0c 81 c9 bd d6 ed 96 bd 7f 72 ce bd 6c 65 a4 3e
       -0.09839067 -0.07369582 -0.10080432 0.3210863
000310 93 99 95 be 12 b1 3b 3b e7 85 f2 3b 9f 77 93 bc
       -0.2921873 0.0028639478 0.0074012163 -0.018001376

grad_avg f4 [118, 1]
000000 00 00 00 00 ea 25 f0 b9 2c 23 b8 b8 e4 7d 2a ba
       0.0 -0.00045804615 -8.780355e-05 -0.00065037445
000010 d1 22 b3 b9 58 04 65 3b 02 35 18 3a 67 43 5b 3a
       -0.0003416748 0.0034945216 0.00058062386 0.0008364231
000020 fb 4f d4 ba a9 98 5a 3b 4c 99 92 3a be d9 8c 3a
       -0.0016198152 0.0033355153 0.0011184602 0.0010746045
000030 a0 a4 92 38 6b 1a 11 bb 22 8a c4 ba 54 f9 da ba
       6.992486e-05 -0.002214099 -0.001499478 -0.0016706386
000040 32 9b 27 bb 94 d2 93 b8 da d6 2e 3a 5f 43 9b bb
       -0.0025574681 -7.0487295e-05 0.00066695886 -0.004738256
000050 cc f0 94 3a 2e 57 8c 3b 40 3c 3a 3b 63 37 02 bb
       0.0011363267 0.0042828536 0.002841726 -0.001986944
000060 4a cb 86 3b 3d a6 02 bc 2f cc a1 3b 84 84 3c ba
       0.0041135894 -0.007974205 0.0049376707 -0.0007191377
000070 eb 9f ad 3a aa 97 2f 3b e7 58 a5 ba 34 14 73 3a
       0.0013246512 0.002679328 -0.0012614996 0.0009272725
000080 10 99 a6 3b ed 7b 00 3b c2 4a 2a 3b 84 cd 3b 3b
       0.0050841644 0.0019605116 0.00259845 0.0028656432
000090 6c b6 37 3b ed 27 44 3a f5 17 06 bb dc 5c d4 38
       0.0028032316 0.0007482756 -0.0020461057 0.00010126244
0000a0 30 3b 21 3c 50 ee 1e bc 0e 61 ed ba 4b e8 1b 3a
       0.009840772 -0.009700373 -0.001811059 0.0005947395
0000b0 be 95 a9 3a 4e f3 03 bb 06 de ef 3a 8b c1 cb 3a
       0.0012938303 -0.0020134035 0.0018300421 0.0015545351
0000c0 4e f6 5f 3a e5 9e ec 3b 98 bb b1 3b 54 d6 a3 3b
       0.0008543477 0.00722109 0.0054239742 0.004999915
0000d0 d4 86 91 3a 76 2e 92 3a 66 89 d9 b9 a2 3d dd 3a
       0.0011102804 0.0011152762 -0.00041491835 0.001687933
0000e0 4f ae e2 3b 1a 14 2d 3b 8c ad 30 3a b9 61 a6 ba
       0.006917752 0.0026409687 0.00067397277 -0.0012693919
0000f0 65 a7 c1 3b 58 e8 eb 3a 8f 37 62 3c e3 81 00 bc
       0.0059098476 0.0017998321 0.0138071915 -0.007843467
000100 12 c2 80 bb 99 01 4d bb 62 66 df 3a 0e 95 90 bb
       -0.003929385 -0.003128147 0.0017044062 -0.0044123
000110 ba 70 83 3a cf 97 e8 ba d0 53 93 bb 47 a9 64 bb
       0.0010028102 -0.0017745438 -0.004496075 -0.0034890936
000120 c2 67 27 3b 71 51 57 3b 20 33 23 3b 18 ed d1 39
       0.0025544022 0.003285494 0.00249023 0.00040040235
000130 60 3a 3d 37 13 5a 01 39 c3 53 e2 39 69 0a ac bb
       1.1278869e-05 0.00012335954 0.00043168486 -0.0052502644
000140 86 11 f3 bb 3b d7 df b9 8e 5b 33 36 c8 2a 0d bb
       -0.0074178604 -0.00042694234 2.672637e-06 -0.0021540392
000150 98 03 77 3a 0d db 9d 3a 16 38 1a 3a 0d af 2f 3b
       0.0009422838 0.0012043432 0.0005882991 0.002680722
000160 88 e1 7b 3a 1e 29 71 3a de 31 2b bc 72 56 0f 3a
       0.0009608497 0.00091995473 -0.010448901 0.00054678984
000170 c9 2e 2f 3b 5c 04 dd bb e0 81 97 b7 2c ea f3 3b
       0.0026730767 -0.0067449044 -1.806108e-05 0.007443687
000180 9a b1 b3 3b e0 7b c2 3b 6c 40 77 3b fd a5 92 bc
       0.0054838182 0.005935177 0.0037727607 -0.017901415
000190 8e 12 14 bc b7 f7 4b 3b d4 a7 91 ba 7d d9 02 bc
       -0.009037627 0.0031122991 -0.0011112639 -0.007986424
0001a0 15 25 2a bb 8c ab 1e 3b ca 39 d6 ba fb 15 2c b8
       -0.0025962044 0.0024211137 -0.0016344127 -4.1028467e-05
0001b0 e1 08 2d bc 92 9c 6d 3b 4f 86 a4 3b 7a 8d 4d bc
       -0.010561199 0.0036256653 0.0050208936 -0.012545938
0001c0 ff 6b 5f bb 0b a6 dc b8 8d 2d d0 3b 9a 59 40 3c
       -0.003409147 -0.000105213454 0.0063530863 0.011740113
0001d0 7c a1 f1 bb 08 9e 21 bb
       -0.0073739868 -0.0024660844

sqr_avg f4 [118, 1]
000000 00 00 00 00 44 6c 1b 39 0f 4f bb 38 b4 44 31 38
       0.0 0.00014822284 8.931581e-05 4.2264073e-05
000010 a2 ea bb 38 de 25 04 3a 86 4a 8b 38 c4 40 6a 38
       8.9605586e-05 0.0005041043 6.6419176e-05 5.5850265e-05
000020 28 5c 08 39 bd 91 ce 39 fe 13 ce 39 40 e3 be 39
       0.00013004302 0.00039399965 0.00039306277 0.00036408938
000030 5f dc 2b 39 cb f4 84 39 bb f8 f0 39 f5 ac 1b 3a
       0.00016389925 0.00025359387 0.00045961686 0.00059385534
000040 c3 fe 2c 3a 84 bf e2 39 76 95 e1 39 08 85 a1 3a
       0.0006599242 0.0004324877 0.000430267 0.0012322972
000050 7a cc 10 3a 45 68 bf 39 4d 5b 5e 39 39 7d e6 39
       0.00055236334 0.00036508046 0.00021205582 0.00043962317
000060 ed 39 05 3a 08 a3 1e 3a 76 8a 84 3a ad ae f6 38
       0.0005082179 0.0006051515 0.0010112065 0.0001176273
000070 3d b3 e1 39 72 c3 32 39 d5 43 75 39 6c 5f ae 39
       0.00043048887 0.00017048212 0.0002339029 0.0003325896
000080 66 4c 34 3b 2e 72 0e 3b 66 bd 04 3a c4 57 3b 3a
       0.0027511357 0.0021735537 0.0005063623 0.0007146562
000090 8b 00 6d 3a ed 23 b1 38 1b 1a bf 3a 05 c7 46 3b
       0.00090409134 8.4467094e-05 0.0014579924 0.0030331027
0000a0 e5 47 33 3b 5b 98 ce 3b 73 b9 23 3a 73 e8 4c 3a
       0.0027356085 0.0063047833 0.00062455906 0.000781662
0000b0 be 9a 62 3a b0 f5 42 3a 71 60 7b 39 be 05 aa 3a
       0.0008644274 0.0007437123 0.00023973153 0.0012971682
0000c0 cf ac 69 3b 68 63 ef 3b 86 bc 1b 3a 89 b5 c6 3b
       0.003565598 0.0073055513 0.0005940873 0.006064121
0000d0 02 62 20 3a dd c6 12 3a 3f 92 a3 39 0b 8f 3c 3a
       0.000611812 0.0005599091 0.00031198745 0.0007192946
0000e0 89 60 aa 3b 3e 23 7f 3a 62 db 8f 3a 54 1b 95 39
       0.005199496 0.00097327295 0.0010975415 0.00028439856
0000f0 bf 73 43 3a 0d 82 18 3a 5c eb a0 3b cc 12 43 3b
       0.0007455907 0.0005817719 0.0049108695 0.0029765842
000100 80 45 1f 3a 48 3b 38 3a 98 2b 60 3a df 1d 0a 3b
       0.0006075725 0.00070278766 0.0008551418 0.0021074933
000110 77 47 66 3a 0f e2 4c 3a 9b 83 00 3b e5 05 2b 3a
       0.0008784453 0.0007815668 0.0019609693 0.00065240107
000120 be 60 f6 3a c0 27 97 3a a0 bf 86 3a b9 de e3 39
       0.0018797142 0.0011532232 0.0010280497 0.00043462755
000130 b3 30 7a 3a c3 30 81 3a 94 9f 96 3a e4 08 c8 3a
       0.0009544 0.0009856451 0.001149165 0.0015261439
000140 86 cf c6 3b 4b 7c b8 39 9f 4e 50 3a f5 d1 2f 3a
       0.006067219 0.0003518782 0.0007946286 0.0006707006
000150 0d f3 af 3b 93 56 21 3c 83 6b 86 3a 06 73 68 3a
       0.00536955 0.009847301 0.001025543 0.00088672375
000160 5f d0 5e 3a 1a 6b bc 39 2b 92 23 3b c5 0a 27 3a
       0.00084996776 0.0003593795 0.002495895 0.0006372149
000170 37 83 7a 3a 95 29 cb 3b 98 23 92 3a 79 cc 64 3a
       0.00095562957 0.0062000253 0.0011149524 0.00087279786
000180 92 4d ad 3a f8 88 9b 3a 83 55 ab 3a 17 1b bd 3b
       0.001322197 0.0011866381 0.0013071749 0.0057710516
000190 7f a4 94 3a 14 99 63 3a b4 e5 b2 3a 18 2b 12 3b
       0.0011340528 0.0008682173 0.0013648779 0.0022303518
0001a0 4f a1 f0 3a d8 73 2f 3b 99 57 e2 3a c5 93 90 3b
       0.0018358621 0.002677193 0.0017268538 0.0044121468
0001b0 4a 25 91 3b ec a5 df 3a 4b 9f 8f 3a 14 8f b5 3b
       0.004429494 0.0017062998 0.0010957507 0.005540738
0001c0 ff 6d b5 3a ca f8 bb 3a 3c d8 f6 3b 49 8f da 3b
       0.0013841985 0.0014341113 0.0075331014 0.006669913
0001d0 45 51 8f 3a 18 96 ea 3b
       0.0010934254 0.007159006

grad_avg f4 [200, 2]
000000 e7 d3 af 3a 04 50 6c b7 9e c7 0b bb 94 7b 6c 3a
       0.0013414592 -1.4085326e-05 -0.0021328698 0.00090211
000010 00 00 00 00 00 00 00 00 04 00 00 80 04 00 00 80
       0.0 0.0 -6e-45 -6e-45
000020 03 00 00 80 03 00 00 00 7d d8 2b b8 51 15 d6 b9
       -4e-45 4e-45 -4.0971197e-05 -0.00040833143
000030 41 6a fe 38 0e 84 fd 38 05 00 00 80 05 00 00 80
       0.00012131455 0.00012088577 -7e-45 -7e-45
000040 80 4e 7d b8 c7 25 1e ba 58 a8 10 b8 d2 7a af b9
       -6.039301e-05 -0.0006032851 -3.4489058e-05 -0.0003347011
000050 00 00 00 00 00 00 00 00 31 6e 81 b8 6a 8a 22 ba
       0.0 0.0 -6.171724e-05 -0.0006200435
000060 e6 fe e4 3a 25 91 f0 b9 03 00 00 00 03 00 00 80
       0.0017470985 -0.00045884508 4e-45 -4e-45
000070 63 b7 ad bb 49 12 11 bc 03 00 00 80 03 00 00 00
       -0.0053014024 -0.008854457 -4e-45 4e-45
000080 ad 95 05 39 ce 1c 05 39 00 00 00 00 00 00 00 00
       0.00012739627 0.00012694599 0.0 0.0
000090 85 8a 19 b8 f4 da bf b9 60 61 c6 b7 97 f9 96 b9
       -3.660705e-05 -0.00036593492 -2.3648783e-05 -0.00028796188
0000a0 af 5b 6a b8 9d 5e 13 ba 00 00 00 00 00 00 00 00
       -5.5875335e-05 -0.00056217035 0.0 0.0
0000b0 dc 27 5b b8 6b 6d 09 ba b7 4a 44 b8 cb 89 f3 b9
       -5.225079e-05 -0.000524244 -4.6799625e-05 -0.00046451236
0000c0 4c 87 97 ba 13 a7 09 bb 03 00 00 00 03 00 00 80
       -0.0011560707 -0.0021004125 4e-45 -4e-45
0000d0 af 1e ba 05 52 6a e7 05 05 00 00 00 05 00 00 00
       1.7502627e-35 2.1762192e-35 7e-45 7e-45
0000e0 17 bd 91 bb 98 8b b8 b8 00 00 00 00 00 00 00 00
       -0.00444759 -8.799805e-05 0.0 0.0
0000f0 0d 98 06 3b ee 3a 0d ba 86 69 60 b6 67 2a c7 b7
       0.0020537407 -0.00053875044 -3.3440024e-06 -2.3742394e-05
000100 00 00 00 00 00 00 00 00 e2 b4 1e b8 de a7 c2 b9
       0.0 0.0 -3.7838596e-05 -0.00037127634
000110 c7 9c 05 b8 9d 73 a6 b9 00 00 00 00 00 00 00 00
       -3.185568e-05 -0.00031748126 0.0 0.0
000120 00 00 00 00 00 00 00 00 e5 f1 2c 3b 9b 97 4a bb
       0.0 0.0 0.0026389298 -0.0030913118
000130 78 7a 59 b7 38 2d 14 ba d8 38 08 3b 4e bf 14 bb
       -1.2962722e-05 -0.000565249 0.0020785835 -0.0022697034
000140 04 00 00 80 04 00 00 00 2f 87 a5 3a 22 68 ae b9
       -6e-45 6e-45 0.0012628789 -0.0003326545
000150 00 00 00 00 00 00 00 00 0e 96 2a b8 10 8f d2 b9
       0.0 0.0 -4.0670908e-05 -0.0004016091
000160 03 00 00 80 03 00 00 00 00 00 00 00 00 00 00 00
       -4e-45 4e-45 0.0 0.0
000170 04 00 00 00 04 00 00 00 a6 72 2d b8 88 52 d6 b9
       6e-45 6e-45 -4.135319e-05 -0.0004087875
000180 00 00 00 00 00 00 00 00 00 00 00 00 00 00 00 00
       0.0 0.0 0.0 0.0
000190 58 f8 ff b7 e7 1f b7 b9 bb 12 8a b7 bc 29 25 b9
       -3.0514013e-05 -0.0003492825 -1.6459604e-05 -0.00015751173
0001a0 13 f9 68 b8 c3 77 12 ba c1 7a 28 39 33 0d 2f 39
       -5.554508e-05 -0.0005587304 0.00016067458 0.00016694218
0001b0 05 00 00 80 05 00 00 80 a6 74 07 3b 13 ca 31 bb
       -7e-45 -7e-45 0.0020668893 -0.0027128502
0001c0 66 95 33 b8 f1 f5 e0 b9 0f f0 26 b8 79 17 d1 b9
       -4.2816064e-05 -0.0004290785 -3.9801056e-05 -0.00039881075
0001d0 04 00 00 00 04 00 00 00 03 00 00 00 03 00 00 80
       6e-45 6e-45 4e-45 -4e-45
0001e0 8c 5f cf 3a 90 6b 9d b9 00 00 00 00 00 00 00 00
       0.0015821322 -0.00030025514 0.0 0.0
0001f0 04 00 00 80 04 00 00 80 8d bd 42 b8 d0 89 f1 b9
       -6e-45 -6e-45 -4.6429737e-05 -0.0004606978
000200 00 00 00 00 00 00 00 00 00 00 00 00 00 00 00 00
       0.0 0.0 0.0 0.0
000210 96 7c fa b7 39 cc bc b9 d3 c6 82 bb 9e d1 87 39
       -2.9860337e-05 -0.00036010312 -0.003990987 0.00025905384
000220 00 00 00 00 00 00 00 00 9a a7 34 b8 1e 92 e2 b9
       0.0 0.0 -4.3071435e-05 -0.00043214945
000230 00 00 00 00 00 00 00 00 00 00 00 00 00 00 00 00
       0.0 0.0 0.0 0.0
000240 00 00 00 00 00 00 00 00 db 3e 8c ba 96 33 ec ba
       0.0 0.0 -0.0010699885 -0.0018020745
000250 06 00 00 00 06 00 00 00 d2 bb 86 ba 42 fa fd ba
       8e-45 8e-45 -0.0010279363 -0.0019376951
000260 e0 50 a6 ba e2 5b 35 3b 5d 25 1a 3a 0e 17 40 ba
       -0.0012688898 0.0027673175 0.00058802014 -0.0007327654
000270 03 00 00 00 03 00 00 80 00 00 00 00 00 00 00 00
       4e-45 -4e-45 0.0 0.0
000280 78 6e 5a b8 97 1e 08 ba 7e 62 35 b8 cb 18 e1 b9
       -5.2078132e-05 -0.00051925465 -4.324549e-05 -0.00042933816
000290 73 a3 7b b7 c6 56 10 b9 06 00 00 80 06 00 00 80
       -1.4998822e-05 -0.00013765236 -8e-45 -8e-45
0002a0 05 00 00 80 05 00 00 80 eb f5 6c ba 64 34 01 3b
       -7e-45 -7e-45 -0.000903933 0.0019715065
0002b0 f7 9e d7 bb c4 91 1d 3b 94 db f4 3a 74 d4 1a 3b
       -0.0065802294 0.0024043182 0.0018681162 0.0023625167
0002c0 e4 7c 38 b8 f3 c6 e6 b9 bd ba 99 b9 b8 ab 73 ba
       -4.3985332e-05 -0.00044017247 -0.00029321565 -0.00092953024
0002d0 00 00 00 00 00 00 00 00 b5 41 65 bb 12 91 6e 39
       0.0 0.0 -0.0034981791 0.00022751492
0002e0 37 69 dc b7 80 8a 84 b9 ce 1b a6 b7 9e e7 98 b9
       -2.6275038e-05 -0.00025280192 -1.980169e-05 -0.00029164267
0002f0 04 e6 07 3a 21 ca 95 b9 00 00 00 00 00 00 00 00
       0.00051841163 -0.00028570092 0.0 0.0
000300 00 00 00 00 00 00 00 00 00 00 00 00 00 00 00 00
       0.0 0.0 0.0 0.0
000310 c4 af 0b 3b d7 89 12 ba 03 00 00 00 03 00 00 00
       0.0021314481 -0.0005589998 4e-45 4e-45
000320 2b b5 7d bb 63 4c cc 3a 83 5d c0 b8 85 ac 08 b9
       -0.003871272 0.001558673 -9.172691e-05 -0.00013034239
000330 28 10 1b b8 d8 12 c1 b9 00 00 00 00 00 00 00 00
       -3.6969926e-05 -0.00036825868 0.0 0.0
000340 79 be ef b7 d1 cd 90 b9 91 e5 0a 39 95 a6 0a 39
       -2.8579716e-05 -0.00027619165 0.00013246226 0.00013222762
000350 37 9f 65 bb a6 f6 6e 39 98 81 cf 38 12 11 12 39
       -0.0035037526 0.00022789332 9.894668e-05 0.00013930004
000360 38 8f c6 b7 f0 ce 72 b9 d6 1a ac b7 7f 7a 4a b9
       -2.367013e-05 -0.00023156009 -2.0516494e-05 -0.00019309855
000370 50 a6 6b b8 c9 aa 13 ba 05 00 00 80 05 00 00 80
       -5.6183257e-05 -0.0005633054 -7e-45 -7e-45
000380 0d 72 80 3b 5b c8 20 3b e3 e3 a7 b8 48 7c 57 b9
       0.003919846 0.0024533484 -8.005628e-05 -0.00020550296
000390 00 00 00 00 00 00 00 00 05 00 00 00 05 00 00 00
       0.0 0.0 7e-45 7e-45
0003a0 08 18 16 3b 00 fc 44 bb 34 84 3b b8 72 f4 e8 b9
       0.0022902507 -0.003005743 -4.4707398e-05 -0.00044432614
0003b0 40 1f 3d b8 04 4b ed b9 8a 28 2e 3b 4d 78 36 ba
       -4.5090215e-05 -0.00045260054 0.0026574456 -0.0006960675
0003c0 00 00 00 00 00 00 00 00 46 04 f7 38 af 99 f6 38
       0.0 0.0 0.00011778674 0.0001175882
0003d0 04 00 00 80 04 00 00 80 42 07 d6 bb 3c 11 44 3b
       -6e-45 -6e-45 -0.006531627 0.00299175
0003e0 03 00 00 00 03 00 00 80 87 5b 1f 3b b6 21 51 bb
       4e-45 -4e-45 0.002431603 -0.0031910962
0003f0 4e 20 2a b8 15 04 d7 b9 f6 7f 96 bb 92 a8 9c 39
       -4.0561245e-05 -0.00041011037 -0.004592891 0.00029880233

sqr_avg f4 [200, 2]
000000 85 42 f9 39 b0 da ca 39 e8 22 20 3a c4 3d 0e 3a
       0.00047542542 0.00038691377 0.0006108717 0.0005426074
000010 00 00 00 00 00 00 00 00 a1 66 b7 02 17 24 96 02
       0.0 0.0 2.694834e-37 2.2061234e-37
000020 2e 17 00 00 fd 07 00 00 70 a6 10 38 2a e1 f1 37
       8.315e-42 2.866e-42 3.4487282e-05 2.8834289e-05
000030 28 73 b7 35 a6 a2 b6 35 60 35 e2 06 60 35 e2 06
       1.3668077e-06 1.3607394e-06 8.509018e-35 8.509018e-35
000040 00 02 9e 38 75 1e 84 38 7b 42 c2 37 33 77 a2 37
       7.5343996e-05 6.2999236e-05 2.315756e-05 1.9367411e-05
000050 00 00 00 00 00 00 00 00 48 87 a6 38 f5 3e 8b 38
       0.0 0.0 7.940695e-05 6.639763e-05
000060 b4 cc 98 39 70 3c 7d 39 d7 09 00 00 26 0f 00 00
       0.00029144215 0.00024150475 3.53e-42 5.434e-42
000070 48 d7 1c 3a d7 89 2a 3a 32 00 00 00 32 00 00 00
       0.0005983007 0.0006505525 7e-44 7e-44
000080 96 4f ca 35 30 67 c9 35 00 00 00 00 00 00 00 00
       1.5073335e-06 1.5005699e-06 0.0 0.0
000090 39 bb e7 37 93 bf c1 37 13 4e 94 37 7d 76 77 37
       2.7624528e-05 2.3096602e-05 1.7679331e-05 1.4749935e-05
0000a0 89 b3 88 38 9a 9c 64 38 00 00 00 00 00 00 00 00
       6.5184264e-05 5.4505283e-05 0.0 0.0
0000b0 74 5c 6e 38 2f 4b 47 38 ad 03 3b 38 f1 61 1c 38
       5.6829726e-05 4.7515317e-05 4.4587698e-05 3.7284513e-05
0000c0 90 16 9d 39 9c 2e 9d 39 ec 00 00 00 d3 02 00 00
       0.00029962184 0.000299801 3.31e-43 1.013e-42
0000d0 80 b4 8a 24 b5 fd 9d 24 36 b8 e6 09 58 ee 12 0a
       6.015374e-17 6.851769e-17 5.5543717e-33 7.074472e-33
0000e0 b1 75 46 3a e0 eb 17 3a 00 00 00 00 00 00 00 00
       0.0007570638 0.0005795341 0.0 0.0
0000f0 6b 16 d3 39 37 ea ae 39 d6 84 09 34 4f 60 e6 33
       0.0004026176 0.0003336237 1.2807445e-07 1.0727728e-07
000100 00 00 00 00 00 00 00 00 d5 e9 ee 37 4b bf c7 37
       0.0 0.0 2.8480697e-05 2.3811726e-05
000110 c8 2e ad 37 3b d5 90 37 00 00 00 00 00 00 00 00
       2.0644991e-05 1.726543e-05 0.0 0.0
000120 00 00 00 00 00 00 00 00 11 80 91 3a 7f e2 31 3a
       0.0 0.0 0.0011100789 0.00067857647
000130 5a a5 65 38 f4 44 36 38 8d e3 2b 3a dc 82 cf 39
       5.475185e-05 4.34564e-05 0.000655704 0.00039579615
000140 86 f3 67 05 9f 0b 7c 05 a0 c9 1f 39 7a 6a 04 39
       1.0906296e-35 1.18511175e-35 0.00015238533 0.00012628167
000150 00 00 00 00 00 00 00 00 9c 8c 0b 38 c6 66 e9 37
       0.0 0.0 3.3271135e-05 2.7823622e-05
000160 37 06 00 00 bb 17 00 00 00 00 00 00 00 00 00 00
       2.23e-42 8.513e-42 0.0 0.0
000170 8f 66 00 00 8f 66 00 00 1f 46 10 38 a3 52 f1 37
       3.6791e-41 3.6791e-41 3.439758e-05 2.876792e-05
000180 00 00 00 00 00 00 00 00 00 00 00 00 00 00 00 00
       0.0 0.0 0.0 0.0
000190 f3 c8 d9 37 64 f0 b5 37 5f 55 a9 36 7a a5 8d 36
       2.596199e-05 2.1688822e-05 5.046531e-06 4.2213915e-06
0001a0 87 30 87 38 b8 12 62 38 51 54 c1 35 38 d9 bd 35
       6.4463406e-05 5.3900032e-05 1.440416e-06 1.4144816e-06
0001b0 f7 7a 54 0f e4 42 34 0f 33 68 43 3a 63 99 ef 39
       1.0476089e-29 8.887568e-30 0.00074541866 0.00045699914
0001c0 2e ea 1e 38 a8 e2 04 38 db 75 09 38 95 a8 e5 37
       3.7888232e-05 3.1682343e-05 3.2773107e-05 2.737743e-05
0001d0 8b 03 1a 06 f7 4e 08 06 18 2c 00 00 cd 79 00 00
       2.8966784e-35 2.563677e-35 1.5818e-41 4.3694e-41
0001e0 ce dd 10 3a 68 a2 66 39 00 00 00 00 00 00 00 00
       0.00055262155 0.0002199501 0.0 0.0
0001f0 0c dc ff 03 0e 5e b6 03 f4 d6 37 38 54 bb 19 38
       1.5038073e-36 1.07185925e-36 4.383079e-05 3.6652506e-05
000200 00 00 00 00 00 00 00 00 00 00 00 00 00 00 00 00
       0.0 0.0 0.0 0.0
000210 64 58 ea 37 fd ea b4 37 74 28 54 3a 4a b7 aa 3a
       2.7936134e-05 2.1567097e-05 0.0008093186 0.0013024595
000220 00 00 00 00 00 00 00 00 fa bd 21 38 d3 3a 07 38
       0.0 0.0 3.856232e-05 3.2241293e-05
000230 00 00 00 00 00 00 00 00 00 00 00 00 00 00 00 00
       0.0 0.0 0.0 0.0
000240 00 00 00 00 00 00 00 00 e3 ca fc 38 80 5b 0a 39
       0.0 0.0 0.00012054087 0.00013194792
000250 b0 94 19 0e bc 48 1e 0e c1 0d 66 39 30 2f 68 39
       1.8930296e-30 1.9510024e-30 0.00021939633 0.00022142823
000260 ea 56 8b 3a 22 11 5f 3b 76 d4 15 3a 58 86 ee 39
       0.0010630761 0.0034037312 0.0005715558 0.0004549499
000270 32 00 00 00 32 00 00 00 00 00 00 00 00 00 00 00
       7e-44 7e-44 0.0 0.0
000280 51 97 6a 38 b7 22 44 38 9c 4c 1f 38 a1 37 05 38
       5.5930872e-05 4.6762372e-05 3.7979902e-05 3.176148e-05
000290 56 06 81 36 40 f8 57 36 d3 19 ba 09 d3 19 ba 09
       3.845237e-06 3.2181997e-06 4.4802156e-33 4.4802156e-33
0002a0 41 a3 dd 02 41 a3 dd 02 0f 7d 0d 3a 00 82 e2 3a
       3.2566735e-37 3.2566735e-37 0.00053973583 0.0017281175
0002b0 e9 fe 20 3b f6 15 d1 3a 91 b7 a7 3b 8e 7e a9 3b
       0.0024566 0.001595198 0.0051183184 0.005172557
0002c0 0a 42 27 38 93 dd 0b 38 7d 87 94 38 d5 dc 8d 38
       3.9877406e-05 3.334654e-05 7.0824266e-05 6.764537e-05
0002d0 00 00 00 00 00 00 00 00 8d f0 22 3a f9 29 83 3a
       0.0 0.0 0.00062156544 0.0010007016
0002e0 f1 80 5b 37 cd a2 37 37 86 aa 8a 37 68 00 5b 37
       1.3083439e-05 1.0945555e-05 1.6530288e-05 1.3053512e-05
0002f0 3c 11 cf 39 91 fc a6 39 00 00 00 00 00 00 00 00
       0.00039494957 0.00031850164 0.0 0.0
000300 00 00 00 00 00 00 00 00 00 00 00 00 00 00 00 00
       0.0 0.0 0.0 0.0
000310 3c 5a e3 39 4b 64 bc 39 5c 06 00 00 5c 06 00 00
       0.00043364044 0.00035932878 2.281e-42 2.281e-42
000320 9a bc 18 3b d0 ac 08 3b 2b 86 c4 35 1f 81 c5 35
       0.0023305775 0.0020854957 1.4642186e-06 1.4715223e-06
000330 39 30 eb 37 ff a1 c4 37 00 00 00 00 00 00 00 00
       2.8036638e-05 2.3440456e-05 0.0 0.0
000340 56 16 84 37 73 ef 5c 37 00 30 eb 35 9c f7 dd 35
       1.5746027e-05 1.3168773e-05 1.7522834e-06 1.6537847e-06
000350 b0 90 23 3a 5b 91 83 3a 14 ec 2d 36 05 fe 43 36
       0.00062395167 0.0010037826 2.5916424e-06 2.9205123e-06
000360 9a 75 38 37 d6 42 1a 37 8c be 00 37 2d 63 d7 36
       1.0994636e-05 9.194677e-06 7.67376e-06 6.419045e-06
000370 eb 95 89 38 55 14 66 38 e7 4c 17 06 e7 4c 17 06
       6.5605935e-05 5.485521e-05 2.8456442e-35 2.8456442e-35
000380 90 2c a8 3a ce b4 b8 3a e0 a1 b5 37 34 dd 8b 37
       0.0012830663 0.001409197 2.165226e-05 1.6673097e-05
000390 00 00 00 00 00 00 00 00 3b c7 e2 09 6f 67 e5 09
       0.0 0.0 5.4594876e-33 5.5227013e-33
0003a0 86 db 6f 3a 93 13 13 3a 4f b4 2a 38 93 c0 0e 38
       0.0009149838 0.0005610522 4.0699084e-05 3.4034787e-05
0003b0 c5 94 31 38 18 78 14 38 92 a7 30 3a e0 60 12 3a
       4.233864e-05 3.5397796e-05 0.0006738837 0.00055838935
0003c0 00 00 00 00 00 00 00 00 0d 0a bc 35 6f f5 b2 35
       0.0 0.0 1.4010017e-06 1.3333464e-06
0003d0 7f 3e 00 00 f8 35 00 00 22 59 35 3b a8 59 ea 3a
       2.242e-41 1.936e-41 0.0027671535 0.0017879503
0003e0 10 36 00 00 09 9c 00 00 76 2c 87 3a a7 c5 25 3a
       1.9394e-41 5.5975e-41 0.0010312933 0.0006323703
0003f0 f4 5b 11 38 32 0e f3 37 7c 87 8c 3a 38 1a e2 3a
       3.4656332e-05 2.8974468e-05 0.001072153 0.0017250245

grad_avg f4 [200]
000000 15 2f c9 bb 73 c0 4d 3b 00 00 00 00 04 00 00 00
       -0.006139646 0.0031395226 0.0 6e-45
000010 03 00 00 00 06 49 1c bb 2b 92 fc b8 05 00 00 00
       4e-45 -0.0023847236 -0.00012043522 7e-45
000020 b4 a5 67 bb f0 ff ff ba 00 00 00 00 cc bb 6d bb
       -0.003534657 -0.0019531231 0.0 -0.0036275266
000030 e5 be 0d bb 03 00 00 00 e2 e8 bc bc 03 00 00 00
       -0.0021628675 4e-45 -0.023060266 4e-45
000040 ca 9d 04 b9 00 00 00 00 d4 b3 0b bb d1 b3 df ba
       -0.00012647282 0.0 -0.0021316903 -0.0017067139
000050 64 3f 57 bb 00 00 00 00 92 ee 48 bb f8 e5 31 bb
       -0.003284418 0.0 -0.0030659777 -0.0027145129
000060 2b 81 d4 bb 03 00 00 00 06 f4 39 06 05 00 00 00
       -0.0064851246 4e-45 3.4973913e-35 7e-45
000070 d9 aa 46 bc 00 00 00 00 f4 b0 26 bb 83 83 09 b9
       -0.012125694 0.0 -0.0025435062 -0.0001311433
000080 00 00 00 00 35 ee 0d bb 6a 2f f1 ba 00 00 00 00
       0.0 -0.0021656875 -0.0018400971 0.0
000090 00 00 00 00 3e c4 4d bc ff 78 43 bb 80 03 20 bc
       0.0 -0.012558995 -0.0029826758 -0.009766459
0000a0 04 00 00 00 1a b6 cc ba 00 00 00 00 84 80 19 bb
       6e-45 -0.0015618235 0.0 -0.0023422549
0000b0 03 00 00 00 00 00 00 00 04 00 00 00 66 17 1c bb
       4e-45 0.0 6e-45 -0.0023817657
0000c0 00 00 00 00 00 00 00 00 0e c4 07 bb 40 02 6c ba
       0.0 0.0 -0.0020716223 -0.0009003021
0000d0 03 0d 56 bb f0 f6 2e b9 05 00 00 00 e4 d4 24 bc
       -0.0032661564 -0.00016685924 7e-45 -0.010060523
0000e0 bb cd 23 bb 27 8c 18 bb 04 00 00 00 03 00 00 00
       -0.002499445 -0.0023276897 6e-45 4e-45
0000f0 90 84 b5 ba 00 00 00 00 04 00 00 00 02 5e 30 bb
       -0.0013848711 0.0 6e-45 -0.0026911502
000100 00 00 00 00 00 00 00 00 68 93 0d bb 61 a6 46 bc
       0.0 0.0 -0.0021602754 -0.012124629
000110 00 00 00 00 17 47 25 bb 00 00 00 00 00 00 00 00
       0.0 -0.0025219375 0.0 0.0
000120 00 00 00 00 3c 2e 83 bb 06 00 00 00 ea 7e aa bb
       0.0 -0.0040033143 8e-45 -0.0052031176
000130 67 10 0e bb 08 cf ee bb 03 00 00 00 00 00 00 00
       -0.0021677257 -0.0072878636 4e-45 0.0
000140 8e 74 47 bb ce 0d 24 bb 9e 9d 4d ba 06 00 00 00
       -0.0030434462 -0.0025032642 -0.0007843616 8e-45
000150 05 00 00 00 79 66 ca ba a1 51 6b 3c bb e6 ec bb
       7e-45 -0.0015441916 0.014362724 -0.0072296537
000160 b6 16 28 bb 3f a6 6a bb 00 00 00 00 4e eb 2d bc
       -0.0025648302 -0.0035804657 0.0 -0.010615183
000170 f6 a9 bf ba ad a1 da ba a4 19 b2 bb 00 00 00 00
       -0.0014622796 -0.0016680263 -0.0054351855 0.0
000180 00 00 00 00 00 00 00 00 6c 03 2d bb 03 00 00 00
       0.0 0.0 -0.0026399745 4e-45
000190 d1 a9 ba 3b fe 20 0e 39 58 c9 0c bb 00 00 00 00
       0.005696513 0.00013554466 -0.0021482315 0.0
0001a0 79 94 d2 ba dd bc 09 b9 df 31 2e bc 82 72 6a 39
       -0.0016065977 -0.00013135695 -0.010632007 0.00022358636
0001b0 d2 5a af ba e2 52 92 ba cc fd 57 bb 05 00 00 00
       -0.0013378507 -0.0011163617 -0.0032957671 7e-45
0001c0 63 c6 92 3c 25 76 04 bb 00 00 00 00 05 00 00 00
       0.017916864 -0.0020212021 0.0 7e-45
0001d0 96 a2 36 bc d8 dd 29 bb e0 40 2d bb ca cd 57 bb
       -0.011147162 -0.0025919583 -0.0026436374 -0.0032929056
0001e0 00 00 00 00 0f f4 f4 b8 04 00 00 00 02 13 67 3c
       0.0 -0.00011680286 6e-45 0.014103653
0001f0 03 00 00 00 e3 e6 41 bc 5b 99 1c bb 3b a1 64 bc
       4e-45 -0.011834833 -0.0023895118 -0.013954456
000200 08 00 00 80 04 00 00 00 c1 ff 70 ba c3 07 f5 bb
       -1.1e-44 6e-45 -0.0009193384 -0.007477732
000210 7b 92 0f 3c ae 74 07 3c d8 cc 35 bb fd 71 56 bc
       0.008762951 0.008267565 -0.0027740505 -0.0130887
000220 26 26 7a bc aa 62 05 bb 00 00 00 00 04 72 97 bb
       -0.015267884 -0.0020352998 0.0 -0.004621746
000230 05 00 00 00 e8 33 ee 37 dc 2d 67 ba d3 b5 ef ba
       7e-45 2.8395982e-05 -0.0008818784 -0.0018288441
000240 85 9c 02 bb 03 00 00 00 04 00 00 00 06 00 00 00
       -0.0019929719 4e-45 6e-45 8e-45
000250 15 31 ca ba 73 3c 21 bb 18 17 65 bb d9 be 9f b9
       -0.0015426005 -0.002460268 -0.0034956392 -0.00030469036
000260 3d 3e b5 ba 04 00 00 00 66 53 5a 3c 00 00 00 00
       -0.0013827753 6e-45 0.013325548 0.0
000270 c6 2f 2c 3c 00 00 00 00 00 00 00 00 73 48 6e ba
       0.010509437 0.0 0.0 -0.0009089775
000280 03 00 00 00 af 5f 29 bc 1a 77 48 bb 00 00 00 00
       4e-45 -0.010337754 -0.0030588568 0.0
000290 04 00 00 00 29 e2 1a bb 00 00 00 00 78 0b 17 bb
       6e-45 -0.0023633337 0.0 -0.0023047607
0002a0 09 00 00 00 00 00 00 00 83 31 f9 3c 03 00 00 00
       1.3e-44 0.0 0.030419117 4e-45
0002b0 04 00 00 00 03 00 00 00 05 00 00 00 08 d9 43 bb
       6e-45 4e-45 7e-45 -0.0029884
0002c0 30 3e a5 ba c3 96 ca 3c 00 00 00 00 fe 0b 0a bc
       -0.0012607034 0.024730092 0.0 -0.008425711
0002d0 ff ec 55 b9 44 d0 39 bb 03 00 00 00 03 00 00 00
       -0.00020401551 -0.0028352896 4e-45 4e-45
0002e0 7b b8 2a bb 4d 70 36 3d 00 00 00 00 c3 85 2f bc
       -0.00260499 0.044540692 0.0 -0.010713044
0002f0 b2 16 8f ba 04 00 00 00 3d 13 aa bb d3 64 7a 3c
       -0.0010916798 6e-45 -0.0051902817 0.015282827
000300 52 77 57 bb 2b 2b 21 bb 95 df 5c bb 59 c1 d4 3b
       -0.0032877517 -0.002459238 -0.0033702601 0.0064927754
000310 23 8e 19 bb 00 00 00 00 05 00 00 00 00 00 00 00
       -0.0023430667 0.0 7e-45 0.0
