trees/save/tree/4bits/split_75.0_0.1_5_50/models/model.pth (torch, 40342 bytes, 12 tensors)

embedding_layers.weight f4 [494, 4]
0	0x3b7c5b97	0.003850674
1	0xbc2f09ab	-0.010683457
2	0x3c48d30f	0.012257352
3	0xbbd9a5f6	-0.0066420985
4	0xbbe788c7	-0.0070658657
5	0xbbe78474	-0.00706535
6	0x3c4c3073	0.012462723
7	0xba1be7e6	-0.00059473363
8	0xbb446ca7	-0.0029971988
9	0xbc01dba3	-0.007925901
10	0x3c1383b7	0.009003571
11	0x3b2b4cd1	0.0026138315
12	0x3a368ecd	0.0006964028
13	0xba687ca7	-0.00088686723
14	0x3c1e6fcd	0.00967021
15	0x3a542d8d	0.0008093946
16	0xb9c9d2fb	-0.000384949
17	0x3add7e68	0.0016898634
18	0xbb843d80	-0.0040356517
19	0xbbb80c1d	-0.0056166784
20	0x3b26a650	0.002542872
21	0x3b2830b4	0.0025663795
22	0xbc0ecab3	-0.008715319
23	0x3c328c86	0.010897761
24	0xbc06237c	-0.008187171
25	0x3bf7c2b6	0.007561053
26	0x3c3b98a4	0.011449967
27	0xbc1a0b14	-0.009402055
28	0x3c4f4a19	0.012651944
29	0xbc0811c4	-0.008305017
30	0xbba56113	-0.0050469725
31	0xbba0cfb1	-0.0049075712
32	0xb9904b75	-0.0002752204
33	0x3be2d4c2	0.0069223354
34	0x3b809c48	0.00392488
35	0xbc30e6f7	-0.010797254
36	0xbb937de5	-0.004501092
37	0xbc25f589	-0.010129341
38	0xbbd7e160	-0.006588146
39	0xbc0e2959	-0.00867685
40	0xbc01e3f2	-0.007927882
41	0x3aea75c6	0.0017887882
42	0x3c6ab3a3	0.014325055
43	0xbaececac	-0.0018075905
44	0x3c4a25c7	0.012338108
45	0xbbd6e327	-0.0065578404
46	0x3c129aa4	0.008948002
47	0xbbb6a5c9	-0.0055739623
48	0x3ae6d144	0.0017609973
49	0xbc1e9cb2	-0.009680914
50	0xbc7a11d3	-0.015263039
51	0xbb9c3e74	-0.004768187
52	0xbbc77233	-0.0060866117
53	0x3b21c30e	0.0024682912
54	0x3b842ca2	0.004033641
55	0x3a85c008	0.0010204324
56	0xbc87bc8f	-0.016569404
57	0xbc0c405b	-0.008560265
58	0xbad9771b	-0.0016591282
59	0xbb4fc2a1	-0.0031701701
60	0xbc0b5902	-0.008505108
61	0xbaf34d12	-0.0018562397
62	0x3c500262	0.012695881
63	0x3b29f574	0.0025933655
64	0x3bfb3e0a	0.0076673077
65	0xba934ee3	-0.001123872
66	0xbbdf0897	-0.006806444
67	0x3b99db39	0.004695323
68	0xbc0d8eb7	-0.008639983
69	0x3c2a2af1	0.010386215
70	0x3c813f38	0.015777215
71	0x3b999ebb	0.0046881116
72	0x3aab41d1	0.001306588
73	0xba84795f	-0.0010106972
74	0xbbb4d010	-0.005517967
75	0x3b1f14c0	0.0024273843
76	0xbbb9d535	-0.005671168
77	0xbb143896	-0.0022616736
78	0x3c11d461	0.008900733
79	0x3b94a102	0.004535795
80	0x3c1d2015	0.0095901685
81	0x3b8887ad	0.0041665644
82	0xbc15acd3	-0.009135443
83	0x3b3fe2a8	0.0029279385
84	0xbad6f4a2	-0.001639981
85	0xbbc6b2df	-0.0060638036
86	0x3b1a6ca2	0.0023563285
87	0x3b029c68	0.0019929651
88	0x3b67e422	0.003538378
89	0x3c6a71b3	0.014309335
90	0x3c8b6388	0.017015234
91	0x3bad02db	0.0052798814
92	0xb95b726c	-0.00020928093
93	0x3c3eb885	0.011640673
94	0xbbf51a69	-0.007479955
95	0xbc1a8684	-0.009431485
96	0xbc4ca3c7	-0.012490219
97	0x3c30ceae	0.010791464
98	0x3b4743ca	0.0030405396
99	0xbb8a2720	-0.00421609
100	0xbbd78b4e	-0.0065778857
101	0x3bad5e68	0.005290795
102	0xbb02dae8	-0.0019966904
103	0xbb6942d9	-0.0035592823
104	0x3b84b1af	0.004049502
105	0x3c63ac2a	0.013896028
106	0xbab8d66c	-0.0014101989
107	0x3bab69d4	0.0052311216
108	0x3baeeaa2	0.005338029
109	0xbba8959f	-0.0051447893
110	0x3a4f603f	0.0007910765
111	0x3c0ec5c1	0.00871414
112	0x3be74b29	0.0070585203
113	0x3c0e3fe2	0.008682223
114	0x3b32051c	0.002716369
115	0xba696aa4	-0.00089041353
116	0x3c6ac146	0.014328307
117	0xbbf895a5	-0.0075861984
118	0xbc1b590e	-0.0094816815
119	0x3c4f598c	0.012655627
120	0xbbcc61de	-0.0062372526
121	0x3b92a59a	0.0044753077
122	0x3ae2a5f9	0.0017291895
123	0xbb0ad648	-0.002118485
124	0xbaf2fcaa	-0.0018538435
125	0xb9893d9a	-0.00026176573
126	0x3c2822df	0.01026222
127	0xbc3521fe	-0.011055468
128	0x3aeedb49	0.0018223311
129	0x3b972fc9	0.0046138507
130	0xbc576714	-0.013147134
131	0x3b5f9e76	0.003412155
132	0x3c0f998c	0.008764636
133	0xbbf52540	-0.007481247
134	0xbb9ba99c	-0.0047504436
135	0xbb52417e	-0.0032082493
136	0xbbeafedb	-0.0071714944
137	0x3ae12ad9	0.0017178907
138	0x3b32a0f4	0.002725658
139	0xbbd1ea2e	-0.00640609
140	0xbc819026	-0.015815806
141	0xbbe13c39	-0.006873634
142	0x3b89972e	0.00419893
143	0x3c03aa3c	0.0080361925
144	0x3c3f8624	0.011689696
145	0xbbdc463a	-0.006722239
146	0x3ac17790	0.0014760364
147	0x3bcdf3c8	0.0062851645
148	0x3afa5be8	0.0019100877
149	0x3bb907f1	0.0056466986
150	0x3c108d0f	0.0088226935
151	0x3ac3bafb	0.0014933044
152	0xbc398755	-0.01132377
153	0x3be4cbde	0.0069823107
154	0xbc407400	-0.011746407
155	0xbc3c3631	-0.01148753
156	0xbc3b158d	-0.011418712
157	0xbbaa942b	-0.0052056513
158	0xbbc1bbac	-0.005912265
159	0x3b786fba	0.003790839
160	0x3b55afdb	0.0032606039
161	0x3c100668	0.00879059
162	0x3b814a1a	0.003945601
163	0xba60c5f1	-0.00085744174
164	0x3c7dac64	0.015482996
165	0x3c1ce338	0.009575658
166	0xbb323565	-0.002719247
167	0x3bb7c40e	0.0056080883
168	0xbb158029	-0.0022811985
169	0x3c0108ad	0.007875604
170	0xbbb6eab0	-0.005582176
171	0xbbc707d5	-0.0060739317
172	0x3c6e5164	0.014545772
173	0xbb5366d6	-0.003225734
174	0x39ff227e	0.0004866309
175	0xbc1e52dc	-0.00966331
176	0x3b19485e	0.0023389081
177	0xbab9acb0	-0.0014165845
178	0x3c7f0721	0.0155656645
179	0xbc094258	-0.008377634
180	0xbbc4527d	-0.0059912787
181	0xba2ab785	-0.0006512332
182	0x3c2cfb70	0.010557994
183	0x3c689cf2	0.014197575
184	0xbc110f18	-0.008853696
185	0xbb5e9ffa	-0.0033969865
186	0xbb9137bd	-0.0044316933
187	0xbb8ca96e	-0.0042926585
188	0x3b009583	0.0019620366
189	0x3c8a7b32	0.016904447
190	0xbc032c2a	-0.008006135
191	0xbb9a0532	-0.0047003264
192	0x3b0cf0af	0.0021505763
193	0x3c1d5225	0.009602104
194	0xbb814679	-0.0039451686
195	0x3c42ce2c	0.0118899755
196	0xba808b2a	-0.0009807099
197	0x3bfbae77	0.00768071
198	0xba946c95	-0.0011323864
199	0x3c5a8919	0.013338351
200	0x3baabf32	0.0052107805
201	0xbad26560	-0.0016051941
202	0xbb0f06b0	-0.0021824054
203	0x3c0e56f3	0.0086877225
204	0x3c126db1	0.008937285
205	0xbb35890d	-0.0027700097
206	0xbb8f32ac	-0.004370054
207	0xba7422a7	-0.0009313025
208	0x3b734e5e	0.0037125568
209	0x38c9100f	9.587418e-05
210	0xba98412d	-0.0011616104
211	0xbbe30bec	-0.0069289114
212	0xbb83115b	-0.0039998717
213	0xbbd7cf04	-0.0065859575
214	0x3b4aebcc	0.00309633
215	0x3c16416b	0.00917087
216	0xbc183f47	-0.00929243
217	0xbc269017	-0.01016619
218	0xbc39cfc8	-0.011341043
219	0xbaa33a38	-0.0012453264
220	0xbbb103a9	-0.0054020477
221	0xbbc9ab86	-0.0061544804
222	0x3b6165c8	0.0034392942
223	0x3b96e031	0.0046043624
224	0xba048c22	-0.0005056282
225	0x3bb64bb2	0.005563223
226	0x3bc8c1a3	0.006126599
227	0xbbcd76b5	-0.0062702545
228	0x3b383ead	0.002811353
229	0xbae54262	-0.0017491097
230	0xbb79f4e1	-0.0038140344
231	0x3ac49381	0.0014997573
232	0xbb72ba40	-0.0037037283
233	0xbbb0862a	-0.0053870874
234	0x3c1dd3fc	0.009633061
235	0xbbd08401	-0.0063633923
236	0x3b236909	0.0024934432
237	0xb9ebe8cd	-0.00044996143
238	0xbc495b51	-0.012289838
239	0xbc0621e7	-0.008186794
240	0xbba6dbcc	-0.00509212
241	0xbb02a681	-0.001993567
242	0x39e3d3dc	0.00043454661
243	0xbb0c9876	-0.0021453178
244	0x3bc095ef	0.0058772485
245	0x3b9fe078	0.0048790537
246	0x3b9a5224	0.004709499
247	0xbc1c3729	-0.009534636
248	0x3a83dc2d	0.0010060124
249	0x3bd128a9	0.006383021
250	0xbb001a0c	-0.0019546775
251	0x3bc33b8c	0.0059580263
252	0x3bfdbe77	0.0077436524
253	0x3bc224d4	0.0059248004
254	0xbaefbe37	-0.0018290941
255	0xbc188424	-0.0093088485

layers.0.weight f4 [100, 8]
0	0xbce65d7e	-0.028120752
1	0xb92b038d	-0.00016309154
2	0x3c49b83f	0.012311994
3	0xbd9125ff	-0.07087325
4	0xbcd32dac	-0.025778614
5	0x3d61ff08	0.055174857
6	0xbd5c2437	-0.053745475
7	0x3d3c4e28	0.045972973
8	0xbe62cfff	-0.22149657
9	0xbd1589e8	-0.03650847
10	0x3df3bfed	0.11901841
11	0xbee3975b	-0.44451413
12	0x3e577b4a	0.21043125
13	0x3de842bb	0.11340853
14	0xbe478395	-0.19483788
15	0xbeb163d2	-0.3464647
16	0xbe7d7971	-0.24753357
17	0xbe55a23f	-0.20862673
18	0xbef2b49e	-0.47403425
19	0xbec4a8cd	-0.38410035
20	0xbe0a7150	-0.13519788
21	0xbdfcb0cc	-0.12338409
22	0x3d87815f	0.066164725
23	0xbc97bbad	-0.018522108
24	0x3d8a41f9	0.067508645
25	0x3dbfdf11	0.093687184
26	0x3d097110	0.03355509
27	0xbc600d47	-0.013675041
28	0xbcd2c33a	-0.025727857
29	0x3dc5fbd4	0.09667173
30	0x3c82a68d	0.015948558
31	0x3abaa895	0.0014240915
32	0xbefede36	-0.49778908
33	0xbe6e7893	-0.23288183
34	0xbe429168	-0.1900078
35	0x3e6fbae7	0.23411141
36	0x3e38d048	0.18048203
37	0x3e696ac6	0.22794637
38	0x3e44f5fa	0.19234458
39	0xbe6cfc93	-0.23143224
40	0xbc4b6f94	-0.012416739
41	0xbb7234f1	-0.0036957825
42	0x3c5b71e3	0.013393852
43	0x3d1c9f58	0.0382379
44	0x3c577a20	0.013151675
45	0xbc3c0d7b	-0.011477823
46	0xbd20ca28	-0.03925529
47	0x3ce28ff5	0.027656535
48	0x3d05e916	0.03269299
49	0xbd285736	-0.041098796
50	0x3bb70eab	0.0055864654
51	0xbc6ed410	-0.014576927
52	0x3dac9c7b	0.08428284
53	0x3ce5d5c6	0.028056037
54	0x3cce6822	0.025196139
55	0xbe0729cc	-0.13199538
56	0xbebca7ac	-0.36846673
57	0x3e594274	0.21216756
58	0xbe061bce	-0.13096544
59	0xbe7478c8	-0.238742
60	0xbdc2cb94	-0.09511486
61	0x3e506966	0.20352706
62	0x3defd0c3	0.1170974
63	0x3e0f2e92	0.13982609
64	0x3e51f209	0.20502485
65	0x3e438990	0.19095445
66	0xbd513f03	-0.051085483
67	0xbedb6a2d	-0.42854443
68	0xbe316296	-0.17322764
69	0x3e201c7f	0.1563587
70	0x3e135e52	0.14391449
71	0xbd51f9b4	-0.051263526
72	0xbe9e7483	-0.30948266
73	0xbd7a771d	-0.06114875
74	0xbeb50c74	-0.35361063
75	0xbec4369e	-0.3832292
76	0xbdafe5dc	-0.08588764
77	0x3b8d72a1	0.0043166433
78	0xbe3879c4	-0.180152
79	0x3d893473	0.06699457
80	0xbda397e3	-0.079879545
81	0xbd17ff93	-0.03710897
82	0xbd35afea	-0.044357218
83	0xb9bfec4e	-0.0003660642
84	0xbd7c43d9	-0.061588142
85	0xbda52782	-0.08064176
86	0x3d69c564	0.057073012
87	0x3c9fa556	0.019488018
88	0x3e91a298	0.28444362
89	0x3eb659ea	0.35615474
90	0xbe97711c	-0.29578483
91	0x3c988cb2	0.018621776
92	0x3ec0c364	0.3764907
93	0x3e7046ed	0.23464556
94	0xbea416d8	-0.32048678
95	0x3c8587ae	0.016300049
96	0xbcab4c29	-0.02091034
97	0x3bcd9c46	0.0062747328
98	0xbc2af549	-0.010434457
99	0x3cc8dc62	0.02451915
100	0xbadfffaf	-0.001708975
101	0x3d1a669b	0.03769551
102	0xbaf31486	-0.0018545545
103	0xbc193a6d	-0.009352309
104	0xbe093767	-0.1340004
105	0x3e0a3c3b	0.13499539
106	0x3dce36ca	0.10069044
107	0xbe3e0f63	-0.18560557
108	0xbe58c924	-0.21170479
109	0x3e25a941	0.16177846
110	0xbdd91394	-0.10599437
111	0xbd71c633	-0.059026908
112	0xbcc97289	-0.024590747
113	0x3eac50a2	0.33655268
114	0xbea04073	-0.3129917
115	0x3e3e21e4	0.18567616
116	0xbecc66db	-0.39922222
117	0x3e05c2ce	0.13062593
118	0x3e7458c5	0.23861988
119	0x3e82220e	0.25416607
120	0xbe89222c	-0.26783884
121	0x3d86f24a	0.06589182
122	0x3de7ee59	0.11324758
123	0x3e797191	0.24359728
124	0x3cbb50b1	0.022865625
125	0x3eaab5a8	0.33341718
126	0xbeaccc10	-0.33749437
127	0x3e408de3	0.18804125
128	0x3e15ff07	0.14648066
129	0x3edbf423	0.429597
130	0x3ec60845	0.38678184
131	0xbe6b5d90	-0.2298491
132	0xbda96e9e	-0.08273052
133	0xbe864a20	-0.26228428
134	0x3ef5f683	0.48039636
135	0x3e9920f5	0.29907957
136	0xbe5fa7dc	-0.21841377
137	0x3dca99c2	0.09892608
138	0x3d09f6dc	0.03368269
139	0xbdb2ef38	-0.087370336
140	0xbe0b6433	-0.13612442
141	0x3e2e9d5c	0.17052215
142	0xbb1855c8	-0.002324449
143	0x3d6571bb	0.056016665
144	0xbdb235d2	-0.08701672
145	0xbd44161e	-0.047872655
146	0xbe1628e5	-0.14664038
147	0x3e0ab47c	0.13545412
148	0x3dcf2be2	0.10115792
149	0x3d520ac6	0.051279806
150	0x3dde39c7	0.10850864
151	0x3e1a2822	0.15054372
152	0x394e8ee5	0.00019698923
153	0x3c9c198d	0.019055152
154	0xbc784768	-0.015153743
155	0xbca8a63b	-0.020587077
156	0x3cc5af01	0.0241313
157	0xbbe75e49	-0.0070608
158	0xbbec1610	-0.0072047785
159	0x3c90eab6	0.017690044
160	0x3b9c4f16	0.00477017
161	0xbbf3cb1d	-0.0074399845
162	0xbccce3b0	-0.025010914
163	0xbc2c6f7c	-0.010524627
164	0x3c504df1	0.012713895
165	0xbc1ed8ba	-0.009695226
166	0xbc570a69	-0.013125041
167	0x3b4bef4c	0.0031117974
168	0x3c237aac	0.009977978
169	0x3c0b2b20	0.0084941685
170	0xbb9c5d03	-0.00477183
171	0xbbfa4f18	-0.0076388232
172	0xbc129f6e	-0.008949144
173	0x3c73c139	0.014877611
174	0x3b387248	0.0028144289
175	0xbb59ac51	-0.003321428
176	0x3d2e7ce4	0.042599574
177	0x3d54efc3	0.051986467
178	0xbe7f8d0f	-0.24956153
179	0x3e7668ae	0.2406337
180	0x3e9126a2	0.28349787
181	0xbe8f7ab9	-0.28023317
182	0xbda010b4	-0.07815686
183	0x3e51e9b8	0.20499313
184	0xbe271cb3	-0.16319542
185	0x3b30757b	0.0026925493
186	0xbe5a4cf5	-0.2131842
187	0x3e37ed65	0.17961653
188	0x3e2c698e	0.16837141
189	0xbb7ef99a	-0.0038906098
190	0x3e3a1c95	0.18174966
191	0x3e712f17	0.2355312
192	0x3e369268	0.17829287
193	0x3da85fa0	0.08221364
194	0xbe98fa52	-0.2987848
195	0xbd87339f	-0.06601643
196	0x3e9a964b	0.3019279
197	0xbda1ccfb	-0.07900425
198	0x3ea7821f	0.32716462
199	0x3e4aa9a9	0.19791283
200	0xbd83fd0b	-0.064447485
201	0x3d41c8ea	0.047310747
202	0xbd71fdcb	-0.059079926
203	0xbdae35a0	-0.08506322
204	0x3d434a86	0.047678493
205	0x3d1b523f	0.037920233
206	0x3cfb6a2a	0.030690271
207	0x3bccd49e	0.006250932
208	0xbc72caf8	-0.014818899
209	0xbd93c764	-0.07215765
210	0x3c3d9148	0.011570282
211	0x3db34888	0.087540686
212	0xbdc3115a	-0.09524794
213	0xbcfc92e3	-0.03083176
214	0x3d7ad698	0.06123981
215	0xbda3cc3d	-0.0799794
216	0x3bf85b4c	0.007579243
217	0xbdb6e0e1	-0.08929611
218	0x3ea83427	0.3285229
219	0xbea7977f	-0.3273277
220	0xbc90816e	-0.017639842
221	0x3db57f42	0.08862163
222	0x3eac9182	0.33704764
223	0x3ea7384b	0.32660136
224	0xbc8cf04a	-0.017204423
225	0x3d591df6	0.05300709
226	0x3c555514	0.0130207725
227	0xbc82a9e7	-0.015950156
228	0xbd0a2c82	-0.033733852
229	0xbd080e68	-0.033216864
230	0x3ca8f005	0.020622263
231	0x3d9a2ba0	0.07527852
232	0xbe1a1c9c	-0.15049976
233	0x3eae2d10	0.34018755
234	0xbe7ec968	-0.24881518
235	0xbe145787	-0.14486514
236	0x3de81a2e	0.113331184
237	0x3ea5c4a0	0.32376575
238	0x3e9af4c3	0.30264863
239	0x3dd050cf	0.10171663
240	0xbcddc9ec	-0.027073823
241	0xbd89cc3d	-0.067284085
242	0x3cb53528	0.022120073
243	0x3de6801c	0.11254904
244	0x3b9991d1	0.004686572
245	0xbd9b27df	-0.07575964
246	0xbdeef75d	-0.116682746
247	0xbcc40aa2	-0.023930851
248	0xbbb559d3	-0.0055343895
249	0x3d1340ff	0.035950657
250	0xbb7688a0	-0.0037618056
251	0x3cb945e3	0.022616332
252	0xbc7cd35d	-0.015431252
253	0x3c14a0a4	0.009071503
254	0xbd39b18a	-0.04533533
255	0xbc3de80f	-0.011590972

layers.0.bias f4 [100]
0	0xbeb5eacf	-0.35530707
1	0x3c588ce6	0.013217187
2	0xbef3e231	-0.47633508
3	0xbeb804cb	-0.35941157
4	0xbe9f3471	-0.31094697
5	0xbe2d2eb5	-0.16912349
6	0xbf01df89	-0.5073171
7	0xbf089f0f	-0.53367704
8	0x3eb8cd98	0.36094356
9	0xbe9059c5	-0.2819349
10	0xbee14b1c	-0.44002616
11	0xbde5d669	-0.11222536
12	0xbe335954	-0.17514545
13	0xbf1d5068	-0.61450815
14	0xbe1c614c	-0.15271491
15	0xbe6d1850	-0.23153806
16	0xbda814bb	-0.08207079
17	0xbedd9909	-0.4328082
18	0xbd2eb2b8	-0.04265091
19	0xbe02d5dd	-0.12776895
20	0xbde03dc3	-0.1094928
21	0xbda47269	-0.080296345
22	0x3e026e7c	0.12737459
23	0xbee665ee	-0.4499964
24	0xbf232323	-0.6372549
25	0xbedfc243	-0.43702897
26	0xbf066e42	-0.5251199
27	0x3abc13db	0.0014349179
28	0xbe94a6a0	-0.29033375
29	0xbd8b4ea3	-0.06802108
30	0xbefa6c4a	-0.48910743
31	0xbe20db1e	-0.15708587
32	0xbe57dede	-0.21081111
33	0x3c4e157b	0.0125783635
34	0xbe437225	-0.19086511
35	0xbe9c1735	-0.30486456
36	0xbe25f134	-0.16205293
37	0xbdb16dbc	-0.08663508
38	0xbea30951	-0.31843045
39	0xbd0ccd9e	-0.03437578
40	0xbeb54324	-0.35402787
41	0xbec0aa98	-0.37630153
42	0xbf074e7d	-0.5285414
43	0x3d6adf33	0.057341766
44	0xbe99fedf	-0.30077264
45	0xbdd9ddaf	-0.10637986
46	0xbdaa23bb	-0.08307596
47	0xbd74180a	-0.059593238
48	0xbe28d80e	-0.16488668
49	0xbf2cbc1d	-0.6747454
50	0xbded1cfc	-0.11577794
51	0xbe9649a9	-0.29353073
52	0xbe7ed31f	-0.24885224
53	0x3d2f00aa	0.042725243
54	0xbee7a60e	-0.45243877
55	0x3ca7ab4a	0.02046742
56	0xbd3c23b4	-0.045932487
57	0xbe5598e0	-0.20859098
58	0xbe61b16d	-0.22040339
59	0x3ca361db	0.019944122
60	0xbcb3694b	-0.021900794
61	0xbe2ea541	-0.17055227
62	0xbf011b4c	-0.50432277
63	0xbf24b9ab	-0.64345807
64	0xbf1e88fb	-0.61927766
65	0xbd7b3ac2	-0.061335333
66	0xbd2c3306	-0.042040847
67	0xbe815eac	-0.2526754
68	0xbe9773bb	-0.29580483
69	0xbeea5cee	-0.45774025
70	0x3de5358d	0.111918546
71	0xbeb92034	-0.36157382
72	0xbd2100ab	-0.039307278
73	0xbd8e89b7	-0.06959861
74	0xbe01df2f	-0.12682794
75	0xbe6ac569	-0.22926868
76	0xbd101ced	-0.035183836
77	0xbe0227b3	-0.12710457
78	0xbf1c3e9e	-0.61033046
79	0xbef07ff6	-0.46972626
80	0xbe74bc12	-0.23899868
81	0xbe3902a1	-0.18067409
82	0xbe1cd636	-0.1531609
83	0xbf187971	-0.59560305
84	0xbeff92a5	-0.49916568
85	0xbeb7f0f8	-0.35926032
86	0xbbe510d8	-0.0069905333
87	0xbc27b9d9	-0.010237181
88	0xbf0e385c	-0.5555475
89	0x3c9a2e04	0.01882077
90	0xbe216aa7	-0.15763341
91	0x3dae1052	0.084992066
92	0x3ec4cf0b	0.3843921
93	0x3d8b689a	0.068070605
94	0xbe724a6f	-0.23661207
95	0xbd0fa43e	-0.035068743
96	0xbf0c1740	-0.54722977
97	0xbdfd15a2	-0.12357642
98	0xbec909cf	-0.39265296
99	0xbdecc9e5	-0.11561946

layers.2.weight f4 [1, 100]
0	0xbbbf3815	-0.005835543
1	0xbdd5a2d3	-0.10431447
2	0xbdfe44f0	-0.124154925
3	0x39da06a5	0.0004158515
4	0x3e44d9b7	0.19223677
5	0xba040dec	-0.0005037475
6	0x3bcd1ef6	0.0062597943
7	0xbe249072	-0.16070727
8	0xbd90b59d	-0.0706589
9	0xbdb5b4aa	-0.088723496
10	0x3b1f9bb2	0.0024354276
11	0xbe1b6236	-0.15174183
12	0xba8cc1db	-0.0010738926
13	0xbe1f4abf	-0.15555857
14	0xbdbeb8dd	-0.093126036
15	0xbd90351b	-0.07041379
16	0xbe2a97d0	-0.16659474
17	0xbcdb751a	-0.026789237
18	0xbc815cf5	-0.015791396
19	0xb76917bb	-1.3893407e-05
20	0xba90138d	-0.0010992155
21	0x3ab9f8b2	0.0014188497
22	0xbd7a4330	-0.06109923
23	0x3dd33c02	0.1031418
24	0x3ea5f31b	0.32412037
25	0xbc345fb3	-0.011009145
26	0x3c51d11f	0.012806206
27	0xbda39880	-0.079880714
28	0xb7ccc7d3	-2.4411745e-05
29	0xbe2c4b13	-0.16825514
30	0x37dd4f7f	2.6382271e-05
31	0xb893105a	-7.012552e-05
32	0xb6c574ad	-5.8846404e-06
33	0xbe36d1e9	-0.17853512
34	0x3b0367cc	0.0020050881
35	0x39478e74	0.00019031187
36	0x3a5ee546	0.00085027923
37	0x393752ba	0.00017483058
38	0x3a82894a	0.0009959128
39	0xbd85c85d	-0.06532357
40	0xbb54438a	-0.003238889
41	0xbe511680	-0.2041874
42	0x3b426c21	0.00296665
43	0xbe4394c5	-0.1909972
44	0xbe286d99	-0.16448058
45	0xbc459ac6	-0.012060827
46	0xbaa30d2b	-0.0012439837
47	0xbdccc7cb	-0.09999045
48	0xbd97d7fe	-0.07414244
49	0x3e5d7107	0.21625148
50	0xbaa18a58	-0.0012324555
51	0xba1bd2f9	-0.0005944218
52	0x3804545b	3.1549815e-05
53	0xbe795ccb	-0.24351804
54	0x3c0485ba	0.0080885235
55	0xbd54e94c	-0.0519803
56	0xbe4b730d	-0.19868107
57	0xbd50bf74	-0.050963834
58	0xbe6ff124	-0.23431832
59	0xbe1d5802	-0.15365604
60	0xbd8a2e82	-0.06747152
61	0xbe4789fa	-0.19486228
62	0xbe0f6a50	-0.14005399
63	0xbea90a01	-0.33015445
64	0xbe7203f5	-0.23634322
65	0xbe39bd30	-0.18138576
66	0xbd9ee925	-0.077593125
67	0xbe1a5d01	-0.1507454
68	0xbb12cfeb	-0.002240176
69	0x3c9714a9	0.018442469
70	0xbe30b1da	-0.17255345
71	0xbdeac5bd	-0.11463497
72	0xbdcf699e	-0.10127567
73	0xbe83968b	-0.25700793
74	0xbe01de3f	-0.12682436
75	0xbe521d78	-0.20519054
76	0xbdac7c14	-0.084221035
77	0xbdd47bc6	-0.103751704
78	0x3e06fb68	0.13181841
79	0xb97659f9	-0.00023493906
80	0xb9eed06e	-0.0004555019
81	0x38032da8	3.1275355e-05
82	0xba8b0d7d	-0.0010608878
83	0x3e5b5071	0.21417405
84	0x3bb1afec	0.005422583
85	0xbdd5e9b0	-0.10444963
86	0xbe38f5ca	-0.18062511
87	0xbb9547b5	-0.0045556673
88	0xbe4fd356	-0.20295462
89	0xbd0ba061	-0.034088496
90	0xbe2f1fb8	-0.17101943
91	0xbe3c0f6e	-0.18365261
92	0xbd867a0d	-0.06566248
93	0xbd489b25	-0.048976082
94	0xbe0723da	-0.1319727
95	0xbd2f3091	-0.042770926
96	0x3c09e4b0	0.00841634
97	0xbd92bd3d	-0.071650006
98	0xbbf40c10	-0.007447727
99	0xbe46ddf7	-0.1942061

grad_avg f4 [494, 4]
0	0x00000000	0.0
1	0x00000000	0.0
2	0x00000000	0.0
3	0x00000000	0.0
4	0x00000000	0.0
5	0x00000000	0.0
6	0x00000000	0.0
7	0x00000000	0.0
8	0x00000000	0.0
9	0x00000000	0.0
10	0x00000000	0.0
11	0x00000000	0.0
12	0x00000000	0.0
13	0x00000000	0.0
14	0x00000000	0.0
15	0x00000000	0.0
16	0x00000000	0.0
17	0x00000000	0.0
18	0x00000000	0.0
19	0x00000000	0.0
20	0x00000000	0.0
21	0x00000000	0.0
22	0x00000000	0.0
23	0x00000000	0.0
24	0x00000000	0.0
25	0x00000000	0.0
26	0x00000000	0.0
27	0x00000000	0.0
28	0x00000000	0.0
29	0x00000000	0.0
30	0x00000000	0.0
31	0x00000000	0.0
32	0x00000000	0.0
33	0x00000000	0.0
34	0x00000000	0.0
35	0x00000000	0.0
36	0x00000000	0.0
37	0x00000000	0.0
38	0x00000000	0.0
39	0x00000000	0.0
40	0x00000000	0.0
41	0x00000000	0.0
42	0x00000000	0.0
43	0x00000000	0.0
44	0x00000000	0.0
45	0x00000000	0.0
46	0x00000000	0.0
47	0x00000000	0.0
48	0x00000000	0.0
49	0x00000000	0.0
50	0x00000000	0.0
51	0x00000000	0.0
52	0x00000000	0.0
53	0x00000000	0.0
54	0x00000000	0.0
55	0x00000000	0.0
56	0x00000000	0.0
57	0x00000000	0.0
58	0x00000000	0.0
59	0x00000000	0.0
60	0x00000000	0.0
61	0x00000000	0.0
62	0x00000000	0.0
63	0x00000000	0.0
64	0x00000000	0.0
65	0x00000000	0.0
66	0x00000000	0.0
67	0x00000000	0.0
68	0x00000000	0.0
69	0x00000000	0.0
70	0x00000000	0.0
71	0x00000000	0.0
72	0x00000000	0.0
73	0x00000000	0.0
74	0x00000000	0.0
75	0x00000000	0.0
76	0x00000000	0.0
77	0x00000000	0.0
78	0x00000000	0.0
79	0x00000000	0.0
80	0x00000000	0.0
81	0x00000000	0.0
82	0x00000000	0.0
83	0x00000000	0.0
84	0x00000000	0.0
85	0x00000000	0.0
86	0x00000000	0.0
87	0x00000000	0.0
88	0x00000000	0.0
89	0x00000000	0.0
90	0x00000000	0.0
91	0x00000000	0.0
92	0x00000000	0.0
93	0x00000000	0.0
94	0x00000000	0.0
95	0x00000000	0.0
96	0x00000000	0.0
97	0x00000000	0.0
98	0x00000000	0.0
99	0x00000000	0.0
100	0x00000000	0.0
101	0x00000000	0.0
102	0x00000000	0.0
103	0x00000000	0.0
104	0x00000000	0.0
105	0x00000000	0.0
106	0x00000000	0.0
107	0x00000000	0.0
108	0x00000000	0.0
109	0x00000000	0.0
110	0x00000000	0.0
111	0x00000000	0.0
112	0x00000000	0.0
113	0x00000000	0.0
114	0x00000000	0.0
115	0x00000000	0.0
116	0x00000000	0.0
117	0x00000000	0.0
118	0x00000000	0.0
119	0x00000000	0.0
120	0x00000000	0.0
121	0x00000000	0.0
122	0x00000000	0.0
123	0x00000000	0.0
124	0x00000000	0.0
125	0x00000000	0.0
126	0x00000000	0.0
127	0x00000000	0.0
128	0x00000000	0.0
129	0x00000000	0.0
130	0x00000000	0.0
131	0x00000000	0.0
132	0x00000000	0.0
133	0x00000000	0.0
134	0x00000000	0.0
135	0x00000000	0.0
136	0x00000000	0.0
137	0x00000000	0.0
138	0x00000000	0.0
139	0x00000000	0.0
140	0x00000000	0.0
141	0x00000000	0.0
142	0x00000000	0.0
143	0x00000000	0.0
144	0x00000000	0.0
145	0x00000000	0.0
146	0x00000000	0.0
147	0x00000000	0.0
148	0x00000000	0.0
149	0x00000000	0.0
150	0x00000000	0.0
151	0x00000000	0.0
152	0x00000000	0.0
153	0x00000000	0.0
154	0x00000000	0.0
155	0x00000000	0.0
156	0x00000000	0.0
157	0x00000000	0.0
158	0x00000000	0.0
159	0x00000000	0.0
160	0x00000000	0.0
161	0x00000000	0.0
162	0x00000000	0.0
163	0x00000000	0.0
164	0x00000000	0.0
165	0x00000000	0.0
166	0x00000000	0.0
167	0x00000000	0.0
168	0x00000000	0.0
169	0x00000000	0.0
170	0x00000000	0.0
171	0x00000000	0.0
172	0x00000000	0.0
173	0x00000000	0.0
174	0x00000000	0.0
175	0x00000000	0.0
176	0x00000000	0.0
177	0x00000000	0.0
178	0x00000000	0.0
179	0x00000000	0.0
180	0x00000000	0.0
181	0x00000000	0.0
182	0x00000000	0.0
183	0x00000000	0.0
184	0x00000000	0.0
185	0x00000000	0.0
186	0x00000000	0.0
187	0x00000000	0.0
188	0x00000000	0.0
189	0x00000000	0.0
190	0x00000000	0.0
191	0x00000000	0.0
192	0x00000000	0.0
193	0x00000000	0.0
194	0x00000000	0.0
195	0x00000000	0.0
196	0x00000000	0.0
197	0x00000000	0.0
198	0x00000000	0.0
199	0x00000000	0.0
200	0x00000000	0.0
201	0x00000000	0.0
202	0x00000000	0.0
203	0x00000000	0.0
204	0x00000000	0.0
205	0x00000000	0.0
206	0x00000000	0.0
207	0x00000000	0.0
208	0x00000000	0.0
209	0x00000000	0.0
210	0x00000000	0.0
211	0x00000000	0.0
212	0x00000000	0.0
213	0x00000000	0.0
214	0x00000000	0.0
215	0x00000000	0.0
216	0x00000000	0.0
217	0x00000000	0.0
218	0x00000000	0.0
219	0x00000000	0.0
220	0x00000000	0.0
221	0x00000000	0.0
222	0x00000000	0.0
223	0x00000000	0.0
224	0x00000000	0.0
225	0x00000000	0.0
226	0x00000000	0.0
227	0x00000000	0.0
228	0x00000000	0.0
229	0x00000000	0.0
230	0x00000000	0.0
231	0x00000000	0.0
232	0x00000000	0.0
233	0x00000000	0.0
234	0x00000000	0.0
235	0x00000000	0.0
236	0x00000000	0.0
237	0x00000000	0.0
238	0x00000000	0.0
239	0x00000000	0.0
240	0x00000000	0.0
241	0x00000000	0.0
242	0x00000000	0.0
243	0x00000000	0.0
244	0x00000000	0.0
245	0x00000000	0.0
246	0x00000000	0.0
247	0x00000000	0.0
248	0x00000000	0.0
249	0x00000000	0.0
250	0x00000000	0.0
251	0x00000000	0.0
252	0x00000000	0.0
253	0x00000000	0.0
254	0x00000000	0.0
255	0x00000000	0.0

sqr_avg f4 [494, 4]
0	0x00000000	0.0
1	0x00000000	0.0
2	0x00000000	0.0
3	0x00000000	0.0
4	0x00000000	0.0
5	0x00000000	0.0
6	0x00000000	0.0
7	0x00000000	0.0
8	0x00000000	0.0
9	0x00000000	0.0
10	0x00000000	0.0
11	0x00000000	0.0
12	0x00000000	0.0
13	0x00000000	0.0
14	0x00000000	0.0
15	0x00000000	0.0
16	0x00000000	0.0
17	0x00000000	0.0
18	0x00000000	0.0
19	0x00000000	0.0
20	0x00000000	0.0
21	0x00000000	0.0
22	0x00000000	0.0
23	0x00000000	0.0
24	0x00000000	0.0
25	0x00000000	0.0
26	0x00000000	0.0
27	0x00000000	0.0
28	0x00000000	0.0
29	0x00000000	0.0
30	0x00000000	0.0
31	0x00000000	0.0
32	0x00000000	0.0
33	0x00000000	0.0
34	0x00000000	0.0
35	0x00000000	0.0
36	0x00000000	0.0
37	0x00000000	0.0
38	0x00000000	0.0
39	0x00000000	0.0
40	0x00000000	0.0
41	0x00000000	0.0
42	0x00000000	0.0
43	0x00000000	0.0
44	0x00000000	0.0
45	0x00000000	0.0
46	0x00000000	0.0
47	0x00000000	0.0
48	0x00000000	0.0
49	0x00000000	0.0
50	0x00000000	0.0
51	0x00000000	0.0
52	0x00000000	0.0
53	0x00000000	0.0
54	0x00000000	0.0
55	0x00000000	0.0
56	0x00000000	0.0
57	0x00000000	0.0
58	0x00000000	0.0
59	0x00000000	0.0
60	0x00000000	0.0
61	0x00000000	0.0
62	0x00000000	0.0
63	0x00000000	0.0
64	0x00000000	0.0
65	0x00000000	0.0
66	0x00000000	0.0
67	0x00000000	0.0
68	0x00000000	0.0
69	0x00000000	0.0
70	0x00000000	0.0
71	0x00000000	0.0
72	0x00000000	0.0
73	0x00000000	0.0
74	0x00000000	0.0
75	0x00000000	0.0
76	0x00000000	0.0
77	0x00000000	0.0
78	0x00000000	0.0
79	0x00000000	0.0
80	0x00000000	0.0
81	0x00000000	0.0
82	0x00000000	0.0
83	0x00000000	0.0
84	0x00000000	0.0
85	0x00000000	0.0
86	0x00000000	0.0
87	0x00000000	0.0
88	0x00000000	0.0
89	0x00000000	0.0
90	0x00000000	0.0
91	0x00000000	0.0
92	0x00000000	0.0
93	0x00000000	0.0
94	0x00000000	0.0
95	0x00000000	0.0
96	0x00000000	0.0
97	0x00000000	0.0
98	0x00000000	0.0
99	0x00000000	0.0
100	0x00000000	0.0
101	0x00000000	0.0
102	0x00000000	0.0
103	0x00000000	0.0
104	0x00000000	0.0
105	0x00000000	0.0
106	0x00000000	0.0
107	0x00000000	0.0
108	0x00000000	0.0
109	0x00000000	0.0
110	0x00000000	0.0
111	0x00000000	0.0
112	0x00000000	0.0
113	0x00000000	0.0
114	0x00000000	0.0
115	0x00000000	0.0
116	0x00000000	0.0
117	0x00000000	0.0
118	0x00000000	0.0
119	0x00000000	0.0
120	0x00000000	0.0
121	0x00000000	0.0
122	0x00000000	0.0
123	0x00000000	0.0
124	0x00000000	0.0
125	0x00000000	0.0
126	0x00000000	0.0
127	0x00000000	0.0
128	0x00000000	0.0
129	0x00000000	0.0
130	0x00000000	0.0
131	0x00000000	0.0
132	0x00000000	0.0
133	0x00000000	0.0
134	0x00000000	0.0
135	0x00000000	0.0
136	0x00000000	0.0
137	0x00000000	0.0
138	0x00000000	0.0
139	0x00000000	0.0
140	0x00000000	0.0
141	0x00000000	0.0
142	0x00000000	0.0
143	0x00000000	0.0
144	0x00000000	0.0
145	0x00000000	0.0
146	0x00000000	0.0
147	0x00000000	0.0
148	0x00000000	0.0
149	0x00000000	0.0
150	0x00000000	0.0
151	0x00000000	0.0
152	0x00000000	0.0
153	0x00000000	0.0
154	0x00000000	0.0
155	0x00000000	0.0
156	0x00000000	0.0
157	0x00000000	0.0
158	0x00000000	0.0
159	0x00000000	0.0
160	0x00000000	0.0
161	0x00000000	0.0
162	0x00000000	0.0
163	0x00000000	0.0
164	0x00000000	0.0
165	0x00000000	0.0
166	0x00000000	0.0
167	0x00000000	0.0
168	0x00000000	0.0
169	0x00000000	0.0
170	0x00000000	0.0
171	0x00000000	0.0
172	0x00000000	0.0
173	0x00000000	0.0
174	0x00000000	0.0
175	0x00000000	0.0
176	0x00000000	0.0
177	0x00000000	0.0
178	0x00000000	0.0
179	0x00000000	0.0
180	0x00000000	0.0
181	0x00000000	0.0
182	0x00000000	0.0
183	0x00000000	0.0
184	0x00000000	0.0
185	0x00000000	0.0
186	0x00000000	0.0
187	0x00000000	0.0
188	0x00000000	0.0
189	0x00000000	0.0
190	0x00000000	0.0
191	0x00000000	0.0
192	0x00000000	0.0
193	0x00000000	0.0
194	0x00000000	0.0
195	0x00000000	0.0
196	0x00000000	0.0
197	0x00000000	0.0
198	0x00000000	0.0
199	0x00000000	0.0
200	0x00000000	0.0
201	0x00000000	0.0
202	0x00000000	0.0
203	0x00000000	0.0
204	0x00000000	0.0
205	0x00000000	0.0
206	0x00000000	0.0
207	0x00000000	0.0
208	0x00000000	0.0
209	0x00000000	0.0
210	0x00000000	0.0
211	0x00000000	0.0
212	0x00000000	0.0
213	0x00000000	0.0
214	0x00000000	0.0
215	0x00000000	0.0
216	0x00000000	0.0
217	0x00000000	0.0
218	0x00000000	0.0
219	0x00000000	0.0
220	0x00000000	0.0
221	0x00000000	0.0
222	0x00000000	0.0
223	0x00000000	0.0
224	0x00000000	0.0
225	0x00000000	0.0
226	0x00000000	0.0
227	0x00000000	0.0
228	0x00000000	0.0
229	0x00000000	0.0
230	0x00000000	0.0
231	0x00000000	0.0
232	0x00000000	0.0
233	0x00000000	0.0
234	0x00000000	0.0
235	0x00000000	0.0
236	0x00000000	0.0
237	0x00000000	0.0
238	0x00000000	0.0
239	0x00000000	0.0
240	0x00000000	0.0
241	0x00000000	0.0
242	0x00000000	0.0
243	0x00000000	0.0
244	0x00000000	0.0
245	0x00000000	0.0
246	0x00000000	0.0
247	0x00000000	0.0
248	0x00000000	0.0
249	0x00000000	0.0
250	0x00000000	0.0
251	0x00000000	0.0
252	0x00000000	0.0
253	0x00000000	0.0
254	0x00000000	0.0
255	0x00000000	0.0

grad_avg f4 [100, 8]
0	0x00000003	4e-45
1	0x80000003	-4e-45
2	0x80000003	-4e-45
3	0x80000003	-4e-45
4	0x80000003	-4e-45
5	0x00000003	4e-45
6	0x80000003	-4e-45
7	0x00000003	4e-45
8	0xb9a06030	-0.00030589243
9	0xbb022696	-0.0019859425
10	0x3b9c4483	0.0047689094
11	0xbbc4efcc	-0.0060100313
12	0x3b7bf7c6	0.0038447245
13	0xbb4857ed	-0.0030569986
14	0xba389437	-0.00070411287
15	0xb9f51ab2	-0.0004674993
16	0x3b563bbc	0.0032689413
17	0xb9e187fd	-0.00043016663
18	0xbb888381	-0.004166067
19	0xbace5fe1	-0.0015745127
20	0xba40ad2f	-0.0007350025
21	0xbb1d511c	-0.0024004644
22	0x376b634a	1.4030209e-05
23	0xba295636	-0.0006459685
24	0x00000009	1.3e-44
25	0x00000009	1.3e-44
26	0x00000009	1.3e-44
27	0x80000009	-1.3e-44
28	0x80000009	-1.3e-44
29	0x00000009	1.3e-44
30	0x00000009	1.3e-44
31	0x80000009	-1.3e-44
32	0x3bbdfdb7	0.0057980674
33	0x3b889114	0.0041676853
34	0xbb75397c	-0.0037418297
35	0xbacb9274	-0.0015531317
36	0xbabb82d1	-0.0014305954
37	0x3bcafa3a	0.00619438
38	0x3b19c703	0.0023464567
39	0x3b8c0446	0.0042729704
40	0x80000005	-7e-45
41	0x80000005	-7e-45
42	0x00000005	7e-45
43	0x00000005	7e-45
44	0x00000005	7e-45
45	0x00000005	7e-45
46	0x80000005	-7e-45
47	0x00000005	7e-45
48	0x00000004	6e-45
49	0x80000004	-6e-45
50	0x80000004	-6e-45
51	0x00000004	6e-45
52	0x00000004	6e-45
53	0x00000004	6e-45
54	0x00000004	6e-45
55	0x80000004	-6e-45
56	0xbb023a6c	-0.0019871248
57	0x3ac8d155	0.0015321175
58	0x3af7da31	0.0018909631
59	0x39f8eac1	0.0004747715
60	0xbacedcad	-0.0015782319
61	0x3b2ce049	0.0026378802
62	0xbb4b2714	-0.0030998634
63	0x3ac90d9b	0.0015339138
64	0x3a172e8e	0.000576713
65	0xbac82d41	-0.0015272276
66	0x3b166c00	0.0022952557
67	0xbbf297dd	-0.0074033574
68	0x3a8694f4	0.001026778
69	0xbbb91592	-0.0056483233
70	0x39f27a0e	0.00046248775
71	0x3a228fbe	0.0006201229
72	0x3ad0b87b	0.001592412
73	0xb91acd4a	-0.0001476306
74	0xbb116cab	-0.0022190015
75	0xbab8418d	-0.0014057622
76	0xb6d0d947	-6.2241775e-06
77	0x3a473b2d	0.00076000654
78	0xbb28352e	-0.0025666463
79	0x392f4c5d	0.00016717748
80	0x80000003	-4e-45
81	0x80000003	-4e-45
82	0x80000003	-4e-45
83	0x00000003	4e-45
84	0x80000003	-4e-45
85	0x80000003	-4e-45
86	0x00000003	4e-45
87	0x00000003	4e-45
88	0xbc13efab	-0.009029309
89	0x3b6a6a22	0.0035768826
90	0x3b1d7312	0.0024024886
91	0xbb70e479	-0.0036757274
92	0x3b99372c	0.0046757665
93	0xbba01601	-0.0048854356
94	0xbb730032	-0.0037078974
95	0x3b6aaaa0	0.0035807267
96	0x80000003	-4e-45
97	0x00000003	4e-45
98	0x00000003	4e-45
99	0x00000003	4e-45
100	0x80000003	-4e-45
101	0x00000003	4e-45
102	0x00000003	4e-45
103	0x80000003	-4e-45
104	0xbb048928	-0.0020223353
105	0xba517eb8	-0.00079916
106	0x3af74a14	0.0018866681
107	0xbae7b081	-0.0017676504
108	0xba9d3fc0	-0.0011997148
109	0x3a87eca9	0.0010370213
110	0xbac0d608	-0.0014712224
111	0xb91d94f5	-0.00015028178
112	0xba01c660	-0.00049505197
113	0x3b5dde83	0.003385455
114	0xbaa74a9c	-0.0012763324
115	0xbb37248b	-0.0027945365
116	0x3b0920bf	0.002092406
117	0xbb85dd28	-0.004085202
118	0x3b96e23f	0.0046046074
119	0x3b5dfb40	0.003387168
120	0xbb32bd54	-0.0027273493
121	0x3af29e12	0.0018510243
122	0xba014219	-0.0004930809
123	0xbae12c1f	-0.0017179287
124	0x3ab731c9	0.0013976629
125	0x3a8371e6	0.0010028451
126	0x3838471b	4.393524e-05
127	0x3a1cebdb	0.0005986073
128	0xba60144c	-0.00085479463
129	0xbac4a984	-0.0015004133
130	0x3bbd6ede	0.0057810387
131	0xbbf266a1	-0.007397488
132	0x3bf54863	0.007485436
133	0xbc56f074	-0.013118852
134	0x3ba1e181	0.0049402122
135	0xba735fe4	-0.0009284003
136	0xb9ea5656	-0.00044696283
137	0xb86ba215	-5.6179317e-05
138	0x39dbaa38	0.00041897758
139	0xba08df92	-0.0005221303
140	0xb975fbf6	-0.00023458884
141	0x399a50a0	0.0002943324
142	0x38e774e5	0.00011036712
143	0x396be952	0.00022498265
144	0xb9b27b85	-0.00034042835
145	0x3a1b95c1	0.0005935096
146	0x38b5740e	8.6523694e-05
147	0xb8ab7b1e	-8.176848e-05
148	0x39fc4743	0.0004811828
149	0xb80e953a	-3.3994416e-05
150	0xb8fd1dd0	-0.00012069533
151	0x39f80474	0.00047305564
152	0x00000003	4e-45
153	0x00000003	4e-45
154	0x80000003	-4e-45
155	0x80000003	-4e-45
156	0x00000003	4e-45
157	0x80000003	-4e-45
158	0x80000003	-4e-45
159	0x00000003	4e-45
160	0x00000003	4e-45
161	0x80000003	-4e-45
162	0x80000003	-4e-45
163	0x80000003	-4e-45
164	0x00000003	4e-45
165	0x00000003	4e-45
166	0x80000003	-4e-45
167	0x00000003	4e-45
168	0x00000007	1e-44
169	0x00000007	1e-44
170	0x80000007	-1e-44
171	0x80000007	-1e-44
172	0x80000007	-1e-44
173	0x00000007	1e-44
174	0x80000007	-1e-44
175	0x00000007	1e-44
176	0xbab1fa54	-0.0013578632
177	0x3aa98214	0.0012932443
178	0x3ae1fe8c	0.0017241999
179	0xbb0afca1	-0.0021207707
180	0x3b23ae29	0.0024975634
181	0xbaf120a2	-0.0018396566
182	0x38f911d0	0.00011876563
183	0x3aeebffd	0.0018215176
184	0x3b35a95b	0.0027719352
185	0xbaf928de	-0.0019009372
186	0x3a4375e6	0.0007456228
187	0xbb33cc73	-0.0027435094
188	0xbad1d19e	-0.0016007905
189	0x3a02c167	0.00049879256
190	0xbb19b3e2	-0.0023453166
191	0xba9aded8	-0.001181568
192	0x3b155246	0.0022784634
193	0x3b2c2f62	0.002627336
194	0x3bc94753	0.0061425357
195	0x3b991adf	0.0046723927
196	0x3b3c9561	0.002877556
197	0x3c00d884	0.007864121
198	0xbba4cbff	-0.005029201
199	0xbaf2f3f7	-0.0018535842
200	0x80000003	-4e-45
201	0x00000003	4e-45
202	0x80000003	-4e-45
203	0x80000003	-4e-45
204	0x00000003	4e-45
205	0x00000003	4e-45
206	0x00000003	4e-45
207	0x00000003	4e-45
208	0x80000003	-4e-45
209	0x80000003	-4e-45
210	0x00000003	4e-45
211	0x00000003	4e-45
212	0x80000003	-4e-45
213	0x80000003	-4e-45
214	0x00000003	4e-45
215	0x80000003	-4e-45
216	0x3a5e19a5	0.0008472449
217	0xbb179110	-0.0023127235
218	0x3a3ac6fe	0.0007124989
219	0xbb94295d	-0.0045215324
220	0xba202bf7	-0.0006110067
221	0xbb9773e1	-0.004621968
222	0x3ae613f4	0.0017553554
223	0xba7199fe	-0.0009216367
224	0x80000003	-4e-45
225	0x00000003	4e-45
226	0x00000003	4e-45
227	0x80000003	-4e-45
228	0x80000003	-4e-45
229	0x80000003	-4e-45
230	0x00000003	4e-45
231	0x00000003	4e-45
232	0xbb5d5090	-0.0033769943
233	0x3b47dffe	0.00304985
234	0x3a415bb0	0.0007376028
235	0x3a8f78a3	0.0010945987
236	0x3aab4978	0.001306816
237	0xbafa5c1f	-0.001910094
238	0x3a05e7db	0.00051080965
239	0x3c20ddcd	0.009818506
240	0x80000004	-6e-45
241	0x80000004	-6e-45
242	0x00000004	6e-45
243	0x00000004	6e-45
244	0x80000004	-6e-45
245	0x80000004	-6e-45
246	0x80000004	-6e-45
247	0x80000004	-6e-45
248	0x80000005	-7e-45
249	0x00000005	7e-45
250	0x80000005	-7e-45
251	0x00000005	7e-45
252	0x80000005	-7e-45
253	0x00000005	7e-45
254	0x80000005	-7e-45
255	0x80000005	-7e-45

sqr_avg f4 [100, 8]
0	0x133a28e0	2.3496653e-27
1	0x13aeab2d	4.4092568e-27
2	0x13608827	2.8339903e-27
3	0x138eabcc	3.6015244e-27
4	0x13730c4c	3.0676975e-27
5	0x1387593a	3.4166775e-27
6	0x1381370d	3.2618462e-27
7	0x1372809f	3.060811e-27
8	0x3a15b1d8	0.00057104
9	0x3a0fa2c2	0.000547927
10	0x39feaa41	0.00048573504
11	0x3a2536a2	0.00063023914
12	0x3a2ed98d	0.0006669991
13	0x3a33cbe1	0.00068586884
14	0x3a13bbc3	0.00056355837
15	0x3a0d5e15	0.00053927425
16	0x3a01100c	0.00049233506
17	0x39ed5819	0.000452698
18	0x39c22d07	0.00037036111
19	0x39daf18d	0.0004176017
20	0x3a0a59dd	0.0005277673
21	0x39d28f55	0.00040161112
22	0x39bd14a7	0.00036064276
23	0x39d94402	0.00041440135
24	0x25011e63	1.1199262e-16
25	0x2507cb46	1.1778255e-16
26	0x24eec025	1.0354155e-16
27	0x250bb916	1.2119038e-16
28	0x24f3dd0b	1.0575891e-16
29	0x24fa40b8	1.08529855e-16
30	0x24fbb177	1.09154535e-16
31	0x24ecc34f	1.0267955e-16
32	0x3ab6ce04	0.0013946895
33	0x3ad5363d	0.0016266775
34	0x3abaa79c	0.0014240625
35	0x3acdcc20	0.0015701093
36	0x3ad5df64	0.0016317186
37	0x3ae15e3b	0.001719422
38	0x3aa6238c	0.0012675389
39	0x3abf3c31	0.0014590082
40	0x1e774a57	1.3091444e-20
41	0x1e677fbd	1.2255454e-20
42	0x1e61909a	1.1941304e-20
43	0x1e7c8c1d	1.3369744e-20
44	0x1e8065fd	1.3594709e-20
45	0x1e88a0ca	1.4466061e-20
46	0x1e844eaf	1.4008586e-20
47	0x1e84ccd5	1.406076e-20
48	0x1c359822	6.0084503e-22
49	0x1c5f248c	7.3831746e-22
50	0x1c9a9907	1.0230422e-21
51	0x1c990945	1.0127087e-21
52	0x1c676f97	7.6575715e-22
53	0x1c49a268	6.6715226e-22
54	0x1c5b41c4	7.254602e-22
55	0x1c69fded	7.7421424e-22
56	0x3a0855d3	0.0005200777
57	0x39f67a42	0.00047011866
58	0x39d8b186	0.00041330996
59	0x3a0da8ce	0.0005403877
60	0x39f6fa58	0.00047107297
61	0x3a067c63	0.00051302294
62	0x39dfd9d2	0.00042696163
63	0x39cf0c27	0.0003949117
64	0x39d76d5d	0.00041089478
65	0x39be7aa9	0.00036331013
66	0x39a9be31	0.00032375896
67	0x39f3092c	0.00046355405
68	0x39f92bb8	0.00047525554
69	0x3a033794	0.0005005535
70	0x39cf22f0	0.00039508147
71	0x39c7afe4	0.00038087287
72	0x399a76b5	0.00029461613
73	0x398b4647	0.00026564507
74	0x39662ed9	0.00021951961
75	0x3983b073	0.00025117732
76	0x39964640	0.0002866257
77	0x399595ac	0.0002853101
78	0x397e5bb9	0.00024257497
79	0x39823b73	0.00024839825
80	0x1362ddfc	2.8634657e-27
81	0x138fdf23	3.6318305e-27
82	0x138b9368	3.5233887e-27
83	0x13566251	2.7059071e-27
84	0x137ffcff	3.2310262e-27
85	0x138b7727	3.5206026e-27
86	0x137fd00b	3.2288098e-27
87	0x1387e1ac	3.430132e-27
88	0x3a84df27	0.0010137305
89	0x3a4f4605	0.0007906857
90	0x3a7af4d1	0.00095732237
91	0x3a86cd1c	0.0010284516
92	0x3a81f9d0	0.0009916369
93	0x3a75320a	0.00093534647
94	0x3a6fba05	0.00091448455
95	0x3a915511	0.0011087974
96	0x165a4665	1.7632112e-25
97	0x16544ae2	1.7148852e-25
98	0x1657f0ae	1.7443507e-25
99	0x166567fd	1.8531286e-25
100	0x165de0ee	1.7923213e-25
101	0x1672b2b5	1.9604994e-25
102	0x165bceed	1.7755973e-25
103	0x1655800b	1.7246406e-25
104	0x38eb0efd	0.00011208465
105	0x38d7cc3b	0.0001029004
106	0x38e7759f	0.00011036847
107	0x38e9e1ba	0.000111523506
108	0x38df12a1	0.000106369385
109	0x38f13fb8	0.00011503644
110	0x38e543f0	0.00010932225
111	0x38df6eec	0.000106541294
112	0x39e2cac6	0.00043257157
113	0x39c62a00	0.00037796795
114	0x39ce8e8e	0.00039397593
115	0x39dd8510	0.00042251544
116	0x39bc868d	0.00035958402
117	0x39d05fd6	0.00039744255
118	0x39a4dfeb	0.0003144735
119	0x39ac9ef4	0.00032924826
120	0x39544992	0.00020245303
121	0x3920028a	0.00015259735
122	0x395147a9	0.00019958489
123	0x3962b6f2	0.00021621192
124	0x393bd002	0.00017911199
125	0x395332d5	0.00020141464
126	0x394b5210	0.0001939016
127	0x3944e7a1	0.00018778305
128	0x3accc65c	0.001562308
129	0x3ad09328	0.0015912997
130	0x3ab7d835	0.0014026227
131	0x3af8acf1	0.0018972439
132	0x3aeae0a6	0.0017919734
133	0x3aef9ac7	0.001828038
134	0x3ac1a088	0.0014772573
135	0x3acc6f71	0.0015597177
136	0x36c00014	5.722055e-06
137	0x36bdd057	5.656893e-06
138	0x36ab47a9	5.1045395e-06
139	0x36de9105	6.632998e-06
140	0x36b57c47	5.408688e-06
141	0x36d13ee7	6.236008e-06
142	0x36b51c68	5.3975273e-06
143	0x36cf408d	6.1765954e-06
144	0x375c1354	1.3117522e-05
145	0x37652df4	1.3660163e-05
146	0x37633c43	1.3544285e-05
147	0x378691dd	1.6041968e-05
148	0x37779523	1.4757071e-05
149	0x3780e801	1.5366824e-05
150	0x371a2c84	9.18948e-06
151	0x3746f614	1.1859014e-05
152	0x1523d0c4	3.3082275e-26
153	0x151995b0	3.1016187e-26
154	0x1513d268	2.9852395e-26
155	0x152f0c20	3.5350533e-26
156	0x151e6de4	3.1994534e-26
157	0x15443592	3.9624144e-26
158	0x153be2fa	3.7943402e-26
159	0x151c49f8	3.15623e-26
160	0x148c1435	1.4144358e-26
161	0x14a18b8d	1.6311889e-26
162	0x14b74398	1.8504939e-26
163	0x14832440	1.3241918e-26
164	0x14aebd2c	1.7644125e-26
165	0x14c9fc77	2.0395393e-26
166	0x14a9a7ec	1.7130873e-26
167	0x14968cc8	1.5201658e-26
168	0x22c5ad0c	5.3580178e-18
169	0x22f0c444	6.5259935e-18
170	0x22de09ac	6.018346e-18
171	0x22cecbc3	5.6052153e-18
172	0x230fa876	7.7877185e-18
173	0x22deb28f	6.0362277e-18
174	0x22ed086b	6.424789e-18
175	0x22c8a0a3	5.438019e-18
176	0x399216ff	0.00027864423
177	0x39558d12	0.00020365816
178	0x397efa67	0.0002431661
179	0x398491b0	0.00025285548
180	0x398a8e7a	0.00026427564
181	0x39921777	0.00027864773
182	0x393902d0	0.00017644023
183	0x397968d5	0.00023785543
184	0x3968699a	0.00022164584
185	0x39562393	0.00020421883
186	0x3966bc28	0.00022004603
187	0x397d8939	0.0002417908
188	0x3952b800	0.00020095706
189	0x3979ea81	0.0002383385
190	0x393ab474	0.00017805566
191	0x3949a548	0.00019230426
192	0x3b08c7f4	0.0020871134
193	0x3aef2408	0.0018244991
194	0x3af9b135	0.0019050004
195	0x3b190b7a	0.0023352788
196	0x3b0503b5	0.00202964
197	0x3b177ee0	0.0023116395
198	0x3b046fee	0.0020208317
199	0x3b185a0d	0.0023247034
200	0x17c87424	1.2954015e-24
201	0x181e92cb	2.0495133e-24
202	0x17efdca8	1.5500714e-24
203	0x17f2c7eb	1.568935e-24
204	0x181690bb	1.9460116e-24
205	0x18233b32	2.1097142e-24
206	0x18084c3c	1.7616077e-24
207	0x18275dc5	2.1631586e-24
208	0x1ad129d7	8.650797e-23
209	0x1b622074	1.8704768e-22
210	0x1b001e9c	1.0597802e-22
211	0x1b16b314	1.2465572e-22
212	0x1afb9401	1.0405028e-22
213	0x1b351c36	1.4981085e-22
214	0x1b2e8773	1.4436709e-22
215	0x1b2c4f1f	1.4253072e-22
216	0x39c80cb8	0.0003815645
217	0x39dc5296	0.000420232
218	0x39bf0495	0.00036433773
219	0x39f8b15a	0.00047434383
220	0x3a0306d8	0.0004998273
221	0x3a01a947	0.0004946184
222	0x39c32e97	0.0003722801
223	0x39cb7ea8	0.00038813544
224	0x13a3c05c	4.1336666e-27
225	0x13b9eca9	4.693393e-27
226	0x13b33732	4.524038e-27
227	0x139558dc	3.770051e-27
228	0x138dc092	3.5783293e-27
229	0x1395b47b	3.7790855e-27
230	0x13b2ebc7	4.516601e-27
231	0x13b040c5	4.4492514e-27
232	0x3aa3b640	0.0012490228
233	0x3ab2b3ad	0.001363387
234	0x3a980665	0.0011598585
235	0x3adc4a5d	0.001680683
236	0x3aba4131	0.0014210102
237	0x3abc9f89	0.0014390807
238	0x3a98c684	0.0011655842
239	0x3aa6d512	0.0012728295
240	0x1dd0fda8	5.5319416e-21
241	0x1e14d476	7.878991e-21
242	0x1e0d5287	7.481544e-21
243	0x1e154d74	7.904011e-21
244	0x1e125f53	7.748888e-21
245	0x1e1a5eb2	8.172275e-21
246	0x1e25936a	8.765512e-21
247	0x1e0128fb	6.837678e-21
248	0x1e815d73	1.3697056e-20
249	0x1e5e74f4	1.17767675e-20
250	0x1e58722e	1.14585566e-20
251	0x1e7f5de3	1.3519003e-20
252	0x1e55b258	1.1313007e-20
253	0x1e88f50f	1.4500914e-20
254	0x1e758cb4	1.2999289e-20
255	0x1e68dae6	1.2327245e-20

grad_avg f4 [100]
0	0x00000003	4e-45
1	0x3b7d3fc0	0.0038642734
2	0x3b3d8716	0.0028919629
3	0x00000009	1.3e-44
4	0xbbb96f7c	-0.005659042
5	0x00000005	7e-45
6	0x00000004	6e-45
7	0x3ae92344	0.0017786999
8	0x3b7266b4	0.0036987485
9	0x3b18e091	0.0023327211
10	0x00000003	4e-45
11	0xba8abe69	-0.0010585311
12	0x00000003	4e-45
13	0x3acbaa95	0.0015538508
14	0x3b3004b7	0.002685828
15	0x39478911	0.0001902918
16	0x3c32c4b8	0.010911159
17	0x39ea565a	0.00044696295
18	0xb647f344	-2.979491e-06
19	0x00000003	4e-45
20	0x00000003	4e-45
21	0x00000007	1e-44
22	0x3b307deb	0.0026930522
23	0xbb09578f	-0.002095673
24	0xbb173a6a	-0.002307559
25	0x00000003	4e-45
26	0x00000003	4e-45
27	0x3b952f32	0.0045527453
28	0x00000003	4e-45
29	0x3ba14f0a	0.0049227523
30	0x00000004	6e-45
31	0x00000005	7e-45
32	0x09a7b26a	4.0371567e-33
33	0x3bed5e96	0.0072439415
34	0x00000003	4e-45
35	0x00000005	7e-45
36	0x00000004	6e-45
37	0x00000003	4e-45
38	0x00000003	4e-45
39	0x3a27689f	0.0006386134
40	0x00000003	4e-45
41	0x3af965f6	0.0019027579
42	0x00000003	4e-45
43	0x3b908aa0	0.0044110566
44	0xbb3ee86f	-0.002913024
45	0x3a2eb252	0.0006664145
46	0x00000003	4e-45
47	0x3bccc84c	0.006249463
48	0x3b3a6f8c	0.0028447835
49	0x3a01a5a5	0.00049456424
50	0x00000003	4e-45
51	0x00000004	6e-45
52	0x00000003	4e-45
53	0x3c642aed	0.01392625
54	0x00000003	4e-45
55	0x3b514d11	0.0031936804
56	0x3c3f3fb0	0.011672899
57	0x3b087372	0.0020820764
58	0xba0c7b90	-0.00053589884
59	0x3934c909	0.00017241029
60	0x3acece93	0.0015778117
61	0x3c15faaa	0.009154001
62	0x3ae25d6f	0.0017270277
63	0xbc26dfe0	-0.010185212
64	0xbb010412	-0.0019686264
65	0x3c41519d	0.011799243
66	0x3b408fc9	0.0029382578
67	0x3b6dc68a	0.0036281669
68	0x00000007	1e-44
69	0x00000009	1.3e-44
70	0x3b3d549c	0.0028889542
71	0x3b422c29	0.0029628372
72	0x3afb780d	0.0019185558
73	0x3c4c81d1	0.0124821225
74	0xb8b74131	-8.738263e-05
75	0x3c2f1856	0.0106869545
76	0x3b583006	0.0032987609
77	0x3949d511	0.00019248227
78	0xb9bd3cf0	-0.0003609429
79	0x00000003	4e-45
80	0x00000003	4e-45
81	0x00000003	4e-45
82	0x00000003	4e-45
83	0xbbbbb4e1	-0.0057283496
84	0x00000003	4e-45
85	0x3ba964c1	0.0051694815
86	0xba6fcc0e	-0.0009147533
87	0x393b353b	0.0001785354
88	0xbb6cccf2	-0.00361329
89	0x3a446e4e	0.00074932433
90	0x3b6e8d13	0.0036400005
91	0x3c2eceb5	0.0106694
92	0x3b61e3b5	0.0034468
93	0x3a0355b0	0.0005010022
94	0x3b228ff7	0.0024805048
95	0x3a1cdebf	0.00059841195
96	0x00000003	4e-45
97	0x3b3cb76a	0.0028795847
98	0x00000004	6e-45
99	0x3bb42f53	0.0054988055

sqr_avg f4 [100]
0	0x13933860	3.7163607e-27
1	0x3a338133	0.000684756
2	0x39e82d99	0.0004428446
3	0x2501c9f7	1.1257395e-16
4	0x3ac301e9	0.0014877889
5	0x1e8d8d17	1.4987309e-20
6	0x1c6a12d3	7.7448435e-22
7	0x3a12a46c	0.0005593959
8	0x39e48d2a	0.00043592724
9	0x39988212	0.0002908861
10	0x1396f128	3.810312e-27
11	0x3a5fc010	0.00085353944
12	0x166deca6	1.9219381e-25
13	0x38ec4551	0.00011266268
14	0x39bfdd79	0.0003659537
15	0x39563e13	0.00020431755
16	0x3ada8103	0.0016670529
17	0x36c00014	5.722055e-06
18	0x37695e58	1.3909848e-05
19	0x154b20fe	4.102155e-26
20	0x14e15294	2.2751765e-26
21	0x230e5416	7.715641e-18
22	0x397ddca5	0.00024210157
23	0x395b31cc	0.00020904018
24	0x3b009781	0.0019621553
25	0x17f74e06	1.5981697e-24
26	0x1b44b61e	1.6271585e-22
27	0x39cd9cad	0.0003921738
28	0x13bccb04	4.765806e-27
29	0x3aaffc94	0.0013426715
30	0x1e1dce46	8.354167e-21
31	0x1e7e864c	1.347442e-20
32	0x2939fc87	4.1297284e-14
33	0x3b0d600a	0.0021572136
34	0x1592c016	5.927199e-26
35	0x1dd85845	5.7265992e-21
36	0x1c849397	8.773178e-22
37	0x14856a5b	1.3471518e-26
38	0x1626148b	1.3415855e-25
39	0x394227f4	0.00018516165
40	0x19539dfd	1.094035e-23
41	0x3abad64c	0.0014254539
42	0x198abba3	1.4344651e-23
43	0x3b117bf2	0.0022199121
44	0x3a810962	0.0009844715
45	0x3703386a	7.821343e-06
46	0x154b920d	4.1110737e-26
47	0x3a318d62	0.0006773082
48	0x39967a82	0.00028701505
49	0x3a19e958	0.0005871258
50	0x14b60f08	1.8383232e-26
51	0x1d08aa82	1.80876e-21
52	0x18119974	1.8818285e-24
53	0x3b86bb57	0.004111688
54	0x14feb53b	2.5718929e-26
55	0x39263537	0.00015850818
56	0x3af9ae40	0.0019049123
57	0x38f5070b	0.00011683822
58	0x3b25014c	0.0025177775
59	0x3ac0367a	0.0014664673
60	0x39832468	0.00025013392
61	0x3b0014a1	0.0019543546
62	0x3a05076c	0.00050746533
63	0x3ae479bb	0.0017431298
64	0x3a616e6b	0.00085995224
65	0x3ae37d49	0.0017356063
66	0x399fdb5a	0.00030490273
67	0x3a755250	0.0009358274
68	0x243d93a2	4.1107892e-17
69	0x278b2427	3.8619447e-15
70	0x3b040bbd	0.0020148598
71	0x39eb2383	0.0004484915
72	0x3a1af548	0.00059111835
73	0x3b773b5e	0.0037724595
74	0x3a6a3d1a	0.00089354964
75	0x3b2408e1	0.0025029706
76	0x39b46207	0.0003440531
77	0x3a014ae9	0.0004932122
78	0x39a41ee5	0.00031303536
79	0x17718abc	7.8046407e-25
80	0x18a9bd97	4.3876913e-24
81	0x1590b39a	5.84445e-26
82	0x16286c5b	1.3605123e-25
83	0x3a84da95	0.0010135943
84	0x140c1a09	7.073328e-27
85	0x39de3d24	0.00042388693
86	0x3addab60	0.0016912036
87	0x35bbbec9	1.3988112e-06
88	0x3a95fb6e	0.001144273
89	0x389143fb	6.926801e-05
90	0x3ac105c1	0.0014726446
91	0x3b11833a	0.0022203461
92	0x39ae125c	0.00033201545
93	0x392746d4	0.00015952747
94	0x3a420a93	0.00074020884
95	0x38bfd1d5	9.146674e-05
96	0x13120f83	1.8435439e-27
97	0x397d0df6	0.00024133161
98	0x1e6a973f	1.2419134e-20
99	0x3b08f005	0.0020895016

grad_avg f4 [1, 100]
0	0x80000003	-4e-45
1	0xbd249a35	-0.040186126
2	0xbbeb3118	-0.0071774833
3	0x00000009	1.3e-44
4	0xbbc1373b	-0.0058964766
5	0x80000005	-7e-45
6	0x00000004	6e-45
7	0xbae8dfe0	-0.0017766915
8	0xbd38f7a1	-0.045158032
9	0xbbf38237	-0.0074312943
10	0x00000003	4e-45
11	0x3a22406d	0.000618941
12	0x80000003	-4e-45
13	0xbb03d216	-0.0020114235
14	0xbc555ac7	-0.013022131
15	0xbc39b667	-0.011334992
16	0xbd30bc24	-0.043148175
17	0xbb0136c5	-0.0019716483
18	0xbbab6ee5	-0.0052317255
19	0x80000003	-4e-45
20	0x80000003	-4e-45
21	0x00000007	1e-44
22	0xbc86010f	-0.016357927
23	0xbc356f49	-0.011073896
24	0xbbb78f95	-0.005601833
25	0x80000003	-4e-45
26	0x00000003	4e-45
27	0xbcbb32b8	-0.022851333
28	0x80000003	-4e-45
29	0xbc171cd5	-0.009223183
30	0x80000005	-7e-45
31	0x00000005	7e-45
32	0x0b1b01b3	2.9853192e-32
33	0xbcacc439	-0.02108966
34	0x00000003	4e-45
35	0x00000005	7e-45
36	0x00000004	6e-45
37	0x00000003	4e-45
38	0x00000003	4e-45
39	0x3be3a4e1	0.0069471453
40	0x00000003	4e-45
41	0xbc5107da	-0.01275822
42	0x00000003	4e-45
43	0xbd237501	-0.039906505
44	0x3c96e87c	0.018421404
45	0xbcb5727f	-0.022149323
46	0x80000003	-4e-45
47	0xbd8211b8	-0.06351036
48	0xbca3c28c	-0.019990228
49	0x39859927	0.00025481844
50	0x00000003	4e-45
51	0x80000004	-6e-45
52	0x00000003	4e-45
53	0xbd3f6502	-0.046727188
54	0x00000003	4e-45
55	0xbd04ef8d	-0.032455016
56	0xbd202043	-0.039093267
57	0xbc19ffbc	-0.009399351
58	0xbbe6b455	-0.00704054
59	0x3bbcbda2	0.0057599107
60	0xbcac5421	-0.02103621
61	0xbc85c906	-0.016331207
62	0xbcd5dcd7	-0.026106281
63	0x3c6b782e	0.014371915
64	0x3bedf3e2	0.007261739
65	0xbd1e809e	-0.038696878
66	0xbc3108c6	-0.010805314
67	0xbc3fcffc	-0.011707302
68	0x00000007	1e-44
69	0x00000009	1.3e-44
70	0x3c64ecbf	0.01397246
71	0xbc41699d	-0.011804965
72	0xbbd43823	-0.0064764186
73	0xbd48e19f	-0.049043294
74	0x3a4e7d0b	0.0007876909
75	0xbd06a89f	-0.032875653
76	0x3b5b7741	0.003348783
77	0xbbfa5d73	-0.0076405345
78	0xbbb0f3db	-0.0054001636
79	0x80000003	-4e-45
80	0x80000003	-4e-45
81	0x00000003	4e-45
82	0x80000003	-4e-45
83	0xbb97cbdb	-0.0046324558
84	0x00000003	4e-45
85	0xbcf14a9d	-0.029454524
86	0x3b444a86	0.0029951646
87	0xbc200c74	-0.009768594
88	0x3c7d2c21	0.015452416
89	0xbc0e1d70	-0.008674011
90	0xbc201008	-0.009769447
91	0xbcd3ca42	-0.02585328
92	0xbd2738de	-0.040825717
93	0xbc68041a	-0.014161134
94	0xbc432b6e	-0.01191221
95	0xba8ca2af	-0.0010729636
96	0x00000003	4e-45
97	0xbc18e245	-0.009331291
98	0x80000004	-6e-45
99	0xbd38f34f	-0.045153912
