trees/save/0.0_3_1000/models/model.pth (torch, 14520 bytes, 12 tensors)

node_factors.weight f4 [26, 1]
0	0x3c07da04	0.008291725
1	0xbec614f9	-0.38687876
2	0xbe03b310	-0.12861276
3	0x3da60ffe	0.08108519
4	0xbeb77c77	-0.35837147
5	0x3d0c8637	0.034307685
6	0x3ca13c46	0.01968206
7	0x3d794bfe	0.060863487
8	0xbf15d38e	-0.5852593
9	0x3e80bc36	0.25143594
10	0xbeb92471	-0.36160615
11	0x3ee5eb66	0.44906157
12	0xbe263eb1	-0.16234852
13	0x3e26228b	0.16224115
14	0xbed1757b	-0.40909943
15	0x3e9ecc73	0.31015357
16	0xbe4471e2	-0.19184068
17	0xbdd3cb19	-0.10341472
18	0x3eea0eae	0.45714325
19	0xbdbca9e7	-0.09212094
20	0x3e73c842	0.23806861
21	0xbeb0f3ac	-0.34560907
22	0xbe2d9d84	-0.16954619
23	0x3d7ae7f7	0.061256375
24	0x3dc83383	0.0977545
25	0x3cfd6857	0.030933542

layers.0.weight f4 [200, 2]
0	0xbda89822	-0.08232142
1	0xbef7b272	-0.4837833
2	0x3e96dea2	0.2946673
3	0x3e017374	0.12641698
4	0xbf900998	-1.1252928
5	0xbf8812f9	-1.063079
6	0x3e82cd65	0.2554733
7	0xbe68fec4	-0.22753435
8	0x3e820f8a	0.2540248
9	0xbd187b22	-0.037226804
10	0xbec56e9f	-0.3856096
11	0xbec18bb9	-0.37801912
12	0xbea211d5	-0.3165423
13	0x3eaf885d	0.34283724
14	0x3eaf9ad2	0.34297806
15	0xbe36691b	-0.17813532
16	0xbe16d779	-0.14730634
17	0x3f1038eb	0.5633685
18	0x3ecb52b9	0.3971155
19	0x3efdb90d	0.49555245
20	0xbe4e87f6	-0.20169052
21	0x3cee51f8	0.02909182
22	0xbe16c24a	-0.14722553
23	0xbecc4f89	-0.3990443
24	0xbf5eca17	-0.87027115
25	0xbe626980	-0.22110558
26	0x3e99d9f6	0.30049103
27	0x3ecf7f6d	0.40526906
28	0xbd52372e	-0.051322155
29	0x3e20dc07	0.15708934
30	0x3e804761	0.25054458
31	0xbe8c86aa	-0.2744649
32	0x3f10015d	0.5625208
33	0xbf113244	-0.56717324
34	0xbe7bf5d1	-0.2460549
35	0xbe8a22cf	-0.26979682
36	0xbeb06131	-0.3444915
37	0xbef30a4d	-0.47468796
38	0xbd1239bf	-0.035699602
39	0x3efd4901	0.4946976
40	0xbe011120	-0.12604189
41	0xbd97b404	-0.07407382
42	0xbee22842	-0.4417134
43	0xbed10299	-0.40822294
44	0xbf1f9040	-0.62329483
45	0x3f1fa652	0.6236316
46	0x3df550db	0.119783126
47	0xbe82b2de	-0.2552709
48	0xbdce4fb5	-0.10073797
49	0xbe9aaadd	-0.30208483
50	0xbd41d801	-0.047325138
51	0x3efc3af8	0.4926374
52	0xbe80ad7b	-0.25132355
53	0x3f1c847c	0.61139655
54	0xbef614e8	-0.48062825
55	0x3f1fae1e	0.62375057
56	0x3d9a4d0a	0.07534225
57	0x3e0fc279	0.14039029
58	0xbe22be14	-0.15892822
59	0xbe41e226	-0.18933925
60	0xbef8ba3e	-0.48579592
61	0xbf24d464	-0.6438658
62	0x3e82f3f4	0.25576746
63	0x3f0ec4cb	0.5576903
64	0x3e4c0391	0.19923235
65	0xbe8b2450	-0.27176142
66	0x3e1c409a	0.15259019
67	0xbcd52809	-0.026020067
68	0xbf81588e	-1.010515
69	0xbf906029	-1.1279346
70	0x3f2d81e2	0.6777631
71	0xbf2ecbb5	-0.6827958
72	0xbddefdf4	-0.108882815
73	0xbeb99d29	-0.36252716
74	0x3e003600	0.125206
75	0xbef7e345	-0.4841558
76	0xbecdcfde	-0.40197653
77	0x3e726d88	0.23674595
78	0x3eee4183	0.46534356
79	0x3edf6fbd	0.43639937
80	0x3e8c0803	0.27349862
81	0x3cca2dff	0.024680136
82	0x3f7585dd	0.95907384
83	0x3f712813	0.94201773
84	0x3dd1eb6c	0.10249981
85	0x3d58d04d	0.052933026
86	0x3e4e4058	0.20141733
87	0x3dd97ecc	0.10619888
88	0x3eeaca6b	0.45857558
89	0x3e494075	0.19653495
90	0xbf36fbc1	-0.71477896
91	0xbf2d3393	-0.6765682
92	0xbf665d5b	-0.899862
93	0xbf55b755	-0.8348287
94	0x3d877e1a	0.06615849
95	0xbe9a46cd	-0.30132142
96	0xbf7f437b	-0.9971234
97	0xbf8da520	-1.1066017
98	0x3f139e81	0.5766373
99	0x3da71f0a	0.08160217
100	0xbeb21a4a	-0.34785682
101	0xbd88eff5	-0.06686393
102	0xbeaaf7bd	-0.33392134
103	0xbf048ccd	-0.51777345
104	0xbea33cbf	-0.31882283
105	0xbe90fe1b	-0.28318867
106	0xbf87c71f	-1.0607642
107	0xbf867320	-1.0503883
108	0xbe3cf969	-0.18454517
109	0x3e8efd1e	0.27927488
110	0x3f2cc79b	0.67492074
111	0xbe95cb9b	-0.292569
112	0x3ef2ec22	0.4744578
113	0x3e6b3e4b	0.22972982
114	0xbf027ce7	-0.50971836
115	0xbe9ba00c	-0.30395544
116	0xbe0fd6c8	-0.14046776
117	0xbf04baca	-0.5184752
118	0x3e1d6c16	0.15373263
119	0x3e4f474a	0.20242038
120	0xbf7933a7	-0.9734444
121	0xbe0011d0	-0.12506795
122	0xbf755244	-0.9582865
123	0x3f75f41c	0.96075606
124	0x3e6bab9d	0.23014684
125	0xbeca5a97	-0.3952224
126	0x3ebf16d6	0.3732211
127	0xbf213a75	-0.62979823
128	0x3eba2929	0.36359528
129	0xbeddcf64	-0.4332229
130	0x3f32fbc4	0.69915414
131	0x3f5ed395	0.870416
132	0x3ee57d6a	0.44822246
133	0x3ec2e7a1	0.38067344
134	0xbe96d318	-0.29457927
135	0xbe22b2d1	-0.15888526
136	0x3f42d07d	0.7609938
137	0xbe8ae67c	-0.2712897
138	0xbedf87aa	-0.4365819
139	0xbedd2f10	-0.43199968
140	0xbf28ac27	-0.65887684
141	0xbf26e4da	-0.6519295
142	0x3d5e5f81	0.0542903
143	0x3f05c3f2	0.52252114
144	0x3e0a73ef	0.13520788
145	0xbe9faa24	-0.31184494
146	0x3eb6cf59	0.3570507
147	0xbe716b1f	-0.2357602
148	0xbd528757	-0.0513986
149	0xbe0b919a	-0.13629761
150	0x3f0f0d4e	0.55879676
151	0xbe2df151	-0.16986586
152	0xbe9089ab	-0.28230032
153	0xbe0db9d9	-0.13840427
154	0x3bcee967	0.006314445
155	0xbea7defe	-0.32787317
156	0x3f09edb2	0.5387832
157	0xbea5cad1	-0.323813
158	0x3d1a2b3f	0.0376389
159	0xbec1da57	-0.37861893
160	0xbe941d2e	-0.28928512
161	0xbe9af825	-0.30267444
162	0xbc471b6f	-0.012152537
163	0x3f02822f	0.50979894
164	0xbf55fc53	-0.8358814
165	0xbdbeb909	-0.093126364
166	0xbd851b93	-0.064994
167	0xbeb9003c	-0.3613299
168	0x3f17857a	0.59188044
169	0x3ef0ef5b	0.47057614
170	0xbc1a3ff7	-0.0094146645
171	0xbe1c6f33	-0.15276794
172	0x3de92c32	0.11385383
173	0xbf6005ae	-0.87508667
174	0xbf40a1d8	-0.75246954
175	0x3ef9dfec	0.4880365
176	0xbee2212d	-0.44165936
177	0x3b656870	0.0035004877
178	0x3c635476	0.0138751175
179	0x3f15bc63	0.5849058
180	0x3ece96e9	0.4034951
181	0xbf193afa	-0.59855616
182	0xbe447e62	-0.19188836
183	0xbf3314e4	-0.6995375
184	0x3e818b48	0.25301576
185	0x3f067523	0.52522486
186	0xbe87f92d	-0.26557294
187	0x3e00f1b7	0.12592207
188	0xbe1ca586	-0.15297517
189	0xbe2c5aed	-0.1683156
190	0x3f1b2fd0	0.6061983
191	0xbf2f759e	-0.68538845
192	0xbc7362b4	-0.014855076
193	0x3d4ef26b	0.050524157
194	0xbf3f5036	-0.7473177
195	0x3df20b9c	0.118186206
196	0x3eed37f2	0.46331745
197	0xbf0d4923	-0.5518972
198	0x3e7b28d5	0.24527295
199	0xbc9e2f1c	-0.019309573
200	0x3f123b77	0.57121986
201	0xbef90cda	-0.48642617
202	0x3f170097	0.58985275
203	0xbe8426d0	-0.25810862
204	0x3f1f2251	0.6216174
205	0xbe9d97c3	-0.30779848
206	0x3dad6cc7	0.08468013
207	0x3e042cd5	0.12907727
208	0x3f47fc29	0.7811914
209	0x3f45ea5f	0.77310747
210	0x3ed88929	0.42292145
211	0xbde4b8c3	-0.11168053
212	0xbf46f7b1	-0.777217
213	0xbf3288b9	-0.6973987
214	0x3eebea5b	0.46077237
215	0x3ee299b2	0.44257885
216	0xbeaea88a	-0.3411296
217	0x3f02f79f	0.5115909
218	0x3dae567c	0.08512589
219	0xbe98d150	-0.29847193
220	0x3f1905e3	0.5977461
221	0xbf1a1ea9	-0.60203034
222	0xbf01644d	-0.5054367
223	0xbf3c89cf	-0.7364778
224	0xbea51b3c	-0.3224734
225	0x3f22023c	0.6328466
226	0x3ea59d7b	0.3234671
227	0xbf76c350	-0.96391773
228	0xbd212e4e	-0.0393508
229	0x3ee2973c	0.44256008
230	0xbf56f6a3	-0.8397009
231	0xbda05859	-0.07829351
232	0x3f20e5ab	0.62850446
233	0x3f1fd629	0.6243616
234	0x3f215eba	0.63035166
235	0xbf007dc8	-0.50191927
236	0xbf1b9eac	-0.6078899
237	0x3ecd92f1	0.4015117
238	0xbd42ae4b	-0.0475295
239	0x3f1bf4ff	0.6092071
240	0x3e9e603e	0.30932802
241	0xbed06a69	-0.40706185
242	0x3ca48340	0.020082116
243	0x3dce13d2	0.10062374
244	0xbedab199	-0.4271362
245	0x3ee19cc2	0.4406491
246	0xbe01ba27	-0.12668668
247	0xbeb9b8ec	-0.36273897
248	0xbf072fd4	-0.52807355
249	0x3f07d780	0.530632
250	0xbf5f76be	-0.8729056
251	0x3ead3bc3	0.33834657
252	0xbee3bf30	-0.44481802
253	0xbe8ef90b	-0.2792438
254	0x3c7622dc	0.01502296
255	0x3f0addbe	0.542446

layers.0.bias f4 [200]
0	0x3f28dd91	0.65963084
1	0x3e975110	0.29554033
2	0x3ed1b6b0	0.40959692
3	0xbf217579	-0.63069874
4	0x3ee28a87	0.44246313
5	0x3e0aa9ba	0.13541308
6	0xbf2eee55	-0.68332416
7	0x3f3c4e33	0.7355682
8	0x3e640532	0.22267607
9	0x3d983093	0.0743114
10	0x3f253231	0.6452971
11	0x3f03debc	0.5151174
12	0x3f3031b2	0.6882583
13	0xbf28f4fd	-0.6599882
14	0x3f2d0d26	0.6759819
15	0x3e6e1178	0.23248851
16	0x39edd363	0.00045361658
17	0xbf0e3af7	-0.55558723
18	0xbef5b11b	-0.47986683
19	0x3f3f7e97	0.74802536
20	0x3f042911	0.5162516
21	0x3f1c31da	0.6101357
22	0xb99034c6	-0.0002750514
23	0xbec9aa4c	-0.3938774
24	0x3e5c7b15	0.21531327
25	0xbeac8351	-0.33693936
26	0xbf004e0c	-0.5011909
27	0x3e94f8e2	0.29096133
28	0x3f1d49e7	0.6144089
29	0xbf0ade2a	-0.54245245
30	0xbf299f6f	-0.662589
31	0x3e265083	0.1624165
32	0xbe7f1e4e	-0.24913904
33	0xbec19873	-0.37811622
34	0xbe1d47ea	-0.15359464
35	0x3a3f0f40	0.0007288344
36	0xbe8e38de	-0.2777776
37	0x3f1524b0	0.58259106
38	0x3ee6c806	0.4507448
39	0x3e6eb8ce	0.23312685
40	0xbe6830f1	-0.2267492
41	0xbea8c3bb	-0.3296183
42	0x3edc6d7f	0.4305229
43	0x3cc1b5cb	0.023646256
44	0xbf2ea281	-0.6821671
45	0x3e76e1f6	0.24109635
46	0x3e99a55e	0.30008978
47	0xbe31d339	-0.17365731
48	0xbe1b3714	-0.1515773
49	0x3cb7463d	0.02237236
50	0x3efb0031	0.49023584
51	0x3f24c9e2	0.6437055
52	0xbf0e0ec7	-0.554913
53	0x3ec36759	0.38164786
54	0x3e785bb5	0.24253733
55	0x3e4409f0	0.19144416
56	0xbecda855	-0.4016749
57	0xbef3be8d	-0.47606316
58	0x3f27697d	0.6539534
59	0x3e06c6a4	0.13161713
60	0xbd270eae	-0.040785484
61	0xb990a709	-0.0002759027
62	0x3f08458c	0.5323112
63	0xbe76b826	-0.24093685
64	0x3f0b6838	0.544559
65	0xbe756eb6	-0.23968014
66	0x3ddbdd45	0.10735563
67	0x3e807cfd	0.25095358
68	0xbe60217e	-0.21887776
69	0x3e1e5ce9	0.1546513
70	0x3e6f25b9	0.23354234
71	0xbf3109a5	-0.6915534
72	0xbe8b3187	-0.27186224
73	0x3e0d2f66	0.13787612
74	0x3f23ee9d	0.6403597
75	0x3ddbaf81	0.10726834
76	0xbf19dbf8	-0.6010127
77	0xbe543933	-0.20724945
78	0x3f266dda	0.6501137
79	0xbe8590db	-0.26087078
80	0x3f18a198	0.5962157
81	0x3d3df499	0.046375845
82	0x3f079631	0.5296355
83	0xbe9b94b5	-0.30386892
84	0x3f253ae7	0.64543
85	0x3e5bfed4	0.21483928
86	0xbe10a9a6	-0.14127216
87	0x3f1cb124	0.61207795
88	0x3ed0c121	0.40772346
89	0xbef35a21	-0.475297
90	0xbe809216	-0.25111455
91	0x3f10ef03	0.566147
92	0x3e45df93	0.19323568
93	0xbe64ff16	-0.22362933
94	0xbeebb70b	-0.46038088
95	0xbef0bc38	-0.470186
96	0x3eaf4ff9	0.34240702
97	0x3ec6a295	0.38795915
98	0xbf206823	-0.626589
99	0xbe35d3b7	-0.17756544
100	0x3e8b3075	0.27185407
101	0xbf2028eb	-0.62562436
102	0x3f0f8a90	0.56070805
103	0xbdefc38f	-0.11707222
104	0xbe849e39	-0.25901964
105	0x3d96c588	0.07361895
106	0x3e7b8518	0.2456249
107	0x3e70c456	0.23512396
108	0x3f1efff0	0.6210928
109	0x3eee17f3	0.46502647
110	0x3a3f84ee	0.000730588
111	0x3e225921	0.15854312
112	0x3e5ada1d	0.21372266
113	0xbe237a30	-0.1596458
114	0xbf1b1ce2	-0.60590947
115	0xbd4b5511	-0.049641673
116	0xbe5cc61d	-0.21559949
117	0xbf2aff23	-0.6679556
118	0x3eb673a7	0.3563511
119	0xbea0fa71	-0.31441072
120	0x3f3c8460	0.7363949
121	0x3e9f8490	0.31155825
122	0x3ebd2c15	0.36947694
123	0x3e87bd63	0.26511678
124	0x3e99f1f2	0.30067402
125	0x3f05ecd1	0.5231448
126	0x3f14f6cb	0.58189076
127	0x3e51a1ca	0.20471874
128	0xbed36070	-0.41284513
129	0x3e7eaf55	0.24871571
130	0xbeadce4f	-0.33946463
131	0x3e4482e0	0.1919055
132	0x3e32cfba	0.17462054
133	0x3e8a697d	0.27033606
134	0xbf2f1858	-0.6839652
135	0x3eaccb69	0.3374894
136	0xbe9a7738	-0.30169082
137	0xbeff0153	-0.49805698
138	0xbe9a2eb0	-0.30113745
139	0x3e0e6bdc	0.13908333
140	0x3ed20f76	0.4102742
141	0xbf213896	-0.6297697
142	0x3e1e41ac	0.1545474
143	0x3f172a71	0.59049135
144	0xbecc8aae	-0.39949554
145	0x3e626e5d	0.22112413
146	0xbf00bd9f	-0.5028934
147	0x3e7733b8	0.24140823
148	0x3ebd6275	0.3698918
149	0xbedf0518	-0.43558574
150	0x3e3c78cc	0.18405455
151	0x3f42ee2a	0.7614466
152	0x3d1f10f0	0.038834512
153	0xbef35696	-0.47526997
154	0x3d9e8001	0.077392586
155	0x3e71eadd	0.2362475
156	0x3e87f7d5	0.26556268
157	0xb9ac1f92	-0.00032829918
158	0xbe4e77c2	-0.20162871
159	0xbed3a722	-0.4133845
160	0x3ed08fcb	0.40734705
161	0xbedb7e57	-0.42869827
162	0xbe52bb46	-0.20579252
163	0x3eda38cf	0.42621467
164	0xbeaa22fe	-0.33229822
165	0x3a85a4ab	0.001019617
166	0xbe2ae596	-0.16689143
167	0xbf2073a5	-0.6267646
168	0x3e91c5ae	0.2847113
169	0xbea6f07b	-0.32605347
170	0xbe735dea	-0.23766294
171	0xbe53aa1d	-0.20670362
172	0x3e7d49bc	0.24735159
173	0x3f2ec6f2	0.68272316
174	0x3f2f4aef	0.68473715
175	0x3e5b7106	0.21429834
176	0xbf1b4111	-0.6064616
177	0x3de59143	0.11209347
178	0xb9febc7a	-0.0004858708
179	0x3f280086	0.656258
180	0xbe8af3ba	-0.27139074
181	0xbf2a172a	-0.66441596
182	0x3e4e4470	0.20143294
183	0xbe17f803	-0.14840703
184	0x3e4288da	0.18997517
185	0x3ea0f6df	0.31438348
186	0x3e9f3f6a	0.3110307
187	0x3ee6ad93	0.45054302
188	0xbefdcefe	-0.49571985
189	0xbf13723a	-0.5759617
190	0x3f1d3d4d	0.6142166
191	0x3f34b683	0.7059099
192	0xbe8eea42	-0.279131
193	0x3f3cd1f5	0.7375787
194	0x3e3898f5	0.18027098
195	0xbe54fac5	-0.20798786
196	0xbec41303	-0.38295755
197	0xbec0aa17	-0.37629768
198	0x3f216826	0.6304954
199	0xbede8803	-0.43463144

layers.2.weight f4 [1, 200]
0	0xbda8d5ee	-0.08243929
1	0x3c74ff87	0.014953501
2	0xbdd5cd6e	-0.10439573
3	0x3d8c008d	0.068360426
4	0xbcaecd31	-0.021338077
5	0xbd4c3d89	-0.049863372
6	0x3c819d15	0.015821973
7	0xbd87d113	-0.066316746
8	0x3e7f5231	0.24933697
9	0xbc908173	-0.017639851
10	0xbdbd0e38	-0.09231228
11	0xbde3aedc	-0.11117336
12	0xbde3c052	-0.111206666
13	0xbc09c3d8	-0.008408509
14	0xbd0854d3	-0.03328402
15	0xbdc442c1	-0.09583045
16	0x3e7a57c5	0.24447544
17	0x3d23eed3	0.040022682
18	0x3cfe3984	0.031033285
19	0xbda4f7bc	-0.08055064
20	0xbd15f828	-0.036613613
21	0xbded5966	-0.11589317
22	0x3ef24920	0.47321415
23	0xbd636f32	-0.055525966
24	0xbd3ff962	-0.04686869
25	0xbcb2cc2b	-0.02182587
26	0xbd4fdbd4	-0.050746754
27	0xbdf291d6	-0.11844222
28	0xbdca91c3	-0.09891083
29	0xbd4e982e	-0.0504381
30	0x3d51a1ca	0.051179685
31	0xbd827e9f	-0.06371807
32	0xbd3dfe56	-0.04638513
33	0x398362af	0.00025059792
34	0xbf1d96a8	-0.6155801
35	0x3f136532	0.57576287
36	0x3d668436	0.05627843
37	0xbdebab8e	-0.11507331
38	0xbdebc14d	-0.115114786
39	0xbd099b39	-0.033595297
40	0x3d465a8f	0.048426207
41	0xbf9f0f41	-1.242653
42	0xbcf7d7c3	-0.03025425
43	0x3ce79f5f	0.028274236
44	0xbc36e144	-0.011162106
45	0xbe39a8a1	-0.18130733
46	0xbd2698c5	-0.040673036
47	0x3cebfa87	0.028805984
48	0xbf17570e	-0.5911721
49	0xbe8d97f1	-0.27654985
50	0xbd515e6f	-0.05111545
51	0xbdcafeeb	-0.09911903
52	0xbd72f208	-0.05931285
53	0xbcf0cc2c	-0.029394232
54	0xbbc33684	-0.0059574265
55	0xbcf32fdb	-0.029685905
56	0xbd6834a2	-0.05669082
57	0x3d66e9f4	0.05637546
58	0xbb44a61a	-0.003000623
59	0x3bc474e2	0.005995379
60	0xbee46fe9	-0.4461663
61	0x3ecae739	0.39629534
62	0xbded78f3	-0.11595335
63	0xbe0c6f28	-0.13714278
64	0xbd6901da	-0.05688653
65	0xbf759265	-0.95926505
66	0x3cb728e3	0.022358363
67	0xbd7ee3c6	-0.06222894
68	0x3e2bd9c5	0.16782291
69	0xbe31526c	-0.17316598
70	0xbdeefacd	-0.1166893
71	0x3d7a550c	0.061116263
72	0x3c8f30bd	0.017479295
73	0xbdc3aadd	-0.09554074
74	0xbd538eeb	-0.05164997
75	0xbc4f0e63	-0.012637707
76	0x3b5ad454	0.0033390718
77	0xbc4d221b	-0.012520338
78	0x3c0543f9	0.008133882
79	0xbcbf2e0a	-0.023337383
80	0xbd94f575	-0.0727338
81	0xbd0d3538	-0.03447458
82	0xbd7bdfa1	-0.061492566
83	0x3b074c70	0.0020644926
84	0x3ac1e459	0.0014792784
85	0xbd6b73c4	-0.05748345
86	0xbef6f214	-0.48231566
87	0xbd8f87dc	-0.07008335
88	0xbde67c8d	-0.11254225
89	0x3d5c5936	0.053796016
90	0xbe103aa1	-0.14084865
91	0xbddb5fc6	-0.10711627
92	0xbd26c527	-0.040715363
93	0xbbefc142	-0.0073167393
94	0x3b327b18	0.0027234014
95	0x3df34fdd	0.11880467
96	0x3c6ac9b5	0.014330317
97	0xbdfa902a	-0.12234528
98	0xbd2b19b8	-0.041772574
99	0x3c4ecd7b	0.012622233
100	0xbdfa1843	-0.12211659
101	0xbd60d335	-0.054888923
102	0xb98d67d5	-0.00026970977
103	0x3bc61851	0.006045379
104	0xbf58ea63	-0.84732646
105	0xbd3c033a	-0.045901515
106	0xbd895b5a	-0.06706877
107	0xbd7aac1b	-0.06119929
108	0x3b34c98e	0.0027585956
109	0xbd5a8ed4	-0.053358868
110	0x3ed7082d	0.41998425
111	0xbe116485	-0.14198501
112	0xbdb51b5e	-0.088431105
113	0xbea9448d	-0.33060113
114	0x3d180393	0.037112784
115	0xbf00b16f	-0.5027074
116	0xbecd5a72	-0.40108067
117	0xbd6c1733	-0.057639312
118	0xbda5b6d9	-0.08091516
119	0x3c02c819	0.007982277
120	0xbdd8ad0a	-0.105798796
121	0xbdf3d1fe	-0.11905287
122	0xbd9281f7	-0.07153695
123	0xbde345ce	-0.110972986
124	0xbd084dd1	-0.033277337
125	0xbd88efcd	-0.06686363
126	0xbd98fab2	-0.07469691
127	0x3dfa3aff	0.12218284
128	0xbf971d69	-1.180585
129	0xbdf25d94	-0.11834255
130	0xbbdc924e	-0.006731308
131	0x3e4c3962	0.19943765
132	0xbcf20266	-0.02954216
133	0xbc7134dd	-0.014722076
134	0xbd71b17a	-0.059007145
135	0xbd88b18e	-0.06674491
136	0x39fea60c	0.0004857037
137	0x3d65dcd8	0.056118816
138	0x3d417797	0.04723319
139	0x3e2c09c5	0.16800602
140	0xbd9a9d97	-0.07549589
141	0xbd5c4e81	-0.053785805
142	0xbc49fa5b	-0.012327756
143	0xbc16b702	-0.009198906
144	0xbcabe163	-0.020981496
145	0xbd855267	-0.065098576
146	0xbf9c291c	-1.2200046
147	0xbded26b6	-0.11579649
148	0xbdac2158	-0.08404797
149	0xbcb459bd	-0.022015447
150	0xbd8e90b9	-0.069611974
151	0xbd97c237	-0.074100904
152	0xbd9988e9	-0.07496817
153	0x3ddebb35	0.10875551
154	0xbd98a00a	-0.074524
155	0xbd915391	-0.07096017
156	0xbdcac3ed	-0.09900651
157	0x3ec3cc22	0.38241678
158	0xbe89be76	-0.26903123
159	0x3d2c4875	0.042061288
160	0x3bb7074b	0.005585586
161	0xbe95f1b9	-0.29285982
162	0xbea25295	-0.3170363
163	0xbc939ff6	-0.018020611
164	0x3d3ca3cf	0.046054658
165	0x3f1c7d4c	0.6112869
166	0xbea23ff5	-0.3168942
167	0xbbb29c89	-0.0054507894
168	0xbce1f6df	-0.027583538
169	0xb84c8f80	-4.8771035e-05
170	0xbe52794e	-0.20554087
171	0xbe991280	-0.29896927
172	0xbdc4371b	-0.09580823
173	0xbda10c23	-0.07863643
174	0xbddd44a9	-0.108041115
175	0xbe6fd257	-0.23420082
176	0x3d230f23	0.039809357
177	0xbda43356	-0.08017604
178	0x3e835b20	0.2565546
179	0xbde4dd85	-0.11175064
180	0xbf868ccc	-1.0511718
181	0x3bebf687	0.007201019
182	0x3cc18a65	0.023625562
183	0xbe873a8e	-0.2641186
184	0xbccdaeee	-0.025107827
185	0xbdb64ac7	-0.089009814
186	0xbde2d7ae	-0.11076294
187	0xbdd6dd0d	-0.10491381
188	0x3d0f60cb	0.03500442
189	0xbd0e31ec	-0.034715578
190	0xbb9e8963	-0.004838155
191	0xbdd11feb	-0.10211166
192	0x3d56fb38	0.052485675
193	0xbdb91f39	-0.090391584
194	0xbd9bba1a	-0.076038554
195	0x3ca34538	0.019930467
196	0xbd5f4dcc	-0.054517552
197	0xbd153e91	-0.03643662
198	0xbd9126e4	-0.07087496
199	0x3967268b	0.00022044235

grad_avg f4 [26, 1]
0	0x00000000	0.0
1	0x3a1e58b0	0.0006040437
2	0x3ab502c5	0.001381003
3	0xbc1fa1de	-0.009743182
4	0xbb6779bf	-0.003532037
5	0xbce424cc	-0.027849577
6	0xb94cb0cb	-0.00019520817
7	0xbceb434f	-0.028718619
8	0x3c143236	0.009045174
9	0xbc0c7f0d	-0.008575213
10	0x3c8f4369	0.017488198
11	0xbabd2c38	-0.0014432734
12	0xbbebc20b	-0.0071947626
13	0xbd2dc1b5	-0.04242106
14	0x3c897162	0.016777698
15	0xbced25de	-0.02894872
16	0x3aa8bde1	0.0012873971
17	0xbbf15aad	-0.0073655457
18	0x3ced2560	0.028948486
19	0x3b21d40d	0.0024693043
20	0xbb40b924	-0.0029407227
21	0x3c36e25f	0.0111623695
22	0x3c9dbdb3	0.019255495
23	0xbcdfcea9	-0.027320223
24	0x3d097876	0.033562146
25	0x3b601d46	0.0034197136

sqr_avg f4 [26, 1]
0	0x00000000	0.0
1	0x39f23463	0.00046196868
2	0x3a868583	0.0010263178
3	0x3a69c372	0.0008917368
4	0x3add46a1	0.0016882011
5	0x3b4182c0	0.0029527396
6	0x3b2f0b64	0.002670967
7	0x3be182dc	0.0068820547
8	0x3b418e65	0.0029534337
9	0x3b9581d9	0.004562598
10	0x3b591bad	0.0033128068
11	0x3bd5300f	0.006505973
12	0x3b2881da	0.0025712163
13	0x3bd35b83	0.006450118
14	0x3b6069d7	0.0034242773
15	0x3bf5a60a	0.0074966
16	0x3be19727	0.006884474
17	0x3bd2e4cf	0.0064359675
18	0x3bd2f8ed	0.0064383657
19	0x3b78036a	0.0037843832
20	0x3cd130c4	0.025535949
21	0x3b8960a9	0.004192431
22	0x3b2e86a9	0.0026630557
23	0x3be028cb	0.0068408004
24	0x3bc7201f	0.006076827
25	0x3b57e3cd	0.0032942176

grad_avg f4 [200, 2]
0	0x39d51d62	0.00040648418
1	0xb9aa1a12	-0.0003244435
2	0xb89189c4	-6.9398e-05
3	0x3889a1d0	6.562809e-05
4	0x3a8f6181	0.0010939093
5	0x372bf529	1.0249475e-05
6	0x00000000	0.0
7	0x00000000	0.0
8	0x38e2bf35	0.00010812135
9	0xb8a7f07d	-8.007975e-05
10	0x39a85a9b	0.00032110963
11	0xb95f7919	-0.0002131205
12	0x00000000	0.0
13	0x00000000	0.0
14	0x39ac28d6	0.00032836822
15	0xb987f61e	-0.00025932578
16	0xbaee5ba6	-0.0018185272
17	0x3b03763e	0.0020059492
18	0x391d72bd	0.0001501543
19	0xb8e2c687	-0.000108134984
20	0x39ed3b15	0.00045248182
21	0xb9bcd0c1	-0.00036013688
22	0x3a0f48c0	0.00054658577
23	0xb9e60f45	-0.00043880395
24	0x3a0e47fc	0.00054275966
25	0xb9e41c66	-0.00043508707
26	0x00000000	0.0
27	0x00000000	0.0
28	0x392c22d7	0.00016416177
29	0xb90317e8	-0.0001250204
30	0x39ef81d8	0.00045682373
31	0xb9bfab38	-0.00036557927
32	0xbb24ebd6	-0.0025164983
33	0xb9bb5593	-0.00035731177
34	0x00000000	0.0
35	0x00000000	0.0
36	0xb4ca0515	-3.762913e-07
37	0xb4ca0515	-3.762913e-07
38	0x39ced0cc	0.00039446948
39	0xb9a33d26	-0.00031135342
40	0x393d8845	0.00018075209
41	0xb912216e	-0.00013936099
42	0x3a14e8be	0.0005680433
43	0xb9ef392f	-0.00045628237
44	0x3b12e2c7	0.0022413002
45	0x3b0e65f2	0.0021728245
46	0x00000000	0.0
47	0x00000000	0.0
48	0x3974ff48	0.00023364753
49	0xb941aefd	-0.00018471103
50	0x00000000	0.0
51	0x00000000	0.0
52	0xb16a3eb8	-3.4087133e-09
53	0x313c8215	2.7431544e-09
54	0x3a02f70a	0.0004995918
55	0xba67347f	-0.0008819773
56	0x39fe9f65	0.00048565413
57	0xb9caad04	-0.0003865735
58	0x00000000	0.0
59	0x00000000	0.0
60	0xb52d740e	-6.4616404e-07
61	0xb52d740e	-6.4616404e-07
62	0x3a21caa5	0.0006171859
63	0xb9b14511	-0.0003381153
64	0x00000000	0.0
65	0x00000000	0.0
66	0x00000000	0.0
67	0x00000000	0.0
68	0xba3928cb	-0.00070632686
69	0xba2f4228	-0.0006685578
70	0xbbcc3207	-0.0062315497
71	0xba8879ad	-0.0010412239
72	0xb3799b19	-5.811589e-08
73	0xb3799b19	-5.811589e-08
74	0x3a14b54c	0.00056727673
75	0xb9eeeb18	-0.00045570056
76	0x3a131ddc	0.00056120544
77	0xb9eac547	-0.0004477894
78	0x399d499a	0.0003000021
79	0xb8332da9	-4.271945e-05
80	0x00000000	0.0
81	0x00000000	0.0
82	0xba01bbd0	-0.0004948946
83	0x3974a745	0.00023331966
84	0x391dbe59	0.00015043597
85	0xb8ef4737	-0.00011409673
86	0xb8a95e2d	-8.0760896e-05
87	0x3858142d	5.1517203e-05
88	0x00000000	0.0
89	0x00000000	0.0
90	0x3a17fb42	0.0005797633
91	0xb9f22162	-0.0004618271
92	0x38c08c36	9.18139e-05
93	0x38a7d514	8.0028694e-05
94	0xb6ef4142	-7.130352e-06
95	0xb6ba4fbe	-5.552515e-06
96	0xba6de5c3	-0.00090750697
97	0xb9a9bbda	-0.00032374152
98	0x39c84a4b	0.00038202325
99	0x3a761f0a	0.00093887805
100	0x39833df5	0.0002503243
101	0xb94d2919	-0.00019565634
102	0x39ff4fad	0.00048696753
103	0xb9ccb12e	-0.0003904192
104	0x00000000	0.0
105	0x00000000	0.0
106	0x39b78cf4	0.00035009498
107	0xb6a266fe	-4.839966e-06
108	0x37ac53bd	2.0542991e-05
109	0xb682f4bc	-3.9027927e-06
110	0xb7143c5b	-8.83554e-06
111	0x391329da	0.00014034603
112	0x00000000	0.0
113	0x00000000	0.0
114	0xb55394f3	-7.8820375e-07
115	0xb55394f3	-7.8820375e-07
116	0x3794939b	1.7711709e-05
117	0xb7084567	-8.122391e-06
118	0xb7ddccd5	-2.6440635e-05
119	0x37fd22d5	3.017617e-05
120	0x3ae0286f	0.0017101894
121	0xbb7295e9	-0.0037015623
122	0x3b0cb3cd	0.0021469474
123	0x3b098cf1	0.0020988549
124	0x3a15f766	0.0005720764
125	0xb9f0cb89	-0.00045928013
126	0x3a059420	0.00050956197
127	0x39781311	0.00023658226
128	0x3995067e	0.00028424332
129	0xb96b683a	-0.00022450174
130	0xbb418da7	-0.0029533894
131	0xbae0f27b	-0.0017162109
132	0xb94e86dc	-0.0001969593
133	0x3883a5a8	6.277423e-05
134	0x399f8f99	0.00030433832
135	0xb97c4def	-0.00024061625
136	0xbb038c3a	-0.0020072595
137	0xb8a61d5b	-7.920965e-05
138	0x3a90aa97	0.0011037168
139	0xba1ab498	-0.00059015444
140	0x3a31fa94	0.0006789353
141	0xb9c60dc9	-0.00037775774
142	0x00000000	0.0
143	0x00000000	0.0
144	0x315134d4	3.0443532e-09
145	0xb181cf94	-3.777993e-09
146	0xb9d1ff04	-0.00040053588
147	0x395631b4	0.00020427146
148	0x3985b0fc	0.000254996
149	0xb95138b7	-0.00019952921
150	0x370f0abf	8.525966e-06
151	0xb7b8fed7	-2.2053178e-05
152	0x00000000	0.0
153	0x00000000	0.0
154	0x00000000	0.0
155	0x00000000	0.0
156	0xb8109631	-3.4472152e-05
157	0x3814b9df	3.5459056e-05
158	0x300b1403	5.0596344e-10
159	0xb02a9845	-6.206203e-10
160	0x39bb6a9f	0.00035746858
161	0xb994e3a0	-0.00028398354
162	0x3878803e	5.9247242e-05
163	0xb8f09efe	-0.000114737064
164	0x399c7ec2	0.0002984908
165	0xb976ea5b	-0.00023547692
166	0x00000000	0.0
167	0x00000000	0.0
168	0xb68a4c44	-4.121599e-06
169	0x37614dd2	1.3429164e-05
170	0x399595de	0.00028531154
171	0xb96b7c48	-0.00022457645
172	0x3b1cf713	0.0023950979
173	0x3aa42948	0.001252451
174	0x3987c0b5	0.00025892784
175	0xb92961b9	-0.000161535
176	0x3a0ff328	0.000549125
177	0xb9e63e30	-0.00043915352
178	0x00000000	0.0
179	0x00000000	0.0
180	0x3a2cdd1c	0.0006594227
181	0x3952f10e	0.0002011696
182	0x3a0a4e47	0.00052759465
183	0xb9de967c	-0.0004245526
184	0x3979647d	0.00023783925
185	0xb86ea3d1	-5.6896188e-05
186	0x00000000	0.0
187	0x00000000	0.0
188	0x00000000	0.0
189	0x00000000	0.0
190	0xb818d366	-3.6436504e-05
191	0xb6eda925	-7.0828414e-06
192	0xb88fa251	-6.849005e-05
193	0x388663f7	6.408238e-05
194	0x39ec8076	0.0004510914
195	0xb9988170	-0.00029088138
196	0x00000000	0.0
197	0x00000000	0.0
198	0x2dcbc99c	2.316796e-11
199	0xadf4a144	-2.7811205e-11
200	0xb9c0b5a8	-0.00036756438
201	0x3855756e	5.0892522e-05
202	0x00000000	0.0
203	0x00000000	0.0
204	0x36fa17f6	7.45337e-06
205	0x359c82c6	1.1660966e-06
206	0x19058229	6.9022245e-24
207	0x19058229	6.9022245e-24
208	0xb96c4d28	-0.00022535457
209	0xb74cd7ad	-1.22095635e-05
210	0x37815bd8	1.5420766e-05
211	0xb890ebf8	-6.910408e-05
212	0x38ac328c	8.211014e-05
213	0x38bde662	9.0551344e-05
214	0x39e5fcad	0.00043866542
215	0xb9061b9a	-0.00012789518
216	0xb773166b	-1.4489148e-05
217	0x37b4aca2	2.153806e-05
218	0x398b0e8a	0.00026522978
219	0xb95acb73	-0.00020865891
220	0xbb8adc50	-0.004237689
221	0xb9f7eb7b	-0.00047286958
222	0x3a928fc9	0.0011181767
223	0xba1b17c8	-0.00059163244
224	0x394a3ef6	0.00019287676
225	0xba3c7cd4	-0.00071902317
226	0x3ae843a6	0.0017720356
227	0x3a8e9c80	0.0010880381
228	0x00000000	0.0
229	0x00000000	0.0
230	0x3af02bd7	0.0018323612
231	0xbb72b5dc	-0.0037034666
232	0x396685d9	0.00021984371
233	0x385a786d	5.2087405e-05
234	0x00000000	0.0
235	0x00000000	0.0
236	0x397e4b64	0.00024251413
237	0xb983acfc	-0.0002511515
238	0xab964c65	-1.0679345e-12
239	0x2c0886f4	1.9401676e-12
240	0x3a08ced7	0.000521881
241	0xb9db251b	-0.0004179858
242	0x3a190e29	0.0005838597
243	0xb9f44f8a	-0.00046598568
244	0x398a5ddd	0.00026391345
245	0xb92bbc74	-0.00016378035
246	0x3a0f4dad	0.00054665917
247	0xb9e6c223	-0.00044013662
248	0x38ee23e7	0.00011355412
249	0xb91ea6a8	-0.00015130138
250	0x3980f0cc	0.0002459347
251	0xb920af5b	-0.00015324114
252	0x39bff7e7	0.0003661506
253	0xb9989f22	-0.00029110262
254	0xba7a27de	-0.0009542684
255	0x3a5393ff	0.00080710644

sqr_avg f4 [200, 2]
0	0x36f355cb	7.251952e-06
1	0x3713794b	8.7901235e-06
2	0x34ab3fa2	3.189753e-07
3	0x34c4b365	3.6638372e-07
4	0x373bb957	1.1189221e-05
5	0x375a662c	1.3017601e-05
6	0x00000000	0.0
7	0x00000000	0.0
8	0x34f4b8ce	4.5583005e-07
9	0x35167736	5.605283e-07
10	0x35cfed87	1.5491831e-06
11	0x361b8af6	2.3177686e-06
12	0x00000000	0.0
13	0x00000000	0.0
14	0x369b2b34	4.6243895e-06
15	0x36bccb4d	5.626504e-06
16	0x387fe81d	6.101291e-05
17	0x38ab12a4	8.1573875e-05
18	0x34cafca9	3.7809266e-07
19	0x350a76d5	5.158193e-07
20	0x3718009a	9.060046e-06
21	0x37384fda	1.09858465e-05
22	0x375eace6	1.3272487e-05
23	0x3786c924	1.6067708e-05
24	0x375edca9	1.3283608e-05
25	0x3786b9c9	1.6060558e-05
26	0x00000000	0.0
27	0x00000000	0.0
28	0x359848cf	1.1346073e-06
29	0x35b9da6e	1.3847146e-06
30	0x3715c930	8.927935e-06
31	0x372ad6f7	1.018284e-05
32	0x3826ecf3	3.979816e-05
33	0x375e0d55	1.3235335e-05
34	0x00000000	0.0
35	0x00000000	0.0
36	0x2c1dec9c	2.2442386e-12
37	0x2c1dec9c	2.2442386e-12
38	0x36e4f180	6.823044e-06
39	0x370b21b9	8.292897e-06
40	0x35bbac80	1.398279e-06
41	0x35e427ca	1.6998904e-06
42	0x37723833	1.4437409e-05
43	0x3792841d	1.7466076e-05
44	0x38dc56bd	0.00010506574
45	0x398107a6	0.00024610496
46	0x00000000	0.0
47	0x00000000	0.0
48	0x36225914	2.4191731e-06
49	0x3643418b	2.9095415e-06
50	0x00000000	0.0
51	0x00000000	0.0
52	0x30ec1b02	1.7178936e-09
53	0x3098e814	1.1125416e-09
54	0x371d60a7	9.380433e-06
55	0x37973dd8	1.8029401e-05
56	0x372e22e9	1.0379336e-05
57	0x3753606c	1.259903e-05
58	0x00000000	0.0
59	0x00000000	0.0
60	0x2bb4d4f7	1.2848879e-12
61	0x2bb4d4f7	1.2848879e-12
62	0x368193cc	3.8617054e-06
63	0x369fd3a1	4.763206e-06
64	0x00000000	0.0
65	0x00000000	0.0
66	0x00000000	0.0
67	0x00000000	0.0
68	0x38346021	4.300487e-05
69	0x38473f63	4.750433e-05
70	0x398d6783	0.00026970738
71	0x38bf1bd4	9.112773e-05
72	0x2cb4f9dd	5.143648e-12
73	0x2cb4f9dd	5.143648e-12
74	0x376e19b0	1.4191886e-05
75	0x379044e0	1.719821e-05
76	0x376d8dc2	1.4159306e-05
77	0x378fce9a	1.7143135e-05
78	0x35953279	1.1116055e-06
79	0x35bbfff5	1.4007079e-06
80	0x00000000	0.0
81	0x00000000	0.0
82	0x3952e5b3	0.0002011273
83	0x392204ed	0.00015451359
84	0x357bd239	9.38107e-07
85	0x3599d6cb	1.1461901e-06
86	0x351ce936	5.8453895e-07
87	0x34f506ab	4.5639658e-07
88	0x00000000	0.0
89	0x00000000	0.0
90	0x37b406c6	2.1460826e-05
91	0x380f5d88	3.4180965e-05
92	0x358208cb	9.688314e-07
93	0x35eed955	1.7795634e-06
94	0x327b2c4d	1.4620196e-08
95	0x32f4918d	2.8471527e-08
96	0x38258553	3.9463233e-05
97	0x38374771	4.3697135e-05
98	0x387bf0ea	6.0067432e-05
99	0x37e2b94b	2.7027583e-05
100	0x3639812e	2.764234e-06
101	0x3660b5b6	3.348437e-06
102	0x3730d81d	1.0540735e-05
103	0x37560a7f	1.2757838e-05
104	0x00000000	0.0
105	0x00000000	0.0
106	0x3536eb28	6.814248e-07
107	0x35659479	8.5525204e-07
108	0x3318b4a5	3.5554553e-08
109	0x3338d411	4.303371e-08
110	0x352e26ed	6.4876696e-07
111	0x34cef268	3.8546864e-07
112	0x00000000	0.0
113	0x00000000	0.0
114	0x2c2ba13f	2.4390071e-12
115	0x2c2ba13f	2.4390071e-12
116	0x3293c033	1.7200454e-08
117	0x32a15e4d	1.878575e-08
118	0x33bb277b	8.7150475e-08
119	0x33c70a22	9.268503e-08
120	0x38f6ac99	0.00011762343
121	0x3923a955	0.00015607972
122	0x38946186	7.075355e-05
123	0x39334c2b	0.00017099145
124	0x37717d27	1.4393859e-05
125	0x379263d1	1.7451037e-05
126	0x36d9e4b3	6.493728e-06
127	0x366b28f7	3.5041573e-06
128	0x3665205e	3.41425e-06
129	0x368b656e	4.154331e-06
130	0x38ec4ad4	0.00011267295
131	0x39967ca3	0.0002870309
132	0x34df9554	4.1645637e-07
133	0x3515a7ea	5.575117e-07
134	0x368d0c76	4.203578e-06
135	0x36a9e37b	5.0630747e-06
136	0x3687e7ad	4.050284e-06
137	0x3612ac9c	2.1856167e-06
138	0x37a0ddb1	1.917672e-05
139	0x380d0069	3.36174e-05
140	0x3725a57f	9.873299e-06
141	0x377f0122	1.5199448e-05
142	0x00000000	0.0
143	0x00000000	0.0
144	0x30bb2b23	1.3618301e-09
145	0x31135b04	2.1443052e-09
146	0x37094457	8.181748e-06
147	0x369366bc	4.3929012e-06
148	0x363be203	2.7996728e-06
149	0x36645bd1	3.4028092e-06
150	0x3396f7e3	7.0300096e-08
151	0x332201d8	3.772024e-08
152	0x00000000	0.0
153	0x00000000	0.0
154	0x00000000	0.0
155	0x00000000	0.0
156	0x33edf2de	1.108035e-07
157	0x34054ce8	1.2414569e-07
158	0x3216453e	8.746893e-09
159	0x328ccb52	1.6390604e-08
160	0x36bd2a85	5.637589e-06
161	0x36e5277c	6.8293284e-06
162	0x349a3ff4	2.8731267e-07
163	0x358891d6	1.0175233e-06
164	0x3687b89a	4.044804e-06
165	0x36a3d28b	4.882289e-06
166	0x00000000	0.0
167	0x00000000	0.0
168	0x32d9c9ae	2.5353838e-08
169	0x32d4fd9a	2.4795373e-08
170	0x366f5ad3	3.5666642e-06
171	0x3690b38f	4.312438e-06
172	0x38f7414d	0.00011790041
173	0x38811694	6.155405e-05
174	0x36a32b35	4.8628085e-06
175	0x36c9c5de	6.0133016e-06
176	0x37641df5	1.3596834e-05
177	0x3789efab	1.6443277e-05
178	0x00000000	0.0
179	0x00000000	0.0
180	0x36e493fc	6.812157e-06
181	0x3688a0ef	4.071851e-06
182	0x374f4d6e	1.23561895e-05
183	0x377ad294	1.495019e-05
184	0x35d7d11f	1.607961e-06
185	0x36074618	2.0157368e-06
186	0x00000000	0.0
187	0x00000000	0.0
188	0x00000000	0.0
189	0x00000000	0.0
190	0x339d8366	7.3347834e-08
191	0x34196b6e	1.4288318e-07
192	0x3498ce05	2.8462105e-07
193	0x34b1956e	3.3077544e-07
194	0x376e5b0c	1.4207104e-05
195	0x379a46ec	1.8391256e-05
196	0x00000000	0.0
197	0x00000000	0.0
198	0x2e44deb8	4.4763054e-11
199	0x2e8dd849	6.4503576e-11
200	0x3767545a	1.3788313e-05
201	0x36fc28dd	7.5149424e-06
202	0x00000000	0.0
203	0x00000000	0.0
204	0x3264ca7b	1.3317385e-08
205	0x325cce7d	1.2852635e-08
206	0x2e31446a	4.0305904e-11
207	0x2e31446a	4.0305904e-11
208	0x38937eda	7.033134e-05
209	0x3864e385	5.457133e-05
210	0x35bc8900	1.4046964e-06
211	0x351e0363	5.8864515e-07
212	0x362d9afc	2.5869222e-06
213	0x36a90c3c	5.0380168e-06
214	0x367d8b2f	3.7780953e-06
215	0x369df41c	4.7073827e-06
216	0x330c0cc6	3.2607907e-08
217	0x3312f376	3.42147e-08
218	0x364a2107	3.011957e-06
219	0x36758043	3.6582503e-06
220	0x390afb91	0.00013254421
221	0x3845fa54	4.7201596e-05
222	0x379b15b7	1.8487552e-05
223	0x372163ce	9.619585e-06
224	0x36c0a1d6	5.740886e-06
225	0x3721c5d4	9.642408e-06
226	0x3853add8	5.0468225e-05
227	0x37e8df80	2.776063e-05
228	0x00000000	0.0
229	0x00000000	0.0
230	0x391d4893	0.00014999723
231	0x39468c7a	0.00018935083
232	0x3709e552	8.219229e-06
233	0x37190674	9.121013e-06
234	0x00000000	0.0
235	0x00000000	0.0
236	0x36ab9473	5.113479e-06
237	0x3709420d	8.181215e-06
238	0x31e57268	6.6777837e-09
239	0x31efe808	6.9821944e-09
240	0x374843c8	1.19367105e-05
241	0x3772f8eb	1.448228e-05
242	0x377df305	1.51365575e-05
243	0x3799eeb2	1.8350172e-05
244	0x36aa1f06	5.0700064e-06
245	0x36d268aa	6.270672e-06
246	0x3760366d	1.3364112e-05
247	0x37876a03	1.614262e-05
248	0x353f667f	7.1302196e-07
249	0x35bcd75e	1.4069772e-06
250	0x36952f5c	4.4460594e-06
251	0x36b776eb	5.467669e-06
252	0x36c7f83f	5.959562e-06
253	0x36f204c7	7.212718e-06
254	0x378a1cf0	1.6464357e-05
255	0x37a826ad	2.004517e-05

grad_avg f4 [200]
0	0x3aa48d6e	0.0012554356
1	0xb9121350	-0.0001393084
2	0x3b824d3b	0.0039764917
3	0x00000000	0.0
4	0x39c70c1a	0.00037965254
5	0x3a4a8e98	0.00077269366
6	0x00000000	0.0
7	0x3a86db3a	0.0010288723
8	0xbbc55abe	-0.00602278
9	0x3a1907bf	0.0005837641
10	0x3ab78c8a	0.0014003676
11	0x3ada6f64	0.0016665277
12	0x3ada4738	0.0016653305
13	0x00000000	0.0
14	0x3a10fb7a	0.0005530637
15	0x3ac38405	0.0014916664
16	0xbb5db8c6	-0.0033832057
17	0x00000000	0.0
18	0x352d873a	6.46443e-07
19	0x3aa1ed32	0.0012354015
20	0x3a1d222c	0.0005994167
21	0x3ae3177e	0.0017325727
22	0x385b0b49	5.222418e-05
23	0x00000000	0.0
24	0x3a451888	0.0007518609
25	0x00000000	0.0
26	0x31ce9130	6.011895e-09
27	0x3b222aa5	0.0024744656
28	0x3ac4349f	0.0014969296
29	0x00000000	0.0
30	0x3594f0c4	1.1096931e-06
31	0x3a7aaae9	0.0009562211
32	0x00000000	0.0
33	0x00000000	0.0
34	0xba077f95	-0.00051688525
35	0xbc267c2d	-0.010161442
36	0x33d93ae7	1.0115564e-07
37	0x3ae1c235	0.0017224016
38	0x3ae2908b	0.0017285509
39	0x391ee14a	0.00015151981
40	0x00000000	0.0
41	0x3b6aabdf	0.003580801
42	0x3a056a17	0.0005089356
43	0xba789396	-0.0009482441
44	0x00000000	0.0
45	0x3afc62d8	0.0019255532
46	0x3a606cef	0.0008561154
47	0x371f55f9	9.497156e-06
48	0xbaaeec67	-0.00133456
49	0x3b008b57	0.0019614303
50	0x3a54b1e5	0.00081136666
51	0x3ac39daf	0.0014924313
52	0x00000000	0.0
53	0x3aa3317a	0.0012450658
54	0x39163332	0.00014324186
55	0x3a7d8e94	0.000967243
56	0x00000000	0.0
57	0x35b507b8	1.3487797e-06
58	0x38eb73e5	0.0001122726
59	0xb735b058	-1.0829499e-05
60	0x3ac3db0a	0.0014942598
61	0x3b7ba21a	0.003839618
62	0x3ae39886	0.0017364181
63	0x39e8a58a	0.00044373824
64	0x3a6a1428	0.0008929395
65	0xbc3a4a6d	-0.011370284
66	0xb8829c50	-6.2279985e-05
67	0x3a7ef54a	0.0009725882
68	0xbb77dbb5	-0.0037820165
69	0x3b43422f	0.0029794087
70	0x3af54149	0.0018711473
71	0x00000000	0.0
72	0x31e41636	6.6381984e-09
73	0x3b7246f4	0.003696856
74	0x3a56abff	0.00081890816
75	0x39a5df10	0.00031637447
76	0x00000000	0.0
77	0x00000000	0.0
78	0xb835a4e0	-4.3307315e-05
79	0x309e7f7a	1.1532244e-09
80	0x3a92804b	0.001117715
81	0xb9b09573	-0.00033680684
82	0x3a7aab81	0.0009562299
83	0x00000000	0.0
84	0x3874ec80	5.839439e-05
85	0x3a6eadbb	0.00091048673
86	0x3b4382a3	0.0029832504
87	0x3a6cb7eb	0.00090300915
88	0x3add7032	0.0016894399
89	0x00000000	0.0
90	0x3a51e0e5	0.0008006229
91	0x3ad26204	0.001605094
92	0x39d2e8c8	0.00040227757
93	0x00000000	0.0
94	0x00000000	0.0
95	0x3744c49c	1.1728287e-05
96	0xb90b6a07	-0.00013295571
97	0x3ac5ccad	0.0015090905
98	0x00000000	0.0
99	0x2e636397	5.1702278e-11
100	0x3b828b1e	0.003983869
101	0x00000000	0.0
102	0x38a09e20	7.6588476e-05
103	0x19f3304d	2.514512e-23
104	0x3b19940d	0.0023434192
105	0x3a664087	0.0008783419
106	0x3a8b3b37	0.0010622506
107	0x3a0301ef	0.00049975415
108	0x381ad116	3.6911188e-05
109	0x3a5d2999	0.00084366795
110	0xbbbfe344	-0.0058559496
111	0x3b11c4e2	0.0022242595
112	0x3aef57a1	0.0018260368
113	0x3925c88c	0.00015810336
114	0x00000000	0.0
115	0x3b262300	0.0025350451
116	0x3b0a635b	0.002111635
117	0x00000000	0.0
118	0x3a83e930	0.0010064002
119	0x2c9e4d4e	4.4992126e-12
120	0x3ad0877b	0.0015909517
121	0x3aea96da	0.001789774
122	0x3a72b9ad	0.0009259235
123	0x3ada370c	0.0016648485
124	0x3a132343	0.00056128594
125	0x3a6289ce	0.00086417503
126	0x3a961bc7	0.001145237
127	0xbb1f0922	-0.0024266918
128	0xba3ad38f	-0.00071268616
129	0x3b7814ef	0.0037854274
130	0x31fc75c1	7.3475523e-09
131	0xbb8bfc95	-0.0042720535
132	0x39fc79b2	0.00048155856
133	0x39abd947	0.00032777546
134	0x00000000	0.0
135	0x3a8807ed	0.0010378339
136	0x3144c997	2.8636344e-09
137	0x00000000	0.0
138	0x00000000	0.0
139	0xbae73cc6	-0.0017642013
140	0x3a993223	0.0011687916
141	0x00000000	0.0
142	0x392735a2	0.00015946341
143	0x39547d17	0.00020264495
144	0x00000000	0.0
145	0x3a02eeec	0.00049947086
146	0xba40e715	-0.00073586527
147	0x3ad84634	0.0016500414
148	0x3b3089ed	0.002693768
149	0x00000000	0.0
150	0x3a83aaef	0.0010045449
151	0x3a94b863	0.0011346455
152	0xb99f0902	-0.00030333555
153	0xb7868315	-1.6035085e-05
154	0x3a606e6a	0.0008561375
155	0x39df9d7a	0.00042651204
156	0x3a9c36b9	0.0011918164
157	0x3ab7963e	0.0014006568
158	0xbbd5c87b	-0.0065241433
159	0x309c1d11	1.1358755e-09
160	0xb6ad3b73	-5.1627226e-06
161	0xb7822f47	-1.5519223e-05
162	0xbbce9e96	-0.006305526
163	0x39af1e92	0.00033401378
164	0x00000000	0.0
165	0xbc1bbc30	-0.009505317
166	0x39af6c7b	0.00033459425
167	0x00000000	0.0
168	0x3a78b7ce	0.0009487838
169	0x3783378f	1.5642288e-05
170	0xb9158b31	-0.000142616
171	0x3a839202	0.001003802
172	0x3b6594d8	0.0035031345
173	0x3a9d4636	0.0011999074
174	0x3ad51916	0.0016258087
175	0x3b5052c2	0.0031787609
176	0x00000000	0.0
177	0x3aa55dde	0.0012616476
178	0x3a20b2af	0.00061301416
179	0x3adc65aa	0.0016814966
180	0x3b642edf	0.0034817976
181	0x00000000	0.0
182	0xb94a2ff6	-0.00019282088
183	0xba3b6ef7	-0.0007150019
184	0x3a1f56f8	0.0006078328
185	0x3ab549ce	0.00138312
186	0x3adb9e14	0.0016755485
187	0x3acf46f1	0.0015813989
188	0x00000000	0.0
189	0x00000000	0.0
190	0x3917a62d	0.00014462387
191	0x3ac9f888	0.0015409151
192	0x00000000	0.0
193	0x3ab3ab1c	0.0013707611
194	0x3acd1919	0.0015647738
195	0x2d9dec5c	1.7953798e-11
196	0x00000000	0.0
197	0x00000000	0.0
198	0x3a8f2d91	0.0010923614
199	0x00000000	0.0

sqr_avg f4 [200]
0	0x39e8a74a	0.00044375128
1	0x39a3a619	0.00031213535
2	0x3a24c7b8	0.0006285864
3	0x00000000	0.0
4	0x3879058e	5.93714e-05
5	0x390ed62c	0.0001362196
6	0x00000000	0.0
7	0x39813ff3	0.00024652443
8	0x3b1da31f	0.0024053527
9	0x37f7214f	2.9460205e-05
10	0x3a1af286	0.00059107726
11	0x3a7c9656	0.0009635439
12	0x3a7a1b58	0.00095408177
13	0x00000000	0.0
14	0x387a1876	5.9627426e-05
15	0x3a2e5b92	0.0006651218
16	0x3a4be26f	0.00077775767
17	0x00000000	0.0
18	0x2d399f79	1.05514425e-11
19	0x39d651d5	0.0004087823
20	0x388a320e	6.589676e-05
21	0x3a8b9a1f	0.001065079
22	0x3ba5e4ed	0.0050626905
23	0x00000000	0.0
24	0x38e8c3b3	0.00011099074
25	0x00000000	0.0
26	0x31b79b47	5.343654e-09
27	0x3a789257	0.00094822556
28	0x3a396cb7	0.000707339
29	0x00000000	0.0
30	0x2c90769b	4.105894e-12
31	0x396118e9	0.00021466952
32	0x00000000	0.0
33	0x00000000	0.0
34	0x3a4b586a	0.000775701
35	0x3bb03286	0.0053771166
36	0x2e1a2ec3	3.505708e-11
37	0x3a89e16d	0.0010519453
38	0x3a87ffaf	0.0010375882
39	0x38688d07	5.5444452e-05
40	0x00000000	0.0
41	0x3b0712d2	0.0020610583
42	0x38661cf9	5.4863256e-05
43	0x39a72482	0.00031879923
44	0x00000000	0.0
45	0x3ab70103	0.0013962094
46	0x38dcd021	0.000105291845
47	0x33bc7d74	8.777252e-08
48	0x3a37a418	0.0007005348
49	0x3aaa30a2	0.0012984464
50	0x3904d915	0.0001266937
51	0x3a3c1266	0.00071743724
52	0x00000000	0.0
53	0x3901a27c	0.00012362929
54	0x3901f538	0.0001239375
55	0x384d61f9	4.8967053e-05
56	0x00000000	0.0
57	0x2d2ad24e	9.710078e-12
58	0x3916fcd1	0.00014399296
59	0x3961c847	0.00021532281
60	0x3ae7f559	0.0017697021
61	0x3b5b9306	0.003350438
62	0x3a8ca6d7	0.0010730874
63	0x38378316	4.3752683e-05
64	0x392f3b2c	0.00016711344
65	0x3b332e57	0.0027340853
66	0x39a0754d	0.00030604974
67	0x396217de	0.00021561931
68	0x37d86bcd	2.5799405e-05
69	0x3a8f1708	0.0010916898
70	0x3a135960	0.0005620923
71	0x00000000	0.0
72	0x321e6083	9.218755e-09
73	0x39e0d6fc	0.00042884785
74	0x39077295	0.00012917288
75	0x38fedae7	0.000121524376
76	0x00000000	0.0
77	0x00000000	0.0
78	0x3977831e	0.000236046
79	0x3377d66a	5.7704177e-08
80	0x39a62f82	0.00031697383
81	0x393aafc3	0.00017803819
82	0x39536736	0.00020160977
83	0x00000000	0.0
84	0x393cc191	0.00018001186
85	0x393b01ed	0.00017834427
86	0x3a836e1b	0.0010027321
87	0x399140bc	0.00027704786
88	0x3a813019	0.0009856253
89	0x00000000	0.0
90	0x3846f1c1	4.743203e-05
91	0x3a66cd37	0.0008804383
92	0x389a997f	7.371883e-05
93	0x00000000	0.0
94	0x00000000	0.0
95	0x34e36f19	4.236288e-07
96	0x39a13dd6	0.00030754384
97	0x3a9dbd72	0.0012034609
98	0x00000000	0.0
99	0x2f751c77	2.2292733e-10
100	0x3a6b9ab3	0.00089875906
101	0x00000000	0.0
102	0x39286eae	0.0001606296
103	0x30130a7c	5.349319e-10
104	0x3a34a459	0.0006890945
105	0x384a1abe	4.818546e-05
106	0x392133a7	0.00015373398
107	0x39498819	0.00019219554
108	0x394d4999	0.00019577741
109	0x3914f59d	0.00014205878
110	0x3b38ad7c	0.0028179577
111	0x3a61690a	0.0008598721
112	0x39d6cc66	0.0004096955
113	0x39d11e59	0.00039886197
114	0x00000000	0.0
115	0x3b140d07	0.0022590773
116	0x38af159e	8.348677e-05
117	0x00000000	0.0
118	0x39d0ac00	0.00039801002
119	0x33230ea1	3.79647e-08
120	0x3a5e299b	0.00084748276
121	0x3a958852	0.0011408424
122	0x399d033c	0.00029947783
123	0x3a7fc3f7	0.0009756679
124	0x385f7af8	5.3281867e-05
125	0x3981ceac	0.0002475878
126	0x39b23d0a	0.00033996283
127	0x3a2b3fcf	0.00065326405
128	0x376ed68c	1.42358585e-05
129	0x3a7a9e84	0.0009560364
130	0x33302de5	4.1019934e-08
131	0x3ad83bd9	0.0016497328
132	0x387cdc24	6.0286504e-05
133	0x38a1c1da	7.713186e-05
134	0x00000000	0.0
135	0x3986259a	0.00025586487
136	0x33d86013	1.00757596e-07
137	0x00000000	0.0
138	0x00000000	0.0
139	0x3aa42e6e	0.0012526044
140	0x39b69045	0.00034821234
141	0x00000000	0.0
142	0x38a7f41d	8.00865e-05
143	0x38dc5045	0.00010505369
144	0x00000000	0.0
145	0x39538d8d	0.0002017526
146	0x37727380	1.4451216e-05
147	0x3a860403	0.0010224584
148	0x39c94cad	0.00038394835
149	0x00000000	0.0
150	0x38f84dbb	0.0001184004
151	0x39af9a8a	0.00033493742
152	0x392074f4	0.00015302357
153	0x34cee205	3.853494e-07
154	0x39409339	0.00018365392
155	0x399751bb	0.00028861858
156	0x3a36d030	0.00069737714
157	0x3b4d811a	0.0031357468
158	0x396dec12	0.00022690024
159	0x31352bba	2.6363822e-09
160	0x39631f9d	0.00021660184
161	0x30ca5e41	1.4724223e-09
162	0x39b651d2	0.00034774706
163	0x38900211	6.86684e-05
164	0x00000000	0.0
165	0x3bc91924	0.00613703
166	0x39cb6793	0.00038796346
167	0x00000000	0.0
168	0x38432ee4	4.6535293e-05
169	0x358af5e3	1.0353364e-06
170	0x36eb4b05	7.012279e-06
171	0x3981b294	0.00024737848
172	0x39e9cce0	0.00044593867
173	0x39cc6fb9	0.00038993152
174	0x3a6627dd	0.0008779744
175	0x3b05c03a	0.0020408765
176	0x00000000	0.0
177	0x39e8b7e8	0.0004438751
178	0x3ab30cf2	0.0013660474
179	0x3a7c02d6	0.00096134597
180	0x3ab194ff	0.0013548433
181	0x00000000	0.0
182	0x398a1f98	0.0002634495
183	0x398dc7c9	0.00027042467
184	0x386f0faf	5.6996647e-05
185	0x398eea2e	0.00027258828
186	0x3a783131	0.00094677793
187	0x3a580205	0.0008240047
188	0x00000000	0.0
189	0x00000000	0.0
190	0x3907f7bd	0.00012966893
191	0x3a4a02cb	0.00077061047
192	0x00000000	0.0
193	0x3a119b93	0.00055544934
194	0x3915e820	0.0001429622
195	0x2b3c7d73	6.6965113e-13
196	0x00000000	0.0
197	0x00000000	0.0
198	0x399ad159	0.00029529145
199	0x00000000	0.0

grad_avg f4 [1, 200]
0	0xbc367ec3	-0.011138621
1	0xbba63c98	-0.0050731413
2	0xbb7c9d5f	-0.003854595
3	0x00000000	0.0
4	0xbc00d862	-0.00786409
5	0xbab16832	-0.0013535081
6	0x00000000	0.0
7	0xbc5688f1	-0.013094173
8	0x39855522	0.00025431166
9	0xbb101ad4	-0.0021988647
10	0xbc080263	-0.00830135
11	0xbc09bfd2	-0.00840755
12	0xbbd989bd	-0.006638734
13	0x00000000	0.0
14	0xbc132238	-0.008980326
15	0xbbbd928f	-0.0057852934
16	0xbba0cae6	-0.004907
17	0x00000000	0.0
18	0x32199064	8.938603e-09
19	0xbc0f0983	-0.008730295
20	0xbbede8c7	-0.0072604152
21	0xbc08ffa8	-0.008361734
22	0x37cf6414	2.4722925e-05
23	0x00000000	0.0
24	0xbb82c26f	-0.0039904634
25	0x00000000	0.0
26	0xaeeab5c2	-1.0673375e-10
27	0x3a4ee367	0.0007892162
28	0xbc0fa769	-0.008767941
29	0x00000000	0.0
30	0x32a7fb8b	1.9555747e-08
31	0xbae0e7ea	-0.001715896
32	0x00000000	0.0
33	0x00000000	0.0
34	0xbb28db65	-0.0025765535
35	0xbbc4446c	-0.005989602
36	0x30bc8898	1.3717623e-09
37	0xbc34ea18	-0.01104214
38	0xbb72e7d4	-0.003706445
39	0xbb84346f	-0.004034571
40	0x00000000	0.0
41	0x3a8a6aa5	0.0010560347
42	0xbbd9522a	-0.006632109
43	0xba9bf852	-0.0011899567
44	0x00000000	0.0
45	0xbb0c61a0	-0.0021420494
46	0xbb27244d	-0.0025503815
47	0x37802d7a	1.5279966e-05
48	0xbb25fc4a	-0.0025327378
49	0xbab0f0a3	-0.001349945
50	0xbbbd4833	-0.005776429
51	0xbc20b9d5	-0.009809931
52	0x00000000	0.0
53	0xbb60faaa	-0.0034329095
54	0xbac827ca	-0.0015270647
55	0xbb8493e0	-0.0040459484
56	0x00000000	0.0
57	0x32099891	8.009139e-09
58	0xbc30b105	-0.010784392
59	0xbae84c15	-0.001772287
60	0x3b310fe6	0.0027017533
61	0xb85381e1	-5.042728e-05
62	0xbc2bbb16	-0.0104816165
63	0x39bf89a9	0.00036532924
64	0xbc3c3885	-0.011488085
65	0x3a3638b6	0.00069511996
66	0xbb71f483	-0.0036919422
67	0xbb42e146	-0.0029736324
68	0xbb743dd1	-0.003726829
69	0xbacc1ab1	-0.001557192
70	0xbb0ee5c4	-0.0021804431
71	0x00000000	0.0
72	0xb1be42b6	-5.537312e-09
73	0xbb58d702	-0.003308714
74	0xbc1e1635	-0.009648849
75	0xbb0bd5f3	-0.002133724
76	0x00000000	0.0
77	0x00000000	0.0
78	0xbc575d65	-0.013144826
79	0x30e9ef07	1.7020917e-09
80	0xbc0b5294	-0.008503575
81	0x3b2a077f	0.002594441
82	0xbb84c333	-0.00405159
83	0x00000000	0.0
84	0xbc274a9b	-0.010210658
85	0xbb7afd10	-0.003829781
86	0x3b1e740b	0.0024178054
87	0xbb59e882	-0.0033250158
88	0xbb7addd0	-0.0038279183
89	0x00000000	0.0
90	0x39702618	0.00022902375
91	0xbc25c4dc	-0.010117736
92	0xbb0fa47a	-0.0021918104
93	0x00000000	0.0
94	0x00000000	0.0
95	0xb94eb403	-0.0001971275
96	0xbb9484e1	-0.004532442
97	0xbad46869	-0.0016205433
98	0x00000000	0.0
99	0x29d32462	9.376594e-14
100	0xbbdffd1b	-0.0068355924
101	0x00000000	0.0
102	0xbc494b65	-0.012286042
103	0x182a4dd9	2.2011288e-24
104	0x3a4a9d15	0.00077290955
105	0xbacb4209	-0.0015507351
106	0xbb0720b0	-0.0020618849
107	0xbb8272df	-0.003980979
108	0xbba7c7fd	-0.005120276
109	0xbc0a867c	-0.008454915
110	0xbbac36bc	-0.0052555483
111	0xbae6d988	-0.0017612437
112	0x3adae010	0.0016698856
113	0x3abc188a	0.0014350575
114	0x00000000	0.0
115	0x3b2a4d93	0.002598618
116	0x3a2a0ab9	0.0006486583
117	0x00000000	0.0
118	0xba84e129	-0.0010137904
119	0x2c2d4759	2.4624385e-12
120	0xbc62af86	-0.013835793
121	0xbb8d9c03	-0.0043215766
122	0xbaee07db	-0.00181603
123	0xbb9ceca9	-0.0047889543
124	0x39108f97	0.00013786402
125	0xbb10adf8	-0.002207635
126	0xbbf3ec28	-0.0074439235
127	0xba3f8b30	-0.00073068123
128	0x3975b322	0.00023431753
129	0xbbdbb304	-0.00670469
130	0xb16e95fe	-3.471882e-09
131	0xb9a10e65	-0.00030719038
132	0x3ae4a640	0.0017444566
133	0xbbd7b15d	-0.0065824226
134	0x00000000	0.0
135	0xbbb63bbc	-0.00556132
136	0x3132e6cc	2.6033602e-09
137	0x00000000	0.0
138	0x00000000	0.0
139	0xba5fc396	-0.00085359195
140	0xbbd667b0	-0.006543122
141	0x00000000	0.0
142	0xbb6e6d36	-0.0036381013
143	0xbc2a631b	-0.010399605
144	0x00000000	0.0
145	0xbb1f67f9	-0.0024323447
146	0x39956f08	0.0002850222
147	0xb9eec9b9	-0.00045545193
148	0xbc247c37	-0.010039381
149	0x00000000	0.0
150	0xbb06b516	-0.0020554713
151	0xbc644d57	-0.013934455
152	0x3b1fa1db	0.0024357948
153	0xb957304e	-0.00020521993
154	0xbad0d4c5	-0.0015932551
155	0xbb74ea36	-0.0037371046
156	0xbb3af296	-0.002852594
157	0x376ab3e8	1.3989375e-05
158	0x3afd0db2	0.001930645
159	0x2df3bbb7	2.7709264e-11
160	0xbbc63727	-0.006049055
161	0x37333c3f	1.0683259e-05
162	0x3b62c67b	0.0034603167
163	0xbbb8fbf6	-0.0056452705
164	0x00000000	0.0
165	0xbbe2ffe4	-0.006927477
166	0x3a8c2b8b	0.0010694129
167	0x00000000	0.0
168	0xbbe9caf1	-0.007134788
169	0xb98d37d9	-0.00026935225
170	0x39a8cda3	0.00032196668
171	0x39f240b4	0.00046206044
172	0xbbc21927	-0.0059234085
173	0xbc170a90	-0.009218827
174	0xbb91bcea	-0.004447569
175	0xbb040fb3	-0.002015096
176	0x00000000	0.0
177	0xbb0224c6	-0.0019858344
178	0x380828b1	3.2462824e-05
179	0xbbf99e81	-0.007617772
180	0x3a6163af	0.0008597923
181	0x00000000	0.0
182	0xbb45539b	-0.0030109647
183	0x3b587b44	0.0033032456
184	0x3ad6fa15	0.0016401435
185	0xbb5c8436	-0.003364814
186	0xbb81c632	-0.0039603943
187	0xbb9c8256	-0.0047762794
188	0x00000000	0.0
189	0x00000000	0.0
190	0xbc4a9a46	-0.012365883
191	0xbc4454d3	-0.011983114
192	0x00000000	0.0
193	0xbbbc1b07	-0.0057405266
194	0xbb028b41	-0.0019919428
195	0x2b614315	8.0029153e-13
196	0x00000000	0.0
197	0x00000000	0.0
198	0xbc1e25e8	-0.009652592
199	0x00000000	0.0
