trees/save/0.5_3_200/models/model.pth (torch, 14520 bytes, 12 tensors)

node_factors.weight f4 [26, 1]
0.00035771937 -0.10002451 -0.10831939 -0.10383656 -0.11296707 -0.11026082 -0.11190033 -0.10461217
-0.107249275 -0.110124916 -0.08481626 -0.077490225 -0.08480918 -0.09743763 -0.091195166 -0.09759527
-0.108776756 -0.097161405 -0.08736789 -0.10982157 -0.08359758 -0.09760119 -0.049009595 -0.09291252
-0.076975144 -0.07601437
00000000: 488c bb39 a6d9 ccbd 8ed6 ddbd 43a8 d4bd
00000010: 475b e7bd 6dd0 e1bd 002c e5bd e83e d6bd
00000020: 82a5 dbbd 2c89 e1bd 26b4 adbd 32b3 9ebd
00000030: 6fb0 adbd 618d c7bd 88c4 babd 07e0 c7bd
00000040: 59c6 debd 8ffc c6bd f0ed b2bd 22ea e0bd
00000050: 3535 abbd 22e3 c7bd 49be 48bd eb48 bebd
00000060: 25a5 9dbd 6cad 9bbd

layers.0.weight f4 [200, 2]
0.29216772 -0.26898044 -0.38157016 0.5901313 -0.3211126 -0.14157066 -0.69315016 0.48048517
0.53504556 0.25737506 -0.49241853 -0.69698185 -0.6990764 0.42171955 0.3390531 0.5942745
0.36995974 0.178735 -0.118566334 -0.64804214 -0.6050565 -0.6605481 0.17441395 -0.46081483
-0.14212562 -0.40642467 -0.12868716 -0.4970517 -0.57037455 0.12607792 -0.3214754 0.3250548
-0.22655678 -0.518049 -0.12460203 -0.34233102 -0.2160575 -0.6723039 0.3951153 -0.4916631
0.35495105 0.32046455 0.50453585 -0.5416959 0.4843496 -0.35594636 0.26205096 0.66320735
-0.20957354 -0.114715286 -0.27129698 -0.6976212 0.33890983 -0.7010625 0.43841198 0.5284002
0.579613 -0.25439143 -0.58024764 0.1587763 0.3901269 -0.7028918 -0.16029695 -0.4233385
-0.05253248 -0.33741415 -0.28867367 -0.22419095 -0.77951044 0.47180632 0.64532727 -0.057979558
-0.19330639 -0.40044686 -0.5840346 -0.6338824 0.26246694 -0.3877392 -0.45400286 -0.055100363
-0.23517412 -0.22847204 0.10727652 -0.06615072 -0.2431552 -0.33813512 -0.68485826 0.48275122
-0.2826141 0.18712983 -0.35772523 -0.054660883 0.5459331 0.21355239 -0.5283701 0.36267626
0.75013256 0.2646578 0.4529995 0.67610633 -0.21576393 0.03901014 -0.49083725 -0.14553268
0.52300406 0.362033 -0.36233434 -0.48268968 -0.52888805 -0.7419194 -0.6478187 -0.27735874
0.47660166 0.11820618 -0.6518954 -0.6807023 0.35131946 -0.5253045 -0.08695321 0.33877078
-0.32684022 -0.07700454 -0.06147125 -0.16707636 -0.32044476 -0.59178776 -0.54122615 -0.34813336
0.6820793 -0.34110737 -0.40423036 0.24043445 0.19463736 0.3869366 0.62105364 0.47657928
-0.7002029 0.06263235 0.42778593 -0.065271296 -0.41615182 0.6732533 -0.26414025 -0.40207395
-0.7600345 -0.09164893 0.19670756 0.04061774 0.019986926 -0.654825 -0.77048594 -0.09859807
0.7231357 0.48571295 -0.42590335 -0.1050168 -0.635188 -0.45468682 0.014468015 0.27175295
0.5849984 -0.64837086 0.3582876 -0.61136454 0.34818262 0.68041545 0.009916798 0.6425116
-0.6017231 -0.26974156 0.41189608 -0.15385939 -0.21417134 -0.36307392 0.48679146 0.34639567
0.1178489 -0.5045543 -0.67541724 -0.025577744 0.20923363 -0.3260632 -0.309238 0.3659842
0.056256082 0.0318628 -0.09116873 -0.55782855 -0.58398694 -0.2584487 -0.3589792 0.22002068
-0.12099967 -0.1926393 0.55986863 0.13315877 0.38479328 -0.46010864 -0.28846124 0.25955886
-0.4705268 -0.46164906 -0.034109477 -0.258302 -0.52941227 0.41889176 0.53122234 0.07930926
-0.2343443 -0.7648326 -0.3704246 0.066476256 0.3329975 -0.08927671 -0.39472398 0.27854946
-0.67786175 0.33145562 -0.27397564 0.010808749 -0.13955727 0.08561956 -0.21341401 0.51350087
0.06609136 0.63477117 0.67900246 -0.34405667 -0.5151828 0.5665899 0.4418207 -0.6501122
-0.170839 -0.8121209 -0.6907381 0.02440779 0.18787496 0.14970204 -0.19220403 0.6515289
0.020003805 -0.49709427 -0.15504798 0.05509323 0.13775527 -0.6081625 0.14876005 -0.47614998
-0.7006905 -0.49899083 0.56628567 0.48949417 0.63239527 0.41455016 0.53350234 -0.09452536
00000000: 0297 953e ceb7 89be 2a5d c3be d812 173f
00000010: df68 a4be e6f7 10be 4a72 31bf 2702 f63e
00000020: bff8 083f aac6 833e 481e fcbe 676d 32bf
00000030: acf6 32bf a0eb d73e 5e98 ad3e 6022 183f
00000040: 5d6b bd3e 4f06 373e e8d2 f2bd 17e6 25bf
00000050: fce4 1abf ae19 29bf 9299 323e ecef ebbe
00000060: 6189 11be e516 d0be 91c6 03be 8f7d febe
00000070: 1104 12bf 921a 013e 6c98 a4be 956d a63e
00000080: 80fe 67be dc9e 04bf 592f ffbd 0346 afbe
00000090: 2d3e 5dbe 1c1c 2cbf 8d4c ca3e 44bb fbbe
000000a0: 25bc b53e ee13 a43e 4329 013f 95ac 0abf
000000b0: acfc f73e 9a3e b6be 8b2b 863e f5c7 293f
000000c0: 729a 56be d9ef eabd 70e7 8abe 4e97 32bf
000000d0: 9785 ad3e d578 33bf 8977 e03e 3c45 073f
000000e0: 8461 143f 983f 82be 1c8b 14bf 4196 223e
000000f0: b7be c73e b8f0 33bf e224 24be d3bf d8be
00000100: 4c2c 57bd 8cc1 acbe 09cd 93be 5092 65be
00000110: ff8d 47bf 9990 f13e 2b34 253f f97b 6dbd
00000120: 1cf2 45be 5f07 cdbe 4b83 15bf 1e46 22bf
00000130: 1162 863e c185 c6be 1073 e8be ebb0 61bd
00000140: 7cd1 70be 93f4 69be cbb3 db3d 077a 87bd
00000150: adfd 78be 0c20 adbe df52 2fbf 2b2b f73e
00000160: ccb2 90be f69e 3f3e c327 b7be 17e4 5fbd
00000170: 46c2 0b3f 7aad 5a3e 4343 07bf b4b0 b93e
00000180: b008 403f 3a81 873e 8def e73e 4e15 2d3f
00000190: 38f1 5cbe 19c9 1f3d 054f fbbe 8506 15be
000001a0: 98e3 053f 645c b93e e383 b9be 1a23 f7be
000001b0: 3565 07bf 6eee 3dbf 72d7 25bf f701 8ebe
000001c0: 2205 f43e 1516 f23d 9ee2 26bf 8242 2ebf
000001d0: 25e0 b33e 5b7a 06bf 8614 b2bd 5d73 ad3e
000001e0: 9a57 a7be 8eb4 9dbd 47c9 7bbd 1116 2bbe
000001f0: 5611 a4be 677f 17bf cc8d 0abf 893e b2be
00000200: c09c 2e3f a0a5 aebe 48f7 cebe 7334 763e
00000210: 044f 473e 8e1c c63e 5ffd 1e3f 3302 f43e
00000220: 7f40 33bf 6445 803d c206 db3e f5ac 85bd
00000230: da11 d5be 545a 2c3f 643d 87be a3dc cdbe
00000240: 9f91 42bf 6fb2 bbbd b56d 493e ca5e 263d
00000250: 9fbb a33c 9ca2 27bf 913e 45bf c9ed c9bd
00000260: 6c1f 393f 5eaf f83e 0110 dabe 0c13 d7bd
00000270: ae9b 22bf b6cc e8be 410b 6d3c 3423 8b3e
00000280: 75c2 153f a2fb 25bf 7971 b73e 6382 1cbf
00000290: fe44 b23e b52f 2e3f 117a 223c a47b 243f
000002a0: 860a 1abf 911b 8abe 0be4 d23e 518d 1dbe
000002b0: bb4f 5bbe d3e4 b9be bb3c f93e c65a b13e
000002c0: c45a f13d 782a 01bf 25e8 2cbf 6b88 d1bc
000002d0: 5741 563e c1f1 a6be 7154 9ebe 4862 bb3e
000002e0: c76c 663d 9182 023d acb6 babd dacd 0ebf
000002f0: 2b80 15bf 6353 84be 1fcc b7be 1a4d 613e
00000300: adce f7bd 3d43 45be 8d53 0f3f c65a 083e
00000310: a003 c53e 5c93 ebbe 31b1 93be e6e4 843e
00000320: e4e8 f0be 445d ecbe 61b6 0bbd 2940 84be
00000330: 9087 07bf fb78 d63e 30fe 073f e56c a23d
00000340: f4f7 6fbe 12cc 43bf 4ba8 bdbe b424 883d
00000350: a67e aa3e b5d6 b6bd 4319 cabe 099e 8e3e
00000360: 5988 2dbf 8db4 a93e 8946 8cbe 2e17 313c
00000370: 1ae8 0ebe 4f59 af3d 3489 5abe cb74 033f
00000380: e85a 873d 5d80 223f 1bd3 2d3f 3228 b0be
00000390: 05e3 03bf 090c 113f 5336 e23e c16d 26bf
000003a0: 6bf0 2ebe 28e7 4fbf 36d4 30bf d8f2 c73c
000003b0: 4b62 403e 7e4b 193e 22d1 44be 99ca 263f
000003c0: 05df a33c 2483 febe e6c4 1ebe 70a9 613d
000003d0: b80f 0d3e 8ab0 1bbf 8e54 183e eec9 f3be
000003e0: 7460 33bf ba7b ffbe 19f8 103f fb9e fa3e
000003f0: a8e4 213f eb3f d43e 9c93 083f 8396 c1bd

layers.0.bias f4 [200]
-0.23609264 0.63575625 -0.17439531 -0.05244608 -0.58713275 -0.39556056 0.08924844 -0.43922603
-0.087688036 0.35332355 -0.6916758 0.27998185 -0.46754476 -0.34510422 0.33393276 0.6279526
-0.19325839 -0.29031616 -0.6393913 -0.36462504 -0.6191688 -0.1618359 0.11979906 -0.6624712
0.6811027 0.50588524 -0.69221926 -0.33773753 0.24982077 -0.14528187 -0.07705801 -0.31926978
0.53660786 -0.39527142 0.6483966 0.008934552 0.20908786 0.5119686 -0.11650687 -0.40258652
-0.114363365 0.5256269 -0.5246643 0.22421385 -0.6949385 0.4378268 0.3282481 -0.017300682
0.2573917 -0.018599188 0.46290618 -0.5597602 -0.10384039 0.26578003 0.68626827 0.41801816
-0.51418996 0.6140251 -0.15768358 -0.1509775 -0.6426962 -0.11130873 0.46365196 0.06351528
-0.41185713 0.1743036 -0.22672981 0.5978695 -0.61373657 -0.22335772 -0.6827636 -0.27848
0.31992534 0.75396407 0.19828595 0.7729424 0.09255919 0.38172296 0.63683033 0.6594308
-0.39578444 0.7191093 0.3808482 -0.33062828 -0.33743373 -0.5930831 0.17238848 -0.57314485
0.36069694 0.27864066 -0.6143359 0.2583351 -0.057509374 0.27581045 0.35937947 -0.7029667
0.6005958 0.6614509 0.35984743 -0.64626807 -0.25259322 -0.20492582 -0.18172498 0.37773433
0.32223138 0.64444613 -0.26482788 0.3095284 0.3229163 -0.58873063 -0.6859076 -0.36690998
0.43626422 -0.6657125 -0.61548966 0.46174258 0.45431793 0.64857817 -0.5338223 -0.5175313
0.3695384 0.68591565 0.48628154 0.18240537 0.30147368 0.7418403 -0.45622835 -0.32103482
0.55814075 -0.48383048 -0.38990757 0.4805954 0.2882518 0.2970869 -0.2997004 -0.023218267
0.6052353 -0.42441967 0.07123685 0.40547183 -0.48815557 0.7330708 -0.353278 -0.16980182
-0.19132207 -0.46079242 -0.69385886 0.35166422 0.16166992 -0.66227674 -0.45511287 0.7710059
0.2359701 0.24942827 -0.42306063 -0.30999285 -0.10674068 -0.12931563 -0.48454377 0.01484219
0.02327891 -0.08953457 0.072295725 -0.2802622 0.14360504 0.21960461 -0.37246072 -0.70115227
0.4342672 0.16763616 -0.359626 0.7574706 -0.3197876 0.44063467 0.43776217 -0.59284407
0.4098695 -0.65016556 -0.39174753 -0.11788524 -0.47662285 0.7527604 -0.14183122 0.3483175
-0.6313841 0.3919103 -0.21975729 -0.5378758 0.17463812 0.41202405 0.6801148 -0.4318956
-0.34797028 0.19912231 0.25698417 0.3636816 0.41042936 -0.16033909 0.45669726 0.4938484
00000000: 45c2 71be ecc0 223f af94 32be b3d1 56bd
00000010: 554e 16bf ea86 cabe e3c7 b63d 3ce2 e0be
00000020: c995 b3bd d3e6 b43e aa11 31bf c859 8f3e
00000030: 0762 efbe 80b1 b0be 3cf9 aa3e 80c1 203f
00000040: 87e5 45be 52a4 94be 26af 23bf 22b0 babe
00000050: d981 1ebf 4fb8 25be 3659 f53d b697 29bf
00000060: bf5c 2e3f b281 013f 4835 31bf efeb acbe
00000070: 04d1 7f3e c5c4 14be 97d0 9dbd 5477 a3be
00000080: 225f 093f 0461 cabe 52fd 253f 3a62 123c
00000090: 211b 563e 6010 033f 279b eebd d21f cebe
000000a0: 5737 eabd 7c8f 063f 6650 06bf 5198 653e
000000b0: 7de7 31bf d62a e03e 2310 a83e 29ba 8dbc
000000c0: d8c8 833e 535d 98bc 0a02 ed3e 724c 0fbf
000000d0: 45aa d4bd 5214 883e 47af 2f3f 7a06 d63e
000000e0: f4a1 03bf c030 1d3f ce77 21be d999 1abe
000000f0: bd87 24bf d5f5 e3bd ca63 ed3e 4d14 823d
00000100: f0de d2be a57c 323e dc2b 68be fa0d 193f
00000110: d71d 1dbf e3b7 64be 98c9 2ebf ee94 8ebe
00000120: 41cd a33e ca03 413f 790b 4b3e 8edf 453f
00000130: ac8f bd3d 3171 c33e 5007 233f 75d0 283f
00000140: 42a4 cabe 8c17 383f 89fe c23e 1c48 a9be
00000150: 1dc4 acbe 4bd4 17bf 9b86 303e 9fb9 12bf
00000160: 45ad b83e fda9 8e3e 1e45 1dbf 8044 843e
00000170: f38e 6bbd 0737 8d3e 9600 b83e a0f5 33bf
00000180: a5c0 193f d954 293f ec3d b83e d371 25bf
00000190: e653 81be 13d8 51be 1d16 3abe 6566 c13e
000001a0: 83fb a43e 6cfa 243f 8597 87be 827a 9e3e
000001b0: 4955 a53e 0db7 16bf a497 2fbf a0db bbbe
000001c0: 065e df3e 226c 2abf bb90 1dbf 8669 ec3e
000001d0: 5c9c e83e 3809 263f 94a8 08bf ee7c 04bf
000001e0: 2334 bd3e 2b98 2f3f e5f9 f83e 79c8 3a3e
000001f0: c25a 9a3e 3fe9 3d3f c396 e9be ad5e a4be
00000200: 50e2 0e3f a1b8 f7be f7a1 c7be 9a10 f63e
00000210: bd95 933e c61b 983e 5572 99be 3c34 bebc
00000220: b3f0 1a3f 894d d9be a0e4 913d 019a cf3e
00000230: 87ef f9be 87aa 3b3f dbe0 b4be 87e0 2dbe
00000240: efe9 43be fcec ebbe bca0 31bf 550d b43e
00000250: cd8c 253e f88a 29bf 8e04 e9be a560 453f
00000260: 25a2 713e 206a 7f3e 679b d8be 62b7 9ebe
00000270: dc9a dabd 516b 04be 1f16 f8be a82c 733c
00000280: 6ab3 be3c e75d b7bd c80f 943d 877e 8fbe
00000290: 330d 133e 08e0 603e 2cb3 bebe b77e 33bf
000002a0: 4558 de3e d0a8 2b3e e620 b8be 98e9 413f
000002b0: 33bb a3be de9a e13e 5d22 e03e a1c4 17bf
000002c0: 6ada d13e 4071 26bf 2293 c8be d16d f1bd
000002d0: e907 f4be e8b4 403f 343c 11be ac56 b23e
000002e0: 63a2 21bf 78a8 c83e 0e08 61be 3ab2 09bf
000002f0: 56d4 323e d1f4 d23e 011c 2e3f 6c21 ddbe
00000300: 2929 b2be b8e6 4b3e 6e93 833e 7a34 ba3e
00000310: cc23 d23e ee2f 24be 39d4 e93e b3d9 fc3e

layers.2.weight f4 [1, 200]
-0.018447593 -0.0045415005 0.03450373 0.061343577 -0.04013179 -0.034873027 -0.1435216 0.0035823171
0.04238636 -0.09882765 0.035356443 -0.08369459 0.04266251 -0.003352867 -0.11985774 -0.095170125
-0.051111728 0.035025105 -0.04735445 -0.0058839754 0.015236785 -0.038727913 -0.03166555 -0.06895549
-0.10707697 -0.121729046 -0.021361103 -0.02572687 -0.043404702 -0.0130587565 0.033197433 0.06474458
-0.029915294 -0.027822187 -0.12269315 -0.012491055 -0.0956768 -0.020211007 0.047208734 0.027239775
0.066263966 0.012251568 0.014953177 -0.11023455 0.06309527 -0.090854734 -0.08886887 0.014978824
0.0025956102 0.0029254155 -0.051681973 -0.059403565 -0.007330699 0.011834938 -0.038072873 -0.050945956
-0.014664416 -0.082388066 0.04209142 0.004355061 0.04594388 -0.012499732 -0.024991428 -0.02765478
0.011261436 -0.009785874 0.04425405 0.011558794 0.05429134 -0.01805742 -0.059788737 0.012910662
-0.060498063 -0.07444041 -0.073899634 -0.053280465 0.004996954 -0.03330664 -0.082506426 -0.085053414
-0.017487846 -0.08376163 0.010378588 0.037403822 0.063768595 0.00022553484 -0.041187443 0.024488697
-0.12452926 -0.05088489 -0.004723805 -0.09715141 -0.054797787 0.006978852 0.0016030011 0.032730386
0.012151972 -0.084271304 -0.069566995 0.026738243 -0.011668387 -0.013858199 -0.058372177 -0.034601513
-0.10199914 -0.05382696 0.06885328 -0.07940344 -0.08031123 0.042606257 -0.025963852 -0.006064707
0.012104357 -0.028952546 -0.05052263 -0.096471064 -0.07775847 -0.09046354 -0.03664721 0.028526757
-0.043465097 -0.07897724 -0.112059005 -0.083188325 -0.08995497 -0.0782732 -0.063708425 0.015213709
-0.10858709 -0.054999184 -0.057699285 -0.025123945 -0.101278454 -0.089177065 0.05535521 0.02527279
-0.013905776 -0.06705464 -0.14257006 -0.08230769 0.058339413 -0.048788585 -0.05281688 0.0004422133
-0.05484888 -0.015472901 -0.019418877 0.0063272663 -0.034852225 -0.012314174 0.011929835 -0.076475136
-0.02527743 -0.026310615 0.018964857 -0.027526243 0.060249932 -0.010195481 -0.027493732 -0.009525044
0.0108264685 0.07027867 -0.030596606 -0.024074094 -0.013574868 0.00767829 -0.06926701 -0.008748959
-0.106155805 -0.039282143 0.029207565 -0.07003004 -0.00590791 -0.023996267 -0.070596226 -0.059305653
0.00055978034 -0.035544332 -0.007758263 0.0066613765 -0.004244069 -0.12293692 0.0324007 -0.08898509
-0.036628004 -0.037532907 -0.036854167 -0.03263793 -0.08867023 -0.08484364 -0.085435875 -0.019045351
0.01835256 -0.11927734 -0.10266764 -0.053989712 -0.04533765 0.039003167 -0.10616925 -0.032797966
00000000: 681f 97bc ded0 94bb c853 0d3d 6743 7b3d
00000010: 3b61 24bd 05d7 0ebd 54f7 12be 4fc5 6a3b
00000020: 529d 2d3d 2766 cabd ebd1 103d 1268 abbd
00000030: e2be 2e3d c6bb 5bbb fa77 f5bd 8ee8 c2bd
00000040: 885a 51bd 7c76 0f3d bdf6 41bd 5dce c0bb
00000050: b5a3 793c 29a1 1ebd bcb3 01bd 8938 8dbd
00000060: 2c4b dbbd 144d f9bd 7bfd aebc 28c1 d2bc
00000070: 21c9 31bd 65f4 55bc 08fa 073d ce98 843d
00000080: eb10 f5bc 5beb e3bc 8c46 fbbd 48a7 4cbc
00000090: 33f2 c3bd 8e91 a5bc f25d 413d f325 df3c
000000a0: 67b5 873d cdba 483c 2cfe 743c a7c2 e1bd
000000b0: 1838 813d 0c12 babd e200 b6bd be69 753c
000000c0: 1d1b 2a3b 54b8 3f3b 7ab0 53bd 2751 73bd
000000d0: 5c36 f0bb 54e7 413c 4df2 1bbd b5ac 50bd
000000e0: 0543 70bc 13bb a8bd 0e68 2c3d e6b4 8e3b
000000f0: a62f 3c3d adcb 4cbc d3ba ccbc 478c e2bc
00000100: e381 383c ee54 20bc bc43 353d 1961 3d3c
00000110: 9960 5e3d 28ed 93bc 09e5 74bd 3e87 533c
00000120: d1cc 77bd 3774 98bd b158 97bd 9e3c 5abd
00000130: 7dbd a33b 8b6c 08bd 21f9 a8bd 7c30 aebd
00000140: ac42 8fbc 388b abbd f40a 2a3c c034 193d
00000150: 1c99 823d 8c7d 6c39 2ab4 28bd 859c c83c
00000160: 3209 ffbd ad6c 50bd 26ca 9abb 52f7 c6bd
00000170: a573 60bd dbae e43b cb1b d23a 4c10 063d
00000180: 1119 473c 6f96 acbd 2479 8ebd 290a db3c
00000190: c32c 3fbc 800d 63bc aa17 6fbd 51ba 0dbd
000001a0: ede4 d0bd a979 5cbd f302 8d3d 459e a2bd
000001b0: 377a a4bd e683 2e3d 25b2 d4bc 73ba c6bb
000001c0: 5a51 463c e42d edbc d1f0 4ebd 9f92 c5bd
000001d0: d53f 9fbd f344 b9bd 631b 16bd f2b0 e93c
000001e0: 7508 32bd d2be a1bd 317f e5bd a45e aabd
000001f0: 503a b8bd b34d a0bd 9079 82bd ec42 793c
00000200: e962 debd d346 61bd 1656 6cbd bbd0 cdbc
00000210: 146b cfbd 77a2 b6bd 25bc 623d e208 cf3c
00000220: 0dd5 63bc f153 89bd e3fd 11be ef90 a8bd
00000230: 4ff5 6e3d 8ad6 47bd 8356 58bd ddd8 e739
00000240: 38a9 60bd 0d82 7dbc 5614 9fbc f554 cf3b
00000250: 35c1 0ebd 64c1 49bc 5b75 433c ff9e 9cbd
00000260: 9d12 cfbc 5c89 d7bc 305c 9b3c b77e e1bc
00000270: a2c8 763d f20a 27bc 893a e1bc ee0e 1cbc
00000280: 8061 313c 43ee 8f3d bca5 fabc 0937 c5bc
00000290: 2069 5ebc 2a9a fb3b dddb 8dbd cb57 0fbc
000002a0: 3768 d9bd 50e6 20bd b444 ef3c e96b 8fbd
000002b0: 2497 c1bb d293 c4bc c194 90bd 7cea 72bd
000002c0: 39be 123a ef96 11bd 0739 febb ad47 da3b
000002d0: d511 8bbb 5ac6 fbbd 99b6 043d d13d b6bd
000002e0: 3f07 16bd 1bbc 19bd 65f4 16bd 5aaf 05bd
000002f0: bd98 b5bd 81c2 adbd 01f9 aebd ff04 9cbc
00000300: 1c58 963c ae47 f4bd 6943 d2bd 5124 5dbd
00000310: f9b3 39bd c9c1 1f3d 446f d9bd 2957 06bd

grad_avg f4 [26, 1]
0.0 0.14236787 0.1649256 0.15122753 0.17187713 0.107537985 0.202438 0.13010828
0.19101132 0.1296489 0.14202194 -0.016225595 0.15531869 0.22389226 0.0065697115 0.08917916
0.116499536 0.005247303 0.02475366 0.17593937 0.035646107 0.2365862 -0.1420203 0.12112003
-0.096254 0.044928577
00000000: 0000 0000 e2c8 113e 42e2 283e 64db 1a3e
00000010: 8f00 303e e03c dc3d e84b 4f3e 1b3b 053e
00000020: 7998 433e aec2 043e 336e 113e 8aeb 84bc
00000030: dd0b 1f3e 0344 653e bc46 d73b 90a3 b63d
00000040: 4f97 ee3d 91f1 ab3b 30c8 ca3c 7329 343e
00000050: a701 123d a743 723e c56d 11be c70d f83d
00000060: d120 c5bd 0707 383d

sqr_avg f4 [26, 1]
0.0 0.03794991 0.041081488 0.036074243 0.06251226 0.053891867 0.08900069 0.061705846
0.096072845 0.09384175 0.06473021 0.03250726 0.113503285 0.09786319 0.041971054 0.04328993
0.047747087 0.09497047 0.056981616 0.1251093 0.09020823 0.16763099 0.04264303 0.14312327
0.077313006 0.10629094
00000000: 0000 0000 5d71 1b3d 1045 283d 96c2 133d
00000010: 6e06 803d b8bd 5c3d fe45 b63d 45bf 7c3d
00000020: d7c1 c43d 1a30 c03d 4691 843d 5526 053d
00000030: 6974 e83d 7f6c c83d d7e9 2b3d c850 313d
00000040: 7392 433d e17f c23d 8e65 693d a71c 003e
00000050: 18bf b83d 75a7 2b3e 75aa 2e3d e88e 123e
00000060: 4856 9e3d 10af d93d

grad_avg f4 [200, 2]
0.0 0.0 -0.0015071967 -0.001542822 0.0 0.0 -4.127899e-06 -2.955153e-06
0.0 0.0 0.0 0.0 0.010572797 0.010947044 0.0 0.0
0.0 0.0 0.0102815125 0.010671373 0.0 0.0 0.0083576115 0.00867841
0.0 0.0 0.0 0.0 0.0130037805 0.013490802 0.009965035 0.010341814
0.0 0.0 0.0 0.0 0.0 0.0 0.0 0.0
0.0 0.0 0.0 0.0 0.002126958 0.002219699 0.0 0.0
0.011469492 0.01190038 0.013259236 0.013755223 0.0 0.0 0.0 0.0
0.0035222385 0.00366622 0.0 0.0 0.0 0.0 0.0 0.0
0.001699086 0.0017787934 0.0 0.0 0.013462672 0.0139650265 -0.00023921613 -0.0002501503
0.009730682 0.01010251 0.00039912402 0.00043292964 0.0 0.0 0.0 0.0
0.0 0.0 -0.0036545214 -0.0037670925 0.0 0.0 0.011721499 0.01216317
0.0 0.0 0.009343045 0.009698348 0.009216485 0.009565783 -0.0029738212 -0.0030650124
-0.0022380461 -0.0023019498 8.109187e-06 1.0450651e-05 0.00440887 0.004586579 0.0 0.0
0.0 0.0 -0.003677258 -0.0037897592 0.0026850803 0.0028007794 0.004252195 0.004425019
0.0 0.0 0.008232853 0.008548695 0.0 0.0 0.0 0.0
0.0 0.0 0.0 0.0 0.0010296553 0.0010858342 0.0012863375 0.0013527395
0.0 0.0 -0.0007999373 -0.00081062585 0.0 0.0 -0.0035023314 -0.003610181
0.0 0.0 0.0 0.0 0.0 0.0 0.0 0.0
0.0052870815 0.0054990835 0.0073371525 0.007619505 0.006851077 0.007120835 0.0045868293 0.0047711846
-0.0018783419 -0.0019336146 0.002124867 0.0022199317 0.008270495 0.008587423 0.008693444 0.009024404
0.0 0.0 0.008497183 0.008821471 -0.0032994312 -0.0034006068 0.0 0.0
0.0 0.0 0.0 0.0 0.0031075426 0.0032381706 0.0 0.0
0.013621457 0.014130372 0.0042200014 0.004392002 0.0 0.0 0.010133928 0.010517732
0.0 0.0 -0.0030323083 -0.0031219781 -0.002364136 -0.0024296425 0.0 0.0
-0.0036700263 -0.003782827 0.008621126 0.008949175 0.006621866 0.0068796547 0.0 0.0
0.0 0.0 0.0 0.0 0.0 0.0 0.0024092211 0.002513109
0.01063112 0.0110341525 0.0046703443 0.0048575383 0.0 0.0 0.007858481 0.00816083
0.007947667 0.008253518 0.0 0.0 0.0 0.0 0.0 0.0
-0.0035683757 -0.0036786324 0.0 0.0 0.0 0.0 0.010087881 0.0104695605
0.0076126135 0.007906553 0.009319563 0.0096737165 0.0 0.0 0.0 0.0
0.003406259 0.003547468 0.007892349 0.008194885 0.012061859 0.012514492 0.008117055 0.008431264
0.009035365 0.009381864 0.007876967 0.00817809 0.0 0.0 0.0 0.0
00000000: 0000 0000 0000 0000 218d c5ba 8438 caba
00000010: 0000 0000 0000 0000 6282 8ab6 2451 46b6
00000020: 0000 0000 0000 0000 0000 0000 0000 0000
00000030: 8639 2d3c 3b5b 333c 0000 0000 0000 0000
00000040: 0000 0000 0000 0000 ca73 283c fcd6 2e3c
00000050: 0000 0000 0000 0000 5dee 083c e42f 0e3c
00000060: 0000 0000 0000 0000 0000 0000 0000 0000
00000070: cf0d 553c 8608 5d3c 6344 233c b670 293c
00000080: 0000 0000 0000 0000 0000 0000 0000 0000
00000090: 0000 0000 0000 0000 0000 0000 0000 0000
000000a0: 0000 0000 0000 0000 0000 0000 0000 0000
000000b0: 6f64 0b3b 5f78 113b 0000 0000 0000 0000
000000c0: 89ea 3b3c d0f9 423c 443d 593c 965d 613c
000000d0: 0000 0000 0000 0000 0000 0000 0000 0000
000000e0: 5bd5 663b f744 703b 0000 0000 0000 0000
000000f0: 0000 0000 0000 0000 0000 0000 0000 0000
00000100: deb3 de3a 6726 e93a 0000 0000 0000 0000
00000110: 8a92 5c3c 91cd 643c 17d6 7ab9 9b26 83b9
00000120: 706d 1f3c 0085 253c 8541 d139 d5fa e239
00000130: 0000 0000 0000 0000 0000 0000 0000 0000
00000140: 0000 0000 0000 0000 b280 6fbb 53e1 76bb
00000150: 0000 0000 0000 0000 880b 403c 0848 473c
00000160: 0000 0000 0000 0000 9213 193c d2e5 1e3c
00000170: bd00 173c cdb9 1c3c 71e4 42bb 60de 48bb
00000180: 2fac 12bb 4fdc 16bb b10c 0837 3455 2f37
00000190: 4878 903b 034b 963b 0000 0000 0000 0000
000001a0: 0000 0000 0000 0000 27fe 70bb 9c5d 78bb
000001b0: 2cf8 2f3b 488d 373b ff55 8b3b c0ff 903b
000001c0: 0000 0000 0000 0000 17e3 063c d30f 0c3c
000001d0: 0000 0000 0000 0000 0000 0000 0000 0000
000001e0: 0000 0000 0000 0000 0000 0000 0000 0000
000001f0: 80f5 863a 8d52 8e3a 539a a83a 684e b13a
00000200: 0000 0000 0000 0000 e2b2 51ba 2e80 54ba
00000210: 0000 0000 0000 0000 5f87 65bb c998 6cbb
00000220: 0000 0000 0000 0000 0000 0000 0000 0000
00000230: 0000 0000 0000 0000 0000 0000 0000 0000
00000240: 413f ad3b a831 b43b 7f6c f03b 0aad f93b
00000250: 007f e03b e555 e93b 1d4d 963b 9957 9c3b
00000260: b232 f6ba 5771 fdba 5a41 0b3b 467c 113b
00000270: f880 073c 43b2 0c3c f26e 0e3c 18db 133c
00000280: 0000 0000 0000 0000 c537 0b3c ee87 103c
00000290: 453b 58bb b7dc 5ebb 0000 0000 0000 0000
000002a0: 0000 0000 0000 0000 0000 0000 0000 0000
000002b0: eaa7 4b3b 7d37 543b 0000 0000 0000 0000
000002c0: 882c 5f3c 1383 673c f047 8a3b c8ea 8f3b
000002d0: 0000 0000 0000 0000 c608 263c 9152 2c3c
000002e0: 0000 0000 0000 0000 b1b9 46bb 1a9a 4cbb
000002f0: 9fef 1abb a33a 1fbb 0000 0000 0000 0000
00000300: d384 70bb 4ee9 77bb a03f 0d3c 8f9f 123c
00000310: 3dfc d83b ba6e e13b 0000 0000 0000 0000
00000320: 0000 0000 0000 0000 0000 0000 0000 0000
00000330: 0000 0000 0000 0000 06e4 1d3b f9b2 243b
00000340: 262e 2e3c 97c8 343c b009 993b fc2b 9f3b
00000350: 0000 0000 0000 0000 dcc0 003c 00b5 053c
00000360: ee36 023c c339 073c 0000 0000 0000 0000
00000370: 0000 0000 0000 0000 0000 0000 0000 0000
00000380: 69db 69bb 3615 71bb 0000 0000 0000 0000
00000390: 0000 0000 0000 0000 a447 253c 8588 2b3c
000003a0: 3b73 f93b 7d8a 013c 15b1 183c 827e 1e3c
000003b0: 0000 0000 0000 0000 0000 0000 0000 0000
000003c0: 8b3b 5f3b a37c 683b e94e 013c d743 063c
000003d0: 1a9f 453c 9509 4d3c 65fd 043c 4923 0a3c
000003e0: 1109 143c 64b6 193c 650e 013c 65fd 053c
000003f0: 0000 0000 0000 0000 0000 0000 0000 0000

sqr_avg f4 [200, 2]
0.0 0.0 9.234134e-05 0.00010121001 0.0 0.0 3.787276e-11 1.9410142e-11
0.0 0.0 0.0 0.0 0.00016778962 0.00016533841 0.0 0.0
0.0 0.0 0.00034261466 0.00036286408 0.0 0.0 0.00019922096 0.00021024286
0.0 0.0 0.0 0.0 0.0006180639 0.0006566205 0.00032389938 0.0003430165
0.0 0.0 0.0 0.0 0.0 0.0 0.0 0.0
0.0 0.0 0.0 0.0 9.967222e-06 1.0789379e-05 0.0 0.0
0.00046005164 0.0004881292 0.00064924295 0.0006899101 0.0 0.0 0.0 0.0
1.8703779e-05 1.9421894e-05 0.0 0.0 0.0 0.0 0.0 0.0
1.3258678e-05 1.4637298e-05 0.0 0.0 0.00067972555 0.0007225134 1.1388643e-05 1.2775859e-05
0.0002900489 0.0003067966 3.3224216e-05 3.6803885e-05 0.0 0.0 0.0 0.0
0.0 0.0 0.00020873974 0.00022721029 0.0 0.0 0.00047557038 0.0005045688
0.0 0.0 0.00027113638 0.00028678813 0.00026742922 0.00028290643 0.00015319028 0.00016649983
0.000119490775 0.00013060482 2.159632e-07 3.752512e-07 3.2990843e-05 3.4282097e-05 0.0 0.0
0.0 0.0 0.00021368911 0.00023258403 1.1420616e-05 1.2128991e-05 2.9093822e-05 3.020426e-05
0.0 0.0 0.0001929611 0.00020360836 0.0 0.0 0.0 0.0
0.0 0.0 0.0 0.0 2.1189855e-05 2.3534574e-05 1.8254457e-05 2.0261923e-05
0.0 0.0 6.389162e-05 7.028366e-05 0.0 0.0 0.00019592345 0.00021333674
0.0 0.0 0.0 0.0 0.0 0.0 0.0 0.0
5.22154e-05 5.4426713e-05 0.00014462403 0.00015230369 0.000108094 0.0001134225 3.6663685e-05 3.812346e-05
0.00010263798 0.00011225014 1.1127184e-05 1.2113526e-05 0.0001962123 0.00020707451 0.00022823148 0.00024117295
0.0 0.0 0.00021361915 0.00022561413 0.00018080459 0.00019697381 0.0 0.0
0.0 0.0 0.0 0.0 1.370608e-05 1.4326583e-05 0.0 0.0
0.0006931023 0.00073672464 2.8326425e-05 2.9403991e-05 0.0 0.0 0.00033351727 0.00035321066
0.0 0.0 0.00017186558 0.00018736096 0.00013532401 0.00014782001 0.0 0.0
0.00021112288 0.0002297964 0.00022441258 0.0002371231 0.000106188745 0.00011150358 0.0 0.0
0.0 0.0 0.0 0.0 0.0 0.0 1.0449682e-05 1.1188634e-05
0.00037003073 0.00039204056 3.8858812e-05 4.04273e-05 0.0 0.0 0.00017029309 0.00017952103
0.00017464759 0.00018413673 0.0 0.0 0.0 0.0 0.0 0.0
0.00019993415 0.00021766909 0.0 0.0 0.0 0.0 0.00033187753 0.00035148923
0.00015492899 0.00016318867 0.00027062322 0.0002862565 0.0 0.0 0.0 0.0
1.6633854e-05 1.729937e-05 0.00017551315 0.00018510432 0.00051784905 0.0005497408 0.00017762503 0.00018721554
0.00023999372 0.00025354777 0.00017729495 0.0001870288 0.0 0.0 0.0 0.0
00000000: 0000 0000 0000 0000 61a7 c138 b640 d438
00000010: 0000 0000 0000 0000 f090 262e c1bb aa2d
00000020: 0000 0000 0000 0000 0000 0000 0000 0000
00000030: aff0 2f39 b15e 2d39 0000 0000 0000 0000
00000040: 0000 0000 0000 0000 f6a0 b339 cb3e be39
00000050: 0000 0000 0000 0000 f8e5 5039 a374 5c39
00000060: 0000 0000 0000 0000 0000 0000 0000 0000
00000070: 9105 223a 0e21 2c3a 0ad1 a939 e5d6 b339
00000080: 0000 0000 0000 0000 0000 0000 0000 0000
00000090: 0000 0000 0000 0000 0000 0000 0000 0000
000000a0: 0000 0000 0000 0000 0000 0000 0000 0000
000000b0: e438 2737 0804 3537 0000 0000 0000 0000
000000c0: 1633 f139 98eb ff39 f531 2a3a 15db 343a
000000d0: 0000 0000 0000 0000 0000 0000 0000 0000
000000e0: 0fe6 9c37 33ec a237 0000 0000 0000 0000
000000f0: 0000 0000 0000 0000 0000 0000 0000 0000
00000100: 9771 5e37 b792 7537 0000 0000 0000 0000
00000110: 9c2f 323a 0e67 3d3a d911 3f37 e657 5637
00000120: b411 9839 8bd9 a039 3b5a 0b38 df5d 1a38
00000130: 0000 0000 0000 0000 0000 0000 0000 0000
00000140: 0000 0000 0000 0000 26e1 5a39 4c3f 6e39
00000150: 0000 0000 0000 0000 fa55 f939 0a45 043a
00000160: 0000 0000 0000 0000 4f27 8e39 0d5c 9639
00000170: be35 8c39 0f53 9439 b4a1 2039 7596 2e39
00000180: 1f97 fa38 f7f2 0839 83e3 6734 2276 c934
00000190: a65f 0a38 1fca 0f38 0000 0000 0000 0000
000001a0: 0000 0000 0000 0000 bc11 6039 cde1 7339
000001b0: 2c9b 3f37 9f7d 4b37 820e f437 285f fd37
000001c0: 0000 0000 0000 0000 9a55 4a39 b47f 5539
000001d0: 0000 0000 0000 0000 0000 0000 0000 0000
000001e0: 0000 0000 0000 0000 0000 0000 0000 0000
000001f0: dec0 b137 1d6c c537 2621 9937 26f8 a937
00000200: 0000 0000 0000 0000 8dfd 8538 4165 9338
00000210: 0000 0000 0000 0000 cd70 4d39 25b3 5f39
00000220: 0000 0000 0000 0000 0000 0000 0000 0000
00000230: 0000 0000 0000 0000 0000 0000 0000 0000
00000240: dc01 5b38 3d48 6438 38a6 1739 b6b3 1f39
00000250: 86b0 e238 3edd ed38 55c7 1938 c1e6 1f38
00000260: 593f d738 d667 eb38 e4ae 3a37 333b 4b37
00000270: 57be 4d39 2422 5939 6c51 6f39 5fe3 7c39
00000280: 0000 0000 0000 0000 f4fe 5f39 d592 6c39
00000290: 5d96 3d39 c18a 4e39 0000 0000 0000 0000
000002a0: 0000 0000 0000 0000 0000 0000 0000 0000
000002b0: 2af3 6537 355c 7037 0000 0000 0000 0000
000002c0: 4fb1 353a c120 413a 899e ed37 97a8 f637
000002d0: 0000 0000 0000 0000 eedb ae39 222f b939
000002e0: 0000 0000 0000 0000 d136 3439 5376 4439
000002f0: c3e5 0d39 2200 1b39 0000 0000 0000 0000
00000300: de60 5d39 80f5 7039 4b50 6b39 3fa4 7839
00000310: a6b1 de38 07d7 e938 0000 0000 0000 0000
00000320: 0000 0000 0000 0000 0000 0000 0000 0000
00000330: 0000 0000 0000 0000 0b51 2f37 d1b6 3b37
00000340: af00 c239 cb8a cd39 55fc 2238 7c90 2938
00000350: 0000 0000 0000 0000 b490 3239 cf3d 3c39
00000360: 9b21 3739 d414 4139 0000 0000 0000 0000
00000370: 0000 0000 0000 0000 0000 0000 0000 0000
00000380: 6aa5 5139 1a3e 6439 0000 0000 0000 0000
00000390: 0000 0000 0000 0000 d9ff ad39 1648 b839
000003a0: 6f74 2239 a01d 2b39 6fe2 8d39 b214 9639
000003b0: 0000 0000 0000 0000 0000 0000 0000 0000
000003c0: ee88 8b37 1d1e 9137 f409 3839 9018 4239
000003d0: 43c0 073a 7b1c 103a db40 3a39 4a4f 4439
000003e0: d3a6 7b39 9bee 8439 40e8 3939 291d 4439
000003f0: 0000 0000 0000 0000 0000 0000 0000 0000

grad_avg f4 [200]
0.0 0.07770794 0.0 4.2010033e-05 0.0 0.0 -0.16659597 0.0
0.0 -0.21921597 0.0 -0.1704202 0.0 0.0 -0.28874645 -0.2127084
0.0 0.0 0.0 0.0 0.0 0.0 -0.016679099 0.0
-0.25077125 -0.2954172 0.0 0.0 -0.05110682 0.0 0.0 0.0
-0.0034501904 0.0 -0.30140257 0.023031397 -0.20370242 0.03020931 0.0 0.0
0.0 0.13229536 0.0 -0.25560722 0.0 -0.19618398 -0.19423737 0.11144421
0.09440761 0.002243613 -0.07176503 0.0 0.0 0.13360687 -0.0279484 -0.067187876
0.0 -0.16769417 0.0 0.0 0.0 0.0 0.013972808 0.007994684
0.0 0.05926738 0.0 0.12778884 0.0 0.0 0.0 0.0
-0.09139443 -0.14614205 -0.12959369 -0.07589806 0.08560119 -0.014239138 -0.16887775 -0.1806074
0.0 -0.17530628 0.12208588 0.0 0.0 0.0 -0.03924579 0.0
-0.3046536 -0.06629726 0.0 -0.21612169 0.0 0.116969556 0.100189336 0.0
0.132979 -0.17904738 -0.12703185 0.0 0.0 0.0 0.0 -0.022688195
-0.22753698 -0.078164384 0.0 -0.15824018 -0.1602382 0.0 0.0 0.0
0.12941739 0.0 0.0 -0.21538469 -0.15164106 -0.19586226 0.0 0.0
-0.04673744 -0.16000248 -0.26537117 -0.16252144 -0.1864176 -0.16036338 0.0 0.0
-0.25530028 0.0 0.0 0.010497326 -0.22656356 -0.18419272 0.0 0.00036382084
0.04638346 0.0 -0.28022623 -0.17259668 0.0 -0.06274583 0.0 0.0
0.0 0.0 0.0 0.11304815 -0.015680922 0.0 0.0 -0.1525767
0.0062333853 0.0058468794 0.0 0.0 0.0 0.0 0.0 0.059514277
0.10660016 0.0 -0.01429169 0.0 0.03549611 0.11283427 0.0 0.0
-0.24425602 -0.040290065 0.0 -0.13324471 0.0 0.017051127 -0.12704694 0.0
0.09711326 0.0 0.0 0.0 0.0 -0.30234167 0.0 -0.19119638
0.0 -0.03015587 0.0 0.0 -0.17072485 -0.17431317 -0.18202172 0.0
0.0 -0.27678233 -0.22824474 -0.08203344 -0.053546507 0.0 -0.24780047 -0.012576993
00000000: 0000 0000 5725 9f3d 0000 0000 ee33 3038
00000010: 0000 0000 0000 0000 2298 2abe 0000 0000
00000020: 0000 0000 277a 60be 0000 0000 a282 2ebe
00000030: 0000 0000 0000 0000 93d6 93be 3bd0 59be
00000040: 0000 0000 0000 0000 0000 0000 0000 0000
00000050: 0000 0000 0000 0000 9ba2 88bc 0000 0000
00000060: 1765 80be ec40 97be 0000 0000 0000 0000
00000070: 6355 51bd 0000 0000 0000 0000 0000 0000
00000080: 971c 62bb 0000 0000 7051 9abe 57ac bc3c
00000090: 5e97 50be 8479 f73c 0000 0000 0000 0000
000000a0: 0000 0000 6f78 073e 0000 0000 f3de 82be
000000b0: 0000 0000 74e4 48be 29e6 46be dd3c e43d
000000c0: c758 c13d 9409 133b 8bf9 92bd 0000 0000
000000d0: 0000 0000 3dd0 083e 0bf4 e4bc cc99 89bd
000000e0: 0000 0000 05b8 2bbe 0000 0000 0000 0000
000000f0: 0000 0000 0000 0000 34ee 643c 23fc 023c
00000100: 0000 0000 5ac2 723d 0000 0000 14db 023e
00000110: 0000 0000 0000 0000 0000 0000 0000 0000
00000120: 012d bbbd 43a6 15be 35b4 04be 7170 9bbd
00000130: ad4f af3d 464b 69bc 4aee 2cbe 25f1 38be
00000140: 0000 0000 7d83 33be 2908 fa3d 0000 0000
00000150: 0000 0000 0000 0000 32c0 20bd 0000 0000
00000160: 8ffb 9bbe dcc6 87bd 0000 0000 014f 5dbe
00000170: 0000 0000 bc8d ef3d 1130 cd3d 0000 0000
00000180: a62b 083e 3258 37be a314 02be 0000 0000
00000190: 0000 0000 0000 0000 0000 0000 98dc b9bc
000001a0: 74ff 68be a614 a0bd 0000 0000 b709 22be
000001b0: 7c15 24be 0000 0000 0000 0000 0000 0000
000001c0: fe85 043e 0000 0000 0000 0000 ce8d 5cbe
000001d0: cb47 1bbe 1e90 48be 0000 0000 0000 0000
000001e0: c26f 3fbd b1d7 23be bbde 87be 056c 26be
000001f0: 41e4 3ebe 4c36 24be 0000 0000 0000 0000
00000200: b8b6 82be 0000 0000 0000 0000 fafc 2b3c
00000210: 4700 68be 049d 3cbe 0000 0000 35bf be39
00000220: 95fc 3d3d 0000 0000 d079 8fbe 2fbd 30be
00000230: 0000 0000 e380 80bd 0000 0000 0000 0000
00000240: 0000 0000 0000 0000 0000 0000 ca85 e73d
00000250: 4775 80bc 0000 0000 0000 0000 113d 1cbe
00000260: 6d41 cc3b 2e97 bf3b 0000 0000 0000 0000
00000270: 0000 0000 0000 0000 0000 0000 3ec5 733d
00000280: 2f51 da3d 0000 0000 b127 6abc 0000 0000
00000290: 5e64 113d a715 e73d 0000 0000 0000 0000
000002a0: 401e 7abe 3207 25bd 0000 0000 4d71 08be
000002b0: 0000 0000 ceae 8b3c 9818 02be 0000 0000
000002c0: 51e3 c63d 0000 0000 0000 0000 0000 0000
000002d0: 0000 0000 87cc 9abe 0000 0000 fcc8 43be
000002e0: 0000 0000 7109 f7bc 0000 0000 0000 0000
000002f0: 7fd2 2ebe 277f 32be e763 3abe 0000 0000
00000300: 0000 0000 6ab6 8dbe fdb8 69be 2601 a8bd
00000310: 9553 5bbd 0000 0000 68bf 7dbe bb0f 4ebc

sqr_avg f4 [200]
0.0 1.4462956 0.0 3.9226076e-09 0.0 0.0 0.13500726 0.0
0.0 1.549123 0.0 0.722683 0.0 0.0 3.2977958 1.452585
0.0 0.0 0.0 0.0 0.0 0.0 0.18506971 0.0
2.2930834 3.5053864 0.0 0.0 0.045435417 0.0 0.0 0.0
0.30661482 0.0 3.719662 0.31440926 1.2212344 0.6831827 0.0 0.0
0.0 2.7177966 0.0 2.3709822 0.0 1.1334054 1.123324 2.0721223
1.7461872 0.019223407 0.033567272 0.0 0.0 2.7751434 0.13951138 0.03266499
0.0 0.69238263 0.0 0.0 0.0 0.0 0.4826353 0.42366293
0.0 1.0984125 0.0 2.5788195 0.0 0.0 0.0 0.0
0.06292732 0.44927564 0.25642046 0.036810495 1.5328941 0.22152509 0.71160185 0.8960839
0.0 0.8119595 2.415294 0.0 0.0 0.0 0.08390396 0.0
3.7954543 0.032713924 0.0 1.5011156 0.0 2.3332996 1.9384319 0.0
2.7451084 0.87687075 0.2631105 0.0 0.0 0.0 0.0 0.15728478
1.7094425 0.039727155 0.0 0.5727971 0.59371465 0.0 0.0 0.0
2.6201072 0.0 0.0 1.4958495 0.49174574 1.1330304 0.0 0.0
0.06032899 0.6062983 2.655679 0.59506154 0.9380276 0.6209072 0.0 0.0
2.4035866 0.0 0.0 0.4346696 1.697614 0.9049132 0.0 0.0012075268
0.8947746 0.0 2.3524256 0.781653 0.0 0.034039475 0.0 0.0
0.0 0.0 0.0 2.2228148 0.21830422 0.0 0.0 0.51988375
0.3783214 0.38417357 0.0 0.0 0.0 0.0 0.0 1.0910414
1.9544065 0.0 0.19679877 0.0 0.6815653 2.181141 0.0 0.0
2.108528 0.071063675 0.0 0.32728848 0.0 0.51668435 0.25552854 0.0
1.8715878 0.0 0.0 0.0 0.0 3.7508264 0.0 1.0542964
0.0 0.12076396 0.0 0.0 0.66230226 0.7778328 0.91866034 0.0
0.0 2.8634868 1.7147605 0.04783996 0.044124357 0.0 2.2196476 0.23395652
00000000: 0000 0000 3720 b93f 0000 0000 9fc7 8631
00000010: 0000 0000 0000 0000 583f 0a3e 0000 0000
00000020: 0000 0000 aa49 c63f 0000 0000 c101 393f
00000030: 0000 0000 0000 0000 160f 5340 4eee b93f
00000040: 0000 0000 0000 0000 0000 0000 0000 0000
00000050: 0000 0000 0000 0000 ea82 3d3e 0000 0000
00000060: e1c1 1240 4058 6040 0000 0000 0000 0000
00000070: 7d1a 3a3d 0000 0000 0000 0000 0000 0000
00000080: 9efc 9c3e 0000 0000 f10e 6e40 40fa a03e
00000090: 6951 9c3f 10e5 2e3f 0000 0000 0000 0000
000000a0: 0000 0000 61f0 2d40 0000 0000 2cbe 1740
000000b0: 0000 0000 6e13 913f 15c9 8f3f a79d 0440
000000c0: 1083 df3f 687a 9d3c d67d 093d 0000 0000
000000d0: 0000 0000 f39b 3140 12dc 0e3e b9cb 053d
000000e0: 0000 0000 fd3f 313f 0000 0000 0000 0000
000000f0: 0000 0000 0000 0000 f91b f73e 59ea d83e
00000100: 0000 0000 c898 8c3f 0000 0000 610b 2540
00000110: 0000 0000 0000 0000 0000 0000 0000 0000
00000120: 0ae0 803d 7507 e63e 8b49 833e 9ac6 163d
00000130: e035 c43f 79d7 623e 8a2b 363f c165 653f
00000140: 0000 0000 94dc 4f3f 2d94 1a40 0000 0000
00000150: 0000 0000 0000 0000 d7d5 ab3d 0000 0000
00000160: b9e8 7240 09ff 053d 0000 0000 8e24 c03f
00000170: 0000 0000 c854 1540 891e f83f 0000 0000
00000180: dbaf 2f40 9a7a 603f 6bb6 863e 0000 0000
00000190: 0000 0000 0000 0000 0000 0000 430f 213e
000001a0: 03cf da3f f1b8 223d 0000 0000 d5a2 123f
000001b0: affd 173f 0000 0000 0000 0000 0000 0000
000001c0: d6af 2740 0000 0000 0000 0000 ff77 bf3f
000001d0: 19c6 fb3e 2407 913f 0000 0000 0000 0000
000001e0: 881b 773d 5e36 1b3f a5f6 2940 f455 183f
000001f0: 9422 703f c6f3 1e3f 0000 0000 0000 0000
00000200: 5dd4 1940 0000 0000 0000 0000 048d de3e
00000210: 6a4b d93f 64a8 673f 0000 0000 e045 9e3a
00000220: f30f 653f 0000 0000 248e 1640 691a 483f
00000230: 0000 0000 fa6c 0b3d 0000 0000 0000 0000
00000240: 0000 0000 0000 0000 0000 0000 9942 0e40
00000250: 248b 5f3e 0000 0000 0000 0000 1a17 053f
00000260: 58b3 c13e 66b2 c43e 0000 0000 0000 0000
00000270: 0000 0000 0000 0000 0000 0000 3fa7 8b3f
00000280: fe29 fa3f 0000 0000 9e85 493e 0000 0000
00000290: 107b 2e3f d097 0b40 0000 0000 0000 0000
000002a0: 1ff2 0640 d589 913d 0000 0000 5b92 a73e
000002b0: 0000 0000 6d45 043f a3d4 823e 0000 0000
000002c0: 3090 ef3f 0000 0000 0000 0000 0000 0000
000002d0: 0000 0000 8a0d 7040 0000 0000 2ff3 863f
000002e0: 0000 0000 1853 f73d 0000 0000 0000 0000
000002f0: a48c 293f 0d20 473f 532d 6b3f 0000 0000
00000300: 0000 0000 5e43 3740 467d db3f d5f3 433d
00000310: bebb 343d 0000 0000 b50e 0e40 4c92 6f3e

grad_avg f4 [1, 200]
0.0 2.1070292 0.0 2.175894e-07 0.0 0.0 0.09936453 0.0
0.0 1.1158441 0.0 0.80485386 0.0 0.0 1.016131 1.9030781
0.0 0.0 0.0 0.0 0.0 0.0 0.38527757 0.0
2.12432 1.6449383 0.0 0.0 0.6749733 0.0 0.0 0.0
1.8233708 0.0 2.0178246 0.04412358 0.6214452 1.8773313 0.0 0.0
0.0 1.782922 0.0 0.62465495 0.0 1.3380536 0.83221453 0.045086067
0.78244406 0.00047069203 1.3264781 0.0 0.0 1.0555949 2.383492 1.3001459
0.0 2.021924 0.0 0.0 0.0 0.0 1.6713345 0.36533815
0.0 0.6554966 0.0 1.879311 0.0 0.0 0.0 0.0
0.9369794 2.264234 0.5615245 2.4106212 0.23138182 1.3235246 2.064395 1.9627174
0.0 2.2274537 1.1829942 0.0 0.0 0.0 0.595464 0.0
1.0996425 0.82298976 0.0 0.6979034 0.0 1.0614547 1.3532408 0.0
2.0718946 1.9177231 1.0158155 0.0 0.0 0.0 0.0 1.1479433
1.0462891 1.9174123 0.0 0.8715909 0.94470084 0.0 0.0 0.0
1.40552 0.0 0.0 1.3959557 1.453566 2.0534873 0.0 0.0
1.194293 2.0922863 1.5149299 0.4895199 0.99509215 2.1247816 0.0 0.0
1.7155734 0.0 0.0 1.5854502 0.8743848 0.9683912 0.0 1.7352995e-05
1.9527018 0.0 0.13400306 1.084111 0.0 2.3168464 0.0 0.0
0.0 0.0 0.0 1.2434285 0.6792648 0.0 0.0 2.3349125
0.74996185 0.859682 0.0 0.0 0.0 0.0 0.0 0.1814515
0.12128086 0.0 0.25766352 0.0 0.387549 0.7316289 0.0 0.0
1.3926879 0.46335667 0.0 2.1797285 0.0 1.5902884 1.4125144 0.0
1.5330912 0.0 0.0 0.0 0.0 2.3730245 0.0 0.9824277
0.0 1.2422265 0.0 0.0 0.57021177 1.3146303 2.023586 0.0
0.0 0.64641577 0.80504715 0.83955085 1.2505252 0.0 1.3486503 1.6868036
00000000: 0000 0000 91d9 0640 0000 0000 85a2 6934
00000010: 0000 0000 0000 0000 a17f cb3d 0000 0000
00000020: 0000 0000 fbd3 8e3f 0000 0000 e70a 4e3f
00000030: 0000 0000 0000 0000 9510 823f 1098 f33f
00000040: 0000 0000 0000 0000 0000 0000 0000 0000
00000050: 0000 0000 0000 0000 1a43 c53e 0000 0000
00000060: dcf4 0740 578d d23f 0000 0000 0000 0000
00000070: 0dcb 2c3f 0000 0000 0000 0000 0000 0000
00000080: 3764 e93f 0000 0000 0a24 0140 edba 343d
00000090: 0817 1f3f 644c f03f 0000 0000 0000 0000
000000a0: 0000 0000 ca36 e43f 0000 0000 63e9 1f3f
000000b0: 0000 0000 5745 ab3f 030c 553f 2bac 383d
000000c0: 414e 483f 37c7 f639 09ca a93f 0000 0000
000000d0: 0000 0000 bc1d 873f 228b 1840 2e6b a63f
000000e0: 0000 0000 3467 0140 0000 0000 0000 0000
000000f0: 0000 0000 0000 0000 4aee d53f 9a0d bb3e
00000100: 0000 0000 a0ce 273f 0000 0000 438d f03f
00000110: 0000 0000 0000 0000 0000 0000 0000 0000
00000120: e2dd 6f3f 36e9 1040 12c0 0f3f 9e47 1a40
00000130: 5bef 6c3e 4169 a93f 0c1f 0440 533a fb3f
00000140: 0000 0000 9a8e 0e40 5b6c 973f 0000 0000
00000150: 0000 0000 0000 0000 5470 183f 0000 0000
00000160: 16c1 8c3f 75af 523f 0000 0000 cca9 323f
00000170: 0000 0000 bfdd 873f ff36 ad3f 0000 0000
00000180: ec99 0440 f377 f53f 3e06 823f 0000 0000
00000190: 0000 0000 0000 0000 0000 0000 ceef 923f
000001a0: cdec 853f c46d f53f 0000 0000 9520 5f3f
000001b0: ead7 713f 0000 0000 0000 0000 0000 0000
000001c0: 14e8 b33f 0000 0000 0000 0000 adae b23f
000001d0: 730e ba3f 566c 0340 0000 0000 0000 0000
000001e0: 98de 983f 05e8 0540 39e9 c13f 5aa2 fa3e
000001f0: 5cbe 7e3f 6cfc 0740 0000 0000 0000 0000
00000200: e997 db3f 0000 0000 0000 0000 08f0 ca3f
00000210: afd7 5f3f 7ce8 773f 0000 0000 4691 9137
00000220: 22f2 f93f 0000 0000 1938 093e 26c4 8a3f
00000230: 0000 0000 3647 1440 0000 0000 0000 0000
00000240: 0000 0000 0000 0000 0000 0000 aa28 9f3f
00000250: 4ce4 2d3f 0000 0000 0000 0000 356f 1540
00000260: 80fd 3f3f 1f14 5c3f 0000 0000 0000 0000
00000270: 0000 0000 0000 0000 0000 0000 6cce 393e
00000280: 1962 f83d 0000 0000 79ec 833e 0000 0000
00000290: d36c c63e 084c 3b3f 0000 0000 0000 0000
000002a0: 9943 b23f 163d ed3e 0000 0000 ac80 0b40
000002b0: 0000 0000 928e cb3f 46cd b43f 0000 0000
000002c0: 553c c43f 0000 0000 0000 0000 0000 0000
000002d0: 0000 0000 a2df 1740 0000 0000 6280 7b3f
000002e0: 0000 0000 4701 9f3f 0000 0000 0000 0000
000002f0: 66f9 113f ce45 a83f 6f82 0140 0000 0000
00000300: 0000 0000 817b 253f 9217 4e3f ceec 563f
00000310: 3611 a03f 0000 0000 93a0 ac3f 2ee9 d73f

sqr_avg f4 [1, 200]
0.0 323.602 0.0 1.0523114e-13 0.0 0.0 0.019345127 0.0
0.0 63.510048 0.0 33.50652 0.0 0.0 55.582397 228.38177
0.0 0.0 0.0 0.0 0.0 0.0 13.496377 0.0
277.5248 148.13037 0.0 0.0 35.108505 0.0 0.0 0.0
227.8536 0.0 250.35365 1.0025722 16.385994 220.68619 0.0 0.0
0.0 230.26758 0.0 19.707916 0.0 101.969086 47.892868 0.52045065
60.292572 0.0009592966 107.412186 0.0 0.0 71.154915 357.2999 93.58902
0.0 222.71046 0.0 0.0 0.0 0.0 179.8298 7.215005
0.0 32.68046 0.0 284.58563 0.0 0.0 0.0 0.0
39.162 332.17236 11.837102 345.82758 11.096503 117.857414 239.69243 250.33153
0.0 307.0214 122.93748 0.0 0.0 0.0 22.054354 0.0
66.83878 35.61769 0.0 27.475006 0.0 74.69515 118.52721 0.0
297.62555 249.23776 58.460682 0.0 0.0 0.0 0.0 107.12791
51.90713 223.40709 0.0 42.10565 47.63925 0.0 0.0 0.0
159.82706 0.0 0.0 115.27406 110.65416 248.85936 0.0 0.0
92.484436 273.69073 132.542 9.945274 43.651966 316.5144 0.0 0.0
178.61107 0.0 0.0 185.10406 38.30684 41.77673 0.0 3.3773122e-06
289.51947 0.0 0.14736632 79.8134 0.0 335.96744 0.0 0.0
0.0 0.0 0.0 111.42647 25.923983 0.0 0.0 350.87692
48.70887 55.475235 0.0 0.0 0.0 0.0 0.0 2.3575242
2.909653 0.0 6.14017 0.0 20.809872 47.558247 0.0 0.0
103.71252 18.34502 0.0 327.45312 0.0 163.85492 99.22777 0.0
150.26201 0.0 0.0 0.0 0.0 347.41403 0.0 57.60447
0.0 113.88718 0.0 0.0 9.924985 89.54244 267.89755 0.0
0.0 15.758772 29.292326 49.703514 104.64435 0.0 112.095436 192.32462
00000000: 0000 0000 0ecd a143 0000 0000 9ff5 ec29
00000010: 0000 0000 0000 0000 ac79 9e3c 0000 0000
00000020: 0000 0000 4a0a 7e42 0000 0000 ad06 0642
00000030: 0000 0000 0000 0000 6054 5e42 bc61 6443
00000040: 0000 0000 0000 0000 0000 0000 0000 0000
00000050: 0000 0000 0000 0000 29f1 5741 0000 0000
00000060: 2dc3 8a43 6021 1443 0000 0000 0000 0000
00000070: 1c6f 0c42 0000 0000 0000 0000 0000 0000
00000080: 86da 6343 0000 0000 895a 7a43 4954 803f
00000090: 8416 8341 aaaf 5c43 0000 0000 0000 0000
000000a0: 0000 0000 8044 6643 0000 0000 d0a9 9d41
000000b0: 0000 0000 2cf0 cb42 4c92 3f42 413c 053f
000000c0: 982b 7142 4e79 7b3a 0ad3 d642 0000 0000
000000d0: 0000 0000 514f 8e42 63a6 b243 942d bb42
000000e0: 0000 0000 e1b5 5e43 0000 0000 0000 0000
000000f0: 0000 0000 0000 0000 6ed4 3343 52e1 e640
00000100: 0000 0000 cbb8 0242 0000 0000 f64a 8e43
00000110: 0000 0000 0000 0000 0000 0000 0000 0000
00000120: e3a5 1c42 1016 a643 c564 3d41 eee9 ac43
00000130: 478b 3141 ffb6 eb42 43b1 6f43 df54 7a43
00000140: 0000 0000 bd82 9943 fddf f542 0000 0000
00000150: 0000 0000 0000 0000 516f b041 0000 0000
00000160: 75ad 8542 8478 0e42 0000 0000 d0cc db41
00000170: 0000 0000 eb63 9542 ee0d ed42 0000 0000
00000180: 12d0 9443 de3c 7943 bdd7 6942 0000 0000
00000190: 0000 0000 0000 0000 0000 0000 7d41 d642
000001a0: e7a0 4f42 3768 5f43 0000 0000 306c 2842
000001b0: 988e 3e42 0000 0000 0000 0000 0000 0000
000001c0: bad3 1f43 0000 0000 0000 0000 528c e642
000001d0: ee4e dd42 ffdb 7843 0000 0000 0000 0000
000001e0: 08f8 b842 6ad8 8843 c18a 0443 d81f 1f41
000001f0: 9d9b 2e42 d841 9e43 0000 0000 0000 0000
00000200: 6f9c 3243 0000 0000 0000 0000 a41a 3943
00000210: 343a 1942 5f1b 2742 0000 0000 c8a5 6236
00000220: 7ec2 9043 0000 0000 32e7 163e 76a0 9f42
00000230: 0000 0000 d5fb a743 0000 0000 0000 0000
00000240: 0000 0000 0000 0000 0000 0000 5ada de42
00000250: 5164 cf41 0000 0000 0000 0000 3f70 af43
00000260: e2d5 4242 a4e6 5d42 0000 0000 0000 0000
00000270: 0000 0000 0000 0000 0000 0000 ade1 1640
00000280: c137 3a40 0000 0000 467c c440 0000 0000
00000290: 9e7a a641 a53b 3e42 0000 0000 0000 0000
000002a0: cf6c cf42 9ac2 9241 0000 0000 00ba a343
000002b0: 0000 0000 dcda 2343 9e74 c642 0000 0000
000002c0: 1343 1643 0000 0000 0000 0000 0000 0000
000002d0: 0000 0000 ffb4 ad43 0000 0000 fa6a 6642
000002e0: 0000 0000 3cc6 e342 0000 0000 0000 0000
000002f0: bdcc 1e41 bb15 b342 e3f2 8543 0000 0000
00000300: 0000 0000 ee23 7c41 af56 ea41 66d0 4642
00000310: e849 d142 0000 0000 dd30 e042 1a53 4043
