trees/save/0.5_3_1000/models/model.pth (torch, 14520 bytes, 12 tensors)

node_factors.weight f4 [26, 1]
0	0xbc5c0775	-0.013429512
1	0x3df59cf8	0.1199283
2	0x3e5ac34a	0.2136356
3	0x3d9fd093	0.07803454
4	0x3e7c2327	0.24622785
5	0xbdca274a	-0.09870775
6	0x3e2cc607	0.16872416
7	0x3da1b56c	0.078959316
8	0x3e3eff49	0.18652071
9	0x3d5ec881	0.054390434
10	0x3c9868b9	0.018604623
11	0x3df65401	0.12027741
12	0x3db71cae	0.08941017
13	0x3e932f6d	0.2874712
14	0xbdfe2f3e	-0.124113545
15	0x3e3d70fe	0.18500134
16	0xbe06622c	-0.13123387
17	0xbe5633e0	-0.20918226
18	0x3dbb64e1	0.091501005
19	0x3db974bc	0.090554684
20	0x3d6550fc	0.055985436
21	0x3e3e95c3	0.18611817
22	0xbe6a781a	-0.22897378
23	0x3e2d7931	0.16940762
24	0xbde0d70d	-0.10978518
25	0xbd5204a6	-0.051273964

layers.0.weight f4 [200, 2]
0	0x3f0b6e78	0.54465437
1	0xbeb03dd6	-0.34422177
2	0xbe78e7ad	-0.24307127
3	0x3f5cbb31	0.8622313
4	0xbe7e22b0	-0.2481792
5	0xbe3f2ced	-0.18669482
6	0xbe095c71	-0.1341417
7	0xbf1e2360	-0.6177273
8	0xbf04001d	-0.5156267
9	0x3f1f1ab8	0.62150145
10	0x3e5a8366	0.21339187
11	0x3e3a6afd	0.18204875
12	0x3e8d98d4	0.2765566
13	0x3ed937ed	0.4242548
14	0x3f8e6207	1.1123666
15	0x3f88772d	1.066137
16	0x3ebbccd0	0.36679697
17	0x3f138240	0.5762062
18	0x3f0a8644	0.54111123
19	0xbd8810be	-0.06643818
20	0x3e0dd732	0.13851622
21	0xbea130ca	-0.31482536
22	0xbeff9e52	-0.49925476
23	0x3f20934f	0.62724775
24	0xbec76540	-0.38944435
25	0xbeb154a9	-0.34634903
26	0xbf2c826d	-0.67386514
27	0xbf08cd11	-0.53437907
28	0x3dc3f570	0.09568298
29	0x3e8dc6bd	0.27690688
30	0xbeff06cc	-0.49809873
31	0x3dd24567	0.10267144
32	0xbf13c155	-0.57716876
33	0x3d98a527	0.07453375
34	0x3f2bd187	0.6711659
35	0xbe33c033	-0.17553787
36	0xbe64c471	-0.22340561
37	0x3f013a93	0.5048
38	0xbebf64f0	-0.37381697
39	0xbdbc0414	-0.09180465
40	0xbf010f1c	-0.5041368
41	0x3f0a1024	0.5393088
42	0x3f19e2e3	0.60111827
43	0xbf17a904	-0.5924227
44	0x3efe2e51	0.49644712
45	0x3f2918ae	0.66053283
46	0x3e91cb72	0.2847553
47	0xbefc3bf4	-0.4926449
48	0xbe1bc4cc	-0.15211791
49	0x3f0fa865	0.56116325
50	0x3f159129	0.5842462
51	0xbe377c9d	-0.1791863
52	0x3eec5b50	0.46163416
53	0xbee9a776	-0.45635575
54	0x3e3fa044	0.1871348
55	0x3f1d6d97	0.61495346
56	0x3e4f5233	0.202462
57	0xbf00f245	-0.50369674
58	0x3e9460d2	0.28980118
59	0x3ee0b84f	0.43890616
60	0x3ee11a33	0.439653
61	0xbf1b6862	-0.6070615
62	0xbd9d590b	-0.07682999
63	0xbcee0f07	-0.0290599
64	0xbed58dc0	-0.4170971
65	0xbedf20d6	-0.4357974
66	0xbe80b364	-0.25136864
67	0x3e76047f	0.24025153
68	0x3e9a00cf	0.30078742
69	0xbdf45b08	-0.11931425
70	0x3f0c5705	0.5482028
71	0xbb75b13c	-0.0037489673
72	0x3e82591d	0.25458613
73	0x3e643dfc	0.2228927
74	0xbe0dc4b5	-0.13844569
75	0x3d391fec	0.04519646
76	0xbd9f9025	-0.07791165
77	0x3e8713d8	0.26382327
78	0xbedc282d	-0.42999402
79	0xbec35994	-0.3815428
80	0xbf2c6290	-0.67337894
81	0xbe9b615d	-0.3034772
82	0x3e63b2de	0.22236201
83	0x3f1059eb	0.56387204
84	0xbf1b8542	-0.6075021
85	0xbe4ca00d	-0.1998293
86	0x3eaf720b	0.34266695
87	0xbeaff3f1	-0.343658
88	0x3ef12980	0.47101974
89	0x3ce6a2e6	0.028153848
90	0xbf27e94d	-0.65590364
91	0x3df19455	0.1179587
92	0xbed617e0	-0.4181509
93	0x3e0ad6f6	0.13558564
94	0xbf2004c2	-0.6250726
95	0x3f27d06f	0.6555242
96	0xbeb76730	-0.35820913
97	0x3ec6298d	0.38703576
98	0xbf03f6c2	-0.515484
99	0xbef86c84	-0.4852029
100	0x3eb44613	0.35209712
101	0x3ef06488	0.469517
102	0x3d940649	0.07227761
103	0xbf0a1916	-0.5394453
104	0xbddf3c69	-0.10900194
105	0xbeda1c5e	-0.42599767
106	0x3e4a5ad1	0.19761206
107	0x3de757cd	0.112960435
108	0x3ef83665	0.48479
109	0x3f3245bd	0.6963766
110	0xbe817c59	-0.25290182
111	0x3f151845	0.5824016
112	0x3ef8280d	0.48468056
113	0x3ddb9e37	0.107235365
114	0xbf2f18d0	-0.68397236
115	0xbef7bb61	-0.48385146
116	0x3ec235e1	0.3793173
117	0x3f119fe6	0.5688461
118	0x3ebee33f	0.3728275
119	0x3d86a8f6	0.065751955
120	0xbefa07ef	-0.48834178
121	0xbf2b3746	-0.66881216
122	0xbeeaec11	-0.4588323
123	0xbd5b53eb	-0.053546827
124	0x3d8186ec	0.063245624
125	0x3f016dc3	0.5055811
126	0xbf00ce9b	-0.50315255
127	0x3ebacf97	0.36486503
128	0x3f0c1868	0.5472474
129	0xbf31faa1	-0.69523054
130	0xbe90147a	-0.28140622
131	0xbe0def44	-0.13860804
132	0x3e56d027	0.20977841
133	0x3f2cde86	0.67527044
134	0x3e11c980	0.14237022
135	0x3ef1ac90	0.47201967
136	0x3f346b32	0.7047607
137	0x3f2b109b	0.6682221
138	0xbf22e119	-0.6362472
139	0xbee95b95	-0.45577684
140	0xbd3ad47d	-0.0456128
141	0xbb26d430	-0.0025456063
142	0x3d70e31c	0.05881034
143	0x3f16081b	0.5860612
144	0x3f21c141	0.6318551
145	0xbe51021e	-0.20410964
146	0xbebf8e22	-0.37413126
147	0x3d9a01a0	0.07519841
148	0x3e276506	0.16347131
149	0x3ef62a9e	0.4807939
150	0x3ee1f7b4	0.44134295
151	0x3edd9784	0.4327966
152	0x3f538252	0.8262073
153	0x3f4bfe0c	0.7968452
154	0x3eeb43d2	0.4595018
155	0xbd8797a3	-0.06620719
156	0xbec1a621	-0.3782206
157	0x3ee31ec0	0.44359398
158	0xbd68f6ce	-0.056875996
159	0xbeffe387	-0.49978277
160	0xbe37dc15	-0.17955048
161	0x3ee972ef	0.455955
162	0xbe93fb30	-0.28902578
163	0xbd9e9d29	-0.0774482
164	0x3ea06256	0.31325024
165	0x3f0d408e	0.5517663
166	0xbe2d82f1	-0.16944481
167	0xbf0e7994	-0.55654263
168	0xbe57db63	-0.21079783
169	0xbe32f9a6	-0.17478046
170	0x3d9bdbf3	0.07610311
171	0xbef285f5	-0.47367826
172	0x3f380996	0.71889627
173	0x3eb8a540	0.36063576
174	0xbf00a6a1	-0.50254256
175	0x3ec30e68	0.3809693
176	0x3f751bfd	0.9574583
177	0x3f6a7eed	0.91599923
178	0x3d900111	0.070314534
179	0x3d210d1e	0.03931915
180	0xbf2c5c79	-0.673286
181	0xbf138386	-0.57622564
182	0x3da456a3	0.08024337
183	0x3f2466f4	0.64219594
184	0xbedce180	-0.43140793
185	0x3e0bddb9	0.13658799
186	0xbe94833e	-0.2900638
187	0xbeb4925e	-0.3526792
188	0xbe47a6bf	-0.19497202
189	0xbecfc693	-0.40581188
190	0xbf13c389	-0.5772024
191	0xbe5b44d0	-0.21412969
192	0xbe1d9a7a	-0.1539096
193	0x3e94e4e6	0.29080886
194	0x3ea437ba	0.32073766
195	0xbc1606f7	-0.009156934
196	0xbd9cc0c2	-0.07653953
197	0xbdc81f87	-0.09771638
198	0xbf12b0f3	-0.57301253
199	0x3ef84a94	0.484944
200	0x3f255570	0.6458349
201	0xbf29b52d	-0.6629208
202	0xbfba5147	-1.4556054
203	0xbfba9a14	-1.4578271
204	0xbde66e2f	-0.112514846
205	0xbadccbcc	-0.0016845404
206	0xbebf7c4d	-0.3739952
207	0x3edf2f7d	0.43590918
208	0x3d3c2de2	0.045942195
209	0xbeb4cb58	-0.3531139
210	0xbf2cc4ba	-0.6748768
211	0x3f0b11fc	0.54324317
212	0x3f21ce31	0.6320525
213	0x3e3bd6d2	0.18343666
214	0xbe6206a8	-0.22072852
215	0x3ebff0d5	0.37488428
216	0x3ef97932	0.48725277
217	0xbd4bd50a	-0.049763717
218	0x3f7a7a2b	0.97842664
219	0xbe8e2cb2	-0.27768475
220	0xbda3ba3a	-0.07994504
221	0x3f17591f	0.59120363
222	0xbeb380e9	-0.35059288
223	0xbe287269	-0.16449894
224	0xbe61e82c	-0.22061223
225	0xbe707945	-0.2348376
226	0x3f328bdf	0.69744676
227	0x3ef5ce36	0.4800889
228	0xbf026456	-0.5093435
229	0xbeb85e6a	-0.36009532
230	0xbc15265d	-0.009103385
231	0xbe6845e7	-0.22682916
232	0xbea3023f	-0.3183765
233	0xbf1eb324	-0.61992097
234	0x3ee30ac6	0.44344157
235	0x3ea397d5	0.31951776
236	0x3e4f4691	0.20241763
237	0xbe20c394	-0.15699607
238	0xbf2d1c7e	-0.676216
239	0xbd32e40c	-0.043674514
240	0x3e888c8b	0.26669726
241	0xbe4f5227	-0.20246182
242	0x3f213932	0.629779
243	0x3e566b7a	0.20939437
244	0xbdc76b76	-0.097372934
245	0x3e5f2dc1	0.21794797
246	0x3ee0afd5	0.4388415
247	0xbeec1064	-0.46106255
248	0x3e593cd0	0.21214604
249	0xbf2251ae	-0.63405883
250	0xbd8f40bf	-0.06994771
251	0xbe33da53	-0.17563753
252	0x3f7873fd	0.97051984
253	0xbe8a7a1d	-0.2704629
254	0x3e7dcd29	0.24785294
255	0xbf22bc0d	-0.6356819

layers.0.bias f4 [200]
0	0x3efacb4a	0.48983222
1	0xbe5e7332	-0.21723631
2	0x3d91a5ba	0.07111688
3	0xbf0ec21d	-0.55764943
4	0xbe89ec5f	-0.2693815
5	0x3defb06b	0.11703571
6	0xbf2eefe9	-0.68334824
7	0x3d428439	0.04748938
8	0x3ef4140e	0.4767155
9	0x3f104c9a	0.56366885
10	0x3f11eeb0	0.57004833
11	0xbe8517d2	-0.25994736
12	0x3de75100	0.112947464
13	0xbf114263	-0.56741923
14	0x3ea7be14	0.32762206
15	0x3e3e92c6	0.18610677
16	0x3f0db054	0.5534718
17	0xbe2f4f60	-0.17120123
18	0x3f3c9a29	0.7367273
19	0x3ecc8cf0	0.39951277
20	0x3f2761ca	0.6538359
21	0xb814412b	-3.5346642e-05
22	0xbf0e0856	-0.5548147
23	0xbf0df6cd	-0.55454713
24	0xbf2aae5d	-0.6667231
25	0x3e2c43cb	0.16822736
26	0xbf0bfb39	-0.5468021
27	0xbe6c86c5	-0.23098285
28	0x3ed13998	0.40864253
29	0x3f32edc4	0.6989405
30	0xbe2ed718	-0.17074239
31	0x3efb557f	0.49088666
32	0xbcd14f72	-0.025550578
33	0xbe10e63f	-0.14150332
34	0xbe0050ed	-0.1253087
35	0xbea428ed	-0.32062474
36	0x3e83ff63	0.25780782
37	0x3d80d7dd	0.06291173
38	0xbeb065b2	-0.34452587
39	0x3ed4402b	0.41455206
40	0xbea1bc92	-0.3158918
41	0xbef53375	-0.4789082
42	0x3e99a9c4	0.30012333
43	0xbe1e18e2	-0.1543918
44	0xbec74c5f	-0.38925454
45	0xbf13c592	-0.57723343
46	0xbe58f0f0	-0.2118566
47	0xbf0a99b9	-0.5414081
48	0x3eb1b624	0.34709275
49	0x3d8a115c	0.06741592
50	0x3ed4de07	0.41575643
51	0x3ecb32f9	0.39687327
52	0x3de86cde	0.1134889
53	0xbddef7ea	-0.108871296
54	0xbebab83e	-0.3646869
55	0x3e480a43	0.19535165
56	0xbf1d67a6	-0.6148628
57	0xbeb06b0e	-0.34456676
58	0x3f1cdd7f	0.61275476
59	0xbe0c8a96	-0.13724741
60	0x3f07ea57	0.5309195
61	0x3ec34409	0.38137844
62	0xbe407590	-0.18794847
63	0xbf11b383	-0.5691454
64	0x3f094398	0.53618765
65	0x3e0101b4	0.12598306
66	0x3f37c0c4	0.7177851
67	0xbf23b751	-0.63951594
68	0x3e42381f	0.18966721
69	0xbf1bf6e5	-0.60923606
70	0xbdafd2c0	-0.08585119
71	0xbf1eaa68	-0.6197877
72	0xbf24c272	-0.643592
73	0x3a7d452f	0.0009661493
74	0x3f3eee71	0.7458258
75	0x3c8c03e9	0.017091708
76	0x3d172167	0.03689709
77	0x3f27eb72	0.65593636
78	0x3df950d0	0.12173617
79	0xbeca2665	-0.39482418
80	0x3ed245aa	0.41068774
81	0x3efc24a2	0.492467
82	0x3f2a48cd	0.66517335
83	0x3f041963	0.5160124
84	0x3f36ba7b	0.71378297
85	0xbe864618	-0.26225352
86	0x3d99101d	0.074737765
87	0xbe841be6	-0.25802535
88	0x3d28a399	0.041171644
89	0x3f1ff1b9	0.62478215
90	0xbf0f0769	-0.5587068
91	0x3ee0572b	0.43816504
92	0xbed12e01	-0.4085541
93	0x3dd28e41	0.10281039
94	0xbe1d25bd	-0.15346427
95	0xbea31280	-0.31850052
96	0x3cc5acf5	0.024130324
97	0xbeb764c9	-0.3581908
98	0x3f3364a1	0.7007542
99	0xbe831004	-0.25598156
100	0x3edc6393	0.4304472
101	0xbd92d4da	-0.071695045
102	0xbf0e859e	-0.55672634
103	0x3f1b43bf	0.6065025
104	0xbe47ef70	-0.19524932
105	0xbe95fb20	-0.29293156
106	0x3ca7bfe8	0.02047725
107	0x3d9bb4d1	0.07602847
108	0x3e7f1379	0.24909772
109	0xbe800ae6	-0.25008315
110	0xbe50e907	-0.20401393
111	0x3ee30093	0.44336376
112	0x3ebf3d76	0.37351578
113	0x3f2f91be	0.6858176
114	0x3e086a49	0.13321795
115	0xbe3bf7b8	-0.18356216
116	0xbe5f04a2	-0.21779111
117	0xbe60ab91	-0.21940447
118	0xbe64d3ff	-0.22346495
119	0xbe771d65	-0.24132307
120	0xbe4c02c0	-0.19922924
121	0x3e89b029	0.26892212
122	0x3e76fcf6	0.24119934
123	0x3f1644a9	0.5869852
124	0xbf3027d4	-0.6881077
125	0x3f1921e2	0.59817326
126	0xbe745440	-0.23860264
127	0xbf30e3ad	-0.69097406
128	0x3f039f99	0.514154
129	0xbecd429b	-0.40089878
130	0xbea324f9	-0.31864145
131	0x3e48c43b	0.19606106
132	0x3da27c9f	0.07933926
133	0x3f01458f	0.50496763
134	0xbefc9d7d	-0.49338904
135	0x3edeb680	0.4349861
136	0x3ea83702	0.32854468
137	0x3efa2707	0.488579
138	0x3d3f9e08	0.04678157
139	0x3da56641	0.08076144
140	0x3e8a2f3a	0.26989156
141	0x3f210eb2	0.6291305
142	0xbedc005f	-0.42969033
143	0xbf2635d2	-0.64925873
144	0xbf23b6bb	-0.639507
145	0x3d6855d8	0.056722492
146	0xbf0993c6	-0.5374111
147	0xbe0609f8	-0.1308974
148	0xbea93d98	-0.33054805
149	0x3e3ec27a	0.18628874
150	0xbf004606	-0.5010685
151	0x3eceb12d	0.4036955
152	0xbf31d4c4	-0.6946528
153	0xbec658b8	-0.38739562
154	0x3e475fa3	0.19470076
155	0xbf320c56	-0.69550073
156	0x3e69f71f	0.22848175
157	0xbe8771c9	-0.26454
158	0xbeb6d933	-0.35712585
159	0x3f0eeac6	0.55826986
160	0xbe69ccca	-0.22832027
161	0x3e5cab77	0.21549784
162	0xbe8bcb0d	-0.27303353
163	0x3ec35356	0.38149518
164	0x3f332f6d	0.6999424
165	0x3f2398f3	0.63905257
166	0xbedaff3a	-0.42772847
167	0xbf33f0de	-0.7028941
168	0xbefd2a9f	-0.4944658
169	0x3e23016e	0.15918514
170	0x3eafc8a9	0.3433278
171	0x3eda4fcc	0.42639005
172	0x3e8b04a9	0.27151993
173	0x3f3d05dd	0.7383707
174	0xbf09457c	-0.5362165
175	0xbf0dea64	-0.55435777
176	0xbe62bef2	-0.22143152
177	0x3f192589	0.598229
178	0xbf0affe1	-0.5429669
179	0x3f10aaba	0.5651051
180	0x3db55c92	0.08855547
181	0x3efa6a85	0.48909393
182	0x3f29a3d6	0.6626562
183	0x3f405a1e	0.7513751
184	0x3f3a50bc	0.7277944
185	0xbe31b07d	-0.17352481
186	0xbe9a7cf5	-0.3017346
187	0x3eb19332	0.34682614
188	0x3f26cb89	0.6515432
189	0x3d9fe63d	0.07807586
190	0x3d4fbc6b	0.0507168
191	0xbdea3905	-0.11436657
192	0xbe813970	-0.25239134
193	0x3ecbf297	0.3983352
194	0xbf3409bc	-0.70327353
195	0x3f1d7bcd	0.6151703
196	0xbcd4b91f	-0.025967179
197	0xbedb788a	-0.42865402
198	0xbe8123f0	-0.2522273
199	0xbede3cdc	-0.43405807

layers.2.weight f4 [1, 200]
0	0xbdd89df4	-0.10577002
1	0xbf5e6c24	-0.8688376
2	0xbd88dc24	-0.066826135
3	0xbd00449f	-0.031315442
4	0xbc42a82a	-0.011880914
5	0xbd7054ec	-0.058674738
6	0x3cfbc711	0.03073457
7	0xbf25ce0c	-0.6476753
8	0xbd405d0b	-0.046963733
9	0xbd3cce26	-0.046095036
10	0xbdd06cd8	-0.1017701
11	0x3d6cd458	0.057819694
12	0xbd9f56aa	-0.07780202
13	0x3d62b42c	0.055347607
14	0x3c1f1278	0.009708993
15	0xbd2da6c6	-0.042395376
16	0x3c0add46	0.008475607
17	0xbf5caa41	-0.86197287
18	0xbd5603a0	-0.05224955
19	0xbdd102d5	-0.10205618
20	0xbdb1fd18	-0.08690852
21	0x3eef88ac	0.4678396
22	0x3d54ec69	0.05198327
23	0xbd299175	-0.041398484
24	0xbce6ea5c	-0.028187923
25	0xbdb1a3df	-0.08673834
26	0xbbc69b9e	-0.0060610315
27	0xbd6d5850	-0.05794555
28	0xbdcd2cc1	-0.10018302
29	0xbd75f0ab	-0.060043972
30	0x3e9135b5	0.28361288
31	0xbd016d7a	-0.031598546
32	0xbec40fcb	-0.382933
33	0x3d3f05e4	0.046636477
34	0x3d50614c	0.05087404
35	0x3d434a12	0.04767806
36	0xbd39c8d6	-0.045357548
37	0xbd819dd3	-0.06328931
38	0x3d39997b	0.045312386
39	0xbbbab886	-0.0056982664
40	0x3d58a94e	0.052895837
41	0x3d4dcc24	0.05024351
42	0xbd832184	-0.06402877
43	0x3d07fbf8	0.03319928
44	0x3c5f9fa2	0.013648899
45	0x3d8e3db6	0.06945364
46	0x3d8e21b8	0.06940025
47	0x3d6fa58b	0.058507483
48	0x3b49b208	0.003077628
49	0x3dafa618	0.08576602
50	0xbda0136f	-0.07816207
51	0xbd937a81	-0.072011
52	0xbd811910	-0.063036084
53	0xbd12407d	-0.035706032
54	0x3d51f04e	0.051254563
55	0xbd172bf5	-0.036907155
56	0xbc90be1b	-0.017668774
57	0xbd0005e1	-0.031255607
58	0xbddb67be	-0.107131466
59	0x3ba40503	0.0050054803
60	0x3c935cc6	0.017988574
61	0x3b2ec6c8	0.0026668776
62	0x3d2b0ded	0.041761328
63	0x3d433b34	0.047663882
64	0xbc700a8f	-0.014650955
65	0xbd45b64b	-0.04826955
66	0xbdc581dd	-0.0964391
67	0x3d521748	0.051291734
68	0xbdc83bca	-0.09777029
69	0xbd2bd3ef	-0.041950163
70	0x3ce55201	0.027993204
71	0x3d1cede3	0.038312804
72	0xbd14b29e	-0.036303155
73	0x3c8f01cd	0.017456913
74	0xbde15da2	-0.11004187
75	0xbd08c2a9	-0.033388767
76	0xbf05f76d	-0.52330667
77	0xbcfeddcd	-0.031111622
78	0xbdacef28	-0.08444053
79	0xbd40f9bc	-0.047113165
80	0x3c460fc4	0.01208872
81	0xbce5ac5f	-0.028036295
82	0xbd996183	-0.07489302
83	0x3cc192ec	0.023629628
84	0xbd71d192	-0.059037752
85	0xbc535bf6	-0.012900343
86	0xbcf10316	-0.029420417
87	0x3d6de573	0.058080148
88	0xbf199987	-0.5999989
89	0xbd35d6db	-0.044394355
90	0xbd00489c	-0.031319246
91	0xbd9d195f	-0.07670855
92	0xbc1bcd50	-0.0095093995
93	0xbca354d8	-0.019937918
94	0xbc2d3234	-0.010571051
95	0xbd556f09	-0.052107845
96	0x3ba0e744	0.0049103815
97	0x3d5f3e5e	0.054502837
98	0xbd572cd5	-0.05253299
99	0xbbccc559	-0.0062491116
100	0xbcdb0749	-0.026736872
101	0xbf8db5a3	-1.1071056
102	0x3d524181	0.051332
103	0xbd686728	-0.056739002
104	0x3b37dee7	0.0028056444
105	0x3d07781e	0.033073537
106	0xbc8be361	-0.017076196
107	0xbd95e70e	-0.07319461
108	0xbdc798c8	-0.097459376
109	0xbf8361c5	-1.0264212
110	0xbd6e9ad1	-0.058253113
111	0xbd725743	-0.05916525
112	0xbdca5ef8	-0.09881395
113	0xbd55b650	-0.05217582
114	0xbda5ca2a	-0.080952
115	0x3d21e991	0.039529387
116	0x3c42f37f	0.011898874
117	0x3d425bd0	0.04745084
118	0xbd3b60ae	-0.045746498
119	0xbd49a738	-0.049231738
120	0x3cc63f6b	0.024200162
121	0xbd7f756a	-0.062367834
122	0x3c1d28fd	0.009592292
123	0xbddf061b	-0.108898364
124	0x3d847d98	0.064692676
125	0xbdbe738f	-0.09299385
126	0xbf89ec1b	-1.0775179
127	0xbbf2680a	-0.0073976563
128	0xbd9baed6	-0.07601707
129	0xbd34217d	-0.04397725
130	0x3d232245	0.039827604
131	0x3c44e094	0.012016434
132	0xbbbdff46	-0.005798253
133	0xbd114afa	-0.035471894
134	0xbc2479b2	-0.01003878
135	0xbdaa6452	-0.08319916
136	0x3cbeb3bf	0.023279069
137	0xbda9cfa6	-0.08291559
138	0xbf162b2f	-0.5865964
139	0x3c937594	0.018000402
140	0xbd540fcb	-0.051772874
141	0x3b3b5ce8	0.0028589312
142	0xbcbdaf10	-0.023154765
143	0x3d5e8ed0	0.054335415
144	0xbd497f9f	-0.049193975
145	0x3b13d134	0.0022555115
146	0x3d5e65f6	0.054296456
147	0xba7fac24	-0.0009753129
148	0x3d3d7ed0	0.046263516
149	0xbd326938	-0.043557376
150	0xbd82cf83	-0.06387236
151	0xbc527767	-0.012845851
152	0xbd5e2324	-0.05423273
153	0x3b0fadea	0.002192373
154	0xbde0c6be	-0.10975407
155	0xbd080c3e	-0.0332148
156	0xbd86db0b	-0.06584748
157	0xbcde173d	-0.02711069
158	0xbd8cbcad	-0.068719245
159	0xbda1bd92	-0.07897486
160	0xbd8461ae	-0.064639434
161	0xbdd75c74	-0.10515681
162	0xbd8e8a59	-0.069599815
163	0xbdacf326	-0.084448144
164	0xbd77517a	-0.060380436
165	0x3c988a7e	0.018620726
166	0xbd49065f	-0.04907834
167	0xbd594a41	-0.05304933
168	0xbd689d0d	-0.0567904
169	0x3cad3db1	0.02114758
170	0xbd5e7a83	-0.054316055
171	0xbd80ccad	-0.06289039
172	0xbbbb868b	-0.005722826
173	0xbdb06519	-0.08613033
174	0xbc9708ec	-0.018436871
175	0x3d82f3fe	0.06394194
176	0x3d18310e	0.037156157
177	0xbdc9ca95	-0.098530926
178	0xbc9d11cd	-0.019173527
179	0xbd17687d	-0.036964882
180	0xbc8e19e6	-0.017346334
181	0xbd9d7ede	-0.076902136
182	0x3ba62ebe	0.00507149
183	0xbd339494	-0.043842867
184	0xbdd78459	-0.1052329
185	0x3c9922b7	0.018693311
186	0xbd8ab1b6	-0.06772177
187	0xbd230985	-0.039804
188	0xbde8e45f	-0.11371683
189	0xbd950100	-0.07275581
190	0xbf1fc8b7	-0.6241564
191	0xbd80565a	-0.0626647
192	0xbca1a57a	-0.019732226
193	0xbd2d1123	-0.04225267
194	0xbd20fe1d	-0.03930484
195	0xbd0c88c3	-0.034310114
196	0x3d16e434	0.036838725
197	0x3c06e51f	0.008233338
198	0xbd8c3cc2	-0.06847526
199	0xb9672598	-0.00022043881

grad_avg f4 [26, 1]
0	0x00000000	0.0
1	0xbd2bc12a	-0.041932262
2	0xbb471068	-0.003037477
3	0xbcf7af12	-0.030234847
4	0xbc5fb1b7	-0.01365321
5	0x3d3f7fe7	0.046752837
6	0x3cc88ff7	0.02448271
7	0x3cd187e2	0.02557749
8	0xbcd4c1bd	-0.025971288
9	0xbd2d79f4	-0.04235263
10	0xbd247f2b	-0.04016034
11	0xbc5a8920	-0.013338357
12	0xbcbbde13	-0.022933042
13	0xbd1d62dc	-0.038424358
14	0x3d528221	0.05139363
15	0x3a827dcc	0.0009955703
16	0x3c2cf039	0.01055532
17	0x3c0bbf68	0.0085295215
18	0x3c9764f8	0.018480763
19	0xbae143c7	-0.0017186337
20	0x3c295e51	0.010337428
21	0x3d057bf6	0.03258892
22	0x3dcf12e7	0.10111027
23	0x3b09bc22	0.0021016677
24	0xbd036713	-0.03208072
25	0x3d14dc3e	0.03634285

sqr_avg f4 [26, 1]
0	0x00000000	0.0
1	0x3c0f138b	0.008732687
2	0x3b110e48	0.0022133756
3	0x3c5d6395	0.013512512
4	0x3c0c25c0	0.008553922
5	0x3c3ab09f	0.011394649
6	0x3b7d6c6d	0.0038669363
7	0x3c9ebe5a	0.019377876
8	0x3c062a6e	0.008188827
9	0x3ceaa6ad	0.02864393
10	0x3bc68cc4	0.006059261
11	0x3c58095e	0.013185827
12	0x3c9bcd55	0.019018808
13	0x3c5117ad	0.012761992
14	0x3c331a22	0.0109315235
15	0x3c483020	0.012218505
16	0x3c452904	0.012033705
17	0x3b9d83ad	0.0048069567
18	0x3d2b7a9f	0.041864987
19	0x3d0167c9	0.031593118
20	0x3d5e31c8	0.054246694
21	0x3c9a09f9	0.018803583
22	0x3c8d6969	0.017262178
23	0x3ce6d3cc	0.028177164
24	0x3ce5e60c	0.028063796
25	0x3cd4ffbf	0.026000855

grad_avg f4 [200, 2]
0	0xb9ea6ae7	-0.00044711606
1	0x3ada01b0	0.0016632583
2	0xbb2114cb	-0.0024579044
3	0x3aa7a785	0.0012791014
4	0xba337e53	-0.0006847132
5	0x3a6342b4	0.00086693023
6	0x00000000	0.0
7	0x00000000	0.0
8	0x00000000	0.0
9	0x00000000	0.0
10	0xb982287f	-0.00024825704
11	0x3a72f6ea	0.00092683604
12	0x00000000	0.0
13	0x00000000	0.0
14	0xba2a99c7	-0.00065079
15	0xbb7d0a02	-0.0038610701
16	0xb950c18c	-0.00019908528
17	0x3a423b93	0.000740939
18	0xb94c9254	-0.00019509468
19	0x3a3e510a	0.00072600006
20	0xb9e1c767	-0.0004306391
21	0x3ad1cd6d	0.0016006656
22	0xb226eba7	-9.716053e-09
23	0x32b54336	2.1101737e-08
24	0xba840d15	-0.00100747
25	0x3a384b96	0.0007030306
26	0x00000000	0.0
27	0x00000000	0.0
28	0x3829834c	4.041502e-05
29	0xb91dd97e	-0.00015053709
30	0xb93ef56c	-0.00018211239
31	0x3a2fb461	0.0006702599
32	0x3811a39d	3.472307e-05
33	0xb909c98b	-0.00013140419
34	0xb982957c	-0.00024906907
35	0x38efbc65	0.00011431499
36	0xb9689492	-0.00022180591
37	0x3a57e628	0.0008235895
38	0xb9e2c1a4	-0.00043250353
39	0x3ad277af	0.0016057397
40	0xb9c13532	-0.00036851462
41	0x3ab35e9b	0.0013684811
42	0xbb338972	-0.0027395156
43	0x3af346c1	0.0018560515
44	0x00000000	0.0
45	0x00000000	0.0
46	0x00000000	0.0
47	0x00000000	0.0
48	0x00000000	0.0
49	0x00000000	0.0
50	0xb9bf89f6	-0.00036533148
51	0x3ab2ba19	0.0013635784
52	0x00000000	0.0
53	0x00000000	0.0
54	0x00000000	0.0
55	0x00000000	0.0
56	0xb9de263e	-0.00042371632
57	0x3ace7397	0.0015751001
58	0xb9856101	-0.0002544001
59	0x3a77f60e	0.0009458967
60	0x398d510f	0.0002695401
61	0x3a132dcd	0.000561443
62	0xb90cd4a6	-0.00013430658
63	0x3a029f4b	0.0004982843
64	0x3b71d150	0.0036898442
65	0x3b958c8c	0.0045638736
66	0x00000000	0.0
67	0x00000000	0.0
68	0x231e43e2	8.579572e-18
69	0xa22a1793	-2.3051776e-18
70	0x00000000	0.0
71	0x00000000	0.0
72	0xb9498b9b	-0.00019220861
73	0x3a3ba0ce	0.00071574457
74	0xb993e832	-0.00028211024
75	0x3a857604	0.0010182266
76	0x00000000	0.0
77	0x00000000	0.0
78	0xb7d1e9a6	-2.5023543e-05
79	0x38bdd6c0	9.0522226e-05
80	0x00000000	0.0
81	0x00000000	0.0
82	0x00000000	0.0
83	0x00000000	0.0
84	0xb98ecf86	-0.00027238968
85	0x3a842014	0.0010080361
86	0x3712405e	8.717265e-06
87	0xb6872729	-4.0278724e-06
88	0x00000000	0.0
89	0x00000000	0.0
90	0x00000000	0.0
91	0x00000000	0.0
92	0x00000000	0.0
93	0x00000000	0.0
94	0x00000000	0.0
95	0x00000000	0.0
96	0x374649b1	1.1818877e-05
97	0xb84074a8	-4.588501e-05
98	0x3a2e21eb	0.00066426274
99	0xba4d4d03	-0.0007831605
100	0xb9ad7901	-0.00033087286
101	0x3aa15d3e	0.0012311114
102	0xb99fcd09	-0.00030479606
103	0x3a9469af	0.0011323
104	0xb98e725d	-0.00027169558
105	0x3a5ef823	0.0008505603
106	0x00000000	0.0
107	0x00000000	0.0
108	0x00000000	0.0
109	0x00000000	0.0
110	0xb925c8bb	-0.00015810404
111	0x3a197eba	0.00058553705
112	0x00000000	0.0
113	0x00000000	0.0
114	0x00000000	0.0
115	0x00000000	0.0
116	0xb9edafa4	-0.00045335025
117	0x3add0169	0.0016861382
118	0x00000000	0.0
119	0x00000000	0.0
120	0x389da69a	7.517375e-05
121	0xb993de97	-0.00028203867
122	0x372a995f	1.0168499e-05
123	0xb8292f17	-4.0336596e-05
124	0x216ba400	7.983815e-19
125	0x216ba400	7.983815e-19
126	0x00000000	0.0
127	0x00000000	0.0
128	0xb881f44e	-6.1967046e-05
129	0x3971d87a	0.00023064195
130	0xb9590fc2	-0.00020700603
131	0x3a47813d	0.00076105056
132	0xb9d61217	-0.0004083074
133	0x3ac6fc5e	0.0015181412
134	0x00000000	0.0
135	0x00000000	0.0
136	0xba313871	-0.00067604246
137	0x3a5a9a50	0.00083390344
138	0x00000000	0.0
139	0x00000000	0.0
140	0x00000000	0.0
141	0x00000000	0.0
142	0x00000000	0.0
143	0x00000000	0.0
144	0x00000000	0.0
145	0x00000000	0.0
146	0x38b7c84c	8.763428e-05
147	0xb9494868	-0.00019195827
148	0xb9f433fa	-0.00046578032
149	0x3ae2f951	0.0017316734
150	0xb8bcc196	-9.000597e-05
151	0xb92857c9	-0.00016054431
152	0xba27ffdc	-0.00064086705
153	0xbb448a5c	-0.0029989695
154	0xb90a4342	-0.00013185761
155	0x3a008f9d	0.00049042125
156	0xb9711eca	-0.00022995021
157	0x3ae5910a	0.0017514538
158	0x00000000	0.0
159	0x00000000	0.0
160	0x385245ec	5.013302e-05
161	0xb944b28a	-0.00018758528
162	0xb8fa688b	-0.000119404016
163	0x39e7dd39	0.00044224577
164	0xb9a64834	-0.00031715783
165	0x3a9a96c7	0.0011794203
166	0x38d01db2	9.923744e-05
167	0xb9c252e7	-0.0003706433
168	0xb983408d	-0.0002503436
169	0x3a73a60e	0.00092944584
170	0x00000000	0.0
171	0x00000000	0.0
172	0xb7158107	-8.911134e-06
173	0x35ac687d	1.2845409e-06
174	0x00000000	0.0
175	0x00000000	0.0
176	0x39498b85	0.00019220829
177	0xbb942ff4	-0.004522318
178	0xb9457c8c	-0.00018833781
179	0x3a37639e	0.000699574
180	0x00000000	0.0
181	0x00000000	0.0
182	0xb9aa71af	-0.00032509628
183	0x3a9e6c86	0.0012086786
184	0x00000000	0.0
185	0x00000000	0.0
186	0xb9363a42	-0.00017378575
187	0x395ca5f9	0.00021042665
188	0xa65f99aa	-7.757692e-16
189	0xa65082fe	-7.2342024e-16
190	0x00000000	0.0
191	0x00000000	0.0
192	0x37ca0dd2	2.4086712e-05
193	0xb882fa42	-6.245497e-05
194	0x00000000	0.0
195	0x00000000	0.0
196	0xb9699c3a	-0.0002227881
197	0x3a58de94	0.0008272913
198	0x00000000	0.0
199	0x00000000	0.0
200	0xb8ec9707	-0.00011281488
201	0x39dc63a4	0.00042035908
202	0x3b9c61aa	0.0047723847
203	0x3c8b3fda	0.01699822
204	0x00000000	0.0
205	0x00000000	0.0
206	0xb97ca6ab	-0.00024094681
207	0x3a6a6d69	0.0008942695
208	0x00000000	0.0
209	0x00000000	0.0
210	0x00000000	0.0
211	0x00000000	0.0
212	0x3830f11b	4.2186217e-05
213	0xb7157326	-8.907902e-06
214	0x399dc0be	0.00030088978
215	0x3a735860	0.0009282883
216	0xb9d7d5e5	-0.0004116736
217	0x3ac8f2cd	0.0015331149
218	0x3a594e71	0.0008289582
219	0xbac5e120	-0.0015097
220	0x00000000	0.0
221	0x00000000	0.0
222	0xb983ad25	-0.0002511527
223	0x3a743170	0.0009315228
224	0xb9db7428	-0.00041857478
225	0x3acbbbd3	0.0015543647
226	0xb9679da5	-0.00022088604
227	0x3a5789d5	0.00082221377
228	0xba8273a0	-0.0009952672
229	0x3a704273	0.0009165175
230	0x00000000	0.0
231	0x00000000	0.0
232	0xb39bd843	-7.257088e-08
233	0xb39bd843	-7.257088e-08
234	0x36de58a7	6.626436e-06
235	0x36de58a7	6.626436e-06
236	0x00000000	0.0
237	0x00000000	0.0
238	0x00000000	0.0
239	0x00000000	0.0
240	0x00000000	0.0
241	0x00000000	0.0
242	0xb98a12d8	-0.0002633545
243	0x3a80c78d	0.0009825096
244	0x382660ec	3.966775e-05
245	0xb91bd76c	-0.00014862203
246	0xb9f16dd0	-0.0004604892
247	0x3ae07257	0.001712392
248	0x00000000	0.0
249	0x00000000	0.0
250	0xb9ce714a	-0.0003937579
251	0x3abfc318	0.0014630286
252	0x3a86bfc3	0.0010280538
253	0xba9c94eb	-0.0011946236
254	0x00000000	0.0
255	0x00000000	0.0

sqr_avg f4 [200, 2]
0	0x38318bdd	4.2330346e-05
1	0x382ef895	4.1716343e-05
2	0x36e0f552	6.7042793e-06
3	0x3734c225	1.0774039e-05
4	0x373bea74	1.1200656e-05
5	0x3738aa4d	1.1006906e-05
6	0x00000000	0.0
7	0x00000000	0.0
8	0x00000000	0.0
9	0x00000000	0.0
10	0x3705e349	7.980337e-06
11	0x3705a882	7.9666515e-06
12	0x00000000	0.0
13	0x00000000	0.0
14	0x37fe0c38	3.028485e-05
15	0x38373d28	4.3687556e-05
16	0x3694b02a	4.431252e-06
17	0x3694adab	4.4309613e-06
18	0x368b8897	4.158424e-06
19	0x368b8167	4.1575872e-06
20	0x382242b1	3.868592e-05
21	0x381fef71	3.813155e-05
22	0x2eb0623e	8.021005e-11
23	0x2fcfff04	3.783428e-10
24	0x379ee92c	1.8943647e-05
25	0x3799b8a8	1.8325009e-05
26	0x00000000	0.0
27	0x00000000	0.0
28	0x36e8eaea	6.9414864e-06
29	0x36e1844d	6.7209244e-06
30	0x366343fa	3.3865203e-06
31	0x3663a724	3.3922925e-06
32	0x36d66eef	6.3906114e-06
33	0x36cf9358	6.186234e-06
34	0x372a6116	1.0155394e-05
35	0x3703becc	7.852632e-06
36	0x36d185bd	6.2442546e-06
37	0x36d0a320	6.2178733e-06
38	0x38242ef5	3.914438e-05
39	0x3821d0b5	3.8579765e-05
40	0x37da8cb4	2.6053145e-05
41	0x37d7bea5	2.5718773e-05
42	0x375cb6df	1.31556e-05
43	0x37968170	1.7941667e-05
44	0x00000000	0.0
45	0x00000000	0.0
46	0x00000000	0.0
47	0x00000000	0.0
48	0x00000000	0.0
49	0x00000000	0.0
50	0x37cbfcff	2.4317296e-05
51	0x37c9a5e9	2.4038325e-05
52	0x00000000	0.0
53	0x00000000	0.0
54	0x00000000	0.0
55	0x00000000	0.0
56	0x381b2da5	3.699739e-05
57	0x3818f9e8	3.6472367e-05
58	0x371c9e81	9.335229e-06
59	0x371b837d	9.269334e-06
60	0x35a6dc8f	1.2432155e-06
61	0x360205fd	1.9374995e-06
62	0x35be73a1	1.4189756e-06
63	0x35bffe25	1.4304575e-06
64	0x3775097c	1.4605346e-05
65	0x372d64f0	1.0335105e-05
66	0x00000000	0.0
67	0x00000000	0.0
68	0x2e8aed11	6.317625e-11
69	0x2ca07721	4.5606995e-12
70	0x00000000	0.0
71	0x00000000	0.0
72	0x368332f9	3.9100382e-06
73	0x36837a35	3.918331e-06
74	0x3736267e	1.08570075e-05
75	0x3738a906	1.10066085e-05
76	0x00000000	0.0
77	0x00000000	0.0
78	0x361e3e0a	2.3579946e-06
79	0x3618c983	2.276706e-06
80	0x00000000	0.0
81	0x00000000	0.0
82	0x00000000	0.0
83	0x00000000	0.0
84	0x373ee09b	1.13771775e-05
85	0x373d218f	1.1273091e-05
86	0x2fb1f337	3.2368927e-10
87	0x2e4833d8	4.552078e-11
88	0x00000000	0.0
89	0x00000000	0.0
90	0x00000000	0.0
91	0x00000000	0.0
92	0x00000000	0.0
93	0x00000000	0.0
94	0x00000000	0.0
95	0x00000000	0.0
96	0x3698bd02	4.5519564e-06
97	0x3693ab54	4.4008866e-06
98	0x36566840	3.1949166e-06
99	0x364f6d39	3.090898e-06
100	0x37a23112	1.9334755e-05
101	0x37a06810	1.9121944e-05
102	0x378209b9	1.5501735e-05
103	0x3780a8f7	1.533747e-05
104	0x37281b70	1.0019969e-05
105	0x372583f5	9.86549e-06
106	0x00000000	0.0
107	0x00000000	0.0
108	0x00000000	0.0
109	0x00000000	0.0
110	0x361ea04e	2.3637144e-06
111	0x361fb5b9	2.3798623e-06
112	0x00000000	0.0
113	0x00000000	0.0
114	0x00000000	0.0
115	0x00000000	0.0
116	0x38384227	4.3930628e-05
117	0x3835961c	4.3293563e-05
118	0x00000000	0.0
119	0x00000000	0.0
120	0x372e8f4c	1.0404572e-05
121	0x37295219	1.00923e-05
122	0x369391c8	4.3979126e-06
123	0x368ea98c	4.2516676e-06
124	0x2e5f6c54	5.0800544e-11
125	0x2e5f6c54	5.0800544e-11
126	0x00000000	0.0
127	0x00000000	0.0
128	0x35a116ba	1.2002049e-06
129	0x359c9206	1.1665404e-06
130	0x369db056	4.699493e-06
131	0x369d961e	4.6964406e-06
132	0x380dd9f1	3.3819993e-05
133	0x380be98a	3.3357683e-05
134	0x00000000	0.0
135	0x00000000	0.0
136	0x3803c6d2	3.1418e-05
137	0x3803cb70	3.14223e-05
138	0x00000000	0.0
139	0x00000000	0.0
140	0x00000000	0.0
141	0x00000000	0.0
142	0x00000000	0.0
143	0x00000000	0.0
144	0x00000000	0.0
145	0x00000000	0.0
146	0x36811fa3	3.8481826e-06
147	0x367f863a	3.8076091e-06
148	0x3845927f	4.7104895e-05
149	0x3842a4a3	4.6406534e-05
150	0x35567fbd	7.9907096e-07
151	0x355e022f	8.270462e-07
152	0x3797f38e	1.8114017e-05
153	0x37dc9ff3	2.6300526e-05
154	0x35b4be6f	1.3466469e-06
155	0x35b6539d	1.3584391e-06
156	0x37c8d859	2.3942603e-05
157	0x37dac09a	2.6077312e-05
158	0x00000000	0.0
159	0x00000000	0.0
160	0x3703b7e5	7.851025e-06
161	0x36ff303e	7.6052083e-06
162	0x35901ad9	1.073665e-06
163	0x35912c2e	1.08162e-06
164	0x3791a317	1.7361292e-05
165	0x379012c4	1.7174876e-05
166	0x37610a8a	1.3413499e-05
167	0x375a7a26	1.30222525e-05
168	0x371619a7	8.946669e-06
169	0x371501a2	8.881472e-06
170	0x00000000	0.0
171	0x00000000	0.0
172	0x355ed96a	8.3017824e-07
173	0x356744a0	8.615407e-07
174	0x00000000	0.0
175	0x00000000	0.0
176	0x380a7212	3.3008e-05
177	0x3823e803	3.9078306e-05
178	0x367c0aa5	3.7557122e-06
179	0x367c2378	3.7571572e-06
180	0x00000000	0.0
181	0x00000000	0.0
182	0x379b37d6	1.850344e-05
183	0x37998833	1.8302444e-05
184	0x00000000	0.0
185	0x00000000	0.0
186	0x363fd0d8	2.858278e-06
187	0x363cacf7	2.8114862e-06
188	0x309aa34a	1.1251384e-09
189	0x3084ed38	9.671686e-10
190	0x00000000	0.0
191	0x00000000	0.0
192	0x364d6d11	3.0610865e-06
193	0x36467ec4	2.9578086e-06
194	0x00000000	0.0
195	0x00000000	0.0
196	0x36d3dd30	6.3140396e-06
197	0x36d2e53d	6.2851745e-06
198	0x00000000	0.0
199	0x00000000	0.0
200	0x358247f0	9.706691e-07
201	0x35830934	9.762939e-07
202	0x39923e2b	0.0002789361
203	0x397a273d	0.00023856475
204	0x00000000	0.0
205	0x00000000	0.0
206	0x37062522	7.995668e-06
207	0x3705508b	7.946171e-06
208	0x00000000	0.0
209	0x00000000	0.0
210	0x00000000	0.0
211	0x00000000	0.0
212	0x359950a4	1.1422858e-06
213	0x359973dc	1.1433108e-06
214	0x37c93c74	2.3989218e-05
215	0x37ef16b4	2.8501592e-05
216	0x380e2437	3.3889166e-05
217	0x380c3f5c	3.343761e-05
218	0x376b99cf	1.4042903e-05
219	0x374964fd	1.2004047e-05
220	0x00000000	0.0
221	0x00000000	0.0
222	0x371700fe	9.000532e-06
223	0x3715e494	8.934312e-06
224	0x3816dd62	3.5968966e-05
225	0x3814bb3f	3.5460336e-05
226	0x36cd125c	6.1116134e-06
227	0x36cc5b26	6.090285e-06
228	0x37b334df	2.1363083e-05
229	0x37aeb7a2	2.0827927e-05
230	0x00000000	0.0
231	0x00000000	0.0
232	0x313947d0	2.6961864e-09
233	0x313947d0	2.6961864e-09
234	0x2f8f680d	2.608548e-10
235	0x2f8f680d	2.608548e-10
236	0x00000000	0.0
237	0x00000000	0.0
238	0x00000000	0.0
239	0x00000000	0.0
240	0x00000000	0.0
241	0x00000000	0.0
242	0x372830e8	1.0024967e-05
243	0x372720ab	9.961582e-06
244	0x36e29d54	6.7536403e-06
245	0x36db6915	6.5389418e-06
246	0x383f99fd	4.568136e-05
247	0x383cc2da	4.5004163e-05
248	0x00000000	0.0
249	0x00000000	0.0
250	0x38016614	3.0851064e-05
251	0x37ff4976	3.0432577e-05
252	0x3783ecac	1.5726626e-05
253	0x37694b2f	1.3905387e-05
254	0x00000000	0.0
255	0x00000000	0.0

grad_avg f4 [200]
0	0xbb0c1c4a	-0.0021379166
1	0x3c448ee5	0.011996959
2	0xbb44d021	-0.003003128
3	0x00000000	0.0
4	0x00000000	0.0
5	0xba99ca2c	-0.0011733226
6	0x00000000	0.0
7	0xbc413282	-0.011791827
8	0xba76cfa1	-0.00094150944
9	0xba72e143	-0.0009265134
10	0xbb06bd0a	-0.0020559453
11	0x33bd6b47	8.820512e-08
12	0xbba9ea6e	-0.005185417
13	0x00000000	0.0
14	0x39573acb	0.000205259
15	0xba5ce776	-0.00084268244
16	0x393d4773	0.00018051061
17	0x3b61174d	0.0034346164
18	0xba8987dc	-0.001049276
19	0xbb06fea2	-0.002059855
20	0xbae59426	-0.0017515465
21	0x3caec00b	0.021331808
22	0x00000000	0.0
23	0x00000000	0.0
24	0x00000000	0.0
25	0xbae5cd6c	-0.0017532534
26	0x00000000	0.0
27	0x00000000	0.0
28	0xbb04b3af	-0.0020248701
29	0xba9e5768	-0.0012080492
30	0x3a31237c	0.0006757302
31	0xba25c0c1	-0.0006322973
32	0xbd08591e	-0.033288114
33	0x00000000	0.0
34	0x242f5713	3.802083e-17
35	0x00000000	0.0
36	0xba6e1290	-0.00090817455
37	0xba9bb6a1	-0.0011879989
38	0x00000000	0.0
39	0xb8e39696	-0.00010852252
40	0x00000000	0.0
41	0x00000000	0.0
42	0xbaa8cbe0	-0.0012878142
43	0x380106de	3.0762392e-05
44	0x00000000	0.0
45	0x00000000	0.0
46	0x00000000	0.0
47	0x00000000	0.0
48	0x38975fdf	7.2180985e-05
49	0x3a923cdf	0.0011157057
50	0xbace613b	-0.001574553
51	0xbabe81a9	-0.0014534491
52	0xbae24c65	-0.0017265199
53	0x00000000	0.0
54	0x00000000	0.0
55	0xba3f9218	-0.00073078414
56	0x00000000	0.0
57	0x00000000	0.0
58	0xbb0dba60	-0.002162598
59	0x00000000	0.0
60	0x39c29f67	0.00037121327
61	0x38828f7d	6.22561e-05
62	0x2274c9af	3.3174937e-18
63	0x00000000	0.0
64	0xb9990c93	-0.00029191803
65	0xba7c35d3	-0.00096210575
66	0xbaff0341	-0.0019455926
67	0x00000000	0.0
68	0xb9f117bf	-0.00045984794
69	0x00000000	0.0
70	0x00000000	0.0
71	0x00000000	0.0
72	0x00000000	0.0
73	0x387009d0	5.7229598e-05
74	0xbb119d06	-0.0022218837
75	0xb939677e	-0.00017681529
76	0xbc1db176	-0.0096248295
77	0xba236311	-0.00062327186
78	0xbb15d32e	-0.0022861469
79	0x00000000	0.0
80	0x398575c7	0.00025455488
81	0xba12d4bc	-0.0005601158
82	0xbac5c685	-0.0015089071
83	0x39fe817c	0.0004854313
84	0xba9bc783	-0.0011885021
85	0x00000000	0.0
86	0xba838bff	-0.0010036229
87	0x00000000	0.0
88	0xbc0c0a8e	-0.008547438
89	0xba69982c	-0.000891092
90	0x00000000	0.0
91	0xbaca6060	-0.0015440099
92	0x00000000	0.0
93	0xba493cdb	-0.00076766097
94	0x27d2093d	5.8296725e-15
95	0x00000000	0.0
96	0x37f1a585	2.8806515e-05
97	0x00000000	0.0
98	0xba8a7a85	-0.0010565078
99	0x00000000	0.0
100	0xba0ce704	-0.0005375
101	0xbd2670ac	-0.040634796
102	0x00000000	0.0
103	0xba956739	-0.0011398561
104	0x00000000	0.0
105	0x00000000	0.0
106	0xba4412f4	-0.0007479631
107	0x3b0f1794	0.0021834122
108	0xbb0100bb	-0.0019684273
109	0x3c312437	0.010811857
110	0x00000000	0.0
111	0xba9c077e	-0.0011904088
112	0xbb02becd	-0.0019950152
113	0xba897789	-0.0010487895
114	0xbb98a7e9	-0.0046586883
115	0x00000000	0.0
116	0x34bf72d0	3.566006e-07
117	0x37c264c7	2.317353e-05
118	0x00000000	0.0
119	0x00000000	0.0
120	0x00000000	0.0
121	0xbaa488d6	-0.0012552987
122	0x39550b12	0.00020317387
123	0xbb104407	-0.0022013204
124	0x00000000	0.0
125	0xbaf60ed0	-0.0018772725
126	0x3c3ce304	0.011528734
127	0x00000000	0.0
128	0xbac8d96e	-0.0015323588
129	0x00000000	0.0
130	0x00000000	0.0
131	0x39c63d17	0.00037811018
132	0xb94afb89	-0.00019357925
133	0xba3a41f9	-0.00071051676
134	0x00000000	0.0
135	0xbadbac36	-0.0016759697
136	0x39fb17e6	0.00047892256
137	0xbadb5595	-0.001673388
138	0xbc026f9f	-0.007961183
139	0x3a0e0303	0.0005417319
140	0xba87cb97	-0.0010360357
141	0x388a95f0	6.608281e-05
142	0x00000000	0.0
143	0x00000000	0.0
144	0x00000000	0.0
145	0x3970be01	0.00022958966
146	0x00000000	0.0
147	0x00000000	0.0
148	0x00000000	0.0
149	0xba663b54	-0.0008782644
150	0x00000000	0.0
151	0xb9845d89	-0.0002524669
152	0x00000000	0.0
153	0x00000000	0.0
154	0xbb1120e8	-0.0022144858
155	0x00000000	0.0
156	0xbaace593	-0.0013190977
157	0x00000000	0.0
158	0x00000000	0.0
159	0xbad0e27a	-0.0015936636
160	0x00000000	0.0
161	0xb9234f88	-0.00015574519
162	0x00000000	0.0
163	0xbadf4ea0	-0.0017036982
164	0xba9f9114	-0.0012173974
165	0x39c9b799	0.00038474498
166	0x00000000	0.0
167	0x00000000	0.0
168	0x00000000	0.0
169	0x39e35893	0.00043362807
170	0xba8eef93	-0.0010905139
171	0xbaa6019b	-0.0012665273
172	0xb8eca5ec	-0.00011284262
173	0xbae3b62d	-0.0017373018
174	0x00000000	0.0
175	0x00000000	0.0
176	0x00000000	0.0
177	0xbb0240fb	-0.0019875157
178	0x00000000	0.0
179	0xba426c3c	-0.0007416641
180	0xb9b41afc	-0.0003435238
181	0xbacae538	-0.001547969
182	0x38e791d7	0.00011042103
183	0xba66cc47	-0.00088042434
184	0xbb0b3e59	-0.002124688
185	0x00000000	0.0
186	0x00000000	0.0
187	0xba506a55	-0.0007950415
188	0xbb16941b	-0.0022976461
189	0xbb2aacc2	-0.0026042913
190	0xbc323178	-0.010876052
191	0x00000000	0.0
192	0x00000000	0.0
193	0xba5da4ae	-0.000845502
194	0x00000000	0.0
195	0xba3424d8	-0.0006871945
196	0x00000000	0.0
197	0x00000000	0.0
198	0x00000000	0.0
199	0x00000000	0.0

sqr_avg f4 [200]
0	0x3e2b9993	0.16757803
1	0x39858ff5	0.00025474993
2	0x3cb77305	0.022393713
3	0x00000000	0.0
4	0x00000000	0.0
5	0x3c537d05	0.012908225
6	0x00000000	0.0
7	0x3b804089	0.003913943
8	0x3ba242b9	0.0049518016
9	0x3b92e7d4	0.0044832025
10	0x3e1a2445	0.15052898
11	0x31e322dc	6.6105326e-09
12	0x3d78a090	0.0607
13	0x00000000	0.0
14	0x3d9d9154	0.07693735
15	0x3b45a666	0.0030158996
16	0x3d938dad	0.07204757
17	0x3989a2eb	0.0002625206
18	0x3c264b69	0.010149815
19	0x3e1c9305	0.15290459
20	0x3dba85d0	0.09107554
21	0x3aea4d43	0.0017875809
22	0x00000000	0.0
23	0x00000000	0.0
24	0x00000000	0.0
25	0x3da3ccfd	0.07998083
26	0x00000000	0.0
27	0x00000000	0.0
28	0x3e11bd3c	0.14232343
29	0x3ca69f5f	0.020339666
30	0x386a628c	5.5881726e-05
31	0x3b25d819	0.0025305806
32	0x3a266a27	0.00063482154
33	0x00000000	0.0
34	0x30aa8527	1.2406972e-09
35	0x00000000	0.0
36	0x3b70ea15	0.0036760618
37	0x3c1009b3	0.008791375
38	0x00000000	0.0
39	0x3d0a754d	0.033803273
40	0x00000000	0.0
41	0x00000000	0.0
42	0x3ce9acda	0.028524805
43	0x3204c068	7.727159e-09
44	0x00000000	0.0
45	0x00000000	0.0
46	0x00000000	0.0
47	0x00000000	0.0
48	0x3d642c15	0.055706102
49	0x398eb7d3	0.0002722131
50	0x3d75f5e6	0.06004896
51	0x3d37a0c7	0.044831064
52	0x3cb668ef	0.022266833
53	0x00000000	0.0
54	0x00000000	0.0
55	0x3af6e524	0.00188366
56	0x00000000	0.0
57	0x00000000	0.0
58	0x3e3328ce	0.17496035
59	0x00000000	0.0
60	0x3dd6cff5	0.104888834
61	0x3d5ddcb0	0.054165542
62	0x30711b1e	8.7713825e-10
63	0x00000000	0.0
64	0x3c99b419	0.018762635
65	0x3badad15	0.005300174
66	0x3e01be97	0.1267036
67	0x00000000	0.0
68	0x3def8e7e	0.116971
69	0x00000000	0.0
70	0x00000000	0.0
71	0x00000000	0.0
72	0x00000000	0.0
73	0x3d4c4a96	0.04987582
74	0x3e439c4e	0.19102594
75	0x3b9b8aa3	0.0047467514
76	0x3b2ddaa9	0.0026528037
77	0x3b3c4156	0.0028725467
78	0x3da51d2d	0.080622055
79	0x00000000	0.0
80	0x3dad422c	0.08459887
81	0x3b82dfe0	0.003993973
82	0x3d5590da	0.052140094
83	0x3e03ad34	0.1285904
84	0x3c9e1a7f	0.019299744
85	0x00000000	0.0
86	0x3bba99ea	0.0056946175
87	0x00000000	0.0
88	0x3b77382e	0.0037722695
89	0x3b745a5f	0.003728531
90	0x00000000	0.0
91	0x3d680763	0.05664767
92	0x00000000	0.0
93	0x3b261d1d	0.0025346943
94	0x33875f26	6.303735e-08
95	0x00000000	0.0
96	0x3d266187	0.040620353
97	0x00000000	0.0
98	0x3c2b2607	0.010446078
99	0x00000000	0.0
100	0x3ba87349	0.005140696
101	0x3c334a55	0.010943015
102	0x00000000	0.0
103	0x3c81827a	0.015809286
104	0x00000000	0.0
105	0x00000000	0.0
106	0x3c95ef5a	0.018302608
107	0x3d0a3fbf	0.0337522
108	0x3e006797	0.12539516
109	0x39bb246b	0.00035694553
110	0x00000000	0.0
111	0x3c9f819e	0.019470986
112	0x3e0ce85c	0.13760513
113	0x3c1c118d	0.009525669
114	0x3d939ca6	0.07207613
115	0x00000000	0.0
116	0x33fbac25	1.1719411e-07
117	0x31fdebdb	7.3900828e-09
118	0x00000000	0.0
119	0x00000000	0.0
120	0x00000000	0.0
121	0x3cb23eb9	0.021758424
122	0x3d99de4c	0.07513103
123	0x3e3cc7bd	0.18435569
124	0x00000000	0.0
125	0x3de842bd	0.11340854
126	0x39d39006	0.00040352362
127	0x00000000	0.0
128	0x3d600181	0.054688934
129	0x00000000	0.0
130	0x00000000	0.0
131	0x3da0a669	0.0784424
132	0x3d165b5f	0.036708232
133	0x3af47cbe	0.0018652899
134	0x00000000	0.0
135	0x3d9c099c	0.0761902
136	0x3e00ab61	0.12565376
137	0x3d9b627b	0.07587143
138	0x3b51d5de	0.0032018344
139	0x3dc6ec68	0.0971306
140	0x3c071d3e	0.008246718
141	0x3d690a2e	0.056894474
142	0x00000000	0.0
143	0x00000000	0.0
144	0x00000000	0.0
145	0x3d354a81	0.044260506
146	0x00000000	0.0
147	0x00000000	0.0
148	0x00000000	0.0
149	0x3b38965a	0.0028165788
150	0x00000000	0.0
151	0x3ca98712	0.02069429
152	0x00000000	0.0
153	0x00000000	0.0
154	0x3e36f7da	0.17867985
155	0x00000000	0.0
156	0x3cfb34a7	0.030664755
157	0x00000000	0.0
158	0x00000000	0.0
159	0x3d85bc9b	0.06530114
160	0x00000000	0.0
161	0x3e20e90c	0.157139
162	0x00000000	0.0
163	0x3daa141f	0.08304619
164	0x3cac5ae9	0.021039443
165	0x3de2b998	0.110705554
166	0x00000000	0.0
167	0x00000000	0.0
168	0x00000000	0.0
169	0x3df6b814	0.12046829
170	0x3c3ed7f1	0.011648164
171	0x3cd6402e	0.02615365
172	0x3d11084d	0.035408307
173	0x3db1a221	0.08673502
174	0x00000000	0.0
175	0x00000000	0.0
176	0x00000000	0.0
177	0x3e0cb826	0.13742122
178	0x00000000	0.0
179	0x3af03e5c	0.0018329131
180	0x3c53eeb5	0.01293533
181	0x3d6d8cbc	0.057995543
182	0x3d802898	0.06257743
183	0x3b5d3974	0.0033756169
184	0x3e2a1f38	0.16613472
185	0x00000000	0.0
186	0x00000000	0.0
187	0x3b0c1ef3	0.0021380752
188	0x3e57c6f4	0.21071988
189	0x3cf4a5de	0.029864248
190	0x3b714646	0.0036815568
191	0x00000000	0.0
192	0x00000000	0.0
193	0x3b3a23f0	0.0028402768
194	0x00000000	0.0
195	0x3b058bdc	0.0020377552
196	0x00000000	0.0
197	0x00000000	0.0
198	0x00000000	0.0
199	0x00000000	0.0

grad_avg f4 [1, 200]
0	0x3c8f7855	0.017513433
1	0x3a65bcc2	0.0008763784
2	0x3b41692d	0.0029512153
3	0x00000000	0.0
4	0x00000000	0.0
5	0x3972cc90	0.00023155124
6	0x00000000	0.0
7	0x3c0578c5	0.0081464695
8	0x3b00ac79	0.0019634052
9	0x3c6e92a1	0.014561326
10	0x3c8af267	0.01696129
11	0x30b76555	1.3343803e-09
12	0x3bb31f36	0.005466367
13	0x00000000	0.0
14	0x3b32b848	0.0027270485
15	0xb9249da1	-0.0001569898
16	0x3bfa725b	0.0076430268
17	0x3a47ec61	0.0007626471
18	0x3bc0d0c0	0.00588426
19	0x3c005139	0.007831865
20	0x3b24d0d4	0.0025148885
21	0xbbbab2cb	-0.0056975833
22	0x00000000	0.0
23	0x00000000	0.0
24	0x00000000	0.0
25	0x3c0c1795	0.008550544
26	0x00000000	0.0
27	0x00000000	0.0
28	0x3c8aa586	0.01692463
29	0x3c08969f	0.008336692
30	0xba505971	-0.0007947898
31	0x3c21852e	0.009858413
32	0x3bc29174	0.0059377495
33	0x00000000	0.0
34	0x1f876b7d	5.735255e-20
35	0x00000000	0.0
36	0x3b29e161	0.002592169
37	0xb958bdc7	-0.00020670063
38	0x00000000	0.0
39	0x3c4dc246	0.012558525
40	0x00000000	0.0
41	0x00000000	0.0
42	0x3bd4fa76	0.006499584
43	0x3592404e	1.0896563e-06
44	0x00000000	0.0
45	0x00000000	0.0
46	0x00000000	0.0
47	0x00000000	0.0
48	0xba0ef562	-0.0005453435
49	0x3a092209	0.0005231207
50	0x3b1cd8f2	0.002393302
51	0x3c88a4cf	0.01668015
52	0x3c079b4e	0.008276774
53	0x00000000	0.0
54	0x00000000	0.0
55	0xbbd4827c	-0.0064852815
56	0x00000000	0.0
57	0x00000000	0.0
58	0x3ba28049	0.0049591404
59	0x00000000	0.0
60	0x3c9dcafd	0.019261831
61	0x3bd9d965	0.00664823
62	0x205906fd	1.8382927e-19
63	0x00000000	0.0
64	0x3cc4b0d8	0.024010107
65	0x3b5b1b28	0.0033432934
66	0x3b99e7c2	0.004696817
67	0x00000000	0.0
68	0x37ba0709	2.2176204e-05
69	0x00000000	0.0
70	0x00000000	0.0
71	0x00000000	0.0
72	0x00000000	0.0
73	0xbb38f49d	-0.0028221973
74	0x3c053a23	0.008131537
75	0x3b5a41ab	0.0033303301
76	0x3bc371eb	0.005964508
77	0x3c838afe	0.016057488
78	0xbbe70901	-0.007050634
79	0x00000000	0.0
80	0x39e6b0e2	0.00044000807
81	0x3c1fe3df	0.009758919
82	0x3bc46c92	0.005994388
83	0x3c97f5cd	0.018549824
84	0x3c846f1b	0.01616626
85	0x00000000	0.0
86	0x3b34cba6	0.0027587204
87	0x00000000	0.0
88	0x3be354ca	0.006937598
89	0x3c46fb7d	0.01214492
90	0x00000000	0.0
91	0xba851c5e	-0.0010155549
92	0x00000000	0.0
93	0x3bc6b2cc	0.0060637947
94	0x263cb8eb	6.5476213e-16
95	0x00000000	0.0
96	0xbba43d70	-0.0050122067
97	0x00000000	0.0
98	0x3c79c5dd	0.015244928
99	0x00000000	0.0
100	0x3cb16ad0	0.021657377
101	0x3cd0a0cc	0.025467299
102	0x00000000	0.0
103	0x3b726166	0.0036984324
104	0x00000000	0.0
105	0x00000000	0.0
106	0xba06e635	-0.0005145998
107	0xbbbdfa23	-0.005797641
108	0x3bfe1d00	0.007754922
109	0x3a915a9b	0.0011089625
110	0x00000000	0.0
111	0x3c22a9b1	0.009928153
112	0x3c271741	0.010198415
113	0x3c159370	0.00912939
114	0x3baf35ce	0.00534699
115	0x00000000	0.0
116	0x321c4797	9.096673e-09
117	0x34884202	2.538e-07
118	0x00000000	0.0
119	0x00000000	0.0
120	0x00000000	0.0
121	0x3b9895e0	0.0046565384
122	0x3a8e2776	0.00108455
123	0x3cab0180	0.020874739
124	0x00000000	0.0
125	0x3c6ce892	0.014459746
126	0x3a84b89b	0.0010125817
127	0x00000000	0.0
128	0x3c09d56d	0.008412701
129	0x00000000	0.0
130	0x00000000	0.0
131	0x3b943695	0.0045231082
132	0x3b0580ac	0.0020370884
133	0x3c1bcb22	0.00950888
134	0x00000000	0.0
135	0x3924e9e0	0.00015727384
136	0x3c1934cd	0.009350968
137	0x3c634e56	0.013873657
138	0x3c02ee9a	0.007991457
139	0x3c170807	0.009218222
140	0xbb6d9ddf	-0.0036257429
141	0x3c20fa34	0.009825278
142	0x00000000	0.0
143	0x00000000	0.0
144	0x00000000	0.0
145	0x3b56488e	0.0032697055
146	0x00000000	0.0
147	0x00000000	0.0
148	0x00000000	0.0
149	0x3c4349dd	0.011919466
150	0x00000000	0.0
151	0x3bfaf6f0	0.007658832
152	0x00000000	0.0
153	0x00000000	0.0
154	0x3a98e36b	0.0011664456
155	0x00000000	0.0
156	0xbb969449	-0.0045953137
157	0x00000000	0.0
158	0x00000000	0.0
159	0x3c974618	0.01846604
160	0x00000000	0.0
161	0xba6f5a47	-0.0009130579
162	0x00000000	0.0
163	0x3c3c620b	0.011497985
164	0x3ccb7567	0.024836255
165	0x3c740019	0.014892601
166	0x00000000	0.0
167	0x00000000	0.0
168	0x00000000	0.0
169	0x3ba7d182	0.005121411
170	0x3b388111	0.0028153101
171	0x3c491a85	0.012274389
172	0x3c849bda	0.016187597
173	0x3c18f804	0.009336475
174	0x00000000	0.0
175	0x00000000	0.0
176	0x00000000	0.0
177	0x3b9277f6	0.004469867
178	0x00000000	0.0
179	0x3c8bf9e4	0.01708693
180	0xb9d6f92b	-0.00041002905
181	0xba1b452f	-0.000592309
182	0x3c7bea52	0.015375691
183	0x3c766b80	0.015040278
184	0x3c17e4b3	0.009270835
185	0x00000000	0.0
186	0x00000000	0.0
187	0xba9bbe28	-0.0011882233
188	0x3c7c278f	0.015390291
189	0x3c13ffa0	0.009033114
190	0x3c105c08	0.008811004
191	0x00000000	0.0
192	0x00000000	0.0
193	0x3b4bf7b0	0.0031122975
194	0x00000000	0.0
195	0x3c2b8a4d	0.010469985
196	0x00000000	0.0
197	0x00000000	0.0
198	0x00000000	0.0
199	0x00000000	0.0
