cycles/save/0.0_3_100/models/model.pth (torch, 14520 bytes, 12 tensors)

node_factors.weight f4 [26, 1]
0.00811548 0.18207417 0.18561196 0.121600516 0.10635474 0.20589696 0.1052654 0.2076629
0.10647302 0.083062775 0.24767362 0.077903956 0.20652927 -0.2159207 -0.080055244 0.23392616
0.092586115 0.079704374 -0.26357478 -0.20364164 0.08941175 0.089495674 -0.2435691 -0.1189715
0.29557627 -0.1184961
00000000: caf6 043c a771 3a3e 1011 3e3e b109 f93d
00000010: 84d0 d93d a7d6 523e 6395 d73d 95a5 543e
00000020: 870e da3d d11c aa3d 279e 7d3e 1c8c 9f3d
00000030: 697c 533e 511a 5dbe 01f4 a3bd 578a 6f3e
00000040: ca9d bd3d 0c3c a33d 46f3 86be 6f87 50be
00000050: 821d b73d 8249 b73d 2e6a 79be 54a7 f3bd
00000060: c655 973e 15ae f2bd

layers.0.weight f4 [200, 2]
0.25863746 -0.36109635 0.34024608 0.45057037 0.38209012 0.682453 0.6374996 0.14617628
-0.4157589 0.61897755 -0.37960494 -0.36825606 0.578396 0.53556186 0.32291928 0.07642675
-0.52628 -0.10311265 0.66296434 0.17602462 0.059180684 -0.14353202 -0.12102516 0.4493755
0.1611475 0.48598456 -0.1223441 0.3019993 0.41142485 0.15318343 0.31728 0.32065883
0.6407057 0.53139216 -0.056475002 -0.5597011 0.24569187 0.029478513 -0.18028729 -0.115747586
-0.032473106 0.37365845 0.21548097 -0.24544688 -0.21148571 -0.18460292 -0.14029694 0.66475207
0.41801625 0.5928266 0.1373307 0.19138421 0.35909644 -0.6171112 0.061723374 -0.046235606
-0.3538693 -0.50268346 1.0180337 1.0167989 0.3203577 0.6595937 -0.28050178 -0.11938892
0.38250077 -0.07595449 -0.06274282 -0.5844364 0.18570326 -0.4177214 0.15580991 0.7213614
-0.28980586 -0.26381475 0.53652364 -0.21702188 0.058968548 0.681648 -0.16472705 -0.45843762
-0.3868352 -0.1916371 -0.21290897 -0.32550076 0.3927783 0.14976227 -0.2212321 -0.53701526
-0.21763672 -0.29172084 -0.34121343 -0.83559895 0.05897851 -0.5694106 -0.5383201 -0.5647469
0.38732243 -0.33791792 -0.15577361 0.39280108 0.4855212 0.43345907 -0.6563154 -0.49567142
-0.14737384 0.60326177 0.106479324 -0.5657431 0.00432828 -0.53684944 -0.76134425 -0.7606366
0.80555314 0.8042651 -0.0008626503 0.15410256 -0.28624678 0.17862983 0.309985 0.14070761
-0.33132213 0.53732884 0.032298163 -0.22191578 0.4207503 0.55121154 0.66140276 0.17830862
-0.04870799 0.3026985 0.5930331 -0.6779697 0.037671816 -0.4307795 0.12881501 0.28587705
-0.030658823 -0.027596986 0.29400644 -0.042761166 -0.76106906 0.76154864 -0.34789985 -0.07593627
0.06520003 -0.041540038 -0.52096117 0.36200875 -0.20854314 -0.33907822 0.16514255 -0.36072022
-0.19686446 -0.193543 -0.25967482 -0.2886784 -0.42456752 0.42472374 -0.44330692 -0.38450953
0.13927527 0.14145716 0.3817543 -0.48554075 0.33762726 0.4280764 0.5126336 -0.599055
-0.18704964 -0.5888422 -0.31910738 0.42086616 -0.103212 0.2935679 -0.40574956 0.10503732
-0.41808876 0.3455339 -0.22114767 -0.1959743 -0.6515769 -0.039233815 0.9294255 0.92825085
-0.3687931 0.0092959935 -0.07579104 -0.5564817 0.66883063 0.05514536 0.14556861 -0.27913377
-0.31680056 0.11176005 0.6397381 0.6391124 -0.33312908 0.6711015 -0.025308965 -0.43245834
-0.018018033 0.70755136 -0.09560683 -0.21969983 -0.2845146 -0.18214506 -0.5821634 -0.5492992
0.520094 0.6253614 0.6235047 -0.3542469 0.36484885 -0.4191697 0.412353 0.49874964
0.8338168 0.49008253 0.43240732 0.013453627 0.43934458 -0.20770706 0.42982912 -0.17673872
-0.011606465 -0.60162205 -0.1807358 -0.363493 -0.23316225 -0.44140178 -0.48974437 0.092302084
0.58757704 0.68458414 0.38748854 -0.21429574 -0.6001748 0.258844 0.3759121 -0.58250254
0.24786067 0.58440816 0.15462647 -0.38816732 0.6956812 0.3415064 0.5763899 -0.43107823
0.8977351 -0.8979231 0.8188165 -0.2415834 0.5435577 0.18230373 0.3016642 -0.06974689
00000000: 216c 843e 9fe1 b8be bc34 ae3e 29b1 e63e
00000010: 51a1 c33e 3db5 2e3f 2c33 233f 3caf 153e
00000020: 5ade d4be 5075 1e3f 945b c2be 0f8c bcbe
00000030: c311 143f 951a 093f ad55 a53e a185 9c3d
00000040: 49ba 06bf ba2c d3bd 08b8 293f cc3f 343e
00000050: 7267 723d 0ffa 12be 0adc f7bd 8c14 e63e
00000060: da03 253e f8d2 f83e 8b8f fabd a79f 9a3e
00000070: 47a6 d23e 1edc 1c3e 8672 a23e 652d a43e
00000080: 4a05 243f 5109 083f 5552 67bd 9248 0fbf
00000090: a696 7b3e ec7c f13c 3b9d 38be 120d edbd
000000a0: 8502 05bd 2950 bf3e 0ba7 5c3e 6d56 7bbe
000000b0: b68f 58be 8c08 3dbe 00aa 0fbe 312d 2a3f
000000c0: 3a06 d63e 7cc3 173f 6ba0 0c3e 39fa 433e
000000d0: 7ddb b73e 00fb 1dbf a6d1 7c3d 8c61 3dbd
000000e0: 5b2e b5be ddaf 00bf ee4e 823f 7726 823f
000000f0: ed05 a43e 22db 283f ee9d 8fbe 2e82 f4bd
00000100: 24d7 c33e 078e 9bbd 4f7f 80bd a09d 15bf
00000110: ff28 3e3e 94df d5be a28c 1f3e 24ab 383f
00000120: 6f61 94be ba12 87be 9d59 093f fc3a 5ebe
00000130: 0189 713d 7c80 2e3f 35ae 28be 56b8 eabe
00000140: 430f c6be 843c 44be cf04 5abe 09a8 a6be
00000150: 3d1a c93e 485b 193e ab8a 62be d579 09bf
00000160: 29dc 5ebe 6f5c 95be 87b3 aebe d0e9 55bf
00000170: 7393 713d e5c4 11bf 59cf 09bf 4193 10bf
00000180: 204f c63e 9403 adbe 1e83 1fbe 391d c93e
00000190: 3c96 f83e 59ee dd3e 4904 28bf a5c8 fdbe
000001a0: 2be9 16be 5d6f 1a3f d511 da3d 8ad4 10bf
000001b0: 3fd4 8d3b f76e 09bf 75e7 42bf 15b9 42bf
000001c0: bb38 4e3f 51e4 4d3f 7b23 62ba 10cd 1d3e
000001d0: f08e 92be bdea 363e 5bb6 9e3e a815 103e
000001e0: 0ea3 a9be 628e 093f 144b 043d e43d 63be
000001f0: 956c d73e 331c 0d3f b151 293f 8996 363e
00000200: 0882 47bd 4cfb 9a3e 04d1 173f 6c8f 2dbf
00000210: c34d 1a3d 218f dcbe 15e8 033e 7a5e 923e
00000220: 3628 fbbc 1313 e2bc 0388 963e 5526 2fbd
00000230: 6cd5 42bf daf4 423f ee1f b2be 7a84 9bbd
00000240: 9887 853d e325 2abd b65d 05bf 3659 b93e
00000250: 558c 55be a99b adbe 211b 293e 52b0 b8be
00000260: d696 49be 2330 46be 19f4 84be a8cd 93be
00000270: ea60 d9be 6475 d93e 20f9 e2be 6fde c4be
00000280: 2d9e 0e3e 25da 103e 4d75 c33e cc98 f8be
00000290: 7bdd ac3e d42c db3e f53b 033f ab5b 19bf
000002a0: f189 3fbe 5dbe 16bf 0b62 a3be c57b d73e
000002b0: d060 d3bd 884e 963e 68be cfbe ce1d d73d
000002c0: bb0f d6be d2e9 b03e 8974 62be 7dad 48be
000002d0: becd 26bf a3b3 20bd d4ee 6d3f d9a1 6d3f
000002e0: 73d2 bcbe 394e 183c 5538 9bbd 9675 0ebf
000002f0: 7c38 2b3f 1ae0 613d f00f 153e 9fea 8ebe
00000300: af33 a2be 74e2 e43d e0c5 233f df9c 233f
00000310: e58f aabe 4fcd 2b3f bf54 cfbc 2e6b ddbe
00000320: 8e9a 93bc 1622 353f 84cd c3bd fef8 60be
00000330: e6ab 91be 3c84 3abe a908 15bf df9e 0cbf
00000340: e124 053f af17 203f 019e 1f3f da5f b5be
00000350: 78cd ba3e 699d d6be ef1f d33e 1d5c ff3e
00000360: 0575 553f 19ec fa3e 7e64 dd3e 9a6c 5c3c
00000370: c6f1 e03e 29b1 54be 9012 dc3e fffa 34be
00000380: 0b29 3ebc e703 1abf ce12 39be c11b babe
00000390: 16c2 6ebe 6aff e1be c6bf fabe e008 bd3d
000003a0: 736b 163f e840 2f3f e664 c63e 5870 5bbe
000003b0: 0ea5 19bf 3387 843e 8d77 c03e e31e 15bf
000003c0: 30cf 7d3e c69b 153f 6756 1e3e debd c6be
000003d0: 2a18 323f edd9 ae3e 4a8e 133f 49b6 dcbe
000003e0: f8d1 653f 4ade 65bf f59d 513f a461 77be
000003f0: 9926 0b3f d4ad 3a3e bb73 9a3e 75d7 8ebd

layers.0.bias f4 [200]
-0.118884936 -0.23398757 0.7176018 -0.2015174 0.42258525 0.13053617 -0.59689224 0.23320651
0.54583585 -0.462519 -0.4570561 0.7626316 0.6376207 -0.39449063 0.4999033 -0.19010456
-0.6971573 0.092227034 0.23445387 -0.21210435 0.19329111 -0.60464764 0.4542402 0.6775603
0.3475373 0.19715212 0.303989 -0.5116256 -0.22596048 0.0298808 -0.3934951 -0.52228326
0.5467449 0.44492936 -0.64218605 0.30035686 0.23173422 0.74227405 0.4780659 0.7204093
-0.23149948 0.56357133 0.6424683 -0.66774076 -0.56759936 0.06056656 0.33012262 -0.35129988
0.1693583 -0.14252695 0.247358 -0.37996352 0.46581036 0.4276008 -0.49063188 -0.022387357
0.023600334 0.29686254 0.603265 0.1634938 -0.19760622 0.6728306 -0.2875399 -0.24869448
0.009626374 -0.53846806 0.15093957 -0.47975463 0.06895125 0.02463956 1.9353993e-05 -0.5963
-0.6715989 0.40174374 0.5920299 -0.62746704 0.3344172 -0.5205165 -2.7279788e-05 0.7267356
0.6135158 -0.5169939 0.50594586 0.40179744 0.03674696 0.7545382 -0.28084525 -0.16455495
-0.35738176 0.07704818 0.1335909 0.027293917 -0.3978445 -0.31831574 0.26191258 -0.6200099
-0.1154729 0.018709667 -0.28649414 0.22442634 0.009722853 0.44198054 -0.0797831 -0.44628227
0.5674284 0.21838789 -0.21446915 -0.46605605 0.062395323 -0.67440486 0.25773206 0.4266632
-0.6202744 -0.4629233 -0.50835735 0.67336655 0.66621375 0.14494774 0.63120687 -0.25481832
-0.686475 0.24572678 0.32574335 0.76343995 8.8682345e-06 0.61765695 0.5084761 0.5815921
-0.7016848 0.64987373 -0.6027752 0.7082678 -0.14162228 -0.6266501 0.251329 -0.21049121
-0.6351186 -0.24245472 0.022449125 0.5468631 -0.26430222 0.39110643 0.21138218 0.11055469
0.20466547 -0.46405205 -0.5877459 -0.25786945 -0.6589203 -0.32975963 0.12610272 -0.46570706
-0.29330507 -0.18228765 -0.179769 -0.39033327 1.5213445e-05 3.2044295e-06 0.1689532 0.09987029
-0.35310772 -0.2434455 0.025107328 -0.44122422 0.10009569 -0.13453749 0.34779546 0.2349978
0.6020563 -0.13076022 -0.52248484 0.2599238 -0.47788954 -0.1390979 -0.22896309 -0.26830775
-0.26161814 0.59821427 0.4736078 0.26808122 0.6611523 -0.6407957 0.18132791 0.5198436
0.53215015 -0.56275356 0.25365904 -0.40282878 -0.19070944 -0.14755215 -0.59040904 -0.67451936
-0.4652041 0.2656263 0.39119622 -0.6150158 -0.2655485 0.08714346 -0.61135215 0.37309057
00000000: f279 f3bd 709a 6fbe c0b4 373f 945a 4ebe
00000010: 185d d83e 46ab 053e eecd 18bf b0cd 6e3e
00000020: e6bb 0b3f 4acf ecbe 4203 eabe d33b 433f
00000030: 1c3b 233f adfa c9be 53f3 ff3e c5aa 42be
00000040: e778 32bf 87e1 bc3d ad14 703e e231 59be
00000050: 1bee 453e 30ca 1abf 2c92 e83e 9874 2d3f
00000060: 69f0 b13e 3fe2 493e 72a4 9b3e e5f9 02bf
00000070: 2f62 67be 94c8 f43c 3178 c9be 5bb4 05bf
00000080: 79f7 0b3f c8cd e33e 4e66 24bf 60c8 993e
00000090: bc4b 6d3e ac05 3e3f 0ec5 f43e be6c 383f
000000a0: 330e 6dbe 3646 103f cd78 243f 0ff1 2abf
000000b0: 314e 11bf a414 783d d505 a93e 94dd b3be
000000c0: 436c 2d3e 96f2 11be 6a4b 7d3e 948a c2be
000000d0: b27e ee3e 7eee da3e 1a34 fbbe b165 b7bc
000000e0: 7d55 c13c 5efe 973e 936f 1a3f eb6a 273e
000000f0: 4959 4abe a03e 2c3f 6e38 93be c4a9 7ebe
00000100: f0b7 1d3c 0bd9 09bf e78f 1a3e 66a2 f5be
00000110: 5036 8d3d e7d8 c93c 625a a237 1ea7 18bf
00000120: e8ed 2bbf 5bb1 cd3e 468f 173f aea1 20bf
00000130: bb38 ab3e 9240 05bf e6d6 e4b7 580b 3a3f
00000140: 5f0f 1d3f b659 04bf ab85 013f 65b8 cd3e
00000150: fb83 163d 6a29 413f f3ca 8fbe 1881 28be
00000160: befa b6be 70cb 9d3d 0ecc 083e 7e97 df3c
00000170: 46b2 cbbe 48fa a2be 6819 863e f8b8 1ebf
00000180: 0e7d ecbd 0445 993c 5caf 92be 05d0 653e
00000190: 9a4c 1f3c 464b e23e 5265 a3bd 1c7f e4be
000001a0: fd42 113f 13a1 5f3e cd9d 5bbe e69e eebe
000001b0: 3d92 7f3d cca5 2cbf 75f5 833e 9973 da3e
000001c0: 4eca 1ebf 4804 edbe b523 02bf c061 2c3f
000001d0: fc8c 2a3f 2e6d 143e c696 213f 8c77 82be
000001e0: d3bc 2fbf cd9f 7b3e d5c7 a63e cd70 433f
000001f0: c7c8 1437 c41e 1e3f 7d2b 023f 38e3 143f
00000200: 9da1 33bf 205e 263f 7a4f 1abf 0a51 353f
00000210: 6e05 11be 246c 20bf 32ae 803e 028b 57be
00000220: 2297 22bf 0d46 78be 3ae7 b73c 38ff 0b3f
00000230: 9f52 87be 1a3f c83e 9274 583e 7f6a e23d
00000240: d393 513e 3b98 edbe 8476 16bf 7707 84be
00000250: 00af 28bf 41d6 a8be 1221 013e 2871 eebe
00000260: 152c 96be 9da9 3abe 5d15 38be c3d9 c7be
00000270: 403d 7f37 ae0b 5736 1102 2d3e cb88 cc3d
00000280: 89ca b4be c749 79be e2ad cd3c 24e8 e1be
00000290: f8fe cc3d 32c4 09be 3f12 b23e 43a3 703e
000002a0: 5d20 1a3f 02e6 05be 91c1 05bf bb14 853e
000002b0: f0ad f4be ae6f 0ebe 4d75 6abe a25f 89be
000002c0: d0f2 85be 9224 193f b97c f23e f141 893e
000002d0: 4741 293f 300b 24bf 06ae 393e 7814 053f
000002e0: fe3a 083f 9e10 10bf 99df 813e 933f cebe
000002f0: 5649 43be e917 17be 0c25 17bf 4dad 2cbf
00000300: 3b2f eebe 2c00 883e df4a c83e ad71 1dbf
00000310: f9f5 87be 4578 b23d 9381 1cbf ba05 bf3e

layers.2.weight f4 [1, 200]
0.30030409 0.010961653 -0.10900331 -0.047048204 -0.029624363 -0.016213698 -0.036777616 -0.12116747
-0.030668372 0.0043032654 -0.022521699 -0.08829472 -0.09405764 0.055953894 -0.07153229 0.053281967
0.061701536 -0.06833316 -0.041074045 -0.0047075213 -0.005438486 -0.062284656 -0.033469982 -0.06912174
-0.021122968 -0.05683708 -0.094073504 -0.0074616913 0.0131568 -0.43367997 -0.04369183 -0.015483007
-0.0864496 -0.03666781 0.046516873 -0.059319813 0.00036167007 -0.090848945 -0.094801635 -0.094896615
-0.047623 -0.11230777 -0.12174184 -0.06126101 0.018040678 -0.043489724 -0.0012161718 0.05887773
-0.07369274 -0.048723698 -0.0952407 0.02671702 -0.12303855 -0.031005288 0.012678022 -0.726403
-0.37176302 -0.090882085 -0.0008302665 -0.019711258 0.14944035 -0.052380774 0.04265055 0.043882344
-0.0019442126 0.052654807 -0.08638987 0.04545009 -0.030734085 -0.026336987 0.096879914 0.015651694
-0.025655733 -0.0653973 -0.042475678 0.011654583 -0.08276868 0.054158166 0.11560688 -0.10679111
-0.06592432 -0.0066352594 -0.101152524 -0.053893223 -0.07082554 -0.09531472 -0.022225903 -0.024645243
0.066124626 -0.035918448 0.0030486828 -0.20671254 0.015651286 0.028415509 -0.04379575 -0.054244783
-0.03435752 -0.3212842 0.0010391242 -0.037497863 -0.008022449 -0.007312953 -0.05693489 -0.02359078
-0.10883874 -0.11896733 -0.04125882 0.020847391 -0.041397076 0.060475502 -0.08516819 -0.06759162
-0.020526635 -0.00025257072 0.022188166 -0.06282823 -0.053597968 -0.054763272 -0.03332585 -0.01628709
-0.04121714 -0.045919716 -0.06441398 -0.09426839 0.6628315 -0.06120722 -0.06933426 -0.094913185
-0.009094067 -0.12216281 0.015724499 -0.060953416 -0.043684676 0.004463223 -0.05337903 0.26309472
0.052597284 -0.19426681 0.00422337 -0.04226073 0.06329042 -0.03544642 -0.11033527 -0.07238958
-0.09003203 -0.04702445 0.05443826 -0.050144095 0.03456195 -0.062210385 -0.08450071 0.004122578
0.049139366 0.016776362 -0.33535808 0.0107073635 0.24098186 0.13261761 -0.030778706 -0.10660356
-0.04803342 0.061592832 -0.33535326 -0.011767262 -0.09347418 0.061596844 -0.07604728 -0.1115059
-0.07937864 -0.03902969 0.027392289 -0.011120886 -0.014150398 0.030202566 -0.06504632 0.026745941
0.03175895 -0.01357389 -0.09520944 -0.0731448 -0.044093642 -0.049118903 -0.107909836 -0.13231434
-0.05475176 0.04292379 -0.03127059 0.0042140046 0.47542778 -0.04343641 0.007287229 -0.017171491
-0.0342252 -0.0046927696 -0.11307402 0.010129673 -0.06073816 -0.08050336 -0.030715115 -0.038132146
00000000: 75c1 993e 8198 333c 213d dfbd 9eb5 40bd
00000010: cbae f2bc 97d2 84bc 20a4 16bd a726 f8bd
00000020: 3d3c fbbc 6802 8d3b 6d7f b8bc ddd3 b4bd
00000030: 4ba1 c0bd e92f 653d 857f 92bd 313e 5a3d
00000040: c0ba 7c3d 41f2 8bbd 423d 28bd 8d41 9abb
00000050: 5435 b2bb 321e 7fbd d217 09bd b38f 8dbd
00000060: 130a adbc ffcd 68bd 9ca9 c0bd 3481 f4bb
00000070: 9e8f 573c 4d0b debe 34f6 32bd 70ac 7dbc
00000080: 7d0c b1bd fc30 16bd 7a88 3e3d 55f9 72bd
00000090: 899e bd39 030f babd 5c27 c2bd 2859 c2bd
000000a0: 5610 43bd 9e01 e6bd c953 f9bd d3ec 7abd
000000b0: 0bca 933c 4822 32bd f467 9fba c629 713d
000000c0: 38ec 96bd 8092 47bd 8e0d c3bd a7dd da3c
000000d0: a3fb fbbd cdfe fdbc 7ab7 4f3c 8cf5 39bf
000000e0: b957 bebe 6320 babd 3ea6 59ba 8179 a1bc
000000f0: e406 193e 398d 56bd 58b2 2e3d f9bd 333d
00000100: f3d4 feba 91ac 573d 2ced b0bd e029 3a3d
00000110: 0cc6 fbbc aac0 d7bc fa68 c63d fb37 803c
00000120: f92b d2bc 05ef 85bd fafa 2dbd ddf2 3e3c
00000130: a082 a9bd f4d4 5d3d 4dc3 ec3d 4cb5 dabd
00000140: 5403 87bd 976c d9bb 0e29 cfbd 24bf 5cbd
00000150: fb0c 91bd 5d34 c3bd 1913 b6bc d2e4 c9bc
00000160: 596c 873d 391f 13bd 69cc 473b 74ac 53be
00000170: 2037 803c a4c7 e83c 2c63 33bd c72f 5ebd
00000180: 79ba 0cbd 5d7f a4be 3933 883a 5c97 19bd
00000190: 9770 03bc 7fa1 efbb 8f34 69bd 7441 c1bc
000001a0: d8e6 debd 25a5 f3bd 02ff 28bd 26c8 aa3c
000001b0: fb8f 29bd 29b5 773d a96c aebd 7a6d 8abd
000001c0: 7927 a8bc 786b 84b9 f5c3 b53c 16ac 80bd
000001d0: 8b89 5bbd 744f 60bd b080 08bd 816c 85bc
000001e0: 4ed3 28bd 5016 3cbd 7aeb 83bd c90f c1bd
000001f0: 53af 293f 6cb4 7abd 1fff 8dbd d861 c2bd
00000200: 48ff 14bc 7f30 fabd aad0 803c 4aaa 79bd
00000210: b4ee 32bd 3a40 923b f8a3 5abd 5ab4 863e
00000220: 4070 573d e1ed 46be 3264 8a3b 9619 2dbd
00000230: 689e 813d 4430 11bd 75f7 e1bd fd40 94bd
00000240: b762 b8bd b69c 40bd a7fa 5e3d e563 4dbd
00000250: d590 0d3d 51d0 7ebd b50e adbd b116 873b
00000260: 5c46 493d 956e 893c 0eb4 abbe f06d 2f3c
00000270: f3c3 763e e9cc 073e a023 fcbc f852 dabd
00000280: b1be 44bd c448 7c3d 6cb3 abbe 79cb 40bc
00000290: 646f bfbd f94c 7c3d adbe 9bbd 355d e4bd
000002a0: 4591 a2bd 99dd 1fbd cb65 e03c 6034 36bc
000002b0: 12d7 67bc 5f6b f73c 0137 85bd 4e1a db3c
000002c0: ac15 023d 0565 5ebc 2bfd c2bd f1cc 95bd
000002d0: 899b 34bd e730 49bd d5ff dcbd 697d 07be
000002e0: 6243 60bd dbd0 2f3d 9715 00bd a215 8a3b
000002f0: 456b f33e 61ea 31bd b5c9 ee3b 3aab 8cbc
00000300: b92f 0cbd cec5 99bb 5a93 e7bd eef6 253c
00000310: 94c8 78bd f2de a4bd 449e fbbc 7430 1cbd

grad_avg f4 [26, 1]
0.0 -0.0051254006 0.0020802263 0.00036049078 0.0012598007 -0.0018911926 -0.00800996 -0.00026674866
0.0041667433 -0.008746882 -0.015079841 -0.008545296 0.0016063896 0.00047778027 0.05346349 -0.023479847
0.0207732 0.0023494526 0.011733232 0.004801731 -0.00933919 0.009581198 -0.0041036396 -0.0060374076
-0.0132661145 0.0010772318
00000000: 0000 0000 faf2 a7bb 6854 083b 4100 bd39
00000010: e61f a53a e5e1 f7ba 353c 03bc 66da 8bb9
00000020: 2d89 883b 154f 0fbc 7011 77bc 9201 0cbc
00000030: 7e8d d23a 957e fa39 88fc 5a3d cf58 c0bc
00000040: 8f2c aa3c 46f9 193b be3c 403c d757 9d3b
00000050: 6703 19bc 75fa 1c3c d377 86bb 72d5 c5bb
00000060: 1e5a 59bc e731 8d3a

sqr_avg f4 [26, 1]
0.0 0.0015065519 0.0009009006 0.0030211613 0.0035966064 0.0017310482 0.0032739225 0.0015046819
0.0030296056 0.0029715686 0.0020048881 0.00409222 0.0017661565 0.004576059 0.0071208593 0.0032700705
0.0031182333 0.0033971353 0.00081609 0.0006696765 0.0027311672 0.0043058763 0.002653037 0.002547519
0.0024500675 0.0034604429
00000000: 0000 0000 7e77 c53a 6a2a 6c3a adfe 453b
00000010: 0bb5 6b3b 57e4 e23a 4e8f 563b bf38 c53a
00000020: 598c 463b a6be 423b 7164 033b 0818 863b
00000030: 617e e73a c4f2 953b 1956 e93b ae4e 563b
00000040: 465b 4c3b 79a2 5e3b dfee 553a 3b8d 2f3a
00000050: 62fd 323b 4f18 8d3b 93de 2d3b 47f4 263b
00000060: 5091 203b 99c8 623b

grad_avg f4 [200, 2]
0.00021251319 9.9410965e-05 3.795857e-07 3.795857e-07 6.347779e-05 -0.00012629018 9.498751e-06 -2.8837128e-05
1.7265327e-05 -3.4231332e-05 -2.859137e-05 -5.6079716e-05 0.0 0.0 7.0564216e-05 -0.00014041063
1.7854787e-05 -3.550022e-05 0.0 0.0 0.0 0.0 5.141186e-05 -0.000102292106
5.477437e-05 -0.000108965796 0.0 0.0 4.167138e-05 -8.2854174e-05 6.9077517e-09 6.9077517e-09
0.0 0.0 -0.00021350336 -0.0003224706 2.3948842e-05 -4.753682e-05 0.0 0.0
3.2086075e-06 -6.1645846e-06 0.0 0.0 1.9491685e-05 -3.875201e-05 4.025833e-05 -8.004369e-05
1.2355288e-05 -2.435006e-05 3.3126023e-05 -6.578804e-05 5.47682e-05 -0.00010907586 0.0 0.0
-1.8709238e-07 -1.8709238e-07 -0.0010835041 -0.0030494274 0.0 0.0 0.0 0.0
5.034498e-05 -0.00010017069 2.1347934e-05 -4.2490712e-05 0.0 0.0 3.4580353e-05 -6.8625646e-05
-2.1831737e-07 4.4592323e-07 5.2903513e-05 -0.00010527818 5.5212e-05 -0.00010980713 5.523837e-05 -0.000109993955
0.0 0.0 6.536809e-05 -0.00013018506 7.088436e-05 -0.00014108709 0.0 0.0
0.0 0.0 0.00014604918 5.8175403e-05 7.189956e-07 -1.3892643e-06 0.0 0.0
0.00022212169 -0.0002307 4.15201e-05 -4.571889e-05 5.5498185e-05 -0.00011029608 0.0 0.0
7.1634524e-05 -0.00014256136 1.8059607e-05 -3.5920217e-05 0.0 0.0 0.0030927383 0.0032802783
-0.000794546 -0.002746044 5.291999e-05 -0.00010529248 5.0597004e-07 -8.74371e-07 1.1535013e-05 -2.2737077e-05
0.00010977081 0.00033490238 3.0506506e-05 -6.067406e-05 2.8528648e-06 2.8528648e-06 9.2963796e-07 9.2963796e-07
-2.2544907e-06 -5.1210836e-08 0.0 0.0 5.0271472e-05 -0.00010020485 0.0 0.0
1.7900948e-05 -3.5577228e-05 -8.165845e-05 -3.497205e-06 0.00042518013 0.0001739186 0.0 0.0
0.0 0.0 3.8070746e-05 -7.573717e-05 2.4732424e-05 -4.920056e-05 0.0 0.0
4.8175276e-05 -9.5930074e-05 0.0 0.0 4.389344e-05 -0.00025602526 6.215408e-05 -0.00012378818
3.839722e-05 -7.635825e-05 0.0 0.0 5.8910686e-05 -0.000117187665 3.1394353e-05 -6.245868e-05
0.0003013418 2.0711917e-05 5.549178e-05 -0.00011043684 0.0 0.0 0.0 0.0
0.0 0.0 -1.2562815e-05 -7.76082e-05 -1.828801e-05 -1.3147973e-05 -0.00051268324 -0.0014473372
0.0 0.0 0.0 0.0 2.555519e-05 -5.068139e-05 0.0 0.0
-2.1862146e-08 1.9488892e-08 -0.0013194247 -0.0016150156 0.0 0.0 2.1824448e-05 -4.3475397e-05
-9.081913e-06 -8.5213384e-07 4.2739166e-06 -8.4188105e-06 0.00011685716 0.00020849194 0.0 0.0
6.338971e-05 -0.00012609169 0.00035858498 -0.00037244215 2.2572789e-11 -2.0239425e-11 0.0 0.0
-0.0001990562 -0.00013334936 0.0 0.0 4.9608676e-05 -9.869956e-05 3.937364e-05 -7.83081e-05
0.0 0.0 0.0 0.0 0.0 0.0 3.6577425e-05 -7.278015e-05
3.1243282e-05 -6.203131e-05 0.000143623 -0.00014025859 1.940834e-05 -3.855984e-05 1.3432447e-09 -1.1448685e-09
0.0 0.0 2.6742466e-05 -5.3221385e-05 3.755599e-05 -7.4566975e-05 5.4890854e-05 -0.0001092533
-0.0042238375 -0.0013477069 3.5663586e-05 -7.090113e-05 4.0396804e-05 -8.030164e-05 5.5267166e-05 -0.0001099869
00000000: 13d6 5e39 db7a d038 ddc9 cb34 ddc9 cb34
00000010: 611f 8538 c36c 04b9 d35c 1f37 43e7 f1b7
00000020: 02d5 9037 9d93 0fb8 80d7 efb7 2337 6bb8
00000030: 0000 0000 0000 0000 e0fb 9338 313b 13b9
00000040: ddc6 9537 12e6 14b8 0000 0000 0000 0000
00000050: 0000 0000 0000 0000 10a3 5738 a885 d6b8
00000060: 88bd 6538 9184 e4b8 0000 0000 0000 0000
00000070: 4ec8 2e38 ffc1 adb8 3a59 ed31 3a59 ed31
00000080: 0000 0000 0000 0000 dfdf 5fb9 4511 a9b9
00000090: bfe5 c837 4662 47b8 0000 0000 0000 0000
000000a0: 7553 5736 61d9 ceb6 0000 0000 0000 0000
000000b0: 1382 a337 a789 22b8 0ddb 2838 21dd a7b8
000000c0: 8f49 4f37 5b43 ccb7 ccf0 0a38 aff7 89b8
000000d0: e8b6 6538 a8bf e4b8 0000 0000 0000 0000
000000e0: 90e3 48b4 90e3 48b4 5d04 8eba e7d8 47bb
000000f0: 0000 0000 0000 0000 0000 0000 0000 0000
00000100: 8329 5338 bb12 d2b8 5714 b337 0e38 32b8
00000110: 0000 0000 0000 0000 5f0a 1138 1deb 8fb8
00000120: 9f6a 6ab4 3967 ef34 b7e4 5d38 cbc8 dcb8
00000130: 6f93 6738 4148 e6b8 c0af 6738 8eac e6b8
00000140: 0000 0000 0000 0000 3a16 8938 4982 08b9
00000150: c0a7 9438 c7f0 13b9 0000 0000 0000 0000
00000160: 0000 0000 0000 0000 c724 1939 5d01 7438
00000170: 0001 4135 c276 bab5 0000 0000 0000 0000
00000180: 56e9 6839 0fe8 71b9 de25 2e38 49c2 3fb8
00000190: b9c6 6838 c24e e7b8 0000 0000 0000 0000
000001a0: 7e3a 9638 867c 15b9 b67e 9737 0aa9 16b8
000001b0: 0000 0000 0000 0000 8aaf 4a3b f0f9 563b
000001c0: 1449 50ba f9f6 33bb 68f6 5d38 78d0 dcb8
000001d0: ffd1 0735 51b6 6ab5 8186 4137 80bb beb7
000001e0: c134 e638 d695 af39 39e8 ff37 477c 7eb8
000001f0: d873 3f36 d873 3f36 3c8c 7935 3c8c 7935
00000200: db4b 17b6 e9f2 5bb3 0000 0000 0000 0000
00000210: 95da 5238 1225 d2b8 0000 0000 0000 0000
00000220: fe29 9637 c238 15b8 0c40 abb8 86b1 6ab6
00000230: b6ea de39 eb5d 3639 0000 0000 0000 0000
00000240: 0000 0000 0000 0000 27ae 1f38 15d5 9eb8
00000250: 7a78 cf37 b35c 4eb8 0000 0000 0000 0000
00000260: cf0f 4a38 112e c9b8 0000 0000 0000 0000
00000270: 391a 3838 213b 86b9 b858 8238 23cd 01b9
00000280: b30c 2138 8622 a0b8 0000 0000 0000 0000
00000290: de16 7738 a6c2 f5b8 6ead 0338 40fc 82b8
000002a0: 69fd 9d39 81be ad37 d8bf 6838 549a e7b8
000002b0: 0000 0000 0000 0000 0000 0000 0000 0000
000002c0: 0000 0000 0000 0000 e1c4 52b7 96c1 a2b8
000002d0: 3469 99b7 1d96 5cb7 9765 06ba 94b4 bdba
000002e0: 0000 0000 0000 0000 0000 0000 0000 0000
000002f0: 5a5f d637 ba92 54b8 0000 0000 0000 0000
00000300: 5ecb bbb2 8768 a732 8cf0 acba eeae d3ba
00000310: 0000 0000 0000 0000 a513 b737 5a59 36b8
00000320: 855e 18b7 31be 64b5 aa68 8f36 843e 0db7
00000330: 3611 f538 a19e 5a39 0000 0000 0000 0000
00000340: 17f0 8438 7b37 04b9 7600 bc39 5744 c3b9
00000350: 678d c62d 2207 b2ad 0000 0000 0000 0000
00000360: beb9 50b9 b2d3 0bb9 0000 0000 0000 0000
00000370: e912 5038 ecfc ceb8 2025 2538 5739 a4b8
00000380: 0000 0000 0000 0000 0000 0000 0000 0000
00000390: 0000 0000 0000 0000 b66a 1938 8ca1 98b8
000003a0: 380b 0338 ce16 82b8 8199 1639 6112 13b9
000003b0: 18cf a237 50bb 21b8 399d b830 7b59 9db0
000003c0: 0000 0000 0000 0000 0255 e037 073a 5fb8
000003d0: 7085 1d38 d760 9cb8 9b3a 6638 eb1e e5b8
000003e0: 1e68 8abb 8aa5 b0ba 7c95 1538 c1b0 94b8
000003f0: bd6f 2938 9d67 a8b8 abce 6738 c4a8 e6b8

sqr_avg f4 [200, 2]
6.916541e-06 5.6419753e-06 2.1749344e-11 2.1749344e-11 5.7901134e-06 5.950938e-06 8.260509e-09 3.0440057e-09
4.31524e-07 4.4319802e-07 1.0057091e-07 1.12898334e-07 0.0 0.0 7.155653e-06 7.353679e-06
4.4863023e-07 4.6183303e-07 0.0 0.0 0.0 0.0 3.7850082e-06 3.891333e-06
4.306674e-06 4.426604e-06 0.0 0.0 2.4952337e-06 2.5639579e-06 2.4693367e-10 2.495273e-10
0.0 0.0 1.8403634e-06 1.5550189e-06 8.2863124e-07 8.506803e-07 0.0 0.0
1.7672358e-08 1.7880986e-08 0.0 0.0 5.364595e-07 5.5199405e-07 2.3287862e-06 2.3933871e-06
2.3079164e-07 2.3590201e-07 1.5918241e-06 1.6341471e-06 4.255477e-06 4.3774508e-06 0.0 0.0
4.3052645e-11 4.3052645e-11 5.0671515e-05 5.573655e-05 0.0 0.0 0.0 0.0
3.6267677e-06 3.7283319e-06 6.3810484e-07 6.569933e-07 0.0 0.0 1.7501959e-06 1.7956866e-06
1.8376138e-09 1.7969037e-09 4.000621e-06 4.113096e-06 4.3903146e-06 4.511449e-06 4.337625e-06 4.4622234e-06
0.0 0.0 6.0786074e-06 6.2531917e-06 7.1962295e-06 7.3982196e-06 0.0 0.0
0.0 0.0 4.986865e-07 6.091354e-07 1.5349503e-09 1.5594273e-09 0.0 0.0
2.6526018e-06 2.4002975e-06 3.771244e-08 5.534537e-08 4.473283e-06 4.5924803e-06 0.0 0.0
7.364877e-06 7.5710673e-06 4.5704786e-07 4.7042136e-07 0.0 0.0 0.00012796256 0.00015189587
3.7696256e-05 4.095524e-05 4.014198e-06 4.126462e-06 9.2176106e-10 9.279984e-10 2.0041185e-07 2.0479915e-07
9.024428e-07 1.4277557e-06 1.3243109e-06 1.3618816e-06 3.0199587e-10 3.0199587e-10 1.695967e-10 1.695967e-10
1.1919914e-09 1.3620763e-09 0.0 0.0 3.551125e-06 3.6559986e-06 0.0 0.0
4.578739e-07 4.7049784e-07 2.0129306e-07 1.8291662e-07 2.3701855e-06 2.913889e-06 0.0 0.0
0.0 0.0 2.070983e-06 2.1297972e-06 8.6445226e-07 8.894937e-07 0.0 0.0
3.294181e-06 3.389236e-06 0.0 0.0 3.4678228e-06 4.2875276e-06 5.49076e-06 5.648999e-06
2.1113403e-06 2.170256e-06 0.0 0.0 4.989738e-06 5.127846e-06 1.3989908e-06 1.4385462e-06
1.3791399e-06 1.6311101e-06 4.4039716e-06 4.528409e-06 0.0 0.0 0.0 0.0
0.0 0.0 5.4700234e-07 5.6995344e-07 8.80887e-09 1.0409432e-08 1.1503946e-05 1.2073753e-05
0.0 0.0 0.0 0.0 9.537138e-07 9.779261e-07 0.0 0.0
6.1615055e-09 7.149333e-09 2.833222e-05 2.8623273e-05 0.0 0.0 6.633578e-07 6.832684e-07
1.5899365e-08 1.930698e-08 2.5318599e-08 2.6062423e-08 1.8124798e-07 1.3861504e-07 0.0 0.0
5.785335e-06 5.9448134e-06 6.9468288e-06 6.2749773e-06 4.998993e-11 4.018919e-11 0.0 0.0
5.8475166e-07 5.1860826e-07 0.0 0.0 3.5242372e-06 3.622004e-06 2.2184756e-06 2.2801569e-06
0.0 0.0 0.0 0.0 0.0 0.0 1.9042261e-06 1.9586996e-06
1.414908e-06 1.4526229e-06 1.4717667e-06 1.3364773e-06 5.35589e-07 5.5089845e-07 2.3815575e-11 1.8580927e-11
0.0 0.0 1.0092734e-06 1.0383258e-06 2.0542059e-06 2.107855e-06 4.3007467e-06 4.422207e-06
0.00012755198 0.00013962224 1.8231991e-06 1.8734289e-06 2.3489504e-06 2.413169e-06 4.367526e-06 4.4903722e-06
00000000: a314 e836 3350 bd36 2b4f bf2d 2b4f bf2d
00000010: b248 c236 2bae c736 1aea 0d32 b72e 5131
00000020: 35ac e734 acf0 ed34 71f9 d733 8472 f233
00000030: 0000 0000 0000 0000 971a f036 9fbf f636
00000040: 45db f034 d9f1 f734 0000 0000 0000 0000
00000050: 0000 0000 0000 0000 f201 7e36 4c92 8236
00000060: 0c82 9036 3d88 9436 0000 0000 0000 0000
00000070: ca73 2736 7610 2c36 d3c0 872f d82d 892f
00000080: 0000 0000 0000 0000 6802 f735 0bb6 d035
00000090: 1b6f 5e35 4e5a 6435 0000 0000 0000 0000
000000a0: edcd 9732 b498 9932 0000 0000 0000 0000
000000b0: 3701 1035 be2c 1435 3e48 1c36 149e 2036
000000c0: 86cf 7734 404c 7d34 a9a6 d535 de54 db35
000000d0: 45ca 8e36 04e2 9236 0000 0000 0000 0000
000000e0: f858 3d2e f858 3d2e 2088 5438 aac6 6938
000000f0: 0000 0000 0000 0000 0000 0000 0000 0000
00000100: 6563 7336 4134 7a36 3b4a 2b35 3c5c 3035
00000110: 0000 0000 0000 0000 46e8 ea35 5203 f135
00000120: 4a8f fc30 eef6 f630 133d 8636 3a03 8a36
00000130: 8450 9336 0d61 9736 ea8b 9136 35ba 9536
00000140: 0000 0000 0000 0000 d7f6 cb36 82d2 d136
00000150: 2477 f136 393e f836 0000 0000 0000 0000
00000160: 0000 0000 0000 0000 7add 0535 7783 2335
00000170: 43f6 d230 7853 d630 0000 0000 0000 0000
00000180: 5a03 3236 cc14 2136 44f9 2133 e1b4 6d33
00000190: 3519 9636 1b19 9a36 0000 0000 0000 0000
000001a0: d01f f736 f90a fe36 2e60 f534 388e fc34
000001b0: 0000 0000 0000 0000 b02d 0639 3d46 1f39
000001c0: 0c1c 1e38 5bc7 2b38 b3b1 8636 0a76 8a36
000001d0: 2b5f 7d30 1516 7f30 ca30 5734 c3e6 5b34
000001e0: 663f 7235 50a1 bf35 fabe b135 e5c9 b635
000001f0: 2406 a62f 2406 a62f 3a79 3a2f 3a79 3a2f
00000200: 78d3 a330 cd33 bb30 0000 0000 0000 0000
00000210: dd4f 6e36 9459 7536 0000 0000 0000 0000
00000220: b6d1 f534 bb98 fc34 0423 5834 bd67 4434
00000230: 7a0f 1f36 3b8c 4336 0000 0000 0000 0000
00000240: 0000 0000 0000 0000 38fb 0a36 a3ed 0e36
00000250: b50c 6835 8bc5 6e35 0000 0000 0000 0000
00000260: 9911 5d36 a272 6336 0000 0000 0000 0000
00000270: beb8 6836 95dd 8f36 453d b836 888c bd36
00000280: 8db0 0d36 b7a4 1136 0000 0000 0000 0000
00000290: 866d a736 dd0f ac36 f5c4 bb35 1214 c135
000002a0: e31a b935 84ec da35 d4c5 9336 bdf2 9736
000002b0: 0000 0000 0000 0000 0000 0000 0000 0000
000002c0: 0000 0000 0000 0000 b7d5 1235 e7fe 1835
000002d0: d255 1732 2bd5 3232 1201 4137 6090 4a37
000002e0: 0000 0000 0000 0000 0000 0000 0000 0000
000002f0: 5b01 8035 4941 8335 0000 0000 0000 0000
00000300: 2db5 d331 33a6 f531 fbaa ed37 031c f037
00000310: 0000 0000 0000 0000 9a11 3235 d969 3735
00000320: 1393 8832 7fd8 a532 307c d932 e0df df32
00000330: 119d 4234 36d6 1434 0000 0000 0000 0000
00000340: a61f c236 8f79 c736 ce18 e936 a58d d236
00000350: a8db 5b2e 01c1 302e 0000 0000 0000 0000
00000360: d4f7 1c35 7d36 0b35 0000 0000 0000 0000
00000370: ef81 6c36 8e11 7336 1fe1 1436 cc04 1936
00000380: 0000 0000 0000 0000 0000 0000 0000 0000
00000390: 0000 0000 0000 0000 b694 ff35 3472 0336
000003a0: dee7 bd35 bef7 c235 8589 c535 0361 b335
000003b0: 65c5 0f35 74e1 1335 e87b d12d 8770 a32d
000003c0: 0000 0000 0000 0000 5f76 8735 9a5c 8b35
000003d0: fdda 0936 ac74 0d36 224f 9036 7862 9436
000003e0: 79bf 0539 8f67 1239 a5b4 f435 8772 fb35
000003f0: a9a2 1d36 eef1 2136 c38c 9236 01ac 9636

grad_avg f4 [200]
0.0020275663 1.2888769e-06 0.00082840066 3.2195054e-05 0.00022600865 -0.00012350753 0.0 0.0009206728
0.00023382313 0.0 0.0 0.00067122816 0.00071497215 0.0 0.00054399314 2.4148129e-08
0.0 -0.0009454365 0.0003128194 0.0 4.2455355e-05 0.0 0.0002550703 0.0005257512
0.00016147719 0.0004325342 0.0007148552 0.0 7.11608e-07 0.0027088134 0.0 0.0
0.00065716787 0.0002792573 0.0 0.0004514289 -1.7723521e-06 0.00069053925 0.0007206597 0.00072123547
0.0 0.0008533755 0.00092502724 0.0 0.0 0.0021395418 1.0164965e-05 0.0
-0.0001241079 -0.00015490281 0.000723972 0.0 0.0009349458 0.00023628057 0.0 0.0053424034
0.0022512472 0.00069087156 7.4199784e-06 0.00015068632 0.00074451556 0.0003986065 9.664704e-06 3.156469e-06
-2.7806407e-05 0.0 0.00065647584 0.0 0.00023431629 -1.6487633e-05 0.00025325335 0.0
0.0 0.00049748324 0.0003234073 0.0 0.0006292114 0.0 -0.0029171444 0.0008115104
0.0005014353 0.0 0.0007688166 0.00040997006 0.0026864887 0.00072450115 0.0 0.0
0.0 -2.58838e-06 -9.768623e-05 0.0009945821 0.0 0.0 0.00033344218 0.0
8.801339e-08 -0.0022868891 0.0 0.00028548978 -0.00012058075 5.6550984e-05 -0.0005850172 0.0
0.0008271553 -0.00020096566 8.451931e-11 0.0 0.00173222 0.0 0.00064737967 0.00051403197
0.0 0.0 0.0 0.00047793286 0.0004079296 1.35577875e-05 0.00025403948 4.698038e-09
0.0 0.00034945144 0.00048998627 0.00071646605 0.0009363767 0.00046557176 0.0005273101 0.0007214012
0.0 0.0009281804 0.0 0.00046366727 -0.00024660002 0.0 0.00040623487 0.0029999742
0.0 0.0006606775 5.578884e-05 0.00032179136 0.00042585365 0.000270094 -0.00018630935 -4.9925537e-05
0.00068445544 0.0 0.0 2.683555e-09 0.0 0.0 -0.00014242514 0.0
0.0 1.3923098e-05 0.0015701429 0.0 0.00042620298 0.0005987555 0.00023464841 0.0008101084
0.0 0.0 0.0014927834 0.0 0.0025807787 -9.4806266e-05 0.00057825824 0.00084739656
0.0006034874 0.001056683 0.0 0.00016785607 0.0 1.0475629e-26 0.0 0.0
0.0 0.000104156934 0.0007237343 0.0005563305 0.00033568518 0.0 0.0008201719 0.0010051575
0.00041666074 0.0 -0.00034566244 0.0 0.003146244 0.0 0.0 0.0
0.0 3.652653e-05 0.0008592716 0.0 0.0 0.00087080663 0.0 0.00029044566
00000000: ebe0 043b 79fd ac35 0729 593a 2d09 0738
00000010: bcfc 6c39 cd81 01b9 0000 0000 4e59 713a
00000020: 6b2e 7539 0000 0000 0000 0000 5cf5 2f3a
00000030: f86c 3b3a 0000 0000 c39a 0e3a 4c6e cf32
00000040: 0000 0000 2bd7 77ba e901 a439 0000 0000
00000050: 1712 3238 0000 0000 f5ba 8539 91d2 093a
00000060: 3452 2939 c2c5 e239 1f65 3b3a 0000 0000
00000070: 5405 3f35 5986 313b 0000 0000 0000 0000
00000080: ca45 2c3a 4869 9239 0000 0000 c3ad ec39
00000090: 8ee1 edb5 4e05 353a a7ea 3c3a 4b11 3d3a
000000a0: 0000 0000 0fb5 5f3a 877d 723a 0000 0000
000000b0: 0000 0000 8e37 0c3b 318a 2a37 0000 0000
000000c0: f622 02b9 686d 22b9 f0c8 3d3a 0000 0000
000000d0: 2717 753a 15c2 7739 0000 0000 540f af3b
000000e0: a989 133b 9b1b 353a 21f9 f836 8d01 1e39
000000f0: 982b 433a 0ffc d039 9625 2237 b9d3 5336
00000100: ce41 e9b7 0000 0000 5917 2c3a 0000 0000
00000110: cdb2 7539 ec4e 8ab7 17c7 8439 0000 0000
00000120: 0000 0000 8969 023a fe8e a939 0000 0000
00000130: aaf1 243a 0000 0000 902d 3fbb 8bbb 543a
00000140: c172 033a 0000 0000 698a 493a 40f1 d639
00000150: cd0f 303b 73ec 3d3a 0000 0000 0000 0000
00000160: 0000 0000 08b4 2db6 e5dc ccb8 a35c 823a
00000170: 0000 0000 0000 0000 dad1 ae39 0000 0000
00000180: df01 bd33 a2df 15bb 0000 0000 caad 9539
00000190: 4ce0 fcb8 2831 6d38 d75b 19ba 0000 0000
000001a0: 74d5 583a 4fba 52b9 24dc b92e 0000 0000
000001b0: a80b e33a 0000 0000 eab4 293a 1ac0 063a
000001c0: 0000 0000 0000 0000 0000 0000 1093 fa39
000001d0: 62df d539 4176 6337 9a30 8539 616c a131
000001e0: 0000 0000 9436 b739 6c72 003a 39d1 3b3a
000001f0: 2d77 753a fc17 f439 2f3b 0a3a 6a1c 3d3a
00000200: 0000 0000 2251 733a 0000 0000 5e18 f339
00000210: 184a 81b9 0000 0000 ecfb d439 379b 443b
00000220: 0000 0000 5131 2d3a d0fe 6938 1bb6 a839
00000230: 1c45 df39 679b 8d39 095c 43b9 2367 51b8
00000240: 076d 333a 0000 0000 0000 0000 9969 3831
00000250: 0000 0000 0000 0000 f557 15b9 0000 0000
00000260: 0000 0000 4097 6937 41cd cd3a 0000 0000
00000270: ff73 df39 cdf5 1c3a f40b 7639 745d 543a
00000280: 0000 0000 0000 0000 80a9 c33a 0000 0000
00000290: 4822 293b bad2 c6b8 4196 173a d223 5e3a
000002a0: 5b33 1e3a 6680 8a3a 0000 0000 8502 3039
000002b0: 0000 0000 c07d 4f14 0000 0000 0000 0000
000002c0: 0000 0000 d46e da38 fdb8 3d3a b5d6 113a
000002d0: e7fe af39 0000 0000 ce00 573a 7dbf 833a
000002e0: 4273 da39 0000 0000 073a b5b9 0000 0000
000002f0: 3731 4e3b 0000 0000 0000 0000 0000 0000
00000300: 0000 0000 1034 1938 be40 613a 0000 0000
00000310: 0000 0000 d846 643a 0000 0000 f546 9839

sqr_avg f4 [200]
0.00012568945 2.5876432e-10 0.00032645432 9.5390206e-08 2.4285617e-05 9.963376e-06 0.0 0.00040476656
2.5330804e-05 0.0 0.0 0.00021079085 0.00024097369 0.0 0.00013791483 6.623086e-09
0.0 7.980653e-05 4.5602785e-05 0.0 4.393336e-06 0.0 2.9882985e-05 0.00012874455
1.4049175e-05 8.796773e-05 0.00023480749 0.0 6.631151e-10 0.0022568405 0.0 0.0
0.00020133486 3.523738e-05 0.0 9.7584234e-05 7.498162e-06 0.00022234168 0.00024669513 0.00024055975
0.0 0.00033981536 0.00040615746 0.0 0.0 2.6059302e-05 7.325008e-06 0.0
0.00013384008 6.71474e-07 0.00025289744 0.0 0.00041755816 2.5957223e-05 0.0 0.0050940276
0.0016904664 0.0002240219 5.865668e-06 1.2486745e-05 1.9009021e-05 7.223233e-05 3.5379406e-09 2.0219226e-09
1.2510673e-06 0.0 0.0001937312 0.0 2.5265499e-05 1.1535702e-05 0.00013813147 0.0
0.0 0.00011394637 4.7209192e-05 0.0 0.00018153197 0.0 0.00019438012 0.00030614328
0.00011611601 0.0 0.00028044445 7.619256e-05 6.4603526e-05 0.0002458955 0.0 0.0
0.0 2.9986286e-05 8.768975e-06 0.00050123315 0.0 0.0 5.2675565e-05 0.0
1.04623304e-07 0.0012368066 0.0 3.645097e-05 1.5664297e-06 6.1582705e-06 3.3255776e-06 0.0
0.00032668049 0.0003576674 7.008479e-10 0.0 2.9334738e-05 0.0 0.00019527673 0.0001219056
0.0 0.0 0.0 0.00010422025 7.797073e-05 7.489144e-05 2.9794639e-05 3.1804057e-10
0.0 5.4944496e-05 0.00011412305 0.0002390535 0.0072799553 9.998256e-05 0.00012980761 0.0002433663
0.0 0.0004036396 0.0 9.852158e-05 1.8446062e-07 0.0 7.458419e-05 7.987559e-05
0.0 6.4277256e-06 2.638509e-06 4.8084992e-05 3.60391e-06 3.3420656e-05 0.00030641057 0.00013987866
0.00022157248 0.0 0.0 1.024871e-08 0.0 0.0 0.00017432265 0.0
0.0 5.323666e-10 3.0133624e-05 0.0 0.00094175915 0.00023855062 2.5526873e-05 0.00030742554
0.0 0.0 0.0013739429 0.0 0.00016425874 1.05859e-06 0.00015428211 0.00034008635
0.00016908893 1.6481012e-05 0.0 7.967891e-06 0.0 3.8806628e-11 0.0 0.0
0.0 7.8958965e-06 0.00025028226 0.00014519166 5.1760195e-05 0.0 0.00032496903 0.0004735024
8.047998e-05 0.0 2.6659493e-05 0.0 0.00024928624 0.0 0.0 0.0
0.0 6.46979e-06 0.0003495609 0.0 0.0 0.0001594309 0.0 3.7777572e-05
00000000: 81cb 0339 d741 8e2f f527 ab39 52d9 cc33
00000010: f7b8 cb37 6028 2737 0000 0000 d936 d439
00000020: 7d7d d437 0000 0000 0000 0000 bd07 5d39
00000030: e2ad 7c39 0000 0000 3b9d 1039 4891 e331
00000040: 0000 0000 ce5d a738 9e45 3f38 0000 0000
00000050: 786a 9336 0000 0000 39ad fa37 9aff 0639
00000060: bfb4 6b37 517b b838 a836 7639 0000 0000
00000070: 9446 3630 80e7 133b 0000 0000 0000 0000
00000080: 6a1d 5339 d9cb 1338 0000 0000 23a6 cc38
00000090: b998 fb36 6424 6939 dc56 8139 c43e 7c39
000000a0: 0000 0000 3f29 b239 88f1 d439 0000 0000
000000b0: 0000 0000 ed99 da37 57c9 f536 0000 0000
000000c0: 6c57 0c39 583f 3435 5297 8439 0000 0000
000000d0: b5eb da39 b6be d937 0000 0000 cdeb a63b
000000e0: a492 dd3a 6ce7 6a39 b4d1 c436 297e 5137
000000f0: 9075 9f37 707b 9738 1c20 7331 0af2 0a31
00000100: 58ea a735 0000 0000 5324 4b39 0000 0000
00000110: 3ff1 d337 7689 4137 62d7 1039 0000 0000
00000120: 0000 0000 7ef6 ee38 7c02 4638 0000 0000
00000130: 9e59 3e39 0000 0000 84d2 4b39 db81 a039
00000140: 4f83 f338 0000 0000 9e08 9339 92c9 9f38
00000150: c17b 8738 89eb 8039 0000 0000 0000 0000
00000160: 0000 0000 0f8b fb37 761e 1337 3065 033a
00000170: 0000 0000 0000 0000 f5ef 5c38 0000 0000
00000180: 45ad e033 581c a23a 0000 0000 eee2 1838
00000190: 1d3e d235 24a3 ce36 fd2c 5f36 0000 0000
000001a0: 5046 ab39 4e85 bb39 c9a5 4030 0000 0000
000001b0: df13 f637 0000 0000 33c3 4c39 92a7 ff38
000001c0: 0000 0000 0000 0000 0000 0000 d290 da38
000001d0: 3884 a338 090f 9d38 80ef f937 3bd8 ae2f
000001e0: 0000 0000 3474 6638 5955 ef38 6faa 7a39
000001f0: b18c ee3b baad d138 f71c 0839 2530 7f39
00000200: 0000 0000 979f d339 0000 0000 5f9d ce38
00000210: 2610 4634 0000 0000 156a 9c38 e182 a738
00000220: 0000 0000 bead d736 3d11 3136 deae 4938
00000230: b4da 7136 282d 0c38 bba5 a039 64ac 1239
00000240: e955 6839 0000 0000 0000 0000 4e12 3032
00000250: 0000 0000 0000 0000 61ca 3639 0000 0000
00000260: 0000 0000 f855 1230 77c7 fc37 0000 0000
00000270: 63e0 763a 7223 7a39 8b22 d637 f52d a139
00000280: 0000 0000 0000 0000 e015 b43a 0000 0000
00000290: df3c 2c39 e014 8e35 cac6 2139 9e4d b239
000002a0: 774d 3139 b440 8a37 0000 0000 d5ad 0537
000002b0: 0000 0000 61ac 2a2e 0000 0000 0000 0000
000002c0: 0000 0000 9e78 0437 5138 8339 973e 1839
000002d0: 1619 5938 0000 0000 9b60 aa39 6b40 f839
000002e0: 5cc7 a838 0000 0000 d3a2 df37 0000 0000
000002f0: a2b2 8239 0000 0000 0000 0000 0000 0000
00000300: 0000 0000 1317 d936 4545 b739 0000 0000
00000310: 0000 0000 e82c 2739 0000 0000 5c73 1e38

grad_avg f4 [1, 200]
-0.0007383754 1.1212118e-08 -0.004878356 9.951305e-05 -0.0022488015 -0.0009418319 0.0 -0.0018706592
-0.0039572786 0.0 0.0 -0.0051976386 -0.0043706647 0.0 -0.0038571265 1.6764048e-10
0.0 -0.0015430857 -0.001889644 0.0 -0.0010154523 0.0 -0.0035398528 -0.004291045
-0.0021946619 -0.0013557359 -0.0032332134 0.0 4.130407e-09 0.009507741 0.0 0.0
-0.0044615106 -0.0040194537 0.0 -0.0015350764 -0.0018958459 -0.006198605 -0.0028734275 -0.0059045907
0.0 -0.0045321328 -0.0049321577 0.0 0.0 -0.000723121 -0.0032002467 0.0
-0.0019398562 4.6533896e-05 -0.0016586097 0.0 -0.0027512487 -0.0039647133 0.0 0.0068417275
0.0075206286 -0.0020752666 -0.0042046993 -0.0012594009 -2.0549296e-05 -0.00538388 1.2265909e-08 7.446169e-09
0.0001319919 0.0 -0.0016686134 0.0 -0.00053903257 0.0009260275 -0.0019723608 0.0
0.0 -0.0023274634 -0.004766417 0.0 -0.0026494015 0.0 -0.0010982613 -0.005704753
-0.0045745703 0.0 -0.0035412312 -0.004043896 -0.0004302741 -0.0050540096 0.0 0.0
0.0 -0.00049483665 -0.0002587237 0.008679451 0.0 0.0 -0.002314476 0.0
-1.2698425e-08 0.0059734914 0.0 -0.0021916 0.00022239835 -0.0035542476 0.00043077374 0.0
-0.0038852035 -0.0026195014 -2.5441327e-14 0.0 0.0029793498 0.0 -0.0024540639 -0.0036946377
0.0 0.0 0.0 -0.0047197645 -0.004605484 -0.0015999335 -0.004142397 -3.4588048e-11
0.0 -0.002406586 -0.0024824177 -0.006630673 -0.0038921137 -0.0054456443 -0.0039653024 -0.004671725
0.0 -0.0048914123 0.0 -0.0058185174 0.00025559188 0.0 -0.0015693143 -0.00015993041
0.0 0.00042377462 -0.0018836115 -0.004707912 -0.00020720898 -0.0029109363 -0.0024945901 -0.0006167469
-0.0013421301 0.0 0.0 -1.3340759e-10 0.0 0.0 -0.0014402266 0.0
0.0 5.867846e-09 0.00038481216 0.0 -0.0036169614 -0.001973595 -0.001284997 -0.0008637769
0.0 0.0 0.00800201 0.0 0.00044984053 -7.0446105e-05 -0.0025230222 -0.001595738
-0.005123042 -0.000615786 0.0 -0.0017645331 0.0 6.3544054e-29 0.0 0.0
0.0 -0.004019246 -0.0031372153 -0.0012506902 -0.005785017 0.0 -0.0010224828 -0.004534616
-0.0039202715 0.0 -0.0012390024 0.0 -0.00021668866 0.0 0.0 0.0
0.0 -0.0028245372 -0.00283406 0.0 0.0 -0.0009840695 0.0 -0.0026268004
00000000: 898f 41ba 6b9f 4032 9eda 9fbb a9b1 d038
00000010: a160 13bb 45e5 76ba 0000 0000 e830 f5ba
00000020: 0fac 81bb 0000 0000 0000 0000 f450 aabb
00000030: cb37 8fbb 0000 0000 d8c7 7cbb 9a52 382f
00000040: 0000 0000 5d41 caba eead f7ba 0000 0000
00000050: ed18 85ba 0000 0000 e0fc 67bb e59b 8cbb
00000060: 51d4 0fbb f3b2 b1ba 52e4 53bb 0000 0000
00000070: 72eb 8d31 5bc6 1b3c 0000 0000 0000 0000
00000080: dd31 92bb 9fb5 83bb 0000 0000 9e34 c9ba
00000090: 087e f8ba ab1d cbbb 1d50 3cbb 4c7b c1bb
000000a0: 0000 0000 4982 94bb f09d a1bb 0000 0000
000000b0: 0000 0000 d48f 3dba 3bbb 51bb 0000 0000
000000c0: c642 feba 642d 4338 b565 d9ba 0000 0000
000000d0: 4b4e 34bb 6dea 81bb 0000 0000 9230 e03b
000000e0: 9b6f f63b 3201 08bb 93c7 89bb 7b12 a5ba
000000f0: 4761 acb7 426b b0bb 0aba 5232 32d9 ff31
00000100: 4e67 0a39 0000 0000 60b5 daba 0000 0000
00000110: dd4d 0dba a7c0 723a b942 01bb 0000 0000
00000120: 0000 0000 5b88 18bb 9b2f 9cbb 0000 0000
00000130: 95a1 2dbb 0000 0000 89f3 8fba f0ee babb
00000140: 47e6 95bb 0000 0000 0014 68bb a982 84bb
00000150: 6a96 e1b9 1b9c a5bb 0000 0000 0000 0000
00000160: 0000 0000 edb7 01ba 4fa5 87b9 4234 0e3c
00000170: 0000 0000 0000 0000 77ae 17bb 0000 0000
00000180: 4428 5ab2 47bd c33b 0000 0000 f2a0 0fbb
00000190: 9a33 6939 61ee 68bb 79d9 e139 0000 0000
000001a0: e69e 7ebb f1ab 2bbb b527 e5a8 0000 0000
000001b0: 3241 433b 0000 0000 5cd4 20bb bc21 72bb
000001c0: 0000 0000 0000 0000 0000 0000 41a8 9abb
000001d0: 9ae9 96bb dcb4 d1ba f2bc 87bb ae1e 18ae
000001e0: 0000 0000 d0b7 1dbb 0fb0 22bb 1e46 d9bb
000001f0: d512 7fbb 6071 b2bb 5eef 81bb 4515 99bb
00000200: 0000 0000 2448 a0bb 0000 0000 43a9 bebb
00000210: f600 8639 0000 0000 73b1 cdba feb2 27b9
00000220: 0000 0000 112e de39 84e3 f6ba d444 9abb
00000230: 3d46 59b9 68c5 3ebb 477c 23bb 2fad 21ba
00000240: 6aea afba 0000 0000 0000 0000 e6ae 12af
00000250: 0000 0000 0000 0000 fcc5 bcba 0000 0000
00000260: 0000 0000 1f9e c931 9dc0 c939 0000 0000
00000270: 8b0a 6dbb 6e57 01bb 586d a8ba 166f 62ba
00000280: 0000 0000 0000 0000 dd1a 033c 0000 0000
00000290: 93d8 eb39 77bc 93b8 4a59 25bb 1528 d1ba
000002a0: 31df a7bb b36c 21ba 0000 0000 e847 e7ba
000002b0: 0000 0000 731a a110 0000 0000 0000 0000
000002c0: 0000 0000 e1b3 83bb bd99 4dbb 33ee a3ba
000002d0: 3d90 bdbb 0000 0000 d404 86ba 1e97 94bb
000002e0: 9f75 80bb 0000 0000 0666 a2ba 0000 0000
000002f0: eb36 63b9 0000 0000 0000 0000 0000 0000
00000300: 0000 0000 df1b 39bb a3bb 39bb 0000 0000
00000310: 0000 0000 e5fb 80ba 0000 0000 6626 2cbb

sqr_avg f4 [1, 200]
1.1171696e-06 7.3813026e-14 0.015231874 1.7159241e-08 0.005196732 0.00058675435 0.0 0.001660861
0.008422042 0.0 0.0 0.016460847 0.011752733 0.0 0.0074000475 7.7822956e-11
0.0 0.0003896188 0.0016714588 0.0 0.0011802973 0.0 0.0059148436 0.013061938
0.0039754524 0.0011293945 0.0029835072 0.0 1.0890178e-12 0.0008658838 0.0 0.0
0.0087931575 0.005907787 0.0 0.0028307703 0.001596412 0.01632172 0.0066873305 0.014718283
0.0 0.008922249 0.012103198 0.0 0.0 0.0005271419 0.003416826 0.0
0.00097501266 2.4057321e-08 0.0020624464 0.0 0.0061943326 0.005573058 0.0 0.0002826086
0.0005377015 0.0024682856 0.010422078 0.0009248763 5.475462e-07 0.012942288 9.271249e-14 1.2271567e-13
4.537922e-05 0.0 0.0007271319 0.0 0.00013491305 7.856792e-05 0.0003217833 0.0
0.0 0.0044342144 0.010027742 0.0 0.0030883113 0.0 9.5695425e-05 0.01476948
0.010762304 0.0 0.0075804684 0.005155507 0.000222641 0.015950197 0.0 0.0
0.0 0.00019205612 0.0006448982 0.0007275399 0.0 0.0 0.0023862782 0.0
4.590804e-09 0.00033639974 0.0 0.0015704805 0.00018622389 0.005705936 5.1710475e-07 0.0
0.009794483 0.0016843426 6.3502636e-17 0.0 0.0006644184 0.0 0.0021101579 0.0054601356
0.0 0.0 0.0 0.012515426 0.013445917 0.00070579094 0.011219781 9.392752e-13
0.0 0.001871221 0.0035483686 0.017388018 0.0005320252 0.011796609 0.0078020166 0.009844929
0.0 0.011703302 0.0 0.014620153 6.902946e-08 0.0 0.0017079553 1.9561587e-06
0.0 2.960891e-07 0.00024829086 0.009435529 2.606745e-06 0.004359858 0.0015642163 0.0003257171
0.0011814048 0.0 0.0 1.831101e-11 0.0 0.0 0.0005213396 0.0
0.0 6.152215e-13 2.6485583e-07 0.0 0.0004606103 0.00013054612 0.0008313458 0.00027726087
0.0 0.0 0.0006129088 0.0 0.0006021348 7.754407e-09 0.0033303208 0.0015283676
0.010881948 1.10506635e-05 0.0 0.00214281 0.0 1.4278967e-15 0.0 0.0
0.0 0.010413405 0.0070179543 0.0020370267 0.013431757 0.0 0.0010060343 0.007750358
0.008281822 0.0 0.0019092688 0.0 2.270528e-06 0.0 0.0 0.0
0.0 0.002464257 0.0043597287 0.0 0.0 0.0002485842 0.0 0.003927726
00000000: a8f1 9535 5036 a629 1c8f 793c 9265 9332
00000010: 5949 aa3b 6bd0 193a 0000 0000 3fb1 d93a
00000020: 9bfc 093c 0000 0000 0000 0000 e6d8 863c
00000030: 898e 403c 0000 0000 197c f23b 6e22 ab2e
00000040: 0000 0000 c045 cc39 da14 db3a 0000 0000
00000050: 35b4 9a3a 0000 0000 4ed1 c13b bd01 563c
00000060: 8344 823b 3108 943a f286 433b 0000 0000
00000070: 0044 992b 7afc 623a 0000 0000 0000 0000
00000080: 2d11 103c 1c96 c13b 0000 0000 7284 393b
00000090: b33e d13a 21b5 853c 6521 db3b f424 713c
000000a0: 0000 0000 a02e 123c 7e4c 463c 0000 0000
000000b0: 0000 0000 e52f 0a3a d4ec 5f3b 0000 0000
000000c0: fe97 7f3a 9ca6 ce32 1c2a 073b 0000 0000
000000d0: d4f9 ca3b 339e b63b 0000 0000 162b 9439
000000e0: 89f4 0c3a f6c2 213b 5dc1 2a3c 6673 723a
000000f0: 17fb 1235 e40b 543c 1dc5 d029 622a 0a2a
00000100: 9155 3e38 0000 0000 ff9c 3e3a 0000 0000
00000110: 7277 0d39 d5c4 a438 06b5 a839 0000 0000
00000120: 0000 0000 e34c 913b 664b 243c 0000 0000
00000130: 4465 4a3b 0000 0000 17b0 c838 b0fb 713c
00000140: 6054 303c 0000 0000 9465 f83b 87ef a83b
00000150: bd74 6939 fda9 823c 0000 0000 0000 0000
00000160: 0000 0000 ac62 4939 630e 293a 60b8 3e3a
00000170: 0000 0000 0000 0000 1b63 1c3b 0000 0000
00000180: 24bd 9d31 cf5e b039 0000 0000 95d8 cd3a
00000190: 1845 4339 dcf8 ba3b 2bcf 0a35 0000 0000
000001a0: 0a79 203c 29c5 dc3a 576d 9224 0000 0000
000001b0: 5d2c 2e3a 0000 0000 934a 0a3b f0ea b23b
000001c0: 0000 0000 0000 0000 0000 0000 800d 4d3c
000001d0: 434c 5c3c d404 393a 2cd3 373c f530 842b
000001e0: 0000 0000 c243 f53a bf8b 683b 5171 8e3c
000001f0: 9b77 0b3a 9046 413c 0fa8 ff3b a04c 213c
00000200: 0000 0000 35bf 3f3c 0000 0000 5e89 6f3c
00000210: 593d 9433 0000 0000 78dd df3a 8d46 0336
00000220: 0000 0000 2df6 9e34 092d 8239 7a97 1a3c
00000230: 8aef 2e36 24dd 8e3b 6406 cd3a 02c5 aa39
00000240: 5ed9 9a3a 0000 0000 0000 0000 bb10 a12d
00000250: 0000 0000 0000 0000 82aa 083a 0000 0000
00000260: 0000 0000 622b 2d2b 8231 8e34 0000 0000
00000270: 117e f139 35e3 0839 acee 593a 535d 9139
00000280: 0000 0000 0000 0000 9dab 203a 0000 0000
00000290: 95d8 1d3a 3e38 0532 8341 5a3b 8253 c83a
000002a0: 334a 323c 3d66 3937 0000 0000 636e 0c3b
000002b0: 0000 0000 17c8 cd26 0000 0000 0000 0000
000002c0: 0000 0000 fc9c 2a3c def6 e53b a37f 053b
000002d0: df10 5c3c 0000 0000 e9dc 833a b7f6 fd3b
000002e0: 7bb0 073c 0000 0000 6e40 fa3a 0000 0000
000002f0: 605f 1836 0000 0000 0000 0000 0000 0000
00000300: 0000 0000 5f7f 213b 0edc 8e3b 0000 0000
00000310: 0000 0000 6854 8239 0000 0000 27b4 803b
