trees/save/cycle/5bits/split_75.0_0.1_5_50/models/model.pth (torch, 48790 bytes, 12 tensors)

embedding_layers.weight f4 [494, 5]
-0.0011179773 -0.0009217939 0.0023524696 -0.0006069215 -0.009395686 -0.0065651685 0.0012243089 -0.01251454
-0.0019400181 0.0037430977 0.0030143806 0.0021858534 -0.009630387 -0.012811178 0.0011534084 -0.006796641
-0.0017229171 -0.0061792633 0.0052544978 -0.0022532798 -0.00070489675 0.008281179 -0.0017009514 0.0009478014
-0.0018557197 0.0024429644 0.0025637757 0.005908481 0.0037409253 0.0075489744 0.0047632568 -0.0023067524
-0.007847161 0.011481373 0.0010718392 -0.0027543763 0.00441671 0.0032986435 0.0030519455 -0.0025928342
-0.00032551953 -0.00747011 8.7278095e-05 0.003934534 -0.007970489 0.0035400258 0.0063180383 -0.008736179
0.009950293 -0.0050370703 0.0113688735 -0.0072150705 -0.002207995 0.002392018 0.0062741176 -0.0046161497
-0.010365944 -0.0029861922 -0.0059445486 -0.005514859 0.0063863797 -0.0013523882 0.0040990543 0.008986658
-0.0030554456 -0.005900071 -0.0047189854 -0.00048302405 0.0058817514 -0.0024530715 0.001868125 0.011118674
0.0011622199 0.001980006 0.010130327 -0.0067111026 0.003480638 -0.0030097528 -0.0025244802 -0.0075838747
0.0030536705 -0.011281326 0.0068880827 -0.008629974 0.0054408866 -0.005843144 -0.0018648873 -0.0019388999
-0.010644369 0.0006336733 -0.004849697 -0.0064618257 -0.0076666004 -0.0060510808 -0.0005255092 0.010735755
0.002774885 0.0005809035 -0.0014287075 -0.0018661722 -0.0031720577 0.00037971511 -0.003978937 -0.00014195807
0.00022470589 0.0068336762 -0.0018639059 0.0036249722 -0.00393021 -0.00069495826 0.002014486 -0.0031290432
0.004250694 -0.0030023016 -0.0021561503 -0.003161103 0.00999801 0.0026234002 -0.0094732335 -0.0023702676
-0.0052999984 -3.4747885e-05 0.0019912987 -0.0025337073 0.004131778 -0.0038855583 0.01150002 -0.0018965795
-0.0008395736 -0.0022607183 0.005817401 -0.00543361 -0.0027930376 -0.00070333126 0.00251834 -0.010387393
-0.004982945 0.00563238 -0.00048672842 0.0031784924 0.0014461826 -0.0119210025 -0.002947791 0.0020684868
0.00055351754 -0.0030520195 -0.0056752847 -0.0014000278 -0.0038374397 -0.0009071353 -0.0014446565 -0.0013409011
-0.0029191643 -0.012121028 0.0010101096 0.0014339273 0.004838876 0.0024106612 0.00483232 -0.001474296
0.0082510505 6.537762e-05 -0.004612284 -0.008704341 -0.00054773584 0.00053330837 0.0030881413 -0.0030227536
0.0031384649 0.004083117 0.0014271444 0.009735661 -0.0049090483 -0.00081629277 -0.004721265 -0.0077215736
0.00036913465 -0.0018264502 -0.00023773097 0.00026401412 0.0023290687 0.0070885154 -0.009302049 0.0025024489
-0.0018111345 0.004745362 0.0004093615 0.012146565 0.0066831615 0.00445346 0.0060970327 0.002257522
0.0005040949 -0.00298837 0.0055722296 0.01044707 0.0010301108 -0.0005533936 0.0037815114 0.006381717
0.01073208 0.007028651 0.0065384414 -0.0010747601 8.415554e-05 0.0031312197 0.00835939 0.0029876905
0.00022331245 0.007323127 0.006068726 -0.00048364434 -0.010224186 -0.0005492558 -0.0028186855 -0.010853683
-0.002581603 0.0008644249 0.0010360172 -0.0011303744 0.0070872135 -0.00567618 0.005297257 -0.0006931589
0.004677896 0.00034340407 0.002692076 0.0015889574 -0.007077809 0.00967211 0.0016290825 -0.006462752
0.00031179597 -0.00011367967 0.006757993 -0.00029742176 0.000974405 -0.012788333 -0.012640305 -0.003925695
-0.0036231657 0.0014095189 0.0028541354 -0.0027363354 -0.0045157806 -0.000728738 -0.006133294 0.007961979
0.0043009175 0.0047077695 -0.005040943 0.0014935432 0.0002013693 -0.002410596 -0.0032132925 0.0009792298
00000000: 1889 92ba 8ba4 71ba e42b 1a3b d019 1fba
00000010: 5df0 19bc a020 d7bb fd78 a03a c909 4dbc
00000020: 3548 feba c24e 753b ea8c 453b 8940 0f3b
00000030: c5c8 1dbc fae5 51bc f72d 973a 5bb6 debb
00000040: 81d3 e1ba 6b7b cabb ec2d ac3b c3ab 13bb
00000050: d2c8 38ba c8ad 073c 75f2 deba e075 783a
00000060: 9f3b f3ba 241a 203b 0505 283b ee9b c13b
00000070: 502a 753b 635d f73b 1815 9c3b e22c 17bb
00000080: 6191 00bc 5e1c 3c3c f57c 8c3a c482 34bb
00000090: 0dba 903b 0e2e 583b 2603 483b 8aec 29bb
000000a0: 7eaa aab9 d3c7 f4bb 1209 b738 43ed 803b
000000b0: a796 02bc c7ff 673b 8c07 cf3b 3122 0fbc
000000c0: 8e06 233c 020e a5bb 8344 3a3c 666c ecbb
000000d0: 02b4 10bb 67c3 1c3b 1d97 cd3b 1243 97bb
000000e0: ecd5 29bc feb3 43bb 7dca c2bb feb5 b4bb
000000f0: d644 d13b 9e42 b1ba 5c51 863b c73c 133c
00000100: df3d 48bb 6255 c1bb b8a1 9abb 643e fdb9
00000110: b5bb c03b b6c3 20bb e0db f43a 192b 363c
00000120: a155 983a fdc2 013b acf9 253c cfe8 dbbb
00000130: 6a1b 643b 463f 45bb c071 25bb 2782 f8bb
00000140: 1720 483b 50d5 38bc 6db5 e13b bc64 0dbc
00000150: 7749 b23b d877 bfbb 3c6f f4ba af22 feba
00000160: b865 2ebc 181d 263a 35ea 9ebb b9bd d3bb
00000170: 1b38 fbbb 2548 c6bb 53c2 09ba 05e5 2f3c
00000180: d8da 353b c647 183a 7843 bbba 599a f4ba
00000190: 4ce2 4fbb 8014 c739 be61 82bb 94da 14b9
000001a0: 079f 6b39 08ed df3b 4e4e f4ba f190 6d3b
000001b0: fec8 80bb dc2d 36ba 7705 043b a210 4dbb
000001c0: 6849 8b3b 43c2 44bb 334e 0dbb 822a 4fbb
000001d0: b1ce 233c 5aed 2b3b 9f35 1bbc 7e56 1bbb
000001e0: 9cab adbb 42be 11b8 7380 023b 8e0c 26bb
000001f0: de63 873b daa4 7ebb 946a 3c3c a696 f8ba
00000200: d516 5cba 8f28 14bb e69f be3b 6d0c b2bb
00000210: 650b 37bb c35f 38ba bc0a 253b e22f 2abc
00000220: f947 a3bb d48f b83b 952f ffb9 414e 503b
00000230: d68d bd3a 4f50 43bc ba2f 41bb 738f 073b
00000240: ef19 113a 6404 48bb bdf7 b9bb 2381 b7ba
00000250: 8e7d 7bbb d2cc 6dba a15a bdba 2dc1 afba
00000260: 734f 3fbb 4797 46bc a765 843a 9ef2 bb3a
00000270: 6f8f 9e3b 2ffc 1d3b 7058 9e3b 2a3d c1ba
00000280: 6a2f 073c 581b 8938 a422 97bb a79c 0ebc
00000290: ee95 0fba b8cd 0b3a 6a62 4a3b 6419 46bb
000002a0: b4ae 4d3b abcb 853b 050f bb3a 5282 1f3c
000002b0: 15dc a0bb 7bfc 55ba d7b4 9abb 4105 fdbb
000002c0: 6a88 c139 8065 efba 6c47 79b9 606b 8a39
000002d0: 4aa3 183b c746 e83b 9f67 18bc 2000 243b
000002e0: 9763 edba fb7e 9b3b 929f d639 6302 473c
000002f0: 6cfe da3b 55ee 913b 9ec9 c73b eff2 133b
00000300: 3c25 043a 87d8 43bb 4097 b63b 302a 2b3c
00000310: c804 873a 9e11 11ba 3cd3 773b b91d d13b
00000320: 9bd5 2f3c 9950 e63b 6c40 d63b f7de 8cba
00000330: a97c b038 2635 4d3b d3f5 083c 21cd 433b
00000340: fb28 6a39 d7f6 ef3b 2adc c63b a591 fdb9
00000350: 5883 27bc effb 0fba b2b9 38bb a5d3 31bc
00000360: 1c30 29bb 939a 623a f8ca 873a 1229 94ba
00000370: db3b e83b 40ff b9bb 9d94 ad3b 1bb5 35ba
00000380: 0949 993b ea0a b439 8a6d 303b 9044 d03a
00000390: f7ec e7bb c577 1e3c f086 d53a 7ec5 d3bb
000003a0: 8c78 a339 4f67 eeb8 2772 dd3b 46ef 9bb9
000003b0: 366f 7f3a 2886 51bc 4819 4fbc 1ea3 80bb
000003c0: a272 6dbb 9bbf b83a 720c 3b3b 1754 33bb
000003d0: 1df9 93bb c808 3fba cdf9 c8bb f672 023c
000003e0: b6ee 8c3b a243 9a3b 7f2e a5bb fec2 c33a
000003f0: a926 5339 17fb 1dbb 1a96 52bb 8059 803a

layers.0.weight f4 [100, 10]
0.127351 -0.35154107 -0.31872147 -0.37343755 0.13826396 0.17934634 -0.35257053 0.53121793
0.3595534 0.14028816 0.007056361 -0.020603647 0.014030778 0.011091699 0.0029565126 -0.0023087715
0.022859251 0.013459663 0.016774843 -0.001531061 -0.054037277 0.04361565 0.025908392 -0.011283976
-0.071050726 -0.007989036 -0.082694076 0.02027705 -0.0016035369 0.009778009 -0.39820158 0.17970063
0.11364985 0.46932995 0.17812423 -0.40242913 -0.24747548 -0.066592366 -0.3756437 -0.13323039
0.42163867 -0.08405481 0.3077296 -0.74505824 -0.017918145 0.26384404 0.15371953 -0.25691068
0.5842403 -0.04168255 -0.022331731 0.31058568 -0.18578067 0.07151131 -0.21328485 -0.30776966
0.13144618 0.07038229 -0.26233414 -0.0021681958 -0.3177859 -0.2837699 0.36429527 -0.03361333
0.27415866 0.365831 0.44877568 0.47502416 0.26969406 -0.23719293 0.05252758 -0.026407965
0.04581919 0.0074878666 -0.027406212 -0.008666046 0.036653187 0.016831357 -0.018043542 0.020263461
-0.06921283 0.2318967 0.22320195 -0.35410807 0.3343921 0.17960018 0.40244442 -0.1277405
-0.37606594 -0.4437376 0.503999 -0.057427637 -0.5366141 0.091198586 0.044900946 -0.61559
-0.16816294 -0.32696822 -0.0011034358 0.20277461 -0.036716796 -0.019745907 0.024651092 -0.019726833
0.0019622638 0.037297443 -0.029112063 -0.03335907 -0.01916039 -0.0044323383 0.0338237 0.0024405776
-0.0027337985 0.016109856 0.0038882259 0.039194047 -0.008151679 0.05611454 -0.017378347 0.034748044
0.13083458 0.4397537 0.074445896 0.22515678 -0.2294703 -0.24117611 0.45715427 -0.31972274
0.13724734 -0.48012236 -0.19141138 -0.5066556 0.31837472 -0.33206666 -0.1812148 0.04182338
0.18225169 -0.5039588 -0.3144422 -0.24966383 -0.040296312 -0.12766768 0.26591796 0.27656406
0.087199226 -0.058325604 -0.33118752 0.289959 0.26850963 0.3241582 0.058864918 -0.09166085
-0.026470736 -0.006748197 -0.0006035736 -0.027362095 -0.046995282 -0.01600037 -0.030696582 0.020883363
-0.036461413 -0.020508049 0.03446009 -0.027768413 -0.05503171 0.0036515903 -0.014519862 0.03655367
0.00036798575 -0.03252115 -0.44735876 0.5377486 0.07952506 0.3176358 0.25978947 -0.33431727
0.40775824 -0.14909798 0.01636175 0.20749985 0.09468965 -0.06768963 -0.06727488 0.041008443
-0.052054968 -0.011539289 -0.037778053 -0.020243486 0.09184345 0.006744826 -0.0070277094 -0.042246405
0.01045525 0.009102782 -0.00086034875 -0.0114329625 -0.017730433 -0.016737161 -0.033621885 0.023527885
-0.33448666 0.38075373 0.03522012 0.07561397 -0.11230853 0.40203685 -0.15008846 0.4005394
0.49888858 0.22346464 -0.41794878 0.44197404 -0.24934815 -0.16541512 -0.35744572 0.41782987
-0.44242737 0.25099453 0.16693643 0.35725564 -0.12677237 0.48146132 0.30660743 -0.29100278
0.59436864 0.12633152 -0.4785458 -0.3091379 0.29062212 -0.5927833 -0.27021754 0.3977052
0.2696564 -0.410441 0.44658735 -0.16366418 -0.031960268 -0.37728995 -0.15685536 0.05671258
0.44509614 0.26996398 -0.17539497 -0.21686314 -0.49128154 -0.45114657 -0.27345145 0.17158821
0.20552848 0.48726612 -0.0076084146 0.018748108 -0.030818857 -0.038465284 -0.057840195 -0.0068765236
00000000: 4d68 023e 31fd b3be 762f a3be 3533 bfbe
00000010: 1195 0d3e 91a6 373e 2084 b4be e6fd 073f
00000020: 6217 b83e b3a7 0f3e 0c39 e73b fbc8 a8bc
00000030: 59e1 653c f5b9 353c 0dc2 413b c24e 17bb
00000040: 5343 bb3c eb85 5c3c 656b 893c e2ad c8ba
00000050: 3156 5dbd 53a6 323d d63d d43c 6de0 38bc
00000060: 0b83 91bd 72e4 02bc 835b a9bd 0e1c a63c
00000070: c52d d2ba f133 203c 14e1 cbbe 7103 383e
00000080: 41c1 e83d 044c f03e 3366 363e 310b cebe
00000090: 366a 7dbe 9461 88bd 5f54 c0be 8c6d 08be
000000a0: 06e1 d73e ee24 acbd bc8e 9d3e 23bc 3ebf
000000b0: 13c9 92bc 9116 873e a768 1d3e cc89 83be
000000c0: c690 153f 52bb 2abd 09f1 b6bc 1605 9f3e
000000d0: 4a3d 3ebe 8674 923d 5867 5abe fc93 9dbe
000000e0: d499 063e 9724 903d a950 86be 4a18 0ebb
000000f0: d5b4 a2be 4a4a 91be e984 ba3e 22ae 09bd
00000100: 865e 8c3e 334e bb3e edc5 e53e 5e36 f33e
00000110: 5715 8a3e b4e2 72be 2927 573d 8455 d8bc
00000120: e7ac 3b3d c75c f53b fe82 e0bc 08fc 0dbc
00000130: a721 163d eae1 893c 0dd0 93bc 8fff a53c
00000140: 75bf 8dbd 5476 6d3e 0d8f 643e a74d b5be
00000150: 7135 ab3e 1ce9 373e 320d ce3e 68ce 02be
00000160: b78b c0be 9331 e3be 1406 013f 3e39 6bbd
00000170: 8b5f 09bf 53c6 ba3d 0eea 373d 4e97 1dbf
00000180: e832 2cbe 6168 a7be 29a1 90ba 26a4 4f3e
00000190: 5a64 16bd 2bc2 a1bc 16f1 c93c 2b9a a1bc
000001a0: 5399 003b 34c5 183d 6c7c eebc 85a3 08bd
000001b0: 40f6 9cbc 263d 91bb b88a 0a3d 19f2 1f3b
000001c0: 8729 33bb d1f8 833c 9bd1 7e3b f089 203d
000001d0: 9f8e 05bc 5cd8 653d 095d 8ebc f753 0e3d
000001e0: 80f9 053e 6627 e13e 1777 983d 808f 663e
000001f0: 43fa 6abe dff6 76be 2010 ea3e b3b2 a3be
00000200: 918a 0c3e 99d2 f5be 5801 44be 2eb4 01bf
00000210: 0302 a33e a404 aabe 5f90 39be fe4e 2b3d
00000220: 30a0 3a3e 7203 01bf 91fe a0be e0a7 7fbe
00000230: bf0d 25bd 51bb 02be 6626 883e ce99 8d3e
00000240: 8295 b23d d4e6 6ebd 6991 a9be 8275 943e
00000250: 187a 893e 10f8 a53e 571c 713d afb8 bbbd
00000260: 28d9 d8bc fb1f ddbb 2339 1eba 7926 e0bc
00000270: 207e 40bd 3513 83bc 6677 fbbc 9613 ab3c
00000280: 9058 15bd 7f00 a8bc 0626 0d3d 957a e3bc
00000290: ee68 61bd 854f 6f3b b7e4 6dbc 4db9 153d
000002a0: 36ee c039 e634 05bd 350c e5be e4a9 093f
000002b0: 09de a23d 29a1 a23e 2003 853e a22b abbe
000002c0: b0c5 d03e 24ad 18be 1409 863c d77a 543e
000002d0: a6ec c13d dca0 8abd 6ac7 89bd 78f8 273d
000002e0: 9737 55bd 490f 3dbc 29bd 1abd abd5 a5bc
000002f0: 6b18 bc3d b403 dd3b b348 e6bb 910a 2dbd
00000300: 7f4c 2b3c d623 153c 0789 61ba 5251 3bbc
00000310: 6a3f 91bc 5f1c 89bc 1ab7 09bd 8dbd c03c
00000320: d641 abbe 27f2 c23e f942 103d 7fdb 9a3d
00000330: 0402 e6bd c6d7 cd3e cab0 19be 8013 cd3e
00000340: 536e ff3e ead3 643e 62fd d5be 6c4a e23e
00000350: 1f55 7fbe 9562 29be 2003 b7be cced d53e
00000360: d785 e2be 5b82 803e 62f1 2a3e 36ea b63e
00000370: 9ed0 01be 1982 f63e a6fb 9c3e 51fe 94be
00000380: 8b28 183f 0d5d 013e f503 f5be 5347 9ebe
00000390: 6ccc 943e a5c0 17bf f459 8abe 04a0 cb3e
000003a0: 6710 8a3e 5325 d2be 19a7 e43e 9597 27be
000003b0: c5e8 02bd 262c c1be b19e 20be 734b 683d
000003c0: a4e3 e33e b838 8a3e bd9a 33be 5f11 5ebe
000003d0: 4189 fbbe affc e6be d401 8cbe d2b4 2f3e
000003e0: 0f76 523e f27a f93e 0250 f9bb a295 993c
000003f0: d477 fcbc c68d 1dbd d7e9 6cbd 7654 e1bb

layers.0.bias f4 [100]
-0.17160168 -0.18425493 -0.47762433 -0.029558752 -0.32887563 -0.7709672 -0.26877967 -0.35913914
-0.7872589 0.14341763 -0.33747375 -0.3503455 -0.5040941 0.061034 -0.87550986 -0.40309006
-0.36446 -0.6762063 -0.63660127 -0.23435606 0.4307075 -0.00022038448 0.0031017119 -0.5159314
0.0041374182 -0.4454643 0.061133556 -0.116071455 -0.6963584 -0.15844639 -0.166768 -0.0031885495
-0.17470159 -0.10520865 -0.13544206 -0.3401097 0.23926453 -0.1335874 -0.34228826 -0.71464455
-0.5214473 -0.38849077 0.0011413281 -0.029338874 -0.422448 -0.14030136 -0.25641602 -0.049829133
-0.13238 -0.21922499 -0.1620398 -0.14048426 -0.19521897 -0.26405627 0.14642893 -1.0715145
-0.8064719 -0.62621766 -0.7490436 -0.40574852 -0.7248599 -0.024693184 -0.56517947 -0.35267106
-0.007251058 0.21996734 -0.20976983 0.09342312 -0.87104875 -0.18883923 -0.5677633 -0.38773346
0.02851018 -0.16757162 -0.32466993 -0.12155183 0.012226717 0.12731242 -0.008356154 -0.69277436
0.010315787 -0.33104452 -0.39740145 -0.28585064 -0.05397463 -0.48468873 -0.003452832 0.35068476
0.07507105 -0.4543856 -0.12464373 -0.00969058 -0.5601478 -0.0017400084 0.0018665303 -0.0014467881
-0.6617912 -0.3775424 0.12672107 -0.6315116
00000000: 5ab8 2fbe 53ad 3cbe 2d8b f4be 3225 f2bc
00000010: 6362 a8be 1b5e 45bf 7d9d 89be 16e1 b7be
00000020: cd89 49bf 12dc 123e 5cc9 acbe 7c60 b3be
00000030: 500c 01bf cafe 793d 6a21 60bf d261 cebe
00000040: 809a babe db1b 2dbf 4df8 22bf 09fb 6fbe
00000050: b285 dc3e 0217 67b9 1746 4b3b 1514 04bf
00000060: 2e93 873b e613 e4be 2e67 7a3d dfb6 edbd
00000070: 8b44 32bf c53f 22be 3bc5 2abe fcf6 50bb
00000080: f9e4 32be a277 d7bd 53b1 0abe dc22 aebe
00000090: c301 753e 23cb 08be 6840 afbe f2f2 36bf
000000a0: 927d 05bf 43e8 c6be 9e98 953a 1458 f0bc
000000b0: 1b4b d8be 29ab 0fbe f648 83be a219 4cbd
000000c0: 9f8e 07be 847c 60be c3ed 25be 1bdb 0fbe
000000d0: 7be7 47be 6232 87be 77f1 153e 6327 89bf
000000e0: f174 4ebf cd4f 20bf 52c1 3fbf 45be cfbe
000000f0: 6b90 39bf 5c49 cabc 9aaf 10bf 4d91 b4be
00000100: 489a edbb 1e3f 613e e7cd 56be 9f54 bf3d
00000110: 0dfd 5ebf 125f 41be f058 11bf 0085 c6be
00000120: 2e8e e93c e597 2bbe 233b a6be 2af0 f8bd
00000130: 9152 483c 305e 023e 40e8 08bc a959 31bf
00000140: 8c03 293c ab7e a9be 3478 cbbe 045b 92be
00000150: 8014 5dbd 1f29 f8be e948 62bb f48c b33e
00000160: dabe 993d 3ba5 e8be 3645 ffbd 3dc5 1ebc
00000170: d965 0fbf fe10 e4ba 5da6 f43a 27a2 bdba
00000180: 266b 29bf 3d4d c1be 2bc3 013e bfaa 21bf

layers.2.weight f4 [1, 100]
-0.18571734 0.001509742 0.0006195795 -0.15432657 -0.3673574 -0.31846422 -0.22329973 -0.0035489916
-0.30392995 -0.20802864 0.0010789926 -0.0019913067 0.27927637 -0.20482993 0.32533154 0.010935195
0.0045739664 0.29396015 0.0022115102 0.0015893945 -0.199845 0.28422207 0.42779645 -0.2124114
0.28171507 0.017875206 -0.19578545 -0.3204321 0.26530102 -0.19081526 -0.354997 0.3093173
-0.16801286 -0.32259867 -0.29574898 -0.014033468 -0.11731182 -0.0052154893 -0.1552425 0.24365796
-0.02530417 -0.004981308 0.41520563 -0.28518757 -0.010214388 0.00013246141 0.0052452353 -0.196433
-0.17878541 -0.19692127 -0.3812109 -0.20178099 0.00010113425 0.0007864057 -0.24610494 0.5389052
-0.29410577 0.2540876 0.38475618 0.004012899 -0.34813133 -0.25929093 0.030158442 -0.006102886
0.43112314 -0.13079967 -0.24552436 -0.12552759 0.26041543 -0.2484287 -0.021416547 -0.39673615
-0.15583196 -0.2872509 -0.21230417 -0.22805142 0.28017002 -0.15160093 -0.13935603 -0.21677592
0.26279193 0.0008839509 -0.21740176 0.00047513534 -0.17066899 -0.007963973 0.20553197 -0.1490007
-0.110813074 0.003309961 -0.15792029 -0.14015846 -0.28305316 0.45302367 0.11743665 0.42403245
-0.3480819 -0.008951107 -0.20965782 0.0030360054
00000000: b02c 3ebe 89e2 c53a 476b 223a c907 1ebe
00000010: 4516 bcbe be0d a3be afa8 64be 3396 68bb
00000020: b59c 9bbe 7605 55be fc6c 8d3a 9580 02bb
00000030: 50fd 8e3e f0be 51be db91 a63e 8829 333c
00000040: 36e1 953b f281 963e fcee 103b 3b53 d03a
00000050: 2ba4 4cbe 8e85 913e 2308 db3e 6082 59be
00000060: f53c 903e 066f 923c fb7b 48be ad0f a4be
00000070: 89d5 873e 1365 43be 2bc2 b5be d65e 9e3e
00000080: 900b 2cbe a72b a5be 696c 97be a2ec 65bc
00000090: 2e41 f0bd b2e6 aabb e4f7 1ebe 7981 793e
000000a0: b14a cfbc 3d3a a3bb d595 d43e 1b04 92be
000000b0: 405a 27bc 57e5 0a39 39e0 ab3b bb25 49be
000000c0: 8613 37be bba5 49be 132e c3be ad9f 4ebe
000000d0: 0918 d438 cb26 4e3a ef02 7cbe b1f5 093f
000000e0: 0895 96be c517 823e c3fe c43e a37e 833b
000000f0: 453e b2be c8c1 84be d60e f73c b8fa c7bb
00000100: 2cbc dc3e 59f0 05be bd6a 7bbe 4e8a 00be
00000110: 2c55 853e 1864 7ebe c171 afbc 0021 cbbe
00000120: 6a92 1fbe 8d12 93be 4466 59be 5086 69be
00000130: 7272 8f3e 463d 1bbe 59b3 0ebe 82fa 5dbe
00000140: aa8c 863e f1b8 673a 919e 5ebe 961b f939
00000150: dac3 2ebe 537b 02bc f976 523e a493 18be
00000160: f7f1 e2bd eeeb 583b dbb5 21be b385 0fbe
00000170: 58ec 90be b8f2 e73e a082 f03d c81a d93e
00000180: ca37 b2be aaa7 12bc 8ab0 56be b8f7 463b

grad_avg f4 [494, 5]
0.0 0.0 0.0 0.0 0.0 0.0 0.0 0.0
0.0 0.0 0.0 0.0 0.0 0.0 0.0 0.0
0.0 0.0 0.0 0.0 0.0 0.0 0.0 0.0
0.0 0.0 0.0 0.0 0.0 0.0 0.0 0.0
0.0 0.0 0.0 0.0 0.0 0.0 0.0 0.0
0.0 0.0 0.0 0.0 0.0 0.0 0.0 0.0
0.0 0.0 0.0 0.0 0.0 0.0 0.0 0.0
0.0 0.0 0.0 0.0 0.0 0.0 0.0 0.0
0.0 0.0 0.0 0.0 0.0 0.0 0.0 0.0
0.0 0.0 0.0 0.0 0.0 0.0 0.0 0.0
0.0 0.0 0.0 0.0 0.0 0.0 0.0 0.0
0.0 0.0 0.0 0.0 0.0 0.0 0.0 0.0
0.0 0.0 0.0 0.0 0.0 0.0 0.0 0.0
0.0 0.0 0.0 0.0 0.0 0.0 0.0 0.0
0.0 0.0 0.0 0.0 0.0 0.0 0.0 0.0
0.0 0.0 0.0 0.0 0.0 0.0 0.0 0.0
0.0 0.0 0.0 0.0 0.0 0.0 0.0 0.0
0.0 0.0 0.0 0.0 0.0 0.0 0.0 0.0
0.0 0.0 0.0 0.0 0.0 0.0 0.0 0.0
0.0 0.0 0.0 0.0 0.0 0.0 0.0 0.0
0.0 0.0 0.0 0.0 0.0 0.0 0.0 0.0
0.0 0.0 0.0 0.0 0.0 0.0 0.0 0.0
0.0 0.0 0.0 0.0 0.0 0.0 0.0 0.0
0.0 0.0 0.0 0.0 0.0 0.0 0.0 0.0
0.0 0.0 0.0 0.0 0.0 0.0 0.0 0.0
0.0 0.0 0.0 0.0 0.0 0.0 0.0 0.0
0.0 0.0 0.0 0.0 0.0 0.0 0.0 0.0
0.0 0.0 0.0 0.0 0.0 0.0 0.0 0.0
0.0 0.0 0.0 0.0 0.0 0.0 0.0 0.0
0.0 0.0 0.0 0.0 0.0 0.0 0.0 0.0
0.0 0.0 0.0 0.0 0.0 0.0 0.0 0.0
0.0 0.0 0.0 0.0 0.0 0.0 0.0 0.0
00000000: 0000 0000 0000 0000 0000 0000 0000 0000
00000010: 0000 0000 0000 0000 0000 0000 0000 0000
00000020: 0000 0000 0000 0000 0000 0000 0000 0000
00000030: 0000 0000 0000 0000 0000 0000 0000 0000
00000040: 0000 0000 0000 0000 0000 0000 0000 0000
00000050: 0000 0000 0000 0000 0000 0000 0000 0000
00000060: 0000 0000 0000 0000 0000 0000 0000 0000
00000070: 0000 0000 0000 0000 0000 0000 0000 0000
00000080: 0000 0000 0000 0000 0000 0000 0000 0000
00000090: 0000 0000 0000 0000 0000 0000 0000 0000
000000a0: 0000 0000 0000 0000 0000 0000 0000 0000
000000b0: 0000 0000 0000 0000 0000 0000 0000 0000
000000c0: 0000 0000 0000 0000 0000 0000 0000 0000
000000d0: 0000 0000 0000 0000 0000 0000 0000 0000
000000e0: 0000 0000 0000 0000 0000 0000 0000 0000
000000f0: 0000 0000 0000 0000 0000 0000 0000 0000
00000100: 0000 0000 0000 0000 0000 0000 0000 0000
00000110: 0000 0000 0000 0000 0000 0000 0000 0000
00000120: 0000 0000 0000 0000 0000 0000 0000 0000
00000130: 0000 0000 0000 0000 0000 0000 0000 0000
00000140: 0000 0000 0000 0000 0000 0000 0000 0000
00000150: 0000 0000 0000 0000 0000 0000 0000 0000
00000160: 0000 0000 0000 0000 0000 0000 0000 0000
00000170: 0000 0000 0000 0000 0000 0000 0000 0000
00000180: 0000 0000 0000 0000 0000 0000 0000 0000
00000190: 0000 0000 0000 0000 0000 0000 0000 0000
000001a0: 0000 0000 0000 0000 0000 0000 0000 0000
000001b0: 0000 0000 0000 0000 0000 0000 0000 0000
000001c0: 0000 0000 0000 0000 0000 0000 0000 0000
000001d0: 0000 0000 0000 0000 0000 0000 0000 0000
000001e0: 0000 0000 0000 0000 0000 0000 0000 0000
000001f0: 0000 0000 0000 0000 0000 0000 0000 0000
00000200: 0000 0000 0000 0000 0000 0000 0000 0000
00000210: 0000 0000 0000 0000 0000 0000 0000 0000
00000220: 0000 0000 0000 0000 0000 0000 0000 0000
00000230: 0000 0000 0000 0000 0000 0000 0000 0000
00000240: 0000 0000 0000 0000 0000 0000 0000 0000
00000250: 0000 0000 0000 0000 0000 0000 0000 0000
00000260: 0000 0000 0000 0000 0000 0000 0000 0000
00000270: 0000 0000 0000 0000 0000 0000 0000 0000
00000280: 0000 0000 0000 0000 0000 0000 0000 0000
00000290: 0000 0000 0000 0000 0000 0000 0000 0000
000002a0: 0000 0000 0000 0000 0000 0000 0000 0000
000002b0: 0000 0000 0000 0000 0000 0000 0000 0000
000002c0: 0000 0000 0000 0000 0000 0000 0000 0000
000002d0: 0000 0000 0000 0000 0000 0000 0000 0000
000002e0: 0000 0000 0000 0000 0000 0000 0000 0000
000002f0: 0000 0000 0000 0000 0000 0000 0000 0000
00000300: 0000 0000 0000 0000 0000 0000 0000 0000
00000310: 0000 0000 0000 0000 0000 0000 0000 0000
00000320: 0000 0000 0000 0000 0000 0000 0000 0000
00000330: 0000 0000 0000 0000 0000 0000 0000 0000
00000340: 0000 0000 0000 0000 0000 0000 0000 0000
00000350: 0000 0000 0000 0000 0000 0000 0000 0000
00000360: 0000 0000 0000 0000 0000 0000 0000 0000
00000370: 0000 0000 0000 0000 0000 0000 0000 0000
00000380: 0000 0000 0000 0000 0000 0000 0000 0000
00000390: 0000 0000 0000 0000 0000 0000 0000 0000
000003a0: 0000 0000 0000 0000 0000 0000 0000 0000
000003b0: 0000 0000 0000 0000 0000 0000 0000 0000
000003c0: 0000 0000 0000 0000 0000 0000 0000 0000
000003d0: 0000 0000 0000 0000 0000 0000 0000 0000
000003e0: 0000 0000 0000 0000 0000 0000 0000 0000
000003f0: 0000 0000 0000 0000 0000 0000 0000 0000

sqr_avg f4 [494, 5]
0.0 0.0 0.0 0.0 0.0 0.0 0.0 0.0
0.0 0.0 0.0 0.0 0.0 0.0 0.0 0.0
0.0 0.0 0.0 0.0 0.0 0.0 0.0 0.0
0.0 0.0 0.0 0.0 0.0 0.0 0.0 0.0
0.0 0.0 0.0 0.0 0.0 0.0 0.0 0.0
0.0 0.0 0.0 0.0 0.0 0.0 0.0 0.0
0.0 0.0 0.0 0.0 0.0 0.0 0.0 0.0
0.0 0.0 0.0 0.0 0.0 0.0 0.0 0.0
0.0 0.0 0.0 0.0 0.0 0.0 0.0 0.0
0.0 0.0 0.0 0.0 0.0 0.0 0.0 0.0
0.0 0.0 0.0 0.0 0.0 0.0 0.0 0.0
0.0 0.0 0.0 0.0 0.0 0.0 0.0 0.0
0.0 0.0 0.0 0.0 0.0 0.0 0.0 0.0
0.0 0.0 0.0 0.0 0.0 0.0 0.0 0.0
0.0 0.0 0.0 0.0 0.0 0.0 0.0 0.0
0.0 0.0 0.0 0.0 0.0 0.0 0.0 0.0
0.0 0.0 0.0 0.0 0.0 0.0 0.0 0.0
0.0 0.0 0.0 0.0 0.0 0.0 0.0 0.0
0.0 0.0 0.0 0.0 0.0 0.0 0.0 0.0
0.0 0.0 0.0 0.0 0.0 0.0 0.0 0.0
0.0 0.0 0.0 0.0 0.0 0.0 0.0 0.0
0.0 0.0 0.0 0.0 0.0 0.0 0.0 0.0
0.0 0.0 0.0 0.0 0.0 0.0 0.0 0.0
0.0 0.0 0.0 0.0 0.0 0.0 0.0 0.0
0.0 0.0 0.0 0.0 0.0 0.0 0.0 0.0
0.0 0.0 0.0 0.0 0.0 0.0 0.0 0.0
0.0 0.0 0.0 0.0 0.0 0.0 0.0 0.0
0.0 0.0 0.0 0.0 0.0 0.0 0.0 0.0
0.0 0.0 0.0 0.0 0.0 0.0 0.0 0.0
0.0 0.0 0.0 0.0 0.0 0.0 0.0 0.0
0.0 0.0 0.0 0.0 0.0 0.0 0.0 0.0
0.0 0.0 0.0 0.0 0.0 0.0 0.0 0.0
00000000: 0000 0000 0000 0000 0000 0000 0000 0000
00000010: 0000 0000 0000 0000 0000 0000 0000 0000
00000020: 0000 0000 0000 0000 0000 0000 0000 0000
00000030: 0000 0000 0000 0000 0000 0000 0000 0000
00000040: 0000 0000 0000 0000 0000 0000 0000 0000
00000050: 0000 0000 0000 0000 0000 0000 0000 0000
00000060: 0000 0000 0000 0000 0000 0000 0000 0000
00000070: 0000 0000 0000 0000 0000 0000 0000 0000
00000080: 0000 0000 0000 0000 0000 0000 0000 0000
00000090: 0000 0000 0000 0000 0000 0000 0000 0000
000000a0: 0000 0000 0000 0000 0000 0000 0000 0000
000000b0: 0000 0000 0000 0000 0000 0000 0000 0000
000000c0: 0000 0000 0000 0000 0000 0000 0000 0000
000000d0: 0000 0000 0000 0000 0000 0000 0000 0000
000000e0: 0000 0000 0000 0000 0000 0000 0000 0000
000000f0: 0000 0000 0000 0000 0000 0000 0000 0000
00000100: 0000 0000 0000 0000 0000 0000 0000 0000
00000110: 0000 0000 0000 0000 0000 0000 0000 0000
00000120: 0000 0000 0000 0000 0000 0000 0000 0000
00000130: 0000 0000 0000 0000 0000 0000 0000 0000
00000140: 0000 0000 0000 0000 0000 0000 0000 0000
00000150: 0000 0000 0000 0000 0000 0000 0000 0000
00000160: 0000 0000 0000 0000 0000 0000 0000 0000
00000170: 0000 0000 0000 0000 0000 0000 0000 0000
00000180: 0000 0000 0000 0000 0000 0000 0000 0000
00000190: 0000 0000 0000 0000 0000 0000 0000 0000
000001a0: 0000 0000 0000 0000 0000 0000 0000 0000
000001b0: 0000 0000 0000 0000 0000 0000 0000 0000
000001c0: 0000 0000 0000 0000 0000 0000 0000 0000
000001d0: 0000 0000 0000 0000 0000 0000 0000 0000
000001e0: 0000 0000 0000 0000 0000 0000 0000 0000
000001f0: 0000 0000 0000 0000 0000 0000 0000 0000
00000200: 0000 0000 0000 0000 0000 0000 0000 0000
00000210: 0000 0000 0000 0000 0000 0000 0000 0000
00000220: 0000 0000 0000 0000 0000 0000 0000 0000
00000230: 0000 0000 0000 0000 0000 0000 0000 0000
00000240: 0000 0000 0000 0000 0000 0000 0000 0000
00000250: 0000 0000 0000 0000 0000 0000 0000 0000
00000260: 0000 0000 0000 0000 0000 0000 0000 0000
00000270: 0000 0000 0000 0000 0000 0000 0000 0000
00000280: 0000 0000 0000 0000 0000 0000 0000 0000
00000290: 0000 0000 0000 0000 0000 0000 0000 0000
000002a0: 0000 0000 0000 0000 0000 0000 0000 0000
000002b0: 0000 0000 0000 0000 0000 0000 0000 0000
000002c0: 0000 0000 0000 0000 0000 0000 0000 0000
000002d0: 0000 0000 0000 0000 0000 0000 0000 0000
000002e0: 0000 0000 0000 0000 0000 0000 0000 0000
000002f0: 0000 0000 0000 0000 0000 0000 0000 0000
00000300: 0000 0000 0000 0000 0000 0000 0000 0000
00000310: 0000 0000 0000 0000 0000 0000 0000 0000
00000320: 0000 0000 0000 0000 0000 0000 0000 0000
00000330: 0000 0000 0000 0000 0000 0000 0000 0000
00000340: 0000 0000 0000 0000 0000 0000 0000 0000
00000350: 0000 0000 0000 0000 0000 0000 0000 0000
00000360: 0000 0000 0000 0000 0000 0000 0000 0000
00000370: 0000 0000 0000 0000 0000 0000 0000 0000
00000380: 0000 0000 0000 0000 0000 0000 0000 0000
00000390: 0000 0000 0000 0000 0000 0000 0000 0000
000003a0: 0000 0000 0000 0000 0000 0000 0000 0000
000003b0: 0000 0000 0000 0000 0000 0000 0000 0000
000003c0: 0000 0000 0000 0000 0000 0000 0000 0000
000003d0: 0000 0000 0000 0000 0000 0000 0000 0000
000003e0: 0000 0000 0000 0000 0000 0000 0000 0000
000003f0: 0000 0000 0000 0000 0000 0000 0000 0000

grad_avg f4 [100, 10]
0.0039434996 0.0013768511 -0.0010615977 -0.0064891754 -0.0043467837 -0.0030955956 -0.008187781 -0.009500366
0.0041825566 -0.0022205752 4e-45 -4e-45 4e-45 4e-45 -4e-45 4e-45
4e-45 4e-45 4e-45 -4e-45 -4e-45 4e-45 4e-45 -4e-45
-4e-45 -4e-45 -4e-45 4e-45 -4e-45 4e-45 0.007859473 -0.008106564
0.0010066517 -0.0028380721 0.0010031714 0.0014916166 0.0054986295 0.0028143488 -0.004273302 -0.004138606
-0.0041904673 0.007618714 -0.011220656 -0.008585824 -0.00865489 0.002352177 -0.0114792185 -0.011094615
0.007826493 -0.009750784 0.005917288 -0.0068348423 -0.0018128466 0.005014482 0.00075575773 0.0013682572
0.008181421 -0.0045903022 0.002772353 -0.008245226 -0.0009899976 -0.006219441 -0.007470895 0.0020936755
-0.00724276 0.008294636 -0.003986441 -0.0021979227 -0.016020687 -0.002063768 4e-45 4e-45
4e-45 4e-45 -4e-45 4e-45 4e-45 4e-45 -4e-45 4e-45
-0.007602056 0.005662733 0.0025917187 0.0016987816 -0.0003741979 0.00971077 -0.005283704 -0.008139324
-0.008743368 0.003254561 0.0075707957 -0.014744719 0.002751929 -0.0064413543 -0.0040806504 -0.0042659
0.0032551182 -0.00073790207 0.0015862549 -0.010557991 -4e-45 -4e-45 4e-45 -4e-45
4e-45 4e-45 -4e-45 -4e-45 -4e-45 -4e-45 4e-45 4e-45
4e-45 -4e-45 4e-45 4e-45 -4e-45 4e-45 -4e-45 4e-45
-0.0047261594 0.0026461955 0.008762903 -0.0066447854 0.010192681 -0.0063630734 0.0004199957 -0.0019179708
0.008274038 0.003992846 0.0012282552 -0.0057878955 -0.0039590565 0.00051777664 0.005060834 0.005081402
-0.0068724807 -0.0028969292 -0.0053145853 -0.0059559364 -0.007632095 0.0022878454 0.0045079202 0.005794162
0.003621053 0.006081884 -0.0061315005 0.00495767 0.00578178 0.008245621 6e-45 -6e-45
-6e-45 -6e-45 6e-45 -6e-45 -6e-45 6e-45 -6e-45 6e-45
-4e-45 -4e-45 4e-45 -4e-45 -4e-45 4e-45 -4e-45 4e-45
4e-45 -4e-45 -0.014180715 0.01733705 -0.0026761726 0.007057849 -0.0014429264 -0.004034917
-0.0010899741 0.0045192665 0.0067901155 0.0040200716 4e-45 -4e-45 -4e-45 4e-45
-4e-45 -4e-45 -4e-45 -4e-45 4e-45 4e-45 -4e-45 -4e-45
-4e-45 4e-45 4e-45 -4e-45 -4e-45 -4e-45 -4e-45 4e-45
0.0102521945 -0.003342359 0.0025507857 -0.01572503 -0.007372115 0.0051154597 0.0025939483 -0.007868174
-0.0031465078 -0.0036707013 -0.016984599 0.005758909 -0.009490707 0.0095155565 0.00066591526 -0.012185781
-0.0058806376 0.005563018 -0.0024925657 -0.00065557315 -0.022210874 0.013781806 -7.180805e-05 0.01976031
-0.0077066044 -0.0011175941 0.012018521 -0.00552554 0.021032784 0.014255848 -0.0006594664 -0.003401253
-0.0026995265 -0.00074721104 0.006705028 0.009923813 -0.0024964064 2.7620354e-05 -0.0009135122 -0.0016892907
-0.014046292 0.008132756 0.0021577151 0.00014198144 0.0010017074 -0.006603443 0.007280881 0.008472025
-0.011544322 0.012920693 -4e-45 4e-45 -4e-45 -4e-45 -4e-45 -4e-45
00000000: 7938 813b 7577 b43a 4f25 8bba 26a3 d4bb
00000010: 776f 8ebb 7adf 4abb 0b26 06bc 6ca7 1bbc
00000020: d40d 893b 1287 11bb 0300 0000 0300 0080
00000030: 0300 0000 0300 0000 0300 0080 0300 0000
00000040: 0300 0000 0300 0000 0300 0000 0300 0080
00000050: 0300 0080 0300 0000 0300 0000 0300 0080
00000060: 0300 0080 0300 0080 0300 0080 0300 0000
00000070: 0300 0080 0300 0000 05c5 003c 65d1 04bc
00000080: a0f1 833a f3fe 39bb d97c 833a 5982 c33a
00000090: d92d b43b f070 383b 0e07 8cbb 259d 87bb
000000a0: 3050 89bb 68a6 f93b d8d6 37bc 8eab 0cbc
000000b0: 3dcd 0dbc fb26 1a3b 5513 3cbc 30c6 35bc
000000c0: b13a 003c c1c1 1fbc cfe5 c13b d0f6 dfbb
000000d0: 0a9d edba 8650 a43b 0b1e 463a 1857 b33a
000000e0: 5e0b 063c 3f6a 96bb 5db0 353b fc16 07bc
000000f0: cfc2 81ba 74cc cbbb 69ce f4bb 0c36 093b
00000100: ad54 edbb 3ae6 073c b1a0 82bb 060b 10bb
00000110: d13d 83bc 4840 07bb 0300 0000 0300 0000
00000120: 0300 0000 0300 0000 0300 0080 0300 0000
00000130: 0300 0000 0300 0000 0300 0080 0300 0000
00000140: ab1a f9bb 738e b93b d3d9 293b a7a9 de3a
00000150: fe2f c4b9 ec19 1f3c ec22 adbb cd5a 05bc
00000160: 5840 0fbc 794a 553b 7014 f83b d593 71bc
00000170: b559 343b ff11 d3bb fab6 85bb f6c8 8bbb
00000180: d253 553b c56f 41ba e2e9 cf3a 6dfb 2cbc
00000190: 0300 0080 0300 0080 0300 0000 0300 0080
000001a0: 0300 0000 0300 0000 0300 0080 0300 0080
000001b0: 0300 0080 0300 0080 0300 0000 0300 0000
000001c0: 0300 0000 0300 0080 0300 0000 0300 0000
000001d0: 0300 0080 0300 0000 0300 0080 0300 0000
000001e0: e6dd 9abb cb6b 2d3b 4792 0f3c 80bc d9bb
000001f0: 34ff 263c 5481 d0bb de32 dc39 6c64 fbba
00000200: d58f 073c 6bd6 823b 68fd a03a 63a8 bdbb
00000210: f9ba 81bb 67bb 073a 5ad5 a53b e481 a63b
00000220: 8c32 e1bb 68da 3dbb f925 aebb 042a c3bb
00000230: a716 fabb adef 153b 2db7 933b f4dc bd3b
00000240: 304f 6d3b 8a4a c73b c1ea c8bb f373 a23b
00000250: 1675 bd3b a418 073c 0400 0000 0400 0080
00000260: 0400 0080 0400 0080 0400 0000 0400 0080
00000270: 0400 0080 0400 0000 0400 0080 0400 0000
00000280: 0300 0080 0300 0080 0300 0000 0300 0080
00000290: 0300 0080 0300 0000 0300 0080 0300 0000
000002a0: 0300 0000 0300 0080 3b56 68bc 6e06 8e3c
000002b0: ba62 2fbb 8745 e73b 9320 bdba 5637 84bb
000002c0: 76dd 8eba 5b16 943b 9e7f de3b ceba 833b
000002d0: 0300 0000 0300 0080 0300 0080 0300 0000
000002e0: 0300 0080 0300 0080 0300 0080 0300 0080
000002f0: 0300 0000 0300 0000 0300 0080 0300 0080
00000300: 0300 0080 0300 0000 0300 0000 0300 0080
00000310: 0300 0080 0300 0080 0300 0080 0300 0000
00000320: d2f8 273c 7b0b 5bbb 152b 273b c7d1 80bc
00000330: c891 f1bb 969f a73b 3bff 293b 84e9 00bc
00000340: a435 4ebb 2690 70bb 4923 8bbc 3bb5 bc3b
00000350: e97e 1bbc 23e7 1b3c d190 2e3a dfa6 47bc
00000360: 5db2 c0bb fa49 b63b 505a 23bb c5da 2bba
00000370: 94f3 b5bc 16cd 613c a797 96b8 60e0 a13c
00000380: af87 fcbb 3c7c 92ba 55e9 443c 970f b5bb
00000390: f24c ac3c 5c91 693c 0ae0 2cba 8ee7 5ebb
000003a0: 8aea 30bb 7ce0 43ba dab5 db3b 7d97 223c
000003b0: c09a 23bb 42b2 e737 c478 6fba 316b ddba
000003c0: 6b22 66bc 403f 053c 7468 0d3b dae0 1439
000003d0: b94b 833a b261 d8bb 7594 ee3b 40ce 0a3c
000003e0: 6524 3dbc 50b1 533c 0300 0080 0300 0000
000003f0: 0300 0080 0300 0080 0300 0080 0300 0080

sqr_avg f4 [100, 10]
0.0014581861 0.0013442625 0.001419953 0.0015290614 0.0014272867 0.001389266 0.0013932311 0.0014424429
0.0014237639 0.0012068149 7e-44 7e-44 7e-44 7e-44 7e-44 7e-44
7e-44 7e-44 7e-44 7e-44 7e-44 7e-44 7e-44 7e-44
7e-44 7e-44 7e-44 7e-44 7e-44 7e-44 0.0010927734 0.0012767857
0.0012737683 0.0011216681 0.0010558087 0.0011352455 0.0012494179 0.0011067593 0.0013466005 0.0010776636
0.0048581264 0.004058827 0.003524851 0.0049971417 0.005059423 0.0043276795 0.0047049373 0.0042661815
0.0048555452 0.0045541115 0.0009927823 0.001004623 0.0011924999 0.0009384137 0.0009898075 0.00101893
0.0010489745 0.0009196304 0.00087557937 0.0011531815 0.00162993 0.0017996999 0.0019670879 0.0021189551
0.0017782181 0.0018842852 0.0018307721 0.0018164588 0.0019482191 0.001455544 7e-44 7e-44
7e-44 7e-44 7e-44 7e-44 7e-44 7e-44 7e-44 7e-44
0.0016128276 0.0016017313 0.0014994345 0.0014698162 0.0014166154 0.0017583346 0.0017087997 0.0016882115
0.0013850544 0.0016264383 0.0024411313 0.0022228733 0.0023659482 0.0023856072 0.0024879975 0.0024090845
0.0025731868 0.0023489022 0.0025830294 0.0024067967 7e-44 7e-44 7e-44 7e-44
7e-44 7e-44 7e-44 7e-44 7e-44 7e-44 7e-44 7e-44
7e-44 7e-44 7e-44 7e-44 7e-44 7e-44 7e-44 7e-44
0.0017591063 0.001876322 0.0021721874 0.0019830412 0.0023469967 0.0022524614 0.00206181 0.0024286597
0.0022111062 0.002043664 0.0020190177 0.0020349233 0.0019669258 0.002103362 0.0020892536 0.0020322674
0.0022040883 0.0019696525 0.0024702933 0.0020253093 0.001392585 0.0013097473 0.0014672275 0.0012318536
0.0013516776 0.0015140296 0.0012353216 0.0013191607 0.0011847826 0.0012053598 2.23e-43 2.28e-43
2.6e-43 2.34e-43 2.31e-43 2.19e-43 2.7e-43 2.5e-43 2.23e-43 3.17e-43
7e-44 7e-44 7e-44 7e-44 7e-44 7e-44 7e-44 7e-44
7e-44 7e-44 0.002250943 0.002275826 0.0021418063 0.0020735306 0.0025070666 0.0023620983
0.0023363924 0.0021637077 0.0020495648 0.0020432584 7e-44 7e-44 7e-44 7e-44
7e-44 7e-44 7e-44 7e-44 7e-44 7e-44 7e-44 7e-44
7e-44 7e-44 7e-44 7e-44 7e-44 7e-44 7e-44 7e-44
0.0021324733 0.0020844485 0.0023754954 0.0029702566 0.0023940387 0.0024107432 0.0025534304 0.00220246
0.0023140516 0.0022945984 0.0035760775 0.0034712842 0.0039895144 0.0043436186 0.004062192 0.0037910328
0.004093529 0.0037273767 0.0039456785 0.0036595298 0.0073412294 0.007467306 0.0075135278 0.009101913
0.007213291 0.008762693 0.010061325 0.007921843 0.010259078 0.008343074 0.0015891208 0.001215252
0.0012521235 0.0011313956 0.0014763481 0.0013892849 0.0014103733 0.0012262794 0.0013536831 0.0010634743
0.0043521742 0.003640358 0.0034068967 0.003960331 0.0038696176 0.0032287855 0.004165819 0.0041479687
0.0040215612 0.0031058106 7e-44 7e-44 7e-44 7e-44 7e-44 7e-44
00000000: 9b20 bf3a f731 b03a b71d ba3a c96a c83a
00000010: cb13 bb3a 0818 b63a 149d b63a 5a10 bd3a
00000020: 979d ba3a fd2d 9e3a 3200 0000 3200 0000
00000030: 3200 0000 3200 0000 3200 0000 3200 0000
00000040: 3200 0000 3200 0000 3200 0000 3200 0000
00000050: 3200 0000 3200 0000 3200 0000 3200 0000
00000060: 3200 0000 3200 0000 3200 0000 3200 0000
00000070: 3200 0000 3200 0000 643b 8f3a d259 a73a
00000080: 92f4 a63a f004 933a 1063 8a3a 85cc 943a
00000090: 82c3 a33a ae10 913a 6a80 b03a 6440 8d3a
000000a0: eb30 9f3b e9ff 843b 3001 673b 10bf a33b
000000b0: 84c9 a53b 35cf 8d3b e02b 9a3b 53cb 8b3b
000000c0: 441b 9f3b a83a 953b 3f20 823a 8ead 833a
000000d0: a84d 9c3a e1ff 753a 6ebc 813a 9e8d 853a
000000e0: be7d 893a 5a13 713a 2387 653a 5a26 973a
000000f0: 60a3 d53a e8e3 eb3a 42ea 003b 2bde 0a3b
00000100: 1913 e93a 1ffa f63a 85f6 ef3a 3e16 ee3a
00000110: 635b ff3a f4c7 be3a 3200 0000 3200 0000
00000120: 3200 0000 3200 0000 3200 0000 3200 0000
00000130: 3200 0000 3200 0000 3200 0000 3200 0000
00000140: 8465 d33a 2ff1 d13a ac88 c43a d9a6 c03a
00000150: baad b93a eb77 e63a cef9 df3a fa46 dd3a
00000160: b78a b53a 372e d53a 63fb 1f3b a0ad 113b
00000170: 060e 1b3b d957 1c3b ac0d 233b bbe1 1d3b
00000180: e9a2 283b 0af0 193b 0b48 293b 59bb 1d3b
00000190: 3200 0000 3200 0000 3200 0000 3200 0000
000001a0: 3200 0000 3200 0000 3200 0000 3200 0000
000001b0: 3200 0000 3200 0000 3200 0000 3200 0000
000001c0: 3200 0000 3200 0000 3200 0000 3200 0000
000001d0: 3200 0000 3200 0000 3200 0000 3200 0000
000001e0: d091 e63a ebee f53a 425b 0e3b e9f5 013b
000001f0: 12d0 193b 089e 133b 6f1f 073b 262a 1f3b
00000200: 35e8 103b feee 053b 7f51 043b 595c 053b
00000210: 8ae7 003b 8fd8 093b dceb 083b ca2f 053b
00000220: 7772 103b 4915 013b a5e4 213b 0dbb 043b
00000230: 6687 b63a d4ab ab3a fc4f c03a 2676 a13a
00000240: c62a b13a 6772 c63a 84ea a13a b0e7 ac3a
00000250: b54a 9b3a 2afd 9d3a 9f00 0000 a300 0000
00000260: ba00 0000 a700 0000 a500 0000 9c00 0000
00000270: c100 0000 b200 0000 9f00 0000 e200 0000
00000280: 3200 0000 3200 0000 3200 0000 3200 0000
00000290: 3200 0000 3200 0000 3200 0000 3200 0000
000002a0: 3200 0000 3200 0000 8f84 133b 0626 153b
000002b0: 8c5d 0c3b 12e4 073b 994d 243b 6fcd 1a3b
000002c0: 291e 193b fecc 0d3b fe51 063b 30e8 053b
000002d0: 3200 0000 3200 0000 3200 0000 3200 0000
000002e0: 3200 0000 3200 0000 3200 0000 3200 0000
000002f0: 3200 0000 3200 0000 3200 0000 3200 0000
00000300: 3200 0000 3200 0000 3200 0000 3200 0000
00000310: 3200 0000 3200 0000 3200 0000 3200 0000
00000320: f7c0 0b3b 3e9b 083b 33ae 1b3b a3a8 423b
00000330: 4ee5 1c3b 8ffd 1d3b 7457 273b 2657 103b
00000340: 58a7 173b f960 163b a05c 6a3b 7c7e 633b
00000350: 79ba 823b ea54 8e3b 231c 853b fa72 783b
00000360: 0323 863b 0147 743b c04a 813b b9d4 6f3b
00000370: b28e f03b 4eb0 f43b 0a34 f63b 3120 153c
00000380: 785d ec3b 6691 0f3c 41d8 243c 9eca 013c
00000390: b115 283c 63b1 083c 0c4a d03a 1749 9f3a
000003a0: 4b1e a43a 564b 943a 0682 c13a aa18 b63a
000003b0: 46dc b83a 1cbb a03a 116e b13a 4764 8b3a
000003c0: af9c 8e3b 1393 6e3b 3e46 5f3b aac5 813b
000003d0: 6999 7d3b 089a 533b 6c81 883b afeb 873b
000003e0: 4dc7 833b db8a 4b3b 3200 0000 3200 0000
000003f0: 3200 0000 3200 0000 3200 0000 3200 0000

grad_avg f4 [100]
0.003013818 4e-45 4e-45 -0.0062682685 0.0077548097 -0.0019862012 -0.0011219453 4e-45
0.0027523863 0.0006838539 4e-45 4e-45 -0.0030623453 0.0074270363 0.00955456 6e-45
4e-45 0.01423666 4e-45 4e-45 -0.006920676 0.0106541375 0.005184303 -0.003406119
0.0055042114 4e-45 -0.0066345376 -0.0067793964 0.0043220874 -0.004928405 -0.005195252 0.0034287001
-0.0039762785 0.0016960022 -0.008592642 4e-45 0.0017183002 6e-45 -0.0035080968 -0.004940928
4e-45 4e-45 0.014599097 -0.0031442496 4e-45 4e-45 4e-45 0.00349998
-0.0034308564 -0.0013170922 -0.0062949257 0.00023792038 4e-45 4e-45 0.005438067 -0.0024081422
0.007642867 -0.0022603846 -0.0025690857 4e-45 0.0005608357 -0.0030579083 4e-45 4e-45
0.0014995516 -0.00072495604 -0.0023129082 0.0014729485 0.0019545637 -0.0049850945 4e-45 -0.0012909307
-0.005656622 -0.0003105589 0.0029856758 0.0029938235 -0.0033023576 0.000134079 0.0009844385 0.0015735093
3.9993607e-05 4e-45 -0.001710204 4e-45 0.00045001126 4e-45 0.002816238 -0.0018043597
-0.00089134416 4e-45 0.0026826242 -0.0029020773 0.009416358 -0.0051137074 0.0030052022 0.005314298
-0.0068642753 4e-45 -0.0031829425 4e-45
00000000: 7a83 453b 0300 0000 0300 0000 0c66 cdbb
00000010: 0f1c fe3b ed2a 02bb 3d0e 93ba 0300 0000
00000020: 6161 343b a944 333a 0300 0000 0300 0000
00000030: a1b1 48bb 7f5e f33b bb8a 1c3c 0400 0000
00000040: 0300 0000 e140 693c 0300 0000 0300 0000
00000050: d7c6 e2bb b18e 2e3c 16e1 a93b 3239 5fbb
00000060: ac5c b43b 0300 0000 8966 d9bb b325 debb
00000070: 4ca0 8d3b 757e a1bb ef3c aabb 0bb4 603b
00000080: 714b 82bb 644c de3a 27c8 0cbc 0300 0000
00000090: 9638 e13a 0400 0000 19e8 65bb 82e7 a1bb
000000a0: 0300 0000 0300 0000 0d31 6f3c c10f 4ebb
000000b0: 0300 0000 0300 0000 0300 0000 ec5f 653b
000000c0: 38d8 60bb 48a2 acba aa45 cebb 447a 7939
000000d0: 0300 0000 0300 0000 d031 b23b ecd1 1dbb
000000e0: 0471 fa3b f622 14bb 1b5e 28bb 0300 0000
000000f0: 0c05 133a 3067 48bb 0300 0000 0300 0000
00000100: 9a8c c43a fa0a 3eba 2994 17bb f30f c13a
00000110: 2318 003b 015a a3bb 0300 0000 7234 a9ba
00000120: 2f5b b9bb 83d2 a2b9 54ab 433b 0634 443b
00000130: 5e6c 58bb 8f97 0c39 4608 813a 363e ce3a
00000140: cfbe 2738 0300 0000 ec28 e0ba 0300 0000
00000150: 7def eb39 0300 0000 a290 383b 4480 ecba
00000160: 18a9 69ba 0300 0000 f7ce 2f3b c730 3ebb
00000170: 1147 1a3c e390 a7bb edf2 443b 9023 ae3b
00000180: b7ed e0bb 0300 0000 ea98 50bb 0300 0000

sqr_avg f4 [100]
0.0016456364 7e-44 7e-44 0.0011348998 0.0050249095 0.0009280127 0.0021606816 7e-44
0.0015377563 0.0026567923 7e-44 7e-44 0.0020962728 0.002127821 0.0012330216 2.3e-43
7e-44 0.0022735882 7e-44 7e-44 0.0026500972 0.0038687408 0.00949571 0.0012841466
0.003947598 7e-44 0.0019171447 0.0046835286 0.001363082 0.0016114834 0.005633421 0.0040699765
0.0012766771 0.0054758834 0.004767896 7e-44 0.00089400704 7e-44 0.001024429 0.0015273815
7e-44 7e-44 0.008703908 0.004378412 7e-44 7e-44 7e-44 0.0017488407
0.001433939 0.0018571136 0.006295044 0.001547399 7e-44 7e-44 0.0032539635 0.0021918255
0.0014478005 0.001708877 0.0030762686 7e-44 0.0025118685 0.0031336967 7e-44 7e-44
0.009688923 0.0009983693 0.002501957 0.0008198387 0.0014572778 0.0026130972 7e-44 0.005976575
0.0012280385 0.0037082238 0.0014658055 0.0023463634 0.0036310602 0.0015414597 0.0009562072 0.0008581457
0.0035072544 7e-44 0.0014696026 7e-44 0.0013375487 7e-44 0.00208867 0.0016086933
0.000636259 7e-44 0.0010193234 0.0008890303 0.0020176233 0.010414496 0.0006469326 0.009185674
0.0028386195 7e-44 0.0023150942 7e-44
00000000: 65b2 d73a 3200 0000 3200 0000 ebc0 943a
00000010: ffa7 a43b e145 733a 399a 0d3b 3200 0000
00000020: 8a8e c93a 941d 2e3b 3200 0000 3200 0000
00000030: 9f61 093b ea72 0b3b 579d a13a a400 0000
00000040: 3200 0000 7b00 153b 3200 0000 3200 0000
00000050: 41ad 2d3b b38a 7d3b e593 1b3c cf50 a83a
00000060: da5a 813b 3200 0000 b448 fb3a 4978 993b
00000070: 71a9 b23a 6938 d33a 8f98 b83b 705d 853b
00000080: 2d56 a73a 0a6f b33b 033c 9c3b 3200 0000
00000090: cc5b 6a3a 3200 0000 2246 863a 6b32 c83a
000000a0: 3200 0000 3200 0000 d69a 0e3c c878 8f3b
000000b0: 3200 0000 3200 0000 3200 0000 5b39 e53a
000000c0: 02f3 bb3a 646a f33a a846 ce3b 18d2 ca3a
000000d0: 3200 0000 3200 0000 7340 553b bba4 0f3b
000000e0: 20c4 bd3a 66fc df3a 399b 493b 3200 0000
000000f0: 299e 243b b55e 4d3b 3200 0000 3200 0000
00000100: 4abe 1e3c b7db 823a dff7 233b 72ea 563a
00000110: 2102 bf3a 7f40 2b3b 3200 0000 25d7 c33b
00000120: 22f6 a03a ac05 733b 4520 c03a 72c5 193b
00000130: 15f7 6d3b ce0a ca3a fba9 7a3a 2ff5 603a
00000140: f7d9 653b 3200 0000 ae9f c03a 3200 0000
00000150: b050 af3a 3200 0000 11e2 083b cada d23a
00000160: 9eca 263a 3200 0000 d19a 853a d00d 693a
00000170: 1a3a 043b 90a1 2a3c e996 293a 827f 163c
00000180: 2208 3a3b 3200 0000 d6b8 173b 3200 0000

grad_avg f4 [1, 100]
-0.0007475125 4e-45 4e-45 0.035197157 -0.013139328 0.001782364 0.02698798 -4e-45
-0.0066646542 -0.012932865 4e-45 -4e-45 0.0016641533 -0.021379776 0.006473807 6e-45
4e-45 0.030174207 4e-45 4e-45 0.059186447 0.029738192 -0.017316934 -0.007761523
0.005076102 4e-45 0.03732356 0.021312948 0.0054627587 0.02462102 0.0022650764 -0.02293664
0.026780857 -0.018220454 -0.019189034 -4e-45 -0.0061712726 -6e-45 0.021496683 -0.012852101
-4e-45 -4e-45 0.048197296 0.050982665 4e-45 4e-45 4e-45 -0.0006999327
0.024347086 0.0045221588 0.045555174 -0.020832328 4e-45 4e-45 -0.013455336 0.0019643079
-0.015566183 -0.017569946 -0.015149103 4e-45 0.0089856945 0.033347286 4e-45 -4e-45
-0.0011720214 -0.015300561 0.024556093 -0.006186723 0.0034180116 -0.00954893 -4e-45 0.014369761
0.044034436 0.023336912 -0.027857525 -0.0011073184 -0.036141947 -0.0054635466 -0.01708892 -0.0223191
-0.001237457 -4e-45 -0.018376773 4e-45 0.0032869396 -4e-45 0.025841363 0.0240846
0.024749408 4e-45 -0.02113641 0.017165437 -0.03262628 0.0045452164 0.035642855 -0.009474709
0.008766033 -4e-45 0.023762867 -4e-45
00000000: b7f4 43ba 0300 0000 0300 0000 e52a 103d
00000010: 5646 57bc 369e e93a e515 dd3c 0300 0080
00000020: 2c63 dabb 5ee4 53bc 0300 0000 0300 0080
00000030: b81f da3a a424 afbc 3b22 d43b 0400 0000
00000040: 0300 0000 e62f f73c 0300 0000 0300 0000
00000050: 7d6d 723d 829d f33c 3edc 8dbc 6054 febb
00000060: 6e55 a63b 0300 0000 97e0 183d 7e98 ae3c
00000070: f100 b33b 05b2 c93c ad71 143b 9fe5 bbbc
00000080: 8763 db3c 1043 95bc 5232 9dbc 0300 0080
00000090: 6338 cabb 0400 0080 d019 b03c 9e91 52bc
000000a0: 0300 0080 0300 0080 876a 453d 33d3 503d
000000b0: 0300 0000 0300 0000 0300 0000 b07b 37ba
000000c0: 8a73 c73c 9e2e 943b 1098 3a3d 8fa8 aabc
000000d0: 0300 0000 0300 0000 c573 5cbc 9ebb 003b
000000e0: 4e09 7fbc d9ee 8fbc f133 78bc 0300 0000
000000f0: bc38 133c 2a97 083d 0300 0000 0300 0080
00000100: 839e 99ba 34af 7abc dc29 c93c feb9 cabb
00000110: b800 603b 1e73 1cbc 0300 0080 256f 6b3c
00000120: 745d 343d 0d2d bf3c 7735 e4bc 7123 91ba
00000130: 9409 14bd 8d07 b3bb 10fe 8bbc 8cd6 b6bc
00000140: 2b32 a2ba 0300 0080 e38a 96bc 0300 0000
00000150: b269 573b 0300 0080 44b1 d33c 114d c53c
00000160: 45bf ca3c 0300 0000 4426 adbc 889e 8c3c
00000170: 22a3 05bd 0af0 943b 3efe 113d cf3b 1bbc
00000180: 689f 0f3c 0300 0080 58aa c23c 0300 0080

sqr_avg f4 [1, 100]
0.03684292 7e-44 7e-44 0.038609535 0.036450338 0.0008951616 0.03228926 7e-44
0.007690264 0.08070615 7e-44 7e-44 0.017719585 0.057383537 0.002813246 1.3196e-41
7e-44 0.016147379 7e-44 7e-44 0.088213824 0.05801992 0.06993747 0.014004319
0.061631452 7e-44 0.05147545 0.0414982 0.008368474 0.04274778 0.047416933 0.05398702
0.027566167 0.07563902 0.052759044 7e-44 0.053299785 5.527e-42 0.029014476 0.011671702
7e-44 7e-44 0.0782416 0.06342426 7e-44 7e-44 7e-44 0.040351253
0.035258587 0.040472943 0.063470595 0.033856116 7e-44 7e-44 0.06603203 0.0012269669
0.004627702 0.010086052 0.011593124 7e-44 0.008265304 0.055899505 7e-44 7e-44
0.07392834 0.053517945 0.042738676 0.04833949 0.0063298903 0.0403973 7e-44 0.039434943
0.045438953 0.046819195 0.032619745 0.045155313 0.054932263 0.04747596 0.047035422 0.010460381
0.060334675 7e-44 0.021257004 7e-44 0.033678144 7e-44 0.04356084 0.068867736
0.042186927 7e-44 0.040775776 0.03399345 0.01459178 0.07803649 0.036485516 0.0771567
0.01485536 7e-44 0.05099655 7e-44
00000000: 9ae8 163d 3200 0000 3200 0000 0825 1e3d
00000010: f34c 153d 47a9 6a3a be41 043d 3200 0000
00000020: 9cfe fb3b 4449 a53d 3200 0000 3200 0000
00000030: aa28 913c 000b 6b3d 705e 383b c924 0000
00000040: 3200 0000 8247 843c 3200 0000 3200 0000
00000050: 73a9 b43d 4ca6 6d3d 603b 8f3d 5f72 653c
00000060: 4371 7c3d 3200 0000 ecd7 523d 04fa 293d
00000070: ed1b 093c 4c18 2f3d 4238 423d 7e21 5d3d
00000080: 71d2 e13c a1e8 9a3d de19 583d 3200 0000
00000090: e050 5a3d 680f 0000 c4af ed3c ab3a 3f3c
000000a0: 3200 0000 3200 0000 223d a03d 94e4 813d
000000b0: 3200 0000 3200 0000 3200 0000 5b47 253d
000000c0: 4f6b 103d f5c6 253d dffc 813d b6ac 0a3d
000000d0: 3200 0000 3200 0000 cd3b 873d 2dd2 a03a
000000e0: faa3 973b f83f 253c 16f1 3d3c 3200 0000
000000f0: 336b 073c e1f6 643d 3200 0000 3200 0000
00000100: be67 973d a235 5b3d c00e 2f3d a1ff 453d
00000110: f86a cf3b a477 253d 3200 0000 8986 213d
00000120: 321e 3a3d 7cc5 3f3d 489c 053d c7f4 383d
00000130: a700 613d 2776 423d 37a8 403d 0562 2b3c
00000140: 7e21 773d 3200 0000 2b23 ae3c 3200 0000
00000150: 18f2 093d 3200 0000 da6c 323d 870a 8d3d
00000160: 33cc 2c3d 3200 0000 8004 273d b73c 0b3d
00000170: 5c12 6f3c 98d1 9f3d d671 153d 5504 9e3d
00000180: e563 733c 3200 0000 c2e1 503d 3200 0000
