trees/save/cycle/6bits/split_75.0_0.1_5_50/models/model.pth (torch, 57046 bytes, 12 tensors)

embedding_layers.weight f4 [494, 6]
00000000: 9138 d2bb 7a8d 433c 2aed f73a bc13 adba
00000010: 2056 cbba 8b49 9137 0edd b93a e87f cb39
00000020: 56ba 68ba fdef c53b c2f6 5f3b 3533 e13b
00000030: e0e4 193b 485f ac3a 4b68 28bb aa7e b43b
00000040: b586 103b 24c6 0bbc 843e aabb 7903 ed3b
00000050: 8ae1 53bb 14fa 96bb 0e4c 3ebb a15f 8b3a
00000060: 8a82 a4ba 68d2 d5ba c3db ecbb 1789 35bc
00000070: f4f6 17bc 8a54 30bb 5c4d 183c 6217 25bb
00000080: 115d 23bc 2a9a 0b3c cfab 2f3b 119f a93b
00000090: af60 8039 0831 5bbb dbb9 46bc e60c 363a
000000a0: 416e 063c da1b 333c 0c6e 1b39 6d2e 49bc
000000b0: 62a1 39bb 800d f13b d555 4a3b b529 9bba
000000c0: 5205 54ba 879f 103c 3979 353c bb78 6bbb
000000d0: 352e 6d3b 92cf 943a 2fae 7f3b 9097 91bb
000000e0: 6495 80bb c1b3 193c 7577 9ebb 1033 44bc
000000f0: 1aee ffb7 a8cc d4ba 56a0 cabb 915c acba
00000100: 5eb3 18bc 53e2 e03a 1ef0 1b3c 2dbd 97bb
00000110: a49a 11bb 9218 43bb cb81 7e3b fd29 663b
00000120: 3b88 87bb 40ba 893b 83a6 afbb 887f 10bc
00000130: 2b86 dbbb ad1c 223c 8996 c43b e381 db3b
00000140: 58d0 e6ba 9e3f 5b3a 6126 abbb fd19 02bc
00000150: 3afd 7e3b 334e f83b 6667 8bbb b2fc 9039
00000160: 6d29 1eba 9eb7 e93b 563a 2ebb 9037 9b3b
00000170: aa74 6fb9 8aa8 13b9 d040 273b 9b14 2c3a
00000180: ebc6 083c 4f51 fa39 82ac 363c fd22 3f3b
00000190: 946d 82bb defe 0abc 24f2 e23b ac1a 883b
000001a0: 07b7 2eba fefe a2bb 7e98 2f3b 25aa 833a
000001b0: 4d65 243c 932d 2cb9 9fda ff3b 32a6 6239
000001c0: 2960 0fb7 ace9 963b 95e8 913b a464 e33b
000001d0: 54a9 ebbb 9fd9 653a 570f c43a e1c8 b5bb
000001e0: e68a b638 9821 de3b b8ea 513c f5e5 d93b
000001f0: 40dd baba ec68 d03b 354b ec3b 67cf 3d3b
00000200: eca3 243b 6f48 0b3c d116 adbb 0702 323b
00000210: 0046 28bc 1df0 9fb8 a24b 4a3c 871b 2ebb
00000220: 4d6b 1c3c 3f6a d2bb 7194 393b 526d 6f3b
00000230: 7b27 c6ba e3f4 faba c1fb 50bb 5daa 053c
00000240: b3d9 b53b 9939 9eba 207a 8ebb 299f 2bba
00000250: 9f0a 24bb e5c0 6c3b 452a 253c 1505 9fbb
00000260: aba4 b33a 36e4 063c 5bd9 3cbb ae97 a2bb
00000270: 7471 21bb 7da2 d73a 428d 4a3b eb05 debb
00000280: 1a64 c5bb 4ce3 083c a084 3d3c f65f edbb
00000290: ef70 0a3c d3fc 50bc 8f92 b7bb 31c5 423b
000002a0: 2aa3 323c 2f5c 8fbb 4a62 edbb 95e7 d6bb
000002b0: a4fc a238 90ac 34bb 2f91 c43b 2d48 eabb
000002c0: 7d06 75bb 0e26 623a 02bf 633b 4fe1 a03a
000002d0: 8c28 de3b ce95 c9bb 30bf b4bb 6d16 a5b8
000002e0: 1227 1cba 95b2 b3bb 3252 44bb d2e7 f73a
000002f0: 750d ab3b f335 97bb ef4b 53ba bfd8 95bb
00000300: eb3d f9b9 c556 4b39 f27d 0fbb 1a28 433c
00000310: 0378 f4b8 eeec 32bb 7eb5 bc3a ea82 aab8
00000320: 6ef3 403c 92d0 80ba 04ce 3cbb 0de5 263b
00000330: 5c43 1a3c 142c 82ba 6de3 bf39 5f47 1ebc
00000340: 6b55 5fba 4e4b bd3a a5a7 3cbc 0243 ebbb
00000350: bb41 69bb f2a0 4cb9 9a9e 1c3b 07b1 1fbc
00000360: e56f ba3a 4399 7ebb 730a 06ba 33d1 33b6
00000370: 0cfe a93b c610 0bbb a385 063c 1768 af3b
00000380: 5dc9 8fbb 88f0 19bb 1e2d b3bb 9496 45bc
00000390: cbee e63a 6199 c8b7 bc18 d0bb 32e0 0cbb
000003a0: 4701 363c 61c3 453a 7b2d 9d3a 15ca 4cb9
000003b0: f31c 1d3c 9d63 e23b b398 bcba a25f c93b
000003c0: edd7 c93b d375 1b3b f5e9 a5bb 7feb 253b
000003d0: e342 1dbb 536e 823b c50c 2fba 7142 613b
000003e0: 784d 4cbc 3ff7 baba 7bb4 0fbc c76f 2bbb
000003f0: 6e6a d4bb 57f1 383c 542a 503a 2c3e 0cbb
-0.0064154346 0.011935586 0.0018915285 -0.0013204734 -0.0015513338 1.7319593e-05 0.0014180259 0.00038814475
-0.0008877864 0.0060405717 0.0034174179 0.0068725594 0.0023482367 0.0013150955 -0.002569693 0.0055082636
0.0022052948 -0.008531127 -0.0051954407 0.00723308 -0.0032330477 -0.0046074484 -0.0029037031 0.0010633358
-0.0012551111 -0.0016313316 -0.007228346 -0.011080048 -0.009275187 -0.0026905858 0.009295788 -0.002519094
-0.009970919 0.008520642 0.0026805287 0.005176433 0.00024486097 -0.0033445973 -0.012129272 0.0006944671
0.0082049975 0.010931933 0.00014822948 -0.012279135 -0.0028324951 0.0073563457 0.0030873914 -0.0011837991
-0.0008087951 0.008827097 0.011076265 -0.0035930115 0.0036190872 0.0011353365 0.0039013734 -0.0044431165
-0.0039240588 0.009381236 -0.0048360177 -0.011975065 -3.0509244e-05 -0.0016235309 -0.0061836643 -0.0013150146
-0.009320108 0.0017157294 0.009517698 -0.004630706 -0.0022217417 -0.0029769284 0.0038834687 0.0035120242
-0.004136113 0.004203111 -0.005360426 -0.008819468 -0.0066993437 0.009894532 0.0059993905 0.0066988333
-0.0017609699 0.0008363667 -0.005223081 -0.007940766 0.003890826 0.0075776814 -0.0042542694 0.00027654093
-0.00060333946 0.0071324846 -0.0026585064 0.004736848 -0.00022836277 -0.00014081798 0.002552081 0.000656435
0.008348207 0.00047744295 0.0111495275 0.0029165142 -0.003980348 -0.008483617 0.006925838 0.00415357
-0.00066648464 -0.004974245 0.0026793773 0.0010045214 0.010033918 -0.00016420176 0.007808044 0.00021614952
-8.545853e-06 0.0046054926 0.0044527748 0.0069394875 -0.0071918163 0.0008768085 0.0014958185 -0.0055476283
8.704308e-05 0.006778907 0.012812309 0.0066497275 -0.0014256611 0.006360164 0.007211114 0.0028962733
0.002512212 0.008501156 -0.005282261 0.0027161853 -0.010270596 -7.6264354e-05 0.012347134 -0.00265667
0.009547067 -0.006421357 0.0028317238 0.0036533666 -0.0015117967 -0.0019146468 -0.0031888338 0.008158294
0.0055496334 -0.0012071609 -0.0043480545 -0.0006546849 -0.0025030745 0.0036125716 0.010080879 -0.0048529007
0.0013705691 0.008233121 -0.0028816077 -0.0049619293 -0.0024634274 0.0016451624 0.003090695 -0.006775608
-0.006023896 0.008354973 0.011567265 -0.0072441055 0.008449777 -0.0127555905 -0.005602188 0.0029719586
0.010903159 -0.004375003 -0.007244383 -0.0065583684 7.77182e-05 -0.0027568676 0.0059987525 -0.0071497173
-0.00373879 0.00086268864 0.00347513 0.0012274178 0.006779736 -0.0061518913 -0.0055159554 -7.87199e-05
-0.00059567497 -0.005483935 -0.0029956219 0.0018913692 0.00522011 -0.0046145855 -0.0008060326 -0.0045729573
-0.00047539113 0.00019391913 -0.0021895138 0.011911416 -0.000116571806 -0.0027301866 0.0014397351 -8.130616e-05
0.011776788 -0.0009827784 -0.0028809318 0.0025466115 0.009415474 -0.0009931349 0.00036599804 -0.009660571
-0.0008519503 0.0014441998 -0.011514579 -0.007179619 -0.0035592157 -0.00019514913 0.0023898245 -0.009746796
0.0014224021 -0.0038848675 -0.00051132514 -2.6794849e-06 0.0051877555 -0.0021219715 0.008210572 0.0053529846
-0.004388018 -0.0023489315 -0.005468025 -0.012059826 0.0017618773 -2.391328e-05 -0.006350605 -0.0021495936
0.011108703 0.00075440673 0.0011991704 -0.00019530237 0.009589422 0.0069088475 -0.001438877 0.0061454335
0.0061597736 0.0023721352 -0.0050632902 0.0025317369 -0.0023996166 0.003980437 -0.0006677623 0.0034371878
-0.012469642 -0.0014264359 -0.008771057 -0.0026159154 -0.006482414 0.011288009 0.00079408777 -0.0021399362

layers.0.weight f4 [100, 12]
00000000: 1242 c73e ef19 00bd a8a9 123e 2d23 8d3e
00000010: 9cf6 1e3f da10 e93e 6ab7 cf3e 5b51 d43d
00000020: 04d3 3fbe e193 9d3d ffff 30bf 9fde e9bd
00000030: 6049 b23c c2f8 673e aa95 9f3e d530 2d3e
00000040: c083 263e 8af7 933e 694c 14bf 0f1d 1ebf
00000050: 2074 92be 2da3 b7be 7495 5a3e 642a acbd
00000060: bab3 dfbd 69ad 393d 4100 b23d aed4 e5be
00000070: 238e fabe 7e5d 52be 9f39 513e a64d 1fbf
00000080: ebd1 3fbe 375e 7a3e 03f7 4fbe 7e4a b43e
00000090: c495 abbe cb2c 563c 1202 a83c 2a17 06bf
000000a0: b4c7 01be bf97 c53e 09eb 23be 5959 08be
000000b0: a7db 11be 82b1 073f b4f5 fcbd 1cf2 023f
000000c0: 70af ce3e deb3 9bbe 1f7f e83d 56f2 54be
000000d0: 1fa4 843e b68e 1dbe b852 febe 61fe ab3e
000000e0: 20e4 bfbd 5b19 05bf b261 b63d 2b37 66be
000000f0: 1cc9 76bd 2ed8 0e3f 1723 dbbe 4d8d 0fbc
00000100: 273f 98be 7925 9ebb 627a 0e3d a1c0 21bf
00000110: c136 b4be 5664 bfbc b865 8a3e 3251 79be
00000120: d665 803d a740 a73c a630 3bbd e61c 03ba
00000130: 6b4f 6a3d 3579 26bb d6a4 853d 320a 41bd
00000140: 175e 0fbd e34c 8bbd 585f 86bd 75db a0bc
00000150: 9407 e4be d13f b63e f92d 223e cc09 49be
00000160: 550b 903e cf36 b2be 5248 193c c2db d9be
00000170: 3fc8 86be e9b7 38be c48f d5bc 6bcb 85be
00000180: 6a03 22bb 4113 1d3c 5bfc 943c 4706 843b
00000190: 41db 1b3c 8afd 82bc e941 86bb 51fa 01bc
000001a0: ff44 92bc 5dd5 8fbc 2d59 b0bc 2a2a e2bc
000001b0: a43d 023f dcfb 79be 9d05 153c 7f82 643c
000001c0: acf4 c7be 80e9 273e 43bc e4be b3a8 923e
000001d0: 84f4 2b3d 5e1b 4abd e678 b2be 160f 86be
000001e0: acde e53e f7bd e93d e00b f03e 86aa 2e3e
000001f0: 7350 85be e359 a7be e06f acbe e049 d73e
00000200: 33c8 b4be 5dbd c4be 7666 f1be 43f6 70be
00000210: f371 2ebe 4e6c 94be a815 34bf 169c 87be
00000220: 2995 47be a4d3 dabd bf6e 313e 1b26 933e
00000230: bd6a 323f 9ff1 8a3e c7ac 543e 165c db3d
00000240: 9bfa 213f ec78 c23e 164d e63e b494 d43e
00000250: e0bd 5fbe 7462 bdbd f19c 23bf 799e c0be
00000260: e40e e4be 8a0c d6be 5f8d 623e d926 c03d
00000270: 69df b0bb a343 a13a 1db6 2fbc b8ca 49bc
00000280: 34ac 2bbb c479 1bbd 103c 543b 43c2 2b3d
00000290: 4694 823b 113c cd3c fbce 833b b483 cdbc
000002a0: abd4 d33e 379a 203e 16a4 fd3e cd2b 9f3e
000002b0: f500 db3e 46ab 25be 1b8c afbe 287a 153c
000002c0: e04d a3be 8c6b de3e 3e8b f9be 23a1 843d
000002d0: 332d 5fbe 4a21 cb3e e45f 55be 452a 4cbc
000002e0: d573 0f3e 67f1 d43e 3b75 aebe ef96 10be
000002f0: d238 033e abc2 ed3e e490 09bf 46aa 91be
00000300: 930c 0abe e633 e7bd fd9b bf3e 622f 343c
00000310: c262 333d 10d2 2fbe 0745 33bf 9113 6abe
00000320: f372 eabe 52fd 90bd 2a9f 373e f418 f13e
00000330: 68d2 b13a 94a6 813c 7616 563d 13e0 ae3c
00000340: 9182 b9bc 1f54 313c f933 26bc 2d77 20bc
00000350: e01a a43c c47f f13b 230d e23b abee e6ba
00000360: 0d63 4fbd d843 09bc 4e82 ccbc e4ea 11bd
00000370: ba3a 28bc c8e9 30bd ae1e 97bd dba9 1cbc
00000380: 4a74 153d c5c7 c6bd 0afc e2bc a80a 673b
00000390: 8e61 47bc 8fa1 ebb9 088e a73c 9931 013d
000003a0: 2afc c63a 58cf 27bc 1420 1b3d 0d79 30bc
000003b0: 1dfe a5bc 6822 543b adbb eb3b fa45 8eba
000003c0: 0f0b 4b3d ba46 ad3c c0b0 bf3d 1ce5 a0bc
000003d0: 59b5 b23c 5198 0b3b e7a6 813b 350a 83bd
000003e0: eb52 18bc bcae 4d3b fb28 78bb 64d5 d93b
000003f0: 7dc5 d33e 7b0b eebd 9e07 36be a0e7 0b3f
0.38917595 -0.031274732 0.14322531 0.275659 0.62095046 0.4552067 0.4056962 0.1036708
-0.1873284 0.07694221 -0.6914062 -0.11419415 0.021763504 0.22653487 0.31168872 0.16913159
0.16261196 0.28899795 -0.5792909 -0.6176309 -0.2860422 -0.3586668 0.21346074 -0.08406523
-0.10922952 0.045331392 0.08691455 -0.44888824 -0.48936567 -0.20543477 0.20432137 -0.6222786
-0.18732421 0.24450003 -0.20309071 0.35213083 -0.335127 0.013072203 0.0205088 -0.52379096
-0.12673837 0.38592336 -0.16007628 -0.13315333 -0.14243947 0.5300523 -0.12351552 0.5115068
0.40368223 -0.30410665 0.113523714 -0.20795569 0.25906464 -0.15386471 -0.49672484 0.33592513
-0.09369683 -0.51991814 0.08905353 -0.22481982 -0.060250387 0.55798614 -0.4280021 -0.008761716
-0.2973568 -0.0048262444 0.034784682 -0.63184553 -0.35198024 -0.023363274 0.2703073 -0.2434738
0.06269424 0.02041657 -0.04570069 -0.00050015596 0.057204645 -0.0025401835 0.065255806 -0.047128864
-0.03500184 -0.06801774 -0.06561154 -0.019635895 -0.44537032 0.35595563 0.1583785 -0.19632643
0.28133646 -0.3480744 0.009355621 -0.42550474 -0.2632465 -0.18038906 -0.02606953 -0.26131758
-0.0024721273 0.00958711 0.018186739 0.0040290686 0.009512723 -0.015990037 -0.0040972126 -0.007933215
-0.017855166 -0.017557794 -0.021526897 -0.027607996 0.50875306 -0.24412483 0.009095577 0.013947128
-0.39053857 0.16397667 -0.44674882 0.28644332 0.041981235 -0.049342506 -0.34857863 -0.26183385
0.44896448 0.11413186 0.4688406 0.17057237 -0.2603794 -0.32685766 -0.33679104 0.4204855
-0.3530899 -0.38425723 -0.47148484 -0.23531441 -0.17035656 -0.2898888 -0.70345545 -0.26486272
-0.19490494 -0.106848985 0.17327403 0.2874001 0.6969412 0.27137467 0.20769034 0.107109234
0.6327302 0.3798288 0.44980687 0.415197 -0.21849775 -0.09247294 -0.6391135 -0.37620905
-0.4454261 -0.41806442 0.22124241 0.093824096 -0.0053977263 0.0012303483 -0.0107245715 -0.012316398
-0.002619517 -0.03795792 0.0032384433 0.04193331 0.0039849607 0.025053056 0.0040224767 -0.025087215
0.4137319 0.15683828 0.4953925 0.31088105 0.42774168 -0.16178617 -0.3428658 0.009123363
-0.3189535 0.43441427 -0.48739046 0.06476047 -0.21794586 0.39673835 -0.2083736 -0.01246125
0.1400903 0.41590425 -0.34073815 -0.14120077 0.12814644 0.46437582 -0.5373671 -0.2845022
-0.13481359 -0.11289196 0.37423697 0.010997625 0.043795355 -0.17169976 -0.700272 -0.22859026
-0.45790824 -0.07079567 0.1793181 0.4708935 0.0013566734 0.015826501 0.052267514 0.021347081
-0.022645267 0.010823279 -0.010144227 -0.009794039 0.020032346 0.007369967 0.0068985387 -0.0017618736
-0.05063157 -0.008377992 -0.024964478 -0.0356244 -0.010267908 -0.0431917 -0.073788986 -0.009561981
0.036487855 -0.09706072 -0.027708072 0.0035254154 -0.012169255 -0.00044943063 0.020453468 0.03154144
0.0015181352 -0.010242306 0.03787239 -0.010771048 -0.020262772 0.003236914 0.0071940036 -0.0010854595
0.049571093 0.02115189 0.09359884 -0.019640498 0.021814989 0.0021300504 0.003956664 -0.06398431
-0.009297113 0.0031384667 -0.0037866223 0.0066477526 0.4136161 -0.116232835 -0.17776343 0.54650307

layers.0.bias f4 [100]
00000000: 12d7 abbe 751f ce3e 605d 38bf cd25 cabe
00000010: 5db7 f7be dbfc 3cbe 4d89 2ebf e359 83be
00000020: cd6f 63be be7e 253d 1324 003d 8447 883c
00000030: 8cb2 a33b 0301 72be ee4a 12be cc59 08bf
00000040: c8df e6be c3b9 a8be ab87 11bf 3252 80be
00000050: 8c7e d4be a779 723b ff1e ebbe 958a f9be
00000060: 8d5b 66be 00ff c5bc 1586 97bc 2020 bcbc
00000070: 551b c03e 4cf3 a2bf f0be 2cbf 4708 50be
00000080: 96af ab3b 77af 67be 2049 e0bd 997f 9b3b
00000090: 8988 05be 4ea0 a8be 31f9 97bc 68e2 68bf
000000a0: 4628 24bf 72a8 3dbc 3020 a5be 1988 133d
000000b0: 2f40 9bbe b714 2fbf 1033 6fbf 34d1 04be
000000c0: 7f0d 8d3b 316d 05bd a1bd 11bf 6926 2fbf
000000d0: fc45 963d 4a76 ecbe d201 33bf 828d 96be
000000e0: 1641 09bf 1862 40bf 51a9 6b3c d00f 05be
000000f0: c046 26be 6b08 1bbf 074f c03b 4e7b 92bf
00000100: c31f c0be 22b6 d7be 48d4 4bbf 1ea0 0cbe
00000110: 6650 e2be 2b4d f8be 22c2 50bd 37fd 963a
00000120: d0dc d5bd b594 13bf 39ee 93bf 339f 08bf
00000130: a8ce cdbe a7eb dc3d 940d 4bbe bcb1 8db9
00000140: 87a0 8cbd 9b68 a2be 4c50 99be ccfe 4fbe
00000150: abae 95be 7137 07be 9c55 d4be 7bf9 ce3b
00000160: 5bd5 1fbf a431 c8be 1ad0 26be 6d51 d1be
00000170: f379 1bbe 8c76 13bf 13b8 83bc dd4e c0be
00000180: 8910 4ebe fbe0 f4be f923 01ba e59d f6be
-0.33562523 0.40258375 -0.7201748 -0.39481965 -0.48382083 -0.18455832 -0.68178254 -0.25654516
-0.22210617 0.040404074 0.031284403 0.016635664 0.0049956497 -0.23633198 -0.14286396 -0.5326202
-0.45092607 -0.32954225 -0.5684764 -0.2506271 -0.41502798 0.003699878 -0.45922086 -0.48738542
-0.22495861 -0.024169445 -0.018496552 -0.022964537 0.37520853 -1.2730498 -0.6747885 -0.20315658
0.0052394373 -0.22625528 -0.109514475 0.0047454354 -0.13040365 -0.32934803 -0.01855144 -0.9097047
-0.6412395 -0.011575805 -0.3225112 0.036018465 -0.30322406 -0.68390983 -0.9343729 -0.1297043
0.0043045874 -0.032574836 -0.56929976 -0.68417984 0.07337567 -0.46183997 -0.6992465 -0.29404837
-0.5361494 -0.7514968 0.01438363 -0.12994313 -0.16237926 -0.6055972 0.005868796 -1.144388
-0.37524232 -0.42131144 -0.7962079 -0.13732955 -0.44201964 -0.48496374 -0.05096639 0.0011519556
-0.10442507 -0.57648784 -1.1557075 -0.5336792 -0.4019673 0.107871346 -0.19829398 -0.00027026038
-0.06866556 -0.31720433 -0.29944074 -0.20312041 -0.29234824 -0.13204743 -0.41471565 0.0063163615
-0.6243493 -0.39100373 -0.16290322 -0.40882435 -0.15183239 -0.57602763 -0.016078984 -0.37560168
-0.20123495 -0.47827896 -0.000492632 -0.4816734

layers.2.weight f4 [1, 100]
00000000: 6ce6 a6be 21e6 86be a82f b7be 863d 6cbe
00000010: 26b0 86be 7901 67be a32f c4bc c378 52be
00000020: 79b0 c23b e341 21be 00bf 8ebe d24d ae3e
00000030: 0506 f83e 94c8 b53a 2546 73be b17b a0be
00000040: 5259 7abe 64a6 48bb 503d ba3b f3eb 12bb
00000050: bdde 09bc 5a0c d53e a8c5 f739 9723 86b9
00000060: 27e5 71be 3a29 6cbe 1f9f 22be 7800 29be
00000070: 9a31 d2bd d954 1c3f 4962 83be 956b 62ba
00000080: cd8e 003f edd2 bb3b 9330 61be 385a 023f
00000090: d6af 76be c647 78b9 9beb 7cbe 8ef2 f03e
000000a0: 1c30 ab3c de61 a6be e32b 3e3b 3034 96be
000000b0: b26b 913b 1108 98be 047d c43e a4ad 4ebe
000000c0: f58b 023f 8cc1 9abe fb6f a1be f6f4 8abe
000000d0: d058 33be 1ff1 85be 5b40 9fbe 79d8 97be
000000e0: e8cf 21bb 52a1 5cbe 1792 003f 1143 f7bd
000000f0: de69 fbbc c1e1 bc3e 578d e23e d007 f33e
00000100: 1316 63bb 43a1 153c b0e7 e4be 3cb2 7dbe
00000110: 5dda 5b3b 2553 cb3a 74a2 70be 664d db3e
00000120: 0024 54be 0e47 e039 83ac 16bf 6828 8abe
00000130: 964f 853b aaf3 86be c3f1 84be c353 8ebe
00000140: 6134 71be a414 423a 6099 4dbe 33f7 63be
00000150: 81a4 94be 0b2b 86be b930 abbe 05a0 943e
00000160: 10a4 86be d386 093c 26b5 3bbb 31a5 a4be
00000170: f440 15be 13ce ccbe 5a7b 42be 9a95 ccb9
00000180: 054b 80be 6177 2bbe d9c1 80be 2967 3d3b
-0.32597673 -0.2634745 -0.35778546 -0.23070344 -0.26306266 -0.22559156 -0.023948496 -0.2055388
0.0059414473 -0.1574779 -0.27880096 0.34043747 0.48442093 0.0013868981 -0.23757227 -0.3134437
-0.24448135 -0.0030616755 0.0056835786 -0.0022418469 -0.008414921 0.41610986 0.00047258777 -0.00025584988
-0.23622571 -0.23062602 -0.15881012 -0.16504085 -0.10263367 0.6106697 -0.25660923 -0.0008637247
0.50217897 0.0057319314 -0.21991186 0.5091891 -0.24090514 -0.00023677861 -0.24699251 0.47060055
0.020896964 -0.32496542 0.0029017858 -0.2933669 0.004437887 -0.29693654 0.3837663 -0.20183426
0.5099481 -0.3022579 -0.31530747 -0.27140015 -0.17514348 -0.26160523 -0.31103787 -0.29657343
-0.0024690572 -0.21545914 0.50222915 -0.12073339 -0.03069013 0.36890987 0.4424846 0.47466898
-0.0034650608 0.009132686 -0.44708014 -0.24775022 0.0033546903 0.001551245 -0.23499471 0.42832488
-0.20716858 0.0004277755 -0.5885698 -0.26983953 0.0040683253 -0.26357776 -0.259657 -0.2779828
-0.23555137 0.00074035884 -0.20078039 -0.22262268 -0.29031757 -0.26204714 -0.3343561 0.29028335
-0.26297045 0.008393961 -0.0028641908 -0.3215728 -0.14575559 -0.40000972 -0.18992367 -0.00039021374
-0.25057235 -0.16744758 -0.25147894 0.00289006

grad_avg f4 [494, 6]
00000000: 0000 0000 0000 0000 0000 0000 0000 0000
00000010: 0000 0000 0000 0000 0000 0000 0000 0000
00000020: 0000 0000 0000 0000 0000 0000 0000 0000
00000030: 0000 0000 0000 0000 0000 0000 0000 0000
00000040: 0000 0000 0000 0000 0000 0000 0000 0000
00000050: 0000 0000 0000 0000 0000 0000 0000 0000
00000060: 0000 0000 0000 0000 0000 0000 0000 0000
00000070: 0000 0000 0000 0000 0000 0000 0000 0000
00000080: 0000 0000 0000 0000 0000 0000 0000 0000
00000090: 0000 0000 0000 0000 0000 0000 0000 0000
000000a0: 0000 0000 0000 0000 0000 0000 0000 0000
000000b0: 0000 0000 0000 0000 0000 0000 0000 0000
000000c0: 0000 0000 0000 0000 0000 0000 0000 0000
000000d0: 0000 0000 0000 0000 0000 0000 0000 0000
000000e0: 0000 0000 0000 0000 0000 0000 0000 0000
000000f0: 0000 0000 0000 0000 0000 0000 0000 0000
00000100: 0000 0000 0000 0000 0000 0000 0000 0000
00000110: 0000 0000 0000 0000 0000 0000 0000 0000
00000120: 0000 0000 0000 0000 0000 0000 0000 0000
00000130: 0000 0000 0000 0000 0000 0000 0000 0000
00000140: 0000 0000 0000 0000 0000 0000 0000 0000
00000150: 0000 0000 0000 0000 0000 0000 0000 0000
00000160: 0000 0000 0000 0000 0000 0000 0000 0000
00000170: 0000 0000 0000 0000 0000 0000 0000 0000
00000180: 0000 0000 0000 0000 0000 0000 0000 0000
00000190: 0000 0000 0000 0000 0000 0000 0000 0000
000001a0: 0000 0000 0000 0000 0000 0000 0000 0000
000001b0: 0000 0000 0000 0000 0000 0000 0000 0000
000001c0: 0000 0000 0000 0000 0000 0000 0000 0000
000001d0: 0000 0000 0000 0000 0000 0000 0000 0000
000001e0: 0000 0000 0000 0000 0000 0000 0000 0000
000001f0: 0000 0000 0000 0000 0000 0000 0000 0000
00000200: 0000 0000 0000 0000 0000 0000 0000 0000
00000210: 0000 0000 0000 0000 0000 0000 0000 0000
00000220: 0000 0000 0000 0000 0000 0000 0000 0000
00000230: 0000 0000 0000 0000 0000 0000 0000 0000
00000240: 0000 0000 0000 0000 0000 0000 0000 0000
00000250: 0000 0000 0000 0000 0000 0000 0000 0000
00000260: 0000 0000 0000 0000 0000 0000 0000 0000
00000270: 0000 0000 0000 0000 0000 0000 0000 0000
00000280: 0000 0000 0000 0000 0000 0000 0000 0000
00000290: 0000 0000 0000 0000 0000 0000 0000 0000
000002a0: 0000 0000 0000 0000 0000 0000 0000 0000
000002b0: 0000 0000 0000 0000 0000 0000 0000 0000
000002c0: 0000 0000 0000 0000 0000 0000 0000 0000
000002d0: 0000 0000 0000 0000 0000 0000 0000 0000
000002e0: 0000 0000 0000 0000 0000 0000 0000 0000
000002f0: 0000 0000 0000 0000 0000 0000 0000 0000
00000300: 0000 0000 0000 0000 0000 0000 0000 0000
00000310: 0000 0000 0000 0000 0000 0000 0000 0000
00000320: 0000 0000 0000 0000 0000 0000 0000 0000
00000330: 0000 0000 0000 0000 0000 0000 0000 0000
00000340: 0000 0000 0000 0000 0000 0000 0000 0000
00000350: 0000 0000 0000 0000 0000 0000 0000 0000
00000360: 0000 0000 0000 0000 0000 0000 0000 0000
00000370: 0000 0000 0000 0000 0000 0000 0000 0000
00000380: 0000 0000 0000 0000 0000 0000 0000 0000
00000390: 0000 0000 0000 0000 0000 0000 0000 0000
000003a0: 0000 0000 0000 0000 0000 0000 0000 0000
000003b0: 0000 0000 0000 0000 0000 0000 0000 0000
000003c0: 0000 0000 0000 0000 0000 0000 0000 0000
000003d0: 0000 0000 0000 0000 0000 0000 0000 0000
000003e0: 0000 0000 0000 0000 0000 0000 0000 0000
000003f0: 0000 0000 0000 0000 0000 0000 0000 0000
0.0 0.0 0.0 0.0 0.0 0.0 0.0 0.0
0.0 0.0 0.0 0.0 0.0 0.0 0.0 0.0
0.0 0.0 0.0 0.0 0.0 0.0 0.0 0.0
0.0 0.0 0.0 0.0 0.0 0.0 0.0 0.0
0.0 0.0 0.0 0.0 0.0 0.0 0.0 0.0
0.0 0.0 0.0 0.0 0.0 0.0 0.0 0.0
0.0 0.0 0.0 0.0 0.0 0.0 0.0 0.0
0.0 0.0 0.0 0.0 0.0 0.0 0.0 0.0
0.0 0.0 0.0 0.0 0.0 0.0 0.0 0.0
0.0 0.0 0.0 0.0 0.0 0.0 0.0 0.0
0.0 0.0 0.0 0.0 0.0 0.0 0.0 0.0
0.0 0.0 0.0 0.0 0.0 0.0 0.0 0.0
0.0 0.0 0.0 0.0 0.0 0.0 0.0 0.0
0.0 0.0 0.0 0.0 0.0 0.0 0.0 0.0
0.0 0.0 0.0 0.0 0.0 0.0 0.0 0.0
0.0 0.0 0.0 0.0 0.0 0.0 0.0 0.0
0.0 0.0 0.0 0.0 0.0 0.0 0.0 0.0
0.0 0.0 0.0 0.0 0.0 0.0 0.0 0.0
0.0 0.0 0.0 0.0 0.0 0.0 0.0 0.0
0.0 0.0 0.0 0.0 0.0 0.0 0.0 0.0
0.0 0.0 0.0 0.0 0.0 0.0 0.0 0.0
0.0 0.0 0.0 0.0 0.0 0.0 0.0 0.0
0.0 0.0 0.0 0.0 0.0 0.0 0.0 0.0
0.0 0.0 0.0 0.0 0.0 0.0 0.0 0.0
0.0 0.0 0.0 0.0 0.0 0.0 0.0 0.0
0.0 0.0 0.0 0.0 0.0 0.0 0.0 0.0
0.0 0.0 0.0 0.0 0.0 0.0 0.0 0.0
0.0 0.0 0.0 0.0 0.0 0.0 0.0 0.0
0.0 0.0 0.0 0.0 0.0 0.0 0.0 0.0
0.0 0.0 0.0 0.0 0.0 0.0 0.0 0.0
0.0 0.0 0.0 0.0 0.0 0.0 0.0 0.0
0.0 0.0 0.0 0.0 0.0 0.0 0.0 0.0

sqr_avg f4 [494, 6]
00000000: 0000 0000 0000 0000 0000 0000 0000 0000
00000010: 0000 0000 0000 0000 0000 0000 0000 0000
00000020: 0000 0000 0000 0000 0000 0000 0000 0000
00000030: 0000 0000 0000 0000 0000 0000 0000 0000
00000040: 0000 0000 0000 0000 0000 0000 0000 0000
00000050: 0000 0000 0000 0000 0000 0000 0000 0000
00000060: 0000 0000 0000 0000 0000 0000 0000 0000
00000070: 0000 0000 0000 0000 0000 0000 0000 0000
00000080: 0000 0000 0000 0000 0000 0000 0000 0000
00000090: 0000 0000 0000 0000 0000 0000 0000 0000
000000a0: 0000 0000 0000 0000 0000 0000 0000 0000
000000b0: 0000 0000 0000 0000 0000 0000 0000 0000
000000c0: 0000 0000 0000 0000 0000 0000 0000 0000
000000d0: 0000 0000 0000 0000 0000 0000 0000 0000
000000e0: 0000 0000 0000 0000 0000 0000 0000 0000
000000f0: 0000 0000 0000 0000 0000 0000 0000 0000
00000100: 0000 0000 0000 0000 0000 0000 0000 0000
00000110: 0000 0000 0000 0000 0000 0000 0000 0000
00000120: 0000 0000 0000 0000 0000 0000 0000 0000
00000130: 0000 0000 0000 0000 0000 0000 0000 0000
00000140: 0000 0000 0000 0000 0000 0000 0000 0000
00000150: 0000 0000 0000 0000 0000 0000 0000 0000
00000160: 0000 0000 0000 0000 0000 0000 0000 0000
00000170: 0000 0000 0000 0000 0000 0000 0000 0000
00000180: 0000 0000 0000 0000 0000 0000 0000 0000
00000190: 0000 0000 0000 0000 0000 0000 0000 0000
000001a0: 0000 0000 0000 0000 0000 0000 0000 0000
000001b0: 0000 0000 0000 0000 0000 0000 0000 0000
000001c0: 0000 0000 0000 0000 0000 0000 0000 0000
000001d0: 0000 0000 0000 0000 0000 0000 0000 0000
000001e0: 0000 0000 0000 0000 0000 0000 0000 0000
000001f0: 0000 0000 0000 0000 0000 0000 0000 0000
00000200: 0000 0000 0000 0000 0000 0000 0000 0000
00000210: 0000 0000 0000 0000 0000 0000 0000 0000
00000220: 0000 0000 0000 0000 0000 0000 0000 0000
00000230: 0000 0000 0000 0000 0000 0000 0000 0000
00000240: 0000 0000 0000 0000 0000 0000 0000 0000
00000250: 0000 0000 0000 0000 0000 0000 0000 0000
00000260: 0000 0000 0000 0000 0000 0000 0000 0000
00000270: 0000 0000 0000 0000 0000 0000 0000 0000
00000280: 0000 0000 0000 0000 0000 0000 0000 0000
00000290: 0000 0000 0000 0000 0000 0000 0000 0000
000002a0: 0000 0000 0000 0000 0000 0000 0000 0000
000002b0: 0000 0000 0000 0000 0000 0000 0000 0000
000002c0: 0000 0000 0000 0000 0000 0000 0000 0000
000002d0: 0000 0000 0000 0000 0000 0000 0000 0000
000002e0: 0000 0000 0000 0000 0000 0000 0000 0000
000002f0: 0000 0000 0000 0000 0000 0000 0000 0000
00000300: 0000 0000 0000 0000 0000 0000 0000 0000
00000310: 0000 0000 0000 0000 0000 0000 0000 0000
00000320: 0000 0000 0000 0000 0000 0000 0000 0000
00000330: 0000 0000 0000 0000 0000 0000 0000 0000
00000340: 0000 0000 0000 0000 0000 0000 0000 0000
00000350: 0000 0000 0000 0000 0000 0000 0000 0000
00000360: 0000 0000 0000 0000 0000 0000 0000 0000
00000370: 0000 0000 0000 0000 0000 0000 0000 0000
00000380: 0000 0000 0000 0000 0000 0000 0000 0000
00000390: 0000 0000 0000 0000 0000 0000 0000 0000
000003a0: 0000 0000 0000 0000 0000 0000 0000 0000
000003b0: 0000 0000 0000 0000 0000 0000 0000 0000
000003c0: 0000 0000 0000 0000 0000 0000 0000 0000
000003d0: 0000 0000 0000 0000 0000 0000 0000 0000
000003e0: 0000 0000 0000 0000 0000 0000 0000 0000
000003f0: 0000 0000 0000 0000 0000 0000 0000 0000
0.0 0.0 0.0 0.0 0.0 0.0 0.0 0.0
0.0 0.0 0.0 0.0 0.0 0.0 0.0 0.0
0.0 0.0 0.0 0.0 0.0 0.0 0.0 0.0
0.0 0.0 0.0 0.0 0.0 0.0 0.0 0.0
0.0 0.0 0.0 0.0 0.0 0.0 0.0 0.0
0.0 0.0 0.0 0.0 0.0 0.0 0.0 0.0
0.0 0.0 0.0 0.0 0.0 0.0 0.0 0.0
0.0 0.0 0.0 0.0 0.0 0.0 0.0 0.0
0.0 0.0 0.0 0.0 0.0 0.0 0.0 0.0
0.0 0.0 0.0 0.0 0.0 0.0 0.0 0.0
0.0 0.0 0.0 0.0 0.0 0.0 0.0 0.0
0.0 0.0 0.0 0.0 0.0 0.0 0.0 0.0
0.0 0.0 0.0 0.0 0.0 0.0 0.0 0.0
0.0 0.0 0.0 0.0 0.0 0.0 0.0 0.0
0.0 0.0 0.0 0.0 0.0 0.0 0.0 0.0
0.0 0.0 0.0 0.0 0.0 0.0 0.0 0.0
0.0 0.0 0.0 0.0 0.0 0.0 0.0 0.0
0.0 0.0 0.0 0.0 0.0 0.0 0.0 0.0
0.0 0.0 0.0 0.0 0.0 0.0 0.0 0.0
0.0 0.0 0.0 0.0 0.0 0.0 0.0 0.0
0.0 0.0 0.0 0.0 0.0 0.0 0.0 0.0
0.0 0.0 0.0 0.0 0.0 0.0 0.0 0.0
0.0 0.0 0.0 0.0 0.0 0.0 0.0 0.0
0.0 0.0 0.0 0.0 0.0 0.0 0.0 0.0
0.0 0.0 0.0 0.0 0.0 0.0 0.0 0.0
0.0 0.0 0.0 0.0 0.0 0.0 0.0 0.0
0.0 0.0 0.0 0.0 0.0 0.0 0.0 0.0
0.0 0.0 0.0 0.0 0.0 0.0 0.0 0.0
0.0 0.0 0.0 0.0 0.0 0.0 0.0 0.0
0.0 0.0 0.0 0.0 0.0 0.0 0.0 0.0
0.0 0.0 0.0 0.0 0.0 0.0 0.0 0.0
0.0 0.0 0.0 0.0 0.0 0.0 0.0 0.0

grad_avg f4 [100, 12]
00000000: 165d 6f3b 7602 bcba 39b9 68bc 853a 483b
00000010: e1b3 e8ba c8be 5fbc 8e34 603c 6f31 b1bc
00000020: a2f8 1a3c 2164 11bc dbb2 9d3b 2a51 0c3c
00000030: 979e 85bc 60d0 b4b9 8fb2 d139 2420 8fbb
00000040: 0f7d 1e3b 9848 e3bb 8c94 9d3c 55b5 51bc
00000050: 0d70 7f3c d560 64bb e8f9 103c 8716 023c
00000060: a458 b3bc 3131 14bb 0e00 673c be92 893a
00000070: ab98 e2ba 70ef 5a3a 4196 703c 791f 4abb
00000080: c581 e23a d43f acbb 93da ac3b e8ae 143b
00000090: 0633 10bc 6e20 003a 4ed5 f43a 955a 84bb
000000a0: 9fd4 ad3b 0a18 19bb 1ff4 1e3c 79f5 16bc
000000b0: 6df1 183c 30cb fbbb 3382 a53a a993 6f3b
000000c0: 116b c4bb 790d f939 f831 2bbc ac5b 293c
000000d0: c23c 4abb a236 18bb 92ee 973b 2bf6 f7bb
000000e0: d585 bf3b f588 7fbb 7368 e1ba cca0 263c
000000f0: dcac 4cbc 31e1 ebba 57f7 853b 00ab 12bb
00000100: bee5 b93b 91ee a8bb 96b5 5b3c 64c7 d5bb
00000110: 43d1 3b3c cce4 3aba c0c8 cdbb 7c44 84bb
00000120: 0300 0000 0300 0000 0300 0080 0300 0000
00000130: 0300 0000 0300 0080 0300 0000 0300 0080
00000140: 0300 0080 0300 0080 0300 0080 0300 0080
00000150: d2f9 35bc 7dd5 2f3b 7a07 7e3a e24d afb9
00000160: b954 6cbb ca35 17bb ad9a 4e3c 335e bcbb
00000170: 5784 193c 2dda 07ba 56d7 7e3b 1d74 103c
00000180: 0300 0000 0300 0000 0300 0000 0300 0000
00000190: 0300 0000 0300 0080 0300 0080 0300 0080
000001a0: 0300 0080 0300 0080 0300 0080 0300 0080
000001b0: bbe8 95bb 747e edba 3eb7 f9bb 1836 d43b
000001c0: 1df4 faba cb42 02bc 9698 e33b 21c7 b0bb
000001d0: 0cae 00bb 4b87 beba 3757 69bb f6ad b43b
000001e0: 743c 29bc 010d 45bc 9c7e 4fbc 06ac 383c
000001f0: 302c 63bb 4461 41bc dd15 183c f80f 0abc
00000200: 88ea 9b3a 5482 12bb a577 cabb 4ddc 6e3c
00000210: 5efe 843c 2e2c 69bb 9453 6e3c c2d5 c7bb
00000220: da71 ccbc 3ee5 023c 47f7 8fbc 5678 f03b
00000230: 5a21 62bc fa72 07bb da53 02ba 0a66 b2bc
00000240: 1565 b63c 5ae7 6b3c c1b0 a4ba 7122 bcbc
00000250: 79e5 dcbb 39d9 d03c 7298 b1bc acea 8c3c
00000260: f495 37bc 2912 273c 88ee 413c 071c 04bc
00000270: 0300 0080 0300 0080 0300 0080 0300 0000
00000280: 0300 0000 0300 0080 0300 0000 0300 0000
00000290: 0300 0000 0300 0000 0300 0000 0300 0080
000002a0: a0c6 cfba 9459 433b 1148 55bc 66a8 9a3b
000002b0: 693e 23bb 2530 a5bb dde3 053c 907b c9bb
000002c0: d240 f63b 5c9b a1bb dab8 803a 1b53 543c
000002d0: b8cd 633b a55b 89bb d130 13bc 096f a4ba
000002e0: 58c8 92bb a42e 23bc 0d6c 243c 38d6 67bc
000002f0: c6b7 4b3c 52f8 cdba 9d78 c93b f209 f33b
00000300: 2caf 86bb b61d 35bb ca89 52ba cbd2 593b
00000310: a936 a0bb 5683 05bb 4d83 323c 1236 23bb
00000320: 4f6f 3f3c c348 e3bb dc9c d4bb 2e19 e23b
00000330: 0300 0080 0300 0000 0300 0000 0300 0000
00000340: 0300 0000 0300 0080 0300 0000 0300 0000
00000350: 0300 0000 0300 0000 0300 0000 0300 0000
00000360: 0300 0080 0300 0080 0300 0080 0300 0080
00000370: 0300 0000 0300 0080 0300 0080 0300 0080
00000380: 0300 0000 0300 0080 0300 0080 0300 0080
00000390: 0300 0080 0300 0000 0300 0000 0300 0000
000003a0: 0300 0000 0300 0080 0300 0000 0300 0080
000003b0: 0300 0080 0300 0080 0300 0000 0300 0000
000003c0: 0300 0000 0300 0000 0300 0000 0300 0080
000003d0: 0300 0000 0300 0000 0300 0080 0300 0080
000003e0: 0300 0080 0300 0080 0300 0000 0300 0000
000003f0: 3be0 96bb b24c c83b aae9 573c 0e1d 95bb
0.003652399 -0.0014343995 -0.014204317 0.0030552458 -0.0017753803 -0.013656326 0.013684405 -0.021630017
0.009458693 -0.00887397 0.004812581 0.008564273 -0.016310973 -0.00034487527 0.00039996623 -0.004367845
0.0024183427 -0.006936144 0.019235872 -0.012799581 0.01559068 -0.0034847755 0.008848645 0.007939941
-0.021892853 -0.0022612328 0.014099134 0.0010496003 -0.001728793 0.0008351719 0.014684261 -0.0030841513
0.0017281106 -0.0052566323 0.0052750795 0.002268726 -0.008801227 0.0004887645 0.0018679292 -0.0040391185
0.0053048874 -0.0023360276 0.009701758 -0.009213799 0.009334904 -0.007684134 0.0012627303 0.0036556518
-0.0059942086 0.0004750302 -0.010448925 0.010336798 -0.0030858968 -0.0023225923 0.004636594 -0.0075671873
0.0058448114 -0.0038991545 -0.0017197266 0.010170173 -0.012492385 -0.0017996189 0.004088323 -0.0022379756
0.0056731394 -0.0051553925 0.013409993 -0.0065240134 0.011463466 -0.00071294303 -0.006280035 -0.0040364843
4e-45 4e-45 -4e-45 4e-45 4e-45 -4e-45 4e-45 -4e-45
-4e-45 -4e-45 -4e-45 -4e-45 -0.011106925 0.002683013 0.0009690445 -0.00033436628
-0.003606124 -0.0023072832 0.01261012 -0.005748534 0.009369931 -0.0005182352 0.0038885674 0.008816746
4e-45 4e-45 4e-45 4e-45 4e-45 -4e-45 -4e-45 -4e-45
-4e-45 -4e-45 -4e-45 -4e-45 -0.004574863 -0.0018119351 -0.007620721 0.006476175
-0.0019146238 -0.007950495 0.00694568 -0.0053948318 -0.001963499 -0.001453617 -0.0035604963 0.005513902
-0.010329355 -0.012027026 -0.012664463 0.011271482 -0.003466379 -0.011802975 0.009282556 -0.008426659
0.0011895457 -0.0022355514 -0.0061788135 0.014578891 0.016234573 -0.0035579312 0.014546294 -0.00609848
-0.024956632 0.007989226 -0.017573966 0.007338564 -0.013801897 -0.0020667897 -0.00049716013 -0.021777172
0.022264997 0.01439842 -0.0012564884 -0.022965642 -0.0067412225 0.025494205 -0.021679137 0.017201744
-0.011205185 0.010197201 0.011836655 -0.008063323 -4e-45 -4e-45 -4e-45 4e-45
4e-45 -4e-45 4e-45 4e-45 4e-45 4e-45 4e-45 -4e-45
-0.0015852042 0.0029808031 -0.01301767 0.0047197817 -0.0024909026 -0.0050411397 0.008172003 -0.006148763
0.0075150514 -0.0049318504 0.0009820715 0.012959267 0.003476007 -0.004191833 -0.008983807 -0.0012545298
-0.0044794492 -0.00995985 0.010035527 -0.014150195 0.012433952 -0.0015714264 0.0061484114 0.007416957
-0.0041102376 -0.0027636117 -0.00080313964 0.0033237215 -0.0048893285 -0.0020372472 0.010895562 -0.0024904055
0.011684253 -0.006936164 -0.0064884257 0.0068999743 -4e-45 4e-45 4e-45 4e-45
4e-45 -4e-45 4e-45 4e-45 4e-45 4e-45 4e-45 4e-45
-4e-45 -4e-45 -4e-45 -4e-45 4e-45 -4e-45 -4e-45 -4e-45
4e-45 -4e-45 -4e-45 -4e-45 -4e-45 4e-45 4e-45 4e-45
4e-45 -4e-45 4e-45 -4e-45 -4e-45 -4e-45 4e-45 4e-45
4e-45 4e-45 4e-45 -4e-45 4e-45 4e-45 -4e-45 -4e-45
-4e-45 -4e-45 4e-45 4e-45 -0.004604367 0.0061126584 0.013178268 -0.0045505827

sqr_avg f4 [100, 12]
00000000: 9ee8 633b 75f2 573b 7fed 883b c156 853b
00000010: ec5b 813b 4905 783b adf3 913b 5fc8 793b
00000020: 094d 9d3b e31d 813b c072 a73b 2790 803b
00000030: e56e 5b3b fd34 8b3b e8c0 893b a269 803b
00000040: 13f5 7f3b 3ba4 813b 0efc 823b fb54 8b3b
00000050: ed5b 993b 2117 883b 7cd2 8c3b 8532 663b
00000060: a9af 583b 806c 353b 2dd8 5b3b e7dd 583b
00000070: cd21 613b ae20 383b 696b 7c3b 8594 513b
00000080: ce59 543b 9db7 583b d140 7b3b 14a4 593b
00000090: a227 053b ba26 fa3a 118c e63a e033 de3a
000000a0: c561 043b e40d e23a 96da 0a3b dcd3 e53a
000000b0: b58f f13a 08d1 083b b528 f63a f503 f33a
000000c0: f8d2 1b3b 0e9e 0b3b de71 eb3a 004f ee3a
000000d0: 9695 143b 9ce1 f33a 9a69 e23a 2511 023b
000000e0: 3eb1 063b 5f13 113b aa7a cf3a c5c3 033b
000000f0: b2d6 fe3a 7024 f73a 1c55 f63a 0cb3 183b
00000100: e7a6 f43a 0091 fe3a d6f2 093b ca2f fa3a
00000110: 2ea8 233b 900c 063b 39e2 063b 7ae5 ef3a
00000120: 3200 0000 3200 0000 3200 0000 3200 0000
00000130: 3200 0000 3200 0000 3200 0000 3200 0000
00000140: 3200 0000 3200 0000 3200 0000 3200 0000
00000150: 0245 ad3a 1144 ae3a f9bf af3a c243 c73a
00000160: 3476 b53a 324e b53a 46dd c43a 4487 9a3a
00000170: 4953 b83a 411d cc3a 750e bf3a f4da b03a
00000180: 3200 0000 3200 0000 3200 0000 3200 0000
00000190: 3200 0000 3200 0000 3200 0000 3200 0000
000001a0: 3200 0000 3200 0000 3200 0000 3200 0000
000001b0: 840c a13a 0f58 9f3a 3a69 953a 5a08 9e3a
000001c0: 175d b23a 9371 963a 0aa1 a33a 0e8e a53a
000001d0: ea9e a23a e1be aa3a 307b b23a 8f13 ab3a
000001e0: 90a2 813b 288d 743b 4d1e 783b 5a2e 733b
000001f0: 5477 6b3b 2574 863b c066 723b e1d9 683b
00000200: 7d64 923b 35d3 5c3b c92d 643b 2171 6d3b
00000210: 692c c93b e11d 9d3b f482 c23b 678b bb3b
00000220: 764e b23b 4d3f b43b c40d bd3b cb4c cf3b
00000230: 33e1 a13b f44e be3b 3612 a43b b4bf b63b
00000240: 5782 243c d789 423c 1982 243c 550d 3b3c
00000250: 1d86 313c 4d62 243c d686 363c f92b 413c
00000260: 1a78 3e3c 1b0d 253c 7844 213c 7673 1e3c
00000270: 3200 0000 3200 0000 3200 0000 3200 0000
00000280: 3200 0000 3200 0000 3200 0000 3200 0000
00000290: 3200 0000 3200 0000 3200 0000 3200 0000
000002a0: 3d47 f83a ec14 263b 74d3 2f3b e96c 003b
000002b0: a909 1d3b 3846 063b 925c 0b3b dcf9 053b
000002c0: 3897 133b ad73 143b 4c09 143b 46f1 083b
000002d0: 3444 2f3b 600e 2b3b 87fe 423b 3d6b 3d3b
000002e0: 9afe 433b ecb0 2a3b 384c 393b fcfe 4b3b
000002f0: 3010 4f3b 3827 4f3b a4ea 4c3b a0d9 2a3b
00000300: 29fa da3a 159b fb3a 2fe1 e93a 7d29 f43a
00000310: 96bf 143b c2a8 eb3a 6ba5 063b e52c eb3a
00000320: 9cee e93a 97a4 053b 9ed5 e13a bae6 0e3b
00000330: 3200 0000 3200 0000 3200 0000 3200 0000
00000340: 3200 0000 3200 0000 3200 0000 3200 0000
00000350: 3200 0000 3200 0000 3200 0000 3200 0000
00000360: 3200 0000 3200 0000 3200 0000 3200 0000
00000370: 3200 0000 3200 0000 3200 0000 3200 0000
00000380: 3200 0000 3200 0000 3200 0000 3200 0000
00000390: 3200 0000 3200 0000 3200 0000 3200 0000
000003a0: 3200 0000 3200 0000 3200 0000 3200 0000
000003b0: 3200 0000 3200 0000 3200 0000 3200 0000
000003c0: 3200 0000 3200 0000 3200 0000 3200 0000
000003d0: 3200 0000 3200 0000 3200 0000 3200 0000
000003e0: 3200 0000 3200 0000 3200 0000 3200 0000
000003f0: 5b2f 093c 0aef 013c b178 113c c4b4 033c
0.0034776102 0.0032950912 0.0041787024 0.0040691798 0.0039477255 0.0037844947 0.0044540972 0.0038113815
0.004800443 0.0039403304 0.005110115 0.0039234343 0.0033482846 0.00424826 0.0042039044 0.0039188424
0.0039055988 0.0039563454 0.0039973324 0.004252074 0.004680148 0.004153148 0.0042975526 0.0035125327
0.0033063686 0.002768308 0.00335456 0.0033091248 0.0034352422 0.002809565 0.003851617 0.0031979394
0.003240216 0.0033068426 0.0038338194 0.003320937 0.0020317812 0.0019085028 0.001758935 0.0016952716
0.0020199877 0.0017246571 0.0021187416 0.0017534452 0.0018429669 0.0020876545 0.0018780442 0.0018540608
0.002377687 0.0021303925 0.0017963012 0.0018181503 0.0022672168 0.0018606666 0.0017273903 0.0019846645
0.0020552422 0.002213679 0.0015829403 0.0020105701 0.0019442646 0.0018855464 0.0018793675 0.002330008
0.0018665463 0.0019421875 0.0021049283 0.0019087729 0.002497207 0.0020454265 0.0020581617 0.0018302642
7e-44 7e-44 7e-44 7e-44 7e-44 7e-44 7e-44 7e-44
7e-44 7e-44 7e-44 7e-44 0.0013219418 0.0013295432 0.0013408653 0.0015202689
0.0013844431 0.0013832508 0.0015019558 0.001178958 0.0014062907 0.0015572683 0.0014576452 0.0013492987
7e-44 7e-44 7e-44 7e-44 7e-44 7e-44 7e-44 7e-44
7e-44 7e-44 7e-44 7e-44 0.0012287055 0.0012156981 0.0011399158 0.0012056932
0.0013608065 0.001147794 0.0012483906 0.0012630837 0.0012406979 0.0013026857 0.0013617035 0.0013052094
0.0039561465 0.003731558 0.0037859858 0.0037106485 0.003592928 0.004103201 0.0036987513 0.0035530257
0.0044675455 0.0033695225 0.003481733 0.003623076 0.0061393273 0.0047948216 0.005936021 0.005723405
0.005441482 0.00550071 0.0057694633 0.006326293 0.004940176 0.005807752 0.0050070537 0.005577052
0.010040841 0.011873684 0.010040783 0.011416753 0.010835198 0.010033202 0.011140546 0.011790269
0.011625314 0.010073925 0.009842984 0.009671083 7e-44 7e-44 7e-44 7e-44
7e-44 7e-44 7e-44 7e-44 7e-44 7e-44 7e-44 7e-44
0.0018942129 0.002534206 0.0026828917 0.0019596166 0.0023962057 0.002048863 0.0021264893 0.0020443117
0.0022520553 0.0022651956 0.002258855 0.0020895763 0.0026743533 0.0026101097 0.002975376 0.002890303
0.0029906393 0.0026045395 0.002827419 0.0031127324 0.0031595342 0.003160907 0.0031267786 0.0026069656
0.0016706634 0.0019195998 0.0017843599 0.0018628087 0.0022697202 0.0017979371 0.0020545374 0.0017942457
0.00178476 0.0020392293 0.00172298 0.0021805004 7e-44 7e-44 7e-44 7e-44
7e-44 7e-44 7e-44 7e-44 7e-44 7e-44 7e-44 7e-44
7e-44 7e-44 7e-44 7e-44 7e-44 7e-44 7e-44 7e-44
7e-44 7e-44 7e-44 7e-44 7e-44 7e-44 7e-44 7e-44
7e-44 7e-44 7e-44 7e-44 7e-44 7e-44 7e-44 7e-44
7e-44 7e-44 7e-44 7e-44 7e-44 7e-44 7e-44 7e-44
7e-44 7e-44 7e-44 7e-44 0.008373107 0.0079305265 0.008878873 0.008038703

grad_avg f4 [100]
00000000: bbdb a1bb 8197 bebb ce71 003c 221a b339
00000010: 0dc2 28bc f483 053b 0300 0000 7505 0d3c
00000020: 0300 0000 8b23 26bc cd97 30bc f5b8 2cba
00000030: 1108 b23c 0300 0000 f619 06bc 937e 0fbc
00000040: b18b a3bb 0300 0000 0300 0000 0300 0000
00000050: 0300 0000 2fde 133c 0400 0000 0300 0000
00000060: b3f8 543c 788f 63bc 72af f4b7 1450 e3ba
00000070: f446 adba fcf6 37bc 6c74 973b 0300 0000
00000080: 4cbd eb3c 0300 0000 27cc 463b c4bb 263c
00000090: 4649 d7ba 0300 0000 c203 a639 a0e1 b73b
000000a0: 0300 0000 ab5d e3bb 0300 0000 5f7c 38bb
000000b0: 0300 0000 cc8b 1bbc 417a 5f3c 9382 773b
000000c0: ffd6 08ba c6f4 823b f0dd 44bc 6ab5 be39
000000d0: 5838 fdb8 5325 293b e60d 84bb 4239 3d3b
000000e0: 0300 0000 a911 383c 25a7 e03a 16b2 6f3b
000000f0: 6467 c138 4f1b 093c f847 803c 12bf 5ebb
00000100: 0300 0000 0300 0000 600e 54bc 62b7 b03b
00000110: 0300 0000 0300 0000 5cae fe3b 7176 fdbc
00000120: d03f 3dbb 0300 0000 27d1 17bc edc2 49bb
00000130: 0300 0000 8f76 62bc 5930 913b 2b9c 973b
00000140: 3012 5cbc 0300 0000 444c abbb e07a 6f3a
00000150: bc1f a9b9 a363 0d3c 010c 86bc 72a4 623c
00000160: 6c01 74bb 0300 0000 0300 0000 a654 7cbc
00000170: 5d43 6a3b 213d 8a3b c79b b53a 0300 0000
00000180: fafb ae3b 814d 14bb cea4 3e3b 0300 0000
-0.004939524 -0.0058164005 0.007839633 0.0003416101 -0.010300172 0.002037284 4e-45 0.008607258
4e-45 -0.01014031 -0.01077838 -0.000658884 0.021732362 4e-45 -0.0081849005 -0.008758205
-0.0049910177 4e-45 4e-45 4e-45 4e-45 0.009025141 6e-45 4e-45
0.012998748 -0.013889186 -2.9168765e-05 -0.0017342591 -0.0013219998 -0.011228319 0.004622033 4e-45
0.028776787 4e-45 0.0030334087 0.010176603 -0.0016425035 4e-45 0.00031664787 0.0056116134
4e-45 -0.0069386563 4e-45 -0.0028150303 4e-45 -0.009493779 0.013639987 0.0037767037
-0.0005220025 0.0039964644 -0.012015805 0.00036374788 -0.00012074475 0.00258096 -0.004029977 0.002887324
4e-45 0.011234679 0.0017139657 0.0036574653 9.222215e-05 0.008368327 0.015659317 -0.0033988398
4e-45 4e-45 -0.01294288 0.0053929547 4e-45 4e-45 0.00777225 -0.030940266
-0.0028877147 4e-45 -0.009266174 -0.003078635 4e-45 -0.013822212 0.0044308123 0.004626771
-0.013432071 4e-45 -0.0052275974 0.0009135436 -0.00032257836 0.008629712 -0.016363146 0.013833152
-0.0037232293 4e-45 4e-45 -0.015401041 0.0035745718 0.004218713 0.0013855629 4e-45
0.0053400965 -0.0022629204 0.002908993 4e-45

sqr_avg f4 [100]
00000000: f944 a23b e966 8b3b e628 673b 2796 013b
00000010: dc16 153b 3c51 003b 3200 0000 6e27 ab3a
00000020: 3200 0000 4c08 c43a aa6d 833b d90a db3b
00000030: 9f43 383c 3200 0000 5d56 173b 129e 323b
00000040: e05d 023b 3200 0000 3200 0000 3200 0000
00000050: 3200 0000 d0e1 233c 3200 0000 3200 0000
00000060: a4c1 113b 3a83 323b ae99 a53a 8150 a13a
00000070: a2d4 403a a137 2b3b f380 f03a 3200 0000
00000080: e8dc 503c 3200 0000 0a3d 073b 71f1 5b3c
00000090: 482c 223b 3200 0000 5175 2b3b 2b02 7f3b
000000a0: 3200 0000 1871 ad3b 3200 0000 f105 933b
000000b0: 3200 0000 c018 103b 1295 353b a825 fe3a
000000c0: 2644 4b3c b114 893b 2fa1 503b 09f9 033b
000000d0: 1b74 dc3a d8b2 163b 4d65 233b bc3b 5f3b
000000e0: 3200 0000 db1e 9d3a 4a66 2b3c fd2c 333a
000000f0: ef08 2538 ba2c 303b ecae 0f3c beb1 373b
00000100: 3200 0000 3200 0000 d0dc 983b e1f0 193b
00000110: 3200 0000 3200 0000 fc8a 323b 8f1d 223c
00000120: afa9 f83a 3200 0000 e858 c43a b4dc b03a
00000130: 3200 0000 bf2b 673b 5daf 543b 9eda 863b
00000140: 1832 123b 3200 0000 5e92 d23a 4ce1 f63a
00000150: e970 6e3b 3e76 653b 1e58 843b fd60 823b
00000160: e48b f23a 3200 0000 3200 0000 5886 8c3b
00000170: 904a 6f3a 8d19 ba3b dc81 ec3a 3200 0000
00000180: 8c03 363b 7057 7c3a 19cb 463b 3200 0000
0.00495207 0.004254211 0.003527218 0.0019773336 0.002274922 0.001957967 7e-44 0.0013058016
7e-44 0.0014956086 0.0040108757 0.0066846428 0.011246591 7e-44 0.0023092248 0.0027254862
0.001989238 7e-44 7e-44 7e-44 7e-44 0.010002568 7e-44 7e-44
0.0022240663 0.0027238862 0.0012634301 0.0012307317 0.00073559035 0.0026125687 0.0018348977 7e-44
0.012747981 7e-44 0.0020635747 0.013424263 0.0024745632 7e-44 0.0026162455 0.0038911204
7e-44 0.005293023 7e-44 0.0044867923 7e-44 0.0021987408 0.002770726 0.0019389885
0.012406385 0.004183375 0.0031834354 0.002013745 0.001681927 0.0022994783 0.0024932206 0.0034062704
7e-44 0.0011987345 0.010461399 0.0006835012 3.9347386e-05 0.0026882128 0.008769732 0.0028029527
7e-44 7e-44 0.004664995 0.0023489522 7e-44 7e-44 0.0027243486 0.009894743
0.0018971468 7e-44 0.0014980109 0.0013493509 7e-44 0.0035273877 0.0032453157 0.0041154167
0.002230769 7e-44 0.0016065349 0.0018835454 0.0036383218 0.0035013105 0.0040388247 0.003978847
0.0018504825 7e-44 7e-44 0.004288476 0.0009128237 0.0056793154 0.0018044072 7e-44
0.002777311 0.00096260663 0.0030333458 7e-44

grad_avg f4 [1, 100]
00000000: 0519 de3c fbf9 1e3d f547 4bbb 3c58 2e3b
00000010: f115 df3c a936 973c 0300 0080 c109 edbb
00000020: 0300 0080 940d 483d 0770 353d 9079 6fbd
00000030: 72bb 1d3d 0300 0000 c79a 423d 6dc1 ac3c
00000040: 3c63 e53c 0300 0080 0300 0080 0300 0080
00000050: 0300 0080 4c35 833c 0400 0000 0300 0080
00000060: a88d 33bd 00de 443d 52b2 503c d324 d63c
00000070: 83b2 5e3c e074 9bbc 1156 24bc 0300 0080
00000080: df97 3d3d 0300 0000 1ac9 083c ce9d 2a3d
00000090: 9bfb 3a3c 0300 0080 9f5d 9cbc 8e0e 1b3b
000000a0: 0300 0000 d92f e23b 0300 0000 47a5 c03c
000000b0: 0300 0000 2061 1b3d 90c8 713c 57a1 9f3b
000000c0: adc5 803c 4437 3bbd 4ff9 e13b fe46 2c3c
000000d0: b4e2 463d 24fb 71bc 7ec3 58bb 335f b83b
000000e0: 0300 0080 d89f 2cbd 1eb5 26bd e439 1abd
000000f0: 3635 b7bc 01a3 943b 49f6 703d 2138 c5bb
00000100: 0300 0080 0300 0000 780f 4f3d e0de c4bc
00000110: 0300 0000 0300 0000 5166 b3bd 7d40 a3bd
00000120: eda9 b83c 0300 0000 e5ca 173b de2e ee3b
00000130: 0300 0000 8d7a 333d 0955 0ebd c1e2 c03c
00000140: c4e1 423d 0300 0000 84d9 d73c f17c e43a
00000150: d328 81bb 11e2 65bc c477 b33c b004 ac3d
00000160: 6616 d4bb 0300 0000 0300 0080 bcbd 2d3d
00000170: 06dc 78bc 5044 ff3a f6ac dc3c 0300 0080
00000180: 93c2 35bd 5777 f13c b969 34bb 0300 0000
0.02711154 0.03881262 -0.0031018232 0.0026602885 0.027232142 0.018458681 -4e-45 -0.007233829
-4e-45 0.048841074 0.04429629 -0.05846554 0.03850884 4e-45 0.04751089 0.021088326
0.02800142 -4e-45 -4e-45 -4e-45 -4e-45 0.016016625 6e-45 -4e-45
-0.043836266 0.04806328 0.012737827 0.026140606 0.013592365 -0.018976629 -0.010030285 -4e-45
0.046287414 4e-45 0.008348728 0.0416544 0.0114125265 -4e-45 -0.01908761 0.0023659798
4e-45 0.0069026765 4e-45 0.02351631 4e-45 0.037934422 0.0147572905 0.004871528
0.01571926 -0.045707002 0.006896175 0.010514973 0.048556045 -0.014769349 -0.0033075507 0.005626583
-4e-45 -0.042144626 -0.04070007 -0.037652865 -0.02236424 0.004536033 0.058828626 -0.006018654
-4e-45 4e-45 0.05055186 -0.024032056 4e-45 4e-45 -0.0875975 -0.079712845
0.022541964 4e-45 0.0023161706 0.0072687706 4e-45 0.043818045 -0.034749065 0.023545625
0.047578588 4e-45 0.026348837 0.0017432255 -0.003941634 -0.014030949 0.021907695 0.083993316
-0.0064723967 4e-45 -4e-45 0.042417273 -0.015189176 0.0019475315 0.026937943 -4e-45
-0.044375014 0.029475851 -0.0027528836 4e-45

sqr_avg f4 [1, 100]
00000000: dafe 3a3d 2a58 c53d 2137 863c e7c2 093d
00000010: 835d 983c ebf5 193d 3200 0000 c5a2 9d3c
00000020: 3200 0000 3098 7c3d c3d6 8a3d dd3c af3d
00000030: 4459 b93d 3200 0000 0129 563d 4303 b73c
00000040: 2f58 c73c 3200 0000 3200 0000 3200 0000
00000050: 3200 0000 06a1 c13d 3200 0000 3200 0000
00000060: 1a92 383d 2d0d 6e3d b07e 523d d12d 113d
00000070: 2c96 993d 1d7d 173b e1b4 7e3c 3200 0000
00000080: c46c b53d 3200 0000 2543 3b3d 9b38 c53d
00000090: 141f 4c3d 3200 0000 00b1 4a3d f756 163c
000000a0: 3200 0000 e56b 933d 3200 0000 eb47 a33d
000000b0: 3200 0000 bf78 6b3c 8188 163c 1018 623d
000000c0: 65e0 ad3d eaf9 be3d 9d1f c83c 874f 673c
000000d0: d15e 743d 71a5 043d 449c 533c 6528 043d
000000e0: 3200 0000 630a 503c 067f d13d 54a0 f23c
000000f0: 1ab1 a63c 9a74 003c f8ae ae3d d182 803b
00000100: 3200 0000 3200 0000 ffc0 593c 2a7e 3d3d
00000110: 3200 0000 3200 0000 eb2b 7b3d ef01 de3d
00000120: a5bd 2e3d 3200 0000 c800 cc39 3ebd 8a3b
00000130: 3200 0000 50dc 8b3d 94f5 623d 77dc 803d
00000140: 0316 803d 3200 0000 0ca8 003d a9f8 183d
00000150: 5122 443d 5307 923d 2d3c 083d 4bf1 773d
00000160: 5560 8e3c 3200 0000 3200 0000 422e 283d
00000170: c351 2c3d 69e6 033d dbc7 893d 3200 0000
00000180: 6e6d 3d3d 1814 bc3c 28b0 893d 3200 0000
0.0456532 0.096359566 0.01638371 0.03363314 0.018599277 0.03758804 7e-44 0.019242654
7e-44 0.061668575 0.06779244 0.085565306 0.09050229 7e-44 0.052285198 0.022340422
0.024334041 7e-44 7e-44 7e-44 7e-44 0.09454541 7e-44 7e-44
0.04506121 0.058118034 0.05139035 0.035444085 0.07499346 0.0023115345 0.015546055 7e-44
0.08858636 7e-44 0.04571833 0.09629937 0.049834326 7e-44 0.049485207 0.0091760075
7e-44 0.071983136 7e-44 0.07972702 7e-44 0.01437205 0.0091878185 0.05519873
0.084900655 0.09325011 0.024429137 0.014118082 0.059660736 0.03238434 0.012915675 0.032265086
7e-44 0.012697789 0.10229306 0.029617466 0.02034812 0.0078403 0.085294664 0.0039218445
7e-44 7e-44 0.013290643 0.046262898 7e-44 7e-44 0.06132118 0.108402126
0.042661328 7e-44 0.00038910494 0.004233985 7e-44 0.06829131 0.055409983 0.0629205
0.062541984 7e-44 0.031410262 0.037346516 0.04788429 0.07130303 0.033260513 0.06053285
0.017379919 7e-44 7e-44 0.04105974 0.04207016 0.032202158 0.067275725 7e-44
0.04624694 0.0229588 0.06723052 7e-44
