trees/save/0.5_7_2000/models/model.pth (torch, 5211 bytes, 4 tensors)

node_factors.weight f4 [38, 1]
00000000: 3b43 363c d574 9c3a e545 29bc 7e4c bf3b
00000010: c090 263c cc1e 02bc eecb 703b afac 8c3b
00000020: 73d3 3dbb 87da a8bb d9e8 48bc dc91 94ba
00000030: 1c2c 4a3b 2687 90bb e27d ffbb 73e9 f7bb
00000040: d30c 30ba 3387 03bb a644 d13b f0e9 8ebb
00000050: 7437 24bc bdbe 773b c734 093b 7895 763c
00000060: efe4 39bc 6e0a e9bb 1da4 04bc ec24 873b
00000070: 4781 293a c7f7 55bb 3c94 24bb 80ed acbb
00000080: 6c4c 9cbb 6b54 b8bb ae90 e63a ce33 cbbb
00000090: 3245 d93b a2a4 20bc
0.011124427 0.0011936674 -0.010331606 0.005837976 0.010166347 -0.007941913 0.0036742645 0.0042930464
-0.0028965145 -0.0051530036 -0.012262546 -0.0011334973 0.0030849045 -0.004410642 -0.007796989 -0.007565671
-0.0006715778 -0.0020069599 0.0063863574 -0.0043613836 -0.010022987 0.0037802898 0.0020935999 0.015050285
-0.011346086 -0.007111839 -0.008095768 0.0041242745 0.0006466102 -0.0032648908 -0.0025112769 -0.0052773356
-0.0047698524 -0.005625298 0.0017590725 -0.006201244 0.006630563 -0.0098048765

layers.0.weight f4 [200, 2]
00000000: 36f2 ebbd 1050 a53e 4367 4ebb f70c 86be
00000010: 0954 9cbd 8f7f c33e 5972 fbbe 26d8 e4be
00000020: d330 22be 0052 83be 1539 8e3e 1fa4 f33e
00000030: 6618 9bbd ca2a 2b3f 5944 97be 5129 cbbe
00000040: 2315 a2be 446f f9be e0c3 fdbe 814a 21bf
00000050: 056f 20bf b1fb 3c3e 6dca dc3e 13f3 293f
00000060: 1931 1a3f 26cf 26bd 3881 0c3e 699d d8be
00000070: 82ef 8b3e 9b91 2dbf 8ac3 aa3e 99ce 043e
00000080: 1683 5e3e 538f 843e b436 a6be 7755 1b3f
00000090: abc8 ac3e 3fd2 ed3e 2845 bf3d fc5a e33e
000000a0: 04a7 f33e ac16 a43e 16e5 093f e554 03be
000000b0: b30d ee3e a8d3 263e 54d6 d93e 0450 303f
000000c0: 3df5 233e 7560 86be f615 90bd 30d9 4b3e
000000d0: 1b2c f43d d9cb 45be fdd4 0d3f f683 d93e
000000e0: b5e1 e0be d9fe 6bbd 8903 8bbd 9ae6 e2be
000000f0: 7438 d33d 5e49 5ebe 18e8 babe 2ed3 68be
00000100: 9915 81be 9b2b 2d3f 2ede 8a3e be24 323f
00000110: ee89 463e 28f4 233e efd4 943e ea8c f83d
00000120: 0e0f 0ebf c517 d6be ad6d 2fbe e929 2e3c
00000130: 9d62 883e 0167 8b3e e59a 0f3f 0567 133e
00000140: 681f 77be 9d21 08bf 9b94 04bf 5f42 d8be
00000150: 6162 5a3e 7299 c33e 4860 1e3f be08 65be
00000160: 2978 64bd 4606 57be 7954 29bb 0a6e 683e
00000170: 6d8b 7ebc 8715 063d 6e76 b73d 6fd4 863e
00000180: a0af 5bbe ffe1 d7be e1d3 2a3e 3778 abbd
00000190: 7e03 a4be f80a 983e 9022 d23b c3a7 d2bd
000001a0: ce41 afbe 1f87 bebd dfec 19bf 78b8 243e
000001b0: 11db 2d3c c1b2 db3e 1404 3b3d 0191 673d
000001c0: 833f 453e 92be 093f 8b15 abbe 9223 d83e
000001d0: dc14 313e a685 f1be 3d1d 7c3e 7020 d9be
000001e0: f8ec 63be 9392 acbe cf4c f6be cf90 0e3f
000001f0: 82cc 21bf 5706 b53e 68eb 22bf c73f b0bd
00000200: 04be 2c3d 45b0 003f fb04 83be cc68 503e
00000210: e653 e03d a004 d53e af30 2c3d 3d90 873e
00000220: 48b4 dabe ac95 fbbe 624d 213f 1fe7 03bf
00000230: 8d88 f6bd 990d afbd e503 313f a27b 1cbe
00000240: 91cf 09bf 858d 37be 47bf ba3e ed78 8f3e
00000250: 80c1 153f 1b3b 14be 6489 aa3e b058 2abf
00000260: 5016 8c3e f857 a63e e38b e93e b79b cfbe
00000270: 2050 41be 052d 2f3e 8fa2 00bf 58ff 0fbf
00000280: fa25 2ebf 24ae 213d 56d2 e03e 87fc 393e
00000290: c692 303d 8b49 7c3e b081 e3be 4fac 983d
000002a0: bde0 33be db42 b3be 301b 1c3f cd0b 0cbf
000002b0: 7d39 d43d 5f10 1fbf 4b86 c4bc 51e0 a0be
000002c0: 0654 6e3e 684c cbbe 15b8 e73e 26e4 12bf
000002d0: 0d74 d93e 5efa 07bf 12e7 c13e 3c71 98be
000002e0: 1fe9 d7ba 8925 04be 57f9 ea3e d34c 6d3e
000002f0: d983 1fbf e324 853d c1c1 f9be b552 073f
00000300: 71ee ed3d 0338 3abe 78b3 b8be c69f 7a3e
00000310: ecd2 d8be 86b3 ab3e 388e c53e 7738 de3e
00000320: 0b28 3d3e 6c75 1ebf d635 023f 33a0 60be
00000330: 2e10 56be 9396 9bbd 7c59 043f ca30 0b3f
00000340: cd9c df3d 57bf ac3e 9fb5 28bf 1cf0 da3a
00000350: 1425 20bf 7c70 763e 95f7 00bf 4308 81be
00000360: 8b13 fd3e dbff 2c3f 665c d9be 77ef c8be
00000370: 2659 b33d be51 8e3e 43dd ebbd 511f 62be
00000380: 85cd edbe a78b 9a3e 185b 313f 5f41 afbe
00000390: b0c2 aa3e 57d1 b03e b780 113f c0e0 a4bd
000003a0: 7874 b63c a5fe 043f 85d9 e43e 49cb 323f
000003b0: b77f 4fbe fd40 8f3e 8fcd fc3e f4c1 f5be
000003c0: 27d8 0f3e a803 22be 2dba e83e f699 a2be
000003d0: 9c24 4b3d 939c d83e bbd5 25bf 8bd8 18bf
000003e0: 306e b9be c237 e83e cac1 f23e f642 f7be
000003f0: 8612 0a3e 5ed6 bfbe 8e0a a8be 3e1d 1c3f
-0.115208074 0.32287645 -0.0031494654 -0.26181766 -0.07633216 0.38183257 -0.49110678 -0.44696158
-0.15838937 -0.256485 0.27777925 0.47586152 -0.07573013 0.66862166 -0.29544333 -0.3967996
-0.3165675 -0.487177 -0.49563503 -0.6300431 -0.626694 0.18455388 0.4312319 0.66386527
0.6023117 -0.040724896 0.13721168 -0.42307594 0.27331167 -0.678003 0.3335231 0.12969436
0.21729693 0.25890598 -0.3246361 0.60677284 0.33746848 0.46449468 0.093393624 0.44405353
0.4758836 0.32048547 0.5386518 -0.12825353 0.46494827 0.16291678 0.42546332 0.68872094
0.1601152 -0.26245466 -0.07035439 0.19907069 0.11922475 -0.19316043 0.5540312 0.4248349
-0.439222 -0.05761609 -0.06787784 -0.4431656 0.10313502 -0.21707675 -0.36505198 -0.22736809
-0.2521179 0.6764466 0.27122635 0.69587314 0.19388554 0.16011107 0.29068705 0.12136252
-0.5549172 -0.4181501 -0.17131682 0.010630109 0.26637736 0.27227023 0.56095725 0.14394768
-0.24133074 -0.5317629 -0.51789254 -0.42238137 0.21326591 0.38203007 0.61865664 -0.22366616
-0.055778656 -0.20998487 -0.0025837703 0.22698227 -0.015536171 0.032735374 0.089581355 0.2633395
-0.21453714 -0.4216461 0.16682388 -0.083725385 -0.32033914 0.29695868 0.0064128116 -0.10285904
-0.34229892 -0.09303116 -0.6012706 0.16085994 0.0106113115 0.42909816 0.045658186 0.05653477
0.19262509 0.5380641 -0.33414873 0.42214638 0.17293113 -0.47172278 0.24620529 -0.4240756
-0.22258365 -0.33705577 -0.48105475 0.5568971 -0.6320268 0.353564 -0.6364045 -0.086059146
0.0421734 0.50268966 -0.25589737 0.20352477 0.10953502 0.4160509 0.042038616 0.26477233
-0.4271567 -0.49137628 0.630087 -0.5152454 -0.12037764 -0.085475154 0.6914657 -0.15281537
-0.53832346 -0.17925079 0.36474058 0.28021947 0.5849838 -0.14475672 0.33307946 -0.66541576
0.27360773 0.3248899 0.45614538 -0.40548488 -0.18878222 0.17107017 -0.50248045 -0.56249
-0.680267 0.039472714 0.43910474 0.18162738 0.043108724 0.2463743 -0.4443488 0.0745474
-0.175662 -0.35011944 0.60978985 -0.54705507 0.103625275 -0.62134355 -0.023989817 -0.3142114
0.2327424 -0.3970673 0.4525763 -0.57379377 0.42471352 -0.53116405 0.37871605 -0.2977389
-0.0016472674 -0.12904944 0.45893356 0.23173837 -0.6231056 0.06501176 -0.48780635 0.52860576
0.11617745 -0.1818543 -0.36074424 0.24475011 -0.4234842 0.33535403 0.38585067 0.43402454
0.18472306 -0.6189792 0.508634 -0.21936111 -0.2090461 -0.07597079 0.5169904 0.5437132
0.10918579 0.3373973 -0.6590213 0.0016703638 -0.62556577 0.24066347 -0.5037778 -0.25201616
0.49428973 0.67577904 -0.42453307 -0.39245197 0.08757238 0.2779674 -0.11516812 -0.22082259
-0.4644586 0.3018467 0.69279623 -0.34229562 0.3335166 0.34534714 0.5683703 -0.0805068
0.022272334 0.51951057 0.44697204 0.6984144 -0.20263563 0.2797927 0.4937558 -0.47999537
0.140473 -0.15821707 0.4545454 -0.31758088 0.04959546 0.42306957 -0.6477925 -0.5970542
-0.3621688 0.4535504 0.47413474 -0.48293275 0.13483629 -0.37468237 -0.32820553 0.6098212

layers.0.bias f4 [200]
00000000: 19c9 00bf 40eb 5e3e ec80 ff3d a122 823c
00000010: 1689 f7be 8377 dbbe 57cc 053f da51 b03e
00000020: 96e1 be3e 1fc2 57be e95d f9bd 9b90 39be
00000030: baf8 f83e a649 9cbe 1109 e43e 989f f93e
00000040: 658d 25bf 407e 8d3b 30e7 09be a024 c8be
00000050: 664c 9c3e 8df1 afbd e17b 1e3f f899 e2be
00000060: ec36 a83e 908d 1abf 2d76 b5be df90 453d
00000070: ab05 0f3f 56b1 be3e e1a1 14bf d067 a03d
00000080: 096b d5be 16fe fa3c 68cd 16bf d26c 54be
00000090: 684f f83e 7f17 26bf 8396 2cbf f5e2 033e
000000a0: f584 c63d 5b6c 04be 7a11 1e3f bffa d9be
000000b0: 59c9 dbbe c14e 07bf 61c4 06be c1c9 38be
000000c0: a302 e03e f99f 22bd 983c 673e 9572 96be
000000d0: 6dd7 123f 4a9a 183f 841d 22bf 6d16 3abe
000000e0: 2d98 19bf c3cd 993e 4f27 1ebf 192d abbe
000000f0: 9ade 343f dddb 2cbf 908e 053f 76ad 743d
00000100: d5bf 103f 13bb b7be 1dcc ed3e adb9 ae3d
00000110: 1ac3 5e3d 611a f73e 5510 2cbf 60cd 11bf
00000120: 65d2 2e3f 2967 d9be e97a 02bf 309d 0dbd
00000130: 68c7 67be ee1f c6bd 888f f2be 61a1 823e
00000140: 89c3 1bbf a294 6a3d 8c43 d33e 111f 0b3e
00000150: 846a c03d 21d0 d33d 6b1e 54be 7aef 09be
00000160: 57ab 98be 4491 f4be 00af bfbe d6f2 323f
00000170: ab5b f2bd 33a4 7d3e 8b5e fa3e e240 62bd
00000180: 76c4 c2be 9a4b f5be 5260 85be 8c39 813e
00000190: 6d72 18bf a5d0 b0bd f4b6 893e 80af 133f
000001a0: 9fe5 593e c832 0f3e 2ad9 f73e 2e4b a73e
000001b0: 1df7 743e 687f 60be c128 11bf f866 1cbe
000001c0: 4952 03be 67b2 543d b444 9fbd 3a5e 923e
000001d0: c397 f03e 20c7 92be 1ac3 2bbf 57bf b9be
000001e0: 1a3a adbe d337 cd3e de87 e9be 8e35 88bd
000001f0: d675 19be a3bb dbbe 4d1b a43e 28cf 96be
00000200: 18d5 15bd 3a8b febe 7f0f 92bd 20c3 cd3d
00000210: c9b7 ebbc 6146 87be 8c1c 573e 4f9b 3bbe
00000220: beb6 c8be 547d 05bf 8761 19be 4c01 2bbf
00000230: ea3f 163f b7f4 acbe 1109 96be b5dd 853d
00000240: 75b4 3b3e cc8c 88bd e75d f83e e10c d3be
00000250: 6abf 813e 0307 d1ba 0641 13bf 3a37 8cbe
00000260: b544 383e 3d54 0a3e 25a0 033f 8a33 f23e
00000270: d276 c5be e799 9abe cc88 19be 9caf 01bf
00000280: 587e 43be 6521 14bf d5b2 893e f914 003f
00000290: c651 653d 9796 01bf 5f16 09bf fcf0 8cbe
000002a0: b099 523e 2a4b 8d3c 35a7 033e 7a9b 2a3f
000002b0: 5e25 a83e 66b1 1b3e 277f 12be 1343 ab3e
000002c0: cc72 843e 98ef 22bf 07dc d5be 036f c23c
000002d0: 705f 893e 0322 b03e 8d83 d7be 8597 33bf
000002e0: 96df 16bd 948c a5bd dc1c 523e 3c20 47be
000002f0: b664 0a3f fe40 413d 5630 043f bc17 fcbe
00000300: 18d4 903e 768e ac3d b212 b5be d97a b33e
00000310: 6520 32bf 2159 123f 7768 693d b8d2 8b3d
-0.5030685 0.21769428 0.12475762 0.015885653 -0.48346776 -0.42864618 0.5226492 0.34437448
0.37281483 -0.21070145 -0.12176115 -0.18121569 0.48627263 -0.3052494 0.44538167 0.48754573
-0.64668876 0.0043180287 -0.13467097 -0.39090443 0.30527037 -0.08590994 0.61907774 -0.44258094
0.32854402 -0.6037226 -0.35441723 0.048233863 0.55868024 0.37244672 -0.5805951 0.07832301
-0.41683224 0.030638736 -0.58907175 -0.20744637 0.48498082 -0.648796 -0.6741716 0.12879546
0.09693328 -0.1293196 0.6174542 -0.42574117 -0.42927054 -0.52854544 -0.1316085 -0.18045713
0.43752012 -0.039703343 0.22581708 -0.29384294 0.57359964 0.59610426 -0.6332629 -0.18172617
-0.59997827 0.30039796 -0.6177873 -0.33432844 0.70652163 -0.67522985 0.5217066 0.059735738
0.5654271 -0.35884914 0.4644479 0.085315086 0.054385282 0.48262313 -0.6721242 -0.56954
0.68289787 -0.42461517 -0.50968796 -0.034573734 -0.22634661 -0.09674059 -0.4737513 0.25513747
-0.6084524 0.057270654 0.41262472 0.1358607 0.09395316 0.10342432 -0.20714729 -0.1347026
-0.29818222 -0.4776708 -0.37438202 0.6990179 -0.118338905 0.24769668 0.48900256 -0.05523766
-0.38040513 -0.47909242 -0.2605005 0.25239217 -0.595496 -0.08633546 0.26897395 0.57689667
0.21279 0.13984215 0.4840787 0.32674545 0.23922391 -0.21923602 -0.5670281 -0.15273654
-0.12824358 0.05192795 -0.07776776 0.28587514 0.46990785 -0.28667545 -0.67094576 -0.36278793
-0.3383339 0.40081653 -0.4561147 -0.0665084 -0.14986357 -0.42916593 0.3205208 -0.29454923
-0.036580175 -0.49715596 -0.07131862 0.10046983 -0.028774159 -0.26420882 0.21006984 -0.18320964
-0.3920192 -0.5214436 -0.1497861 -0.66798854 0.58691275 -0.33780453 -0.29303792 0.06536428
0.18330558 -0.0666748 0.48509142 -0.41220763 0.2534135 -0.0015947524 -0.5752109 -0.27385885
0.1799496 0.13508697 0.51416236 0.47304946 -0.38567215 -0.30195543 -0.1499359 -0.50658584
-0.19091165 -0.57863456 0.2689425 0.50032 0.05598619 -0.50620407 -0.5354976 -0.27527606
0.2056644 0.017247755 0.12856753 0.6664349 0.3284101 0.15204391 -0.14306317 0.3344961
0.25868833 -0.6364684 -0.4176943 0.023734575 0.26830626 0.3440095 -0.42092553 -0.70153075
-0.036834322 -0.08083454 0.20518821 -0.1944589 0.5405992 0.047181122 0.51636255 -0.49236858
0.28286815 0.0842561 -0.35365826 0.35054663 -0.6958068 0.5716725 0.05698439 0.06827301

layers.2.weight f4 [1, 200]
00000000: 46f0 053d f357 c03b 314d f83c 6e44 383d
00000010: 800b 62bd be9b 3f3d d879 2dbc f2b4 86bc
00000020: 8130 693c 0c89 623d a372 1dbd fa30 43bd
00000030: 40bf 333d c607 08bd 507e ba3c 49ae 2abc
00000040: 8c71 9f3c 9105 5d3d e0c8 12bd 1f8c 0cbd
00000050: 5519 0e3d 68ba 7d3b 9302 ffbb 8d68 7ebd
00000060: 6a64 753d 4e7f 2fbb b062 55bc fbc7 edbc
00000070: fc9e 64bc 44c5 0c3d 8303 d5ba e4b1 773d
00000080: 2cc6 85bb 0233 26bc 8f7b 233d d8d1 efba
00000090: b23b 67bc d09a c13c 7569 643d f58d 903c
000000a0: e0ac 493d 23b1 3b3d 62d0 a33c 1a67 c93c
000000b0: 2ceb ba3c fd56 f03b 4b66 763d 5eaf 853d
000000c0: ed35 ce3c 886b 67bb 38d7 813d fc6c 61bd
000000d0: f0d0 543d 3274 193d 84fb 393d 2508 b2bb
000000e0: d217 58bd e29a 4e3d 1849 fdbc 3c69 983c
000000f0: c916 243d 7255 87bd b5c4 993b e5c4 cdbc
00000100: 2e91 4d3d 9068 38bd ebda 2f3d ec9a 343d
00000110: 31cb 1f3d 4f06 8b3d b075 2f3c 0d42 83bd
00000120: e3c1 4e3d 451e d43b 65ed b73a 1df3 89bd
00000130: 5731 82bc d993 0cbd 79d5 8d3d c139 4e3d
00000140: b00f 583d 9259 463d e088 33bd 7fc6 f8bc
00000150: beb1 e2bc 3f37 e8bc 4275 613d 62d0 c43c
00000160: d118 683d 28c7 58bb ab17 81bd ad0e a8bc
00000170: 148d 4b3d 3554 303d af52 b33c dfe9 a9bc
00000180: a52a 87bd 5ea0 1bbd 0602 173d 58a6 e9bc
00000190: aa8a 0a3d 8e29 9e3c b67c debc 6e68 303d
000001a0: be22 babc 01f5 19bb fea5 dcbc 2b5e 89bd
000001b0: 5ccc 3a3c 8f63 a73c e4d2 11bd 56ac 313d
000001c0: 53e8 81bd 4799 8bbd e8e3 32bd 1d32 c8bc
000001d0: d9a9 00bc d6e1 5fbc 2a2f 043d fe2f 7ebd
000001e0: fd96 2a3c d880 a03a 2600 993c 4bf5 8f3d
000001f0: c040 323d b85e 20bd bd56 6dbd 673d 8cbc
00000200: 6549 11bd d456 ca3c 14ec 293a fef4 683d
00000210: a389 e33c a504 55bc 0b46 1f3b a0b9 8a3c
00000220: 0cc2 0fbc 97b6 693d 6876 62bd f72a 0d3d
00000230: 9d9f 38bd 85bd 7dbd 4ed7 6dbc 7b23 0d3d
00000240: 67a4 4c3d 855c 913c 9642 c8bb 68e4 81bb
00000250: 6cd2 eabc 05ed cfbb 0d18 a0bb 1277 763d
00000260: 3c81 293d 06c5 67bd b45b 9939 ad24 32bd
00000270: b4e7 37bc 7f30 66bd e895 963c b5d8 50bd
00000280: 02f7 8e3d e3ba 5a3d bb5e 47bd ab56 88bd
00000290: c7cf 343b b2b3 a1bc 500d aa3c 260e 44bd
000002a0: a31d ed3c 262b 7abd c9db 18bd 6f42 18bd
000002b0: 6126 0c3d 0da7 f2ba fc2b 8bbd fe69 25bd
000002c0: d608 06bd 355d 86bd 6958 143c b969 ce3c
000002d0: 2f90 54bc a783 e6bc 3bd4 e0b9 6f0c 66bd
000002e0: 525b 30bd 7e5f d3ba 9aa6 803d bc20 b2bc
000002f0: ee8e 0f3d 00f8 e3bc c032 9abc 36db 89bd
00000300: 74f4 6f3d c502 8d3d 7ea9 c2ba d305 383d
00000310: b7e6 6c3d 62dd 0f3d 602a 153d ecdc 89bd
0.032699846 0.0058698594 0.030310245 0.044987135 -0.05518675 0.046779387 -0.010588132 -0.016443703
0.014232756 0.05530648 -0.038439404 -0.04765413 0.043883562 -0.03321054 0.022765309 -0.010417529
0.019463323 0.053960387 -0.0358361 -0.034313317 0.034692127 0.0038715843 -0.0077822893 -0.062111426
0.059910215 -0.002677876 -0.013024017 -0.029026022 -0.01395392 0.034367815 -0.0016251657 0.060472384
-0.004082462 -0.010143997 0.039912757 -0.0018296791 -0.014113354 0.02363339 0.055764634 0.017645815
0.049237132 0.045823228 0.019996826 0.024585295 0.022817217 0.0073345886 0.060156148 0.06527589
0.025172198 -0.0035311896 0.06339878 -0.055035576 0.05195707 0.037464328 0.04540588 -0.0054331
-0.05275709 0.050440677 -0.030918643 0.018604867 0.040060792 -0.06608094 0.0046926388 -0.0251183
0.050187282 -0.045021594 0.042933386 0.044093058 0.039012138 0.06788313 0.010709211 -0.064090826
0.050477874 0.006473335 0.0014032541 -0.06735823 -0.015892668 -0.034320686 0.06925482 0.050348047
0.052749336 0.048425265 -0.043831706 -0.030368088 -0.027672645 -0.028346656 0.055043466 0.024025146
0.05666429 -0.003307769 -0.063033424 -0.02051481 0.04969509 0.043049056 0.021890013 -0.020741401
-0.06599931 -0.037994735 0.036867164 -0.028521702 0.033823647 0.019306924 -0.027159076 0.043068342
-0.022721644 -0.002349198 -0.02693462 -0.06707414 0.011401262 0.020433215 -0.03560151 0.043377243
-0.063431405 -0.06816345 -0.04367438 -0.024437958 -0.007852995 -0.013664683 0.03227154 -0.062057488
0.010411975 0.001224543 0.018676829 0.07029208 0.04351878 -0.03915283 -0.05794405 -0.017119123
-0.035470385 0.024699606 0.0006482017 0.056874268 0.027775591 -0.013001596 0.0024303223 0.016934216
-0.008774292 0.057058897 -0.055288702 0.034464803 -0.045074094 -0.061948318 -0.014516665 0.034457665
0.049961474 0.017744312 -0.0061114533 -0.0039639957 -0.02866479 -0.0063453936 -0.0048856796 0.060172148
0.041383013 -0.05658438 0.00029250758 -0.043492008 -0.011224676 -0.056198593 0.018382028 -0.050987918
0.06980707 0.053400885 -0.048674326 -0.066571556 0.0027589665 -0.019739006 0.020758301 -0.047865056
0.028944796 -0.061076306 -0.03731898 -0.03717273 0.03421629 -0.001851292 -0.06795499 -0.040384285
-0.03272327 -0.065607466 0.009054282 0.025196897 -0.012973829 -0.028138949 -0.00042882733 -0.0561642
-0.04305584 -0.0016126481 0.06281777 -0.021744125 0.035048418 -0.027828217 -0.018823028 -0.06731264
0.058582738 0.06885294 -0.0014851538 0.04492743 0.057837214 0.035123236 0.036417365 -0.06731591
