cycles/save/0.5_3_100/models/model.pth (torch, 14520 bytes, 12 tensors)

node_factors.weight f4 [26, 1]
000000 ca f6 04 3c e5 f1 84 3e 87 17 c7 3e a0 9e 20 3e
       0.00811548 0.259658 0.38885137 0.1568551
000010 6a 35 2c 3e ff 0c 4b 3d ac 6e 4b 3d 7f 01 9c 3e
       0.16817251 0.04957294 0.04966609 0.3046989
000020 d1 34 56 bb 09 12 9c ba 26 d5 a2 3e 9c e0 5d 3e
       -0.003268529 -0.001190723 0.31803244 0.21667713
000030 2a 16 b9 3d 7b 4a 77 be 82 ad 99 bd d4 4d df 3d
       0.090374306 -0.24149506 -0.07503797 0.109035164
000040 c3 40 73 3e cf 31 12 3e 08 46 b9 bd 5c 1f 72 be
       0.23755173 0.14276813 -0.090465605 -0.23644775
000050 65 fe cb bd 0f d6 44 3e 00 f9 7c 3e f7 b7 1c 3e
       -0.09960631 0.19222282 0.24704361 0.15304552
000060 ad 7b 01 3d 06 be 73 be
       0.031612087 -0.23802957

layers.0.weight f4 [200, 2]
000000 ed 6c 36 3f c5 6d 36 bf 64 74 d5 3e c6 83 fa 3e
       0.7125996 -0.71261245 0.41690361 0.4892866
000010 d8 d6 00 3e a4 f4 ec 3e 48 e4 17 3f 4d 54 aa 3d
       0.12581956 0.46280396 0.59332705 0.0831686
000020 52 10 4f bf 70 28 6f 3e 3b 3a cf be 16 ca c7 be
       -0.8088428 0.2335527 -0.40474114 -0.39021367
000030 c3 11 14 3f 95 1a 09 3f 8a a4 8c 3d 77 7b 10 be
       0.578396 0.53556186 0.06867321 -0.14109598
000040 69 88 65 bf b0 98 e4 be 08 b8 29 3f cc 3f 34 3e
       -0.8966127 -0.4464774 0.66296434 0.17602462
000050 72 67 72 3d 0f fa 12 be ca 02 ca be ee 0a 56 3e
       0.059180684 -0.14353202 -0.39455253 0.20902607
000060 06 a6 d9 bd 1c 72 81 3e 8b 8f fa bd a7 9f 9a 3e
       -0.106273696 0.2528237 -0.1223441 0.3019993
000070 19 e4 ef 3d 04 b3 ea bd c2 66 9f 3e 41 ca 9e 3e
       0.11713428 -0.11459926 0.31133085 0.31013682
000080 4a 05 24 3f 51 09 08 3f ae 1d e3 be 1a 93 64 bf
       0.6407057 0.53139216 -0.4435858 -0.8928696
000090 a5 a8 e5 bd fc b6 a5 be 3b 9d 38 be 12 0d ed bd
       -0.11213807 -0.32366168 -0.18028729 -0.115747586
0000a0 d9 86 a5 bd c6 9a c5 3e 0b a7 5c 3e 6d 56 7b be
       -0.08082361 0.38594645 0.21548097 -0.24544688
0000b0 07 d6 1a bf 46 3c 10 bf 3e ae de be 4c 5e cb 3e
       -0.6048283 -0.5634197 -0.4349231 0.3972038
0000c0 71 7e 9d 3d 84 3f 8e 3e 03 cc 3e be 32 7e ed bd
       0.076901324 0.27782834 -0.18632512 -0.115963355
0000d0 09 bb 9c 3d 64 3a 5e bf a6 d1 7c 3d 8c 61 3d bd
       0.076528616 -0.8680785 0.061723374 -0.046235606
0000e0 73 06 b7 be dd 9b 01 bf 61 4e 7f 3f 27 d1 86 3f
       -0.35747108 -0.50628453 0.9972897 1.0532578
0000f0 ed 05 a4 3e 22 db 28 3f ee 9d 8f be 2e 82 f4 bd
       0.3203577 0.6595937 -0.28050178 -0.11938892
000100 2b 8b d5 3d b4 28 a5 be 1d 3a ee be e9 52 79 bf
       0.10426935 -0.32257617 -0.46528712 -0.97392136
000110 ff 28 3e 3e 94 df d5 be 3d 19 14 be 48 3a e3 3e
       0.18570326 -0.4177214 -0.14462753 0.44380403
000120 dd fb 6e be 61 37 68 be 1e 7d 86 3e 59 86 ea be
       -0.23338266 -0.22677375 0.26267332 -0.45805624
000130 9a fc 52 be 8e 09 e7 3e 0e 5f e0 be 93 b1 32 bf
       -0.20604172 0.45124477 -0.4382252 -0.69802207
000140 43 0f c6 be 84 3c 44 be 37 8d f2 be c8 a9 0c bf
       -0.3868352 -0.1916371 -0.47373363 -0.54946566
000150 58 48 10 3e c7 ac 83 bd ab 8a 62 be d5 79 09 bf
       0.14090097 -0.06429439 -0.2212321 -0.53701526
000160 29 dc 5e be 6f 5c 95 be 43 70 e0 be 89 16 59 bf
       -0.21763672 -0.29172084 -0.4383565 -0.8480001
000170 4e 9a fe 3d 14 97 05 bf 59 cf 09 bf 41 93 10 bf
       0.12431775 -0.5218365 -0.5383201 -0.5647469
000180 2d 5c bc 3d 1f dc 2c bf 30 60 e5 3e 79 d3 3a 3f
       0.09197269 -0.6752338 0.44799948 0.7297893
000190 a0 71 63 3e 9c 31 50 3e 49 04 28 bf a5 c8 fd be
       0.22211313 0.20331424 -0.6563154 -0.49567142
0001a0 da 88 cb be 13 6b c8 3e bd ba 6e be 99 9e 5e bf
       -0.39752847 0.3914419 -0.23313423 -0.8696075
0001b0 3f d4 8d 3b f7 6e 09 bf 4a d9 da bb 5d 92 42 bd
       0.00432828 -0.53684944 -0.006678735 -0.047502864
0001c0 66 20 34 3f 71 48 42 3f 54 d6 8c be d3 83 b2 bd
       0.70361936 0.75891787 -0.2750727 -0.0871655
0001d0 aa 1b 7c be 7c c6 6c 3e 17 14 dd bb 97 42 11 be
       -0.24619928 0.23122591 -0.0067467797 -0.14185558
0001e0 3e a9 8b be 35 f9 0f 3f 43 50 9d be c4 94 0c bf
       -0.2727756 0.56239635 -0.30725297 -0.549145
0001f0 d0 d3 c0 3e d7 cf 01 3f ed e8 1e 3f a7 f3 0c 3e
       0.376616 0.50707763 0.62074167 0.13764821
000200 5c 58 4d be 9a 77 33 3e 04 d1 17 3f 6c 8f 2d bf
       -0.20053238 0.17526093 0.5930331 -0.6779697
000210 52 79 9c be 44 c0 37 bf 15 e8 03 3e 7a 5e 92 3e
       -0.3056131 -0.7177775 0.12881501 0.28587705
000220 b8 a9 d4 be 1f 05 d1 be 9e 10 3c 3e d5 e4 47 be
       -0.41535735 -0.4082422 0.18365714 -0.19520886
000230 df a8 37 bf 0b be 1c 3f ee 1f b2 be 7a 84 9b bd
       -0.7174205 0.6122748 -0.34789985 -0.07593627
000240 98 87 85 3d e3 25 2a bd 58 cc 53 bf d5 64 a5 3d
       0.06520003 -0.041540038 -0.8273368 0.08075873
000250 8a 68 17 bf ba 1f 38 bf 21 1b 29 3e 52 b0 b8 be
       -0.5914389 -0.7192341 0.16514255 -0.36072022
000260 58 dc f9 be 20 c7 e8 be 19 f4 84 be a8 cd 93 be
       -0.4880092 -0.4546442 -0.25967482 -0.2886784
000270 1d c1 97 be 94 c5 97 3e 31 18 35 bf 18 c0 1c bf
       -0.2963952 0.29642928 -0.7074004 -0.6123061
000280 8f f1 29 be 98 52 0f be 4d 75 c3 3e cc 98 f8 be
       -0.16596054 -0.13996351 0.3817543 -0.48554075
000290 95 3a 9b 3d 66 56 4e 3e 84 03 2c 3e f5 0b 6f bf
       0.07579533 0.20150146 0.16798216 -0.9337762
0002a0 cd 66 24 bf 37 a5 84 bf d0 4d 16 bf ef 1d 40 3e
       -0.6421936 -1.036292 -0.5871248 0.18761419
0002b0 d0 60 d3 bd 88 4e 96 3e 68 be cf be ce 1d d7 3d
       -0.103212 0.2935679 -0.40574956 0.10503732
0002c0 bb 0f d6 be d2 e9 b0 3e 4a 7f 18 bf 57 51 07 bf
       -0.41808876 0.3455339 -0.5956923 -0.5285849
0002d0 b4 fd 1a bf f2 7d 15 3c 4a f9 2e 3f ad 00 2d 3f
       -0.6054337 0.009124266 0.68349135 0.67579156
0002e0 73 d2 bc be 39 4e 18 3c 55 38 9b bd 96 75 0e bf
       -0.3687931 0.0092959935 -0.07579104 -0.5564817
0002f0 a0 0c a7 3e 5e f7 8f be f0 0f 15 3e 9f ea 8e be
       0.3262682 -0.28118414 0.14556861 -0.27913377
000300 29 99 a5 be 7c 6b e9 3d d0 d2 3d 3d 1a a1 1e be
       -0.32343414 0.11397454 0.046343625 -0.15491143
000310 e5 8f aa be 4f cd 2b 3f 17 71 e8 be b6 f5 54 bf
       -0.33312908 0.6711015 -0.4539878 -0.83187425
000320 df 5e e3 bd 47 f7 21 3f 2d 3f 9e bd dc 14 2a be
       -0.111020796 0.6326794 -0.077268936 -0.1660952
000330 0f 0f 05 bf 51 14 bc be a9 08 15 bf df 9e 0c bf
       -0.519761 -0.3673425 -0.5821634 -0.5492992
000340 7d 4c 87 3e aa d4 cf 3e 0d d5 02 3f 3f 28 3e bf
       0.26425543 0.40591937 0.5110634 -0.7428016
000350 df 69 bf 3e df 0d db be ef 1f d3 3e 1d 5c ff 3e
       0.3738546 -0.4278402 0.412353 0.49874964
000360 8a 1b bd 3e d5 ee 98 3e 7e 64 dd 3e 9a 6c 5c 3c
       0.36935073 0.29869714 0.43240732 0.013453627
000370 e0 76 1d 3e 31 a7 ed be c9 ff fa 3d 9f 28 ec be
       0.15377378 -0.4641662 0.122558184 -0.4612474
000380 0b 29 3e bc e7 03 1a bf ce 12 39 be c1 1b ba be
       -0.011606465 -0.60162205 -0.1807358 -0.363493
000390 16 c2 6e be 6a ff e1 be 77 15 4e bf eb c9 4d be
       -0.23316225 -0.44140178 -0.805015 -0.20096557
0003a0 e2 73 8a 3e 5e a8 c4 3e ca e4 1b 3e 2f b3 26 bf
       0.27041537 0.38409704 0.15223995 -0.6511716
0003b0 1f 32 7f bf f3 a7 03 be 67 09 c7 3e 42 40 18 bf
       -0.99685854 -0.12857036 0.3887436 -0.5947305
0003c0 30 cf 7d 3e c6 9b 15 3f d6 2c 66 be ce 6c 42 bf
       0.24786067 0.58440816 -0.22478041 -0.7594727
0003d0 4f 4a cb 3e 4a 3b 86 3d 2b e9 9b 3e 55 65 2b bf
       0.3970513 0.06554277 0.3045133 -0.66951495
0003e0 d3 e4 bd 3f e8 e4 bd bf c5 d0 00 3f 24 da 09 bf
       1.4835457 -1.4835482 0.5031856 -0.5384848
0003f0 97 db 7c 3e 11 1a b6 bd 8a 95 00 3d 0b c8 9c be
       0.24693142 -0.088916905 0.03139261 -0.3062137

layers.0.bias f4 [200]
000000 7f 78 a3 b7 10 2c 45 be 59 4c 39 3f 03 b7 86 be
       -1.9487225e-05 -0.1925509 0.7238212 -0.26311502
000010 fa df e1 3e 61 f6 07 3e ee cd 18 bf 6a 70 74 3e
       0.44116193 0.1327758 -0.59689224 0.23871008
000020 30 0c 10 3f 4a cf ec be 42 03 ea be 32 2d 46 3f
       0.56268597 -0.462519 -0.4570561 0.7741271
000030 63 a6 25 3f ad fa c9 be d3 f9 05 3f 8e 77 77 be
       0.6470701 -0.39449063 0.52334327 -0.241667
000040 e7 78 32 bf 7c d5 39 3e 97 29 86 3e e2 31 59 be
       -0.6971573 0.18147844 0.26203606 -0.21210435
000050 50 78 53 3e 30 ca 1a bf e5 8b f1 3e 97 91 33 3f
       0.20651364 -0.60464764 0.47177044 0.7014403
000060 66 b4 ba 3e 0f d5 7d 3e 13 ac a2 3e e5 f9 02 bf
       0.36465758 0.24788307 0.31771907 -0.5116256
000070 3a c2 5b be 89 83 23 3d 31 78 c9 be 5b b4 05 bf
       -0.2146081 0.039920364 -0.3934951 -0.52228326
000080 5d 62 0f 3f f6 82 ec 3e 4e 66 24 bf 93 b8 a9 3e
       0.56009465 0.46193665 -0.64218605 0.3314863
000090 c5 8e 77 3e 54 f9 40 3f d9 48 f9 3e bd 29 3b 3f
       0.24175556 0.75380445 0.4868839 0.7311056
0000a0 33 0e 6d be 5e f8 11 3f 7f ba 25 3f 0f f1 2a bf
       -0.23149948 0.57019603 0.64737695 -0.66774076
0000b0 31 4e 11 bf 08 0f d9 3d c6 4f ae 3e 94 dd b3 be
       -0.56759936 0.1059857 0.34045237 -0.35129988
0000c0 06 c8 4a 3e 5f d2 1e be df 34 83 3e 94 8a c2 be
       0.19802865 -0.15509938 0.25626275 -0.37996352
0000d0 ff d2 f0 3e 65 2d e3 3e 1a 34 fb be aa db 62 bc
       0.47035977 0.4437057 -0.49063188 -0.013846317
0000e0 91 aa 03 3d 04 c3 9d 3e 72 60 1d 3f 97 1c 38 3e
       0.032145087 0.30812848 0.6147529 0.17979656
0000f0 89 2f 31 be b8 70 38 3f 4a f6 af be ad 01 97 be
       -0.1730329 0.72046995 -0.3436759 -0.29493466
000100 e4 a5 ce 3c 0b d9 09 bf 80 28 38 3e 66 a2 f5 be
       0.025225587 -0.53846806 0.179842 -0.47975463
000110 a4 fb cb 3d 5d 0a 06 3d 65 9f 1c 3d 1e a7 18 bf
       0.09960106 0.032724727 0.038237948 -0.5963
000120 e8 ed 2b bf 3e a4 dd 3e 54 cd 1c 3f ae a1 20 bf
       -0.6715989 0.4328937 0.61250806 -0.62746704
000130 b9 0b b4 3e 92 40 05 bf 1d 57 df b5 15 f8 3b 3f
       0.35165194 -0.5205165 -1.6640148e-06 0.7342542
000140 4f 7c 25 3f b6 59 04 bf ab 82 03 3f 1e 51 e4 3e
       0.64642805 -0.5169939 0.5137126 0.44593138
000150 5c ff 25 3e 45 8b 43 3f f3 ca 8f be 18 81 28 be
       0.16210693 0.76384383 -0.28084525 -0.16455495
000160 be fa b6 be 3c 7c cf 3d aa ee 0f 3e 00 ee c7 3c
       -0.35738176 0.10131118 0.14055887 0.02440548
000170 46 b2 cb be 48 fa a2 be 84 22 99 3e f8 b8 1e bf
       -0.3978445 -0.31831574 0.29909146 -0.6200099
000180 17 87 e1 bd ac 9a 12 3e 5c af 92 be 9b 93 77 3e
       -0.110120945 0.14316815 -0.28649414 0.24177401
000190 1a 5e 85 3c a3 70 e8 3e 90 39 de bc 1c 7f e4 be
       0.016280223 0.45398435 -0.027127057 -0.44628227
0001a0 57 db 12 3f 90 94 2a 3e da 5f 4f be e6 9e ee be
       0.57365936 0.16658235 -0.20251408 -0.46605605
0001b0 db 15 07 3e cc a5 2c bf 7d 31 8c 3e 82 d0 eb 3e
       0.13191931 -0.67440486 0.27381507 0.46057516
0001c0 4e ca 1e bf 48 04 ed be b5 23 02 bf 60 47 37 3f
       -0.6202744 -0.4629233 -0.50835735 0.71593285
0001d0 35 9d 38 3f 2a c2 16 3e 37 3e 26 3f ff 31 70 be
       0.7211488 0.14722505 0.6493868 -0.23456572
0001e0 d3 bc 2f bf e4 d2 89 3e 02 ee b5 3e f2 28 46 3f
       -0.686475 0.2691871 0.35533148 0.7740623
0001f0 fa 7d 47 b7 f1 a6 2a 3f 64 c8 08 3f 2f 78 17 3f
       -1.18906555e-05 0.6666098 0.5343077 0.5916776
000200 9d a1 33 bf 81 ad 27 3f 7a 4f 1a bf a7 11 42 3f
       -0.7016848 0.6549912 -0.6027752 0.75808185
000210 a9 40 21 3d 24 6c 20 bf 98 6f 9e 3e 31 d1 eb b7
       0.039368305 -0.6266501 0.30944514 -2.8111595e-05
000220 22 97 22 bf 76 ca 86 be a3 a8 0f 3d f9 f3 11 3f
       -0.6351186 -0.2632634 0.035072934 0.570129
000230 d0 5e 87 be c9 bc d1 3e c9 ac 22 3e 16 a5 03 3e
       -0.26439524 0.40964344 0.15886225 0.12855944
000240 f1 66 5d 3e 3b 98 ed be 84 76 16 bf 53 4a 63 be
       0.216213 -0.46405205 -0.5877459 -0.22196321
000250 00 af 28 bf 41 d6 a8 be 3d 20 0f 3e 28 71 ee be
       -0.6589203 -0.32975963 0.13977142 -0.46570706
000260 15 2c 96 be c3 be 1d be 4b 22 18 3d c3 d9 c7 be
       -0.29330507 -0.15404801 0.03714208 -0.39033327
000270 ac b9 a7 35 02 45 f5 bd c1 81 3f 3e 80 b0 e8 3d
       1.2496507e-06 -0.11976053 0.18701841 0.1136179
000280 89 ca b4 be e9 2b 91 be c1 89 47 3d 24 e8 e1 be
       -0.35310772 -0.28353813 0.048715357 -0.44122422
000290 b3 ff 2d 3e 2e a3 cc 36 6b a9 bc 3e 15 82 77 3e
       0.16992073 6.0986704e-06 0.36848006 0.24170716
0002a0 8f b2 1e 3f e8 4c 25 3d 91 c1 05 bf b4 8c 8b 3e
       0.6199121 0.040356547 -0.52248484 0.27255785
0002b0 f0 ad f4 be 94 62 03 be 4d 75 6a be a2 5f 89 be
       -0.47788954 -0.12830573 -0.22896309 -0.26830775
0002c0 d0 f2 85 be 89 c3 1c 3f c9 ec f6 3e c0 9f 92 3e
       -0.26161814 0.6123586 0.48227528 0.28637505
0002d0 b9 3d 2f 3f 30 0b 24 bf 75 a8 40 3e 70 32 06 3f
       0.68453556 -0.6407957 0.18814261 0.5242071
0002e0 90 a7 16 3f 9e 10 10 bf a6 c4 86 3e 93 3f ce be
       0.5884943 -0.56275356 0.26321906 -0.40282878
0002f0 99 ff a9 b7 e9 17 17 be 0c 25 17 bf 4d ad 2c bf
       -2.0265392e-05 -0.14755215 -0.59040904 -0.67451936
000300 3b 2f ee be 95 a7 8d 3e cd 6e cb 3e ad 71 1d bf
       -0.4652041 0.27666917 0.39732972 -0.6150158
000310 f9 f5 87 be 24 57 29 3e 93 81 1c bf 19 df c7 3e
       -0.2655485 0.16537148 -0.61135215 0.39037398

layers.2.weight f4 [1, 200]
000000 a6 71 28 3f 70 1d 1f be af 4a e0 bd 3b 73 4a 3c
       0.65798414 -0.15538573 -0.10951745 0.012356575
000010 b1 68 0c bd d7 3d 27 bc 20 a4 16 bd 65 06 00 be
       -0.03427953 -0.010207615 -0.036777616 -0.1250244
000020 8b 9c 01 bd 68 02 8d 3b 6d 7f b8 bc 65 12 b7 bd
       -0.03164343 0.0043032654 -0.022521699 -0.08939055
000030 74 fe c2 bd e9 2f 65 3d af ea 94 bd 44 0b 7d 3c
       -0.09521189 0.055953894 -0.07271325 0.01544458
000040 c0 ba 7c 3d a2 30 e1 bd 9e ea 3b bd 8d 41 9a bb
       0.061701536 -0.10995604 -0.045878045 -0.0047075213
000050 e6 ea c1 bb 32 1e 7f bd 60 32 0d bd dc 81 92 bd
       -0.0059178947 -0.062284656 -0.03447187 -0.07153675
000060 b8 e5 be bc c7 d8 90 bd d8 ea c0 bd 34 81 f4 bb
       -0.023302898 -0.07072597 -0.09419793 -0.0074616913
000070 b3 f6 86 3c 97 92 c8 be 34 f6 32 bd 70 ac 7d bc
       0.016475057 -0.3917434 -0.04369183 -0.015483007
000080 14 0f b1 bd 06 fb 13 bd 7a 88 3e 3d f2 2e 89 bd
       -0.08645454 -0.036128066 0.046516873 -0.06698407
000090 3f 74 a8 3b 21 75 b7 bd 92 a0 c8 bd dd 7a c1 bd
       0.0051408107 -0.089578874 -0.09796251 -0.094472624
0000a0 56 10 43 bd 5b f4 e6 bd ea b0 f8 bd d3 ec 7a bd
       -0.047623 -0.11277076 -0.12143119 -0.06126101
0000b0 0b ca 93 3c d3 23 ec bc 70 6a a7 3b c6 29 71 3d
       0.018040678 -0.028825676 0.005109124 0.05887773
0000c0 64 d8 b0 bd 2d 99 a2 be 70 d5 ca bd a7 dd da 3c
       -0.08635023 -0.3175749 -0.09903991 0.02671702
0000d0 4b 97 01 be 68 5f f0 bc 7a b7 4f 3c 50 c7 80 3b
       -0.1265537 -0.029342368 0.012678022 0.00393001
0000e0 66 3c 63 be b3 37 c5 bd 72 4f 9b 3a fc f7 bc bc
       -0.22191009 -0.096297644 0.0011849238 -0.023067467
0000f0 be b9 13 bd 67 28 58 bd df cf 08 3d 6c dc 22 3d
       -0.03606581 -0.052772906 0.033401366 0.039760992
000100 49 f5 fa bb 91 ac 57 3d ec 62 d6 bd e0 29 3a 3d
       -0.007658635 0.052654807 -0.104680866 0.04545009
000110 d6 c2 6e bd 11 0b 12 bc c9 06 e4 3c fb 37 80 3c
       -0.05829128 -0.008913771 0.027835267 0.015651694
000120 f9 2b d2 bc 9a 66 94 bd 65 ef 2e bd dd f2 3e 3c
       -0.025655733 -0.07246132 -0.042708773 0.011654583
000130 01 dd b2 bd f4 d4 5d 3d 8d aa da 3c f2 df da bd
       -0.087335594 0.054158166 0.026692653 -0.106872454
000140 47 e0 89 bd 97 6c d9 bb 4d d5 d1 bd e3 19 5a bd
       -0.06732231 -0.0066352594 -0.10245762 -0.053247344
000150 51 5d 04 bf 74 03 c6 bd 19 13 b6 bc d2 e4 c9 bc
       -0.5170489 -0.096686274 -0.022225903 -0.024645243
000160 59 6c 87 3d 5b a1 3a bd 4b b6 c7 3b e0 75 15 bd
       0.066124626 -0.045564037 0.006094729 -0.036489367
000170 20 37 80 3c a4 c7 e8 3c ae 1a 3c bd c7 2f 5e bd
       0.015651286 0.028415509 -0.04592388 -0.054244783
000180 ef 6c 27 bd 65 b2 e6 bd 39 33 88 3a 97 29 23 bd
       -0.04087537 -0.11264495 0.0010391242 -0.039834585
000190 71 6d 19 3b 9b b3 7f bb 59 e4 c7 be 74 41 c1 bc
       0.002341118 -0.0039016965 -0.39041403 -0.02359078
0001a0 0e 69 e0 bd 6b e8 f7 bd b1 1e 29 bd 26 c8 aa 3c
       -0.109575376 -0.12104877 -0.041289035 0.020847391
0001b0 7f f6 1f bc 29 b5 77 3d c3 77 b3 bd a9 f4 8c bd
       -0.009763359 0.060475502 -0.08763077 -0.06882603
0001c0 79 27 a8 bc 78 6b 84 b9 f5 c3 b5 3c 27 c8 85 bd
       -0.020526635 -0.00025257072 0.022188166 -0.06532317
0001d0 ed 3c 61 bd 68 1a a2 bd 5a 53 10 bd 15 14 c0 bc
       -0.054989744 -0.07915193 -0.03523574 -0.023447076
0001e0 4e d3 28 bd da 2f 46 bd f1 d9 88 bd b9 62 bd bd
       -0.04121714 -0.04838548 -0.06682194 -0.092473455
0001f0 e6 5b a1 3f 2e 9f 77 bd f3 c0 8f bd 65 38 c2 bd
       1.260617 -0.06045454 -0.07019224 -0.09483413
000200 48 ff 14 bc 47 e3 fb bd aa d0 80 3c ba dd 79 bd
       -0.009094067 -0.12299209 0.015724499 -0.06100247
000210 85 29 3d bf 3a 40 92 3b d3 85 87 bd c4 df db 3e
       -0.7389148 0.004463223 -0.06617322 0.42944157
000220 40 70 57 3d 3f 9f 94 be 56 85 9a bc ef 1c 29 bd
       0.052597284 -0.29027745 -0.018862408 -0.04128736
000230 4d 9d 1d be cf 98 1a bd 67 a5 e8 bd 67 63 16 be
       -0.15392037 -0.037743386 -0.11359673 -0.14686356
000240 69 a1 cc bd b6 9c 40 bd a7 fa 5e 3d 45 ad 57 be
       -0.09991724 -0.04702445 0.05443826 -0.21062191
000250 d5 90 0d 3d 51 d0 7e bd 86 9c fa bd b1 16 87 3b
       0.03456195 -0.062210385 -0.12236886 0.004122578
000260 5c 46 49 3d 23 8f d5 bd e4 bc 09 bf f0 6d 2f 3c
       0.049139366 -0.10427692 -0.5380385 0.0107073635
000270 ea aa e0 3d af 08 db 3d d1 97 1b bd 19 f9 12 be
       0.10970099 0.10695016 -0.03798658 -0.14352836
000280 b1 be 44 bd 6d cb 73 3d fb 45 de bd 79 cb 40 bc
       -0.04803342 0.059520174 -0.108531915 -0.011767262
000290 8f 85 e1 bd 64 0f 6c 3f 09 22 a6 bd e3 d1 f3 bd
       -0.110118024 0.92210984 -0.081119604 -0.11905267
0002a0 eb fa a0 bd 9d 98 13 bf cb 65 e0 3c fd 39 dc bb
       -0.07860359 -0.57654744 0.027392289 -0.00672078
0002b0 12 d7 67 bc df 5e a5 3c 01 37 85 bd 4e 1a db 3c
       -0.014150398 0.02018684 -0.06504632 0.026745941
0002c0 ac 15 02 3d 6d b9 50 bc 4f ee c5 bd 64 26 ad bd
       0.03175895 -0.012739521 -0.096645944 -0.08454588
0002d0 fa 79 2e bd e7 30 49 bd d9 a8 f1 bd 3f 23 07 be
       -0.042596795 -0.049118903 -0.11799783 -0.13197039
0002e0 c4 2a 69 bd db d0 2f 3d 0c d4 2e bd a2 15 8a 3b
       -0.05692555 0.04292379 -0.042682692 0.0042140046
0002f0 0b 6f 33 3f 61 ea 31 bd b5 c9 ee 3b 3a ab 8c bc
       0.70091313 -0.04343641 0.007287229 -0.017171491
000300 b9 2f 0c bd 51 bb 3e 3b 61 ad ec bd ee f6 25 3c
       -0.0342252 0.0029103348 -0.11556507 0.010129673
000310 94 c8 78 bd 3b 0d 41 be 44 9e fb bc 32 10 2b bd
       -0.06073816 -0.18852703 -0.030715115 -0.041763492

grad_avg f4 [26, 1]
000000 00 00 00 00 2b 8b fc bb 71 3f 24 bc d2 aa a0 bb
       0.0 -0.00770702 -0.010024891 -0.004903176
000010 20 0b 9f bb 6b d4 83 3c fb 1f 98 3c 70 ad a7 bc
       -0.004853621 0.0160925 0.018569937 -0.020468444
000020 5c 61 48 3c 1a e1 32 3c 9b 6f 54 bc b9 c7 93 bc
       0.0122302435 0.010917926 -0.012966062 -0.018039571
000030 9b 9b a4 3c b5 c6 68 3c 3d 38 9a bc 59 6b 3f bc
       0.02009373 0.014207532 -0.018825645 -0.0116833085
000040 c1 bd 25 3b 80 fd d3 bb 41 ba 32 3b ee cf a3 3c
       0.0025290104 -0.0064694285 0.002727166 0.01999661
000050 02 09 b9 3b ba a4 11 bc 9f 7b 18 bc c0 ff 59 bc
       0.005646826 -0.0088893715 -0.009306817 -0.013305604
000060 5c dc 3c bd a6 e4 5d bb
       -0.04610859 -0.003385821

sqr_avg f4 [26, 1]
000000 00 00 00 00 bf 41 05 3b c4 6a da 39 1b b5 23 3b
       0.0 0.0020333377 0.00041659747 0.0024979773
000010 a3 88 14 3b 23 8f 0b 3c c2 31 04 3c ec 83 c2 3a
       0.002266445 0.008518013 0.008068504 0.0014840341
000020 18 d9 02 3c 69 9e 61 3c 0e 79 ae 3a e5 a6 8c 3b
       0.0079863295 0.013770678 0.0013311224 0.0042923563
000030 4c 0e fd 3b c7 fe d3 3b bd 3f f5 3c 5b d9 59 3c
       0.0077226516 0.006469581 0.02993762 0.0132964505
000040 a5 e7 27 3b 11 d3 36 3c 4b d7 c5 3c 4e be 95 3b
       0.0025620249 0.011158721 0.024150511 0.004569805
000050 35 88 d5 3c c9 ff 9b 3c cd aa 31 3b 53 a5 12 3d
       0.026065925 0.019042866 0.0027109862 0.035802197
000060 00 a6 52 3d cb 48 4d 3b
       0.05142784 0.0031323906

grad_avg f4 [200, 2]
000000 43 11 44 bb 0d 12 9b 3a c3 29 56 b9 68 42 00 39
       -0.0029917515 0.0011830941 -0.00020424188 0.0001223177
000010 56 dc 46 39 46 e4 e6 39 e7 bb b5 35 e7 bb b5 35
       0.00018964833 0.00044039096 1.3540238e-06 1.3540238e-06
000020 9f c1 78 38 14 86 10 39 07 a1 5b b7 46 4e 4d 36
       5.930813e-05 0.00013782858 -1.3090909e-05 3.0592942e-06
000030 00 00 00 00 00 00 00 00 80 03 63 39 d8 c9 03 3a
       0.0 0.0 0.00021649711 0.00050273305
000040 8f 9b 65 38 b4 65 05 39 00 00 00 00 00 00 00 00
       5.474273e-05 0.00012721756 0.0 0.0
000050 00 00 00 00 00 00 00 00 3c 4a 22 39 32 74 bc 39
       0.0 0.0 0.00015477178 0.00035944727
000060 9c df 2c 39 9a ba c8 39 00 00 00 00 00 00 00 00
       0.00016486499 0.00038286002 0.0 0.0
000070 84 09 04 39 21 4b 99 39 da 8f 97 35 da 8f 97 35
       0.00012592046 0.0002923841 1.1292243e-06 1.1292243e-06
000080 00 00 00 00 00 00 00 00 0c 90 fc 39 7d c2 25 b9
       0.0 0.0 0.0004817251 -0.00015808079
000090 a0 8f a6 38 f2 6a 41 39 00 00 00 00 00 00 00 00
       7.942249e-05 0.00018445755 0.0 0.0
0000a0 10 14 2c 37 3c ab c7 37 00 00 00 00 00 00 00 00
       1.025667e-05 2.3802386e-05 0.0 0.0
0000b0 d5 2d 7a 38 5d 52 11 39 97 df 01 39 74 d0 96 39
       5.964733e-05 0.0001385896 0.00012385692 0.0002876554
0000c0 8f 53 29 38 dd 83 c4 38 4d 60 00 39 95 17 95 39
       4.037056e-05 9.37057e-05 0.00012242906 0.00028437065
0000d0 c6 4d f1 38 ae 2f 88 39 00 00 00 00 00 00 00 00
       0.00011506262 0.00025975466 0.0 0.0
0000e0 02 bf 0c a5 02 bf 0c a5 7a 70 e4 b9 ea 57 d0 3a
       -1.220778e-16 -1.220778e-16 -0.0004357135 0.0015895341
0000f0 00 00 00 00 00 00 00 00 00 00 00 00 00 00 00 00
       0.0 0.0 0.0 0.0
000100 ea fa 1c 39 08 43 b6 39 41 92 b7 38 41 f7 2b 39
       0.00014970792 0.00034763687 8.753362e-05 0.0001639994
000110 00 00 00 00 00 00 00 00 15 3f f3 38 a5 38 8d 39
       0.0 0.0 0.00011598893 0.0002693582
000120 ac bd 15 b7 38 98 ad b7 6d a8 22 39 7d d9 bc 39
       -8.9252535e-06 -2.069409e-05 0.00015512267 0.00036020196
000130 a6 dc 31 39 9f 87 ce 39 d9 80 2b 39 39 29 c7 39
       0.00016962233 0.00039392427 0.0001635583 0.0003798695
000140 00 00 00 00 00 00 00 00 0f b7 4c 39 bc bc ed 39
       0.0 0.0 0.0001952315 0.0004534478
000150 a9 7c 5c 39 ab 00 00 3a 00 00 00 00 00 00 00 00
       0.00021027274 0.0004882912 0.0 0.0
000160 00 00 00 00 00 00 00 00 4a 08 9c b8 f3 24 21 39
       0.0 0.0 -7.4402036e-05 0.00015367921
000170 62 38 14 b7 d9 80 ac b7 00 00 00 00 00 00 00 00
       -8.834615e-06 -2.0563997e-05 0.0 0.0
000180 3a 47 dd 38 7d 2b 42 39 1a e2 6a ba 02 cf 0d 3a
       0.00010551368 0.00018517482 -0.00089600834 0.000540957
000190 37 e0 33 39 71 ce d0 39 00 00 00 00 00 00 00 00
       0.00017154297 0.00039826662 0.0 0.0
0001a0 e7 c0 65 39 1d 67 05 3a db 02 55 38 18 62 f7 38
       0.00021911004 0.00050889124 5.0785817e-05 0.00011796149
0001b0 00 00 00 00 00 00 00 00 99 07 1b a4 c2 3d 1b a4
       0.0 0.0 -3.3616703e-17 -3.3662578e-17
0001c0 43 5c 81 b9 dd 0e 6c 3a a7 ce 2e 39 76 02 cb 39
       -0.00024673538 0.00090049003 0.00016670917 0.0003872101
0001d0 d9 a2 09 b6 7f 24 a0 b6 33 8a 27 38 ad 7f c2 38
       -2.050938e-06 -4.7726203e-06 3.994461e-05 9.274422e-05
0001e0 bb 94 c9 b8 1c ab 88 38 12 9b bf 38 10 7f 5e 39
       -9.61213e-05 6.516857e-05 9.136474e-05 0.00021218904
0001f0 21 d7 4f 36 21 d7 4f 36 af df 2c 36 af df 2c 36
       3.0970625e-06 3.0970625e-06 2.5760198e-06 2.5760198e-06
000200 9c 63 5c b8 6c 5e 8d b7 00 00 00 00 00 00 00 00
       -5.2544856e-05 -1.6852478e-05 0.0 0.0
000210 6e 9e 9d 39 5f 20 85 39 00 00 00 00 00 00 00 00
       0.00030063413 0.00025391855 0.0 0.0
000220 04 98 20 39 32 18 55 39 13 c6 e5 b7 12 4b 2d b7
       0.0001531542 0.00020322276 -2.7391163e-05 -1.0329082e-05
000230 1b 1e 68 39 38 d4 69 b6 00 00 00 00 00 00 00 00
       0.0002213646 -3.4843233e-06 0.0 0.0
000240 00 00 00 00 00 00 00 00 5e 7d 03 39 1c c1 98 39
       0.0 0.0 0.00012539836 0.00029135577
000250 ac 04 9b 38 e5 0d 34 39 00 00 00 00 00 00 00 00
       7.391846e-05 0.00017171314 0.0 0.0
000260 76 cf 7d 39 83 c2 e7 39 00 00 00 00 00 00 00 00
       0.00024205245 0.00044204676 0.0 0.0
000270 26 09 05 38 ea 2b 50 b9 c0 00 42 39 70 4d e1 39
       3.171819e-05 -0.00019852785 0.00018501561 0.0004297304
000280 a1 75 f4 38 08 ed 8d 39 00 00 00 00 00 00 00 00
       0.00011656737 0.00027070218 0.0 0.0
000290 82 0a 3a 39 93 01 d8 39 27 5f c1 38 8b 7c 60 39
       0.00017742257 0.00041199903 9.220681e-05 0.000214087
0002a0 88 ef 6f 3a e1 6c 5a 3a 9e 86 2f 39 85 d5 cb 39
       0.00091528194 0.0008332264 0.0001673945 0.00038878262
0002b0 00 00 00 00 00 00 00 00 00 00 00 00 00 00 00 00
       0.0 0.0 0.0 0.0
0002c0 00 00 00 00 00 00 00 00 26 15 34 b9 56 a7 17 b9
       0.0 0.0 -0.00017174016 -0.0001446282
0002d0 dc bb 1c b8 27 c0 07 b8 cd 05 b6 b7 b5 f2 0b 39
       -3.7368256e-05 -3.2365464e-05 -2.1698792e-05 0.00013346488
0002e0 00 00 00 00 00 00 00 00 00 00 00 00 00 00 00 00
       0.0 0.0 0.0 0.0
0002f0 c4 dc a6 38 82 a0 41 39 00 00 00 00 00 00 00 00
       7.9566176e-05 0.00018465708 0.0 0.0
000300 00 00 00 00 00 00 00 00 ba 95 4c 39 93 72 ed 39
       0.0 0.0 0.00019510734 0.00045289527
000310 00 00 00 00 00 00 00 00 b9 85 13 39 24 7b 40 39
       0.0 0.0 0.00014068828 0.0001835642
000320 6c b6 ac b6 cd 48 9c b6 35 c8 e2 36 9f 81 83 37
       -5.147236e-06 -4.6576374e-06 6.758632e-06 1.5676776e-05
000330 80 7c 80 3a be 56 8f 39 00 00 00 00 00 00 00 00
       0.0009802729 0.00027339713 0.0 0.0
000340 62 fa 46 39 f0 03 e7 39 e8 45 29 ba ab 25 8e 3a
       0.00018976026 0.00044062687 -0.0006457255 0.0010844966
000350 00 00 00 00 00 00 00 00 00 00 00 00 00 00 00 00
       0.0 0.0 0.0 0.0
000360 8d eb c5 b6 28 82 89 37 00 00 00 00 00 00 00 00
       -5.8984792e-06 1.6392281e-05 0.0 0.0
000370 1e 20 1f 39 07 bc b8 39 87 f3 f9 38 d3 17 91 39
       0.00015175386 0.00035235306 0.00011918606 0.00027674306
000380 00 00 00 00 00 00 00 00 00 00 00 00 00 00 00 00
       0.0 0.0 0.0 0.0
000390 00 00 00 00 00 00 00 00 9a 20 ed 38 f7 b4 89 39
       0.0 0.0 0.00011307113 0.00026265506
0003a0 35 be c7 38 81 dd 67 39 3b 5a b1 38 7a da b6 39
       9.524488e-05 0.00022112393 8.4568244e-05 0.00034876523
0003b0 10 b8 7f 38 e9 8c 14 39 60 35 f6 b7 c5 fd f3 37
       6.096816e-05 0.00014166873 -2.935034e-05 2.9086028e-05
0003c0 00 00 00 00 00 00 00 00 87 4d b1 38 a7 51 1c 39
       0.0 0.0 8.454458e-05 0.00014907737
0003d0 b2 c6 f2 38 1f e1 8c 39 a2 e9 27 39 72 f3 c2 39
       0.00011576469 0.0002687061 0.00016013396 0.00037183944
0003e0 20 4a ea bb 85 f8 5e 3a 88 98 db 38 27 e5 7e 39
       -0.0071499497 0.000850566 0.00010471145 0.00024308694
0003f0 dc f0 fe 38 d8 fa 93 39 58 30 2c 39 9e ed c7 39
       0.000121565274 0.00028224918 0.00016421208 0.00038133276

sqr_avg f4 [200, 2]
000000 cf 48 6b 39 52 47 13 39 5e 57 52 35 aa 65 4a 35
       0.0002243847 0.00014045581 7.835823e-07 7.5398805e-07
000010 26 25 17 37 6e 87 07 37 b6 cc 4c 2e b6 cc 4c 2e
       9.008951e-06 8.078159e-06 4.656605e-11 4.656605e-11
000020 9a cb 64 35 3c cb 4c 35 95 3f b5 33 13 a1 b1 33
       8.52329e-07 7.6291667e-07 8.440035e-08 8.271504e-08
000030 00 00 00 00 00 00 00 00 04 9a 44 37 70 49 30 37
       0.0 0.0 1.171837e-05 1.0507516e-05
000040 21 e3 41 35 70 8e 2d 35 00 00 00 00 00 00 00 00
       7.222862e-07 6.4654796e-07 0.0 0.0
000050 00 00 00 00 00 00 00 00 23 b6 c7 36 af f8 b2 36
       0.0 0.0 5.9518657e-06 5.333764e-06
000060 d0 53 e3 36 04 c3 cb 36 00 00 00 00 00 00 00 00
       6.7748842e-06 6.0725743e-06 0.0 0.0
000070 2b a5 83 36 29 d3 6b 36 11 3e 9f 2e 11 3e 9f 2e
       3.9233323e-06 3.514064e-06 7.241508e-11 7.241508e-11
000080 00 00 00 00 00 00 00 00 f6 05 e7 36 47 d2 bf 36
       0.0 0.0 6.8850304e-06 5.716723e-06
000090 46 b5 cd 35 37 15 b8 35 00 00 00 00 00 00 00 00
       1.5326448e-06 1.3715243e-06 0.0 0.0
0000a0 f4 16 41 33 d1 36 36 33 00 00 00 00 00 00 00 00
       4.495719e-08 4.2425032e-08 0.0 0.0
0000b0 ea 37 66 35 d2 03 4e 35 f8 87 7e 36 de fe 63 36
       8.576304e-07 7.674654e-07 3.7928094e-06 3.3973988e-06
0000c0 3d 9f d8 34 b8 17 c2 34 8e 78 75 36 57 c5 5b 36
       4.0348996e-07 3.6152574e-07 3.6578017e-06 3.274841e-06
0000d0 a0 0f db 36 2b 2b c7 36 00 00 00 00 00 00 00 00
       6.5285276e-06 5.9356876e-06 0.0 0.0
0000e0 58 2f 96 2d 58 2f 96 2d 36 fc a2 38 92 aa 98 38
       1.707405e-11 1.707405e-11 7.77174e-05 7.279696e-05
0000f0 00 00 00 00 00 00 00 00 00 00 00 00 00 00 00 00
       0.0 0.0 0.0 0.0
000100 98 98 ba 36 3b 2f a7 36 97 d7 7c 35 0a 7c 60 35
       5.560996e-06 4.982486e-06 9.419104e-07 8.3627003e-07
000110 00 00 00 00 00 00 00 00 63 c2 5f 36 86 75 48 36
       0.0 0.0 3.3342737e-06 2.987073e-06
000120 4a 99 a7 33 b9 66 a3 33 f9 ab c8 36 8c d0 b3 36
       7.8044266e-08 7.608964e-08 5.9804847e-06 5.3588938e-06
000130 91 f7 f0 36 3e 05 d8 36 eb 42 de 36 c9 25 c7 36
       7.181378e-06 6.437912e-06 6.623906e-06 5.935061e-06
000140 00 00 00 00 00 00 00 00 90 e5 1e 37 ee 6c 0e 37
       0.0 0.0 9.470983e-06 8.489222e-06
000150 0b c5 39 37 1a 96 26 37 00 00 00 00 00 00 00 00
       1.1072737e-05 9.929319e-06 0.0 0.0
000160 00 00 00 00 00 00 00 00 3d 49 bf 34 29 1e bf 34
       0.0 0.0 3.562981e-07 3.5598467e-07
000170 21 a7 a1 33 8d b7 9d 33 00 00 00 00 00 00 00 00
       7.527547e-08 7.34427e-08 0.0 0.0
000180 d4 29 b3 36 0d cc 97 36 5b a2 5c 37 8b a4 8d 37
       5.339485e-06 4.5239053e-06 1.3150823e-05 1.6885131e-05
000190 b1 b0 f7 36 91 16 de 36 00 00 00 00 00 00 00 00
       7.381743e-06 6.6187426e-06 0.0 0.0
0001a0 98 b5 49 37 bf e7 34 37 6f 32 27 35 ce ac 15 35
       1.2022814e-05 1.0782794e-05 6.228574e-07 5.575829e-07
0001b0 00 00 00 00 00 00 00 00 f9 90 36 2f 85 1d 42 2f
       0.0 0.0 1.6604308e-10 1.7654685e-10
0001c0 87 1f d5 37 3a 7c c5 37 c3 f4 e6 36 3a f6 ce 36
       2.540626e-05 2.3542078e-05 6.883028e-06 6.167943e-06
0001d0 5d e7 33 33 36 6e 34 33 48 06 d2 34 82 34 bc 34
       4.188711e-08 4.2009752e-08 3.9120118e-07 3.5055933e-07
0001e0 cd d0 76 33 99 d1 99 33 e5 ba 08 36 81 ba f4 35
       5.746624e-08 7.162743e-08 2.0374366e-06 1.8233696e-06
0001f0 ff f8 c4 2f ff f8 c4 2f 24 42 dd 2f 24 42 dd 2f
       3.5829115e-10 3.5829115e-10 4.0246662e-10 4.0246662e-10
000200 99 ae ba 32 64 d0 f0 32 00 00 00 00 00 00 00 00
       2.1732648e-08 2.8034442e-08 0.0 0.0
000210 5c 23 ec 36 4b d7 c3 36 00 00 00 00 00 00 00 00
       7.0374645e-06 5.8365163e-06 0.0 0.0
000220 88 e6 d2 35 5a 3c e2 35 c5 93 60 33 a1 72 25 33
       1.5713313e-06 1.6855877e-06 5.228846e-08 3.852131e-08
000230 4f 55 9d 34 05 0c ba 34 00 00 00 00 00 00 00 00
       2.93056e-07 3.4653945e-07 0.0 0.0
000240 00 00 00 00 00 00 00 00 a8 36 81 36 31 6d 67 36
       0.0 0.0 3.8508624e-06 3.448524e-06
000250 6f 85 b1 35 a4 d3 9e 35 00 00 00 00 00 00 00 00
       1.3226362e-06 1.1833513e-06 0.0 0.0
000260 3c e9 bc 36 0c 37 a8 36 00 00 00 00 00 00 00 00
       5.6299887e-06 5.0131985e-06 0.0 0.0
000270 6e c2 64 34 66 64 aa 34 09 8a 0e 37 79 80 ff 36
       2.1304888e-07 3.1738017e-07 8.495998e-06 7.6145484e-06
000280 ef a3 60 36 6c 28 49 36 00 00 00 00 00 00 00 00
       3.3474023e-06 2.9974863e-06 0.0 0.0
000290 0d fc 03 37 a0 a6 ec 36 a9 ec 0a 36 97 99 f8 35
       7.866894e-06 7.052746e-06 2.0701357e-06 1.852214e-06
0002a0 1a dd fd 38 e4 80 f8 38 13 cb e9 36 fb 8a d1 36
       0.000121051635 0.00011849569 6.967582e-06 6.244865e-06
0002b0 00 00 00 00 00 00 00 00 00 00 00 00 00 00 00 00
       0.0 0.0 0.0 0.0
0002c0 00 00 00 00 00 00 00 00 00 04 54 35 aa 4e 82 35
       0.0 0.0 7.8981975e-07 9.708649e-07
0002d0 93 a7 bf 33 04 14 c4 33 ab b5 38 35 4d 27 27 35
       8.924612e-08 9.130602e-08 6.8809703e-07 6.226954e-07
0002e0 00 00 00 00 00 00 00 00 00 00 00 00 00 00 00 00
       0.0 0.0 0.0 0.0
0002f0 e1 c7 d0 35 a4 d9 ba 35 00 00 00 00 00 00 00 00
       1.555538e-06 1.3921422e-06 0.0 0.0
000300 00 00 00 00 00 00 00 00 70 63 19 37 06 61 09 37
       0.0 0.0 9.142663e-06 8.188426e-06
000310 00 00 00 00 00 00 00 00 38 f1 8b 35 b3 36 6b 35
       0.0 0.0 1.0426511e-06 8.762392e-07
000320 60 3f d3 31 48 7b d3 31 c8 5b 33 33 ab b1 2f 33
       6.148113e-09 6.1549237e-09 4.176016e-08 4.090695e-08
000330 79 ba cf 37 56 01 b4 37 00 00 00 00 00 00 00 00
       2.4763156e-05 2.1458294e-05 0.0 0.0
000340 cc 80 17 37 53 db 07 37 06 84 15 37 8d af f1 36
       9.030289e-06 8.097692e-06 8.911831e-06 7.2027965e-06
000350 00 00 00 00 00 00 00 00 00 00 00 00 00 00 00 00
       0.0 0.0 0.0 0.0
000360 25 a9 ae 33 9e db a1 33 00 00 00 00 00 00 00 00
       8.1332736e-08 7.537095e-08 0.0 0.0
000370 bf e8 be 36 5d 00 ab 36 19 93 6a 36 e8 06 52 36
       5.6895365e-06 5.0962394e-06 3.495434e-06 3.1296458e-06
000380 00 00 00 00 00 00 00 00 00 00 00 00 00 00 00 00
       0.0 0.0 0.0 0.0
000390 00 00 00 00 00 00 00 00 6e 1f 52 36 53 1f 3c 36
       0.0 0.0 3.1310733e-06 2.8032416e-06
0003a0 5d 6b 16 36 b2 ad 06 36 3f 3f 85 36 79 82 43 36
       2.2414235e-06 2.006866e-06 3.9710717e-06 2.913321e-06
0003b0 98 49 71 35 f6 ee 57 35 36 ec e6 31 5a 85 dd 31
       8.988659e-07 8.0441475e-07 6.720735e-09 6.447107e-09
0003c0 00 00 00 00 00 00 00 00 83 a7 dc 35 2f 93 cc 35
       0.0 0.0 1.644003e-06 1.524202e-06
0003d0 c5 a1 5f 36 92 50 48 36 59 d9 d5 36 64 a0 bf 36
       3.3323752e-06 2.984922e-06 6.3731973e-06 5.7109155e-06
0003e0 41 fb 5f 3a 5b 3a 07 3a 6a 3c 35 36 ec 3d 22 36
       0.00085442147 0.0005158537 2.7006267e-06 2.4175924e-06
0003f0 6b 8d 75 36 d5 ed 5b 36 d8 f2 e0 36 3d 97 c9 36
       3.659016e-06 3.277198e-06 6.703991e-06 6.0078733e-06

grad_avg f4 [200]
000000 37 fa 14 bc 5d 28 5d 39 30 6b 46 b8 98 1d 6a 36
       -0.009092859 0.00021091239 -4.7306705e-05 3.4885943e-06
000010 c6 49 77 b7 ee 09 5c b9 00 00 00 00 4a 65 62 b8
       -1.4739524e-05 -0.00020984534 0.0 -5.397693e-05
000020 99 e3 63 b7 00 00 00 00 00 00 00 00 cb d9 21 b8
       -1.3583246e-05 0.0 0.0 -3.8588227e-05
000030 9d 69 2c b8 00 00 00 00 d9 6d 03 b8 94 4f 43 36
       -4.1106356e-05 0.0 -3.1335137e-05 2.9103585e-06
000040 00 00 00 00 f9 ab 10 bb 24 50 a5 b7 00 00 00 00
       0.0 -0.002207516 -1.9706851e-05 0.0
000050 44 22 25 b6 00 00 00 00 77 52 78 b7 69 66 01 b8
       -2.4606861e-06 0.0 -1.4801152e-05 -3.0851374e-05
000060 4c 3d 27 b7 69 06 ff b7 db df b5 b9 00 00 00 00
       -9.9682475e-06 -3.0401354e-05 -0.00034689796 0.0
000070 fe 82 15 26 81 66 f6 bb 00 00 00 00 00 00 00 00
       5.1872287e-16 -0.0075195436 0.0 0.0
000080 93 69 1c b8 5c 80 09 38 00 00 00 00 41 12 f2 b7
       -3.7291622e-05 3.278289e-05 0.0 -2.8857148e-05
000090 ad b3 1d 36 36 1c 22 b8 27 6d 31 b8 24 08 2b b8
       2.3499408e-06 -3.8650083e-05 -4.2301745e-05 -4.077716e-05
0000a0 00 00 00 00 7b 49 4c b8 88 07 5c b8 00 00 00 00
       0.0 -4.8705824e-05 -5.24591e-05 0.0
0000b0 00 00 00 00 d3 eb d3 37 b3 50 1e 36 00 00 00 00
       0.0 2.5262974e-05 2.3590808e-06 0.0
0000c0 9a 4d 0b ba e9 c5 bb 39 c9 37 33 b8 00 00 00 00
       -0.0005313993 0.00035814874 -4.272888e-05 0.0
0000d0 e1 69 65 b8 9f d3 52 b7 00 00 00 00 bf 34 2a 25
       -5.4696462e-05 -1.2566247e-05 0.0 1.476302e-16
0000e0 43 96 8b bb 1b 4c 2e b8 0a d7 2b 35 c3 77 25 b7
       -0.004259856 -4.155571e-05 6.4015387e-07 -9.862651e-06
0000f0 e9 b3 bd 39 eb 73 be b7 60 e8 05 37 de c0 de 36
       0.00036182933 -2.2703744e-05 7.981522e-06 6.6385683e-06
000100 68 3b 9f b9 00 00 00 00 0d d6 01 ba 00 00 00 00
       -0.00030371104 0.0 -0.00049528555 0.0
000110 7a 45 45 b9 f3 b6 5c b9 57 1d 03 3b 00 00 00 00
       -0.00018813266 -0.00021048989 0.0020006502 0.0
000120 00 00 00 00 14 10 03 b8 9c 05 9a b7 00 00 00 00
       0.0 -3.1247808e-05 -1.8360843e-05 0.0
000130 7c dc 4d 39 00 00 00 00 62 69 5f ba cb 98 41 b8
       0.0001963246 0.0 -0.0008522478 -4.6157085e-05
000140 ac 54 f3 b7 00 00 00 00 59 8d 39 b8 97 e0 bf b7
       -2.9007286e-05 0.0 -4.4239077e-05 -2.2873557e-05
000150 85 4d 92 bb b0 1f 2f b8 00 00 00 00 00 00 00 00
       -0.0044648075 -4.1752763e-05 0.0 0.0
000160 00 00 00 00 bd 51 36 bb ff a6 eb b8 e6 b1 4b ba
       0.0 -0.0027819716 -0.00011236779 -0.00077703444
000170 00 00 00 00 00 00 00 00 32 3f a5 b7 00 00 00 00
       0.0 0.0 -1.969896e-05 0.0
000180 00 00 00 00 8b d7 49 b8 00 00 00 00 80 56 46 39
       0.0 -4.8122874e-05 0.0 0.00018914975
000190 00 b6 4c 38 17 f8 d0 b5 9c c5 76 3b 00 00 00 00
       4.880689e-05 -1.5569411e-06 0.0037654405 0.0
0001a0 12 80 46 b8 f2 18 7f 3b 00 00 00 00 00 00 00 00
       -4.7326153e-05 0.003892478 0.0 0.0
0001b0 a6 34 c0 38 00 00 00 00 a9 55 1e b8 ef 8d f8 b7
       9.16508e-05 0.0 -3.7749913e-05 -2.9629997e-05
0001c0 00 00 00 00 00 00 00 00 00 00 00 00 38 24 ec b7
       0.0 0.0 0.0 -2.8150258e-05
0001d0 2e 80 c6 b7 89 8d 75 39 4a 0e 7e b7 5b 28 fd b8
       -2.3663128e-05 0.00023417747 -1.5142907e-05 -0.00012071497
0001e0 00 00 00 00 b9 b0 32 b9 62 38 f1 b7 cf 5b 27 b8
       0.0 -0.00017041237 -2.8755694e-05 -3.9901406e-05
0001f0 67 d5 f5 bc 6a 2c da b7 76 ab fd b7 00 aa 2b b8
       -0.030008985 -2.6008307e-05 -3.0239793e-05 -4.0927902e-05
000200 00 00 00 00 bf e7 5e b8 00 00 00 00 d7 47 dc b7
       0.0 -5.3144755e-05 0.0 -2.6259497e-05
000210 98 5e 68 bc 00 00 00 00 aa 40 10 3a 2c 6a 7e bc
       -0.014182709 0.0 0.00055028 -0.015528243
000220 00 00 00 00 5f 26 58 3a 9b f8 8b 39 87 b5 94 b7
       0.0 0.0008245464 0.00026697372 -1.7727505e-05
000230 77 ce 0f 3a c4 0f 88 b7 c7 f2 9d b9 3c b0 71 bb
       0.0005485783 -1.6219805e-05 -0.00030126257 -0.0036878726
000240 67 cd 34 b8 00 00 00 00 00 00 00 00 6a ac 44 3a
       -4.310664e-05 0.0 0.0 0.00075024983
000250 00 00 00 00 00 00 00 00 12 59 a6 ba 00 00 00 00
       0.0 0.0 -0.001269134 0.0
000260 00 00 00 00 7f 42 b2 39 b1 33 29 bc 00 00 00 00
       0.0 0.0003400035 -0.010327266 0.0
000270 db 93 54 3b 40 61 7a 3a 63 c4 00 ba 6f df 66 ba
       0.0032436762 0.00095512345 -0.00049120764 -0.0008807098
000280 00 00 00 00 53 e1 5d 35 f1 69 ef 3a 00 00 00 00
       0.0 8.2656805e-07 0.0018265826 0.0
000290 46 ef 5d ba 7e fa 6c bb 5f b5 12 b8 5e a3 57 b8
       -0.00084661355 -0.0036160047 -3.4978028e-05 -5.1412142e-05
0002a0 b0 20 0e b8 18 54 35 bc 00 00 00 00 a5 dd 15 38
       -3.388588e-05 -0.011067413 0.0 3.573079e-05
0002b0 00 00 00 00 46 14 fa 22 00 00 00 00 00 00 00 00
       0.0 6.77841e-18 0.0 0.0
0002c0 00 00 00 00 81 fd b4 b6 ea fb 2e b8 e3 0a 19 b8
       0.0 -5.3939298e-06 -4.1719446e-05 -3.648818e-05
0002d0 c6 7a 99 b7 00 00 00 00 14 b0 55 b8 70 26 6f b8
       -1.8296192e-05 0.0 -5.0947143e-05 -5.7017838e-05
0002e0 21 74 cd b7 00 00 00 00 b0 01 1d 3a 00 00 00 00
       -2.4491981e-05 0.0 0.0005989326 0.0
0002f0 89 e6 01 bd 00 00 00 00 00 00 00 00 00 00 00 00
       -0.031713996 0.0 0.0 0.0
000300 00 00 00 00 2d 16 be 35 c6 5a 51 b8 00 00 00 00
       0.0 1.4162557e-06 -4.9914022e-05 0.0
000310 00 00 00 00 d9 a6 9d ba 00 00 00 00 82 bd 91 39
       0.0 -0.0012027874 0.0 0.0002779775

sqr_avg f4 [200]
000000 67 b5 20 3c 64 5d 32 37 d3 c2 cd 3a e5 02 c0 2f
       0.009808875 1.0631371e-05 0.0015698321 3.4926653e-10
000010 7b 0c 1f 39 c7 74 4d 3a 00 00 00 00 83 8d 0c 3b
       0.00015168071 0.00078375306 0.0 0.0021446652
000020 ff e3 65 39 00 00 00 00 00 00 00 00 39 de 39 3a
       0.00021924077 0.0 0.0 0.00070903037
000030 fb d5 72 3a 00 00 00 00 a1 31 9d 39 42 d2 28 30
       0.0009263453 0.0 0.0002998235 6.141684e-10
000040 00 00 00 00 75 98 7f 39 40 dc bc 38 00 00 00 00
       0.0 0.0002437549 9.005563e-05 0.0
000050 0b 87 13 3a 00 00 00 00 fe 04 3f 39 f8 cc 95 39
       0.0005627728 0.0 0.00018217039 0.00028572208
000060 50 34 6e 39 71 1e 39 39 11 a6 29 3a 00 00 00 00
       0.00022716937 0.00017654315 0.0006471584 0.0
000070 9f 1d ee 2f c7 50 62 3b 00 00 00 00 00 00 00 00
       4.3312995e-10 0.003453301 0.0 0.0
000080 34 6b 1d 3a d2 0e 3d 39 00 00 00 00 6e 81 6b 39
       0.0006005049 0.00018029966 0.0 0.00022459563
000090 b9 eb 98 3a 3e 94 39 3a a6 69 88 3a 13 90 4d 3a
       0.001166693 0.000707928 0.0010407462 0.0007841598
0000a0 00 00 00 00 17 34 c0 3a ac bb 09 3b 00 00 00 00
       0.0 0.0014663961 0.0021016402 0.0
0000b0 00 00 00 00 b3 b7 e6 39 29 6a 96 3a 00 00 00 00
       0.0 0.00044005885 0.001147573 0.0
0000c0 8d 5a 86 39 2a 20 e0 39 b5 23 95 3a 00 00 00 00
       0.00025625937 0.00042748573 0.0011378439 0.0
0000d0 5b 5e 1b 3b fa 39 84 39 00 00 00 00 71 ec 6c 38
       0.0023707363 0.00025220198 0.0 5.6486988e-05
0000e0 b0 75 95 3a 9a 33 56 3a 76 52 75 3a 40 83 83 39
       0.0011402871 0.00081711414 0.0009358296 0.00025084056
0000f0 88 2f a2 35 3f de c2 38 8e 09 35 31 38 cc 51 31
       1.2083774e-06 9.2920374e-05 2.6344398e-09 3.0529588e-09
000100 64 e0 5d 39 00 00 00 00 18 20 d7 39 00 00 00 00
       0.00021159794 0.0 0.00041031907 0.0
000110 9c b8 d9 38 32 e1 d9 39 64 aa a5 3a 00 00 00 00
       0.000103817525 0.0004155725 0.0012639281 0.0
000120 00 00 00 00 9a 5f 76 39 d4 ad eb 38 00 00 00 00
       0.0 0.00023496003 0.00011238051 0.0
000130 6b d9 f6 39 00 00 00 00 56 b8 df 39 80 9c a0 3a
       0.00047082765 0.0 0.00042671215 0.0012253672
000140 42 05 57 39 00 00 00 00 ae e4 9f 3a 6d 07 c7 38
       0.00020505956 0.0 0.0012198889 9.4904426e-05
000150 38 29 9c 3b d7 bc 74 3a 00 00 00 00 00 00 00 00
       0.004765656 0.00093360007 0.0 0.0
000160 00 00 00 00 7d 7b 3c 39 24 71 a7 3a 32 4c c2 38
       0.0 0.0001797508 0.0012774807 9.264833e-05
000170 00 00 00 00 00 00 00 00 0c d0 a9 38 00 00 00 00
       0.0 0.0 8.0973e-05 0.0
000180 00 00 00 00 4e 87 ad 39 00 00 00 00 e7 75 30 39
       0.0 0.0003309794 0.0 0.0001682859
000190 fb 32 14 39 16 5a 4d 3a 84 39 1c 3a 00 00 00 00
       0.00014133372 0.0007833553 0.0005959498 0.0
0001a0 d2 5d d1 3a 90 eb cf 3a 00 00 00 00 00 00 00 00
       0.0015973395 0.001586305 0.0 0.0
0001b0 4c d6 a8 39 00 00 00 00 0a 76 0c 3a 12 fb 5a 39
       0.0003220312 0.0 0.00053581654 0.00020883631
0001c0 00 00 00 00 00 00 00 00 00 00 00 00 5c 6a 2b 39
       0.0 0.0 0.0 0.00016347453
0001d0 0f c1 e4 38 1a e0 21 39 c7 ee 28 39 73 16 f3 33
       0.00010907847 0.00015437641 0.0001611068 1.1319653e-07
0001e0 00 00 00 00 f3 d9 d5 38 d7 99 74 39 10 1b 4e 3a
       0.0 0.00010197228 0.00023326963 0.0007862309
0001f0 a2 ce 13 3d f3 d7 0e 39 13 59 8b 39 5b 1b 61 3a
       0.036085732 0.00013622623 0.00026578511 0.0008587145
000200 00 00 00 00 8e 4f 01 3b 00 00 00 00 66 bb 0d 39
       0.0 0.0019731256 0.0 0.00013516619
000210 83 22 48 3c 00 00 00 00 e3 8c 0a 39 d7 c1 78 3b
       0.0122152595 0.0 0.0001321319 0.0037957334
000220 00 00 00 00 27 11 5a 38 79 42 d8 39 a4 a1 c1 38
       0.0 5.1991225e-05 0.00041248256 9.233065e-05
000230 84 e3 0a 38 c8 13 19 39 7c 4a 9b 3a b6 1a 49 3a
       3.3113654e-05 0.00014598586 0.001184776 0.0007671522
000240 97 5f 64 3a 00 00 00 00 00 00 00 00 a9 60 86 38
       0.0008711754 0.0 0.0 6.407622e-05
000250 00 00 00 00 00 00 00 00 8b 00 e2 39 00 00 00 00
       0.0 0.0 0.00043106484 0.0
000260 00 00 00 00 29 80 82 37 f2 77 d4 3b 00 00 00 00
       0.0 1.5556887e-05 0.006484025 0.0
000270 15 5b 27 3a 5e fa 02 38 fa 8a 2d 39 39 e8 b6 3a
       0.0006384117 3.1227588e-05 0.00016550338 0.0013954706
000280 00 00 00 00 00 44 e3 30 19 a3 73 3a 00 00 00 00
       0.0 1.653575e-09 0.0009294018 0.0
000290 09 bc c3 39 8d 00 8b 3c 0d 88 c5 39 30 f8 db 3a
       0.00037333395 0.016968036 0.00037676134 0.001678234
0002a0 55 e9 d7 39 7b 5a f2 3b 00 00 00 00 08 64 62 3a
       0.00041181842 0.00739604 0.0 0.00086361216
0002b0 00 00 00 00 46 d1 ad 2f 00 00 00 00 00 00 00 00
       0.0 3.1617214e-10 0.0 0.0
0002c0 00 00 00 00 d0 4d 00 3a 7d 75 8b 3a f6 95 ed 39
       0.0 0.00048944075 0.0010639873 0.00045315892
0002d0 6a d1 c4 38 00 00 00 00 88 5a e9 3a 1b 2d 1e 3b
       9.385015e-05 0.0 0.001780347 0.0024135772
0002e0 d4 61 ea 38 00 00 00 00 81 8c cc 38 00 00 00 00
       0.000111762114 0.0 9.753649e-05 0.0
0002f0 76 66 26 3c 00 00 00 00 00 00 00 00 00 00 00 00
       0.0101562645 0.0 0.0 0.0
000300 00 00 00 00 25 3c 78 3a 69 f9 dd 3a 00 00 00 00
       0.0 0.00094694115 0.0016935292 0.0
000310 00 00 00 00 bf 19 59 3a 00 00 00 00 24 5b 10 39
       0.0 0.00082817295 0.0 0.00013766863

grad_avg f4 [1, 200]
000000 9f 06 94 bb cd 9b de 39 07 8e e7 ba a2 e6 89 31
       -0.004517391 0.0004245922 -0.0017666229 4.0134447e-09
000010 90 ac 2a 3a de f4 18 3b 00 00 00 00 c6 51 10 3a
       0.0006510699 0.0023339312 0.0 0.0005505349
000020 34 4b 6b 3b 00 00 00 00 00 00 00 00 c1 2f 39 39
       0.003590298 0.0 0.0 0.00017660765
000030 14 25 11 ba 00 00 00 00 e7 5d fd 39 38 1c f5 30
       -0.0005536836 0.0 0.00048325883 1.7834116e-09
000040 00 00 00 00 5d eb 8c 3b 72 b6 d2 3a 00 00 00 00
       0.0 0.0043005184 0.0016076101 0.0
000050 61 73 ad ba 00 00 00 00 09 6b 66 3b 36 06 0e ba
       -0.0013233238 0.0 0.0035159013 -0.00054177956
000060 97 57 8f ba 95 88 6a 3a 59 6b 63 3b 00 00 00 00
       -0.0010936138 0.0008946744 0.0034701435 0.0
000070 48 d2 ac 22 6d 4d 1d bb 00 00 00 00 00 00 00 00
       4.6843337e-18 -0.0024002448 0.0 0.0
000080 bb f9 b1 3a 9f 21 a8 3b 00 00 00 00 1c 78 b6 ba
       0.0013578454 0.005130961 0.0 -0.0013921293
000090 f3 48 ba 3a fc 6f e0 3a b6 9b a3 ba 95 58 7e 3b
       0.0014212414 0.0017123218 -0.0012482319 0.0038810123
0000a0 00 00 00 00 a8 a8 56 3b 2d ff 99 39 00 00 00 00
       0.0 0.0032754336 0.00029372555 0.0
0000b0 00 00 00 00 0d 38 58 3b 81 1d 05 3b 00 00 00 00
       0.0 0.0032992393 0.0020311775 0.0
0000c0 2d 62 27 3b 53 25 4c 39 27 32 8f ba 00 00 00 00
       0.0025540695 0.0001946886 -0.0010924981 0.0
0000d0 ae 20 33 ba d7 11 86 3b 00 00 00 00 a0 59 97 22
       -0.0006833178 0.004091482 0.0 4.1023526e-18
0000e0 7a 77 dc ba f2 5b 7b 3a f4 83 78 b9 44 b0 2c 3a
       -0.0016820275 0.0009588591 -0.0002370028 0.0006587545
0000f0 f8 c5 ef b6 c1 ee 47 3b 26 cd 51 31 12 4a 9a 31
       -7.1458016e-06 0.0030507299 3.0530116e-09 4.4904107e-09
000100 89 3f 41 37 00 00 00 00 5d 5e 63 3b 00 00 00 00
       1.1518489e-05 0.0 0.0034693696 0.0
000110 7d f9 39 3b 00 da 91 3a e1 7f 46 bb 00 00 00 00
       0.0028377466 0.0011127591 -0.0030288624 0.0
000120 00 00 00 00 8a 92 a9 3a 6a f9 88 3b 00 00 00 00
       0.0 0.0012937349 0.004180123 0.0
000130 04 98 3b 3b 00 00 00 00 a3 b1 27 bb 3f 32 83 3b
       0.0028624544 0.0 -0.0025588057 0.0040037925
000140 e7 f0 93 3a 00 00 00 00 7a d3 3c ba d3 92 6f 3b
       0.0011287004 0.0 -0.00072031433 0.003655602
000150 c4 cc 89 3b c0 1c 1b 3a 00 00 00 00 00 00 00 00
       0.004205318 0.0005917065 0.0 0.0
000160 00 00 00 00 ea a0 13 3b 6d 31 8b 3a b9 6f ca ba
       0.0 0.0022526332 0.0010619588 -0.0015444673
000170 00 00 00 00 00 00 00 00 01 dd 35 3a 00 00 00 00
       0.0 0.0 0.0006937534 0.0
000180 00 00 00 00 e7 0d 1e 3a 00 00 00 00 b4 8c 8c 3b
       0.0 0.0006029293 0.0 0.004289234
000190 68 68 35 ba 3d cc 82 3a 8a 23 ef 3a 00 00 00 00
       -0.000692016 0.0009979081 0.0018244844 0.0
0001a0 96 84 f1 ba 1f a9 83 3b 00 00 00 00 00 00 00 00
       -0.0018426355 0.0040179635 0.0 0.0
0001b0 2f 29 c6 ba 00 00 00 00 02 1b e1 3a a5 3e f1 3a
       -0.0015118475 0.0 0.0017174187 0.001840551
0001c0 00 00 00 00 00 00 00 00 00 00 00 00 2f 88 24 3b
       0.0 0.0 0.0 0.0025105586
0001d0 a7 12 df ba 06 d4 14 3b 11 59 25 3b 26 df 80 37
       -0.0017019109 0.0022709384 0.002523009 1.53627e-05
0001e0 00 00 00 00 df 3e 71 3b bf 59 51 ba f5 c5 23 3b
       0.0 0.0036811156 -0.00079860905 0.0024989818
0001f0 bc 34 1a bc 88 44 cf 3a 19 c3 27 39 45 b0 bb 3a
       -0.009411987 0.0015813271 0.0001599904 0.00143195
000200 00 00 00 00 26 24 63 3b 00 00 00 00 eb 65 15 3b
       0.0 0.0034658997 0.0 0.0022796344
000210 7e 02 17 bb 00 00 00 00 30 7e 2c 3b 5e 19 e4 bb
       -0.0023042257 0.0 0.002632033 -0.006961032
000220 00 00 00 00 c3 69 34 3a 89 1e e4 3a 60 76 af 3a
       0.0 0.0006882215 0.001740412 0.0013386719
000230 75 c5 c6 b8 73 d9 41 3b 1f db 81 3b ec cf fa 3a
       -9.478155e-05 0.0029579073 0.003962889 0.0019135452
000240 ca ba 38 3a 00 00 00 00 00 00 00 00 08 32 97 b8
       0.00070468767 0.0 0.0 -7.20956e-05
000250 00 00 00 00 00 00 00 00 8a a5 36 3b 00 00 00 00
       0.0 0.0 0.0027869665 0.0
000260 00 00 00 00 bc 35 a6 39 89 dd 0a bb 00 00 00 00
       0.0 0.00031702023 -0.0021189174 0.0
000270 b1 5f a9 bb d1 f6 bc 39 74 fb 4b 3b 3a 34 02 3b
       -0.005168878 0.00036042047 0.003112522 0.0019867555
000280 00 00 00 00 c9 a1 61 30 cb 14 bc ba 00 00 00 00
       0.0 8.2084434e-10 -0.0014349459 0.0
000290 95 47 5c 3b 62 38 01 bc 6a 8c f5 3a de c5 7b 3a
       0.0033612002 -0.007886978 0.0018733863 0.00096043746
0002a0 b7 65 cd 3a a2 ba 27 bb 00 00 00 00 57 7e 63 3b
       0.0015670572 -0.002559342 0.0 0.0034712756
0002b0 00 00 00 00 70 1b c3 20 00 00 00 00 00 00 00 00
       0.0 3.3052442e-19 0.0 0.0
0002c0 00 00 00 00 c9 a3 54 ba 12 7d 07 bb 16 96 c4 39
       0.0 -0.0008111564 -0.0020673913 0.00037495856
0002d0 b5 cb 1f 3b 00 00 00 00 06 1c 8f b9 e4 79 84 3b
       0.0024382893 0.0 -0.00027295965 0.004042851
0002e0 5c f6 eb 39 00 00 00 00 3d ec 40 3a 00 00 00 00
       0.00045006245 0.0 0.0007359421 0.0
0002f0 fc c5 01 bc 00 00 00 00 00 00 00 00 00 00 00 00
       -0.007920738 0.0 0.0 0.0
000300 00 00 00 00 c0 fe 59 3a ca c3 35 3a 00 00 00 00
       0.0 0.0008315854 0.0006933777 0.0
000310 00 00 00 00 5e a8 57 3b 00 00 00 00 88 16 99 3b
       0.0 0.003290675 0.0 0.0046718754
