trees/save/tree/9bits/split_75.0_0.1_5_50/models/model.pth (torch, 82006 bytes, 12 tensors)

embedding_layers.weight f4 [494, 9]
00000000: 4eac 143c c81d ec3a 3f3a 373c 4637 3bba
00000010: d850 6cbc a22d 10bc 07a8 f33b 6a9c a43b
00000020: c91c 903b c49f a9bb 86a2 703c 7c8a 1fbc
00000030: 90f2 4ebc 28f3 023c 35eb 2cbb 8a83 553a
00000040: 0a4e c63b 3ef5 723b a96e a83b a670 debb
00000050: de6d 38bc 45d5 a93b ebb1 36bb 0da6 da3b
00000060: 8cea 693b 2ebc 82bb 189e 06bc b92e fbbb
00000070: 1954 863b 2e48 a53b 470c 203c 7f5c a4bb
00000080: 76d1 f3bb 9d04 3b3c b0ce 2bbc 4e7c 6c3a
00000090: 5239 bdbb 4e11 43bc aaae 56bc ebb9 d0b9
000000a0: 47ea 0c3b 901f 2e3c abcb 50bb 4e26 dd3b
000000b0: b967 813c 674e 20bc 777b b53b ecb4 593b
000000c0: 9fd6 88bc 8a6d 90bb e477 d6bb e740 483c
000000d0: 34b3 1abc ec53 b63b 8733 463c f93f f2bb
000000e0: 758f aa3a 3d2d d53a 575f 993b f962 093c
000000f0: 41da 933a 9a29 34bc 2034 b33a f785 89bc
00000100: b108 d439 ea7f 7b3b 1c5f 7a3c 7542 023b
00000110: 180f ab3a 3c67 2f3b e3c3 e9bb c923 32bc
00000120: 3e04 3bbb 13ba 623b 35b1 303c 633b e23b
00000130: 80e1 6e3c 6ea1 01bc b738 f0bb bd85 1ebb
00000140: 7a62 0cbc 9895 81ba 3801 cc3b e36c af3a
00000150: f000 023c 1fd6 57bc ea8c 58ba 567d 00bc
00000160: 5849 b038 6993 873c fcfd 8fba a5b3 f23b
00000170: 9486 2cbc 3521 f03a d199 1bbc afac 63bc
00000180: d6c7 3cbb 7051 49ba c381 7bbb fad2 3d3a
00000190: 19c3 19bb d11e 703c 92e2 62bb 878d d73b
000001a0: e7e0 2a3b 6c3e 16bc 1973 0a3b 94dc 243c
000001b0: c12c 4cbb 30c9 893b 05de daba dbed 3abb
000001c0: cc2b c83b 434e 593c 92c1 87ba 0dd6 a8bb
000001d0: e0cf 0bbb 3431 973b 3850 9f3b 8a0a 7f39
000001e0: 67fa a73b c673 0d3c 073a 50bb ee9a 31bb
000001f0: 1fd1 f83b 533c d63b 50c1 1e3b ed22 683a
00000200: 7e06 1d3c 7c0d 22bc 970a 9dbb 8770 6d3c
00000210: ceb6 c03b 2314 e1bb 2126 cabb 4ecf 88b9
00000220: eaf1 68bc 6030 8abc 0261 e6bb 31c2 6eba
00000230: 9f78 26b8 dd63 c93b 8122 84bc b812 95bb
00000240: 1993 a0bb 1488 383b 979c 2ebc 64f4 8c37
00000250: aa8b fdbb 6c25 bb3a f525 69bc 2c97 a73b
00000260: 7889 193c 09fa b0bb fdf3 823b ee28 803c
00000270: 4d47 a5bb 60f6 4abb bc3f 85ba 0260 1b3c
00000280: 1f39 d23a 3e33 cfbb 697a 84bb 3249 dabb
00000290: 621f 203c e51c 5939 3163 b1ba 7efb 593a
000002a0: 8a7e 7db9 1d91 4a3a 7dd1 d43b 46d8 c03b
000002b0: 79fa bb3b 9cfb 8a3b e9cc 303c 8351 2b3c
000002c0: 9ce9 5d3b a0cc 4a3c 1714 09bc d8ab 503c
000002d0: bef5 be3b 1f47 c43b 294a 7c3a 288e eb3b
000002e0: a508 433b f87f 06bb 59b6 c5ba aef3 323b
000002f0: dfbc 303b 81b2 403c d107 693c 209f 9f3b
00000300: fe95 a5b8 fd7d 413c a93f dbbb 7c42 243c
00000310: 88c9 1b3b 6e36 99bb aa86 e5bb f08a 75bc
00000320: dc96 adbb 34a5 7bbb d51a cfbb 2cb1 bd3b
00000330: a9e2 cbbb d4b6 c039 7d21 183c 7e80 8ebb
00000340: db6e 0d3c 334f febb eb07 ea3a 9775 2abb
00000350: 9d1e 063c 253c 34bb 9b3a 3938 db41 cebb
00000360: 049f 8b3c 3375 93bb 3483 b3ba 5bad 2c3b
00000370: bc9a 00bc 26f8 203a 4bfa 373b 2626 7ebc
00000380: 1adf 49bb 4af6 a2ba 4bb9 95bb f751 243b
00000390: b47e 703b d172 3fbc 1295 c538 71b4 6c3b
000003a0: 6bb7 a0ba f8db 57bc e288 43bb e8dc b23a
000003b0: 8f30 35bc 0845 653c 427d 993a dcc8 15bc
000003c0: 789b 15bb be10 3cbc d62c 37bc 80db 5f3a
000003d0: 73f6 cb3a ccd6 83bb ff50 e8bb 833f bbbb
000003e0: 98a7 84bb 2248 6bbb 8c65 503c 9e3c 70b9
000003f0: 3256 17bc 0e3e a3bb 8bfd 5e3c 732a 05ba
0.009074284 0.0018014247 0.011183321 -0.000714172 -0.0144235715 -0.008799942 0.007435802 0.005023529
0.0043979627 -0.0051765162 0.014687186 -0.009737607 -0.012631074 0.007992543 -0.0026385312 0.0008144906
0.0060517834 0.0037072445 0.005140145 -0.006788331 -0.011256663 0.0051828944 -0.0027877043 0.006672627
0.003569278 -0.003989718 -0.008216403 -0.007665482 0.0040993807 0.005044005 0.009768552 -0.005015909
-0.007440741 0.011414674 -0.01048629 0.00090212084 -0.0057746554 -0.011905981 -0.013103167 -0.0003981137
0.0021501945 0.010627642 -0.0031859677 0.006748951 0.01579653 -0.009784318 0.0055384 0.003321941
-0.016703902 -0.0044075893 -0.006545054 0.012222505 -0.009442139 0.0055642035 0.012097246 -0.00739288
0.0013012724 0.0016264092 0.004680555 0.008385413 0.0011280255 -0.010996247 0.0013672151 -0.016787512
0.00040442267 0.0038375803 0.015281465 0.0019876037 0.0013050763 0.0026764413 -0.007133947 -0.01087279
-0.0028536464 0.0034595772 0.010784437 0.006904052 0.014580131 -0.007912023 -0.0073309797 -0.00241886
-0.0085684005 -0.0009886501 0.006225731 0.0013383891 0.007934794 -0.013173609 -0.0008260744 -0.007842382
8.405995e-05 0.016549783 -0.0010985727 0.007406669 -0.010530133 0.0018320443 -0.009497122 -0.013896151
-0.0028805635 -0.00076796766 -0.0038376905 0.0007241216 -0.0023462235 0.014655785 -0.003461991 0.0065781507
0.0026073994 -0.009170156 0.0021125732 0.010062356 -0.0031154605 0.0042048916 -0.0016698247 -0.002852312
0.0061087366 0.013263288 -0.0010357371 -0.00515247 -0.002133362 0.0046140198 0.0048618577 0.00024322621
0.005126286 0.00863356 -0.0031772868 -0.0027100402 0.0075932886 0.006537953 0.002422411 0.0008855302
0.009584067 -0.00989091 -0.004792522 0.014492161 0.005881167 -0.0068688556 -0.006169096 -0.00026094395
-0.014217833 -0.01686877 -0.007030607 -0.0009107916 -3.968982e-05 0.006145938 -0.016129734 -0.0045493506
-0.004900348 0.002815728 -0.010657451 1.6803104e-05 -0.0077375965 0.001427812 -0.014230241 0.0051144566
0.009371154 -0.0054009003 0.003996371 0.015644517 -0.0050439 -0.0030969605 -0.0010166089 0.009483339
0.0016038752 -0.006323247 -0.0040429127 -0.0066615576 0.009773107 0.00020705497 -0.001353359 0.00083153683
-0.000241751 0.0007727312 0.0064946995 0.005885157 0.005736646 0.00424142 0.010791042 0.010456446
0.0033861166 0.012377888 -0.008366606 0.012736283 0.0058276346 0.0059899236 0.0009624088 0.007188577
0.0029759791 -0.0020523053 -0.0015084251 0.002730589 0.0026968045 0.011761309 0.014223055 0.004871264
-7.895751e-05 0.011809823 -0.0066909385 0.010025617 0.0023771245 -0.004675678 -0.0070045786 -0.014986739
-0.005297525 -0.003839803 -0.0063203373 0.005788943 -0.0062220884 0.0003675731 0.009285328 -0.0043488136
0.008632387 -0.007760906 0.0017855143 -0.002601003 0.00818601 -0.002750167 4.4162018e-05 -0.0062944717
0.017043598 -0.004500055 -0.0013695718 0.0026348445 -0.007849392 0.00061404926 0.002807277 -0.015512025
-0.0030803145 -0.0012433019 -0.004569208 0.002507327 0.0036696615 -0.011685089 9.4214585e-05 0.0036118294
-0.0012261694 -0.013175003 -0.0029836227 0.0013646157 -0.011058941 0.013993509 0.0011710303 -0.009142127
-0.0022828262 -0.011478601 -0.011180123 0.0008539483 0.0015561118 -0.0040234085 -0.0070897336 -0.0057143583
-0.004048299 -0.0035901149 0.012719523 -0.00022910765 -0.009236859 -0.0049817627 0.013610254 -0.0005079873

layers.0.weight f4 [100, 18]
00000000: c52b 3bbe cf35 053e 359f 0c3f dce9 04be
00000010: 3414 28be 5c53 38bd 8119 3e3e e2e5 5bbe
00000020: 5df4 2e3e a8fb 35be c902 cfbb c400 02bf
00000030: a594 aabe f549 c5be 82ce 373d a1a3 36bd
00000040: 4a0e 3c3e a001 723e a4cc 1dbb c2c9 173f
00000050: ef08 d0bc e13a db3c df17 953e 0910 4c3e
00000060: 556c d53e d382 c03e 2c8d 63be 7e66 1abd
00000070: 3089 9a3e 1b1a ec3d c477 1f3e 3cdf 82be
00000080: 0f59 69be 222b acbe c32d 77be ed86 b33d
00000090: f13d 683e a99f 8dbe 9547 983d 9783 f6bd
000000a0: 2014 b13e c764 573e f612 4fbe 117b 4cbe
000000b0: 9044 fd3d 6870 c5be 4260 393e df2e 2bbe
000000c0: aa86 e73e 0b4e 61bd 3112 233e f0d2 47be
000000d0: 2f07 4bbe 19bb e9be 2649 debc 2e45 483e
000000e0: cb36 4e3d 9ff4 603e 1099 8abe 7103 8c3d
000000f0: b77b ecbd 258c b83d 2278 b53b 6fb3 34be
00000100: 0a4a 94be b001 d83e df0d 033e 8f23 ccbd
00000110: 718d d73d 4db2 0d3f 8890 e8be dd39 983d
00000120: 1274 aebe d816 783e f092 09be 2c4d a5be
00000130: 86c0 943e e524 60be fc9f 28be 4ff5 7c3e
00000140: 56f7 48be b1e1 4a3e d23b 94bc 99c9 1c3a
00000150: 46b8 b0bc e0f3 0ebe 0366 c4bb 5ffa 33be
00000160: 6945 cabb 4871 ee3d eadf 3d3e f2c0 f93c
00000170: 7421 1bbc 91bb bbbe 67ad 2a3e 006e 92be
00000180: d2a6 6dbe 9cd1 8b3e 6574 543d e96f ca3e
00000190: 290c f3be 3503 303e 8636 383e 5916 423e
000001a0: e646 173e c2da eebc 36fd 223e a09b f73d
000001b0: 856e 59be 4e78 843d d66b 113e 161f adbc
000001c0: f749 78be 65f2 8b3d e973 2c3e 881c 2d3d
000001d0: 5609 cfbd 8f29 1b3d 4c81 c43d 8b32 82bd
000001e0: c467 703c 0adb b43d 6173 1d3e 68f1 1bbe
000001f0: f59d 3b3e be64 afbd 22a2 11be 330c ec3d
00000200: 97f5 f9bc 0355 85bc bd94 a7bd 30ae a03d
00000210: e715 acbc 7878 c93b f983 75bd 7292 c7be
00000220: be77 5abe 9b7b 0b3f 2102 f93d a817 3ebe
00000230: 6f10 1a3e f7d7 093f 96a9 98be 4ba5 473e
00000240: e388 1abe 2418 9cbe deb6 fdbd 03ce 09be
00000250: a50b 84bd a189 a53e 3883 a83e 9c60 8b3e
00000260: c0e3 793e 4ad0 843c 0f4a 77bd c540 c5bc
00000270: f07e 22be a3bc cbbe 9ed7 03be b814 84bd
00000280: 50d1 cb3d 946a 34bd d08c e33d 7c9b 8e3c
00000290: 349a 183e e35b 173d aa71 2d3e 079f b53d
000002a0: c055 c03d 3db0 c7bb acae 393d c81d 873e
000002b0: 5614 e53c 01fc 0abf 0fa8 e4be c46e 923e
000002c0: 9c91 06be bccc 893e 5b63 aebe 29a7 ebbe
000002d0: 9882 05bf bd8e 4bbe cd61 c83e fc43 04bd
000002e0: e121 30bd 7dd5 3fbe f558 b0bd 6831 66be
000002f0: fbc9 bbbe 9948 a4be 0161 913e e7e4 5fbe
00000300: 3576 d63b dcc0 173d d34b e6bd d47c 313d
00000310: 5905 883d fb90 5a3d 4cd2 213d 8d13 2dbc
00000320: aa9e 5cbc dae8 f33d 40f5 293e ecd9 703e
00000330: 7756 29be ee9c e43d 32b7 b6bc fd50 933c
00000340: 52fd 34bd 0e08 253e fc0f 4dbe 933d 8e3d
00000350: d1e4 613e 5562 c43d a117 0ebe f31f ad3e
00000360: 064f debe 66dd 83be e894 87be f633 09be
00000370: 439f 9ebe a253 6a3e 34e1 81be 13b5 be3e
00000380: e0a4 373e d892 353e 6500 9b3d 2e25 113e
00000390: fa97 58bd 5df7 833d 3509 943d 4c56 293e
000003a0: 3120 3bbe a23b 463d 732d 0cbe 0973 22be
000003b0: abc2 ddbc d84d fbbd cef6 b33e bc11 ba3e
000003c0: 8072 95bd 5662 3dbc 246a e1bd 3c0e 5a3c
000003d0: d3b2 97bc c0ba a93c 352d 27be 8830 823e
000003e0: cda5 323e 6f9a 87bd 06cd 04be d942 d1bd
000003f0: fe4a 823e f84a 8ebe ef8d 293e c87a aebd
-0.18278416 0.13008808 0.5493043 -0.12979835 -0.16413957 -0.045001373 0.18564416 -0.21474412
0.17085405 -0.1777178 -0.0063174707 -0.5078242 -0.33316532 -0.38532987 0.044874676 -0.044589642
0.18364826 0.23633432 -0.0024078274 0.59292233 -0.025394885 0.026761474 0.29119775 0.19927992
0.41684213 0.3759981 -0.22221822 -0.0376954 0.3018279 0.11528417 0.1557303 -0.2556094
-0.2278788 -0.33626658 -0.2413855 0.087659694 0.22679879 -0.27660874 0.07435528 -0.120368175
0.34585667 0.21034537 -0.20222077 -0.19968821 0.12366593 -0.38562322 0.18103126 -0.16717099
0.45219928 -0.05500607 0.15924908 -0.1951406 -0.19826959 -0.45650557 -0.02713449 0.1955764
0.050345223 0.21968316 -0.27069902 0.06836594 -0.11547034 0.090111054 0.0055380026 -0.17646573
-0.28962737 0.42188787 0.1279826 -0.0996772 0.10525025 0.5535019 -0.4542277 0.074329115
-0.3407293 0.24227464 -0.13434958 -0.3228544 0.29053134 -0.21889074 -0.16467279 0.24702953
-0.19625601 0.19812657 -0.01809493 0.0005980968 -0.021572243 -0.13960218 -0.005993606 -0.17575978
-0.006172825 0.116427004 0.18542448 0.030487511 -0.009468425 -0.3666654 0.1666771 -0.28599548
-0.23208168 0.27308357 0.051868815 0.39538506 -0.47470215 0.17188723 0.17989549 0.18953837
0.1477314 -0.029157046 0.15916905 0.1209023 -0.21233566 0.06468259 0.14201292 -0.021132987
-0.24246965 0.068333425 0.16841091 0.042263538 -0.101092026 0.03788143 0.09594974 -0.063572966
0.014673177 0.08830841 0.15376045 -0.15228808 0.18321975 -0.08564137 -0.14222005 0.11525764
-0.030512614 -0.016275888 -0.081826665 0.07845724 -0.021006538 0.006148394 -0.059940312 -0.38978916
-0.2133474 0.5448548 0.12158609 -0.18563712 0.15045331 0.5384516 -0.29816884 0.19496648
-0.1509128 -0.30487168 -0.12388395 -0.13457493 -0.064475335 0.32331565 0.32912612 0.27222145
0.24403286 0.016212601 -0.060373362 -0.024078736 -0.15868735 -0.39792356 -0.1287522 -0.06449264
0.099520326 -0.044046953 0.11110842 0.017408125 0.14902574 0.036952864 0.1693789 0.08868223
0.093913555 -0.0060940073 0.045332596 0.2638991 0.027963798 -0.5429078 -0.4465947 0.28600132
-0.13141483 0.26914012 -0.34060177 -0.4602597 -0.52152395 -0.19878669 0.39137116 -0.032291397
-0.04300106 -0.18733783 -0.08610717 -0.22479784 -0.36677536 -0.32086638 0.2839432 -0.21864663
0.006544853 0.03704916 -0.11244931 0.043331936 0.06641645 0.05336092 0.039507195 -0.010563743
-0.013465563 0.11909647 0.16597462 0.2352063 -0.1653689 0.111627445 -0.022304151 0.017982954
-0.044186898 0.16116354 -0.20025629 0.06945338 0.22059943 0.09589068 -0.13876201 0.33813438
-0.43419665 -0.2575485 -0.26480794 -0.13398728 -0.30980882 0.22883466 -0.2536713 0.37247524
0.17933989 0.17731798 0.075684346 0.14174339 -0.05287931 0.06443665 0.072283186 0.16536826
-0.18273999 0.048396714 -0.13689213 -0.15864195 -0.027070364 -0.12270707 0.35149235 0.36341655
-0.0729723 -0.01155909 -0.11006573 0.013309058 -0.018517887 0.020718932 -0.16325839 0.2542765
0.1744606 -0.06621253 -0.12968835 -0.10217828 0.2544784 -0.27791572 0.1655805 -0.085195124

layers.0.bias f4 [100]
00000000: 25b2 c1be 2df1 41bc 5c3c 9bbe 7b16 89be
00000010: 7634 27bf 138d 083e 871c 30bf fd6c 603c
00000020: 0b01 69bf 7bfd e9bd 455f 90be 3e78 2ebf
00000030: fc91 4ebf e79b cabe a5ad 40bf 66bd 4b3d
00000040: 6205 39bf 48ed 68bf 427d 84bd 5218 aabe
00000050: d3fe e7be d0fc f73b 1d38 40bf 0d1b adbe
00000060: d87e a43e 6d6f 3abe e526 38bf d02d 0cbd
00000070: 7ed7 eabd fd7c cd3d c849 0dbf 7e3f 6e3e
00000080: 0a6a 18be baa2 9bbe ba42 cdbe 0969 323b
00000090: cac4 4bbf be83 6f3c 5549 c2bd 5b2b 783d
000000a0: 62ab a5be 2fa4 173c ccae f7bd 017f babe
000000b0: 7ed4 47bf 7346 8fbe bd4b 42bf a32b ddbe
000000c0: 1a93 ff3d 9670 40be 1a8c 42bf f8d4 e6be
000000d0: 48d7 edbd ee7d 013d f22a 57bf 19d7 97be
000000e0: bc13 94be 18bf 81be 8d97 cfbc e531 a23d
000000f0: 1097 2ebf 9217 ee3d 214a 703a 74ee 3a3e
00000100: 5b02 e2be 9a80 10bf 919f 113e ff8b bebe
00000110: d5c4 b0bc 12d8 d6be f05a 4fbe 3c82 06be
00000120: ec1b 98be 659d 95be 9b63 c8be bafb 3abf
00000130: ac1c 383b b385 14bf 1293 f63b 68ff 33bf
00000140: cd11 22bf 7874 bdbe c067 14bd eb99 babe
00000150: 79e9 65be 2950 40bf 661a b83e 2390 2f3e
00000160: 07fd 40be 7378 0bbb e1c9 4dbe 5627 d2be
00000170: 99b5 97bb 769a febe b910 23be f690 3fbd
00000180: 4c69 863e b76d 4f3d 4630 07bf b5d6 f2be
-0.37831226 -0.011837286 -0.30319488 -0.26774964 -0.65314424 0.13335066 -0.6879353 0.01369786
-0.91017216 -0.11425301 -0.28197685 -0.68152225 -0.80691504 -0.3957207 -0.7526496 0.04974117
-0.7227384 -0.9098706 -0.064692035 -0.3322168 -0.45311603 0.0075679794 -0.7508562 -0.338097
0.32128024 -0.18206568 -0.7193435 -0.034223378 -0.11466883 0.10033605 -0.55190706 0.23266408
-0.148842 -0.30397588 -0.4008997 0.002722325 -0.7959715 0.014618812 -0.09486643 0.060588222
-0.32357317 0.009255453 -0.12093887 -0.3642502 -0.7805861 -0.27983436 -0.7589682 -0.43197355
0.12479229 -0.18792948 -0.7599503 -0.45084357 -0.11613327 0.031614237 -0.84049904 -0.29656294
-0.28921306 -0.25341105 -0.02534082 0.07919673 -0.68199253 0.116255894 0.00091663195 0.18255025
-0.44142422 -0.5644623 0.14221026 -0.37216184 -0.021578232 -0.41961724 -0.20249534 -0.13135618
-0.29708803 -0.29221645 -0.39138493 -0.73040354 0.0028093262 -0.5801651 0.0075248564 -0.70311594
-0.6330841 -0.3700292 -0.036231756 -0.36445555 -0.22452344 -0.75122315 0.3595764 0.17144828
-0.18846522 -0.002128151 -0.20096542 -0.41045636 -0.0046298024 -0.4972722 -0.15924348 -0.046769105
0.2625221 0.05064174 -0.52808034 -0.47429433

layers.2.weight f4 [1, 100]
00000000: f4e2 53be e80b 76be c355 61be 697c 2dbe
00000010: 85ca c5be cd94 0abe 6c3a cd3e 9c88 39be
00000020: 571e d7be 9523 3dbe ba41 35be 604f bfbe
00000030: c276 0fbf 9c8c 893e 4ab5 b9be 6061 87be
00000040: 4bfe c0be 0b29 c63e 3292 cebd 9128 3abe
00000050: 4ebf 4f3e b14c 8d3e d4b5 f1be 17b3 3dbe
00000060: 5453 6fbe d359 973e 22d6 fbbe 613f 15be
00000070: 0f26 39be 1430 f5bd 5c6b a23e de06 c7bd
00000080: b5b6 a9bd 87cb 43be e6d0 a4bb d8ee 9e3e
00000090: 8326 08bf eaeb a73e 69a8 1cbe f793 0bbe
000000a0: 89fb 4bbe a4c4 d93e 2e7f 73be 789e b73b
000000b0: 4336 f03e 13ba 0cbe 6b3c d2be b164 89be
000000c0: 9957 a8bd 5685 2dbe 5f5a ca3e 147c 823e
000000d0: 5bda 61be bd58 8d3e b768 cf3e f5aa a4be
000000e0: 7f07 fdbd b31e 5abe a414 22be 5c1d 19be
000000f0: 5eec e63e c655 95bd 8f79 c53e 5e12 14be
00000100: 0395 1bbe 4271 8ebe 5e09 22be eb5a a3be
00000110: dc4c cfbd 4e54 21be f71f 843e 132b 48be
00000120: d347 ecbd 8b10 36be c94e 1bbe 2a8f cf3e
00000130: 2582 9b3e e253 b83e 62ac 41be f038 ccbe
00000140: 34ec f3be 09a2 3cbe 139d 07be 72a6 71be
00000150: b57c 7f3e de72 edbe bc7b 02be 3c0d 43be
00000160: 0ceb 3fbe e3b3 973e f4a7 64be 0f7b 21be
00000170: dd2b b13e d034 a0be 3d73 02be d299 89bd
00000180: 43ee 38be e7dc 2abe 7e77 8ebe b2a3 07be
-0.20692044 -0.2402798 -0.22005372 -0.1694199 -0.38631073 -0.13533325 0.40083635 -0.18118519
-0.42015335 -0.18470605 -0.17700854 -0.37365246 -0.56040585 0.2686509 -0.36271125 -0.2644148
-0.3769401 0.38703188 -0.10086478 -0.18179537 0.2028782 0.27597573 -0.47209036 -0.18525349
-0.23371631 0.29560718 -0.49186808 -0.14574958 -0.18080924 -0.11972061 0.31722534 -0.09718107
-0.08286802 -0.19120608 -0.0050297854 0.31041598 -0.53183764 0.32797176 -0.15298618 -0.13630663
-0.19920172 0.42532837 -0.23778984 0.0056036077 0.46916398 -0.13742857 -0.4106172 -0.26834634
-0.08219833 -0.16945395 0.39522073 0.2548529 -0.22055952 0.27606764 0.4050958 -0.3216168
-0.123549454 -0.21300773 -0.15828186 -0.14952606 0.4510221 -0.072917506 0.38569304 -0.14460132
-0.15193562 -0.27820784 -0.15823886 -0.31905302 -0.10122082 -0.15754816 0.25805637 -0.19547682
-0.11537137 -0.17779748 -0.15166773 0.40538913 0.3037273 0.36001498 -0.18913415 -0.3988719
-0.47641146 -0.18421187 -0.13243513 -0.2359865 0.24949916 -0.463767 -0.12742513 -0.19048017
-0.18742007 0.2962943 -0.22329694 -0.157696 0.34603778 -0.31290293 -0.12739272 -0.06718792
-0.1805964 -0.1668583 -0.2782554 -0.13246039

grad_avg f4 [494, 9]
00000000: 0000 0000 0000 0000 0000 0000 0000 0000
00000010: 0000 0000 0000 0000 0000 0000 0000 0000
00000020: 0000 0000 0000 0000 0000 0000 0000 0000
00000030: 0000 0000 0000 0000 0000 0000 0000 0000
00000040: 0000 0000 0000 0000 0000 0000 0000 0000
00000050: 0000 0000 0000 0000 0000 0000 0000 0000
00000060: 0000 0000 0000 0000 0000 0000 0000 0000
00000070: 0000 0000 0000 0000 0000 0000 0000 0000
00000080: 0000 0000 0000 0000 0000 0000 0000 0000
00000090: 0000 0000 0000 0000 0000 0000 0000 0000
000000a0: 0000 0000 0000 0000 0000 0000 0000 0000
000000b0: 0000 0000 0000 0000 0000 0000 0000 0000
000000c0: 0000 0000 0000 0000 0000 0000 0000 0000
000000d0: 0000 0000 0000 0000 0000 0000 0000 0000
000000e0: 0000 0000 0000 0000 0000 0000 0000 0000
000000f0: 0000 0000 0000 0000 0000 0000 0000 0000
00000100: 0000 0000 0000 0000 0000 0000 0000 0000
00000110: 0000 0000 0000 0000 0000 0000 0000 0000
00000120: 0000 0000 0000 0000 0000 0000 0000 0000
00000130: 0000 0000 0000 0000 0000 0000 0000 0000
00000140: 0000 0000 0000 0000 0000 0000 0000 0000
00000150: 0000 0000 0000 0000 0000 0000 0000 0000
00000160: 0000 0000 0000 0000 0000 0000 0000 0000
00000170: 0000 0000 0000 0000 0000 0000 0000 0000
00000180: 0000 0000 0000 0000 0000 0000 0000 0000
00000190: 0000 0000 0000 0000 0000 0000 0000 0000
000001a0: 0000 0000 0000 0000 0000 0000 0000 0000
000001b0: 0000 0000 0000 0000 0000 0000 0000 0000
000001c0: 0000 0000 0000 0000 0000 0000 0000 0000
000001d0: 0000 0000 0000 0000 0000 0000 0000 0000
000001e0: 0000 0000 0000 0000 0000 0000 0000 0000
000001f0: 0000 0000 0000 0000 0000 0000 0000 0000
00000200: 0000 0000 0000 0000 0000 0000 0000 0000
00000210: 0000 0000 0000 0000 0000 0000 0000 0000
00000220: 0000 0000 0000 0000 0000 0000 0000 0000
00000230: 0000 0000 0000 0000 0000 0000 0000 0000
00000240: 0000 0000 0000 0000 0000 0000 0000 0000
00000250: 0000 0000 0000 0000 0000 0000 0000 0000
00000260: 0000 0000 0000 0000 0000 0000 0000 0000
00000270: 0000 0000 0000 0000 0000 0000 0000 0000
00000280: 0000 0000 0000 0000 0000 0000 0000 0000
00000290: 0000 0000 0000 0000 0000 0000 0000 0000
000002a0: 0000 0000 0000 0000 0000 0000 0000 0000
000002b0: 0000 0000 0000 0000 0000 0000 0000 0000
000002c0: 0000 0000 0000 0000 0000 0000 0000 0000
000002d0: 0000 0000 0000 0000 0000 0000 0000 0000
000002e0: 0000 0000 0000 0000 0000 0000 0000 0000
000002f0: 0000 0000 0000 0000 0000 0000 0000 0000
00000300: 0000 0000 0000 0000 0000 0000 0000 0000
00000310: 0000 0000 0000 0000 0000 0000 0000 0000
00000320: 0000 0000 0000 0000 0000 0000 0000 0000
00000330: 0000 0000 0000 0000 0000 0000 0000 0000
00000340: 0000 0000 0000 0000 0000 0000 0000 0000
00000350: 0000 0000 0000 0000 0000 0000 0000 0000
00000360: 0000 0000 0000 0000 0000 0000 0000 0000
00000370: 0000 0000 0000 0000 0000 0000 0000 0000
00000380: 0000 0000 0000 0000 0000 0000 0000 0000
00000390: 0000 0000 0000 0000 0000 0000 0000 0000
000003a0: 0000 0000 0000 0000 0000 0000 0000 0000
000003b0: 0000 0000 0000 0000 0000 0000 0000 0000
000003c0: 0000 0000 0000 0000 0000 0000 0000 0000
000003d0: 0000 0000 0000 0000 0000 0000 0000 0000
000003e0: 0000 0000 0000 0000 0000 0000 0000 0000
000003f0: 0000 0000 0000 0000 0000 0000 0000 0000
0.0 0.0 0.0 0.0 0.0 0.0 0.0 0.0
0.0 0.0 0.0 0.0 0.0 0.0 0.0 0.0
0.0 0.0 0.0 0.0 0.0 0.0 0.0 0.0
0.0 0.0 0.0 0.0 0.0 0.0 0.0 0.0
0.0 0.0 0.0 0.0 0.0 0.0 0.0 0.0
0.0 0.0 0.0 0.0 0.0 0.0 0.0 0.0
0.0 0.0 0.0 0.0 0.0 0.0 0.0 0.0
0.0 0.0 0.0 0.0 0.0 0.0 0.0 0.0
0.0 0.0 0.0 0.0 0.0 0.0 0.0 0.0
0.0 0.0 0.0 0.0 0.0 0.0 0.0 0.0
0.0 0.0 0.0 0.0 0.0 0.0 0.0 0.0
0.0 0.0 0.0 0.0 0.0 0.0 0.0 0.0
0.0 0.0 0.0 0.0 0.0 0.0 0.0 0.0
0.0 0.0 0.0 0.0 0.0 0.0 0.0 0.0
0.0 0.0 0.0 0.0 0.0 0.0 0.0 0.0
0.0 0.0 0.0 0.0 0.0 0.0 0.0 0.0
0.0 0.0 0.0 0.0 0.0 0.0 0.0 0.0
0.0 0.0 0.0 0.0 0.0 0.0 0.0 0.0
0.0 0.0 0.0 0.0 0.0 0.0 0.0 0.0
0.0 0.0 0.0 0.0 0.0 0.0 0.0 0.0
0.0 0.0 0.0 0.0 0.0 0.0 0.0 0.0
0.0 0.0 0.0 0.0 0.0 0.0 0.0 0.0
0.0 0.0 0.0 0.0 0.0 0.0 0.0 0.0
0.0 0.0 0.0 0.0 0.0 0.0 0.0 0.0
0.0 0.0 0.0 0.0 0.0 0.0 0.0 0.0
0.0 0.0 0.0 0.0 0.0 0.0 0.0 0.0
0.0 0.0 0.0 0.0 0.0 0.0 0.0 0.0
0.0 0.0 0.0 0.0 0.0 0.0 0.0 0.0
0.0 0.0 0.0 0.0 0.0 0.0 0.0 0.0
0.0 0.0 0.0 0.0 0.0 0.0 0.0 0.0
0.0 0.0 0.0 0.0 0.0 0.0 0.0 0.0
0.0 0.0 0.0 0.0 0.0 0.0 0.0 0.0

sqr_avg f4 [494, 9]
00000000: 0000 0000 0000 0000 0000 0000 0000 0000
00000010: 0000 0000 0000 0000 0000 0000 0000 0000
00000020: 0000 0000 0000 0000 0000 0000 0000 0000
00000030: 0000 0000 0000 0000 0000 0000 0000 0000
00000040: 0000 0000 0000 0000 0000 0000 0000 0000
00000050: 0000 0000 0000 0000 0000 0000 0000 0000
00000060: 0000 0000 0000 0000 0000 0000 0000 0000
00000070: 0000 0000 0000 0000 0000 0000 0000 0000
00000080: 0000 0000 0000 0000 0000 0000 0000 0000
00000090: 0000 0000 0000 0000 0000 0000 0000 0000
000000a0: 0000 0000 0000 0000 0000 0000 0000 0000
000000b0: 0000 0000 0000 0000 0000 0000 0000 0000
000000c0: 0000 0000 0000 0000 0000 0000 0000 0000
000000d0: 0000 0000 0000 0000 0000 0000 0000 0000
000000e0: 0000 0000 0000 0000 0000 0000 0000 0000
000000f0: 0000 0000 0000 0000 0000 0000 0000 0000
00000100: 0000 0000 0000 0000 0000 0000 0000 0000
00000110: 0000 0000 0000 0000 0000 0000 0000 0000
00000120: 0000 0000 0000 0000 0000 0000 0000 0000
00000130: 0000 0000 0000 0000 0000 0000 0000 0000
00000140: 0000 0000 0000 0000 0000 0000 0000 0000
00000150: 0000 0000 0000 0000 0000 0000 0000 0000
00000160: 0000 0000 0000 0000 0000 0000 0000 0000
00000170: 0000 0000 0000 0000 0000 0000 0000 0000
00000180: 0000 0000 0000 0000 0000 0000 0000 0000
00000190: 0000 0000 0000 0000 0000 0000 0000 0000
000001a0: 0000 0000 0000 0000 0000 0000 0000 0000
000001b0: 0000 0000 0000 0000 0000 0000 0000 0000
000001c0: 0000 0000 0000 0000 0000 0000 0000 0000
000001d0: 0000 0000 0000 0000 0000 0000 0000 0000
000001e0: 0000 0000 0000 0000 0000 0000 0000 0000
000001f0: 0000 0000 0000 0000 0000 0000 0000 0000
00000200: 0000 0000 0000 0000 0000 0000 0000 0000
00000210: 0000 0000 0000 0000 0000 0000 0000 0000
00000220: 0000 0000 0000 0000 0000 0000 0000 0000
00000230: 0000 0000 0000 0000 0000 0000 0000 0000
00000240: 0000 0000 0000 0000 0000 0000 0000 0000
00000250: 0000 0000 0000 0000 0000 0000 0000 0000
00000260: 0000 0000 0000 0000 0000 0000 0000 0000
00000270: 0000 0000 0000 0000 0000 0000 0000 0000
00000280: 0000 0000 0000 0000 0000 0000 0000 0000
00000290: 0000 0000 0000 0000 0000 0000 0000 0000
000002a0: 0000 0000 0000 0000 0000 0000 0000 0000
000002b0: 0000 0000 0000 0000 0000 0000 0000 0000
000002c0: 0000 0000 0000 0000 0000 0000 0000 0000
000002d0: 0000 0000 0000 0000 0000 0000 0000 0000
000002e0: 0000 0000 0000 0000 0000 0000 0000 0000
000002f0: 0000 0000 0000 0000 0000 0000 0000 0000
00000300: 0000 0000 0000 0000 0000 0000 0000 0000
00000310: 0000 0000 0000 0000 0000 0000 0000 0000
00000320: 0000 0000 0000 0000 0000 0000 0000 0000
00000330: 0000 0000 0000 0000 0000 0000 0000 0000
00000340: 0000 0000 0000 0000 0000 0000 0000 0000
00000350: 0000 0000 0000 0000 0000 0000 0000 0000
00000360: 0000 0000 0000 0000 0000 0000 0000 0000
00000370: 0000 0000 0000 0000 0000 0000 0000 0000
00000380: 0000 0000 0000 0000 0000 0000 0000 0000
00000390: 0000 0000 0000 0000 0000 0000 0000 0000
000003a0: 0000 0000 0000 0000 0000 0000 0000 0000
000003b0: 0000 0000 0000 0000 0000 0000 0000 0000
000003c0: 0000 0000 0000 0000 0000 0000 0000 0000
000003d0: 0000 0000 0000 0000 0000 0000 0000 0000
000003e0: 0000 0000 0000 0000 0000 0000 0000 0000
000003f0: 0000 0000 0000 0000 0000 0000 0000 0000
0.0 0.0 0.0 0.0 0.0 0.0 0.0 0.0
0.0 0.0 0.0 0.0 0.0 0.0 0.0 0.0
0.0 0.0 0.0 0.0 0.0 0.0 0.0 0.0
0.0 0.0 0.0 0.0 0.0 0.0 0.0 0.0
0.0 0.0 0.0 0.0 0.0 0.0 0.0 0.0
0.0 0.0 0.0 0.0 0.0 0.0 0.0 0.0
0.0 0.0 0.0 0.0 0.0 0.0 0.0 0.0
0.0 0.0 0.0 0.0 0.0 0.0 0.0 0.0
0.0 0.0 0.0 0.0 0.0 0.0 0.0 0.0
0.0 0.0 0.0 0.0 0.0 0.0 0.0 0.0
0.0 0.0 0.0 0.0 0.0 0.0 0.0 0.0
0.0 0.0 0.0 0.0 0.0 0.0 0.0 0.0
0.0 0.0 0.0 0.0 0.0 0.0 0.0 0.0
0.0 0.0 0.0 0.0 0.0 0.0 0.0 0.0
0.0 0.0 0.0 0.0 0.0 0.0 0.0 0.0
0.0 0.0 0.0 0.0 0.0 0.0 0.0 0.0
0.0 0.0 0.0 0.0 0.0 0.0 0.0 0.0
0.0 0.0 0.0 0.0 0.0 0.0 0.0 0.0
0.0 0.0 0.0 0.0 0.0 0.0 0.0 0.0
0.0 0.0 0.0 0.0 0.0 0.0 0.0 0.0
0.0 0.0 0.0 0.0 0.0 0.0 0.0 0.0
0.0 0.0 0.0 0.0 0.0 0.0 0.0 0.0
0.0 0.0 0.0 0.0 0.0 0.0 0.0 0.0
0.0 0.0 0.0 0.0 0.0 0.0 0.0 0.0
0.0 0.0 0.0 0.0 0.0 0.0 0.0 0.0
0.0 0.0 0.0 0.0 0.0 0.0 0.0 0.0
0.0 0.0 0.0 0.0 0.0 0.0 0.0 0.0
0.0 0.0 0.0 0.0 0.0 0.0 0.0 0.0
0.0 0.0 0.0 0.0 0.0 0.0 0.0 0.0
0.0 0.0 0.0 0.0 0.0 0.0 0.0 0.0
0.0 0.0 0.0 0.0 0.0 0.0 0.0 0.0
0.0 0.0 0.0 0.0 0.0 0.0 0.0 0.0

grad_avg f4 [100, 18]
00000000: ff36 deba d45e 3f3b cedd 463b 83b7 e03b
00000010: 554f 183c 1944 17bb e4cc 32bc 3316 483b
00000020: 735a 06ba e328 3dba 61c9 8738 dbe0 273b
00000030: a6cf cbba 0734 7e3b e557 f33b c134 11bc
00000040: 6909 40ba c267 71bb 5737 b6ba 20c9 db3b
00000050: 8dbc adba 4d4a 46bb 1e31 bebb ebf0 ccba
00000060: b43c 1fbc b5a9 023b b3fb c4ba 325a 16bb
00000070: f0f4 25bb f66b ec3b 4a04 93bb 20a3 77bb
00000080: defb c13b 591f 56ba 4e86 d6ba 0e8e 72bb
00000090: ce30 2abc 959f e739 07ee c93b 043e 893b
000000a0: 7b61 a8bb ab19 083b 449d e8bb eec5 833b
000000b0: d2fb 40bb 7c56 84bb cf68 403c d937 e33b
000000c0: 3d72 8cba 07c1 2b3c 228c 133c 831a cfbb
000000d0: 6d20 1bbb e85e 213c 6494 8abb 26d6 483b
000000e0: e99a 2e3b 0669 86bb f821 76ba 3b50 0a3b
000000f0: 5fe0 2fb9 06ab f7b9 4eee cbbb 94f0 c4bb
00000100: 4d32 5e3b 246d d83a f437 5c3a 57c9 ec3b
00000110: b991 58bb 52cd 21bc a1ad bdbb a850 1bbc
00000120: 1ebf 493b a90f a7ba 6889 c53b 15d8 ce39
00000130: 5927 bc3b b50f 433b 5018 0fbc ce37 c8ba
00000140: aee6 7d3b b29b 55bc 53da ac3b 3059 85ba
00000150: 5bda d63a 1c4c 9d3a 692e b2b9 f9e1 25bb
00000160: 1da9 be3b bd93 003c 955e 143b 6ae1 833b
00000170: 8aca bf3b d811 cdb9 3613 81b9 125c e73b
00000180: e742 4fba 079a 263b ef38 8fba 0c19 06bb
00000190: 017c d7ba 8772 713b c875 babb 4d63 66b8
000001a0: 9fb0 b33a ecbe a1bb 64ba 73bb 17df 483b
000001b0: 0b3a 4cbb 297a 99bb 61b7 ad3b a029 a6bb
000001c0: 1fbb 913a e856 40bb 3968 de3b ff45 103b
000001d0: 8630 0cbb 2181 103c 3901 fe3a 9e08 7bbb
000001e0: a458 a13a 8213 093c 58ec 67bb a379 2abb
000001f0: 7076 15bb c416 853b f8d1 84bb 1da9 b73b
00000200: 1c85 573b 920e 81bb 9ab5 85b8 9f42 983b
00000210: 0967 86ba 3800 9fba 5f54 ffbb 2896 cdbb
00000220: 153c bd3b 85f1 1f3b 4cb6 90ba 72ad ae3b
00000230: aacb 9abb a079 06bc fba6 c0ba 91fd 88bb
00000240: 015f c73b 9147 ea3b 7690 053b a916 48bb
00000250: 87ce 2139 2cab 08bc f1bf 6fbb 7177 74bb
00000260: 1794 abbb 8049 b4bb f7ac e23a 8e41 ea3b
00000270: 4c78 523b 4cd6 1d3c 10bf 3cbb 234e a5b9
00000280: 766f 613b 446a 0abb 5502 1b3a ab13 033c
00000290: 265f 193c 7a0a d53b 4ab2 4839 c4e1 86bb
000002a0: 99ff fc39 26f4 563b c971 b3bb ac85 d4bb
000002b0: e837 d7ba c256 6f3c 03d6 dfbb 4c43 093c
000002c0: 47e3 563b f139 07bc 7272 b13b 0de7 a4bb
000002d0: 40aa 72bb 87c3 023c 8864 8e3a db0f 9d3b
000002e0: e7fd 9c3b 17da 61ba ab23 08bc b52c bc3a
000002f0: 0eae 1c3b b06a 85bb 6508 ea3b 5df0 0a3b
00000300: fcfd 5cb9 a5e2 5d3b 3c34 623b 690c 6fbb
00000310: eda2 8fbb 2291 e03a 207e c3b9 8be9 bd3b
00000320: d4ab 42bb 1970 babb 344c ad3a be95 35bb
00000330: 9a09 ddba 617e 2b38 4387 28bc 93b8 383a
00000340: 248d 2abc 6a65 debb 111c 293c 1036 69ba
00000350: fed8 23bb f7b6 49bc a774 e2b9 4665 18bc
00000360: b69d 1a3c 53f2 c43b 0ddb 3b3c 8a00 81bb
00000370: 9427 533b f155 0ebc aab0 1c3b e50a 3e3b
00000380: f170 bbbb dd2e e6bc ddca 8ebb ac30 4f3a
00000390: eab6 8d3c 6ae4 14bc aa66 a6bb 74b2 73bc
000003a0: 7d94 85ba 80f9 81bc 9584 433b f15a 16bc
000003b0: 1f9e b4bb 08a7 9ebb bfb9 adbb 833b 7abb
000003c0: a4c2 f6ba 4468 ca3b a110 303b e912 433b
000003d0: 7ec6 133c d7f6 44bb 87a0 9fbb 42e6 e8bb
000003e0: cd06 65bb 8c69 3c3b 8525 be39 8ca2 123b
000003f0: 6649 483b 1a9a 863b c61e bcbb b88c 843b
-0.0016953646 0.002920081 0.0030344608 0.006857814 0.009296258 -0.002308136 -0.010913108 0.003053081
-0.00051251723 -0.00072158704 6.4748114e-05 0.0025616202 -0.0015549555 0.0038788335 0.0074262493 -0.008862675
-0.0007325621 -0.0036835526 -0.0013901991 0.0067073256 -0.0013255045 -0.003025669 -0.005804195 -0.0015635764
-0.009719063 0.001993758 -0.0015028625 -0.0022941944 -0.0025322996 0.0072150184 -0.0044865953 -0.003778644
0.0059199175 -0.00081681233 -0.001636693 -0.003701094 -0.0103876125 0.0004417865 0.0061624083 0.004188301
-0.0051385737 0.0020767252 -0.0070988256 0.004021398 -0.0029446972 -0.00403863 0.011743738 0.006934148
-0.0010715198 0.010483033 0.009005578 -0.006320299 -0.002367045 0.009849288 -0.0042291153 0.003064522
0.0026642627 -0.0041018752 -0.0009389217 0.002110495 -0.00016772885 -0.00047238934 -0.0062234765 -0.0060101245
0.0033904493 0.0016512019 0.00084006716 0.00722615 -0.0033045842 -0.009875612 -0.0057885204 -0.009479679
0.003078408 -0.0012745756 0.006028343 0.00039452375 0.0057419953 0.0029764 -0.008733824 -0.001527542
0.0038742232 -0.013037609 0.0052750497 -0.0010173675 0.0016391979 0.0012000832 -0.00033985384 -0.0025311692
0.0058184997 0.007847724 0.0022639383 0.004024674 0.005853002 -0.00039113942 -0.0002461911 0.007060536
-0.00079063926 0.0025421397 -0.0010927002 -0.0020461706 -0.0016440154 0.0036841945 -0.00569031 -5.4928754e-05
0.0013709253 -0.0049360897 -0.0037189955 0.003065055 -0.0031162526 -0.004683752 0.0053014015 -0.00507088
0.0011118389 -0.0029348675 0.0067873267 0.0022014377 -0.0021391227 0.008819849 0.0019379026 -0.0038304697
0.0012309742 0.008366467 -0.0035388675 -0.0026012443 -0.002280619 0.0040615518 -0.0040533505 0.0056048767
0.0032885736 -0.0039385045 -6.37576e-05 0.0046466137 -0.0010254096 -0.0012130802 -0.0077920402 -0.0062740035
0.0057749846 0.0024405431 -0.0011040657 0.005330735 -0.0047239857 -0.008207709 -0.0014698202 -0.004180618
0.0060843234 0.0071496447 0.0020380295 -0.0030531085 0.00015431094 -0.008341592 -0.0036582912 -0.0037302638
-0.0052361595 -0.005501926 0.0017293979 0.007148928 0.003211516 0.009633612 -0.0028800406 -0.0003152947
0.0034398711 -0.0021120468 0.0005913128 0.008000295 0.009361064 0.006501493 0.00019139904 -0.004116269
0.0004825562 0.0032799332 -0.0054762107 -0.0064856615 -0.001641986 0.014608087 -0.006830932 0.008377861
0.0032789276 -0.00825356 0.0054152543 -0.005032426 -0.0037027746 0.007981188 0.0010863701 0.00479315
0.0047910097 -0.0008615567 -0.008309285 0.0014356585 0.0023907456 -0.004071556 0.007142114 0.0021200397
-0.00021075452 0.0033857014 0.0034515997 -0.0036475903 -0.004383436 0.0017133097 -0.0003728727 0.0057956628
-0.0029704468 -0.0056896326 0.0013221563 -0.0027707662 -0.0016863823 4.0887277e-05 -0.010286155 0.00070465467
-0.010409627 -0.006786992 0.010321633 -0.00088963006 -0.0025001164 -0.012311689 -0.00043192992 -0.009301489
0.009437015 0.0060103326 0.0114658 -0.003936832 0.0032219635 -0.008687482 0.002390901 0.0028998193
-0.005720251 -0.028098518 -0.0043576793 0.0007903676 0.017299134 -0.009087661 -0.0050781565 -0.0148740895
-0.0010191348 -0.015866041 0.0029833664 -0.009176956 -0.0055120136 -0.004841689 -0.0053016837 -0.0038182444
-0.0018826318 0.00617698 0.002686538 0.002976591 0.009019492 -0.0030054355 -0.0048714313 -0.007107527
-0.003494668 0.0028749434 0.00036267578 0.0022374718 0.0030561327 0.004107726 -0.005740973 0.0040450953

sqr_avg f4 [100, 18]
00000000: 4cb5 8c3a 12b1 a23a 465e b43a 3ab5 a63a
00000010: 5144 af3a f34f aa3a 1c3e b33a f905 b43a
00000020: c23f a13a df96 b93a ba09 be3a 4036 a93a
00000030: f11f 903a 10c9 ab3a 8166 a33a d6e8 ac3a
00000040: c351 b63a 4966 b53a d6bd 463b cb2f 1e3b
00000050: c854 593b 5085 393b 833d 423b a21c 263b
00000060: 692d 1d3b 8803 483b 5504 623b f512 523b
00000070: 6def 3c3b 9e82 483b d9c3 423b 3c0e 2f3b
00000080: 3a75 643b 0e4c 3e3b eb30 263b d0cb 593b
00000090: c500 083b 5ee8 e53a 5e21 f93a 839d f13a
000000a0: 1bda e23a ac39 fa3a de8f e93a fa93 f33a
000000b0: b749 e53a 5497 103b 8669 113b 8240 083b
000000c0: 4d8c ed3a e304 f13a 80c3 013b 80e4 083b
000000d0: 6524 e13a 7ea4 f73a bc73 a23a 601c 8c3a
000000e0: 9d59 993a fb49 7f3a 1c84 963a 63f5 8d3a
000000f0: adc1 8a3a 4ddc 7c3a 53c2 863a 564c a23a
00000100: 281c 9d3a 2605 943a 398e ae3a 28c3 883a
00000110: e000 ad3a bf4a 9a3a 6b47 893a 084f 6b3a
00000120: 2d23 0d3b 49e5 113b caf8 1c3b 39ec e63a
00000130: 5577 143b 78a3 1f3b edaa 293b 0db1 103b
00000140: b3db 1e3b d141 263b 82cc 3b3b 109f 1f3b
00000150: 5058 1c3b 8dbe 333b 10f6 243b 0da2 343b
00000160: b399 243b 43ad 1a3b 4345 573a 6543 653a
00000170: 6cbe 873a b07f 5f3a 50ab 623a 8af8 523a
00000180: 12f7 453a 5977 4f3a 1b13 703a ff72 6d3a
00000190: 30db 743a d02b 573a 0c59 663a 1ebf 443a
000001a0: fc92 653a 66e7 633a 0ae0 563a c3cf 6e3a
000001b0: a527 933a de61 8b3a 83a9 a53a 0a14 9d3a
000001c0: cd2c a13a 1dff 933a 8bb1 983a 41f1 953a
000001d0: a3d7 b43a 9afc a73a 9f34 a13a 5ee8 933a
000001e0: 24a2 7c3a 62e9 8a3a 9697 8b3a 246e 8e3a
000001f0: ed7a a93a fd18 ab3a 77d7 ec3a 240a db3a
00000200: 93b3 c53a 902d bb3a 405c ce3a 9f3d ac3a
00000210: a2f8 b03a 8230 c03a 3eb1 d13a ce7e d53a
00000220: f7d8 da3a e242 c23a e647 db3a ec4d c73a
00000230: 1ec2 e93a b71b df3a d836 ac3a 6a52 b13a
00000240: 76b5 d33a 7f78 bd3a 178b a83a 5b54 d43a
00000250: dff5 d63a 57c0 e03a c6fd b03a 9a6a d93a
00000260: 88d0 cc3a c13a ee3a 47a4 e03a d728 aa3a
00000270: b850 c23a 9399 cf3a 8802 be3a d149 d53a
00000280: ca65 ec3a 963a df3a 12b5 c93a 5a79 b03a
00000290: 05ae c63a d199 bf3a 1dce d83a 8ef1 b33a
000002a0: c140 be3a b4a1 c23a cb73 c73a 6931 d53a
000002b0: 3e11 c93a 77bf dc3a 0087 ae3a abb2 a13a
000002c0: 5ea2 b03a 182d bf3a e57f b73a 4eb8 cf3a
000002d0: 1bb2 8e3a f7c6 9b3a 5dc9 a23a 0c0c a53a
000002e0: f2d2 613a 50e2 863a 6474 7b3a b9f1 973a
000002f0: 557e aa3a 87f3 a13a 6d03 9f3a d2ed 893a
00000300: 1ab1 933a 8ba7 a43a 6a07 8d3a 9f1e a73a
00000310: 68a0 9d3a 3869 7d3a 2eaf df3a 52d9 dc3a
00000320: 4403 f73a 05c5 ef3a de38 d83a 6926 e73a
00000330: b30e dc3a 54e9 d33a ca0e c63a 89f5 c23a
00000340: aad6 e13a 8a25 d83a 3216 053b 8050 d83a
00000350: 032a e83a e2f3 033b 7eb4 c83a 3744 d43a
00000360: 4e59 863b 2bcc 8d3b 66f6 863b 9be8 693b
00000370: 1da3 873b b384 a83b 48d8 863b 909f 7a3b
00000380: d0f5 843b c70e 913b d3a8 a23b af29 6c3b
00000390: 38f3 823b 18d4 a53b 28ce 893b 7c45 893b
000003a0: 917b 893b f08c 713b c74f b93a 5ceb dd3a
000003b0: 410e c73a 99fc cd3a eccb aa3a 3cdc bb3a
000003c0: c40c d33a 267a b33a 267d c43a ce28 cb3a
000003d0: e9ca ff3a e166 bf3a 7c00 fb3a ab54 f03a
000003e0: b9c3 ca3a d367 dc3a 7736 bf3a 10bc 9a3a
000003f0: 7590 0b3b 38bb 143b 6eac 133b 6953 063b
0.0010735183 0.001241239 0.0013761006 0.0012718805 0.00133718 0.0012993797 0.0013675126 0.001373469
0.0012302327 0.0014159343 0.0014498748 0.0012909845 0.0010995847 0.0013106186 0.0012466462 0.0013191949
0.0013909865 0.0013839687 0.0030325553 0.0024137374 0.0033162106 0.002830822 0.0029638715 0.0025346656
0.0023983365 0.0030519683 0.0034487445 0.0032054756 0.0028829232 0.0030595432 0.0029718785 0.0026711365
0.0034859912 0.0029037031 0.0025358747 0.0033233054 0.0020752412 0.0017540564 0.0019007137 0.0018433783
0.0017307432 0.0019090674 0.0017819365 0.0018583529 0.0017493282 0.0022062855 0.002218814 0.0020790403
0.0018123478 0.0018388297 0.0019800365 0.002088815 0.0017176984 0.0018893627 0.0012394111 0.0010689609
0.001169968 0.0009738502 0.0011483463 0.0010830577 0.0010586284 0.00096458645 0.0010281302 0.0012382369
0.0011986541 0.0011293038 0.0013317532 0.0010434138 0.0013199113 0.0011771544 0.0010473555 0.0008976315
0.002153586 0.0022261909 0.0023952 0.0017618007 0.0022654135 0.002435891 0.0025889233 0.0022078187
0.0024239838 0.002536882 0.0028655832 0.0024356283 0.002385635 0.002742681 0.0025171079 0.002756241
0.0025116026 0.0023601807 0.000821192 0.00087456993 0.0010356433 0.0008525802 0.00086467434 0.00080478995
0.000755177 0.00079142075 0.00091581204 0.0009057968 0.0009340523 0.00082081277 0.0008787073 0.00075052853
0.0008757559 0.0008693844 0.00081968366 0.00091099384 0.0011227025 0.0010634025 0.0012639019 0.0011984122
0.0012296677 0.001129124 0.0011649592 0.0011439697 0.0013797175 0.001281637 0.0012299008 0.0011284461
0.0009637198 0.0010598118 0.0010650035 0.0010866565 0.0012930311 0.0013053712 0.0018069585 0.0016711396
0.0015083425 0.0014280546 0.0015744045 0.0013140923 0.0013501833 0.0014662894 0.0015998257 0.0016288401
0.0016696741 0.0014820958 0.0016729801 0.0015205718 0.0017834341 0.001702181 0.0013138903 0.001352859
0.0016152102 0.0014455466 0.0012858835 0.0016199456 0.001640018 0.0017147165 0.0013503365 0.0016587556
0.0015626112 0.0018175469 0.0017138802 0.0012982142 0.0014825081 0.0015838615 0.0014496604 0.0016272609
0.0018035707 0.001703101 0.0015389046 0.00134639 0.0015158063 0.0014617984 0.0016540919 0.0013728605
0.0014515148 0.0014849217 0.0015217004 0.0016265336 0.0015340222 0.0016841729 0.001331538 0.0012336572
0.0013476124 0.0014585583 0.0013999908 0.0015847774 0.001088682 0.0011884858 0.001241963 0.0012592091
0.0008614502 0.0010290835 0.00095922337 0.0011592425 0.0013007621 0.0012355902 0.0012131758 0.0010523146
0.001126799 0.0012562139 0.0010759656 0.0012750215 0.0012025954 0.0009666863 0.0017065757 0.0016849434
0.0018845578 0.0018292969 0.001649644 0.0017635348 0.0016789049 0.001616756 0.0015110609 0.00148742
0.0017230113 0.001649068 0.002030742 0.0016503483 0.0017712716 0.002013438 0.001531258 0.0016194646
0.0041000014 0.0043273172 0.0041187285 0.0035691622 0.0041393177 0.005142772 0.004115138 0.003824208
0.0040576234 0.0044268104 0.004963973 0.0036035588 0.003996279 0.005060684 0.004205484 0.0041891914
0.0041956385 0.0036857687 0.0014138155 0.0016931104 0.0015186743 0.0015715539 0.0013030744 0.0014332603
0.0016101827 0.0013693019 0.001499091 0.0015499832 0.0019515428 0.0014602804 0.0019149925 0.001833578
0.0015469707 0.001681561 0.0014588375 0.0011805315 0.002129582 0.00226946 0.0022533196 0.0020496494

grad_avg f4 [100]
00000000: 4bac 02ba fb83 4e3b 7c61 8fba 86e0 37bb
00000010: ea59 113b 064b 54bb 7406 953b 250c 98ba
00000020: 634e 13bc 14c1 d3bb d7ca 963b 3313 dbbb
00000030: ad3a 9fbc d1a1 a1bb 4326 7ebb a6ef 36bc
00000040: 192d 35bb 4b3d 03bb e7ce 66bb c949 bfbb
00000050: 2f7c 423a 5564 223c 97db aaba 4d35 beb9
00000060: a7ab c13b 19bf 013b 1f3b 8bbb 225d 623b
00000070: 974c 7c3b 737c 74ba 021a 6d3a 37db bcba
00000080: 50d2 2a3a 5d56 ba3a 0300 0000 f260 383b
00000090: 7d48 9f3b b0f8 953b 803d e6bb 6fd4 5539
000000a0: 572f fa3a 5adc 943c 33d2 03bc 0300 0000
000000b0: ee78 f33a 1d0b 3abb 559c ceba 0273 9cbb
000000c0: f3ac 71bb e740 b5ba 97fd 32ba 6b38 5f3a
000000d0: 2f51 80bb 40f6 8839 6cc1 803b 0b7c 2abb
000000e0: 2832 4dbb 3326 bb37 1e49 e83a 804b a1bb
000000f0: ec4b 273c 4939 48ba f614 02bb 0082 4d3b
00000100: ee2d e53a 82b2 9bba c8d4 3d3b 69f6 d2ba
00000110: 6af5 76b9 44d1 81bb fc69 4dbb f836 5abb
00000120: 79d5 fc39 9960 2dbc d3bf 493b 8ff1 a8bb
00000130: 4a8e 883b 86fb c2bb c577 7bbb 86dc 053c
00000140: 4035 fd3a 3b02 dfbb f756 08bb b699 503b
00000150: 17e9 333c 8ad1 3e3b ff89 173b 6f97 40bb
00000160: 791b ccba bc1c e33b c68b a4ba 7a6f e8ba
00000170: d823 d43b ea3a a3bb 36ef 47bb ae6c 93ba
00000180: dd85 87bb ce58 023b 348f 1439 721e 98ba
-0.000498478 0.0031511772 -0.0010939087 -0.002805741 0.0022178837 -0.003239335 0.0045478884 -0.0011600299
-0.008990857 -0.0064622257 0.004601817 -0.0066856383 -0.019437158 -0.00493262 -0.003878013 -0.011165535
-0.0027645289 -0.0020025547 -0.0035218538 -0.0058376533 0.00074190175 0.009911616 -0.0013035414 -0.00036279336
0.005910355 0.001979774 -0.004248991 0.0034540375 0.00384978 -0.00093264057 0.0009044708 -0.0014408593
0.00065163244 0.0014216412 4e-45 0.0028133956 0.004860936 0.004576765 -0.0070263743 0.000203924
0.0019087595 0.018171478 -0.008045721 4e-45 0.0018575469 -0.0028387972 -0.0015763143 -0.004774452
-0.0036876767 -0.0013828547 -0.0006827949 0.0008515182 -0.003915928 0.00026123412 0.0039293077 -0.0026013877
-0.0031310413 2.2309925e-05 0.0017721986 -0.0049223304 0.010210972 -0.00076379307 -0.001984892 0.0031358004
0.0017485002 -0.0011878761 0.002896594 -0.0016095164 -0.00023551812 -0.003961714 -0.003134369 -0.0033296924
0.00048224235 -0.010582113 0.0030784502 -0.005155749 0.004167353 -0.005950394 -0.0038370949 0.008170253
0.0019318238 -0.006805686 -0.0020803788 0.00318299 0.010980866 0.0029116594 0.0023123024 -0.0029387136
-0.0015572152 0.0069309156 -0.0012553863 -0.0017733418 0.0064739995 -0.0049813883 -0.003050757 -0.0011247599
-0.004135831 0.0019889357 0.00014167727 -0.0011605753

sqr_avg f4 [100]
00000000: c09a bf3a e578 253b c9c9 f83a 8d82 893a
00000010: 0319 0c3b cf68 4a3a 8e54 963a 1b22 b03a
00000020: e6cd bf3a a6a5 c83a d1ce 8b3a 97af e63a
00000030: 1735 803b 66f9 ca3a f2b2 fc3a 7205 503b
00000040: 58d8 bf3a cec2 c93a cd85 093a 2024 b13a
00000050: f47f 963a e224 583b 3490 363b 7915 933a
00000060: 6b83 493b 1212 543b 80e5 153b dc2e 7f3a
00000070: 96a3 d63a fb72 3b3a a469 563b d6de 003a
00000080: 1242 8a39 ca65 9f3a 3af4 ca16 b66e 943b
00000090: e21f 813b 63fc 9b3b 1a73 973a e30b 793a
000000a0: 28f2 c83a c138 063c e756 0b3b cc51 0318
000000b0: 2d47 993b 1b9c 0e3a c54c ed3a 481b 053b
000000c0: 9b10 9e39 f79b 8c3a 7afc 043b ac94 103b
000000d0: 12f8 c33a 0ed3 4c3b 7290 2f3b 7c1e 813b
000000e0: 5f56 033a 06fd e23a e737 953a fc01 7e3a
000000f0: 17b5 773b 051c 9139 a79b e53b ef2f 993a
00000100: 7c2d 443a 5eb8 b03a 3c3d a03a 0091 2e3b
00000110: a962 f839 202e 3f3a 330f 133b 54fe d13a
00000120: 4a82 df39 15dc c93a e86a 3f3a a5f3 323b
00000130: ba85 973b d0b1 4a3b 96de b33a fdf3 c03a
00000140: 0f02 e93b 363f c73a ca55 3f3a caa7 df3a
00000150: 68b3 183b 0df0 6d3b 2f1e 6b3a e837 ca3a
00000160: 1fc6 b73a ff4c 5b3b 3c03 043b f769 4f3a
00000170: 8133 c03b 1166 013b 5a62 263a 934f 2b39
00000180: b1e3 ac3a b8ac 993a 4ff8 f53a 42cf 1d3a
0.0014618263 0.002524906 0.0018981035 0.0010491178 0.0021377213 0.0007721306 0.0011469291 0.0013437899
0.0014633506 0.0015308156 0.0010666494 0.0017599937 0.003912579 0.0015485703 0.0019279404 0.0031741527
0.0014636619 0.0015393139 0.0005246073 0.0013514794 0.0011482225 0.0032980968 0.0027856948 0.0011221609
0.0030748497 0.0032359404 0.0022872388 0.00097344606 0.0016375657 0.00071506173 0.0032716775 0.00049160176
0.00026370637 0.0012161073 3.2788989e-25 0.0045297993 0.0039405683 0.0047603115 0.0011554689 0.00095003675
0.0015330957 0.008192242 0.0021261515 1.697265e-24 0.0046776743 0.00054401316 0.0018104544 0.002031045
0.0003014848 0.0010727633 0.002029209 0.0022061272 0.001495125 0.0031253728 0.0026788977 0.0039404016
0.0005010124 0.0017317839 0.0011384458 0.0009689627 0.0037797147 0.0002767743 0.0070070806 0.0011687259
0.00074835843 0.001348268 0.001222528 0.002663672 0.00047375754 0.0007292945 0.002243948 0.001602123
0.00042630947 0.0015400673 0.0007302002 0.0027305868 0.0046240957 0.0030928738 0.0013722952 0.0014721152
0.007110841 0.0015201333 0.00072988553 0.0017063555 0.0023300294 0.0036306411 0.0008969036 0.0015428038
0.0014020837 0.0033462641 0.002014353 0.00079122133 0.0058655147 0.0019744674 0.0006347053 0.00016337475
0.0013190416 0.0011724448 0.0018766018 0.00060199585

grad_avg f4 [1, 100]
00000000: 1775 c43c 8ae0 e13b 3f54 6b3c 30f4 813c
00000010: c1f2 283c e8d5 223c d1d0 51ba 92d8 3a3c
00000020: 7dd7 3c3c 5619 c33c ee17 c0bb 3cc4 1f3c
00000030: 73d7 323c 94d1 f5bb 9194 01bb 81d4 163d
00000040: ee5e 143b d675 f2bb 73e9 dc3c 2bbb ca3c
00000050: 69bc fb3b 718f 5a3c 491f 2fbb f82e 3c3c
00000060: 08d6 01bd 8b63 68bc e40e b43b d7c1 3e3c
00000070: f0ab 94bc 2876 ad3c c49f 61bc 87b5 cb3c
00000080: bfac 5ebb fbe4 dd3b 0300 0080 75e5 9e3c
00000090: 21eb a539 ea27 ea3a 8bbc 2e3d 4011 d83c
000000a0: 21cf c8bb e22f e33b 1609 843c 0300 0000
000000b0: 5ec8 1dbc 3cfd c23b 0075 8b3a 40a8 b6bb
000000c0: 7885 503d 4a88 053c 3d90 64bb 860f 06bd
000000d0: 1889 f73c fef7 acbc 5c63 fd3b cc0e b43c
000000e0: 2632 d23c baab 413c 26b4 983c 4a29 fd3c
000000f0: b812 523c 8629 a63c 053d e43c c3f2 fe3b
00000100: 488b c9bb c730 fa3a 388a 233c aef5 173c
00000110: ed62 2e3d f2d5 4c3c 9b06 0bbc a504 353c
00000120: 1c6f bd3a b5ba 5d3d 62f4 90bc 1c71 9038
00000130: 1d86 1e3a 1e88 00bc c11c 1ebc c41d 41bb
00000140: aa7d 3dbc 7ce4 6f3b aac1 113d 486d 523a
00000150: bdac 193c 5aef f33a c747 063c 6966 023d
00000160: d72e 64bb b0de ed3b 3945 d43c 36fa 54ba
00000170: 3a38 083d b6f6 7f3c d326 11bc e8f6 323c
00000180: 88a8 963c 83c3 1b3d ad78 213c 3291 b93c
0.023981614 0.006893222 0.014363348 0.015863508 0.010311783 0.009938695 -0.00080038334 0.011404173
0.011525986 0.023815792 -0.0058622276 0.009751376 0.010915625 -0.0075017903 -0.001977239 0.036823753
0.002263959 -0.007399301 0.026966786 0.024747452 0.0076823724 0.013339863 -0.0026721528 0.011485808
-0.031698257 -0.014183889 0.005494939 0.011642895 -0.018148392 0.021174505 -0.013771001 0.024866832
-0.0033977476 0.0067716814 -4e-45 0.019396523 0.00031646437 0.0017864679 0.042660277 0.026375413
-0.0061282073 0.0069331983 0.016117614 4e-45 -0.009630291 0.005950598 0.0010639727 -0.005574256
0.050908536 0.00815017 -0.0034876012 -0.032729648 0.030216739 -0.021114346 0.007732792 0.021979712
0.025658678 0.011820728 0.018640589 0.030903477 0.012821846 0.020283472 0.027861128 0.0077804043
-0.006150637 0.0019088023 0.009981684 0.009274883 0.04257481 0.01250218 -0.008485462 0.011048471
0.0014452669 0.054133136 -0.017694656 6.887523e-05 0.0006047206 -0.007844953 -0.00965041 -0.0029467205
-0.011565605 0.0036604693 0.035585083 0.00080271484 0.009379563 0.0018610761 0.008195824 0.031835947
-0.0034817958 0.0072592124 0.025911914 -0.00081244425 0.033256747 0.015622785 -0.008859354 0.010923125
0.018390909 0.03802825 0.0098554315 0.022652242

sqr_avg f4 [1, 100]
00000000: eccc be3c 5d72 663d 08b7 2e3d 7632 fc3c
00000010: a210 8d3b d174 253d 33af 493a 737f 263d
00000020: 3370 dc3a a5cf 373d 0d80 c43c 114a fd3a
00000030: a3cb 243b 4fe9 d83b 1228 9c3b 45e1 6e3d
00000040: 9a64 e63a 69e5 683b fa36 263d 161a 113d
00000050: 14c2 8a3c f120 833d e130 cf3a f051 d13c
00000060: 987d a13d 0c1b f83c b7ff 403a 4fba 2d3d
00000070: e846 203d b4a8 4c3d 0525 2a3c 6308 453d
00000080: 2319 b13c b0c8 ea3c ae86 5d1a 12e6 733d
00000090: 4520 503b 8da7 813d cffb 393d de0a 823d
000000a0: 8ab8 f83c 2730 943d 4a01 7c3d fc28 051b
000000b0: 6a8c 2f3c dcae 4b3c 021a a33a 7edc aa3c
000000c0: cd6f 843d 6a93 ea3c 1a98 803b f8ac f73c
000000d0: 334f 0c3d 7fd2 6e3d 0b38 ec3b d98d 053d
000000e0: 097d c13c a321 d53c 01d3 443d c776 2d3d
000000f0: 30c6 333c eac6 343d 4d7a 9a3d beb3 7e3d
00000100: 9d32 923c f8c9 363c 8ba5 643d cf92 8a3c
00000110: 22ae 1b3d e779 333c be3f 9b3c 067a 263d
00000120: 49b6 803c 8b55 623d b85b aa3c 9a70 003c
00000130: ede0 4b3d 7a7f 803c b0e5 fa3c 65a5 453a
00000140: 2cfd b93c c404 103d 5f18 513d c6e1 de3c
00000150: b017 0e3d e382 963b 206b 843d e96b 3e3d
00000160: 37ba 183d ecb0 333d f3e2 213d 1704 b63c
00000170: 8c66 8d3d 9cdc 503c 6101 fa3c e18b ec3c
00000180: e4d4 5b3d 0763 4c3d b509 5e3c c700 7c3c
0.023291074 0.05626141 0.04265502 0.03078578 0.0043049613 0.040394608 0.0007693648 0.04064889
0.0016818106 0.04487576 0.02398684 0.0019324442 0.002514579 0.0066196094 0.004765519 0.058320303
0.0017577589 0.003553713 0.040579773 0.035425268 0.016938247 0.064027674 0.0015807414 0.025551766
0.07885283 0.030286334 0.0007362323 0.042414006 0.03913012 0.049965575 0.010384803 0.0481037
0.021618431 0.028660148 4.5810522e-23 0.059545584 0.0031757515 0.06330786 0.04540616 0.06349729
0.030361433 0.07235747 0.061524667 1.1014745e-22 0.01071463 0.012431826 0.0012443664 0.020857092
0.06466637 0.028634746 0.003924382 0.030233845 0.034255218 0.058306213 0.0072088293 0.03260598
0.023619192 0.026017016 0.04805279 0.042349603 0.010972545 0.04413501 0.07542858 0.062183134
0.0178464 0.011156552 0.055821937 0.016915707 0.038007863 0.010954357 0.018951293 0.040643714
0.01571192 0.05525736 0.020795688 0.007839346 0.049775053 0.015685786 0.030627102 0.00075395993
0.02270373 0.035160795 0.051048633 0.027207267 0.03469056 0.0045932396 0.06465745 0.04648963
0.037286963 0.043869898 0.039523076 0.022218747 0.06904325 0.01274791 0.030518236 0.028875293
0.053669825 0.049899127 0.013552119 0.015381045
