trees/save/tree/7bits/split_75.0_0.1_5_50/models/model.pth (torch, 65494 bytes, 12 tensors)

embedding_layers.weight f4 [494, 7]
000000 ee 54 94 3b 45 a4 2f bc 3b a2 d3 3b ae a8 c6 3a
       0.004526726 -0.010720317 0.0064585484 0.0015156472
000010 ab 69 8e 3b 1a 91 d9 3a f5 82 ce ba 75 2d 39 3c
       0.0043460927 0.001659903 -0.0015755581 0.011302342
000020 22 cb f3 3b dd 77 57 3c 8d 01 79 bc 50 6b 0a 3c
       0.007439987 0.013151136 -0.015198124 0.008448437
000030 a2 ab 33 3c 3f 7b bd 3b 47 03 57 bc d0 41 09 3a
       0.010966213 0.0057825143 -0.01312334 0.0005235942
000040 93 42 1c 3c 61 b0 3d b7 2a c0 32 ba 40 a6 df bb
       0.009537357 -1.1306344e-05 -0.0006818796 -0.0068252385
000050 5a 14 9d ba d7 a8 3a 3c 05 c7 a2 3b c4 c2 6f bc
       -0.0011984215 0.011392794 0.0049675726 -0.014633838
000060 60 b3 87 3b db 7f 95 3b b9 79 4e bb 9e 5a b7 3b
       0.004141256 0.0045623607 -0.0031505658 0.005595519
000070 ab 37 fa bb 2d 4d a0 ba 0e 84 de 39 d4 17 4f bb
       -0.0076360307 -0.0012230031 0.00042441528 -0.0031599896
000080 7f ce d3 bb b5 1a d2 3b 4e 54 63 3a 7e 14 71 3a
       -0.0064638252 0.006411875 0.0008671925 0.0009196474
000090 06 8c 49 bb 4e 98 bb 3b 80 e2 a4 3b 57 30 1b ba
       -0.0030753626 0.0057249432 0.0050318837 -0.0005919984
0000a0 ad c4 2a 3c dc aa ba ba bc 44 0c 3c b2 00 c4 3b
       0.010422868 -0.0014241594 0.008561309 0.005981528
0000b0 e5 00 b2 3a 92 1c 40 3c 59 0e af 3b 82 29 0c bb
       0.0013580589 0.011725562 0.0053422865 -0.0021387045
0000c0 32 27 01 3c 3a de 3d bc b6 dd 8e 3b 64 f4 18 bc
       0.00788288 -0.0115886275 0.004359926 -0.009335611
0000d0 95 0a 07 bb b1 9f a0 b9 68 59 59 bb a2 ac 98 3b
       -0.0020605673 -0.00030636557 -0.0033164863 0.0046592513
0000e0 84 30 59 3b 28 3f b9 38 d4 eb da 3b 41 e8 8f bb
       0.003314049 8.833251e-05 0.006680945 -0.0043917005
0000f0 ef c9 07 3c 2b a1 5f bb 59 4b ac ba a5 3c 0c b8
       0.008287891 -0.0034123163 -0.0013145014 -3.343508e-05
000100 e7 d4 39 3a f6 b0 d4 bb 66 92 52 bc e2 ed 5d bb
       0.0007088915 -0.006490822 -0.012852287 -0.0033863713
000110 02 7f 04 bc 3c 82 6d 3c 9a 46 f3 3b e4 78 49 3a
       -0.008086922 0.014496382 0.007424188 0.00076855556
000120 27 d3 24 bb c5 79 8e bb 74 b0 75 3c c2 96 48 3b
       -0.002515027 -0.004348012 0.014995683 0.0030607437
000130 9f f0 c3 bb 0a 0d 3b 3b e8 74 f1 ba 45 0b 61 bb
       -0.005979612 0.0028541707 -0.0018421682 -0.0034338993
000140 ef 33 49 bb 01 02 42 3b c8 2e 39 3c f2 7a ad bb
       -0.003070112 0.0029603245 0.011302657 -0.0052941972
000150 26 aa f0 3b 9a 5f e6 3b 53 fb 55 bc 6a f1 6e bb
       0.007344502 0.0070304396 -0.013060409 -0.0036459812
000160 2d 61 11 bb 25 f6 1f bb a3 54 45 ba 90 2d cb bb
       -0.0022183165 -0.0024408188 -0.00075275655 -0.0062005
000170 8e 04 0d bc 86 22 e3 3b 2b 4c 56 3b bf 6a 39 b9
       -0.008607043 0.0069316057 0.0032699208 -0.00017682741
000180 9f 47 1a 3c a0 e1 d8 bb ac b8 0b 3c a1 54 79 3b
       0.00941649 -0.0066186935 0.008527916 0.0038044828
000190 41 4c 39 3a 14 26 8c bc 5d 39 fd bb 4c 71 02 3c
       0.00070685527 -0.017108 -0.0077277855 0.007961582
0001a0 38 68 07 3c 7f 96 30 3c e8 44 35 3c 16 03 99 3b
       0.008264594 0.010778069 0.011063792 0.0046695573
0001b0 e9 88 37 bc b4 57 d5 bb dd 75 4e ba 93 5d 80 bb
       -0.0112020755 -0.006510699 -0.00078758394 -0.003917405
0001c0 36 9f d9 bb 67 b2 c8 b9 92 b0 5c 3c 18 97 58 bb
       -0.006641294 -0.00038279893 0.013469832 -0.0033049043
0001d0 f3 15 2f 3a 92 f3 0d 3b ad 4b 37 bc 36 33 17 bc
       0.0006678991 0.0021660072 -0.011187476 -0.009228518
0001e0 f1 c9 1f bc cc c9 ec bb 46 9b 0a 3b 28 90 85 3b
       -0.009752736 -0.0072262045 0.002114968 0.0040760227
0001f0 7a 7e cc bb 97 bb e2 3b 60 3e 06 3b 7d f1 82 3c
       -0.006240663 0.006919335 0.0020483956 0.015984291
000200 50 40 b2 bb 9e 08 7a 39 99 b9 f0 3a 46 2f eb bb
       -0.0054397956 0.00023845068 0.0018365859 -0.0071772663
000210 7d d2 48 bb 5e ea 6e 3c 24 3d bc 3b 9e ce 9d 3b
       -0.003064304 0.014582245 0.005744593 0.0048158905
000220 95 4c 5c 3a 31 de 70 3b 95 37 0e bb 29 73 9f ba
       0.00084037456 0.003675353 -0.002170061 -0.0012165058
000230 c7 26 ff 3a 7e 8d f4 3a 28 13 17 3c 1d dd ac bb
       0.0019466513 0.0018657891 0.009220876 -0.005275382
000240 90 5e b5 bb 33 91 b3 3b e9 bc 14 3c b2 79 a3 3a
       -0.0055349544 0.0054799556 0.009078243 0.0012472181
000250 3f 70 3c 3b db 0e 6a ba 93 f6 a2 bb 4f 7f 59 3a
       0.0028753427 -0.0008928605 -0.0049732416 0.00082968635
000260 6d ea af bb c5 6f b6 3b f5 b4 41 3b 95 ef 25 bc
       -0.005368522 0.005567523 0.0029557322 -0.010127922
000270 61 92 93 b9 43 1d 04 bc a9 8b 99 3b 96 c1 1b bc
       -0.00028147086 -0.008063617 0.0046858382 -0.009506604
000280 55 06 42 bc c0 f2 c7 38 bb 37 87 3b 31 cf 82 3c
       -0.01184233 9.534275e-05 0.0041265166 0.015967937
000290 b6 e9 e2 3b 79 a9 8a 3b a2 92 c6 bb db ee 58 bb
       0.006924833 0.0042316285 -0.0060599605 -0.0033101353
0002a0 8f 09 86 bb 03 3b 85 3b b0 70 16 ba 22 a4 47 3c
       -0.004090495 0.0040658726 -0.00057388376 0.012185128
0002b0 d1 30 8a 3b 70 33 19 bc c8 68 2c 3c ae 53 93 bb
       0.004217245 -0.009350643 0.010523029 -0.0044960594
0002c0 e5 07 85 3c 57 12 ed 39 95 29 f8 bb b8 90 88 3a
       0.016239116 0.00045217827 -0.0075733163 0.0010419106
0002d0 ef 24 48 b8 4c 07 ad bb c5 a5 3b bc cd d7 c8 bb
       -4.7718113e-05 -0.005280411 -0.011453097 -0.006129241
0002e0 7c 23 4d bc dc f4 4e bc 2e 67 18 39 35 51 0d 3c
       -0.012520667 -0.012631621 0.00014534287 0.008625318
0002f0 c9 00 89 bb a1 93 05 3c b3 c6 b2 bb 06 b4 e9 3a
       -0.004181002 0.008152873 -0.0054558157 0.001783014
000300 08 8b 7a bb bc e8 67 bc a4 28 37 3b e0 bb 8d bb
       -0.0038229842 -0.014154609 0.0027947808 -0.004325375
000310 15 68 31 3c fb da 40 bc 4f 6a 6a 3b b4 3e b5 bb
       0.010828038 -0.011770959 0.0035768931 -0.0055311564
000320 36 c6 c7 3b c5 3c 94 bb ea 3c 27 bc 03 67 02 3a
       0.0060966266 -0.004523846 -0.010207394 0.00049744564
000330 ed 61 44 bb ea de ce 3b 9c 52 6a 3b 9a 8a 9c bb
       -0.0029965595 0.0063131945 0.0035754805 -0.004777265
000340 73 ed b1 3b 76 d6 a6 3b 8a dd 83 3b a2 42 11 bc
       0.0054299175 0.0050914837 0.0040242122 -0.008865984
000350 3a 5c 3f bb 8a 84 15 bb a7 a3 9f 3b 53 17 85 3b
       -0.0029199258 -0.0022814595 0.004871804 0.0040616184
000360 90 e8 6d 3b 3e 42 02 bb ce 06 0e bc 52 b5 06 3b
       0.0036301948 -0.001987591 -0.008668615 0.0020554853
000370 30 ae e8 bb 1c 1d 27 bc de 84 27 bc 81 8e fe 3b
       -0.007100843 -0.010199811 -0.010224549 0.0077684526
000380 4a 59 0d bc 98 76 62 bc ba 8a 33 ba bb 02 ac bb
       -0.008627245 -0.01382222 -0.000684898 -0.005249349
000390 c3 4b 5e 3c 2d 18 a9 3a 2c df 5d bc 88 6b 0c bc
       0.013567868 0.0012900882 -0.013541978 -0.008570559
0003a0 24 ef a3 3b e1 59 ba 3a 82 15 10 bc 96 37 28 ba
       0.005002873 0.001421746 -0.00879419 -0.00064169744
0003b0 83 19 aa bb 4a b7 93 bb ae c7 be 3b 4a 30 d5 3b
       -0.0051910295 -0.0045079337 0.0058221435 0.0065060006
0003c0 30 43 10 3a b7 0b f7 3a 62 b7 ac 3b 1f 7a 38 3b
       0.0005503176 0.0018848096 0.0052708844 0.0028148962
0003d0 aa ad 15 ba 83 88 15 b9 37 d4 65 3c 3e 71 49 bc
       -0.0005709777 -0.00014260602 0.014027647 -0.012295065
0003e0 ca 05 4b 3c e5 a7 0f bc 49 06 98 bb b4 13 ee bb
       0.012391517 -0.0087680565 -0.004639421 -0.0072655324
0003f0 d3 9a 9c 3b 0b c8 69 3b 75 ed 73 bb f8 0d 9e bb
       0.0047791987 0.0035672213 -0.0037220393 -0.0048234425

layers.0.weight f4 [100, 14]
000000 4c 73 4f bd 4c e3 80 3d 78 16 d1 bd b2 45 7b 3e
       -0.050647065 0.062933534 -0.10209364 0.24538305
000010 0a e8 01 3e 37 be 9d be 73 f6 d5 3d c7 02 40 be
       0.12686172 -0.30809185 0.10447397 -0.1875106
000020 e5 72 9e be 54 75 2d bd 6a 0d b0 3e c8 34 dc bd
       -0.30947033 -0.04234822 0.34385234 -0.10752255
000030 04 21 84 3e 11 dc 54 be cc c6 d6 3e 5c 39 a8 3e
       0.2580644 -0.20787074 0.41948545 0.32856262
000040 64 24 9f be 56 34 e4 3e 14 81 fe 3e fd 12 da 3d
       -0.3108245 0.4457118 0.49707854 0.10648153
000050 d4 04 0a 3e 61 a5 d6 be 39 3d a8 be bc 27 9f 3e
       0.13478404 -0.4192305 -0.3285921 0.31085002
000060 5d f4 e3 be da 9c fe be 9e 7a d9 bd a2 3c 0a be
       -0.44522372 -0.49729043 -0.106190905 -0.13499692
000070 2e 3e 82 3d e4 3c 0b bd bb d3 05 3e f5 92 2c 38
       0.06359516 -0.033993617 0.1306905 4.114486e-05
000080 2b 08 40 be 61 b3 c4 3d d9 70 aa bd dc 58 96 be
       -0.18753116 0.09604526 -0.08322305 -0.2936467
000090 6a ae 82 3e b4 c6 b2 be b4 3e 84 be 9a 3f e9 bd
       0.25523692 -0.34917223 -0.2582909 -0.11389084
0000a0 7c 16 37 be 06 e5 d9 be cd 69 01 bc 56 42 e4 bc
       -0.17879671 -0.42557544 -0.00789876 -0.027863663
0000b0 13 65 45 3d 17 29 27 3b e4 05 6a 3c 52 fa 3c bd
       0.048192095 0.002550667 0.014283631 -0.04613716
0000c0 6d 81 20 bc 93 37 28 bc 65 7a d4 bc 68 9a 7f 3c
       -0.0097964825 -0.010267156 -0.025937269 0.015600778
0000d0 ee 0c 95 3c b1 5f 0f bb 8b aa 41 3c f5 37 df 3a
       0.018194642 -0.0021877105 0.011820446 0.0017030226
0000e0 a3 8c 82 be 27 1b 9f be 0a 3c 84 be 48 ca cb be
       -0.25497922 -0.31075403 -0.25827056 -0.39802766
0000f0 e3 ca d8 3d 39 8c 91 3e ee 4d ef bd c1 3f 92 3e
       0.105855726 0.28427294 -0.11684786 0.28564265
000100 a9 87 a8 3e ca 0c 3c 3e 6c 3e 92 be 80 ec a2 bd
       0.32916 0.18364254 -0.2856325 -0.07955265
000110 02 4e 86 be f1 bd cf bb 88 43 85 bc f3 c5 a2 be
       -0.2623139 -0.0063397815 -0.016267553 -0.31791648
000120 80 f0 4e be 04 14 8f be 2a 30 0f be 89 92 c8 3e
       -0.20208931 -0.27944958 -0.13983217 0.39174297
000130 de de a0 bd b6 d6 75 bd a0 2f 6b be 97 d6 31 3e
       -0.078550085 -0.060019217 -0.22967386 0.17367016
000140 58 d6 5e be 57 0f 9a be 2c bd 90 3e e7 0a 09 be
       -0.21761453 -0.30089828 0.28269327 -0.13383065
000150 60 36 a3 3e b7 2c 2f 3e e9 0f c2 be 3e 11 9b 3b
       0.31877422 0.17106901 -0.37902763 0.00473228
000160 d6 c7 00 be 15 44 6c be 2f ee ff bd 62 84 df 3d
       -0.12576231 -0.23072846 -0.12496602 0.10913922
000170 7f 14 a4 3e 17 c1 02 3f 48 f1 97 3c 7a b6 62 be
       0.32046887 0.5107588 0.018547669 -0.22139922
000180 86 71 04 3d 20 83 48 3e 4c be ef ba 94 94 58 be
       0.032334827 0.1958127 -0.0018290966 -0.21150428
000190 e5 1f 19 bd aa 91 cb 3d ae 61 78 be b2 8b 7d bd
       -0.037383933 0.099398926 -0.24256012 -0.061900802
0001a0 7a c5 1c 3e 53 6c 05 3c 4b 92 47 be 09 fe 71 bd
       0.15309706 0.008143502 -0.194894 -0.059080157
0001b0 ea cb 0c 3e 7f c5 ac be 80 02 e3 bd 02 79 46 3e
       0.13749662 -0.33744428 -0.11084461 0.19382098
0001c0 f6 f3 84 3e 2a 24 44 be 28 6b eb bd 98 bd bc 3d
       0.25967377 -0.1915442 -0.11495048 0.0921585
0001d0 78 bd 5d be 33 6d 9c bd 4f 99 44 3e 86 44 e4 bd
       -0.21654308 -0.076380156 0.19199108 -0.11145882
0001e0 73 94 5e 3d 2a 81 5c 3d 91 c5 8d bd 6e 64 26 3d
       0.05434079 0.053834118 -0.069224484 0.04062312
0001f0 6c ee 17 3d 97 67 c6 bd 89 1e 4d 3e 9b 04 86 be
       0.03709261 -0.09687727 0.2003118 -0.2617539
000200 a1 c7 06 be a2 56 2f 3e 47 1c 00 bd 44 7e 64 3e
       -0.1316209 0.17122892 -0.031276967 0.22313792
000210 e0 63 d4 be 3a c5 fb bc 7a 76 32 bc 1b 1d f1 bd
       -0.4148245 -0.030733693 -0.010892505 -0.117731296
000220 61 c7 9f bc c9 c2 f0 bd c5 6e 12 3d f2 8c b2 3d
       -0.019504251 -0.11755902 0.03575017 0.087182894
000230 d3 84 6c 3e 12 85 df 3d b7 12 15 3e 89 6d 8d be
       0.23097543 0.10914053 0.1455792 -0.2762263
000240 37 68 d7 be 8e 9f f4 3e 79 d9 10 be 6c de 25 be
       -0.42071697 0.4777798 -0.14145459 -0.16198128
000250 48 7e d5 bc 8a 51 62 be fb 26 83 3e df ed 0f bf
       -0.026061192 -0.22101417 0.25615677 -0.5622234
000260 7c b3 b0 be 4f 87 18 3d b1 6d b9 be 75 b1 be be
       -0.34511936 0.037238415 -0.362165 -0.37244764
000270 eb b3 45 3d 08 dc 12 bf 75 50 e5 3d a4 97 10 3e
       0.048267286 -0.5736699 0.111969866 0.14120346
000280 3e cf 2c 3e f1 39 b9 3e ef 1e be 3e 3b cd 45 bd
       0.16875932 0.36177018 0.37132975 -0.048291426
000290 5b a7 12 3f 11 48 e7 bd 84 a1 10 be 8e be 2b be
       0.57286614 -0.112930425 -0.14124113 -0.1677191
0002a0 bc dd c8 3b 32 4c 19 be f1 0c ca 3e 52 c8 a0 be
       0.0061299484 -0.14970472 0.39462999 -0.31402832
0002b0 7c 83 88 3e 22 4b b4 be c6 3d d9 3c 48 dc c1 3e
       0.26662815 -0.35213572 0.026518714 0.37863374
0002c0 f6 d1 8d 3e aa 9d 18 bd 4f 0e 66 3e 3b f6 8e be
       0.2769925 -0.037259735 0.22466396 -0.27922234
0002d0 76 47 a4 be 51 a9 75 3e 90 f8 05 3d 02 23 43 3e
       -0.3208577 0.2399037 0.03270775 0.19056323
0002e0 45 f1 77 3c e9 f2 be bd 8b 07 ad be ca be 80 3e
       0.015133207 -0.09323675 -0.33794817 0.2514556
0002f0 4a 85 38 be 90 58 9f 3e 1a fa 18 be f3 e7 b0 3e
       -0.18019596 0.31122255 -0.14939156 0.34551963
000300 45 2e 8c bc 0f 0c c2 3e 4d 18 9c 3e c3 2c c1 3d
       -0.017111907 0.37899825 0.3048729 0.09432366
000310 bd e8 21 3e a8 f5 70 3d 45 31 46 be 2a a0 e3 3c
       0.15811439 0.058828026 -0.19354732 0.027786333
000320 64 05 fe 3e 2d 20 03 be 3e 42 e2 be e6 51 21 be
       0.49613488 -0.12805243 -0.44191164 -0.15753898
000330 e1 40 36 3e 6b 75 36 3e 08 13 e0 3d 1a 99 c6 be
       0.17798187 0.17818229 0.1094113 -0.38788682
000340 07 99 da 3b 8f 2b cf be de 53 cf 3e 75 e4 85 3e
       0.0066710743 -0.4046292 0.40493673 0.2615086
000350 fe b3 c9 be 7b a1 6f 3e 8a e6 ea 3c 00 2b 22 3e
       -0.39395136 0.23401444 0.028674383 0.15836716
000360 2a 1c bd 3d 70 ca f2 bd 18 6a 72 be eb 87 1b 3e
       0.092338875 -0.11855018 -0.23673284 0.15188567
000370 33 8b 5b be ae ed e2 3e 25 8f 04 3f ee 6b 01 3e
       -0.21439819 0.4432196 0.5178092 0.12638828
000380 8b a3 ad bd 5f a1 95 3c 1c a3 24 bc 98 4b 64 3d
       -0.08478459 0.018265424 -0.010048654 0.055736154
000390 a5 a7 82 3d a6 a8 4a bc a0 fb 74 3d a4 7c c0 be
       0.06379632 -0.0123693105 0.05981028 -0.37595093
0003a0 ae de c2 be fd 06 4f bd bb 90 2b 3d a5 28 da 3e
       -0.38060516 -0.050543774 0.041886073 0.42609134
0003b0 bb 24 95 bd fb e7 00 bf 5e 7d 48 be 99 87 c6 be
       -0.072823964 -0.50353974 -0.19579074 -0.38775328
0003c0 58 df 07 bd 98 31 7f be 37 ff 41 3e eb 38 7d be
       -0.03317198 -0.24921262 0.18945013 -0.24728744
0003d0 bc eb d1 3d 30 6e 40 3e c6 eb 04 be ab b9 44 be
       0.10250041 0.18792033 -0.12980565 -0.19211452
0003e0 09 78 20 3e e5 89 f1 bd 44 ae 3f 3d a0 10 20 3e
       0.1567079 -0.117938794 0.046797052 0.15631342
0003f0 73 f1 a0 3e 62 65 86 3e fd fa 7a bd e2 28 23 3f
       0.3143421 0.26249224 -0.061274517 0.6373426

layers.0.bias f4 [100]
000000 59 35 5d bb 4b e2 84 3a ab ab 09 bd 0b 02 8c be
       -0.0033753722 0.0010138241 -0.03361098 -0.2734531
000010 d2 e5 f1 bd f7 32 07 bf b5 08 9f bd 3a 7c 77 bf
       -0.11811413 -0.5281214 -0.077653326 -0.9667393
000020 04 2b 37 bf 02 39 3a bf bb e4 b7 bd ec 91 d7 3a
       -0.7155001 -0.72743237 -0.08979174 0.0016446686
000030 28 46 45 be 7e 2e 37 3d 29 65 35 bd b9 6d 92 be
       -0.19265044 0.044722073 -0.044285927 -0.28599337
000040 66 38 0f be a0 99 3f 3d 2d bc bd be 8b b9 85 3c
       -0.13986358 0.046777368 -0.3705763 0.016323825
000050 75 d7 0e be c6 af 0a bf fd c8 46 be 23 83 37 3d
       -0.13949378 -0.5417446 -0.19412608 0.044802796
000060 74 35 2d bf e9 e3 29 be 18 ff 32 bf fd f0 b0 be
       -0.6765969 -0.16590847 -0.6992049 -0.3455886
000070 b9 1d f5 be 30 81 b5 be 6d 89 d3 be b6 7d 00 3e
       -0.4787424 -0.35450125 -0.41315785 0.12547955
000080 5d 54 bb be c7 92 11 bf f6 ae 9b be f1 a4 a1 be
       -0.36587802 -0.5686459 -0.30406922 -0.31571153
000090 b0 54 21 be 0c bf c4 be cc 9c d7 be 10 8e 93 be
       -0.15754962 -0.38427007 -0.42111814 -0.28819323
0000a0 f8 61 4e bf 4f 0f e3 be ea 2b 2e bf 1e f3 12 3e
       -0.8061824 -0.44347617 -0.6803576 0.14350554
0000b0 b7 4a ac bd ee f6 c8 bc 25 43 22 bf 1a da b7 ba
       -0.08412688 -0.024531808 -0.63383704 -0.0014026791
0000c0 38 08 b3 bd 6e 50 36 3d d7 20 3e 3d 7d 96 b4 bd
       -0.08741802 0.044510297 0.046418037 -0.08817766
0000d0 9a 04 84 be 7f bb b2 be 61 ea 97 be 12 c8 8f be
       -0.2578476 -0.34908673 -0.29671004 -0.2808233
0000e0 48 f5 81 bd 1a 42 ad be a4 21 40 3e 9c d4 6b 3b
       -0.06345612 -0.33839494 0.18762833 0.003598488
0000f0 be ca 5a be 96 57 bb be ec 71 35 bf d8 8a fe bd
       -0.21366403 -0.3659026 -0.70876956 -0.12428826
000100 47 7d 09 bf 99 d0 2f be 4a df aa bd ed 11 3a bc
       -0.53706783 -0.17169417 -0.0834337 -0.011356813
000110 7b 18 ad be 16 78 85 be 80 8c 3a bf 46 11 65 bf
       -0.3380774 -0.2606818 -0.72870636 -0.8947948
000120 35 73 1d bf 6a f1 45 3e 45 43 d0 3d 37 92 db be
       -0.61503917 0.19330373 0.10169081 -0.4288499
000130 6d 32 16 bf 67 f3 06 bf f2 29 c8 bd fa be 45 be
       -0.58670694 -0.5271515 -0.097736254 -0.19311133
000140 86 ee e1 3d 60 3a d8 be ce 7c 01 bf f5 37 53 3a
       0.11031823 -0.42232037 -0.5058106 0.00080573495
000150 7b e9 42 be 9a 89 3f bf 3f 8b 86 bd 6d 09 8c be
       -0.19034378 -0.7481934 -0.06569528 -0.2735094
000160 75 33 9d be d3 7e 5e be d7 49 b8 be 1a a3 c2 be
       -0.3070332 -0.21728067 -0.35993835 -0.38015062
000170 0c 46 12 be 2a fa af be 1c 93 c8 be 0a 9d 2f bf
       -0.14284533 -0.34370548 -0.39174736 -0.68599
000180 93 e8 bf bd 31 87 b0 3d f5 86 a5 be ae 5e 17 bf
       -0.09370532 0.08619536 -0.32329527 -0.59128845

layers.2.weight f4 [1, 100]
000000 75 db 81 bd ac f1 e7 3e 4d 26 b1 bd 1f 85 8a 3a
       -0.06340686 0.45301569 -0.086498834 0.0010568238
000010 94 29 23 be 7f 7e 38 be 65 19 2f be 88 17 31 bf
       -0.1593383 -0.18017004 -0.17099531 -0.6917653
000020 31 f1 06 bf fe 0c 90 3e c0 c1 5c be 4b 91 bf 3e
       -0.5271178 0.28134912 -0.21558285 0.37415537
000030 89 87 15 be f0 74 ce bd f3 2d 4b be 05 b7 31 be
       -0.14602484 -0.10080898 -0.19841747 -0.17354973
000040 55 74 04 be 3b db 8f bd 34 2a 59 be 20 14 08 3a
       -0.12935002 -0.07024237 -0.21207505 0.0005190987
000050 87 5e 2a be d2 12 97 be aa 86 09 be 9b 67 5b be
       -0.16637622 -0.29506546 -0.13430277 -0.21426241
000060 be ee e0 3e bc e4 36 be 9e 34 8d 3e cc 5b e8 3b
       0.43932146 -0.17860693 0.27579206 0.007091021
000070 42 be 4c be 43 21 b7 3c 5b 87 12 be cb 74 da bd
       -0.19994453 0.022354728 -0.14309447 -0.10666808
000080 fa 98 38 be 21 e5 69 be d7 fc fb bd 54 73 0a 3b
       -0.18027106 -0.22841312 -0.12304085 0.002112587
000090 a4 61 4d be c2 5e 14 be 64 33 c9 bc f1 9b de bd
       -0.20056778 -0.14489272 -0.024560638 -0.10869587
0000a0 f7 1d ef be ce 0d 2e be 93 71 bc be 50 f5 28 be
       -0.4670255 -0.16997454 -0.368054 -0.1649983
0000b0 c5 c5 89 be e1 90 ab bd ed c6 4f be b8 d7 b0 3e
       -0.269087 -0.08377243 -0.20290728 0.3453958
0000c0 30 b1 25 be 4e df 27 bd d7 dc f0 bd b4 10 5b be
       -0.16180873 -0.040984444 -0.11760872 -0.2139309
0000d0 ba 1d 2e be 62 44 5e be b4 c9 97 3c 94 01 18 be
       -0.17003527 -0.21705773 0.018528797 -0.14844352
0000e0 39 1c 3f be 28 2c 22 bb d1 0e e3 bd 53 6d ad 3e
       -0.1866311 -0.0024745557 -0.110868104 0.3387247
0000f0 fb 1e 38 be 81 d5 04 39 28 01 b4 be 5e da 2d be
       -0.17980568 0.00012668037 -0.35157132 -0.16977832
000100 13 ef 3a 3e 98 80 63 be 50 c4 d0 bd f4 8d 47 be
       0.18255262 -0.22217023 -0.10193694 -0.19487745
000110 9e ce 56 bb dc a9 82 3b 58 ab 8a be 26 f8 e1 be
       -0.0032776962 0.003987534 -0.2708385 -0.44134635
000120 fc f5 cb be eb c4 b2 bd 0a 3a d5 bd 22 d5 80 be
       -0.3983611 -0.08728965 -0.10411461 -0.25162607
000130 14 c7 82 3e 5d 3a 2f be 69 70 17 be 60 26 18 be
       0.2554251 -0.17112108 -0.14788975 -0.14858389
000140 b1 3b 20 bd ec ae 27 be 5a 4a 22 be 91 1a b3 3e
       -0.039119426 -0.16375321 -0.15848675 0.34981206
000150 cb 54 66 bd e9 c8 be 3e be f0 16 be 20 eb 52 3b
       -0.05623321 0.37262657 -0.14740273 0.0032183602
000160 4d 95 2d be bb f2 5d be 48 d2 8b be 07 b0 8d be
       -0.16951485 -0.21674626 -0.2730887 -0.2767336
000170 3c 44 21 bd f3 0f 0b be 58 3e 1a be 75 da 9f 3e
       -0.039371714 -0.13580303 -0.15062845 0.31221357
000180 99 3b 49 be b5 03 dd bd 3b 00 31 3c 8c b1 e5 3e
       -0.19651641 -0.10791723 0.010803278 0.4486202

grad_avg f4 [494, 7]
000000 00 00 00 00 00 00 00 00 00 00 00 00 00 00 00 00
       0.0 0.0 0.0 0.0
000010 00 00 00 00 00 00 00 00 00 00 00 00 00 00 00 00
       0.0 0.0 0.0 0.0
000020 00 00 00 00 00 00 00 00 00 00 00 00 00 00 00 00
       0.0 0.0 0.0 0.0
000030 00 00 00 00 00 00 00 00 00 00 00 00 00 00 00 00
       0.0 0.0 0.0 0.0
000040 00 00 00 00 00 00 00 00 00 00 00 00 00 00 00 00
       0.0 0.0 0.0 0.0
000050 00 00 00 00 00 00 00 00 00 00 00 00 00 00 00 00
       0.0 0.0 0.0 0.0
000060 00 00 00 00 00 00 00 00 00 00 00 00 00 00 00 00
       0.0 0.0 0.0 0.0
000070 00 00 00 00 00 00 00 00 00 00 00 00 00 00 00 00
       0.0 0.0 0.0 0.0
000080 00 00 00 00 00 00 00 00 00 00 00 00 00 00 00 00
       0.0 0.0 0.0 0.0
000090 00 00 00 00 00 00 00 00 00 00 00 00 00 00 00 00
       0.0 0.0 0.0 0.0
0000a0 00 00 00 00 00 00 00 00 00 00 00 00 00 00 00 00
       0.0 0.0 0.0 0.0
0000b0 00 00 00 00 00 00 00 00 00 00 00 00 00 00 00 00
       0.0 0.0 0.0 0.0
0000c0 00 00 00 00 00 00 00 00 00 00 00 00 00 00 00 00
       0.0 0.0 0.0 0.0
0000d0 00 00 00 00 00 00 00 00 00 00 00 00 00 00 00 00
       0.0 0.0 0.0 0.0
0000e0 00 00 00 00 00 00 00 00 00 00 00 00 00 00 00 00
       0.0 0.0 0.0 0.0
0000f0 00 00 00 00 00 00 00 00 00 00 00 00 00 00 00 00
       0.0 0.0 0.0 0.0
000100 00 00 00 00 00 00 00 00 00 00 00 00 00 00 00 00
       0.0 0.0 0.0 0.0
000110 00 00 00 00 00 00 00 00 00 00 00 00 00 00 00 00
       0.0 0.0 0.0 0.0
000120 00 00 00 00 00 00 00 00 00 00 00 00 00 00 00 00
       0.0 0.0 0.0 0.0
000130 00 00 00 00 00 00 00 00 00 00 00 00 00 00 00 00
       0.0 0.0 0.0 0.0
000140 00 00 00 00 00 00 00 00 00 00 00 00 00 00 00 00
       0.0 0.0 0.0 0.0
000150 00 00 00 00 00 00 00 00 00 00 00 00 00 00 00 00
       0.0 0.0 0.0 0.0
000160 00 00 00 00 00 00 00 00 00 00 00 00 00 00 00 00
       0.0 0.0 0.0 0.0
000170 00 00 00 00 00 00 00 00 00 00 00 00 00 00 00 00
       0.0 0.0 0.0 0.0
000180 00 00 00 00 00 00 00 00 00 00 00 00 00 00 00 00
       0.0 0.0 0.0 0.0
000190 00 00 00 00 00 00 00 00 00 00 00 00 00 00 00 00
       0.0 0.0 0.0 0.0
0001a0 00 00 00 00 00 00 00 00 00 00 00 00 00 00 00 00
       0.0 0.0 0.0 0.0
0001b0 00 00 00 00 00 00 00 00 00 00 00 00 00 00 00 00
       0.0 0.0 0.0 0.0
0001c0 00 00 00 00 00 00 00 00 00 00 00 00 00 00 00 00
       0.0 0.0 0.0 0.0
0001d0 00 00 00 00 00 00 00 00 00 00 00 00 00 00 00 00
       0.0 0.0 0.0 0.0
0001e0 00 00 00 00 00 00 00 00 00 00 00 00 00 00 00 00
       0.0 0.0 0.0 0.0
0001f0 00 00 00 00 00 00 00 00 00 00 00 00 00 00 00 00
       0.0 0.0 0.0 0.0
000200 00 00 00 00 00 00 00 00 00 00 00 00 00 00 00 00
       0.0 0.0 0.0 0.0
000210 00 00 00 00 00 00 00 00 00 00 00 00 00 00 00 00
       0.0 0.0 0.0 0.0
000220 00 00 00 00 00 00 00 00 00 00 00 00 00 00 00 00
       0.0 0.0 0.0 0.0
000230 00 00 00 00 00 00 00 00 00 00 00 00 00 00 00 00
       0.0 0.0 0.0 0.0
000240 00 00 00 00 00 00 00 00 00 00 00 00 00 00 00 00
       0.0 0.0 0.0 0.0
000250 00 00 00 00 00 00 00 00 00 00 00 00 00 00 00 00
       0.0 0.0 0.0 0.0
000260 00 00 00 00 00 00 00 00 00 00 00 00 00 00 00 00
       0.0 0.0 0.0 0.0
000270 00 00 00 00 00 00 00 00 00 00 00 00 00 00 00 00
       0.0 0.0 0.0 0.0
000280 00 00 00 00 00 00 00 00 00 00 00 00 00 00 00 00
       0.0 0.0 0.0 0.0
000290 00 00 00 00 00 00 00 00 00 00 00 00 00 00 00 00
       0.0 0.0 0.0 0.0
0002a0 00 00 00 00 00 00 00 00 00 00 00 00 00 00 00 00
       0.0 0.0 0.0 0.0
0002b0 00 00 00 00 00 00 00 00 00 00 00 00 00 00 00 00
       0.0 0.0 0.0 0.0
0002c0 00 00 00 00 00 00 00 00 00 00 00 00 00 00 00 00
       0.0 0.0 0.0 0.0
0002d0 00 00 00 00 00 00 00 00 00 00 00 00 00 00 00 00
       0.0 0.0 0.0 0.0
0002e0 00 00 00 00 00 00 00 00 00 00 00 00 00 00 00 00
       0.0 0.0 0.0 0.0
0002f0 00 00 00 00 00 00 00 00 00 00 00 00 00 00 00 00
       0.0 0.0 0.0 0.0
000300 00 00 00 00 00 00 00 00 00 00 00 00 00 00 00 00
       0.0 0.0 0.0 0.0
000310 00 00 00 00 00 00 00 00 00 00 00 00 00 00 00 00
       0.0 0.0 0.0 0.0
000320 00 00 00 00 00 00 00 00 00 00 00 00 00 00 00 00
       0.0 0.0 0.0 0.0
000330 00 00 00 00 00 00 00 00 00 00 00 00 00 00 00 00
       0.0 0.0 0.0 0.0
000340 00 00 00 00 00 00 00 00 00 00 00 00 00 00 00 00
       0.0 0.0 0.0 0.0
000350 00 00 00 00 00 00 00 00 00 00 00 00 00 00 00 00
       0.0 0.0 0.0 0.0
000360 00 00 00 00 00 00 00 00 00 00 00 00 00 00 00 00
       0.0 0.0 0.0 0.0
000370 00 00 00 00 00 00 00 00 00 00 00 00 00 00 00 00
       0.0 0.0 0.0 0.0
000380 00 00 00 00 00 00 00 00 00 00 00 00 00 00 00 00
       0.0 0.0 0.0 0.0
000390 00 00 00 00 00 00 00 00 00 00 00 00 00 00 00 00
       0.0 0.0 0.0 0.0
0003a0 00 00 00 00 00 00 00 00 00 00 00 00 00 00 00 00
       0.0 0.0 0.0 0.0
0003b0 00 00 00 00 00 00 00 00 00 00 00 00 00 00 00 00
       0.0 0.0 0.0 0.0
0003c0 00 00 00 00 00 00 00 00 00 00 00 00 00 00 00 00
       0.0 0.0 0.0 0.0
0003d0 00 00 00 00 00 00 00 00 00 00 00 00 00 00 00 00
       0.0 0.0 0.0 0.0
0003e0 00 00 00 00 00 00 00 00 00 00 00 00 00 00 00 00
       0.0 0.0 0.0 0.0
0003f0 00 00 00 00 00 00 00 00 00 00 00 00 00 00 00 00
       0.0 0.0 0.0 0.0

sqr_avg f4 [494, 7]
000000 00 00 00 00 00 00 00 00 00 00 00 00 00 00 00 00
       0.0 0.0 0.0 0.0
000010 00 00 00 00 00 00 00 00 00 00 00 00 00 00 00 00
       0.0 0.0 0.0 0.0
000020 00 00 00 00 00 00 00 00 00 00 00 00 00 00 00 00
       0.0 0.0 0.0 0.0
000030 00 00 00 00 00 00 00 00 00 00 00 00 00 00 00 00
       0.0 0.0 0.0 0.0
000040 00 00 00 00 00 00 00 00 00 00 00 00 00 00 00 00
       0.0 0.0 0.0 0.0
000050 00 00 00 00 00 00 00 00 00 00 00 00 00 00 00 00
       0.0 0.0 0.0 0.0
000060 00 00 00 00 00 00 00 00 00 00 00 00 00 00 00 00
       0.0 0.0 0.0 0.0
000070 00 00 00 00 00 00 00 00 00 00 00 00 00 00 00 00
       0.0 0.0 0.0 0.0
000080 00 00 00 00 00 00 00 00 00 00 00 00 00 00 00 00
       0.0 0.0 0.0 0.0
000090 00 00 00 00 00 00 00 00 00 00 00 00 00 00 00 00
       0.0 0.0 0.0 0.0
0000a0 00 00 00 00 00 00 00 00 00 00 00 00 00 00 00 00
       0.0 0.0 0.0 0.0
0000b0 00 00 00 00 00 00 00 00 00 00 00 00 00 00 00 00
       0.0 0.0 0.0 0.0
0000c0 00 00 00 00 00 00 00 00 00 00 00 00 00 00 00 00
       0.0 0.0 0.0 0.0
0000d0 00 00 00 00 00 00 00 00 00 00 00 00 00 00 00 00
       0.0 0.0 0.0 0.0
0000e0 00 00 00 00 00 00 00 00 00 00 00 00 00 00 00 00
       0.0 0.0 0.0 0.0
0000f0 00 00 00 00 00 00 00 00 00 00 00 00 00 00 00 00
       0.0 0.0 0.0 0.0
000100 00 00 00 00 00 00 00 00 00 00 00 00 00 00 00 00
       0.0 0.0 0.0 0.0
000110 00 00 00 00 00 00 00 00 00 00 00 00 00 00 00 00
       0.0 0.0 0.0 0.0
000120 00 00 00 00 00 00 00 00 00 00 00 00 00 00 00 00
       0.0 0.0 0.0 0.0
000130 00 00 00 00 00 00 00 00 00 00 00 00 00 00 00 00
       0.0 0.0 0.0 0.0
000140 00 00 00 00 00 00 00 00 00 00 00 00 00 00 00 00
       0.0 0.0 0.0 0.0
000150 00 00 00 00 00 00 00 00 00 00 00 00 00 00 00 00
       0.0 0.0 0.0 0.0
000160 00 00 00 00 00 00 00 00 00 00 00 00 00 00 00 00
       0.0 0.0 0.0 0.0
000170 00 00 00 00 00 00 00 00 00 00 00 00 00 00 00 00
       0.0 0.0 0.0 0.0
000180 00 00 00 00 00 00 00 00 00 00 00 00 00 00 00 00
       0.0 0.0 0.0 0.0
000190 00 00 00 00 00 00 00 00 00 00 00 00 00 00 00 00
       0.0 0.0 0.0 0.0
0001a0 00 00 00 00 00 00 00 00 00 00 00 00 00 00 00 00
       0.0 0.0 0.0 0.0
0001b0 00 00 00 00 00 00 00 00 00 00 00 00 00 00 00 00
       0.0 0.0 0.0 0.0
0001c0 00 00 00 00 00 00 00 00 00 00 00 00 00 00 00 00
       0.0 0.0 0.0 0.0
0001d0 00 00 00 00 00 00 00 00 00 00 00 00 00 00 00 00
       0.0 0.0 0.0 0.0
0001e0 00 00 00 00 00 00 00 00 00 00 00 00 00 00 00 00
       0.0 0.0 0.0 0.0
0001f0 00 00 00 00 00 00 00 00 00 00 00 00 00 00 00 00
       0.0 0.0 0.0 0.0
000200 00 00 00 00 00 00 00 00 00 00 00 00 00 00 00 00
       0.0 0.0 0.0 0.0
000210 00 00 00 00 00 00 00 00 00 00 00 00 00 00 00 00
       0.0 0.0 0.0 0.0
000220 00 00 00 00 00 00 00 00 00 00 00 00 00 00 00 00
       0.0 0.0 0.0 0.0
000230 00 00 00 00 00 00 00 00 00 00 00 00 00 00 00 00
       0.0 0.0 0.0 0.0
000240 00 00 00 00 00 00 00 00 00 00 00 00 00 00 00 00
       0.0 0.0 0.0 0.0
000250 00 00 00 00 00 00 00 00 00 00 00 00 00 00 00 00
       0.0 0.0 0.0 0.0
000260 00 00 00 00 00 00 00 00 00 00 00 00 00 00 00 00
       0.0 0.0 0.0 0.0
000270 00 00 00 00 00 00 00 00 00 00 00 00 00 00 00 00
       0.0 0.0 0.0 0.0
000280 00 00 00 00 00 00 00 00 00 00 00 00 00 00 00 00
       0.0 0.0 0.0 0.0
000290 00 00 00 00 00 00 00 00 00 00 00 00 00 00 00 00
       0.0 0.0 0.0 0.0
0002a0 00 00 00 00 00 00 00 00 00 00 00 00 00 00 00 00
       0.0 0.0 0.0 0.0
0002b0 00 00 00 00 00 00 00 00 00 00 00 00 00 00 00 00
       0.0 0.0 0.0 0.0
0002c0 00 00 00 00 00 00 00 00 00 00 00 00 00 00 00 00
       0.0 0.0 0.0 0.0
0002d0 00 00 00 00 00 00 00 00 00 00 00 00 00 00 00 00
       0.0 0.0 0.0 0.0
0002e0 00 00 00 00 00 00 00 00 00 00 00 00 00 00 00 00
       0.0 0.0 0.0 0.0
0002f0 00 00 00 00 00 00 00 00 00 00 00 00 00 00 00 00
       0.0 0.0 0.0 0.0
000300 00 00 00 00 00 00 00 00 00 00 00 00 00 00 00 00
       0.0 0.0 0.0 0.0
000310 00 00 00 00 00 00 00 00 00 00 00 00 00 00 00 00
       0.0 0.0 0.0 0.0
000320 00 00 00 00 00 00 00 00 00 00 00 00 00 00 00 00
       0.0 0.0 0.0 0.0
000330 00 00 00 00 00 00 00 00 00 00 00 00 00 00 00 00
       0.0 0.0 0.0 0.0
000340 00 00 00 00 00 00 00 00 00 00 00 00 00 00 00 00
       0.0 0.0 0.0 0.0
000350 00 00 00 00 00 00 00 00 00 00 00 00 00 00 00 00
       0.0 0.0 0.0 0.0
000360 00 00 00 00 00 00 00 00 00 00 00 00 00 00 00 00
       0.0 0.0 0.0 0.0
000370 00 00 00 00 00 00 00 00 00 00 00 00 00 00 00 00
       0.0 0.0 0.0 0.0
000380 00 00 00 00 00 00 00 00 00 00 00 00 00 00 00 00
       0.0 0.0 0.0 0.0
000390 00 00 00 00 00 00 00 00 00 00 00 00 00 00 00 00
       0.0 0.0 0.0 0.0
0003a0 00 00 00 00 00 00 00 00 00 00 00 00 00 00 00 00
       0.0 0.0 0.0 0.0
0003b0 00 00 00 00 00 00 00 00 00 00 00 00 00 00 00 00
       0.0 0.0 0.0 0.0
0003c0 00 00 00 00 00 00 00 00 00 00 00 00 00 00 00 00
       0.0 0.0 0.0 0.0
0003d0 00 00 00 00 00 00 00 00 00 00 00 00 00 00 00 00
       0.0 0.0 0.0 0.0
0003e0 00 00 00 00 00 00 00 00 00 00 00 00 00 00 00 00
       0.0 0.0 0.0 0.0
0003f0 00 00 00 00 00 00 00 00 00 00 00 00 00 00 00 00
       0.0 0.0 0.0 0.0

grad_avg f4 [100, 14]
000000 dd e0 3a ba 9f 83 ef ba 11 6a 89 bb 2d 8f 70 ba
       -0.0007128844 -0.0018273479 -0.0041935523 -0.00091766083
000010 49 bb 3f 3a f4 30 94 bb 5e 9b ce 3a 83 38 45 3a
       0.00073139794 -0.004522437 0.0015762856 0.00075233745
000020 1f cc e3 b9 07 0a 36 3b 61 73 60 bb 8c 6a cc ba
       -0.00043448896 0.0027776973 -0.0034248459 -0.0015595718
000030 a3 87 c1 3a eb 6f 76 3a 5b 7e d4 3b 52 7d 66 3c
       0.0014765154 0.00094008324 0.0064847893 0.014067965
000040 0e 52 4a 3c 7c f9 22 3b c3 11 4d bb 5a ad ac 3c
       0.012348665 0.0024867943 -0.0031291104 0.021078754
000050 d6 a3 9e bc e6 ce a5 3c d9 c1 0d 3c ec f4 1a bc
       -0.019365232 0.020240258 0.008652174 -0.009457808
000060 ac e3 bc 3c 8c 13 9c 3b 6e 5a e6 bc eb c3 7b bc
       0.023057781 0.0047630724 -0.028119292 -0.015366535
000070 ab 60 9d bb ba 72 19 ba d0 7b eb 3a 99 80 f2 ba
       -0.0048027835 -0.00058535824 0.0017965976 -0.001850146
000080 35 39 c9 ba 80 3e b0 ba 8c 6a 5c 3a c8 c5 e7 3a
       -0.0015352132 -0.0013446361 0.00084082107 0.0017682845
000090 25 0b 31 38 34 50 bd ba 09 6d 06 bc bc a2 20 bb
       4.2210468e-05 -0.0014443458 -0.008204707 -0.002451106
0000a0 74 72 2b ba 4a 4c d0 3a 03 00 00 80 03 00 00 80
       -0.0006540187 0.0015891877 -4e-45 -4e-45
0000b0 03 00 00 00 03 00 00 00 03 00 00 00 03 00 00 80
       4e-45 4e-45 4e-45 -4e-45
0000c0 03 00 00 80 03 00 00 80 03 00 00 80 03 00 00 00
       -4e-45 -4e-45 -4e-45 4e-45
0000d0 03 00 00 00 03 00 00 80 03 00 00 00 03 00 00 80
       4e-45 -4e-45 4e-45 -4e-45
0000e0 09 9f 3f bb b4 7b 0f ba 1b 35 fc 38 69 7f d0 bb
       -0.002923908 -0.00054734503 0.00012026188 -0.0063628447
0000f0 45 fe 89 3b 3b ce a2 bb 82 11 75 b8 73 7c d4 3b
       0.0042112195 -0.0049684322 -5.8428857e-05 0.006484562
000100 cc b0 c5 3a 22 1c 1f 3a 9b e7 d7 bb be dc 05 ba
       0.0015082597 0.0006069561 -0.006588889 -0.00051064405
000110 b4 ed 5d 3a fd ae f1 3a b0 f1 95 bb d1 b9 80 bc
       0.00084659015 0.0018438991 -0.0045759305 -0.015713604
000120 7d aa db bb 71 08 b5 3b aa e3 b9 3b b6 66 8c bb
       -0.0067036734 0.005524688 0.0056728916 -0.004284705
000130 06 04 ff b9 66 7b 84 3b 1f 87 9c bb 2d 47 06 3a
       -0.00048640388 0.0040430306 -0.00477685 0.00051223004
000140 74 2d 32 bb 0f 1d b5 bb df 7f a3 3b ee 03 b7 3b
       -0.0027187737 -0.0055271457 0.0049896087 0.0055851853
000150 dc bb 14 b8 1f d0 ac bb 7b cf 4f bb 84 62 36 bb
       -3.5460907e-05 -0.0052738334 -0.0031709361 -0.0027829716
000160 a1 24 a9 3b 6d 46 10 bc af 5f b1 3b 48 87 e5 3a
       0.005161837 -0.008805853 0.0054130177 0.001751163
000170 45 24 d1 bb 82 80 c4 3b 57 c7 7a 3a b4 fa 6f ba
       -0.0063824975 0.0059967646 0.0009566447 -0.0009154484
000180 9f 5e 06 3c 97 1c fa 3b c4 48 f5 39 f6 2e ea bb
       0.00820127 0.0076328027 0.00046784256 -0.0071467115
000190 43 e3 65 bc 60 09 98 bb 73 49 ee bb 6c ec 56 ba
       -0.014031234 -0.0046397895 -0.0072719394 -0.0008198682
0001a0 21 f4 78 3c 5b da 7b bb e2 41 02 bb 8f be e1 b8
       0.015194924 -0.003842971 -0.0019875695 -0.0001076433
0001b0 93 7d 31 3c 8f fa 1c bc 2b 2b 04 b9 45 e1 4a 3b
       0.010833162 -0.009581222 -0.00012604582 0.0030957025
0001c0 ce b1 77 ba 29 19 8f 3b 98 a8 c2 bc 2b d3 d3 39
       -0.0009448797 0.004367013 -0.023762032 0.0004040239
0001d0 ad b0 b0 b9 4f 4b a3 3b a4 f5 04 bb 34 7a 15 bb
       -0.0003370097 0.0049833427 -0.0020288015 -0.0022808434
0001e0 20 de f2 bb 48 9b 95 bb df 56 c7 ba 2e 12 b8 bb
       -0.0074117333 -0.00456563 -0.0015208385 -0.0056174016
0001f0 32 5b 76 39 c5 8c a2 bb ab c2 e6 3b 86 d7 3f 3b
       0.00023494361 -0.0049606287 0.007042249 0.002927275
000200 4d 5a 01 3b c5 e5 3b bb f2 56 03 3b 67 ba 25 bb
       0.0019737661 -0.002867089 0.0020040837 -0.0025288106
000210 45 17 a7 b7 39 f7 c5 bb 2d e4 90 b9 f2 a2 1f bc
       -1.9918787e-05 -0.006041434 -0.00027635825 -0.009743439
000220 c3 25 c3 3b 42 0c 11 3c 13 19 50 bb 5a 34 0d bb
       0.0059554293 0.00885302 -0.0031753227 -0.0021546097
000230 c7 20 c6 bb d6 c3 f0 b9 2d f8 87 bb ce aa 0a 3c
       -0.006046388 -0.00045922276 -0.004149458 0.008463575
000240 64 e2 a8 bb 65 1f 5d ba 56 8f 1e 3c 45 23 38 3c
       -0.005153941 -0.0008435159 0.009677729 0.011238878
000250 88 43 4a 3b fe db 62 bb ad 86 09 bc 70 92 a7 bb
       0.0030863006 -0.003461599 -0.008393926 -0.0051138923
000260 c3 7c ec 3a 14 ae e6 3b c9 8b 38 3c ab e2 38 3c
       0.0018042553 0.0070397947 0.011263796 0.011284511
000270 ee 4c d6 3b c4 5d 86 3c f4 0c 05 bc 3c 9d 02 3d
       0.0065399325 0.016402133 -0.008120764 0.03188823
000280 69 5f 19 3c 54 c4 4f bc aa 3c 24 bc 35 18 01 bc
       0.009361126 -0.012681086 -0.010024229 -0.007879307
000290 f5 09 5d 3c 72 90 b1 3c fa 81 2c ba d7 07 13 bc
       0.0134911435 0.021675322 -0.00065806473 -0.008974037
0002a0 99 a2 4f ba 2c ec 59 bb c5 d3 92 bb 20 eb 04 bc
       -0.0007920652 -0.0033252342 -0.0044808113 -0.008112699
0002b0 82 12 5c 3b bc ca 73 bb d2 09 7c 3b fc 30 f5 3b
       0.0033580367 -0.0037199697 0.0038458002 0.007482646
0002c0 03 e6 8b ba f9 94 4a 3b 85 de 42 3a c3 f6 75 b9
       -0.0010673407 0.0030911549 0.00074336707 -0.00023456947
0002d0 d1 73 28 3b e4 95 99 3a 9a d7 b9 ba 96 6d eb ba
       0.0025703798 0.0011717645 -0.0014178634 -0.0017961736
0002e0 a8 d2 c0 3a 3b 4a 89 3b 87 98 37 ba 26 99 1f bb
       0.0014711218 0.004189757 -0.00070036243 -0.0024352758
0002f0 58 c3 d1 b8 72 c4 9c 3b 70 a1 9a 3a ed 3c 39 3b
       -0.00010002282 0.0047841603 0.001179738 0.0028265074
000300 b1 9f f1 bb f2 81 39 3b 13 be 31 39 7d dc b1 3b
       -0.007373773 0.0028306213 0.00016950844 0.0054278956
000310 d6 75 0f bc 64 6d 27 bc 32 e2 0b bc e4 b9 05 bc
       -0.008756122 -0.010218952 -0.008537816 -0.008161996
000320 86 98 f3 3b d7 ac 49 bc b2 d3 47 3b 4f 40 04 3b
       0.0074339537 -0.012309275 0.003049117 0.0020179932
000330 21 b7 a5 b9 43 34 86 3b 53 34 e0 bb 5b 32 9e bb
       -0.00031607694 0.0040955856 -0.006842175 -0.00482778
000340 31 24 0a 3c a2 e7 05 3c ae 6d 9f bb b0 92 d9 3b
       0.00843148 0.008172901 -0.0048653698 0.006639801
000350 09 5a 7e bb 91 86 c4 39 be 1d 15 3a d8 7f 6f bb
       -0.003881099 0.00037484293 0.0005688331 -0.0036544707
000360 0f 38 c9 3a 99 14 93 3a 31 8c 63 bb 0b 3c 6b 3b
       0.001535179 0.0011221349 -0.0034721012 0.0035893943
000370 34 36 09 bc cb 60 af bb 42 7e ab 3b 80 8f 04 3c
       -0.008374739 -0.005352115 0.005233557 0.008090854
000380 9a bc e8 bb 79 c8 e4 3a 2c 63 24 38 4d f9 bd 3a
       -0.007102561 0.0017454765 3.9193008e-05 0.0014493853
000390 9a 4c bb bb ad 85 c3 bb ae d9 6e 3b 79 6a ec 3a
       -0.0057159187 -0.005966863 0.0036445665 0.0018037102
0003a0 01 15 fd ba ce 04 bf 3b 01 38 40 bc 9e fa 2b 39
       -0.0019308628 0.00582943 -0.011732102 0.00016401193
0003b0 08 2c fe b7 f5 db 43 3b e5 52 3e 38 94 40 91 b9
       -3.0299663e-05 0.0029885743 4.537673e-05 -0.0002770467
0003c0 6e cc 8d bb 05 8a a4 bb 17 bf 65 3b b5 d3 4b bb
       -0.0043273484 -0.005021336 0.0035056525 -0.003110153
0003d0 ea 4d b5 ba 0e 15 2c 3b 67 31 ac 3a 9d 98 80 3b
       -0.0013832424 0.0026257667 0.0013137282 0.003924443
0003e0 79 02 2e ba 14 30 4e bb 90 b0 9b 3a f3 1a 9a 3a
       -0.00066379417 -0.0031461762 0.0011878181 0.0011757299
0003f0 bb 92 4d bb 2b 10 19 ba 0e da db 3a 8e 01 65 3b
       -0.0031367976 -0.0005838896 0.0016773359 0.0034943554

sqr_avg f4 [100, 14]
000000 20 7e 78 39 48 d0 70 39 87 c6 67 39 d4 05 5e 39
       0.00023698108 0.00022965774 0.00022103834 0.00021173741
000010 75 66 83 39 62 71 91 39 58 97 5d 39 83 7a 61 39
       0.00025062604 0.00027741032 0.00021132582 0.00021503311
000020 40 56 8a 39 2d 62 53 39 30 71 7c 39 60 00 7f 39
       0.00026385672 0.00020159101 0.00024074758 0.00024318835
000030 fe 9e 54 39 ca 7c 5b 39 2a a4 46 3c 5a e3 2c 3c
       0.00020277125 0.00020931955 0.012124101 0.010552252
000040 3b e9 57 3c 73 f0 48 3c 5d 17 43 3c df 36 4b 3c
       0.013178165 0.012264359 0.011907426 0.012403219
000050 ce ab 3a 3c f0 5b 34 3c e7 95 63 3c d8 a8 5c 3c
       0.0113935005 0.011008248 0.01389072 0.01346799
000060 b6 d1 2e 3c 78 46 27 3c 0a a1 45 3c 4b ab 54 3c
       0.010670116 0.010209672 0.0120623205 0.012980293
000070 b7 9b bf 39 e7 26 f4 39 54 a5 e5 39 14 71 de 39
       0.00036546375 0.0004656829 0.00043801463 0.0004242739
000080 59 b7 c0 39 76 fe d1 39 84 9e c1 39 f0 21 f3 39
       0.00036757698 0.00040053175 0.00036929932 0.00046373857
000090 62 ba e1 39 45 a5 e8 39 81 9b ec 39 f8 58 d1 39
       0.0004305421 0.00044373624 0.00045129287 0.00039929873
0000a0 7b d6 d3 39 50 7e da 39 32 ff ae 14 4b ce 9f 14
       0.00040404857 0.0004167431 1.7670167e-26 1.6136265e-26
0000b0 39 47 b5 14 9b 7b 9f 14 d4 6d d7 14 3b 37 af 14
       1.8304422e-26 1.6103651e-26 2.1752772e-26 1.7692269e-26
0000c0 b2 a4 b9 14 51 e4 c3 14 f8 fd c8 14 c9 fb d6 14
       1.8745187e-26 1.9780023e-26 2.0295012e-26 2.170779e-26
0000d0 ad b6 c9 14 0f c6 be 14 6a 5f b3 14 78 4e c4 14
       2.0367866e-26 1.9263218e-26 1.8112015e-26 1.9821893e-26
0000e0 b8 66 9b 3a a6 c9 bf 3a 46 58 b3 3a 3d 1e bd 3a
       0.0011856174 0.001463224 0.0013682924 0.0014428567
0000f0 34 c7 9f 3a c0 02 8c 3a 01 bd 95 3a 2f d3 a9 3a
       0.0012190104 0.0010681972 0.0011424125 0.0012956614
000100 00 a7 92 3a 1f 00 ad 3a 58 77 b9 3a 3b 0d b3 3a
       0.0011188686 0.0013198889 0.0014149947 0.0013660559
000110 58 d5 b0 3a de f1 c9 3a 98 1a 71 3a f0 d1 86 3a
       0.0013491316 0.0015407165 0.0009197383 0.0010285955
000120 1a 23 8d 3a 10 06 94 3a 65 68 8a 3a 35 f8 82 3a
       0.0010767907 0.0011293311 0.0010559676 0.0009992184
000130 78 99 63 3a 65 a6 97 3a 43 79 7e 3a 89 78 83 3a
       0.00086822314 0.0011569975 0.00097074005 0.0010030429
000140 ff c8 6f 3a 7d 50 78 3a 7c 8c 6d 3a e8 d5 9c 3a
       0.0009147077 0.0009472443 0.00090617663 0.0011965604
000150 04 2f e0 3a d9 e1 c9 3a 3f 70 d3 3a 94 82 b9 3a
       0.0017103855 0.0015402391 0.0016131474 0.0014153295
000160 c6 83 ae 3a cb bd e1 3a 32 e4 d0 3a 8b e3 b2 3a
       0.0013314418 0.00172227 0.0015937148 0.0013648135
000170 c9 4c e1 3a a9 d1 c6 3a ef 38 b4 3a 9b af ba 3a
       0.0017189021 0.0015168685 0.0013749878 0.0014243008
000180 69 25 a5 3a d3 fe be 3a 49 f3 1f 3b b1 e1 0d 3b
       0.001259965 0.0014571793 0.0024406484 0.0021649415
000190 8d 50 18 3b fd 3d 0e 3b fe cd 2f 3b 50 c6 1a 3b
       0.0023241371 0.0021704428 0.0026825662 0.0023616739
0001a0 4a b8 30 3b 17 21 2a 3b 98 d8 36 3b 4c 30 14 3b
       0.0026965314 0.0025959664 0.0027900096 0.0022611795
0001b0 80 2e 3d 3b b3 89 33 3b 9a 2e 1a 3b 1c 03 0d 3b
       0.0028866827 0.0027395308 0.0023526312 0.0021516746
0001c0 74 45 1b 3b 74 73 19 3b db 11 35 3b 4f 06 16 3b
       0.002369252 0.0023414763 0.002762905 0.0022891944
0001d0 1a d5 30 3b 4c b8 2a 3b 35 bd 1b 3b 5d d2 23 3b
       0.0026982487 0.002604979 0.00237639 0.0024997212
0001e0 a4 5a 12 3b e9 12 f7 3a 66 aa 20 3b 1b 9b 2f 3b
       0.0022331858 0.001885024 0.0024515628 0.002679533
0001f0 67 1e 28 3b f5 40 1b 3b a0 a7 84 3a 9c 1f 8e 3a
       0.0025652887 0.002368984 0.0010120757 0.001084316
000200 6d 75 7d 3a 6c 63 7c 3a 0d 5a 9b 3a af 50 86 3a
       0.0009668682 0.0009627852 0.0011852399 0.0010247434
000210 52 da 76 3a 64 17 95 3a e8 41 84 3a 3a a5 a5 3a
       0.00094166875 0.0011374769 0.0010090442 0.0012637742
000220 86 c2 a0 3a 3c 20 8d 3a 64 c0 87 3a c3 3a 83 3a
       0.0012265004 0.0010767053 0.001035702 0.0010012019
000230 71 e5 0c 3b a3 0c 27 3b 2b 2b 15 3b a0 8b 37 3b
       0.0021499062 0.002548971 0.0022761326 0.0028006807
000240 8c c7 2e 3b 67 12 08 3b 72 85 1a 3b be cc 3d 3b
       0.0026669232 0.0020762922 0.0023578075 0.0028961147
000250 3d fd 17 3b 90 7d 30 3b 48 bd 14 3b c3 cb 13 3b
       0.0023191713 0.002693031 0.0022695828 0.0022551871
000260 6c 96 23 3b 10 5b 1a 3b 22 85 02 3c fe 59 17 3c
       0.0024961485 0.0023552813 0.007966312 0.009237764
000270 f4 4b f8 3b 1c 55 0f 3c bc b8 0c 3c 51 ff 00 3c
       0.0075774137 0.008748319 0.008588966 0.007873372
000280 a4 4f 02 3c 82 89 0c 3c 7f 7b fc 3b 78 89 ec 3b
       0.007953558 0.008577706 0.0077051516 0.007218536
000290 33 09 e6 3b a1 8d 02 3c 65 a1 07 3c 16 89 09 3c
       0.0070201396 0.007968337 0.008278226 0.0083945
0002a0 75 8e 6b 3a 8e 5f 81 3a 07 16 85 3a 2f ef 8e 3a
       0.00089857663 0.0009870396 0.0010153659 0.0010905023
0002b0 d2 3b 81 3a 10 27 7a 3a fd 00 7c 3a f8 6b 88 3a
       0.0009859747 0.0009542564 0.00096131844 0.0010408154
0002c0 a4 9b 91 3a 40 b9 84 3a ae 60 66 3a b2 41 7e 3a
       0.0011109007 0.001012601 0.000878821 0.00096991204
0002d0 d4 95 78 3a ac c9 85 3a 16 31 25 3a 8b e0 28 3a
       0.00094827753 0.0010207198 0.0006301565 0.0006442151
0002e0 a7 74 36 3a 19 7a 3a 3a 86 d8 0d 3a 76 82 23 3a
       0.00069601316 0.0007113531 0.00054109877 0.0006237397
0002f0 8c 2d 1b 3a 7b 21 0f 3a 29 dd 1f 3a 4b b9 30 3a
       0.0005919568 0.0005460006 0.0006098324 0.0006741478
000300 99 b7 1f 3a 25 cf 19 3a 41 49 19 3a 7a 50 1a 3a
       0.0006092727 0.0005867354 0.00058474025 0.0005886626
000310 24 31 21 3b c8 65 17 3b ed 75 0d 3b 6b 35 1b 3b
       0.002459594 0.0023101438 0.0021585182 0.0023682963
000320 e0 70 0c 3b db 49 22 3b fe 95 fb 3a 84 4e fc 3a
       0.0021429583 0.002476326 0.0019194481 0.0019249474
000330 45 51 13 3b 76 90 15 3b 20 0f ea 3a 18 78 e3 3a
       0.002247886 0.00228217 0.0017857291 0.0017354516
000340 32 e0 0c 3b 42 3c 06 3b b8 06 dd 3a 09 db 8c 3a
       0.0021495936 0.0020482694 0.0016862964 0.001074643
000350 3c bb a3 3a 9a 7f c7 3a 81 34 97 3a a8 dc c1 3a
       0.0012491713 0.0015220523 0.0011536033 0.0014790492
000360 31 56 e1 3a 4b 2c c1 3a 88 a0 c5 3a 77 66 b9 3a
       0.0017191825 0.0014737932 0.0015077749 0.0014144917
000370 4e 18 a5 3a 07 00 c6 3a df 66 bc 3a 67 9e c2 3a
       0.0012595744 0.0015106209 0.001437392 0.0014848233
000380 67 02 37 3a 72 29 4c 3a 21 79 4f 3a ac b2 69 3a
       0.0006981254 0.0007788158 0.0007914473 0.0008914869
000390 f1 bf 5b 3a a6 f8 50 3a fd 62 46 3a d5 6a 39 3a
       0.00083827885 0.0007971622 0.0007567851 0.0007073109
0003a0 03 39 2d 3a 46 76 48 3a be 4c 3b 3a e5 bc 43 3a
       0.00066079217 0.00076470186 0.00071449194 0.0007466807
0003b0 5e ad 4d 3a 62 df 63 3a 17 3c 88 39 88 db a1 39
       0.0007845963 0.00086926494 0.00025984712 0.00030871877
0003c0 d0 d8 82 39 6d cb a4 39 51 c5 ab 39 5e 99 86 39
       0.0002495707 0.00031432082 0.00032762674 0.0002567274
0003d0 37 0a 93 39 e8 53 97 39 87 60 9f 39 d0 e0 93 39
       0.00028045636 0.0002886348 0.00030398762 0.00028205523
0003e0 ca 4a 7e 39 ac f7 a7 39 c7 95 9c 39 2b ac 9e 39
       0.00024251189 0.00032037252 0.00029866231 0.00030264384
0003f0 e6 99 f9 3a 8a d0 0e 3b 32 44 08 3b c8 4b 15 3b
       0.0019043058 0.002179178 0.00207926 0.0022780765

grad_avg f4 [100]
000000 f0 97 94 3a 00 5f 99 ba bc 90 ce b8 03 00 00 00
       0.0011336785 -0.0011701286 -9.849804e-05 4e-45
000010 06 a1 f4 3b c6 a5 9a 3b 9a ad 9e 3b 75 d6 36 3c
       0.0074654846 0.0047194688 0.0048424723 0.011159529
000020 71 52 53 3b 4b 27 93 3a 51 2c 6f 3b d3 7b 1c 3b
       0.0032245184 0.001122692 0.003649492 0.0023877516
000030 4e 57 33 3b 2a 3a 25 3b f9 c7 0a ba 73 75 8e 3b
       0.002736527 0.002521167 -0.00052940805 0.004347497
000040 34 c4 54 bb 7f b4 3d 3b 3c 1b e2 3b ab 2d d5 b6
       -0.003246558 0.0028946695 0.0069002192 -6.353211e-06
000050 10 8c b2 3b 65 32 b9 3b 29 cc 2e bb 20 1f 4d 3c
       0.0054488257 0.0056517594 -0.0026671982 0.012519628
000060 fb e3 bd bb b6 9b a1 3a b7 05 a4 ba 03 00 00 00
       -0.0057949997 0.0012329731 -0.001251391 4e-45
000070 65 53 e4 3b 04 00 00 00 7e c3 04 bb 89 8c 51 3b
       0.006967949 6e-45 -0.0020258124 0.0031974635
000080 1e 7f a7 bb 65 34 87 3b 1a 6a 75 3b 05 00 00 00
       -0.005111589 0.004126119 0.0037447275 7e-45
000090 a6 15 c2 3b 6d e9 d7 39 03 00 00 00 32 54 58 3b
       0.005922991 0.0004118191 4e-45 0.0033009169
0000a0 3f b8 a4 bb 71 a0 02 bb a6 87 38 ba 62 a5 44 3c
       -0.0050268467 -0.0019932056 -0.0007039256 0.012002321
0000b0 01 ad 2f 3c 58 62 99 3b f9 63 c5 3b 41 0a c1 bc
       0.0107224 0.004680913 0.0060238806 -0.02356446
0000c0 1d 16 12 3b 42 ff b0 39 f4 e3 33 3b 3e b8 8d 3a
       0.0022291013 0.00033759518 0.0027449103 0.0010812355
0000d0 38 5b 01 3b f4 34 b6 39 03 00 00 00 85 7c 34 b9
       0.0019738209 0.00034753198 4e-45 -0.00017212525
0000e0 f6 e6 7d 3b 03 00 00 00 8e 00 f9 3a 40 34 1a bc
       0.00387424 4e-45 0.0018997358 -0.009411871
0000f0 86 eb 03 3c 03 00 00 80 41 b1 b1 3c f1 99 7e 3b
       0.008051759 -4e-45 0.021690967 0.003884908
000100 08 68 66 bb 29 3a e4 3b fe 4f 7c 3b 27 32 fb ba
       -0.0035157222 0.006964941 0.0038499827 -0.0019164727
000110 08 00 00 00 03 00 00 00 f7 04 a0 3b 9c 27 94 3b
       1.1e-44 4e-45 0.0048834044 0.0045213234
000120 e0 f0 8d 3c 30 6f 8f 3a 2f 9d 55 3b 3b 39 f4 3b
       0.017326772 0.0010943171 0.003259491 0.0074531115
000130 9d c3 48 bb 65 31 53 3b 94 cf df b9 83 9c 92 39
       -0.0030634173 0.0032225486 -0.00042688532 0.000279639
000140 24 a9 13 39 af ef e4 3b 11 a3 b9 3a 81 ca 8c bc
       0.00014082022 0.0069865803 0.0014162977 -0.017186405
000150 d4 90 01 ba fb d5 fc 3b 14 97 91 3b 04 00 00 00
       -0.00049425405 0.007715938 0.0044430587 6e-45
000160 1e 2b b6 3b c3 57 2e 3b 0d 57 85 3b 30 73 11 3c
       0.005559339 0.0026602603 0.004069215 0.0088775605
000170 96 01 cc 39 52 ef 45 3b cb ea 12 3b d4 00 28 b9
       0.00038911094 0.003020246 0.002241778 -0.00016022037
000180 27 9c a0 3b 1d f7 29 3b 03 00 00 00 bc e4 aa bb
       0.0049014273 0.0025934645 4e-45 -0.0052152555

sqr_avg f4 [100]
000000 62 5c 59 39 d6 74 42 3c 03 54 dd 39 08 f7 bc 14
       0.00020729148 0.011868676 0.00042214998 1.9080585e-26
000010 84 cb 9b 3a fe 71 8e 3a d7 10 d8 3a 9f bc 34 3b
       0.0011886214 0.0010867713 0.0016484511 0.0027578247
000020 55 ec 1e 3b 49 81 75 3a 3a 28 1c 3b 3a 7a f0 3b
       0.0024249752 0.0009365273 0.0023827688 0.0073387893
000030 b9 13 7e 3a 96 2c 23 3a bc b9 1e 3b 37 ee c3 3a
       0.000969227 0.00062246004 0.0024219593 0.0014948313
000040 fb 8e 56 3a 66 44 9c 39 62 17 18 3b ed 1a 85 32
       0.0008184758 0.000298056 0.0023207297 1.5495482e-08
000050 9b c0 b0 3a b2 b8 39 3b 18 4b 63 3a a0 f4 37 3b
       0.0013485135 0.0028338847 0.00086705526 0.0028069392
000060 a6 b0 82 3b a0 c6 e1 3a af ca a7 3a c2 97 dc 18
       0.0039883433 0.0017225333 0.0012801493 5.7021903e-24
000070 a5 aa 9a 3a b5 48 49 1c df 0f 3e 3a 85 87 47 3a
       0.0011800124 6.6599293e-22 0.000725029 0.00076114415
000080 73 b0 b4 3a ec 39 e1 3a 99 25 17 3a b6 ba 13 20
       0.0013785496 0.00171834 0.00057657954 1.2513162e-19
000090 e3 29 12 3b 3c 50 47 3a 02 fd 5c 18 79 75 09 3a
       0.0022302798 0.00076032034 2.856207e-24 0.000524364
0000a0 11 28 5b 3b 53 5f 58 3a 70 36 0e 3b c0 95 de 3a
       0.003344063 0.00082539505 0.0021699928 0.0016981885
0000b0 5b 6b 86 3b 68 5c d6 39 7d 52 a0 3a d3 57 f2 3b
       0.0041021532 0.0004088611 0.0012231615 0.0073957234
0000c0 6b d5 d0 3a 22 39 c7 38 9e 06 7e 3a 03 ee 2f 3b
       0.0015932744 9.499701e-05 0.0009690317 0.0026844747
0000d0 6b 2b c8 3a 53 26 0a 3b 4a b3 b4 17 87 38 73 3a
       0.0015271729 0.0021079972 1.1677486e-24 0.00092781376
0000e0 dd 8d 00 3b 36 54 fd 15 3e c6 70 3a 77 ef dd 3b
       0.0019615807 1.0231875e-25 0.0009184814 0.006772931
0000f0 a7 10 c4 3a 51 bc 1e 16 c2 c6 55 3b 0a a7 b2 3a
       0.0014958576 1.282256e-25 0.003261969 0.0013630104
000100 db 04 81 3a cc 0c 2e 3b 55 8b 07 3a 8f f6 0b 3b
       0.0009843366 0.002655792 0.00051706034 0.0021356677
000110 b9 b0 92 25 ef 8a 08 17 96 8c a1 3a b3 66 34 3b
       2.5446715e-16 4.411933e-25 0.0012325223 0.0027527034
000120 e5 dc 3b 3b 4d 11 03 3a 33 ae 39 3a ec 54 17 3b
       0.00286656 0.00049998314 0.00070831476 0.002309139
000130 e5 69 fc 3a 24 16 fa 39 8b 2a a1 3a e2 f2 84 3a
       0.0019257633 0.00047700212 0.0012296004 0.0010143186
000140 60 0f dd 38 1b 53 81 3a ce 65 65 3a 8c 88 eb 3b
       0.00010540965 0.0009866686 0.0008750827 0.0071879085
000150 23 46 17 39 ac 9b 2f 3b 0c 5f 8d 3a 6f 1f 67 1d
       0.0001442661 0.0026795669 0.0010785772 3.0588846e-21
000160 dd 2f c7 3a a3 7b 14 3b c3 f2 50 3b d4 af 58 3b
       0.001519676 0.00226567 0.0031882979 0.0033063786
000170 10 6f 5a 38 e7 86 4c 3a 99 d3 3b 3a 26 a1 0a 3b
       5.2078685e-05 0.00078020844 0.00071650144 0.002115318
000180 42 a8 0b 3b 91 4d 67 3a b6 c3 52 17 12 1c ca 3b
       0.0021310006 0.0008823509 6.810168e-25 0.006167897
