trees/save/graph/5bits/split_75.0_0.1_50/models/model.pth (torch, 29398 bytes, 12 tensors)

embedding_layers.weight f4 [170, 5]
00000000: 8ce7 27bc aad1 f93b fb6b 17b9 3c4e deb9
00000010: 6ba9 98ba 5873 18b9 4a7b 4ebc 96fa 0b3b
00000020: dfa8 623a 330b d33a 27cc 77bc 2e18 17bb
00000030: 7853 e4b9 ae84 4b3c 89ec a8bb ae24 4fbb
00000040: 3194 ac3b 648f 08bc eec2 203c adf2 e93a
00000050: 4789 dcb9 6a3d 11bc 4aac 0b3c 31de a4ba
00000060: 2e00 6fbc f622 323c 644f 2fbc fd86 1abc
00000070: e1f2 70bb 8fd5 45ba f429 fdba c67d a33b
00000080: ac40 2abb 07b1 69bb 51fe 183c 7eca 633a
00000090: a778 393c 5b51 b039 b9ab 63bb 2d7e 12bb
000000a0: 1fe9 6b3c d32b 24bc 52e1 1c3c 0890 723b
000000b0: 87a6 c43a 4b79 99bb f317 ea39 af4f 05bc
000000c0: 2b25 dc3a c66b 1f3c 088b 69bc eb64 17bc
000000d0: 769d 15bb 11d8 0cbc 7736 883a f01d baba
000000e0: cbe6 a3bb 7b87 e23b e407 ae38 28ea 0fbb
000000f0: eecd 28bc 4feb 57bb eb84 c83b f823 023c
00000100: 2b33 79bc 7da8 05bc 9941 05bc 7663 2abb
00000110: 7681 27bb 014a e339 476d 373c a1dd f13b
00000120: 4439 fcbb 570d 963b 4217 c93b 0f4c 78bb
00000130: a48d be3b 2feb 10bc ac47 da3a 9fd7 eabb
00000140: 9a36 053c b83f 40bb b4cd f43b 73cd 55bc
00000150: 8a1d 333b 7e8f 853b 5bc7 03bc 9a84 3b3b
00000160: c748 853b b841 b6bb 2280 8c3a d846 ffbb
00000170: febf 8f3b c657 663b 1e00 3f3c 2293 513b
00000180: 4c72 d8bb 32f9 4aba b636 433a 4905 c3ba
00000190: f024 583c 91cb ff3a 088e 59bb 396c d83a
000001a0: 8d09 23bc 6363 8cbb be85 6a3c 913e f73b
000001b0: c3bc 0cbc ca49 b93b f139 2eba 5cf3 1fbc
000001c0: 0b4e 1e3c 89ee 7dbc 0885 0ebc ea21 d5bb
000001d0: ede9 17bc 472d 9b3b 04e0 0ebc 1b47 a939
000001e0: 0b58 93ba fdee 29bb d7fe 13bc bfc3 493b
000001f0: d87c d6ba 6c2a 2ebc d084 8b3b 1633 7ab9
00000200: 571c c43b 98d7 8f3a cfa3 2abc ccd9 d53a
00000210: 87a3 943b 617f 25bc 180e 7c3c 3ada b138
00000220: 9031 903b 52e2 95ba cd64 713c 09a4 38bc
00000230: d788 a2bb 0132 38bc 69f0 933b 61dc 403b
00000240: 0f73 ac3b 6954 083b 28ec 283b 26ad 363c
00000250: b6fa 09bc 74bc f23b 42ca 1a3c e7dc 2abb
00000260: 5a63 c8bb 5f1d 2fbc 2576 9bbb c6d4 f43b
00000270: f31f dfbb 3d99 cf3b f17e 55bc 7e7b 873a
00000280: 8044 b5bb 8133 3cbb 7147 b4bb 8972 a83b
00000290: 01f0 5abc 8631 843b 13d6 723c d48f 89bb
000002a0: b135 2c3b c27e 493b 50e5 0d39 1aae 99bb
000002b0: 88b3 2abc 2e6f dc3b f235 c2bb e260 7a3b
000002c0: 4d44 14bc 5c34 b63b d34e cdbb 0b5e 1ebc
000002d0: d263 343c 9993 b1bb ab3b 053c 9380 8c3b
000002e0: f437 c5ba 342b f9ba 6231 efbb a40c c4bb
000002f0: 87a3 08bc c3b4 ce3a 5f40 29bb 4f3e 853a
00000300: 2298 1abc ed71 5c3b bdc8 5d3c 7c3a 43bb
00000310: b77f b7bb 5c73 19bb c488 f8bb 3d95 2bbb
00000320: 92f8 843a 6024 d7bb 2c89 b1bb b156 b63a
00000330: 37e8 31bc b4e7 52bc 6efb 5e3a 0b08 0dbc
00000340: 4e6f 50ba 073d 28bc e4b0 b93b 8910 cfba
00000350: 64dc 053c 48f7 00bb 6ea5 283b fd40 903b
00000360: 2ca7 5cbc 3434 a2bb f57b 343c 4bcc 383c
00000370: fe62 c5b9 a5f4 21bc 83ad f13b 9f32 c7b9
00000380: 62da d4bb d181 b73a df2d b63a 17cb 83ba
00000390: a1bf 3dbc 28bd e8b9 1dfc e5ba 5207 4c3c
000003a0: af4b 853b 627a da39 2fbc e63b 2026 42ba
000003b0: ad57 a8bb 2e68 093b 2d56 d9b7 8159 acbb
000003c0: 3b7e 4cbb b02d 28bc efe8 3c3c 9f68 2a3c
000003d0: b16e cfbb 0c02 443c d2dd 5e3b 6762 293a
000003e0: 4c5e 2cbc 50dd b1bb 6b4e 3abc 9498 543b
000003f0: 8f8f 373b ac8d e63b 0757 87bc 459a 00bc
-0.010248076 0.007623871 -0.00014440708 -0.0004240143 -0.001164717 -0.00014538819 -0.012602637 0.0021359078
0.00086463796 0.001610136 -0.015124357 -0.0023055184 -0.00043549738 0.01242177 -0.0051551503 -0.0031607556
0.005266689 -0.008334968 0.0098121 0.0017848812 -0.0004206395 -0.00886474 0.008524964 -0.0012578425
-0.014587445 0.010872593 -0.010700081 -0.009431598 -0.003676586 -0.00075467763 -0.0019314871 0.0049893586
-0.002597849 -0.0035658495 0.0093379775 0.00086895365 0.01132027 0.0003362995 -0.0034739806 -0.0022353039
0.014398842 -0.010020214 0.009575205 0.003701212 0.0015003242 -0.0046836487 0.00044649802 -0.008136674
0.0016795745 0.009730285 -0.014254339 -0.009240369 -0.002282945 -0.008596436 0.0010392208 -0.0014199596
-0.005001878 0.006913123 8.298436e-05 -0.0021959636 -0.010303004 -0.0032946651 0.0061193607 0.007943146
-0.015209953 -0.0081578465 -0.0081333155 -0.0025999225 -0.0025559342 0.0004335195 0.011195487 0.0073811566
-0.0076972563 0.004579227 0.0061368058 -0.0037887131 0.0058152247 -0.008845135 0.001665344 -0.0071668173
0.008130694 -0.0029334854 0.007470811 -0.013049471 0.002733084 0.0040759435 -0.0080431355 0.0028612972
0.0040675136 -0.0055620335 0.0010719339 -0.0077904277 0.004386901 0.0035147532 0.011657743 0.0031978567
-0.006605422 -0.00077428215 0.0007446812 -0.0014878894 0.0131924 0.0019515624 -0.003319623 0.0016511745
-0.009951008 -0.0042843088 0.014314113 0.0075453003 -0.008589926 0.0056545483 -0.0006646207 -0.009762611
0.009662162 -0.015498766 -0.008698709 -0.006504287 -0.009272081 0.004735622 -0.008720402 0.0003228717
-0.0011241449 -0.0025929802 -0.0090329265 0.003078684 -0.0016364111 -0.010630231 0.004257776 -0.00023860889
0.0059848237 0.0010974286 -0.010415032 0.0016315519 0.0045360955 -0.01010117 0.01538422 8.4806656e-05
0.0044004396 -0.0011435247 0.014733505 -0.011269578 -0.0049601602 -0.011242391 0.004514743 0.002942823
0.0052627395 0.0020802265 0.0025775526 0.01114968 -0.008421591 0.0074077193 0.009447636 -0.002607161
-0.0061153593 -0.010688155 -0.0047443085 0.0074716536 -0.0068092286 0.006335406 -0.0130307535 0.0010336486
-0.0055318475 -0.0028717222 -0.0055016805 0.005140607 -0.013362885 0.004034224 0.014821547 -0.004198054
0.002627712 0.003074572 0.00013532233 -0.004689944 -0.01041878 0.006727121 -0.005926841 0.003820472
-0.009049487 0.005560441 -0.0062655 -0.009665976 0.011010127 -0.0054192063 0.008131902 0.004287788
-0.0015046583 -0.0019010068 -0.007299588 -0.005982952 -0.008339769 0.0015770424 -0.0025825722 0.0010165664
-0.009435685 0.003363724 0.013536629 -0.0029789498 -0.0055999416 -0.0023414707 -0.007584663 -0.0026181482
0.001014488 -0.0065656155 -0.0054179635 0.0013911334 -0.010858587 -0.012872625 0.0008506094 -0.008607875
-0.0007951156 -0.010268456 0.005666839 -0.0015797775 0.008170221 -0.001967864 0.002573337 0.0044022785
-0.013467591 -0.0049500708 0.011015882 0.011279176 -0.00037648523 -0.009884988 0.0073754205 -0.00037993953
-0.00649576 0.001400048 0.0013899169 -0.0010055032 -0.011581332 -0.0004439142 -0.0017546449 0.012452917
0.00406786 0.00041671382 0.007041476 -0.0007406194 -0.005137405 0.0020966637 -2.5908545e-05 -0.005259693
-0.003120317 -0.010264799 0.011530145 0.01040092 -0.006330334 0.011963379 0.0034006727 0.00064615015
-0.010520529 -0.005427994 -0.011371235 0.0032439576 0.0028009152 0.0070359316 -0.01652099 -0.007849281

layers.0.weight f4 [100, 10]
00000000: 498e c7bd b877 233e 9530 0d3d 2a93 e83c
00000010: 1f91 54be 49f6 ad3e 9aa3 bd3e 05fa 6f3e
00000020: 6890 a4be 9826 f63d 6063 f5bd 92d5 8c3e
00000030: 1605 663e 31b2 33bc 22f4 89be 2aff fbbc
00000040: 5302 573e 77ca bbbe 53ee 893e 18f8 27bd
00000050: e14d 323e 57d8 503e 2a77 523e 72de 5dbb
00000060: e31d 66be 81c6 d23e 0292 7d3e 29aa 5d3c
00000070: 7907 6abe 6fa9 fd3b f327 433e 4b38 02be
00000080: 8702 33be aa27 86bd e437 81be 58f5 3d3e
00000090: de2c 0cbe 8d98 bbbd 3275 993d c47a 85be
000000a0: fb4d 92bc 1e64 4e3d 1649 edbc 15c0 c83b
000000b0: fe66 be3c 2c44 813e 5648 913e d48d a03e
000000c0: 8c33 863e e56e a83e 7d8a 1ebe 934e 493d
000000d0: 5ee1 d63d f444 5bbe 52ea 0f3e ccc7 583e
000000e0: f39b 983e 2fab 04bc feb9 58be cb00 893e
000000f0: af20 dabc 97bf df3b 6e58 27bd 6059 113c
00000100: 70d3 cdbc 4c6c 95be 9649 ca3e 59ca ef3e
00000110: d757 98be d2ab c8be c990 07be 1d03 df3d
00000120: fbda bb3d fd7d 233e f139 bd3d 13c5 c9be
00000130: 2783 b5bc ee01 18bd d6e9 ab3e 2c85 c3be
00000140: 60e9 98bd b82c a3be 3e63 72be 4ee8 d6bd
00000150: 7bf1 993e d38a 7abe 7fd6 383d f2d4 353e
00000160: 5863 5b3d c3fe 80bc cfae 8a3e eddc 5dbe
00000170: 9e41 383e 2f5a 733d ecef a1be 1ae7 50bc
00000180: a30c 623e 117f 1bbb 0d40 293d 9338 c8bd
00000190: 41f4 07be be71 863e 787e 9dbd 9cf8 06be
000001a0: a79a 7e3d da77 ee3e c1ad cb3e 48aa 813d
000001b0: 46a3 7d3d 471c 563e 299c f639 b3a1 6b3c
000001c0: f297 863c fef7 49bd f5ec 963b 8735 0f3c
000001d0: 8b5e 85bb e0af a3bc a1ed f2bc 5b9a 873a
000001e0: aab8 d137 4e54 933d 336e 0cb9 00cc 633c
000001f0: 35b3 04b8 c98d 16bf 010a 99be ecc5 a13e
00000200: 9c5f a73e 3795 aabe bb27 1f3e d134 c1bd
00000210: 887c 5ebe 4dbf 8cbe 1903 9bbe 4949 32bc
00000220: f5d6 95be 2548 65bd aa6f 78be 4eb6 f83d
00000230: 4b21 3b3c b477 dd3c f387 efbc a051 ba3c
00000240: aa63 173d 3797 273d cc96 923c be13 35bd
00000250: b3e6 3bbb cfe7 9d3c 3cf8 ccbd 5a25 a13d
00000260: 5048 193e a4c6 3e3d ee75 943d 9379 563e
00000270: ddde c83e 409a f93e 6ff6 193e 12dc f33e
00000280: 100e e33c 74bb 073c 9956 12bd 60d6 89bb
00000290: 5a6d 123b 1698 97bc fc50 c63b d2e6 653b
000002a0: 2171 fb3c ecf3 b73c 0732 5d3e 20ad 743e
000002b0: e0bd 043e 179e 81be bb72 c1bd d5e6 cebd
000002c0: f5d9 5ebe 02b0 e2bd 99d5 b6be f5c1 d93d
000002d0: 6415 013c d16c d73c 0f05 103d 4c1b ad3c
000002e0: 2770 19bd b5a8 b33e 5642 02be 0b59 afbe
000002f0: c889 afbe c328 903e 274b 353d f2f9 613e
00000300: a5cb 4cbe 190b 3c3e 2ace 373e 961e a43d
00000310: 5c63 30bd 5a75 273e 315a d73d 06d4 163e
00000320: befc ae3e 8b89 9bbe bfcf 313d e3f1 1a3e
00000330: 6659 2d3e 4adc b0be 7396 8f3e 3bcc 78bc
00000340: 625c 2bbe 3af2 1fbe 7024 dabd d30c fd3c
00000350: 9a2a 043e 8df7 513e 824b 053e d598 a1be
00000360: 87f1 d4be 396a 1abe e36f f23d d98b 213e
00000370: df2e a8be fab3 94be 9768 4fbe f107 d83e
00000380: 6a94 b93d 6f04 ad3d 7813 4e3d 2f0a b13b
00000390: 6b5a 4e3d be53 f7bd 297c 3a3d 04be b2bb
000003a0: 49c5 563d fefc aabb cb22 f2bb 5cac cd3d
000003b0: f9a7 1f3d eae1 adbc 211e b13c e1b9 bb3c
000003c0: a509 72be 2e01 9bbe 3cd7 8a3e 1a21 43be
000003d0: 009f 173e 19d9 853d 0838 d9be eb88 96bd
000003e0: 3ef0 083e 4eec 12bd cf6b a83e 0124 f83c
000003f0: f176 abbe 4b28 ab3e ffcc 293e 481b 1e3e
-0.097439356 0.15963638 0.03447016 0.028390486 -0.20758484 0.33976963 0.3703888 0.23435219
-0.32141423 0.1201908 -0.11981845 0.2750669 0.22462878 -0.010967777 -0.2694407 -0.03076132
0.2099698 -0.36677906 0.2693964 -0.041008085 0.17412521 0.20395027 0.2055327 -0.0033854512
-0.22472338 0.4116707 0.24762729 0.013529339 -0.22854413 0.0077411453 0.19058208 -0.12716787
-0.17481433 -0.06550534 -0.25237954 0.18550622 -0.1368899 -0.09159956 0.07493056 -0.26070225
-0.01785945 0.050388448 -0.028965514 0.0061264136 0.02324247 0.25247324 0.283755 0.31358206
0.26211202 0.32897106 -0.15482517 0.0491472 0.10492204 -0.21413022 0.1405423 0.21169966
0.2980648 -0.008097454 -0.211647 0.26758417 -0.026626913 0.006828259 -0.040855817 0.008871406
-0.025125235 -0.29184186 0.39509267 0.46834067 -0.29754516 -0.39193588 -0.13238825 0.10889266
0.091726266 0.1596603 0.09239567 -0.39408168 -0.022157265 -0.037111215 0.3357684 -0.3818754
-0.07466388 -0.31870055 -0.2367067 -0.10493527 0.30067047 -0.2446702 0.045126434 0.17757013
0.05356154 -0.01574648 0.27086493 -0.21666308 0.17993781 0.059412178 -0.31628358 -0.012750411
0.22075133 -0.002372686 0.04132085 -0.09776416 -0.13276769 0.26258653 -0.076901376 -0.13180774
0.062159207 0.46575814 0.39781 0.06331307 0.061923288 0.20909224 0.00047037125 0.014381814
0.016429875 -0.04930877 0.004605884 0.008740789 -0.0040701083 -0.019981325 -0.029654326 0.0010345684
2.5000732e-05 0.07193814 -0.00013392493 0.013903618 -3.1638152e-05 -0.58810097 -0.29890445 0.31596315
0.32690132 -0.33316967 0.155425 -0.09433902 -0.21727192 -0.274897 -0.302758 -0.01088173
-0.29265562 -0.055977006 -0.24261346 0.12144147 0.011421512 0.027034618 -0.02923963 0.022744
0.03696028 0.040915694 0.017894171 -0.04420828 -0.0028671443 0.019275574 -0.100082844 0.07868452
0.14968991 0.046576157 0.07249056 0.20944814 0.3923253 0.48750496 0.15035413 0.47628838
0.027716666 0.008284438 -0.035727117 -0.0042064637 0.002234301 -0.018505137 0.0060521346 0.0035080207
0.030693593 0.022455178 0.21601115 0.23894167 0.12963057 -0.25315925 -0.09445711 -0.101026215
-0.21762832 -0.11068727 -0.35709837 0.106326975 0.007878635 0.026297005 0.035161074 0.02113118
-0.037460472 0.3508965 -0.12720618 -0.34247622 -0.34284806 0.281561 0.044261124 0.22068003
-0.19999559 0.18363608 0.17949739 0.08013646 -0.043063506 0.1635336 0.105152495 0.14729318
0.34177202 -0.30378374 0.043411013 0.15131335 0.16928634 -0.34543067 0.2804447 -0.015185411
-0.1673446 -0.15619746 -0.10651481 0.030889904 0.12906876 0.2050459 0.13017085 -0.31561914
-0.4159052 -0.15079583 0.11837747 0.15776004 -0.3284826 -0.2904356 -0.20254742 0.4219356
0.09061511 0.08448111 0.050311536 0.0054028253 0.050379198 -0.120765194 0.045528565 -0.0054547805
0.05243424 -0.0052181473 -0.0073894016 0.100426406 0.03897855 -0.021225888 0.021620812 0.022915782
-0.23636492 -0.30274338 0.27117336 -0.19055596 0.14806747 0.06535549 -0.4242556 -0.07350334
0.13372895 -0.03586989 0.3289475 0.030290606 -0.33489183 0.3342918 0.16582106 0.15440094

layers.0.bias f4 [100]
00000000: 1b72 1cbf b381 6ebe 4488 edbe 7a86 26bf
00000010: 050d 363e 774d debe cb8c 01bf a6ba 09bf
00000020: 45a6 b1be b43d 2bbf aa38 87be 247e 2dbe
00000030: 65d0 30bf 8546 f2be 7ef4 a5be b230 2d3e
00000040: 4f30 38be 7cae 50be 4cb0 5ebf 7af1 37bf
00000050: 9ecf edbc cab2 a63e 603b 33bf 3172 d2be
00000060: 0fa3 e03d b8f7 abbe d208 ebbd c58c 823e
00000070: 9ca2 c7be 0fe7 c3be c5bd 9abe d928 36bf
00000080: 7886 37be a158 79be f214 88be 7f39 a83e
00000090: 8f4e 92be e67d 74be 6617 27bf 2c56 12be
000000a0: ab8c fdbe 6a29 f4be a633 41bf bf2f 13bf
000000b0: 3a3b 49be 4396 26be 437d 9abe db80 79be
000000c0: 8215 32be 97be 61be e925 83be ca6b 103e
000000d0: 848f 30be a2e7 bbbe 7ca8 25bf 7580 5b3e
000000e0: 0b2b 4abe c2b3 00bf 69e3 57be 0395 88be
000000f0: dd4f ad3d efe1 b4be 0f05 e1be a406 adbe
00000100: 0886 95be 64a2 18bf 4f51 2ebf f133 86be
00000110: 8045 bebe 81a6 8a3e 87fb c1be f571 c9be
00000120: 389d 84be 3936 b3be 4dd0 4bbe e949 0bbf
00000130: f150 4dbf d6c2 b8be 345c ddbe 30a4 18bf
00000140: bf8a 083d 674c b03d 01bb 2dbe 5f27 0ebf
00000150: acbf b4be 7314 d3be aefb c2be 7733 9b3e
00000160: 0ecd 03bf e2da d1be 14c1 edbe befa babe
00000170: 58df 233e 1476 e1be 5a1b 23bf 62aa d0be
00000180: d89b a03e 36ae 98be 16dc 12bf e6fc dc39
-0.6111161 -0.23291664 -0.46393025 -0.65048945 0.17778404 -0.43418476 -0.5060546 -0.5380043
-0.34697166 -0.66891026 -0.2641042 -0.1694265 -0.69067985 -0.47319427 -0.32413095 0.16913107
-0.17987178 -0.2037906 -0.8698776 -0.7185284 -0.029029664 0.3255828 -0.70012474 -0.41102746
0.10968601 -0.33587432 -0.11476292 0.25498024 -0.3899125 -0.3826222 -0.30222908 -0.7115608
-0.1792239 -0.24350215 -0.2657848 0.32856366 -0.2857556 -0.23876151 -0.6527008 -0.14290684
-0.49521384 -0.47687846 -0.75469434 -0.5749473 -0.196515 -0.16268258 -0.30173692 -0.2436556
-0.17391017 -0.2204536 -0.2561486 0.14103618 -0.17242247 -0.3670016 -0.6471021 0.21435721
-0.19742982 -0.5027429 -0.21082844 -0.26676187 0.08462498 -0.35328624 -0.43949172 -0.3379413
-0.2920382 -0.5962279 -0.6809282 -0.26211503 -0.371624 0.27080157 -0.37887213 -0.39344755
-0.25901198 -0.35002306 -0.19903679 -0.5440965 -0.8020163 -0.36086148 -0.43234408 -0.5962553
0.033335444 0.086083226 -0.16965868 -0.55528826 -0.35302484 -0.4122654 -0.3808264 0.30312702
-0.51484764 -0.40987307 -0.4643637 -0.36519426 0.16003168 -0.440354 -0.6371361 -0.40754992
0.313689 -0.29820412 -0.57367074 0.00042150094

layers.2.weight f4 [1, 100]
00000000: 6d50 a7be 9c36 99bd f0ac e3bd 20e0 86be
00000010: d40f 89bd ebef 94bd 3fcd 83be 05c0 04be
00000020: e1f5 983d 994a 633e d488 08be 83b5 9239
00000030: b63e 80be fb4c 46be 2aa2 a13b 2c5d 2fbe
00000040: 1b97 90b9 218c 99bd 22d7 1f3f e54e cfbe
00000050: c305 293e 63cd 8ebd dfdc 853e af86 ccbb
00000060: f299 8cbd c938 febd d4a1 39be a716 a4bd
00000070: f88e 1a3a 7c3b 17bc dcc5 dabd 797f 9c3e
00000080: b32d 31ba daee bebd 2436 943b fda7 e8bd
00000090: 0fd8 eb3b a6c5 183e 5f89 3a3e a939 05be
000000a0: c098 69be cb2c 4abe 0567 aabe 2980 473e
000000b0: 58ca 14bd de85 f3bd ca58 a23c 4488 b3bd
000000c0: a29f 43be 2e08 10be 5b8b 46be 63ca cbbd
000000d0: 576f 3bbe fc0e d939 08ab 9c3e b146 2fbd
000000e0: faf0 dbbd 9041 38be 3d72 2139 391c 5238
000000f0: f788 edbc 7763 1cbe 9e6a dd3a b967 1cbe
00000100: 0011 beb9 26e4 e4be 1f03 053f 53d3 f9bd
00000110: 03aa e33a bb54 efbc a852 14bd 08d1 153b
00000120: 0b37 b53c 46d5 31b9 28b5 30bb d566 34be
00000130: 86e3 10bf 8114 9abe c5b2 2639 9019 b23e
00000140: 827e e4bd 4ba4 2f3b 433e 80b9 3c05 0ebe
00000150: d88d 81be ca84 17bb 261c bfba 1611 24be
00000160: c07e 28be abf6 bfbd 6dfb d43d 3f93 5f3c
00000170: 66b1 6dbd 8b24 8ebe 5c17 c4be 20a0 bcbd
00000180: 97b1 22be 78a8 9e38 aba6 1cbb 8d80 1cbc
-0.32678548 -0.07481119 -0.111169696 -0.2634287 -0.06692472 -0.07272323 -0.25742528 -0.12963875
0.07468773 0.22196425 -0.13333446 0.00027982527 -0.25047845 -0.19365303 0.0049326615 -0.17125386
-0.00027578403 -0.074974306 0.6243764 -0.4048988 0.16506104 -0.06972768 0.26145074 -0.0062416415
-0.068653 -0.12413175 -0.18128139 -0.08012133 0.0005895938 -0.009230491 -0.1068227 0.30566004
-0.0006758824 -0.09322901 0.0045230556 -0.11360166 0.007197387 0.14919147 0.18216465 -0.13010277
-0.22812176 -0.1974365 -0.33281723 0.19482483 -0.036325783 -0.118907675 0.019817729 -0.08766225
-0.19103864 -0.1406562 -0.19389097 -0.099507116 -0.18304192 0.0004140063 0.30599236 -0.042792026
-0.10739322 -0.1799376 0.00015396714 5.0094186e-05 -0.028995974 -0.15272318 0.0016892736 -0.15273942
-0.0003625229 -0.44705313 0.5195789 -0.1219851 0.0017369393 -0.029215207 -0.03621164 0.0022860188
0.022120973 -0.00016959486 -0.0026963446 -0.17617352 -0.56597173 -0.30093768 0.0001589759 0.34785128
-0.11156942 0.0026800807 -0.0002446045 -0.13869184 -0.2530353 -0.002311992 -0.0014580532 -0.16022143
-0.16454601 -0.0937322 0.10399518 0.013645946 -0.05803051 -0.27762255 -0.38299072 -0.09210229
-0.15888058 7.565407e-05 -0.0023903053 -0.009552133

grad_avg f4 [170, 5]
00000000: 0000 0000 0000 0000 0000 0000 0000 0000
00000010: 0000 0000 0000 0000 0000 0000 0000 0000
00000020: 0000 0000 0000 0000 0000 0000 0000 0000
00000030: 0000 0000 0000 0000 0000 0000 0000 0000
00000040: 0000 0000 0000 0000 0000 0000 0000 0000
00000050: 0000 0000 0000 0000 0000 0000 0000 0000
00000060: 0000 0000 0000 0000 0000 0000 0000 0000
00000070: 0000 0000 0000 0000 0000 0000 0000 0000
00000080: 0000 0000 0000 0000 0000 0000 0000 0000
00000090: 0000 0000 0000 0000 0000 0000 0000 0000
000000a0: 0000 0000 0000 0000 0000 0000 0000 0000
000000b0: 0000 0000 0000 0000 0000 0000 0000 0000
000000c0: 0000 0000 0000 0000 0000 0000 0000 0000
000000d0: 0000 0000 0000 0000 0000 0000 0000 0000
000000e0: 0000 0000 0000 0000 0000 0000 0000 0000
000000f0: 0000 0000 0000 0000 0000 0000 0000 0000
00000100: 0000 0000 0000 0000 0000 0000 0000 0000
00000110: 0000 0000 0000 0000 0000 0000 0000 0000
00000120: 0000 0000 0000 0000 0000 0000 0000 0000
00000130: 0000 0000 0000 0000 0000 0000 0000 0000
00000140: 0000 0000 0000 0000 0000 0000 0000 0000
00000150: 0000 0000 0000 0000 0000 0000 0000 0000
00000160: 0000 0000 0000 0000 0000 0000 0000 0000
00000170: 0000 0000 0000 0000 0000 0000 0000 0000
00000180: 0000 0000 0000 0000 0000 0000 0000 0000
00000190: 0000 0000 0000 0000 0000 0000 0000 0000
000001a0: 0000 0000 0000 0000 0000 0000 0000 0000
000001b0: 0000 0000 0000 0000 0000 0000 0000 0000
000001c0: 0000 0000 0000 0000 0000 0000 0000 0000
000001d0: 0000 0000 0000 0000 0000 0000 0000 0000
000001e0: 0000 0000 0000 0000 0000 0000 0000 0000
000001f0: 0000 0000 0000 0000 0000 0000 0000 0000
00000200: 0000 0000 0000 0000 0000 0000 0000 0000
00000210: 0000 0000 0000 0000 0000 0000 0000 0000
00000220: 0000 0000 0000 0000 0000 0000 0000 0000
00000230: 0000 0000 0000 0000 0000 0000 0000 0000
00000240: 0000 0000 0000 0000 0000 0000 0000 0000
00000250: 0000 0000 0000 0000 0000 0000 0000 0000
00000260: 0000 0000 0000 0000 0000 0000 0000 0000
00000270: 0000 0000 0000 0000 0000 0000 0000 0000
00000280: 0000 0000 0000 0000 0000 0000 0000 0000
00000290: 0000 0000 0000 0000 0000 0000 0000 0000
000002a0: 0000 0000 0000 0000 0000 0000 0000 0000
000002b0: 0000 0000 0000 0000 0000 0000 0000 0000
000002c0: 0000 0000 0000 0000 0000 0000 0000 0000
000002d0: 0000 0000 0000 0000 0000 0000 0000 0000
000002e0: 0000 0000 0000 0000 0000 0000 0000 0000
000002f0: 0000 0000 0000 0000 0000 0000 0000 0000
00000300: 0000 0000 0000 0000 0000 0000 0000 0000
00000310: 0000 0000 0000 0000 0000 0000 0000 0000
00000320: 0000 0000 0000 0000 0000 0000 0000 0000
00000330: 0000 0000 0000 0000 0000 0000 0000 0000
00000340: 0000 0000 0000 0000 0000 0000 0000 0000
00000350: 0000 0000 0000 0000 0000 0000 0000 0000
00000360: 0000 0000 0000 0000 0000 0000 0000 0000
00000370: 0000 0000 0000 0000 0000 0000 0000 0000
00000380: 0000 0000 0000 0000 0000 0000 0000 0000
00000390: 0000 0000 0000 0000 0000 0000 0000 0000
000003a0: 0000 0000 0000 0000 0000 0000 0000 0000
000003b0: 0000 0000 0000 0000 0000 0000 0000 0000
000003c0: 0000 0000 0000 0000 0000 0000 0000 0000
000003d0: 0000 0000 0000 0000 0000 0000 0000 0000
000003e0: 0000 0000 0000 0000 0000 0000 0000 0000
000003f0: 0000 0000 0000 0000 0000 0000 0000 0000
0.0 0.0 0.0 0.0 0.0 0.0 0.0 0.0
0.0 0.0 0.0 0.0 0.0 0.0 0.0 0.0
0.0 0.0 0.0 0.0 0.0 0.0 0.0 0.0
0.0 0.0 0.0 0.0 0.0 0.0 0.0 0.0
0.0 0.0 0.0 0.0 0.0 0.0 0.0 0.0
0.0 0.0 0.0 0.0 0.0 0.0 0.0 0.0
0.0 0.0 0.0 0.0 0.0 0.0 0.0 0.0
0.0 0.0 0.0 0.0 0.0 0.0 0.0 0.0
0.0 0.0 0.0 0.0 0.0 0.0 0.0 0.0
0.0 0.0 0.0 0.0 0.0 0.0 0.0 0.0
0.0 0.0 0.0 0.0 0.0 0.0 0.0 0.0
0.0 0.0 0.0 0.0 0.0 0.0 0.0 0.0
0.0 0.0 0.0 0.0 0.0 0.0 0.0 0.0
0.0 0.0 0.0 0.0 0.0 0.0 0.0 0.0
0.0 0.0 0.0 0.0 0.0 0.0 0.0 0.0
0.0 0.0 0.0 0.0 0.0 0.0 0.0 0.0
0.0 0.0 0.0 0.0 0.0 0.0 0.0 0.0
0.0 0.0 0.0 0.0 0.0 0.0 0.0 0.0
0.0 0.0 0.0 0.0 0.0 0.0 0.0 0.0
0.0 0.0 0.0 0.0 0.0 0.0 0.0 0.0
0.0 0.0 0.0 0.0 0.0 0.0 0.0 0.0
0.0 0.0 0.0 0.0 0.0 0.0 0.0 0.0
0.0 0.0 0.0 0.0 0.0 0.0 0.0 0.0
0.0 0.0 0.0 0.0 0.0 0.0 0.0 0.0
0.0 0.0 0.0 0.0 0.0 0.0 0.0 0.0
0.0 0.0 0.0 0.0 0.0 0.0 0.0 0.0
0.0 0.0 0.0 0.0 0.0 0.0 0.0 0.0
0.0 0.0 0.0 0.0 0.0 0.0 0.0 0.0
0.0 0.0 0.0 0.0 0.0 0.0 0.0 0.0
0.0 0.0 0.0 0.0 0.0 0.0 0.0 0.0
0.0 0.0 0.0 0.0 0.0 0.0 0.0 0.0
0.0 0.0 0.0 0.0 0.0 0.0 0.0 0.0

sqr_avg f4 [170, 5]
00000000: 0000 0000 0000 0000 0000 0000 0000 0000
00000010: 0000 0000 0000 0000 0000 0000 0000 0000
00000020: 0000 0000 0000 0000 0000 0000 0000 0000
00000030: 0000 0000 0000 0000 0000 0000 0000 0000
00000040: 0000 0000 0000 0000 0000 0000 0000 0000
00000050: 0000 0000 0000 0000 0000 0000 0000 0000
00000060: 0000 0000 0000 0000 0000 0000 0000 0000
00000070: 0000 0000 0000 0000 0000 0000 0000 0000
00000080: 0000 0000 0000 0000 0000 0000 0000 0000
00000090: 0000 0000 0000 0000 0000 0000 0000 0000
000000a0: 0000 0000 0000 0000 0000 0000 0000 0000
000000b0: 0000 0000 0000 0000 0000 0000 0000 0000
000000c0: 0000 0000 0000 0000 0000 0000 0000 0000
000000d0: 0000 0000 0000 0000 0000 0000 0000 0000
000000e0: 0000 0000 0000 0000 0000 0000 0000 0000
000000f0: 0000 0000 0000 0000 0000 0000 0000 0000
00000100: 0000 0000 0000 0000 0000 0000 0000 0000
00000110: 0000 0000 0000 0000 0000 0000 0000 0000
00000120: 0000 0000 0000 0000 0000 0000 0000 0000
00000130: 0000 0000 0000 0000 0000 0000 0000 0000
00000140: 0000 0000 0000 0000 0000 0000 0000 0000
00000150: 0000 0000 0000 0000 0000 0000 0000 0000
00000160: 0000 0000 0000 0000 0000 0000 0000 0000
00000170: 0000 0000 0000 0000 0000 0000 0000 0000
00000180: 0000 0000 0000 0000 0000 0000 0000 0000
00000190: 0000 0000 0000 0000 0000 0000 0000 0000
000001a0: 0000 0000 0000 0000 0000 0000 0000 0000
000001b0: 0000 0000 0000 0000 0000 0000 0000 0000
000001c0: 0000 0000 0000 0000 0000 0000 0000 0000
000001d0: 0000 0000 0000 0000 0000 0000 0000 0000
000001e0: 0000 0000 0000 0000 0000 0000 0000 0000
000001f0: 0000 0000 0000 0000 0000 0000 0000 0000
00000200: 0000 0000 0000 0000 0000 0000 0000 0000
00000210: 0000 0000 0000 0000 0000 0000 0000 0000
00000220: 0000 0000 0000 0000 0000 0000 0000 0000
00000230: 0000 0000 0000 0000 0000 0000 0000 0000
00000240: 0000 0000 0000 0000 0000 0000 0000 0000
00000250: 0000 0000 0000 0000 0000 0000 0000 0000
00000260: 0000 0000 0000 0000 0000 0000 0000 0000
00000270: 0000 0000 0000 0000 0000 0000 0000 0000
00000280: 0000 0000 0000 0000 0000 0000 0000 0000
00000290: 0000 0000 0000 0000 0000 0000 0000 0000
000002a0: 0000 0000 0000 0000 0000 0000 0000 0000
000002b0: 0000 0000 0000 0000 0000 0000 0000 0000
000002c0: 0000 0000 0000 0000 0000 0000 0000 0000
000002d0: 0000 0000 0000 0000 0000 0000 0000 0000
000002e0: 0000 0000 0000 0000 0000 0000 0000 0000
000002f0: 0000 0000 0000 0000 0000 0000 0000 0000
00000300: 0000 0000 0000 0000 0000 0000 0000 0000
00000310: 0000 0000 0000 0000 0000 0000 0000 0000
00000320: 0000 0000 0000 0000 0000 0000 0000 0000
00000330: 0000 0000 0000 0000 0000 0000 0000 0000
00000340: 0000 0000 0000 0000 0000 0000 0000 0000
00000350: 0000 0000 0000 0000 0000 0000 0000 0000
00000360: 0000 0000 0000 0000 0000 0000 0000 0000
00000370: 0000 0000 0000 0000 0000 0000 0000 0000
00000380: 0000 0000 0000 0000 0000 0000 0000 0000
00000390: 0000 0000 0000 0000 0000 0000 0000 0000
000003a0: 0000 0000 0000 0000 0000 0000 0000 0000
000003b0: 0000 0000 0000 0000 0000 0000 0000 0000
000003c0: 0000 0000 0000 0000 0000 0000 0000 0000
000003d0: 0000 0000 0000 0000 0000 0000 0000 0000
000003e0: 0000 0000 0000 0000 0000 0000 0000 0000
000003f0: 0000 0000 0000 0000 0000 0000 0000 0000
0.0 0.0 0.0 0.0 0.0 0.0 0.0 0.0
0.0 0.0 0.0 0.0 0.0 0.0 0.0 0.0
0.0 0.0 0.0 0.0 0.0 0.0 0.0 0.0
0.0 0.0 0.0 0.0 0.0 0.0 0.0 0.0
0.0 0.0 0.0 0.0 0.0 0.0 0.0 0.0
0.0 0.0 0.0 0.0 0.0 0.0 0.0 0.0
0.0 0.0 0.0 0.0 0.0 0.0 0.0 0.0
0.0 0.0 0.0 0.0 0.0 0.0 0.0 0.0
0.0 0.0 0.0 0.0 0.0 0.0 0.0 0.0
0.0 0.0 0.0 0.0 0.0 0.0 0.0 0.0
0.0 0.0 0.0 0.0 0.0 0.0 0.0 0.0
0.0 0.0 0.0 0.0 0.0 0.0 0.0 0.0
0.0 0.0 0.0 0.0 0.0 0.0 0.0 0.0
0.0 0.0 0.0 0.0 0.0 0.0 0.0 0.0
0.0 0.0 0.0 0.0 0.0 0.0 0.0 0.0
0.0 0.0 0.0 0.0 0.0 0.0 0.0 0.0
0.0 0.0 0.0 0.0 0.0 0.0 0.0 0.0
0.0 0.0 0.0 0.0 0.0 0.0 0.0 0.0
0.0 0.0 0.0 0.0 0.0 0.0 0.0 0.0
0.0 0.0 0.0 0.0 0.0 0.0 0.0 0.0
0.0 0.0 0.0 0.0 0.0 0.0 0.0 0.0
0.0 0.0 0.0 0.0 0.0 0.0 0.0 0.0
0.0 0.0 0.0 0.0 0.0 0.0 0.0 0.0
0.0 0.0 0.0 0.0 0.0 0.0 0.0 0.0
0.0 0.0 0.0 0.0 0.0 0.0 0.0 0.0
0.0 0.0 0.0 0.0 0.0 0.0 0.0 0.0
0.0 0.0 0.0 0.0 0.0 0.0 0.0 0.0
0.0 0.0 0.0 0.0 0.0 0.0 0.0 0.0
0.0 0.0 0.0 0.0 0.0 0.0 0.0 0.0
0.0 0.0 0.0 0.0 0.0 0.0 0.0 0.0
0.0 0.0 0.0 0.0 0.0 0.0 0.0 0.0
0.0 0.0 0.0 0.0 0.0 0.0 0.0 0.0

grad_avg f4 [100, 10]
00000000: c8e2 b93b 0e71 803c 5ad4 9cbb 29c3 7abc
00000010: 45a1 ecbb bae5 03bc d7e1 a9ba febc a73a
00000020: e29a fd3b b569 abbc 271b 553b 67e2 c33b
00000030: ad49 79bb 114a d6ba b331 5bbb 331f 82bb
00000040: 1e77 6cbb d2b2 c3ba a71d 86bb 97f4 eb3a
00000050: 65e8 1237 dd63 1d3b 8ecc 23ba e994 78ba
00000060: d606 953b 27a6 03bb 57b0 05b8 ed3b 053b
00000070: dad5 d83a a463 95bb 6a33 e73b bd6a 203b
00000080: 1db9 4fbb 8fb2 0c3b 8f59 b7bb 0a0c e3bb
00000090: fb61 3f3b 7454 06bb 6d0f 4f3c b62e 8ebb
000000a0: a786 993b 91bc 763a 7939 7339 c57d 56bb
000000b0: 6308 a5ba f343 19bb 2443 4bba e7fa 783b
000000c0: 1b73 7f3a f1a6 8fbb 375b d03b bc5d 193b
000000d0: 3a62 a53a a7b4 54bb a7e1 fbb8 f77e 51bb
000000e0: f835 a93a 3ca5 7fba 1200 ce39 2c64 feba
000000f0: ebec b33b 4cd5 1c3c 55d3 ec3b 0c94 5ebb
00000100: 0112 1d3b cc02 31bb acc9 c53b ef7e b4b9
00000110: 7473 92bb 955d 29bc 280d 0b3c 586a 6bbb
00000120: a49b 94ba 6494 46bb 35ac 143b 06ed 93bb
00000130: 26ce 29bc 18c9 c53b db10 4e3a 0225 57bb
00000140: 1fe2 03bb fd4a 3bba 102a 44bb fb0a 753a
00000150: ec08 f7ba 63b3 fdb7 4ee8 6b3b e852 a9ba
00000160: 57c5 59bb c0b5 4e3b 5bfb f8bb 024b 2a3a
00000170: c50a b9ba 7b35 b43a 3382 383b 7319 ad3b
00000180: b392 613b 32f3 0abc e9cb 2ebc 74e3 9b3b
00000190: 3fff a93b 5bf5 cab9 ff1c 4aba fff7 cbba
000001a0: 7687 66ba 1d89 823a aaa0 023a 5745 6e3a
000001b0: 64eb b23a bc94 3cbc 0300 0000 0300 0000
000001c0: 0300 0000 0300 0080 0300 0000 0300 0000
000001d0: 0300 0080 0300 0080 0300 0080 0300 0000
000001e0: db17 5b3c 2ea7 04bc 236f d1ba 0b41 a0bb
000001f0: bd4f 933a 4e89 5dbc c720 7cbc 06a9 413c
00000200: e7bc 143c 247e 0bbc 1f3d 943b 99cd 1c3c
00000210: 0e88 493b b505 f9bb a4f7 bcbb c610 8dbb
00000220: b904 29bc f61c 22bc b3f5 abba f2db d53b
00000230: 0300 0000 0300 0000 0300 0080 0300 0000
00000240: 0300 0000 0300 0000 0300 0080 0300 0080
00000250: 0300 0000 0300 0000 a0b6 353c 2224 fc3b
00000260: b93d a23b f79e debb d272 3bbb 84f4 b0bb
00000270: 8a09 973a 9183 033c 3111 33b9 d93a 59bc
00000280: 0300 0000 0300 0000 0300 0080 0300 0080
00000290: 0300 0080 0300 0080 0300 0000 0300 0000
000002a0: 0300 0000 0300 0000 b3ff 1f3a 23be 7c3b
000002b0: f05f 63bb cdc2 7839 9749 34bb c85f 41bb
000002c0: f567 edba fd78 efba 3391 d6bb 5694 9e3a
000002d0: 190b 29bc e148 13bb 737c b13a 2bec 023c
000002e0: 40c3 a6b9 c836 5aba b193 e73b 2fac 243c
000002f0: 81ef 333c 6140 d13b d3c7 c9ba f4cc 983a
00000300: 98b0 aaba 63b4 22bc 0063 db3a 9233 6fbb
00000310: 001f a83a 7cdd adb9 1dcd 2a3b 35dd 85bb
00000320: 83e3 82bc 7d7b 66bb a6b6 09bc b3c5 613b
00000330: 0a23 50bb 2da6 1e3c eb61 0f3c 6bcf dcbb
00000340: 4f91 9f3b 9ecc e83b 3be9 e33b 257c 143b
00000350: 487d c33a eb51 7ebb 9f8b b0bb df16 d8bb
00000360: b1a0 d4bb 569e 213b 7815 19bb 6652 66bb
00000370: 12a7 acb8 2d2f e2bb c35b 6abb 251e 993a
00000380: ee69 9ebb 5b55 d53a c555 71bb a88c 68bc
00000390: 9282 05bb 813c 403c 0300 0000 0300 0080
000003a0: 0300 0000 0300 0080 0300 0000 0300 0000
000003b0: 0300 0000 0300 0080 0300 0000 0300 0000
000003c0: aaa3 9c3b fa41 caba 60dd 8c3a 7ad0 e9ba
000003d0: 25ad 3dba 6d66 8fbb 0afc 50bb ed43 bd3b
000003e0: e691 05bb 52ba 29bb 2bb9 e93b cb6b 053b
000003f0: 2183 d03b c360 9abb bccc c0b8 fbca e7bb
0.0056727864 0.015678909 -0.0047860565 -0.015305319 -0.0072213733 -0.008050377 -0.0012960982 0.0012797413
0.0077394107 -0.020924428 0.0032517405 0.005977917 -0.00380383 -0.0016348978 -0.003344637 -0.0039710044
-0.0036081742 -0.0014930612 -0.0040928903 0.0018001971 8.756387e-06 0.0024015822 -0.00062484376 -0.00094826386
0.004547934 -0.0020088048 -3.18739e-05 0.0020329908 0.0016543225 -0.004558997 0.0070556896 0.0024477683
-0.003169603 0.0021468734 -0.005595393 -0.0069289254 0.0029202688 -0.0020497115 0.012637955 -0.0043390645
0.0046852413 0.0009412254 0.00023195696 -0.0032728773 -0.0012591 -0.0023386448 -0.000775384 0.0037991346
0.000974463 -0.0043839146 0.00635853 0.0023401817 0.0012617775 -0.003245631 -0.00012010644 -0.0031966546
0.0012909761 -0.00097521 0.00039291434 -0.0019408516 0.0054908893 0.009572338 0.007227341 -0.0033962755
0.002396703 -0.0027009724 0.006036004 -0.00034426848 -0.0044693295 -0.010337253 0.008487023 -0.003592154
-0.0011337888 -0.003030085 0.0022685651 -0.0045143394 -0.010364091 0.006035935 0.0007860788 -0.0032828455
-0.0020123792 -0.0007144658 -0.0029932298 0.00093476445 -0.0018847263 -3.0243484e-05 0.0035996619 -0.0012918385
-0.0033229196 0.0031541437 -0.0075983233 0.00064961624 -0.001411759 0.0013748849 0.0028153777 0.005282575
0.0034419715 -0.008480834 -0.010668733 0.004757339 0.0051878984 -0.00038711246 -0.0007710009 -0.001556158
-0.0008793989 0.0009959076 0.0004983047 0.0009089312 0.0013650474 -0.01151007 4e-45 4e-45
4e-45 -4e-45 4e-45 4e-45 -4e-45 -4e-45 -4e-45 4e-45
0.013372387 -0.008096499 -0.0015978556 -0.004890566 0.0011238974 -0.0135215055 -0.015388674 0.0118200835
0.009078241 -0.008513961 0.0045238878 0.009570503 0.003075126 -0.0075995573 -0.0057668258 -0.004304978
-0.010316067 -0.0098946 -0.0013119489 0.0065264637 4e-45 4e-45 -4e-45 4e-45
4e-45 4e-45 -4e-45 -4e-45 4e-45 4e-45 0.0110909045 0.007694737
0.0049512056 -0.0067938524 -0.0028602374 -0.0054002423 0.0011523229 0.008026973 -0.00017077175 -0.013258659
4e-45 4e-45 -4e-45 -4e-45 -4e-45 -4e-45 4e-45 4e-45
4e-45 4e-45 0.0006103471 0.0038565479 -0.0034694634 0.00023723692 -0.0027509683 -0.0029506553
-0.0018112647 -0.001827031 -0.006548071 0.0012098651 -0.010317587 -0.002247386 0.0013541117 0.007990877
-0.0003180746 -0.0008324203 0.0070671667 0.010050817 0.010982395 0.0063858484 -0.0015394635 0.001165776
-0.00130226 -0.009930703 0.0016737878 -0.0036499244 0.0012826622 -0.0003316215 0.0026062198 -0.004085208
-0.015977627 -0.003516882 -0.008405363 0.0034450113 -0.0031759166 0.009683174 0.008751373 -0.0067385933
0.004869617 0.0071044704 0.0069552935 0.0022657004 0.0014914656 -0.003880615 -0.005387738 -0.0065945233
-0.0064888825 0.0024661026 -0.0023358744 -0.0035144328 -8.2327184e-05 -0.0069025964 -0.003576026 0.0011681957
-0.004834405 0.0016276048 -0.0036824804 -0.014193691 -0.0020372015 0.011733175 4e-45 -4e-45
4e-45 -4e-45 4e-45 4e-45 4e-45 -4e-45 4e-45 4e-45
0.0047802525 -0.001543104 0.0010747127 -0.001783862 -0.00072355784 -0.004376224 -0.0031888508 0.0057759196
-0.0020381152 -0.002589841 0.0071326694 0.002035844 0.006363288 -0.004711242 -9.193408e-05 -0.0070737577

sqr_avg f4 [100, 10]
00000000: 9311 be3b 0e70 bb3b 21f2 b43b eb57 c63b
00000010: 1bd9 db3b 4377 bd3b 52a5 c63b 8ebc c73b
00000020: d0a8 b73b b469 b33b 3930 2c3a 0794 343a
00000030: a8c2 163a 2e18 223a 1765 203a 29a3 0d3a
00000040: dc75 1b3a 18ce 103a aec7 0e3a 2e7d 263a
00000050: 66ba 213a 290b 1f3a 02d5 343a ff4d 2e3a
00000060: ae20 473a c26d 443a 2890 2e3a b440 3c3a
00000070: 12c9 303a 72e9 493a 8e5c c43a 60bd cf3a
00000080: f744 e63a 5249 d03a c466 b93a 1809 d73a
00000090: fd6d d03a 32dc d63a 511d dd3a ef7c cc3a
000000a0: 5ea8 2e3a ab41 303a ae3d 1c3a f9f7 2a3a
000000b0: 80a3 2b3a baf8 413a 9548 2b3a 1dab 2e3a
000000c0: 9d58 153a 0aba 263a e37d cb39 bc95 dd39
000000d0: a53a d939 2c0c c139 fdac d839 9c28 e939
000000e0: 5457 e839 07b8 db39 4ffa c039 90d0 af39
000000f0: c961 983b 6470 8a3b df92 873b 23a3 8e3b
00000100: 232a 9a3b 3c4a 893b ab45 993b 66a1 923b
00000110: 840c 8b3b 91b3 8b3b 4cbb 883a 82fe 5f3a
00000120: 478b 773a 033c 883a bb48 843a 0c7d 6d3a
00000130: 5728 873a 8b02 843a 5e5d 763a e16b 783a
00000140: 9083 003a 3ea8 213a 8012 123a b39d 213a
00000150: 4878 143a 884f 013a 62f7 0c3a a85a 363a
00000160: 005f 1b3a 2aff 213a b696 d63a 9f6d d43a
00000170: 0cf9 d33a 3f43 d93a 5b97 c23a a16e cc3a
00000180: 16d7 d93a def4 d63a 0feb dc3a 1051 f03a
00000190: 4381 eb3a 11b2 e03a 262d d83a 19cc f03a
000001a0: 57d4 fa3a 2783 0a3b 2390 f73a ca3e f53a
000001b0: 78d7 c53a cd45 db3a cb99 350f 2256 330f
000001c0: c586 380f 108f 450f fede 250f 85d5 160f
000001d0: fb2d 1b0f d3b8 270f 0f68 200f c807 2a0f
000001e0: 4c5f 333b 72bf 233b 8148 363b 32af 373b
000001f0: fc62 193b 8f48 1c3b 5c0e 253b a4a6 243b
00000200: 820a 1c3b aca4 113b 164e 263b b50c 253b
00000210: 1bd0 1f3b cb30 2e3b 971f 383b 0212 383b
00000220: 92ba 1a3b 5c1a 2f3b fd29 253b 7c73 303b
00000230: 7909 9313 f4fa 9113 54e5 9a13 f8cd 8713
00000240: 40aa ab13 5af2 9913 f62f b713 3f79 bf13
00000250: 5b2c a513 4dbb aa13 6f46 993b e616 ad3b
00000260: 843a 9f3b f8c1 ac3b 1d40 a73b 8323 a93b
00000270: 34c6 9d3b 83f0 993b 40de 833b 2586 9a3b
00000280: b461 d815 3046 cc15 bf6f ee15 204a bd15
00000290: 8bbe c915 8338 f715 8855 fe15 ddc3 de15
000002a0: d2ee f315 9539 d315 66de 223a 5d2f 303a
000002b0: 71d8 433a 47cb 393a 7f77 343a 2325 333a
000002c0: 3a63 413a 10ef 2a3a dfbf 523a 2bef 1b3a
000002d0: 19ba c73b f89b 9d3b 4485 b93b 3236 a03b
000002e0: 5146 ae3b 0c69 b53b e296 b03b 9ae6 bc3b
000002f0: 95d5 983b d780 b13b dfe6 f73a 4813 ec3a
00000300: ff69 f43a 3674 f03a ef94 d93a 5038 d33a
00000310: 6bfd c33a 085b eb3a f70b c53a 3308 da3a
00000320: d4ad 793b dcd0 823b f4c6 633b 2489 543b
00000330: 9e21 8d3b d8ae 803b 2a20 6e3b edbf 833b
00000340: 9009 953b a1d1 673b fa16 7f3a 05fc 6b3a
00000350: f0ad 913a 5e46 943a d6a0 8a3a b386 6d3a
00000360: 0df8 923a 2221 903a 916f 7c3a 0c57 863a
00000370: 4608 4d3b f21a 503b dc42 4f3b c19c 4c3b
00000380: 5b24 7b3b fead 583b 1e9e 683b 5a69 5b3b
00000390: 3576 753b 9436 503b 7c3c 8815 9bf7 c915
000003a0: 637f d715 69e2 c415 da22 cb15 97f3 da15
000003b0: 855c ce15 fc5a b415 3bdf 0616 390e 1a16
000003c0: fa2f 213a f4c7 533a 8702 543a cbfb 6a3a
000003d0: 0d2a 4c3a f268 4f3a 9100 4c3a 8afd 5c3a
000003e0: 53be 6e3a 059b 5e3a 1e3d cb3a 4625 bf3a
000003f0: febc ce3a 8719 ca3a df0b d03a 22b2 c93a
0.005800435 0.005720145 0.005522028 0.006052961 0.0067092306 0.0057820394 0.006062188 0.0060954755
0.005604841 0.0054752473 0.0006568465 0.0006888513 0.0005751052 0.00061834126 0.0006118579 0.0005403036
0.0005930343 0.00055238744 0.0005446625 0.00063510507 0.0006169438 0.00060670316 0.0006898196 0.00066491956
0.0007596117 0.0007493162 0.0006659054 0.00071812724 0.0006743829 0.00077023276 0.0014981197 0.0015849285
0.001756816 0.0015890992 0.0014145006 0.0016405908 0.001590192 0.0016392528 0.0016869699 0.0015601198
0.0006662662 0.00067236525 0.0005960119 0.0006521936 0.0006547496 0.0007399429 0.0006533948 0.0006663071
0.00056971033 0.00063601194 0.0003881297 0.00042263966 0.0004143316 0.00036820897 0.00041327617 0.0004447148
0.00044315553 0.00041908046 0.00036807588 0.00033533992 0.004650329 0.004224824 0.0041373814 0.0043529435
0.00470473 0.0041897576 0.0046774945 0.0044748066 0.0042434353 0.0042633493 0.0010431795 0.00085446995
0.0009443056 0.0010393861 0.0010092476 0.0009059466 0.0010311705 0.0010071559 0.0009398068 0.00094765244
0.0004902417 0.00061667326 0.0005572215 0.00061651616 0.0005663675 0.00049328106 0.0005377439 0.0006956258
0.0005926937 0.0006179685 0.001637182 0.0016206986 0.0016172244 0.0016575827 0.0014846133 0.0015596935
0.0016619887 0.001639988 0.0016854721 0.0018334705 0.00179676 0.0017142912 0.0016492947 0.0018371373
0.0019136769 0.0021135302 0.001888756 0.0018710729 0.0015094122 0.0016729176 8.9536084e-30 8.84197e-30
9.097856e-30 9.740403e-30 8.178075e-30 7.436693e-30 7.6509455e-30 8.2693315e-30 7.90865e-30 8.383146e-30
0.0027370034 0.0024985936 0.0027814212 0.0028028009 0.0023404947 0.002384696 0.002518556 0.002512374
0.0023809974 0.0022223396 0.0025376133 0.0025184576 0.0024385515 0.0026579376 0.0028095 0.0028086905
0.002360974 0.0026718592 0.002520203 0.0026924303 3.7117358e-27 3.6850605e-27 3.91012e-27 3.4281892e-27
4.333435e-27 3.8861607e-27 4.6242988e-27 4.8334736e-27 4.1695594e-27 4.3098726e-27 0.004677586 0.0052822707
0.0048592705 0.0052721463 0.0051040784 0.005161704 0.0048148874 0.0046978607 0.004024297 0.0047156983
8.7395854e-26 8.250568e-26 9.630374e-26 7.645344e-26 8.148388e-26 9.9851665e-26 1.0272473e-25 8.9974104e-26
9.852371e-26 8.531307e-26 0.00062129495 0.0006720925 0.0007470912 0.00070874806 0.00068842614 0.0006833842
0.00073771516 0.00065206084 0.0008039455 0.00059484196 0.0060951826 0.0048098527 0.0056616385 0.004889273
0.005318441 0.005536204 0.0053890804 0.0057647945 0.004664133 0.0054169702 0.001891341 0.0018011117
0.0018647312 0.001834518 0.0016600172 0.0016114805 0.0014952844 0.0017956207 0.0015033473 0.0016634524
0.0038097994 0.003992183 0.0034756036 0.0032430375 0.004306986 0.003927093 0.003633509 0.004020682
0.004548259 0.0035372751 0.0009730902 0.00090020924 0.001111446 0.0011312475 0.0010576497 0.0009060904
0.0011212841 0.0010996202 0.0009629662 0.0010249331 0.003128545 0.0031754342 0.0031625545 0.0031221362
0.003832123 0.0033062692 0.0035494636 0.0033479542 0.003745449 0.0031770812 5.502539e-26 8.1573906e-26
8.703879e-26 7.952098e-26 8.2046033e-26 8.8433816e-26 8.334871e-26 7.284497e-26 1.0894873e-25 1.2444509e-25
0.00061488117 0.00080788066 0.0008087535 0.00089639117 0.00077882485 0.00079120614 0.0007782067 0.0008430114
0.000910734 0.00084917276 0.0015505885 0.0014583252 0.0015772877 0.0015418985 0.0015872678 0.0015388171

grad_avg f4 [100]
00000000: f062 1c3b 10b4 553b fda0 00bb fa94 4a3b
00000010: 9402 7ebb 5707 7639 ab59 1a3b 66f0 563b
00000020: 55d8 8b3a a89f 3cbb 365b 57bb 0300 0000
00000030: 642d 453c fbeb 233c 0300 0000 72b2 52bb
00000040: 0300 0000 f4df 983b 4b69 9ebb 945b 87ba
00000050: 7325 18bc 7e3c 4f3b 59e1 263b 0300 0000
00000060: e399 d7b8 fba5 0fbb 73f6 533c 72fc 0e3b
00000070: 0400 0000 0600 0000 ba56 083c abaf 81ba
00000080: 0300 0000 5e38 b23b 0300 0000 0fa7 f43a
00000090: 0600 0000 243c e2bb 42c6 c83a f06f 27bb
000000a0: 6fa1 213c b147 6dbb 86bb 843a bce1 1f3c
000000b0: 62e1 823a 41df bc3b 0300 0000 2ef0 143b
000000c0: 12c8 6a3c 64a5 333c 18f2 463b 41f4 18bb
000000d0: 2500 333b 0300 0000 c86a 94bc 2189 bb3b
000000e0: 0091 173c 5593 073c 0300 0000 0300 0000
000000f0: 3959 6539 b515 893a 0800 0000 55f4 a83b
00000100: 0300 0000 f104 923b fecb 413b 6dd7 163c
00000110: 0300 0000 2362 8cba 8fe5 553a 0300 0000
00000120: 0300 0000 0500 0000 0300 0000 4539 363c
00000130: dc3f 513c 5a6e 8939 0300 0000 56df 1d3c
00000140: c26a e93b 8ba0 12b8 0400 0000 dadc bc3b
00000150: afaa 9b3a 0500 0000 0300 0000 ba91 423c
00000160: fb0b 11bc 1550 0abb 5164 83bb 0400 0000
00000170: de9d 903a 4dfd 2d3a 5248 4a3c c910 b3b6
00000180: f4bb 4f39 0300 0000 0600 0000 1d06 033a
0.0023862682 0.0032608546 -0.0019627206 0.003091155 -0.003875886 0.00023463122 0.0023551981 0.0032797097
0.001066933 -0.0028781686 -0.0032860762 4e-45 0.012034748 0.010004993 4e-45 -0.0032149819
4e-45 0.004665369 -0.0048343292 -0.0010326975 -0.009286272 0.003162175 0.0025463908 4e-45
-0.000102806625 -0.0021919 0.012937176 0.002181795 6e-45 8e-45 0.0083214585 -0.0009894272
4e-45 0.0054388484 4e-45 0.001866551 8e-45 -0.006904142 0.0015317874 -0.0025548898
0.009865149 -0.0036206061 0.0010126687 0.009758409 0.0009985382 0.0057639186 4e-45 0.0022726166
0.014329927 0.010964725 0.0030356701 -0.0023338946 0.0027313319 4e-45 -0.018117324 0.005723134
0.009250879 0.008274873 4e-45 4e-45 0.0002187238 0.001045874 1.1e-44 0.00515608
4e-45 0.0044561555 0.0029571052 0.009206635 4e-45 -0.0010710399 0.0008159512 4e-45
4e-45 7e-45 4e-45 0.011122053 0.012771573 0.00026212895 4e-45 0.009635767
0.007123322 -3.495863e-05 6e-45 0.0057636322 0.0011876429 7e-45 4e-45 0.011875564
-0.008852954 -0.0021104862 -0.0040097614 6e-45 0.0011033376 0.0006637171 0.012346344 -5.3365698e-06
0.00019811076 4e-45 8e-45 0.00049981644

sqr_avg f4 [100]
00000000: 19f1 bf3b 0ae8 293a 0600 303a 5d4c b03a
00000010: 1445 333a 9891 ca39 2e56 8c3b 1b09 6b3a
00000020: 4e04 053a a754 c13a e188 053b 98b9 4d0f
00000030: 8fb1 003b 8498 2b3b fda2 a713 9238 aa3b
00000040: 1a8d 0c16 4e9d 5c3a 5b2e b23b 7a22 e13a
00000050: 087e 6c3b 17c1 893a 52c5 483b 36b5 d715
00000060: d358 5b3a 397c d33a 8799 943b bef9 973a
00000070: 5327 b617 4cf6 1521 a5d0 8a3a 1d37 db3a
00000080: 97fa 8013 af10 5e3a c393 8717 8662 123b
00000090: a1e2 2d21 ecdb 0a3b ee42 f739 a0e0 e53a
000000a0: fa0f b83b 33ef 103b 9f7a ff3a 72fd 263b
000000b0: 36df 1b39 fb63 ce3a 7f85 8b17 d226 2a3a
000000c0: 2761 913b 93f0 033b 13ad 953b 0b35 f23a
000000d0: 24ff 1f3b 2c48 0915 14e9 9f3b 39e7 c839
000000e0: a555 b73a d1ab 203b 0ad3 2d10 2024 8914
000000f0: 31b5 0439 b503 163b 07a0 0222 ed5d 1b3b
00000100: 2916 a513 08da 473c f962 653c 7c08 063b
00000110: 8e94 1813 8fde 4439 3f6c a738 2e83 1411
00000120: 5411 2310 2fa9 1a1b 1841 ea11 613b b53a
00000130: b238 1b3b 1720 503c a8e2 8915 ca3e 493c
00000140: ea0e e83a 10f5 9935 1412 5f17 563a 413a
00000150: a76d e43b e619 761c 27b5 8716 dd28 a73b
00000160: d992 033b dac9 183a 1caa 8d3a 0aea db19
00000170: a8d7 0d3a efd7 073c ae64 023c 687a 1e3a
00000180: 8e1c 953b d681 8112 e029 c61f 635e 5f37
0.0058575985 0.0006481415 0.00067138707 0.0013450492 0.00068386015 0.00038636918 0.0042827344 0.00089658954
0.0005074189 0.001474996 0.0020375776 1.01430244e-29 0.0019637083 0.0026183436 4.2317446e-27 0.005194732
1.1353634e-25 0.0008415774 0.005437655 0.0017176413 0.0036085863 0.0010509816 0.003063519 8.712371e-26
0.0008367423 0.0016135044 0.0045349034 0.0011594815 1.1771401e-24 5.0809135e-19 0.0010590745 0.0016724799
3.2558843e-27 0.0008471114 8.761471e-25 0.0022336557 5.891462e-19 0.0021188213 0.00047161378 0.0017538257
0.005617139 0.002211523 0.00194915 0.0025480655 0.00014865104 0.0015746349 9.016364e-25 0.000649077
0.0044366303 0.0020132407 0.004567751 0.0018478943 0.002441355 2.7723863e-26 0.00488008 0.00038319247
0.0013987316 0.0024516473 3.4280813e-29 1.3847714e-26 0.00012656 0.0022890393 1.7703003e-18 0.0023707107
4.1673707e-27 0.012197979 0.014000648 0.0020451834 1.925834e-27 0.00018774926 7.983343e-05 1.1715564e-28
3.215943e-29 1.2793248e-22 3.6958807e-28 0.00138269 0.0023684916 0.012702963 5.569146e-26 0.0122830365
0.001770464 1.1470711e-06 7.2078004e-25 0.00073710585 0.0069710794 8.1428045e-22 2.192475e-25 0.005101307
0.0020076542 0.0005828418 0.0010808143 2.2738597e-23 0.00054108584 0.008291229 0.007958574 0.00060454616
0.004550523 8.173052e-28 8.392554e-20 1.3313812e-05

grad_avg f4 [1, 100]
00000000: 029b a33c 4e43 1a3c ec5f 0e3c 49c5 b1bb
00000010: a14a c23c d7f5 6b3c ec52 d6bc c888 333b
00000020: 13cd 4ebb f2d4 e1bb 519f 213c 0300 0080
00000030: 9db0 56bd a8bb 7abc 0300 0000 da57 bc3c
00000040: 0400 0080 8197 2fbd 832a 72bb 39c2 2b3b
00000050: e515 33bd 0f94 1abd ca5b 1abb 0300 0080
00000060: d15a 95bb dd5a 843c da89 41bd c667 463c
00000070: 0400 0000 0600 0080 674a c1bc 5280 8aba
00000080: 0300 0000 bca0 ccbc 0300 0000 56ee 183c
00000090: 0600 0000 a4ab 45bd cc54 963b 1bd4 a93c
000000a0: a19b e4bc 19fe 153c f74c 1ebb cb05 313c
000000b0: 1618 1abc 34ef adbc 0300 0000 448c e3bc
000000c0: 8a41 acbb 3e50 38bd f696 263d 7512 d33c
000000d0: 3e8e a93b 0300 0000 1dbf ebbc 1fc4 9bbd
000000e0: d50e a9bc 00b7 adb8 0300 0080 0300 0000
000000f0: a7ce adbb cef1 e43b 0800 0000 1975 ecbc
00000100: 0300 0080 ce88 69bc 480e c5bb 20f9 68bd
00000110: 0300 0080 dbcd 313d 05a5 33bc 0300 0000
00000120: 0300 0080 0500 0000 0300 0000 98b5 d3bc
00000130: 92b8 2abb b4fd 7c3c 0300 0080 5e91 883c
00000140: f841 fdbc 125e aabc 0400 0080 2642 8cbb
00000150: bfdb f83c 0500 0080 0300 0080 0ea9 fcbc
00000160: b884 a63c 29a1 2c3c 05ce 7dbc 0400 0000
00000170: 0790 a1bc b910 e6ba fc9a 69bc e7a9 163c
00000180: 316d 023c 0300 0000 0600 0000 38bb bbbc
0.019971374 0.009415461 0.008689862 -0.0054251296 0.023717226 0.0144018745 -0.026162587 0.002739476
-0.003155534 -0.00689184 0.009864644 -4e-45 -0.052414525 -0.01530353 4e-45 0.02299111
-6e-45 -0.042869095 -0.0036951608 0.0026208295 -0.043722052 -0.037738856 -0.0023553246 -4e-45
-0.0045579453 0.016156608 -0.047250606 0.012109702 6e-45 -8e-45 -0.023595048 -0.0010566807
4e-45 -0.024978988 4e-45 0.009334167 8e-45 -0.048259392 0.0045877453 0.020731023
-0.02790624 0.00915482 -0.0024154761 0.010804604 -0.009405157 -0.021232225 4e-45 -0.027776845
-0.0052568363 -0.0449984 0.04067131 0.025765637 0.0051744273 4e-45 -0.028777653 -0.076057665
-0.020636955 -8.283369e-05 -4e-45 4e-45 -0.005304176 0.006986833 1.1e-44 -0.02886443
-4e-45 -0.014253808 -0.0060136653 -0.05687821 -4e-45 0.04340921 -0.010964637 4e-45
-4e-45 7e-45 4e-45 -0.025843427 -0.0026049954 0.015441347 -4e-45 0.016670879
-0.030915245 -0.02079681 -6e-45 -0.0042803464 0.03037822 -7e-45 -4e-45 -0.03084233
0.020326957 0.01053647 -0.015491013 6e-45 -0.019721998 -0.0017552591 -0.014258143 0.009195781
0.007960604 4e-45 8e-45 -0.022916421

sqr_avg f4 [1, 100]
00000000: a915 1c3c 7504 f73c 1253 613c 529e be3a
00000010: 4c66 af3d 3da6 5b3c b1b0 da3c 2dee 573c
00000020: 4ada a93c 54a4 973b 838d 1c3d d7e8 b214
00000030: 2fe5 993c c723 613c cdd5 e016 659c 053e
00000040: 32bb fc1a a17e 243d 0873 e43a 6ccb db39
00000050: 39f4 983d a17c 173e c95a 223c dbfa bc18
00000060: 1a63 d03d 3a43 1a3d c859 db3d 4fed 033e
00000070: d8a2 651c 7a39 b424 4416 fe3c 1009 563a
00000080: cc98 ca17 7571 d23c fe26 8e1a fd21 563e
00000090: 79eb 2924 5b9d 263d df39 863a 0c47 433d
000000a0: 0117 543d 018d be3c 67f7 8f3a 3817 3f3c
000000b0: fe75 793c 9aba 223d 74f8 161a ef60 e63c
000000c0: bd33 9c3d b470 8d3d 12db 963d f557 f63d
000000d0: e1ff 7a3d b932 7218 b625 0c3c 5b26 b03d
000000e0: 24f3 123d a552 a23c bb6f d414 3134 eb18
000000f0: a163 273d f21c 1c3d ad1c 8525 87fb c93c
00000100: d678 d817 61c9 d73c 1306 eb3c de27 423d
00000110: ebc4 8d15 6f68 b83d a663 e33b 1f73 0515
00000120: 4bb0 8514 c889 0d1f ea55 9e16 b807 183c
00000130: 8e4e 7639 8178 db3d a421 e618 1aa8 243d
00000140: 63b6 bd3d 0623 933c b643 151c 3503 9f3b
00000150: f676 483d ecdb 0e21 2666 271b 7b7b 1e3e
00000160: 22c9 913c d1e8 7a3c d343 f13c 943d a21d
00000170: b68a 913d 87ca 643d 67db 6e3c db2b 733c
00000180: a754 2d3e 10f5 7716 5c21 2423 78ac 973c
0.009526649 0.030153492 0.013752716 0.0014543033 0.085644335 0.0134063335 0.026695581 0.013179344
0.020733971 0.0046277437 0.038220894 1.8065246e-26 0.018786041 0.01374144 3.632408e-25 0.13047941
1.0452719e-22 0.040159825 0.0017429302 0.00041922496 0.07468457 0.14793636 0.00990934 4.885016e-24
0.10175152 0.03766177 0.10710484 0.12883495 7.5980215e-22 7.8159926e-17 0.031016476 0.00081648026
1.3092515e-24 0.025688866 5.879282e-23 0.20911403 3.6845487e-17 0.04067741 0.0010240636 0.047675177
0.05177975 0.023260595 0.0010983766 0.011663251 0.015225885 0.03972874 3.1219972e-23 0.028122393
0.07627056 0.06906262 0.07366003 0.12028495 0.06127918 3.1303375e-24 0.008553913 0.08601066
0.03587641 0.019814799 2.14506e-26 6.0798776e-24 0.040866498 0.038113542 2.3091254e-16 0.02465607
1.3989176e-24 0.026341142 0.02868942 0.0474013 5.726013e-26 0.09004294 0.0069393693 2.694995e-26
1.3499103e-26 2.997188e-20 2.5580496e-25 0.009279184 0.00023489652 0.10716344 5.9487575e-24 0.040199377
0.09263303 0.017961036 4.938748e-22 0.004852677 0.048941575 4.8402536e-19 1.3846922e-22 0.15476792
0.017796103 0.015314297 0.029451286 4.2944713e-21 0.07106535 0.055857208 0.014578677 0.014841999
0.16926824 2.0029829e-25 8.897522e-18 0.018514857
