trees/save/cycle/4bits/split_75.0_0.1_5_50/models/model.pth (torch, 40342 bytes, 12 tensors)

embedding_layers.weight f4 [494, 4]
-0.00041281476 0.0021842932 -0.010767618 0.0028371115 0.0024727848 0.00020856879 -0.01072674 -0.0029942219
0.0005586356 0.0050845435 -0.010427965 -0.003974223 -0.008575053 -0.005127314 0.0095510045 0.004361627
0.0013586829 0.003678835 0.0076061464 0.0055728117 -0.0064723184 0.0013981309 -8.820673e-05 0.009851186
0.00015295435 0.010838003 0.0033719358 -0.0013998072 -0.002553068 5.482022e-05 -0.011502286 0.00078323635
-0.0072733355 -0.00051681226 -0.011488438 0.008033851 -0.00688681 0.009211109 0.008344489 -0.0017167064
0.0011140446 -0.0077672973 0.007500353 -0.0099416 0.0026697484 -0.0060211997 0.0019221158 -0.0018078208
-0.003056976 -0.0017964147 0.0067471275 -0.00010296514 -0.0054933527 0.012032855 -0.005611363 0.00084596773
0.0004987086 0.003965996 -0.0015641393 0.0001585098 0.006300516 -0.0035220936 0.0036687239 0.0055252146
0.00139165 -0.000513886 0.008742364 -0.0036902002 0.0073961345 -0.0019662788 -0.011784925 -0.003860321
0.010868742 5.9356647e-05 -0.004740558 -0.0034900005 -0.0061019496 -0.00042196072 -0.007467787 -0.0036811787
-0.004547116 -0.007065522 0.001091726 0.0025556402 0.0043455567 -0.0069464482 0.008721672 -0.0025785451
0.0018946602 0.0027307444 0.0064099124 -0.0029869252 0.0032141795 0.0008475652 0.002148864 -0.007600198
-0.0049322215 0.0019405656 0.00087451946 -0.003989149 -0.008541351 0.0015470277 0.0035131003 0.0020199483
-0.0038145708 0.0012201404 0.0042710537 -0.0015165206 0.0010541414 -0.009027627 0.000513907 -0.0005510177
0.00058168103 -0.0024556203 -0.001838161 0.00048259555 0.0013278511 0.0009451718 0.003959171 0.0028855887
0.0058538285 0.0064490493 -0.0021877403 -0.0052050655 -0.00262565 -0.007770067 -0.012312173 0.0043024723
0.005556195 -0.0019958175 0.010153628 -0.0007757729 -0.0038122297 0.001132817 0.0041517294 0.00039121835
-0.00071186863 0.0017486261 -0.004241663 0.0006470018 -0.0014317926 -0.005676233 -0.0062200157 -0.011569242
-0.008466451 0.005215769 -0.008138089 0.0072046686 0.0011455055 0.0014079056 -0.0061376775 -0.010170871
0.0028051087 0.008035932 -0.009178968 -0.003717776 -0.00886185 -0.008409091 -0.010208663 -0.00031763167
-0.008984324 -0.0033597574 -0.00017632161 -0.0075195385 -0.010955789 -0.0015306115 0.01105943 0.0070734504
-0.0024155532 0.00555039 -0.009945474 0.007921578 0.0071397484 -0.0030572978 -0.0067559383 -0.0011403516
-0.0005552573 0.00783779 0.0030620827 0.0027197234 0.0057362737 -0.0031084935 -0.0037927807 -0.0072258874
-0.00856591 0.0002868826 -0.007796818 -0.0014383749 -0.008532058 -0.0008945136 -0.004142172 -0.0056598773
0.008677575 0.0052883206 0.0037928522 -0.0023154677 -0.012334466 -0.006144712 0.003474519 0.003040552
-0.0071714357 0.004834589 -0.0045670457 -0.00055798807 0.006194606 -0.0067050876 -0.004825217 0.008849893
-0.0002788591 -0.007338337 0.005903786 -0.004569279 -0.0050159413 -0.0060133226 -0.0006200279 -5.218117e-05
-0.0037856922 -0.0030469652 -0.0024279892 -0.006718729 1.896994e-05 -0.0048010615 -0.0099008465 0.002917425
0.0099481605 -0.0095922295 -0.008258117 0.007581831 -0.0062885555 -0.00384452 0.006153629 0.0066607906
0.004465589 0.008076733 0.00547178 -0.0008933255 0.009682874 -0.007505938 -0.009399522 0.011806143
-0.0013995148 -0.002205965 -0.010560314 -0.0055184755 -0.0034769801 -0.004841614 -0.001686499 0.001328112
-0.012518674 0.0002443035 -0.00066729204 0.0069605443 0.0038262296 -0.007372437 -0.0056546107 -0.0016576836
00000000: 0f6f d8b9 5c26 0f3b aa6a 30bc d5ee 393b
00000010: 720e 223b 42b3 5a39 35bf 2fbc b53a 44bb
00000020: 6771 123a 3e9c a63b 0eda 2abc 333a 82bb
00000030: 617e 0cbc 0703 a8bb d17b 1c3c fbeb 8e3b
00000040: d515 b23a 9c18 713b fb3c f93b 229c b63b
00000050: be15 d4bb 7d41 b73a a1fb b8b8 de66 213c
00000060: 5f62 2039 e191 313c b2fb 5c3b bc79 b7ba
00000070: 6051 27bb c3ee 6538 1674 3cbc 1a52 4d3a
00000080: 2955 eebb af7a 07ba 003a 3cbc 6aa0 033c
00000090: c0aa e1bb 31ea 163c 53b7 083c 1c03 e1ba
000000a0: 2205 923a d084 febb 85c5 f53b 18e2 22bc
000000b0: f2f6 2e3b 7c4d c5bb 81ef fb3a 66f4 ecba
000000c0: 8c57 48bb ad75 ebba 0217 dd3b fdee d7b8
000000d0: 9501 b4bb 7425 453c 86df b7bb efc3 5d3a
000000e0: c5bb 023a 30f5 813b ce03 cdba a735 2639
000000f0: 8f74 ce3b edd2 66bb f96e 703b dc0c b53b
00000100: 0668 b63a 4eb6 06ba 223c 0f3c 49d7 71bb
00000110: 465b f23b afdc 00bb 8f15 41bc 70fd 7cbb
00000120: cf12 323c b7f5 7838 af56 9bbb 7eb8 64bb
00000130: ddf2 c7bb 9c3a ddb9 56b4 f4bb ee3f 71bb
00000140: f9ff 94bb e585 e7bb 3f18 8f3a 877c 273b
00000150: 2c65 8e3b 089f e3bb 58e5 0e3c cffc 28bb
00000160: 3f56 f83a 4af6 323b 3e0a d23b 4ac0 43bb
00000170: fca4 523b 232f 5e3a f5d3 0c3b 150b f9bb
00000180: 799e a1bb 945a fe3a 0240 653a 68b7 82bb
00000190: 06f1 0bbc a3c5 ca3a 0b3c 663b 1c61 043b
000001a0: e1fd 79bb 1eed 9f3a 32f4 8b3b fdc5 c6ba
000001b0: 1e2b 8a3a 9de8 13bc b7b7 063a 2c72 10ba
000001c0: f47b 183a 79ee 20bb 73ee f0ba e104 fd39
000001d0: 4a0b ae3a 68c5 773a efbb 813b 251c 3d3b
000001e0: 79d1 bf3b 8c52 d33b 3160 0fbb 418f aabb
000001f0: 1913 2cbb 0c9c febb ffb8 49bc c1fb 8c3b
00000200: be10 b63b 43cc 02bb 675b 263c 3d5d 4bba
00000210: 9ad6 79bb 087b 943a 3b0b 883b 701c cd39
00000220: b29c 3aba 2832 e53a a6fd 8abb 8e9b 293a
00000230: fdaa bbba b2ff b9bb 46d1 cbbb eb8c 3dbc
00000240: dfb6 0abc 0be9 aa3b 9f55 05bc 2415 ec3b
00000250: c924 963a 7989 b83a 921e c9bb baa3 26bc
00000260: ead5 373b 24a9 033c 6263 16bc eea5 73bb
00000270: 4b31 11bc 49c6 09bc 3c42 27bc cd87 a6b9
00000280: fc32 13bc 602f 5cbb f9e2 38b9 7666 f6bb
00000290: e97f 33bc cd9e c8ba 9d32 353c 67c8 e73b
000002a0: 424e 1ebb 0ce0 b53b 57f2 22bc 82c9 013c
000002b0: 8df4 e93b f25c 48bb eb60 ddbb da77 95ba
000002c0: b08e 11ba 136a 003c 39ad 483b 633d 323b
000002d0: 5af7 bb3b deb7 4bbb 4d90 78bb 23c7 ecbb
000002e0: 0858 0cbc bb68 9639 737c ffbb da87 bcba
000002f0: 0cca 0bbc cb7d 6aba 0fbb 87bb 7e76 b9bb
00000300: 632c 0e3c a649 ad3b 8091 783b 1abf 17bb
00000310: 8016 4abc 9559 c9bb c1b4 633b ff43 473b
00000320: 5dfe eabb 796b 9e3b 28a7 95bb f245 12ba
00000330: 1ffc ca3b 5ab6 dbbb db1c 9ebb 24ff 103c
00000340: d633 92b9 6f76 f0bb 8c74 c13b e4b9 95bb
00000350: c45c a4bb 680b c5bb 5e89 22ba 1bdd 5ab8
00000360: 6019 78bb 98af 47bb e61e 1fbb c928 dcbb
00000370: a321 9f37 3952 9dbb 2937 22bc 4532 3f3b
00000380: 9cfd 223c ba28 1dbc 0e4d 07bc 0271 f83b
00000390: 3a10 cebb 58f4 7bbb 62a4 c93b c342 da3b
000003a0: 1354 923b 4654 043c 9e4c b33b 0f2e 6aba
000003b0: eba4 1e3c 5ff4 f5bb 7400 1abc 8e6e 413c
000003c0: ed6f b7ba f491 10bb 2b05 2dbc 54d4 b4bb
000003d0: 0cde 63bb 67a6 9ebb 840d ddba 0b14 ae3a
000003e0: 201b 4dbc dc15 8039 36ed 2eba 4715 e43b
000003f0: 7bc1 7a3b 7c94 f1bb 504a b9bb a246 d9ba

layers.0.weight f4 [100, 8]
0.40382951 0.38858843 0.03567027 -0.008954893 0.36753616 -0.32861578 -0.052250713 0.13354343
0.033149607 0.18972313 -0.25943303 0.17088908 0.033999283 -0.24363998 -0.017028337 0.2420651
0.023619642 0.003914947 -0.003098899 -0.002449759 -0.007105165 0.016156461 -0.024683906 -0.004038486
-0.02087106 0.026080891 0.006366745 -0.041895896 0.16980438 0.017106825 0.061484445 0.0044064396
0.4974295 0.2532874 0.20773116 -0.26455438 0.50303966 -0.19706748 -0.3232072 0.50549036
0.23165946 0.40399444 -0.047331672 -0.37851894 -0.17295672 -0.41088024 0.03480651 -0.40292063
0.014968203 -0.08866823 0.077744015 -0.03356095 -0.0051063076 -0.087660834 0.07583139 -0.071150675
-0.033260513 -0.026108803 -0.07846591 -0.02356678 -0.0014318795 0.029807704 -0.09622175 0.097584814
-0.3602693 0.3622842 0.34574553 -0.35079676 0.36572874 -0.3741824 -0.37500826 0.33860764
0.029255891 0.0064277207 0.036477465 -0.020842403 0.007192956 0.032735404 0.0009288874 -0.005667044
-0.1498579 0.0974896 0.42485255 -0.3200502 -0.26804695 -0.11454253 -0.48713666 -0.10249834
-0.38427478 0.32914415 -0.20462473 0.15409993 0.25822917 -0.23855358 -0.30739257 0.47839743
-0.111421965 0.14444216 -0.027213937 0.24518366 0.3210806 -0.028491754 0.24125946 0.26729643
0.0010735607 -0.0131358225 0.02452051 0.002033304 -0.016526287 -0.019771397 0.021320056 -0.017510356
-0.0070079397 -0.2016715 0.37065682 -0.07150372 0.16682121 -0.28188515 -0.28207448 0.15944824
-0.34327704 0.30531788 0.3114226 -0.18559448 -0.3435835 -0.35460457 -0.3278543 0.14519976
-0.08104534 0.20721224 0.16486032 0.22557852 0.017052436 -0.18478313 0.30897838 -0.27784312
-0.07764764 0.14484146 0.2565442 0.35865557 0.37104 0.1188431 0.042946838 0.4393847
-0.0051283236 0.012737038 -0.031105 0.036747713 -0.049008198 -0.020464402 -0.023079071 0.02719519
-0.19053335 0.4087729 -0.028400153 0.26539883 -0.24151625 -0.38730174 -0.0014199333 0.26627472
0.044817604 -0.19662318 -0.34952837 -0.38387063 -0.07090807 0.17918438 0.38280582 -0.39647368
0.29376855 0.25633687 0.2730354 0.26436242 -0.29605067 -0.2593359 -0.27480358 -0.2679856
0.07530119 -0.33828795 0.3248387 0.356262 0.005959142 -0.3361787 -0.29803753 -0.29465607
0.00088333036 -0.5010086 -0.16235758 -0.5112838 -0.007383128 -0.51092535 0.15773122 0.44725558
0.23426312 -0.35299325 0.27445006 -0.17379774 -0.38203266 -0.35548323 -0.25056562 0.10679081
0.5285118 0.21271822 0.0003006384 -0.51049453 0.35212266 -0.19041997 -0.17898287 0.3365988
0.33434275 0.25753552 -0.2730229 0.25682276 -0.31421033 -0.25422153 0.26468244 -0.24274664
-0.32773063 0.056888875 -0.49069273 0.10838991 -0.39093506 0.14654273 0.3990253 0.2222075
-0.041196126 0.018155912 0.00323873 0.019450832 -0.026382037 -0.046008836 -0.02205178 0.001683321
0.02019275 0.00405915 0.052719038 -0.060091633 -0.0075192703 -0.013805697 0.036937702 -0.008208443
0.056013513 -0.06580782 0.006872305 -0.10145416 0.035918437 -0.08469835 -0.010986332 -0.069509946
-0.061693955 -0.016665798 0.038173985 0.12165427 -0.060533702 -0.005672311 0.009756462 -0.02776478
00000000: bec2 ce3e 10f5 c63e fd1a 123d 8bb7 12bc
00000010: b32d bc3e 5440 a8be d804 56bd 9cbf 083e
00000020: e2c7 073d c846 423e 68d4 84be 8cfd 2e3e
00000030: d542 0b3d c27c 79be 037f 8bbc eadf 773e
00000040: fb7d c13c f548 803b e616 4bbb 238c 20bb
00000050: 72d2 e8bb 8e5a 843c e735 cabc 4755 84bb
00000060: c9f9 aabc 98a7 d53c 21a0 d03b 089b 2bbd
00000070: 33e1 2d3e 9d23 8c3c 1dd7 7b3d e563 903b
00000080: 14af fe3e e3ae 813e 7ab7 543e ac73 87be
00000090: 35c7 003f 0fcc 49be 6a7b a5be d167 013f
000000a0: 2338 6d3e 5cd8 ce3e dbde 41bd 3ccd c1be
000000b0: 911b 31be e55e d2be 4591 0e3d 9d4b cebe
000000c0: 323d 753c b097 b5bd 4138 9f3d 3577 09bd
000000d0: d052 a7bb 8687 b3bd 7d4d 9b3d 72b7 91bd
000000e0: 2d3c 08bd 21e2 d5bc bcb2 a0bd 1f0f c1bc
000000f0: e7ad bbba 492f f43c e90f c5bd 8cda c73d
00000100: 3875 b8be 517d b93e 8f05 b13e a29b b3be
00000110: cc40 bb3e d694 bfbe 1501 c0be fb5d ad3e
00000120: 0daa ef3c a19f d23b 6569 153d b0bd aabc
00000130: e3b2 eb3b 8f15 063d 9480 733a 9cb2 b9bb
00000140: 5974 19be a1a8 c73d 4686 d93e 9fdd a3be
00000150: 733d 89be 4695 eabd fa69 f9be a6ea d1bd
00000160: aabf c4be 9585 a83e 2589 51be 5fcc 1d3e
00000170: 9d36 843e 6447 74be 8f62 9dbe 82f0 f43e
00000180: 3331 e4bd a5e8 133e c3ef debc 6d11 7b3e
00000190: ad64 a43e 8a67 e9bc b80c 773e 14db 883e
000001a0: b8b6 8c3a a237 57bc 3ddf c83c 2e41 053b
000001b0: 2362 87bc a0f7 a1bc 66a7 ae3c e171 8fbc
000001c0: dca2 e5bb f982 4ebe bbc6 bd3e 8b70 92bd
000001d0: 2ed3 2a3e 4053 90be 116c 90be 6646 233e
000001e0: 02c2 afbe a052 9c3e c872 9f3e 7b0c 3ebe
000001f0: 2dea afbe bb8e b5be 85dc a7be 3faf 143e
00000200: 19fb a5bd 722f 543e 25d1 283e 0efe 663e
00000210: 8db1 8b3c ca37 3dbe 6a32 9e3e 7441 8ebe
00000220: ba05 9fbd 5251 143e c359 833e b4a1 b73e
00000230: f4f8 bd3e 0364 f33d 06e9 2f3d 08f7 e03e
00000240: 7f0b a8bb 02af 503c eacf febc c584 163d
00000250: d2bc 48bd f6a4 a7bc 5210 bdbc 72c8 de3c
00000260: 2d1b 43be ae4a d13e 70a7 e8bc 5be2 873e
00000270: 0950 77be 6a4c c6be 0e1d baba 2955 883e
00000280: aa92 373d 9657 49be 62f5 b2be b18a c4be
00000290: 4038 91bd 1c7c 373e 20ff c33e 99fe cabe
000002a0: d568 963e 963e 833e 4ccb 8b3e 835a 873e
000002b0: f493 97be adc7 84be 0eb3 8cbe 6935 89be
000002c0: 8337 9a3d 1434 adbe 4251 a63e f967 b63e
000002d0: e844 c33b 9d1f acbe 6098 98be 29dd 96be
000002e0: 4c8f 673a 1a42 00bf 1141 26be 7fe3 02bf
000002f0: 2bee f1bb 01cc 02bf 4b84 213e affe e43e
00000300: ace2 6f3e 88bb b4be b884 8c3e 09f8 31be
00000310: c999 c3be e601 b6be 234a 80be 24b5 da3d
00000320: 8d4c 073f ced2 593e 019f 9d39 c5af 02bf
00000330: 6c49 b43e 74fd 42be 4947 37be ae56 ac3e
00000340: f92e ab3e b2db 833e a8c9 8bbe 467e 833e
00000350: 2de0 a0be 5329 82be 7584 873e 9392 78be
00000360: 4fcc a7be 4f04 693d 143c fbbe 87fb dd3d
00000370: a428 c8be 4c0f 163e 0b4d cc3e 5d8a 633e
00000380: 45bd 28bd b5bb 943c df40 543b 5a57 9f3c
00000390: 241f d8bc c373 3cbd efa5 b4bc e1a2 dc3a
000003a0: 446b a53c 9e02 853b ebef 573d a522 76bd
000003b0: 3664 f6bb 4a31 62bc fd4b 173d b57c 06bc
000003c0: 6d6e 653d 40c6 86bd 1331 e13b 33c7 cfbd
000003d0: 361f 133d 5476 adbd 0400 34bc 3b5b 8ebd
000003e0: cdb2 7cbd b686 88bc 535c 1c3d e025 f93d
000003f0: 30f2 77bd cbde b9bb 91d9 1f3c f772 e3bc

layers.0.bias f4 [100]
0.08270306 0.19088398 -0.1253021 -0.51310635 0.07882803 -0.11730795 -0.5043304 -0.49817538
-0.034764938 -0.15668902 0.3526257 -0.6296284 0.090578385 -0.17940624 -0.2510244 -0.03126004
-0.12951353 0.18652543 -0.2711797 0.43365988 0.05434605 0.001730092 -0.07667655 0.06263357
0.09435006 -0.19816205 -0.022670476 -0.26845387 -0.28054994 -0.31190968 -0.60059667 -0.44217727
-0.4741009 -0.40762547 -0.031257674 0.17419341 -0.38756523 -0.016852109 -0.007820555 -0.055756614
-0.5540336 0.15890712 -0.46051112 -0.30617863 -0.4835673 -0.44936398 -0.001511798 -0.58150417
-0.049047597 -0.57095367 -0.14093664 -0.2286755 -0.32154763 -0.03242194 -0.44934252 -0.32757735
-0.7911958 -0.0054680635 -0.3500172 -0.061935306 -0.3303225 -0.3690128 -0.20631243 -0.368293
-0.3438272 -0.52354306 0.0036303399 -0.017445471 0.00019061868 -0.20146263 -0.78452593 -0.16607243
-0.50939935 -0.3676004 -0.5286199 -0.28765193 -0.07930234 -0.12011218 -0.34878653 -0.07422808
-0.4362859 -0.78329134 -0.35460725 -0.1383184 -0.016630188 -0.4615525 -0.74654806 -0.23201507
-0.41919708 -0.20945191 -0.34370077 -0.4846586 -0.5794645 -0.13327385 -0.35337007 -0.549577
-0.59468114 -0.43255618 0.11236166 -0.30323598
00000000: 3960 a93d 1777 433e 324f 00be f05a 03bf
00000010: 9770 a13d 273f f0bd cc1b 01bf d810 ffbe
00000020: ae65 0ebd 1673 20be 5b8b b43e 542f 21bf
00000030: 2981 b93d 45b6 37be 4586 80be 870a 00bd
00000040: 329f 04be 8600 3f3e 11d8 8abe ab08 de3e
00000050: f799 5e3d 41c4 e23a 9808 9dbd 0746 803d
00000060: 9b3a c13d feea 4abe 6fb7 b9bc c972 89be
00000070: 3ea4 8fbe a0b2 9fbe b4c0 19bf 0f65 e2be
00000080: 5abd f2be 49b4 d0be 0c08 00bd c25f 323e
00000090: f36e c6be 6f0d 8abc c921 00bc 0c61 64bd
000000a0: 25d5 0dbf 8cb8 223e 1dc8 ebbe 72c3 9cbe
000000b0: 2296 f7be 0913 e6be 8627 c6ba 75dd 14bf
000000c0: 22e6 48bd 052a 12bf b251 10be e929 6abe
000000d0: e4a1 a4be decc 04bd 3910 e6be 38b8 a7be
000000e0: cf8b 4abf 712d b3bb 7435 b3be e0af 7dbd
000000f0: 0820 a9be 3fef bcbe 9143 53be e690 bcbe
00000100: 1e0a b0be eb06 06bf ffea 6d3b cee9 8ebc
00000110: d0e0 4739 384c 4ebe b1d6 48bf e40e 2abe
00000120: ff67 02bf 1f36 bcbe a253 07bf 1d47 93be
00000130: 4469 a2bd 60fd f5bd 2694 b2be e404 98bd
00000140: de60 dfbe c885 48bf 158f b5be 57a3 0dbe
00000150: 083c 88bc 9c50 ecbe c61d 3fbf 5c95 6dbe
00000160: 00a1 d6be 907a 56be 8cf9 afbe 2c25 f8be
00000170: c957 14bf f178 08be ecec b4be 14b1 0cbf
00000180: 063d 18bf 0178 ddbe df1d e63d bf41 9bbe

layers.2.weight f4 [1, 100]
-0.13380428 -0.061178528 -0.00015806548 0.0011679846 -0.25953645 -0.17354225 -0.008323968 -0.015484701
0.33201858 -0.0006111631 -0.16210811 -0.26702136 -0.0687461 0.0029165104 -0.0871076 -0.18295407
-0.051312372 -0.13226306 0.0040285606 -0.14033945 -0.12429224 0.18245265 -0.19047548 -0.28929278
-0.1331119 -0.18070813 0.14469154 -0.19180088 0.0039622067 -0.0017307011 -0.00014078981 -0.00038489778
-0.17915514 0.0002985724 -0.14912206 -0.22151157 -0.0016668985 -0.24263482 -0.19062558 -0.20456131
-0.16928236 -0.11889273 -0.101938955 0.0008027279 0.0082106525 -0.00061947055 0.37183103 -0.16321033
-0.40324014 -0.007746313 -0.2099845 -0.0001250495 0.00059048965 -0.21915765 0.00055517233 -0.00065999985
-0.0005052314 0.3774968 -0.00015249109 -0.21471885 0.009830835 -0.12648696 0.0009937152 0.010308102
-3.279218e-05 -0.019358886 0.25709793 -0.20650034 0.23332535 0.003630931 -0.6020934 -2.652509e-06
-0.04806197 0.00040247772 4.4945475e-05 0.0003934539 -0.32742888 0.0006122374 0.0011515187 -0.06992707
-3.6089452e-05 0.010673096 0.000824524 -0.03725169 -0.20677942 -0.20312893 -0.2458382 -0.00013398312
5.1268813e-05 -0.17787261 -0.138863 -8.2590836e-05 -0.0012913155 -0.00012147615 0.0023492866 0.008305888
0.024258109 0.007732636 -0.24928087 0.00049600884
00000000: fd03 09be 5696 7abd 61be 25b9 0f17 993a
00000010: f6e1 84be 0fb5 31be 4161 08bc 8bb3 7dbc
00000020: 57fe a93e 7636 20ba abff 25be 06b7 88be
00000030: c1ca 8cbd ed22 3f3b 7865 b2bd 5058 3bbe
00000040: ec2c 52bd f86f 07be 0402 843b 25b5 0fbe
00000050: ee8c febd ded4 3a3e 010c 43be 2f1e 94be
00000060: 7c4e 08be 8d0b 39be 052a 143e 7367 44be
00000070: 66d5 813b b1d8 e2ba faa0 13b9 1bcc c9b9
00000080: 7274 37be b689 9c39 74b3 18be eed3 62be
00000090: d57b daba 4375 78be 5a33 43be 8578 51be
000000a0: 5b58 2dbe 087e f3bd 5fc5 d0bd 286e 523a
000000b0: f985 063c f763 22ba a360 be3e 9c20 27be
000000c0: 7e75 cebe c8d4 fdbb 2d06 57be b81f 03b9
000000d0: 17cb 1a3a dd6a 60be fc88 113a d703 2dba
000000e0: 8171 04ba 4347 c13e 04e6 1fb9 42df 5bbe
000000f0: 8311 213c cc85 01be 8d3f 823a 50e3 283c
00000100: 568a 09b8 8796 9ebc 57a2 833e d374 53be
00000110: d7ec 6e3e eaf4 6d3b cb22 1abf c201 32b6
00000120: a1dc 44bd a503 d339 d683 3c38 7d48 ce39
00000130: c2a4 a7be 8e7e 203a 8eee 963a ec35 8fbd
00000140: c15e 17b8 36de 2e3c de24 583a 3a95 18bd
00000150: fcbd 53be 0801 50be 02bd 7bbe d27d 0cb9
00000160: 7809 5738 3d24 36be 1a32 0ebe 9e34 adb8
00000170: 5c41 a9ba 03c1 feb8 7df6 193b 6b15 083c
00000180: f1b8 c63c 0d62 fd3b 7c43 7fbe 9706 023a

grad_avg f4 [494, 4]
0.0 0.0 0.0 0.0 0.0 0.0 0.0 0.0
0.0 0.0 0.0 0.0 0.0 0.0 0.0 0.0
0.0 0.0 0.0 0.0 0.0 0.0 0.0 0.0
0.0 0.0 0.0 0.0 0.0 0.0 0.0 0.0
0.0 0.0 0.0 0.0 0.0 0.0 0.0 0.0
0.0 0.0 0.0 0.0 0.0 0.0 0.0 0.0
0.0 0.0 0.0 0.0 0.0 0.0 0.0 0.0
0.0 0.0 0.0 0.0 0.0 0.0 0.0 0.0
0.0 0.0 0.0 0.0 0.0 0.0 0.0 0.0
0.0 0.0 0.0 0.0 0.0 0.0 0.0 0.0
0.0 0.0 0.0 0.0 0.0 0.0 0.0 0.0
0.0 0.0 0.0 0.0 0.0 0.0 0.0 0.0
0.0 0.0 0.0 0.0 0.0 0.0 0.0 0.0
0.0 0.0 0.0 0.0 0.0 0.0 0.0 0.0
0.0 0.0 0.0 0.0 0.0 0.0 0.0 0.0
0.0 0.0 0.0 0.0 0.0 0.0 0.0 0.0
0.0 0.0 0.0 0.0 0.0 0.0 0.0 0.0
0.0 0.0 0.0 0.0 0.0 0.0 0.0 0.0
0.0 0.0 0.0 0.0 0.0 0.0 0.0 0.0
0.0 0.0 0.0 0.0 0.0 0.0 0.0 0.0
0.0 0.0 0.0 0.0 0.0 0.0 0.0 0.0
0.0 0.0 0.0 0.0 0.0 0.0 0.0 0.0
0.0 0.0 0.0 0.0 0.0 0.0 0.0 0.0
0.0 0.0 0.0 0.0 0.0 0.0 0.0 0.0
0.0 0.0 0.0 0.0 0.0 0.0 0.0 0.0
0.0 0.0 0.0 0.0 0.0 0.0 0.0 0.0
0.0 0.0 0.0 0.0 0.0 0.0 0.0 0.0
0.0 0.0 0.0 0.0 0.0 0.0 0.0 0.0
0.0 0.0 0.0 0.0 0.0 0.0 0.0 0.0
0.0 0.0 0.0 0.0 0.0 0.0 0.0 0.0
0.0 0.0 0.0 0.0 0.0 0.0 0.0 0.0
0.0 0.0 0.0 0.0 0.0 0.0 0.0 0.0
00000000: 0000 0000 0000 0000 0000 0000 0000 0000
00000010: 0000 0000 0000 0000 0000 0000 0000 0000
00000020: 0000 0000 0000 0000 0000 0000 0000 0000
00000030: 0000 0000 0000 0000 0000 0000 0000 0000
00000040: 0000 0000 0000 0000 0000 0000 0000 0000
00000050: 0000 0000 0000 0000 0000 0000 0000 0000
00000060: 0000 0000 0000 0000 0000 0000 0000 0000
00000070: 0000 0000 0000 0000 0000 0000 0000 0000
00000080: 0000 0000 0000 0000 0000 0000 0000 0000
00000090: 0000 0000 0000 0000 0000 0000 0000 0000
000000a0: 0000 0000 0000 0000 0000 0000 0000 0000
000000b0: 0000 0000 0000 0000 0000 0000 0000 0000
000000c0: 0000 0000 0000 0000 0000 0000 0000 0000
000000d0: 0000 0000 0000 0000 0000 0000 0000 0000
000000e0: 0000 0000 0000 0000 0000 0000 0000 0000
000000f0: 0000 0000 0000 0000 0000 0000 0000 0000
00000100: 0000 0000 0000 0000 0000 0000 0000 0000
00000110: 0000 0000 0000 0000 0000 0000 0000 0000
00000120: 0000 0000 0000 0000 0000 0000 0000 0000
00000130: 0000 0000 0000 0000 0000 0000 0000 0000
00000140: 0000 0000 0000 0000 0000 0000 0000 0000
00000150: 0000 0000 0000 0000 0000 0000 0000 0000
00000160: 0000 0000 0000 0000 0000 0000 0000 0000
00000170: 0000 0000 0000 0000 0000 0000 0000 0000
00000180: 0000 0000 0000 0000 0000 0000 0000 0000
00000190: 0000 0000 0000 0000 0000 0000 0000 0000
000001a0: 0000 0000 0000 0000 0000 0000 0000 0000
000001b0: 0000 0000 0000 0000 0000 0000 0000 0000
000001c0: 0000 0000 0000 0000 0000 0000 0000 0000
000001d0: 0000 0000 0000 0000 0000 0000 0000 0000
000001e0: 0000 0000 0000 0000 0000 0000 0000 0000
000001f0: 0000 0000 0000 0000 0000 0000 0000 0000
00000200: 0000 0000 0000 0000 0000 0000 0000 0000
00000210: 0000 0000 0000 0000 0000 0000 0000 0000
00000220: 0000 0000 0000 0000 0000 0000 0000 0000
00000230: 0000 0000 0000 0000 0000 0000 0000 0000
00000240: 0000 0000 0000 0000 0000 0000 0000 0000
00000250: 0000 0000 0000 0000 0000 0000 0000 0000
00000260: 0000 0000 0000 0000 0000 0000 0000 0000
00000270: 0000 0000 0000 0000 0000 0000 0000 0000
00000280: 0000 0000 0000 0000 0000 0000 0000 0000
00000290: 0000 0000 0000 0000 0000 0000 0000 0000
000002a0: 0000 0000 0000 0000 0000 0000 0000 0000
000002b0: 0000 0000 0000 0000 0000 0000 0000 0000
000002c0: 0000 0000 0000 0000 0000 0000 0000 0000
000002d0: 0000 0000 0000 0000 0000 0000 0000 0000
000002e0: 0000 0000 0000 0000 0000 0000 0000 0000
000002f0: 0000 0000 0000 0000 0000 0000 0000 0000
00000300: 0000 0000 0000 0000 0000 0000 0000 0000
00000310: 0000 0000 0000 0000 0000 0000 0000 0000
00000320: 0000 0000 0000 0000 0000 0000 0000 0000
00000330: 0000 0000 0000 0000 0000 0000 0000 0000
00000340: 0000 0000 0000 0000 0000 0000 0000 0000
00000350: 0000 0000 0000 0000 0000 0000 0000 0000
00000360: 0000 0000 0000 0000 0000 0000 0000 0000
00000370: 0000 0000 0000 0000 0000 0000 0000 0000
00000380: 0000 0000 0000 0000 0000 0000 0000 0000
00000390: 0000 0000 0000 0000 0000 0000 0000 0000
000003a0: 0000 0000 0000 0000 0000 0000 0000 0000
000003b0: 0000 0000 0000 0000 0000 0000 0000 0000
000003c0: 0000 0000 0000 0000 0000 0000 0000 0000
000003d0: 0000 0000 0000 0000 0000 0000 0000 0000
000003e0: 0000 0000 0000 0000 0000 0000 0000 0000
000003f0: 0000 0000 0000 0000 0000 0000 0000 0000

sqr_avg f4 [494, 4]
0.0 0.0 0.0 0.0 0.0 0.0 0.0 0.0
0.0 0.0 0.0 0.0 0.0 0.0 0.0 0.0
0.0 0.0 0.0 0.0 0.0 0.0 0.0 0.0
0.0 0.0 0.0 0.0 0.0 0.0 0.0 0.0
0.0 0.0 0.0 0.0 0.0 0.0 0.0 0.0
0.0 0.0 0.0 0.0 0.0 0.0 0.0 0.0
0.0 0.0 0.0 0.0 0.0 0.0 0.0 0.0
0.0 0.0 0.0 0.0 0.0 0.0 0.0 0.0
0.0 0.0 0.0 0.0 0.0 0.0 0.0 0.0
0.0 0.0 0.0 0.0 0.0 0.0 0.0 0.0
0.0 0.0 0.0 0.0 0.0 0.0 0.0 0.0
0.0 0.0 0.0 0.0 0.0 0.0 0.0 0.0
0.0 0.0 0.0 0.0 0.0 0.0 0.0 0.0
0.0 0.0 0.0 0.0 0.0 0.0 0.0 0.0
0.0 0.0 0.0 0.0 0.0 0.0 0.0 0.0
0.0 0.0 0.0 0.0 0.0 0.0 0.0 0.0
0.0 0.0 0.0 0.0 0.0 0.0 0.0 0.0
0.0 0.0 0.0 0.0 0.0 0.0 0.0 0.0
0.0 0.0 0.0 0.0 0.0 0.0 0.0 0.0
0.0 0.0 0.0 0.0 0.0 0.0 0.0 0.0
0.0 0.0 0.0 0.0 0.0 0.0 0.0 0.0
0.0 0.0 0.0 0.0 0.0 0.0 0.0 0.0
0.0 0.0 0.0 0.0 0.0 0.0 0.0 0.0
0.0 0.0 0.0 0.0 0.0 0.0 0.0 0.0
0.0 0.0 0.0 0.0 0.0 0.0 0.0 0.0
0.0 0.0 0.0 0.0 0.0 0.0 0.0 0.0
0.0 0.0 0.0 0.0 0.0 0.0 0.0 0.0
0.0 0.0 0.0 0.0 0.0 0.0 0.0 0.0
0.0 0.0 0.0 0.0 0.0 0.0 0.0 0.0
0.0 0.0 0.0 0.0 0.0 0.0 0.0 0.0
0.0 0.0 0.0 0.0 0.0 0.0 0.0 0.0
0.0 0.0 0.0 0.0 0.0 0.0 0.0 0.0
00000000: 0000 0000 0000 0000 0000 0000 0000 0000
00000010: 0000 0000 0000 0000 0000 0000 0000 0000
00000020: 0000 0000 0000 0000 0000 0000 0000 0000
00000030: 0000 0000 0000 0000 0000 0000 0000 0000
00000040: 0000 0000 0000 0000 0000 0000 0000 0000
00000050: 0000 0000 0000 0000 0000 0000 0000 0000
00000060: 0000 0000 0000 0000 0000 0000 0000 0000
00000070: 0000 0000 0000 0000 0000 0000 0000 0000
00000080: 0000 0000 0000 0000 0000 0000 0000 0000
00000090: 0000 0000 0000 0000 0000 0000 0000 0000
000000a0: 0000 0000 0000 0000 0000 0000 0000 0000
000000b0: 0000 0000 0000 0000 0000 0000 0000 0000
000000c0: 0000 0000 0000 0000 0000 0000 0000 0000
000000d0: 0000 0000 0000 0000 0000 0000 0000 0000
000000e0: 0000 0000 0000 0000 0000 0000 0000 0000
000000f0: 0000 0000 0000 0000 0000 0000 0000 0000
00000100: 0000 0000 0000 0000 0000 0000 0000 0000
00000110: 0000 0000 0000 0000 0000 0000 0000 0000
00000120: 0000 0000 0000 0000 0000 0000 0000 0000
00000130: 0000 0000 0000 0000 0000 0000 0000 0000
00000140: 0000 0000 0000 0000 0000 0000 0000 0000
00000150: 0000 0000 0000 0000 0000 0000 0000 0000
00000160: 0000 0000 0000 0000 0000 0000 0000 0000
00000170: 0000 0000 0000 0000 0000 0000 0000 0000
00000180: 0000 0000 0000 0000 0000 0000 0000 0000
00000190: 0000 0000 0000 0000 0000 0000 0000 0000
000001a0: 0000 0000 0000 0000 0000 0000 0000 0000
000001b0: 0000 0000 0000 0000 0000 0000 0000 0000
000001c0: 0000 0000 0000 0000 0000 0000 0000 0000
000001d0: 0000 0000 0000 0000 0000 0000 0000 0000
000001e0: 0000 0000 0000 0000 0000 0000 0000 0000
000001f0: 0000 0000 0000 0000 0000 0000 0000 0000
00000200: 0000 0000 0000 0000 0000 0000 0000 0000
00000210: 0000 0000 0000 0000 0000 0000 0000 0000
00000220: 0000 0000 0000 0000 0000 0000 0000 0000
00000230: 0000 0000 0000 0000 0000 0000 0000 0000
00000240: 0000 0000 0000 0000 0000 0000 0000 0000
00000250: 0000 0000 0000 0000 0000 0000 0000 0000
00000260: 0000 0000 0000 0000 0000 0000 0000 0000
00000270: 0000 0000 0000 0000 0000 0000 0000 0000
00000280: 0000 0000 0000 0000 0000 0000 0000 0000
00000290: 0000 0000 0000 0000 0000 0000 0000 0000
000002a0: 0000 0000 0000 0000 0000 0000 0000 0000
000002b0: 0000 0000 0000 0000 0000 0000 0000 0000
000002c0: 0000 0000 0000 0000 0000 0000 0000 0000
000002d0: 0000 0000 0000 0000 0000 0000 0000 0000
000002e0: 0000 0000 0000 0000 0000 0000 0000 0000
000002f0: 0000 0000 0000 0000 0000 0000 0000 0000
00000300: 0000 0000 0000 0000 0000 0000 0000 0000
00000310: 0000 0000 0000 0000 0000 0000 0000 0000
00000320: 0000 0000 0000 0000 0000 0000 0000 0000
00000330: 0000 0000 0000 0000 0000 0000 0000 0000
00000340: 0000 0000 0000 0000 0000 0000 0000 0000
00000350: 0000 0000 0000 0000 0000 0000 0000 0000
00000360: 0000 0000 0000 0000 0000 0000 0000 0000
00000370: 0000 0000 0000 0000 0000 0000 0000 0000
00000380: 0000 0000 0000 0000 0000 0000 0000 0000
00000390: 0000 0000 0000 0000 0000 0000 0000 0000
000003a0: 0000 0000 0000 0000 0000 0000 0000 0000
000003b0: 0000 0000 0000 0000 0000 0000 0000 0000
000003c0: 0000 0000 0000 0000 0000 0000 0000 0000
000003d0: 0000 0000 0000 0000 0000 0000 0000 0000
000003e0: 0000 0000 0000 0000 0000 0000 0000 0000
000003f0: 0000 0000 0000 0000 0000 0000 0000 0000

grad_avg f4 [100, 8]
-0.009553754 -0.0022325793 0.008020735 0.005719993 -0.00027134834 0.0022923602 0.0029069479 0.0027645375
-0.0022204516 0.00023680297 0.0068708174 0.0029648317 -0.00033694808 -0.00041200238 0.0010657909 -0.00013881804
4e-45 4e-45 -4e-45 -4e-45 -4e-45 4e-45 -4e-45 -4e-45
-4e-45 4e-45 4e-45 -4e-45 4e-45 4e-45 4e-45 4e-45
-0.01370111 -0.005324824 0.018494152 0.014361499 -0.008279909 -0.0009738585 0.0028648006 0.004965167
-0.009356765 -0.00020928841 0.006030909 0.0096957 -0.00030684503 0.0010142813 0.0031581903 0.002725671
7e-45 -7e-45 7e-45 -7e-45 -7e-45 -7e-45 7e-45 -7e-45
-4e-45 -4e-45 -4e-45 -4e-45 4e-45 4e-45 -4e-45 4e-45
0.0026548414 -0.0192849 -0.0108181285 -0.014827574 0.0010286227 -0.012222454 -0.013192297 -0.0091019785
6e-45 -6e-45 6e-45 -6e-45 6e-45 6e-45 6e-45 6e-45
-0.00052414 0.0023905213 0.003926742 0.0039596655 -0.0035878974 0.0025118303 0.0090043135 0.007465449
0.0043958835 0.0006442925 0.0044976613 0.0038115673 0.005317033 -0.00026324287 0.0073416997 0.0021183281
-8.940576e-05 0.002402013 0.003664821 0.0001520048 -0.0014421318 -0.00084711873 -0.0024836177 0.001443342
-4e-45 -4e-45 4e-45 4e-45 -4e-45 -4e-45 4e-45 -4e-45
0.0007512557 0.003449974 0.0040039225 0.0024514855 -0.0043992633 0.00068619265 0.0023718283 0.0028743744
-0.0026419489 0.0017895718 0.007317411 0.0020195607 0.0031222575 0.0029215957 0.008493686 0.0038483026
-0.0011662676 -0.00022337209 -0.001022283 0.001118138 -0.0012417644 -0.0007427916 -0.0006014473 0.002117548
-0.0012451219 0.0032355054 0.0049627125 0.0015648884 -0.0038849532 -0.0028592204 -0.002259656 0.0024570716
-4e-45 4e-45 -4e-45 4e-45 -4e-45 -4e-45 -4e-45 4e-45
-0.0040141954 -0.00022193637 0.011102524 0.0012105478 0.0014686123 0.001121024 0.0061931848 0.0052563157
-0.0047520366 0.0012197742 0.00313191 0.0026449712 -0.002740651 -0.0015566751 -0.00025809935 0.004232133
0.0014875183 0.0034659992 -0.0031398595 -0.0031873672 -0.0033544644 0.0013425375 -0.008322903 -0.011979208
-0.0015285154 0.009363856 0.004409511 0.001156464 -0.007488184 0.002641131 0.004957937 0.013235267
-0.0065693455 0.0032070454 0.018236792 0.005687956 -0.00980644 0.0065334076 0.0050015366 0.00043600166
-0.0060132015 0.004103107 0.0059044664 0.0044365944 -0.00069769553 0.0021436221 0.0040845135 0.006757772
-0.0073309 -0.0033922174 0.0068276376 0.0064158095 -0.001795855 0.0057558096 -6.540035e-05 -0.0024994847
0.0064773224 0.002712437 -0.009221977 -0.0005485407 0.00044353498 0.004130161 0.0005366349 0.0011829212
-0.0030037484 -0.0045013134 0.006364728 -0.002322022 -0.0004923396 -0.0004984605 0.00057454745 -0.004095916
-4e-45 4e-45 4e-45 4e-45 -4e-45 -4e-45 -4e-45 4e-45
4e-45 4e-45 4e-45 -4e-45 -4e-45 -4e-45 4e-45 -4e-45
4e-45 -4e-45 4e-45 -4e-45 4e-45 -4e-45 -4e-45 -4e-45
-4e-45 -4e-45 4e-45 4e-45 -4e-45 -4e-45 4e-45 -4e-45
00000000: 5987 1cbc 7750 12bb 6769 033c c76e bb3b
00000010: c243 8eb9 6c3b 163b 7e82 3e3b 3e2d 353b
00000020: ff84 11bb 504e 7839 9824 e13b 9f4d 423b
00000030: 68a8 b0b9 0602 d8b9 02b2 8b3a af8f 11b9
00000040: 0300 0000 0300 0000 0300 0080 0300 0080
00000050: 0300 0080 0300 0000 0300 0080 0300 0080
00000060: 0300 0080 0300 0000 0300 0000 0300 0080
00000070: 0300 0000 0300 0000 0300 0000 0300 0000
00000080: 9f7a 60bc dc7b aebb 0c81 973c 7e4c 6b3c
00000090: 75a8 07bc 8a4a 7fba 61bf 3b3b d7b2 a23b
000000a0: 1e4d 19bc 6e74 5bb9 ee9e c53b b7da 1e3c
000000b0: 0be0 a0b9 a2f1 843a a4f9 4e3b 2ca1 323b
000000c0: 0500 0000 0500 0080 0500 0000 0500 0080
000000d0: 0500 0080 0500 0080 0500 0000 0500 0080
000000e0: 0300 0080 0300 0080 0300 0080 0300 0080
000000f0: 0300 0000 0300 0000 0300 0080 0300 0000
00000100: d9fc 2d3b 5efb 9dbc 853e 31bc 5aef 72bc
00000110: dad2 863a b040 48bc 8124 58bc 7720 15bc
00000120: 0400 0000 0400 0080 0400 0000 0400 0080
00000130: 0400 0000 0400 0000 0400 0000 0400 0000
00000140: 7166 09ba 4baa 1c3b e6ab 803b 15c0 813b
00000150: ee22 6bbb 859d 243b d486 133c baa0 f43b
00000160: 580b 903b bde5 283a 1e61 933b 7dcb 793b
00000170: 813a ae3b dc03 8ab9 a492 f03b a6d3 0a3b
00000180: 5a7f bbb8 176b 1d3b 7e2d 703b 7a63 1f39
00000190: ea05 bdba 2d11 5eba 31c4 22bb 852e bd3a
000001a0: 0300 0080 0300 0080 0300 0000 0300 0000
000001b0: 0300 0080 0300 0080 0300 0000 0300 0080
000001c0: ebef 443a f618 623b 5633 833b 1aa9 203b
000001d0: b227 90bb 9ce1 333a ad70 1b3b 0060 3c3b
000001e0: 8c24 2dbb 1190 ea3a e4c6 ef3b 9b5a 043b
000001f0: ca9e 4c3b 3e78 3f3b 1a29 0b3c ce33 7c3b
00000200: 72dd 98ba fd38 6ab9 20fe 85ba 7c8e 923a
00000210: b3c2 a2ba e7b7 42ba 72aa 1dba 8fc6 0a3b
00000220: 5c33 a3ba c60a 543b 409e a23b f11c cd3a
00000230: b39a 7ebb c261 3bbb bd16 14bb d206 213b
00000240: 0300 0080 0300 0000 0300 0080 0300 0000
00000250: 0300 0080 0300 0080 0300 0080 0300 0000
00000260: 8389 83bb 97b7 68b9 5ce7 353c 3eab 9e3a
00000270: 747e c03a 53ef 923a 33f0 ca3b 2c3d ac3b
00000280: f9b6 9bbb d5e0 9f3a bb40 4d3b 4157 2d3b
00000290: 7e9c 33bb 5909 ccba 8251 87b9 b4ad 8a3b
000002a0: d5f8 c23a d125 633b 1ac6 4dbb 26e3 50bb
000002b0: 93d6 5bbb 15f8 af3a c95c 08bc 7144 44bc
000002c0: 7758 c8ba dc6a 193c a97d 903b 7e94 973a
000002d0: 715f f5bb d316 2d3b 3176 a23b bcd8 583c
000002e0: aa43 d7bb 4b2d 523b 5365 953c 0962 ba3b
000002f0: 31ab 20bc 3216 d63b eee3 a33b 2797 e439
00000300: 640a c5bb 5b73 863b 417a c13b da60 913b
00000310: 8ee5 36ba 037c 0c3b 62d7 853b 4d70 dd3b
00000320: 0c38 f0bb f74f 5ebb 60ba df3b b63b d23b
00000330: e562 ebba 3b9b bc3b 8c27 89b8 65ce 23bb
00000340: b83f d43b 24c3 313b c617 17bc f1cb 0fba
00000350: 428a e839 4d56 873b f5ac 0c3a 400c 9b3a
00000360: 89da 44bb c17f 93bb 358f d03b 112d 18bb
00000370: 5a10 01ba 1eab 02ba 3a9d 163a 0937 86bb
00000380: 0300 0080 0300 0000 0300 0000 0300 0000
00000390: 0300 0080 0300 0080 0300 0080 0300 0000
000003a0: 0300 0000 0300 0000 0300 0000 0300 0080
000003b0: 0300 0080 0300 0080 0300 0000 0300 0080
000003c0: 0300 0000 0300 0080 0300 0000 0300 0080
000003d0: 0300 0000 0300 0080 0300 0080 0300 0080
000003e0: 0300 0080 0300 0080 0300 0000 0300 0000
000003f0: 0300 0080 0300 0080 0300 0000 0300 0080

sqr_avg f4 [100, 8]
0.00096695527 0.0007366357 0.00079132523 0.0007736685 0.0007243837 0.00089813804 0.00072819606 0.0007661304
0.0001797407 0.00015955287 0.00018810478 0.00016520021 0.00015496221 0.0002191598 0.00018754818 0.00016228466
7e-44 7e-44 7e-44 7e-44 7e-44 7e-44 7e-44 7e-44
7e-44 7e-44 7e-44 7e-44 7e-44 7e-44 7e-44 7e-44
0.0031463115 0.00269588 0.002757172 0.0027849074 0.0026851266 0.0030235352 0.0024240972 0.0028377243
0.0011664911 0.0009392123 0.0009194379 0.0011177616 0.0010750974 0.0010009815 0.0011049536 0.001077156
2.4186507e-38 3.2555616e-38 3.1373795e-38 3.470405e-38 2.7886038e-38 2.2231918e-38 2.575516e-38 3.262729e-38
7e-44 7e-44 7e-44 7e-44 7e-44 7e-44 7e-44 7e-44
0.004800514 0.003890014 0.004261999 0.0038515015 0.0037320284 0.004119914 0.0044724997 0.0042658714
9.67e-43 1.089e-42 1.045e-42 1.07e-42 1.07e-42 8.49e-43 1.012e-42 9.96e-43
0.0015136396 0.0013431375 0.0014047828 0.0012998887 0.0012360645 0.001506036 0.0013793942 0.0013277972
0.0015700836 0.0013826565 0.0012608632 0.0014054098 0.0013220722 0.0015669186 0.001496321 0.0015318244
0.00021858102 0.00021885351 0.00023665268 0.00025082286 0.00019681164 0.00021093313 0.00021662236 0.00023949485
7e-44 7e-44 7e-44 7e-44 7e-44 7e-44 7e-44 7e-44
0.0002369485 0.00023001312 0.0002490742 0.00024575315 0.00026310064 0.00022758511 0.00024264917 0.00018082898
0.0015600619 0.0012719962 0.0012974197 0.0013305997 0.0011716404 0.0014810733 0.0013698717 0.001252864
9.7913166e-05 7.870222e-05 8.147265e-05 8.673313e-05 9.14111e-05 9.40911e-05 0.00010185529 0.00010322619
0.0009759426 0.000811395 0.0009844874 0.0009205395 0.0007818569 0.000818605 0.0008060291 0.00085073867
7e-44 7e-44 7e-44 7e-44 7e-44 7e-44 7e-44 7e-44
0.0012554243 0.00098538 0.0010825582 0.0010361017 0.0010966847 0.0012446488 0.0012269055 0.0010671807
0.00063567865 0.00064333796 0.0006355087 0.0007160228 0.0006950969 0.0006660981 0.00067883485 0.0006788197
0.0013079848 0.0014464905 0.0013826202 0.0013381756 0.0013448275 0.0013823361 0.0013632117 0.001248356
0.0013549789 0.0012027023 0.0014241188 0.0012008708 0.0016930295 0.0014140087 0.0015595184 0.0011404466
0.0034414202 0.0038484805 0.004027799 0.0040318556 0.0035772664 0.0045891865 0.003868084 0.003793413
0.0007534624 0.00083499466 0.00086542475 0.0007844687 0.0007243625 0.00095874013 0.00076463574 0.0008277928
0.0010637906 0.001095276 0.0011411322 0.0011057236 0.0010747389 0.0011924738 0.00096230063 0.0011186793
0.0007525603 0.00074285356 0.00071237347 0.00073058996 0.00070284976 0.00090719387 0.00087514654 0.00070010696
0.00096048205 0.001092331 0.0011138906 0.0010406229 0.00096987013 0.00096379576 0.0010470335 0.000991943
7e-44 7e-44 7e-44 7e-44 7e-44 7e-44 7e-44 7e-44
7e-44 7e-44 7e-44 7e-44 7e-44 7e-44 7e-44 7e-44
7e-44 7e-44 7e-44 7e-44 7e-44 7e-44 7e-44 7e-44
7e-44 7e-44 7e-44 7e-44 7e-44 7e-44 7e-44 7e-44
00000000: 457b 7d3a c91a 413a f070 4f3a 04d0 4a3a
00000010: 91e4 3d3a 0671 6b3a 69e4 3e3a 24d6 483a
00000020: c778 3c39 a64d 2739 fe3d 4539 9839 2d39
00000030: 5a7d 2239 43ce 6539 95a8 4439 f52a 2a39
00000040: 3200 0000 3200 0000 3200 0000 3200 0000
00000050: 3200 0000 3200 0000 3200 0000 3200 0000
00000060: 3200 0000 3200 0000 3200 0000 3200 0000
00000070: 3200 0000 3200 0000 3200 0000 3200 0000
00000080: 5932 4e3b 5cad 303b acb1 343b fe82 363b
00000090: f3f8 2f3b 8126 463b 9add 1e3b 1df9 393b
000000a0: f2e4 983a 7835 763a 6f06 713a db81 923a
000000b0: 48ea 8c3a 5e33 833a 17d4 903a 5c2f 8d3a
000000c0: 12af 0301 e83f 3101 b0d0 2a01 63f2 3c01
000000d0: 77d3 1701 8b15 f200 7439 0c01 cea3 3101
000000e0: 3200 0000 3200 0000 3200 0000 3200 0000
000000f0: 3200 0000 3200 0000 3200 0000 3200 0000
00000100: a14d 9d3b 9bef 7e3b 3da8 8b3b 7969 7c3b
00000110: 0c95 743b 5800 873b 0c8e 923b b9c8 8b3b
00000120: b202 0000 0903 0000 ea02 0000 fc02 0000
00000130: fc02 0000 5e02 0000 d202 0000 c702 0000
00000140: 5165 c63a 370c b03a b020 b83a 0761 aa3a
00000150: 7103 a23a 2f66 c53a cacc b43a 7b09 ae3a
00000160: 43cb cd3a 413a b53a 8c43 a53a ba35 b83a
00000170: 6249 ad3a 1061 cd3a 3420 c43a 7fc7 c83a
00000180: e532 6539 0b7c 6539 f825 7839 e080 8339
00000190: 395f 4e39 ee2d 5d39 1f25 6339 e920 7b39
000001a0: 3200 0000 3200 0000 3200 0000 3200 0000
000001b0: 3200 0000 3200 0000 3200 0000 3200 0000
000001c0: 6175 7839 ad2f 7139 2c96 8239 6ed8 8039
000001d0: c5f0 8939 eaa3 6e39 a46f 7e39 e99c 3d39
000001e0: fe7a cc3a 1cb9 a63a 2e0e aa3a 8467 ae3a
000001f0: ba91 993a 9320 c23a 448d b33a 2437 a43a
00000200: bb56 cd38 ef0c a538 4cdc aa38 7fe4 b538
00000210: f6b3 bf38 c652 c538 249b d538 247b d838
00000220: 66d6 7f3a ccb3 543a ea09 813a 5c50 713a
00000230: 87f5 4c3a a797 563a b24b 533a 1b04 5f3a
00000240: 3200 0000 3200 0000 3200 0000 3200 0000
00000250: 3200 0000 3200 0000 3200 0000 3200 0000
00000260: 0d8d a43a de27 813a a0e4 8d3a cecd 873a
00000270: a2be 8f3a 7c23 a33a 1ed0 a03a a4e0 8b3a
00000280: aca3 263a aea5 283a 4498 263a 7ab3 3b3a
00000290: 2a37 363a 169d 2e3a d6f3 313a d2f2 313a
000002a0: b070 ab3a 2b98 bd3a 0939 b53a b965 af3a
000002b0: ec44 b03a 812f b53a cbad b23a e09f a33a
000002c0: 8c99 b13a fea3 9d3a 7fa9 ba3a 8a66 9d3a
000002d0: a5e8 dd3a 4256 b93a c168 cc3a 0a7b 953a
000002e0: 7389 613b ca36 7c3b a0fb 833b a81d 843b
000002f0: 9270 6a3b e360 963b ae7f 7d3b e99a 783b
00000300: 0184 453a 8be3 5a3a acdd 623a cea4 4d3a
00000310: 25e3 3d3a f653 7b3a d671 483a 3c00 593a
00000320: e46e 8b3a 5d8f 8f3a 0b92 953a eded 903a
00000330: 41de 8c3a c84c 9c3a e742 7c3a a6a0 923a
00000340: 7847 453a 0fbc 423a 93be 3a3a 1085 3f3a
00000350: 733f 383a c0d0 6d3a 176a 653a 6287 373a
00000360: dcc8 7b3a 8c2c 8f3a f7ff 913a 8365 883a
00000370: e23e 7e3a 3da7 7c3a 9d3c 893a 1504 823a
00000380: 3200 0000 3200 0000 3200 0000 3200 0000
00000390: 3200 0000 3200 0000 3200 0000 3200 0000
000003a0: 3200 0000 3200 0000 3200 0000 3200 0000
000003b0: 3200 0000 3200 0000 3200 0000 3200 0000
000003c0: 3200 0000 3200 0000 3200 0000 3200 0000
000003d0: 3200 0000 3200 0000 3200 0000 3200 0000
000003e0: 3200 0000 3200 0000 3200 0000 3200 0000
000003f0: 3200 0000 3200 0000 3200 0000 3200 0000

grad_avg f4 [100]
-0.0031755322 -0.0024893498 4e-45 4e-45 -0.008771261 -0.010418475 7e-45 4e-45
0.0045077973 6e-45 -0.010521151 0.00030858006 -0.0020935957 4e-45 -0.00033206813 -0.0052195643
-0.0009179046 -0.004256126 4e-45 -0.00567162 -0.009188532 0.008370887 -0.006507747 -0.01663996
-0.008461913 -0.009530738 0.006819325 -0.0035407157 4e-45 4e-45 4e-45 4e-45
-0.0036991264 4e-45 -0.008212836 -0.008710672 4e-45 -0.0106684035 -0.008118267 -0.0035820666
-0.0022733924 -0.00302092 -0.003203572 4e-45 4e-45 4e-45 0.008172115 -0.0014124535
-0.02506549 4e-45 -0.013018667 6e-45 4e-45 -0.011324873 4e-45 4e-45
4e-45 0.010240264 6e-45 -0.0036387122 4e-45 -0.0039309687 4e-45 4e-45
4e-45 4e-45 0.007884395 -0.0053041903 0.008272333 4e-45 -0.0012027017 4e-45
4e-45 7e-45 4e-45 4e-45 -0.0071403435 4e-45 4e-45 -0.0041612242
4e-45 4e-45 4e-45 -0.00034955592 -0.009456255 0.0005726796 0.00031786563 4e-45
4e-45 -0.0063956254 -0.005504444 6e-45 4e-45 4e-45 4e-45 4e-45
4e-45 4e-45 -0.005505759 7e-45
00000000: 971c 50bb 5c24 23bb 0300 0000 0300 0000
00000010: 56b5 0fbc 40b2 2abc 0500 0000 0300 0000
00000020: 25b6 933b 0400 0000 e860 2cbc eac8 a139
00000030: b534 09bb 0300 0000 6e19 aeb9 e108 abbb
00000040: 899f 70ba f976 8bbb 0300 0000 ffd8 b9bb
00000050: 7f8b 16bc 0b26 093c f03e d5bb 8750 88bc
00000060: d6a3 0abc d026 1cbc a574 df3b 5a0b 68bb
00000070: 0300 0000 0300 0000 0300 0000 0300 0000
00000080: 0b6d 72bb 0300 0000 228f 06bc 35b7 0ebc
00000090: 0300 0000 87ca 2ebc 7b02 05bc 1bc1 6abb
000000a0: 32fd 14bb a1fa 45bb 05f3 51bb 0300 0000
000000b0: 0300 0000 0300 0000 56e4 053c 1322 b9ba
000000c0: 2456 cdbc 0300 0000 3f4c 55bc 0400 0000
000000d0: 0300 0000 f68b 39bc 0300 0000 0300 0000
000000e0: 0300 0000 c8c6 273c 0400 0000 7677 6ebb
000000f0: 0300 0000 5bcf 80bb 0300 0000 0300 0000
00000100: 0300 0000 0300 0000 8d2d 013c c6ce adbb
00000110: ae88 073c 0300 0000 f9a3 9dba 0300 0000
00000120: 0300 0000 0500 0000 0300 0000 0300 0000
00000130: 8bf9 e9bb 0300 0000 0300 0000 e15a 88bb
00000140: 0300 0000 0300 0000 0300 0000 9a44 b7b9
00000150: 68ee 1abc e11f 163a 34a7 a639 0300 0000
00000160: 0300 0000 6592 d1bb 9f5e b4bb 0400 0000
00000170: 0300 0000 0300 0000 0300 0000 0300 0000
00000180: 0300 0000 0300 0000 a769 b4bb 0500 0000

sqr_avg f4 [100]
0.0011097011 0.00020121402 7e-44 7e-44 0.0035335138 0.001333022 3.265158e-38 7e-44
0.0047420454 1.07e-42 0.0016615846 0.001478235 0.00023000361 7e-44 0.00028598605 0.0014165852
0.00010244641 0.00093934283 7e-44 0.0012736393 0.0008118415 0.0014763579 0.0015518888 0.0048790574
0.00089484587 0.001280276 0.0008092361 0.0010416869 7e-44 7e-44 7e-44 7e-44
0.00051920296 7e-44 0.0008659179 0.0021370766 7e-44 0.0024473285 0.0014404217 0.0017676807
0.0005694294 0.0006657418 0.0002699668 7e-44 7e-44 7e-44 0.0057001067 0.000570074
0.0066755856 7e-44 0.0016396587 7e-44 7e-44 0.0018329729 7e-44 7e-44
7e-44 0.0065907575 7e-44 0.0016731197 7e-44 0.00049202546 7e-44 7e-44
7e-44 7e-44 0.0031804452 0.0018966604 0.002654985 7e-44 0.00097178057 7e-44
7e-44 2.8891254e-38 7e-44 7e-44 0.0042100744 7e-44 7e-44 0.00016280261
7e-44 7e-44 7e-44 4.2436903e-05 0.0018982033 0.00091012724 0.0008663276 7e-44
7e-44 0.0007346412 0.0006368011 7e-44 7e-44 7e-44 7e-44 7e-44
7e-44 7e-44 0.0024974272 6.7433806e-38
00000000: 6473 913a fafc 5239 3200 0000 3200 0000
00000010: 8692 673b ccb8 ae3a a9c5 3101 3200 0000
00000020: 2963 9b3b fc02 0000 87c9 d93a 56c1 c13a
00000030: 202d 7139 3200 0000 66f0 9539 b6ac b93a
00000040: 7fd8 d638 3b3e 763a 3200 0000 3ef0 a63a
00000050: c3d1 543a 5a82 c13a bf68 cb3a 80e0 9f3b
00000060: 1794 6a3a efce a73a ea22 543a 3689 883a
00000070: 3200 0000 3200 0000 3200 0000 3200 0000
00000080: 1f1b 083a 3200 0000 c4fe 623a 320e 0c3b
00000090: 3200 0000 5c63 203b 88cc bc3a 86b1 e73a
000000a0: c345 153a 2d85 2e3a 558a 8d39 3200 0000
000000b0: 3200 0000 3200 0000 f6c7 ba3b 0571 153a
000000c0: dfbe da3b 3200 0000 d1e9 d63a 3200 0000
000000d0: 3200 0000 5d40 f03a 3200 0000 3200 0000
000000e0: 3200 0000 48f7 d73b 3200 0000 954c db3a
000000f0: 3200 0000 45fb 003a 3200 0000 3200 0000
00000100: 3200 0000 3200 0000 046f 503b 5d99 f83a
00000110: 42ff 2d3b 3200 0000 17bf 7e3a 3200 0000
00000120: 3200 0000 884c 1d01 3200 0000 3200 0000
00000130: aaf4 893b 3200 0000 3200 0000 feb5 2a39
00000140: 3200 0000 3200 0000 3200 0000 47fe 3138
00000150: 22cd f83a 9b95 6e3a 431a 633a 3200 0000
00000160: 3200 0000 f094 403a 00ef 263a 3200 0000
00000170: 3200 0000 3200 0000 3200 0000 3200 0000
00000180: 3200 0000 3200 0000 e0ab 233b 8192 b701

grad_avg f4 [1, 100]
0.0402762 0.028482975 4e-45 4e-45 0.04316283 0.036517892 -7e-45 -4e-45
0.00053079287 6e-45 0.0461109 0.0067859218 0.007963847 4e-45 0.0051305736 0.0044503985
0.007937462 -0.006102543 4e-45 0.008390406 0.03961239 0.031692453 0.038059555 0.037351716
0.02706939 0.047250815 0.025931597 0.011769473 4e-45 4e-45 -4e-45 4e-45
0.020763561 -4e-45 0.041551698 0.009830752 4e-45 0.022034064 0.0352224 0.002373628
0.0037314852 0.0411096 0.019795105 -4e-45 -4e-45 -4e-45 0.015909355 -0.0014285502
0.049246445 -4e-45 0.033065468 -6e-45 4e-45 0.044032924 4e-45 -4e-45
-4e-45 0.035446454 -6e-45 0.033442274 4e-45 0.014593018 -4e-45 4e-45
-4e-45 -4e-45 0.02012851 0.036119614 0.01688154 4e-45 0.0013093371 4e-45
-4e-45 -7e-45 -4e-45 4e-45 0.01613364 -4e-45 4e-45 0.028800335
-4e-45 4e-45 -4e-45 0.004281823 0.04709746 0.008462037 -0.0016339903 4e-45
4e-45 0.015783457 0.018554864 -6e-45 -4e-45 -4e-45 4e-45 4e-45
4e-45 -4e-45 0.014724629 7e-45
00000000: a8f8 243d 2155 e93c 0300 0000 0300 0000
00000010: 82cb 303d c993 153d 0500 0080 0300 0080
00000020: e824 0b3a 0400 0000 c8de 3c3d 705c de3b
00000030: cc7a 023c 0300 0000 5f1e a83b a6d4 913b
00000040: 210c 023c d7f7 c7bb 0300 0000 ea77 093c
00000050: 9a40 223d f2cf 013d 56e4 1b3d 1dfe 183d
00000060: a0c0 dd3c 128a 413d 806e d43c bfd4 403c
00000070: 0300 0000 0300 0000 0300 0080 0300 0000
00000080: 5818 aa3c 0300 0080 1d32 2a3d 2a11 213c
00000090: 0300 0000 c880 b43c 5d45 103d df8e 1b3b
000000a0: ef8b 743b 8a62 283d 5829 a23c 0300 0080
000000b0: 0300 0080 0300 0080 5654 823c 313e bbba
000000c0: a4b6 493d 0300 0080 a86f 073d 0400 0080
000000d0: 0300 0000 de5b 343d 0300 0000 0300 0080
000000e0: 0300 0080 4d30 113d 0400 0080 c4fa 083d
000000f0: 0300 0000 8e17 6f3c 0300 0080 0300 0000
00000100: 0300 0080 0300 0080 8ce4 a43c 29f2 133d
00000110: 284b 8a3c 0300 0000 109e ab3a 0300 0000
00000120: 0300 0080 0500 0080 0300 0080 0300 0000
00000130: b22a 843c 0300 0080 0300 0000 aeee eb3c
00000140: 0300 0080 0300 0000 0300 0080 894e 8c3b
00000150: 44e9 403d 5ba4 0a3c 9e2b d6ba 0300 0000
00000160: 0300 0000 4f4c 813c 5f00 983c 0400 0080
00000170: 0300 0080 0300 0080 0300 0000 0300 0000
00000180: 0300 0000 0300 0080 923f 713c 0500 0000

sqr_avg f4 [1, 100]
0.031180952 0.019286439 7e-44 7e-44 0.054761596 0.024070108 2.7204167e-37 7e-44
0.05216259 2.1651e-40 0.057981938 0.008082382 0.019079147 7e-44 0.010815675 0.029512513
0.00998357 0.035755627 7e-44 0.053798098 0.034275576 0.025614103 0.027605066 0.056862812
0.035311 0.026918054 0.026467286 0.016230913 7e-44 7e-44 7e-44 7e-44
0.010250825 7e-44 0.02648537 0.05233155 7e-44 0.041155685 0.03374704 0.040539447
0.005254954 0.032069128 0.007852626 7e-44 7e-44 7e-44 0.05155224 0.006227479
0.066055134 7e-44 0.026500471 7e-44 7e-44 0.03529162 7e-44 7e-44
7e-44 0.06910243 7.09e-43 0.033024594 7e-44 0.0074146753 7e-44 7e-44
7e-44 7e-44 0.04616591 0.03835807 0.042213004 7e-44 5.733159e-05 7e-44
7e-44 1.3784785e-35 7e-44 7e-44 0.041607797 7e-44 7e-44 0.009521608
7e-44 7e-44 7e-44 0.0041246987 0.040754333 0.010903666 0.0022386091 7e-44
7e-44 0.018554157 0.014292516 7e-44 7e-44 7e-44 7e-44 7e-44
7e-44 7e-44 0.04439694 1.8745387e-35
00000000: 326f ff3c 98fe 9d3c 3200 0000 3200 0000
00000010: b24d 603d ad2e c53c 5824 b902 3200 0000
00000020: 71a8 553d 8b5b 0200 787e 6d3d f86b 043c
00000030: df4b 9c3c 3200 0000 3b34 313c 3ac4 f13c
00000040: 2192 233c 7e74 123d 3200 0000 655b 5c3d
00000050: 8c64 0c3d abd4 d13c 0524 e23c fbe8 683d
00000060: 44a2 103d 4083 dc3c ecd1 d83c b1f6 843c
00000070: 3200 0000 3200 0000 3200 0000 3200 0000
00000080: 14f3 273c 3200 0000 d9f7 d83c 9b59 563d
00000090: 3200 0000 dd92 283d 563a 0a3d b10c 263d
000000a0: c031 ac3b eb5a 033d 4da8 003c 3200 0000
000000b0: 3200 0000 3200 0000 7128 533d e10f cc3b
000000c0: ea47 873d 3200 0000 8417 d93c 3200 0000
000000d0: 3200 0000 f28d 103d 3200 0000 3200 0000
000000e0: 3200 0000 9385 8d3d fa01 0000 cc44 073d
000000f0: 3200 0000 cef6 f23b 3200 0000 3200 0000
00000100: 3200 0000 3200 0000 7718 3d3d 5a1d 1d3d
00000110: 8be7 2c3d 3200 0000 5377 7038 3200 0000
00000120: 3200 0000 c195 9205 3200 0000 3200 0000
00000130: f06c 2a3d 3200 0000 3200 0000 8500 1c3c
00000140: 3200 0000 3200 0000 3200 0000 7b28 873b
00000150: 04ee 263d 4aa5 323c a1b5 123b 3200 0000
00000160: 3200 0000 e3fe 973c 282b 6a3c 3200 0000
00000170: 3200 0000 3200 0000 3200 0000 3200 0000
00000180: 3200 0000 3200 0000 91d9 353d cc55 c705
