trees/save/cycle/3bits/split_75.0_0.1_5_50/models/model.pth (torch, 32086 bytes, 12 tensors)

embedding_layers.weight f4 [494, 3]
000000 46 92 9f bb ed 04 31 bc c2 ba 3c bc af 67 e4 bb
       -0.004869732 -0.010804397 -0.011519136 -0.006970368
000010 51 3b 8c bb a1 a4 30 3b 75 5a 5a 3b b4 86 92 3b
       -0.004279532 0.0026953595 0.0033318077 0.0044716243
000020 3b 68 1d b9 b2 ac 23 3c 52 2e 24 3c 55 47 86 3a
       -0.00015011516 0.009989904 0.010020809 0.0010244647
000030 7a fa 78 3b 2c ed 2f 3b 08 92 81 ba 16 e1 db bb
       0.0037991093 0.0026844246 -0.000988544 -0.006710182
000040 92 03 da bb 5b c0 0b bb 58 28 94 bb ed 07 0b bc
       -0.0066532576 -0.002132437 -0.004521411 -0.008485776
000050 e4 82 0b 3b 99 c5 0d 3c 48 31 e0 ba 80 5e fa 3b
       0.0021287734 0.008653068 -0.0017104531 0.00764066
000060 09 b4 42 bb 03 a5 f4 3a 90 4d 82 bb 96 7b 04 3a
       -0.002970936 0.00186649 -0.0039765313 0.0005053816
000070 b0 82 99 bb 58 d5 ba bb e5 5e 0a bb 9e 06 07 bb
       -0.0046847686 -0.005701702 -0.002111369 -0.002060331
000080 83 33 a5 3b ee 49 87 3b 35 ba 4f 3c 86 84 c1 bb
       0.005041541 0.004128686 0.012678673 -0.0059056906
000090 58 70 0b bc 0d f6 e7 3b 18 68 7c 3b d5 c0 83 bb
       -0.008510672 0.007078892 0.0038514193 -0.00402079
0000a0 8b 73 f9 3a ae 56 de ba ee a9 93 bb f7 9b 7d 39
       0.0019031627 -0.0016963088 -0.004506341 0.00024186062
0000b0 81 64 aa 3a 64 c3 0f 3c 41 5a fa 3b 00 93 aa 3a
       0.0012999923 0.008774612 0.0076401536 0.001301378
0000c0 f2 a5 a6 3b 98 24 29 3b 5e 74 1f 3c b6 62 e2 3b
       0.0050857 0.0025809165 0.009732334 0.00690874
0000d0 8d 35 04 3c de a9 62 3a 7c ba 38 3a ab 8a 6e 3a
       0.008069408 0.0008646528 0.00070468313 0.00090996426
0000e0 8b 24 4c 3b 77 f2 f7 ba 5a 01 22 bb b3 7d 39 bc
       0.003114971 -0.0018916865 -0.0024720044 -0.011321473
0000f0 09 c2 88 3b e8 25 69 3b a8 a6 90 bb 48 c9 9f 3b
       0.0041735214 0.0035575572 -0.004414398 0.0048762895
000100 5c 6e 74 bb 05 f5 99 3b 73 60 d1 39 08 ba 13 3c
       -0.0037297225 0.004698398 0.00039935447 0.009016521
000110 7b 47 8b 3b 53 cd 37 3c 39 e3 0e bb 91 0d 2b 3c
       0.0042504645 0.011218387 -0.0021802916 0.010440246
000120 25 37 61 ba 37 d3 a0 bb 1c 3d 16 bc c5 d6 d2 3b
       -0.0008591286 -0.0049079913 -0.009169843 0.006434294
000130 c2 ad f2 ba 95 d4 0c 3c cc 58 1b 3c f2 04 60 ba
       -0.0018514919 0.008595605 0.00948162 -0.0008545659
000140 d6 13 e2 bb 5d 62 7f 3a 61 de ee bb 45 17 38 3b
       -0.0068993373 0.00097421353 -0.007289693 0.0028090042
000150 85 ae 91 3b 0e 80 a4 bb dd c7 d0 39 d1 aa b0 bb
       0.004445853 -0.005020148 0.0003982176 -0.0053914567
000160 4b 10 a7 3b 77 5f d4 3b 53 72 a7 bb 0e 0f 13 bc
       0.005098378 0.006481107 -0.005110064 -0.008975757
000170 88 09 dc bb d7 51 0a 3c b9 fd 29 3c 8b 22 0b bb
       -0.0067150034 0.008442364 0.010375434 -0.0021230306
000180 2a e1 00 bc 6e c2 85 bb 8a 14 83 bb c0 14 2e bc
       -0.007866183 -0.0040820157 -0.004000251 -0.010625064
000190 35 17 42 3c 5e 2a 2d 3a 7a ec 81 3a dd a6 08 3c
       0.011846353 0.00066057395 0.0009912394 0.008340565
0001a0 ec 13 3e bc 59 e4 17 bc f6 db cf ba f9 12 93 bb
       -0.011601429 -0.009270751 -0.00158584 -0.0044883457
0001b0 93 d2 7f bb 79 0d 43 bc 66 c3 ac bb 2a b0 1d 3b
       -0.0039035424 -0.011905068 -0.0052723167 0.00240613
0001c0 7b 14 a7 3b 00 ce 17 3c 07 a8 09 bc 4b fc f2 bb
       0.005098877 0.009265423 -0.008401877 -0.0074153296
0001d0 b8 19 22 3a b4 60 6c 3b 0e 07 eb ba d9 b2 dc 3b
       0.0006183642 0.0036068382 -0.001793118 0.0067351875
0001e0 38 78 a9 3b 7e 9b b6 3a da 2d 48 bb de 34 09 ba
       0.005171802 0.0013931838 -0.0030544908 -0.0005234013
0001f0 f3 27 d9 39 2b b7 52 bb be 0b b3 3a cb 36 72 bb
       0.0004141923 -0.0032152634 0.0013660116 -0.0036958929
000200 4e a3 06 bc b1 a3 7d 36 f6 44 02 bb b1 c5 8d bb
       -0.008217646 3.7795219e-06 -0.001987753 -0.004326545
000210 21 9b 7d 3b 7a 20 2a ba cf 51 ba bb 25 30 40 bb
       0.00386972 -0.0006489825 -0.005686022 -0.0029325571
000220 e6 ee b0 3b 68 88 2f 3b 79 e4 f5 3b cc 65 31 bb
       0.0053995727 0.0026784185 0.0075040427 -0.0027068732
000230 c1 8f 4f 3b 59 14 0a bc 17 0a d8 3a 59 43 a3 3a
       0.0031671377 -0.008427703 0.0016482499 0.0012455984
000240 b3 7c 10 ba e2 17 0d bb 51 68 21 3c 72 43 06 bc
       -0.00055117457 -0.0021529128 0.009851531 -0.008194791
000250 c6 e1 c3 bb 29 3f 2b bc ff fd 35 3b 3d 70 31 3b
       -0.005977842 -0.01045207 0.0027769802 0.0027074956
000260 57 bb cc bb b7 c8 2b bb dd ed 33 bb 12 4e 80 bb
       -0.0062479186 -0.0026212165 -0.002745501 -0.0039155567
000270 fb 0d 25 bb 99 a6 a6 3b 78 69 7c bb da 26 b9 bb
       -0.0025185335 0.005085778 -0.0038515013 -0.0056503834
000280 01 76 41 bc d0 bf 43 b7 bb 62 d8 3b 6e 6f d7 ba
       -0.0118079195 -1.1667566e-05 0.0066035665 -0.0016436407
000290 63 8f 87 3b da 46 5f bb 21 09 34 3c 11 f0 9a 39
       0.004136966 -0.003406933 0.010988505 0.00029552032
0002a0 90 13 28 3a ea 82 a6 3a 2c 23 c4 3b 18 14 8b 3b
       0.00064116064 0.001270381 0.005985638 0.0042443387
0002b0 65 62 c8 3a 94 01 89 3a 90 9d 20 3b 0f f1 87 3b
       0.0015288113 0.0010452741 0.0024507977 0.0041486095
0002c0 0b 88 83 38 2b 85 48 ba 9c 13 11 3c e6 a5 20 3b
       6.271907e-05 -0.0007649238 0.008854773 0.0024512946
0002d0 bf e0 69 3b d7 dc 99 ba d4 6f da b9 c8 d8 7d 3b
       0.0035686938 -0.0011738789 -0.0004166352 0.0038733948
0002e0 ff 21 be bb 80 54 77 bb 32 c1 b9 3b b6 65 34 3b
       -0.0058023925 -0.0037739575 0.0056687826 0.0027526445
0002f0 51 21 af bb e0 25 bf bb 56 f1 c6 3a a0 60 91 3b
       -0.005344548 -0.0058333725 0.0015178125 0.0044365674
000300 64 21 f0 3b c4 0c c1 bb d3 cc 4f bb 12 f6 80 bb
       0.007328199 -0.0058914144 -0.0031707778 -0.003935584
000310 80 ad 49 3b 0d 8e 0e bb ed c7 53 ba af 22 2d ba
       0.003077358 -0.002175215 -0.00080788025 -0.00066045945
000320 55 84 03 bc ae 44 1f 3c d0 bb f4 3a 68 33 27 ba
       -0.008027156 0.009720964 0.0018671695 -0.00063782046
000330 18 00 be ba 00 83 50 bc fc ae 06 3c e7 75 d2 ba
       -0.0014495878 -0.012726545 0.00822043 -0.0016056866
000340 89 26 df 37 af 05 36 bc 00 75 af 3a f4 70 15 bc
       2.6601616e-05 -0.0111097535 0.0013386309 -0.009121168
000350 36 2d c6 3b 25 38 40 bc 6a 81 63 ba 2e ce 7a 3b
       0.00604787 -0.011732136 -0.0008678647 0.0038269865
000360 53 55 7d 3a 2d 22 b8 3b f0 58 dc 39 62 f3 8f 39
       0.00096638984 0.0056193084 0.00042027934 0.0002745642
000370 2b 97 87 39 6d 7b b2 bb 58 54 30 3b 21 12 74 3b
       0.00025861835 -0.0054468424 0.0026905742 0.003724225
000380 fe 9e 74 3b 17 c8 9f 3b 11 28 0f bc 68 07 01 3b
       0.0037326212 0.0048761475 -0.00873758 0.0019688252
000390 f8 14 a9 3b 9a db a6 bb e1 56 05 39 f9 d4 7f b9
       0.0051599704 -0.0050920965 0.00012716233 -0.00024398034
0003a0 3f 87 b3 ba 03 db 27 bb 59 b3 34 3c e4 fb 86 3a
       -0.0013696923 -0.002561272 0.011029088 0.0010298458
0003b0 a0 99 6c 3b 4c 94 83 ba 6c 10 b7 3b b9 55 87 38
       0.003610231 -0.0010038703 0.0055866744 6.453269e-05
0003c0 9d b0 8b 3b bb b3 0a 3c b8 8c 56 bb 71 a6 6c 3b
       0.0042629973 0.008465703 -0.0032737684 0.003610995
0003d0 7c 97 34 ba bb d1 a8 3b 04 ba 43 3b 72 c1 27 ba
       -0.0006889028 0.005151955 0.0029865513 -0.000639937
0003e0 0e c4 36 3a 44 05 46 bb 0d 54 f7 bb 58 b7 31 bc
       0.00069719634 -0.003021554 -0.0075478614 -0.010846935
0003f0 5a 80 f7 bb c1 80 ea ba 37 e7 67 bb 39 7f bd ba
       -0.0075531425 -0.0017891155 -0.0035385618 -0.0014457471

layers.0.weight f4 [100, 6]
000000 34 f9 a3 3e 08 3a 32 3e 15 26 e0 be 76 4b a7 be
       0.32026064 0.1740495 -0.43779054 -0.3267476
000010 94 6e 2f be 07 13 e1 be 40 d1 5f 3c 75 2f 35 bd
       -0.17132026 -0.4395983 0.013660729 -0.04423471
000020 a5 fd 98 bc f7 f6 06 3d d0 0d c6 bd 2c a0 34 bd
       -0.018675635 0.032950368 -0.09670603 -0.044098064
000030 ce 77 9a bc f4 cc 23 3d 02 03 fc 3d ab 3b 3f 3d
       -0.018855955 0.03999038 0.12305261 0.046687763
000040 89 21 9b 3b 68 45 fd 3b 6f d9 45 3d 77 0c 96 3d
       0.0047342223 0.007729221 0.048303064 0.07326596
000050 0b 86 43 3d 8d 6c 5c ba c9 89 5a 3d ae 68 c3 3d
       0.047735255 -0.00084085093 0.05335406 0.095414504
000060 2d 75 58 be 98 f3 cb 3e 08 fd 3b 3e 6d d1 cd 3e
       -0.21138449 0.39834285 0.18358243 0.40198842
000070 1a 5e d3 3e a2 3b 47 be 35 98 d6 3b 12 1c 0b bc
       0.4128273 -0.19456342 0.006548906 -0.008490579
000080 81 82 9a bb 1a b1 5d bc 3d 7a c4 3b 8d 22 77 3c
       -0.0047152643 -0.013530994 0.0059960173 0.015083921
000090 1b 34 7a 3c b4 c9 35 3d 26 74 12 3d ed 19 5d bd
       0.015271212 0.044381812 0.0357553 -0.053979803
0000a0 58 c8 06 3e 2e 2a 8d 3d d0 d2 67 3d 20 40 c8 bd
       0.13162363 0.06892811 0.05659753 -0.09777856
0000b0 6d 57 a7 3c bf 28 99 bc 2d 08 91 bd 04 06 88 bd
       0.02042743 -0.018696187 -0.070816375 -0.066417724
0000c0 9e 6c 76 be b6 fe 77 be 61 67 e4 3e 0d ac 78 3e
       -0.24064872 -0.24218258 0.44610122 0.24284382
0000d0 40 10 9f 3e e4 56 ed 3e c8 fc 3a 3d 02 9e 53 bc
       0.31067085 0.46355355 0.045651227 -0.01291609
0000e0 0d 1d 9d 3c 41 ba f8 3a bf 78 07 bd 93 3f d0 bc
       0.019178892 0.0018976406 -0.033074137 -0.02542094
0000f0 72 5b f9 3c ee 65 11 3d 91 50 e8 b8 c7 36 05 3e
       0.030439112 0.0354976 -0.00011077629 0.13009177
000100 1d 27 04 3c bb ea 9b bc 38 fa dc 3c c3 44 be 3d
       0.008065966 -0.019032827 0.026974782 0.09290459
000110 d7 d7 d3 bc 11 97 57 3d c8 93 66 3d 0b d4 2a bc
       -0.025859756 0.052634303 0.05629328 -0.010426532
000120 85 aa b2 3c dd 6f e5 3c 7c f6 f2 bb 63 14 66 3d
       0.021809826 0.028007442 -0.007414637 0.056171786
000130 fb 0e 51 bc 4e 3e 58 3d 68 45 ba 3d 66 21 2c 3d
       -0.012759919 0.052793793 0.090952694 0.04202404
000140 33 53 b5 3d b8 f8 1e bd 64 c1 15 3d a7 54 45 bd
       0.088537596 -0.038811415 0.036561385 -0.048176434
000150 dd 7f aa be 14 dd 3e 3e 29 12 ee 3e 9a b1 ad 3e
       -0.33300677 0.18639022 0.4649823 0.33924562
000160 66 26 0e be 09 c0 f5 3e 40 b3 cb 3b ce c5 12 3d
       -0.13881835 0.47998074 0.0062164366 0.035833173
000170 4e 66 78 3d 4c fd 1a 3d 9b 8d 89 3d 60 0a 66 3c
       0.06064444 0.03783922 0.06716462 0.0140405595
000180 8d 8a ef be 68 31 c2 be c5 3e 55 3e 28 67 f3 be
       -0.46785393 -0.3792832 0.20824726 -0.4753964
000190 f6 0e b4 3e 11 4b 59 be c3 88 dd 3c e1 22 f9 bc
       0.35167664 -0.21220042 0.027042752 -0.03041214
0001a0 39 80 e6 3c 31 03 5f bd bd 8c a2 3d f2 1c 77 bc
       0.028137313 -0.054446403 0.07937 -0.015082585
0001b0 27 ee 60 be f1 6f 26 3e a2 b5 58 3e 04 c5 c7 be
       -0.21965848 0.1625364 0.21163037 -0.39017498
0001c0 8a 79 0a be 8e c5 7d be 7d df 44 bc 7c 9e 1a 3d
       -0.13522926 -0.24782392 -0.012016174 0.0377488
0001d0 de 54 5a bd 4b 79 fe 3c d0 b5 53 3d b4 d6 16 bd
       -0.053303592 0.031063696 0.05168706 -0.03682585
0001e0 d8 02 c3 3c 3a bb f8 3b 5a 86 34 3d d5 e1 3c 3d
       0.023805067 0.0075906785 0.04407344 0.046113808
0001f0 03 df ba bb 27 1c 33 bc 1f c1 af 3c 8f cf a1 3c
       -0.0057028546 -0.010932005 0.021454392 0.019752292
000200 27 52 08 3c a9 45 a5 3b 27 04 a5 3b bc 06 90 3b
       0.008320368 0.0050437045 0.0050358954 0.004395334
000210 a7 b4 2a bb 20 7f c3 b9 52 24 d8 ba 69 15 3e ba
       -0.0026047619 -0.00037288014 -0.0016490316 -0.0007251115
000220 05 de 8c bb 63 3f 7d bb 8a c5 a2 3e b9 2f cc 3d
       -0.0042989277 -0.0038642518 0.31791335 0.0997004
000230 a9 02 a5 be a4 3c a3 3e ca 45 ce bd 60 42 06 be
       -0.32228592 0.31882203 -0.10071905 -0.13111258
000240 b5 66 e6 bd c2 76 ec bd 9c a9 23 be 5d f6 2d 3e
       -0.112500586 -0.11546089 -0.1598267 0.16988511
000250 2b 38 25 be 96 50 3d be d6 bf b6 be ca 3a 81 3e
       -0.16134708 -0.18487772 -0.35693234 0.25240165
000260 ef 59 fb be b8 06 ae 3e c4 62 7c be f7 39 f9 be
       -0.4909205 0.339895 -0.24647051 -0.48677036
000270 39 20 dc 3c 54 b5 7c 3d 77 21 30 bc 64 81 0b 3c
       0.026870834 0.061696365 -0.010750166 0.008514736
000280 2f 7e 6e 3d 22 3b 33 3c f9 5b 06 bd 35 cb a8 bd
       0.058225807 0.010939391 -0.032802556 -0.08241884
000290 c1 d9 9d bd d2 6e b1 bc ed b6 a9 3c 89 3d 8d bd
       -0.07707549 -0.021659289 0.020717109 -0.068965025
0002a0 8a 4c ee be 66 0a 3a be 9c 13 e3 be 3c 1b ec be
       -0.4654277 -0.18168029 -0.44350898 -0.46114528
0002b0 04 84 3c 3e 3c 2f d9 3e 0e f8 03 be cd 04 fd bd
       0.18409735 0.4241885 -0.12887594 -0.12354431
0002c0 f6 b2 d4 3d 46 fd e5 3d 8d d3 0c 3e 3c 2d 20 be
       0.103856966 0.11229949 0.13752575 -0.15642256
0002d0 86 4a 23 be d6 1e ab be 44 aa ba be 1a e9 56 3e
       -0.15946397 -0.33421963 -0.36458027 0.20987359
0002e0 e3 b9 bd be aa 98 39 3e 7a 14 95 3e b0 d2 8f 3e
       -0.37055883 0.18124643 0.29117185 0.2809043
0002f0 5a b5 0a 3f df ce 8f be f7 c1 6b be 27 4a ff 3e
       0.5418297 -0.28087518 -0.2302321 0.4986126
000300 30 2d 82 3d b9 80 62 3d ff b8 89 3b 1e c6 8c 3c
       0.06356275 0.05529854 0.0042029615 0.017184313
000310 0e 38 6b 3d 14 18 bf 3d 21 50 7a 3e 11 6a 38 3e
       0.057426505 0.093307644 0.24444629 0.18009211
000320 01 f4 3e be 4d ef 07 3e c7 a8 89 3e ca ce 0b be
       -0.18647768 0.1327488 0.2688658 -0.13653103
000330 6f 01 f6 bc fe 13 5e bb fb a3 1d 3d 8a 76 94 3d
       -0.03002998 -0.0033886428 0.038486462 0.07249172
000340 56 d3 80 bd 4f e0 91 bd 37 5b 70 bd 51 65 d5 3d
       -0.06290309 -0.071228616 -0.05868074 0.10419715
000350 70 86 ec 3c 16 a3 a0 bd 13 4f 3b 3d bc b4 c8 bc
       0.028872699 -0.07843606 0.045729708 -0.024500243
000360 70 e3 5c 3d 18 60 1e bd 4c fb 82 bd ff 08 b5 bb
       0.05392784 -0.03866586 -0.06395587 -0.005524754
000370 4f 74 4b bd 44 2b 9e bc 84 8c 31 3e 0e 9a d0 bd
       -0.049671467 -0.01930774 0.17338759 -0.101856336
000380 cc fb a1 3e 3e c0 2f be 0e 53 29 3e 2e 93 a4 3e
       0.31637418 -0.17163178 0.16535589 0.3214354
000390 b9 b8 2b 3f 51 a1 34 be 65 52 86 be b1 86 2c 3f
       0.6707874 -0.17639662 -0.26234737 0.6739302
0003a0 26 1f 39 3e 56 f2 87 3e 19 7b 9a 3c c2 d2 e9 3c
       0.18078288 0.26552075 0.018857526 0.02854288
0003b0 ff 06 41 3c 49 37 8d 3b 91 99 0f bc c8 cd 3c bc
       0.011781453 0.004309569 -0.00876464 -0.011523671
0003c0 6c fe 24 bb 35 ec 30 3c ba cf 97 bc 12 f1 bb 3c
       -0.0025176061 0.010798504 -0.018531669 0.0229421
0003d0 31 b3 86 bd 84 6c ec bc f8 17 3f be 18 de 09 bf
       -0.06577147 -0.028860338 -0.18661487 -0.53854513
0003e0 96 60 67 3e ac 00 4c 3e 33 7c 0c bf 6d 9e 7e be
       0.22595438 0.19922131 -0.5487701 -0.24865122
0003f0 4e 45 bc bd 00 60 8d be b1 22 02 bf 1e 0a f1 b9
       -0.09192906 -0.27612305 -0.50834185 -0.0004597464

layers.0.bias f4 [100]
000000 c9 dd 4d bc 7f fc d0 be 84 42 bf be 31 ef e7 be
       -0.012565085 -0.4081764 -0.37355435 -0.45299676
000010 07 54 4f be 24 40 94 bd a4 02 e6 be 31 94 c3 be
       -0.20246898 -0.07238796 -0.4492389 -0.38199
000020 3a 30 ee bd 5f c0 5b be 2a 37 b9 be 23 c5 bc be
       -0.11630292 -0.21460102 -0.361749 -0.36869153
000030 60 43 3d be f9 ec ed be 8a 35 92 bd 79 d8 9d be
       -0.18482733 -0.46469858 -0.07139118 -0.30829218
000040 9e bc c0 3c f2 f1 b0 be 0f ea 6b be e6 6e bb be
       0.02352744 -0.3455959 -0.23038505 -0.36608046
000050 b6 ab 5a be 88 05 b2 bd c0 97 0c bd 15 33 27 bf
       -0.21354565 -0.08692461 -0.034324408 -0.6531232
000060 02 82 56 3e c3 96 dd bc 1f 54 78 be 5a c1 c3 be
       0.20948032 -0.027049428 -0.2425084 -0.38233453
000070 8a ec 33 bd 8c dd 66 bd 63 f3 8a be 55 90 aa bd
       -0.043926753 -0.056363627 -0.27138814 -0.083283104
000080 9a 80 d4 be e8 9d 31 be ab 35 a7 be e2 c2 f4 be
       -0.41504365 -0.17345393 -0.32658133 -0.47804934
000090 13 cb e0 be 56 93 aa bd 14 5d 25 bc c5 d1 fb bd
       -0.43904933 -0.08328883 -0.010092992 -0.1229587
0000a0 75 04 74 be 9d ec 42 bd 15 ba ff bd 34 c8 28 be
       -0.23829825 -0.047588933 -0.12486664 -0.16482621
0000b0 86 bc ec be d6 3e 56 be 20 77 2d be 57 29 95 be
       -0.46237582 -0.20922408 -0.16939974 -0.29133102
0000c0 3e ee 4b bd fb 9a c9 be 05 8c 2e be 5d d0 43 bd
       -0.049787752 -0.39376053 -0.170456 -0.047806133
0000d0 6e 85 76 be 7c f7 be 3e f4 af 8d be 83 e3 96 be
       -0.24074337 0.3729819 -0.27673304 -0.29470453
0000e0 5a 01 54 be f6 6d 1f bf 65 37 5f be d4 d4 37 bd
       -0.2070364 -0.6227716 -0.21798475 -0.044880703
0000f0 fb 7e 8d be 3f f5 c7 be 0e 9f 28 bf 75 cb 8b be
       -0.2763594 -0.39054295 -0.658677 -0.27303663
000100 b5 07 a0 be d7 08 19 be b6 e5 00 be 02 71 dc bd
       -0.3125588 -0.14944778 -0.12587628 -0.10763742
000110 e5 34 27 bf 95 e2 01 be 7c 2d 36 bf 98 51 a2 be
       -0.65315086 -0.1268409 -0.71163154 -0.31702876
000120 ed 66 63 be 1c b1 1e be a6 06 e4 be 15 79 67 be
       -0.22207232 -0.1549725 -0.44536322 -0.22604783
000130 40 48 ad bd 65 cc 90 bd 47 05 67 be a6 9f af bd
       -0.08461046 -0.07070235 -0.22560607 -0.085753724
000140 07 59 48 be 4a 6d 0c bf ae e5 8a be 45 5b 25 3c
       -0.19565211 -0.5485426 -0.27128357 0.010092561
000150 1c 46 78 bd 6f 68 cf be 67 55 82 bd 88 7d 16 bf
       -0.060613737 -0.40509364 -0.063639455 -0.58785295
000160 52 f8 b8 be a7 a2 a4 be bf 40 47 be dd aa 9d bc
       -0.36126953 -0.32155344 -0.19458292 -0.019246513
000170 d9 25 09 bf f0 c6 fc be 40 23 16 bf 2a 3c bd 3e
       -0.53573376 -0.49370527 -0.5864754 0.36959964
000180 91 0d 3b bd a9 95 db be 9f 96 ab be e0 be 56 be
       -0.045667235 -0.4288762 -0.33513352 -0.2097125

layers.2.weight f4 [1, 100]
000000 46 59 56 be 75 85 7f bb 37 91 b9 ba 80 2a 87 38
       -0.20932493 -0.0038989459 -0.0014157657 6.445218e-05
000010 f5 89 2d be e5 5b 8d 37 04 71 85 ba 2e b5 90 ba
       -0.16947158 1.6851302e-05 -0.0010180776 -0.0011040324
000020 c8 eb 59 be c6 a3 4d 39 2b bd 7a bb d1 c9 31 3a
       -0.2128135 0.00019611334 -0.0038259726 0.0006782087
000030 20 c2 c7 b8 0e e5 aa 3b e9 46 50 be 9d e0 8f 39
       -9.525218e-05 0.0052152937 -0.2033955 0.00027442435
000040 f7 f0 8c be ac cd 7e 3b c4 da e9 bd 94 29 d3 bb
       -0.27527592 0.0038879914 -0.11418679 -0.0064441655
000050 b4 d8 7d bb b8 ba 35 3a 6e 3a 91 ba 87 97 d3 bd
       -0.0038733901 0.00069324253 -0.0011080035 -0.10331636
000060 3d 66 d9 bc 28 95 7e be e5 04 00 b9 72 0c 1b b9
       -0.026538009 -0.24861586 -0.00012208855 -0.00014786588
000070 51 da 91 be d6 98 54 3d 32 b9 1b be b6 22 85 be
       -0.28486875 0.05190357 -0.15207365 -0.26003045
000080 7b bf 05 bb 31 6d 1f bd 89 77 5a 3a b3 2d c8 38
       -0.002040832 -0.038922492 0.0008333852 9.545255e-05
000090 43 86 2e bb 16 9d 82 bd 96 1a be be f8 00 9b 3a
       -0.002663032 -0.06377618 -0.37129658 0.001182585
0000a0 9b 6f 26 3c a3 7a 82 be 56 f1 48 be 71 2d 76 bb
       0.010158445 -0.2548419 -0.19623312 -0.0037563706
0000b0 87 bc be ba 9c 90 9c 3a 82 aa bd bb 6b a2 a8 39
       -0.0014552035 0.0011944952 -0.0057881484 0.00032164468
0000c0 24 4e 97 be f5 8c da 3a d5 d5 d3 38 7a 5b e6 bd
       -0.29551804 0.0016674089 0.00010101093 -0.112479165
0000d0 8a ae c6 bb 88 44 91 bd 53 fc 7e 3a 00 58 f7 3a
       -0.006063287 -0.070931494 0.00097269303 0.001887083
0000e0 cc 7d dc ba 8c 87 56 bc 7b ff 8e b9 69 9f 13 be
       -0.0016822158 -0.01309384 -0.00027274698 -0.14416279
0000f0 90 af e1 39 57 98 2d 3a bf 66 70 b7 19 f1 94 bb
       0.00043046148 0.00066221267 -1.4329037e-05 -0.0045453426
000100 da 0f 9b 3a c9 86 78 3a a2 8b af bb fa ce 92 be
       0.0011830286 0.0009480534 -0.0053572217 -0.28673536
000110 de 8d 02 3a 02 d4 17 bd 58 f9 7f 3a c2 8b 87 3a
       0.00049802463 -0.03706742 0.0009764633 0.0010341334
000120 83 c8 c2 3a 26 ee 14 be a0 91 c8 39 51 0b 4b b9
       0.0014860783 -0.14543971 0.00038255472 -0.00019363804
000130 0f 2b a5 3a 3c a6 21 ba df 60 83 3a 96 1d 07 3a
       0.0012601333 -0.00061664334 0.0010023377 0.000515425
000140 eb 99 c1 3a eb 31 ae 3a cb c0 7d b9 d9 37 26 be
       0.0014770603 0.0013290023 -0.00024199781 -0.16232242
000150 d8 1b fd 37 9d ad 64 b9 82 ea 5d be cd 6e d0 3a
       3.0172916e-05 -0.0002180845 -0.21671489 0.0015902162
000160 9e 89 88 ba 4e 98 2f b9 43 98 af bd b3 d9 51 be
       -0.001041699 -0.00016746038 -0.085739635 -0.20493202
000170 1f 1c 91 3b d6 0a a3 bb b3 8c 84 bc c2 40 88 bd
       0.004428401 -0.004975657 -0.016180372 -0.066529766
000180 9a 99 24 3e 82 4e 68 39 1e 94 7b 3b 75 11 9f bd
       0.1607422 0.0002215449 0.0038387845 -0.077670015

grad_avg f4 [494, 3]
000000 00 00 00 00 00 00 00 00 00 00 00 00 00 00 00 00
       0.0 0.0 0.0 0.0
000010 00 00 00 00 00 00 00 00 00 00 00 00 00 00 00 00
       0.0 0.0 0.0 0.0
000020 00 00 00 00 00 00 00 00 00 00 00 00 00 00 00 00
       0.0 0.0 0.0 0.0
000030 00 00 00 00 00 00 00 00 00 00 00 00 00 00 00 00
       0.0 0.0 0.0 0.0
000040 00 00 00 00 00 00 00 00 00 00 00 00 00 00 00 00
       0.0 0.0 0.0 0.0
000050 00 00 00 00 00 00 00 00 00 00 00 00 00 00 00 00
       0.0 0.0 0.0 0.0
000060 00 00 00 00 00 00 00 00 00 00 00 00 00 00 00 00
       0.0 0.0 0.0 0.0
000070 00 00 00 00 00 00 00 00 00 00 00 00 00 00 00 00
       0.0 0.0 0.0 0.0
000080 00 00 00 00 00 00 00 00 00 00 00 00 00 00 00 00
       0.0 0.0 0.0 0.0
000090 00 00 00 00 00 00 00 00 00 00 00 00 00 00 00 00
       0.0 0.0 0.0 0.0
0000a0 00 00 00 00 00 00 00 00 00 00 00 00 00 00 00 00
       0.0 0.0 0.0 0.0
0000b0 00 00 00 00 00 00 00 00 00 00 00 00 00 00 00 00
       0.0 0.0 0.0 0.0
0000c0 00 00 00 00 00 00 00 00 00 00 00 00 00 00 00 00
       0.0 0.0 0.0 0.0
0000d0 00 00 00 00 00 00 00 00 00 00 00 00 00 00 00 00
       0.0 0.0 0.0 0.0
0000e0 00 00 00 00 00 00 00 00 00 00 00 00 00 00 00 00
       0.0 0.0 0.0 0.0
0000f0 00 00 00 00 00 00 00 00 00 00 00 00 00 00 00 00
       0.0 0.0 0.0 0.0
000100 00 00 00 00 00 00 00 00 00 00 00 00 00 00 00 00
       0.0 0.0 0.0 0.0
000110 00 00 00 00 00 00 00 00 00 00 00 00 00 00 00 00
       0.0 0.0 0.0 0.0
000120 00 00 00 00 00 00 00 00 00 00 00 00 00 00 00 00
       0.0 0.0 0.0 0.0
000130 00 00 00 00 00 00 00 00 00 00 00 00 00 00 00 00
       0.0 0.0 0.0 0.0
000140 00 00 00 00 00 00 00 00 00 00 00 00 00 00 00 00
       0.0 0.0 0.0 0.0
000150 00 00 00 00 00 00 00 00 00 00 00 00 00 00 00 00
       0.0 0.0 0.0 0.0
000160 00 00 00 00 00 00 00 00 00 00 00 00 00 00 00 00
       0.0 0.0 0.0 0.0
000170 00 00 00 00 00 00 00 00 00 00 00 00 00 00 00 00
       0.0 0.0 0.0 0.0
000180 00 00 00 00 00 00 00 00 00 00 00 00 00 00 00 00
       0.0 0.0 0.0 0.0
000190 00 00 00 00 00 00 00 00 00 00 00 00 00 00 00 00
       0.0 0.0 0.0 0.0
0001a0 00 00 00 00 00 00 00 00 00 00 00 00 00 00 00 00
       0.0 0.0 0.0 0.0
0001b0 00 00 00 00 00 00 00 00 00 00 00 00 00 00 00 00
       0.0 0.0 0.0 0.0
0001c0 00 00 00 00 00 00 00 00 00 00 00 00 00 00 00 00
       0.0 0.0 0.0 0.0
0001d0 00 00 00 00 00 00 00 00 00 00 00 00 00 00 00 00
       0.0 0.0 0.0 0.0
0001e0 00 00 00 00 00 00 00 00 00 00 00 00 00 00 00 00
       0.0 0.0 0.0 0.0
0001f0 00 00 00 00 00 00 00 00 00 00 00 00 00 00 00 00
       0.0 0.0 0.0 0.0
000200 00 00 00 00 00 00 00 00 00 00 00 00 00 00 00 00
       0.0 0.0 0.0 0.0
000210 00 00 00 00 00 00 00 00 00 00 00 00 00 00 00 00
       0.0 0.0 0.0 0.0
000220 00 00 00 00 00 00 00 00 00 00 00 00 00 00 00 00
       0.0 0.0 0.0 0.0
000230 00 00 00 00 00 00 00 00 00 00 00 00 00 00 00 00
       0.0 0.0 0.0 0.0
000240 00 00 00 00 00 00 00 00 00 00 00 00 00 00 00 00
       0.0 0.0 0.0 0.0
000250 00 00 00 00 00 00 00 00 00 00 00 00 00 00 00 00
       0.0 0.0 0.0 0.0
000260 00 00 00 00 00 00 00 00 00 00 00 00 00 00 00 00
       0.0 0.0 0.0 0.0
000270 00 00 00 00 00 00 00 00 00 00 00 00 00 00 00 00
       0.0 0.0 0.0 0.0
000280 00 00 00 00 00 00 00 00 00 00 00 00 00 00 00 00
       0.0 0.0 0.0 0.0
000290 00 00 00 00 00 00 00 00 00 00 00 00 00 00 00 00
       0.0 0.0 0.0 0.0
0002a0 00 00 00 00 00 00 00 00 00 00 00 00 00 00 00 00
       0.0 0.0 0.0 0.0
0002b0 00 00 00 00 00 00 00 00 00 00 00 00 00 00 00 00
       0.0 0.0 0.0 0.0
0002c0 00 00 00 00 00 00 00 00 00 00 00 00 00 00 00 00
       0.0 0.0 0.0 0.0
0002d0 00 00 00 00 00 00 00 00 00 00 00 00 00 00 00 00
       0.0 0.0 0.0 0.0
0002e0 00 00 00 00 00 00 00 00 00 00 00 00 00 00 00 00
       0.0 0.0 0.0 0.0
0002f0 00 00 00 00 00 00 00 00 00 00 00 00 00 00 00 00
       0.0 0.0 0.0 0.0
000300 00 00 00 00 00 00 00 00 00 00 00 00 00 00 00 00
       0.0 0.0 0.0 0.0
000310 00 00 00 00 00 00 00 00 00 00 00 00 00 00 00 00
       0.0 0.0 0.0 0.0
000320 00 00 00 00 00 00 00 00 00 00 00 00 00 00 00 00
       0.0 0.0 0.0 0.0
000330 00 00 00 00 00 00 00 00 00 00 00 00 00 00 00 00
       0.0 0.0 0.0 0.0
000340 00 00 00 00 00 00 00 00 00 00 00 00 00 00 00 00
       0.0 0.0 0.0 0.0
000350 00 00 00 00 00 00 00 00 00 00 00 00 00 00 00 00
       0.0 0.0 0.0 0.0
000360 00 00 00 00 00 00 00 00 00 00 00 00 00 00 00 00
       0.0 0.0 0.0 0.0
000370 00 00 00 00 00 00 00 00 00 00 00 00 00 00 00 00
       0.0 0.0 0.0 0.0
000380 00 00 00 00 00 00 00 00 00 00 00 00 00 00 00 00
       0.0 0.0 0.0 0.0
000390 00 00 00 00 00 00 00 00 00 00 00 00 00 00 00 00
       0.0 0.0 0.0 0.0
0003a0 00 00 00 00 00 00 00 00 00 00 00 00 00 00 00 00
       0.0 0.0 0.0 0.0
0003b0 00 00 00 00 00 00 00 00 00 00 00 00 00 00 00 00
       0.0 0.0 0.0 0.0
0003c0 00 00 00 00 00 00 00 00 00 00 00 00 00 00 00 00
       0.0 0.0 0.0 0.0
0003d0 00 00 00 00 00 00 00 00 00 00 00 00 00 00 00 00
       0.0 0.0 0.0 0.0
0003e0 00 00 00 00 00 00 00 00 00 00 00 00 00 00 00 00
       0.0 0.0 0.0 0.0
0003f0 00 00 00 00 00 00 00 00 00 00 00 00 00 00 00 00
       0.0 0.0 0.0 0.0

sqr_avg f4 [494, 3]
000000 00 00 00 00 00 00 00 00 00 00 00 00 00 00 00 00
       0.0 0.0 0.0 0.0
000010 00 00 00 00 00 00 00 00 00 00 00 00 00 00 00 00
       0.0 0.0 0.0 0.0
000020 00 00 00 00 00 00 00 00 00 00 00 00 00 00 00 00
       0.0 0.0 0.0 0.0
000030 00 00 00 00 00 00 00 00 00 00 00 00 00 00 00 00
       0.0 0.0 0.0 0.0
000040 00 00 00 00 00 00 00 00 00 00 00 00 00 00 00 00
       0.0 0.0 0.0 0.0
000050 00 00 00 00 00 00 00 00 00 00 00 00 00 00 00 00
       0.0 0.0 0.0 0.0
000060 00 00 00 00 00 00 00 00 00 00 00 00 00 00 00 00
       0.0 0.0 0.0 0.0
000070 00 00 00 00 00 00 00 00 00 00 00 00 00 00 00 00
       0.0 0.0 0.0 0.0
000080 00 00 00 00 00 00 00 00 00 00 00 00 00 00 00 00
       0.0 0.0 0.0 0.0
000090 00 00 00 00 00 00 00 00 00 00 00 00 00 00 00 00
       0.0 0.0 0.0 0.0
0000a0 00 00 00 00 00 00 00 00 00 00 00 00 00 00 00 00
       0.0 0.0 0.0 0.0
0000b0 00 00 00 00 00 00 00 00 00 00 00 00 00 00 00 00
       0.0 0.0 0.0 0.0
0000c0 00 00 00 00 00 00 00 00 00 00 00 00 00 00 00 00
       0.0 0.0 0.0 0.0
0000d0 00 00 00 00 00 00 00 00 00 00 00 00 00 00 00 00
       0.0 0.0 0.0 0.0
0000e0 00 00 00 00 00 00 00 00 00 00 00 00 00 00 00 00
       0.0 0.0 0.0 0.0
0000f0 00 00 00 00 00 00 00 00 00 00 00 00 00 00 00 00
       0.0 0.0 0.0 0.0
000100 00 00 00 00 00 00 00 00 00 00 00 00 00 00 00 00
       0.0 0.0 0.0 0.0
000110 00 00 00 00 00 00 00 00 00 00 00 00 00 00 00 00
       0.0 0.0 0.0 0.0
000120 00 00 00 00 00 00 00 00 00 00 00 00 00 00 00 00
       0.0 0.0 0.0 0.0
000130 00 00 00 00 00 00 00 00 00 00 00 00 00 00 00 00
       0.0 0.0 0.0 0.0
000140 00 00 00 00 00 00 00 00 00 00 00 00 00 00 00 00
       0.0 0.0 0.0 0.0
000150 00 00 00 00 00 00 00 00 00 00 00 00 00 00 00 00
       0.0 0.0 0.0 0.0
000160 00 00 00 00 00 00 00 00 00 00 00 00 00 00 00 00
       0.0 0.0 0.0 0.0
000170 00 00 00 00 00 00 00 00 00 00 00 00 00 00 00 00
       0.0 0.0 0.0 0.0
000180 00 00 00 00 00 00 00 00 00 00 00 00 00 00 00 00
       0.0 0.0 0.0 0.0
000190 00 00 00 00 00 00 00 00 00 00 00 00 00 00 00 00
       0.0 0.0 0.0 0.0
0001a0 00 00 00 00 00 00 00 00 00 00 00 00 00 00 00 00
       0.0 0.0 0.0 0.0
0001b0 00 00 00 00 00 00 00 00 00 00 00 00 00 00 00 00
       0.0 0.0 0.0 0.0
0001c0 00 00 00 00 00 00 00 00 00 00 00 00 00 00 00 00
       0.0 0.0 0.0 0.0
0001d0 00 00 00 00 00 00 00 00 00 00 00 00 00 00 00 00
       0.0 0.0 0.0 0.0
0001e0 00 00 00 00 00 00 00 00 00 00 00 00 00 00 00 00
       0.0 0.0 0.0 0.0
0001f0 00 00 00 00 00 00 00 00 00 00 00 00 00 00 00 00
       0.0 0.0 0.0 0.0
000200 00 00 00 00 00 00 00 00 00 00 00 00 00 00 00 00
       0.0 0.0 0.0 0.0
000210 00 00 00 00 00 00 00 00 00 00 00 00 00 00 00 00
       0.0 0.0 0.0 0.0
000220 00 00 00 00 00 00 00 00 00 00 00 00 00 00 00 00
       0.0 0.0 0.0 0.0
000230 00 00 00 00 00 00 00 00 00 00 00 00 00 00 00 00
       0.0 0.0 0.0 0.0
000240 00 00 00 00 00 00 00 00 00 00 00 00 00 00 00 00
       0.0 0.0 0.0 0.0
000250 00 00 00 00 00 00 00 00 00 00 00 00 00 00 00 00
       0.0 0.0 0.0 0.0
000260 00 00 00 00 00 00 00 00 00 00 00 00 00 00 00 00
       0.0 0.0 0.0 0.0
000270 00 00 00 00 00 00 00 00 00 00 00 00 00 00 00 00
       0.0 0.0 0.0 0.0
000280 00 00 00 00 00 00 00 00 00 00 00 00 00 00 00 00
       0.0 0.0 0.0 0.0
000290 00 00 00 00 00 00 00 00 00 00 00 00 00 00 00 00
       0.0 0.0 0.0 0.0
0002a0 00 00 00 00 00 00 00 00 00 00 00 00 00 00 00 00
       0.0 0.0 0.0 0.0
0002b0 00 00 00 00 00 00 00 00 00 00 00 00 00 00 00 00
       0.0 0.0 0.0 0.0
0002c0 00 00 00 00 00 00 00 00 00 00 00 00 00 00 00 00
       0.0 0.0 0.0 0.0
0002d0 00 00 00 00 00 00 00 00 00 00 00 00 00 00 00 00
       0.0 0.0 0.0 0.0
0002e0 00 00 00 00 00 00 00 00 00 00 00 00 00 00 00 00
       0.0 0.0 0.0 0.0
0002f0 00 00 00 00 00 00 00 00 00 00 00 00 00 00 00 00
       0.0 0.0 0.0 0.0
000300 00 00 00 00 00 00 00 00 00 00 00 00 00 00 00 00
       0.0 0.0 0.0 0.0
000310 00 00 00 00 00 00 00 00 00 00 00 00 00 00 00 00
       0.0 0.0 0.0 0.0
000320 00 00 00 00 00 00 00 00 00 00 00 00 00 00 00 00
       0.0 0.0 0.0 0.0
000330 00 00 00 00 00 00 00 00 00 00 00 00 00 00 00 00
       0.0 0.0 0.0 0.0
000340 00 00 00 00 00 00 00 00 00 00 00 00 00 00 00 00
       0.0 0.0 0.0 0.0
000350 00 00 00 00 00 00 00 00 00 00 00 00 00 00 00 00
       0.0 0.0 0.0 0.0
000360 00 00 00 00 00 00 00 00 00 00 00 00 00 00 00 00
       0.0 0.0 0.0 0.0
000370 00 00 00 00 00 00 00 00 00 00 00 00 00 00 00 00
       0.0 0.0 0.0 0.0
000380 00 00 00 00 00 00 00 00 00 00 00 00 00 00 00 00
       0.0 0.0 0.0 0.0
000390 00 00 00 00 00 00 00 00 00 00 00 00 00 00 00 00
       0.0 0.0 0.0 0.0
0003a0 00 00 00 00 00 00 00 00 00 00 00 00 00 00 00 00
       0.0 0.0 0.0 0.0
0003b0 00 00 00 00 00 00 00 00 00 00 00 00 00 00 00 00
       0.0 0.0 0.0 0.0
0003c0 00 00 00 00 00 00 00 00 00 00 00 00 00 00 00 00
       0.0 0.0 0.0 0.0
0003d0 00 00 00 00 00 00 00 00 00 00 00 00 00 00 00 00
       0.0 0.0 0.0 0.0
0003e0 00 00 00 00 00 00 00 00 00 00 00 00 00 00 00 00
       0.0 0.0 0.0 0.0
0003f0 00 00 00 00 00 00 00 00 00 00 00 00 00 00 00 00
       0.0 0.0 0.0 0.0

grad_avg f4 [100, 6]
000000 d1 ca 45 3b b5 86 86 bb a2 b0 fb b9 6b 9d ba 3b
       0.0030180702 -0.004105414 -0.00048006052 0.005695035
000010 fe fd 35 3c 41 35 82 bb 03 00 00 00 03 00 00 80
       0.01110792 -0.0039736335 4e-45 -4e-45
000020 03 00 00 80 03 00 00 00 03 00 00 80 03 00 00 80
       -4e-45 4e-45 -4e-45 -4e-45
000030 03 00 00 80 03 00 00 00 03 00 00 00 03 00 00 00
       -4e-45 4e-45 4e-45 4e-45
000040 03 00 00 80 03 00 00 00 03 00 00 00 03 00 00 00
       -4e-45 4e-45 4e-45 4e-45
000050 03 00 00 00 03 00 00 80 03 00 00 00 03 00 00 00
       4e-45 -4e-45 4e-45 4e-45
000060 91 ea b6 3b 28 58 2c 3b 92 ee b1 bb 8b b7 95 bb
       0.0055821617 0.0026297662 -0.005430051 -0.004568999
000070 77 3f 22 bb 47 a5 66 3b 03 00 00 00 03 00 00 80
       -0.0024757066 0.0035193728 4e-45 -4e-45
000080 03 00 00 80 03 00 00 80 03 00 00 00 03 00 00 00
       -4e-45 -4e-45 4e-45 4e-45
000090 03 00 00 00 03 00 00 00 03 00 00 00 03 00 00 80
       4e-45 4e-45 4e-45 -4e-45
0000a0 03 00 00 00 03 00 00 00 04 00 00 00 04 00 00 80
       4e-45 4e-45 6e-45 -6e-45
0000b0 04 00 00 00 04 00 00 80 04 00 00 80 04 00 00 80
       6e-45 -6e-45 -6e-45 -6e-45
0000c0 f7 d0 4b 3b c6 60 ad 39 74 08 56 3b 8d 48 61 ba
       0.0031099895 0.00033069233 0.0032658847 -0.000859388
0000d0 0e 0a 06 bc 06 cc d9 ba 03 00 00 00 03 00 00 80
       -0.008181108 -0.001661659 4e-45 -4e-45
0000e0 03 00 00 00 03 00 00 00 03 00 00 80 03 00 00 80
       4e-45 4e-45 -4e-45 -4e-45
0000f0 03 00 00 00 03 00 00 00 03 00 00 00 03 00 00 00
       4e-45 4e-45 4e-45 4e-45
000100 03 00 00 00 03 00 00 80 03 00 00 00 03 00 00 00
       4e-45 -4e-45 4e-45 4e-45
000110 03 00 00 80 03 00 00 00 03 00 00 00 03 00 00 00
       -4e-45 4e-45 4e-45 4e-45
000120 07 00 00 00 07 00 00 00 07 00 00 80 07 00 00 00
       1e-44 1e-44 -1e-44 1e-44
000130 07 00 00 80 07 00 00 00 03 00 00 00 03 00 00 00
       -1e-44 1e-44 4e-45 4e-45
000140 03 00 00 00 03 00 00 80 03 00 00 00 03 00 00 80
       4e-45 -4e-45 4e-45 -4e-45
000150 67 50 92 3a 63 53 4f bb 3e 5f 77 bb eb 8e 92 3b
       0.0011162878 -0.0031635396 -0.0037745978 0.0044726036
000160 ff 31 8e bb aa e8 9a bb 03 00 00 80 03 00 00 00
       -0.004339456 -0.0047274427 -4e-45 4e-45
000170 03 00 00 00 03 00 00 00 03 00 00 00 03 00 00 00
       4e-45 4e-45 4e-45 4e-45
000180 00 c7 19 3b b4 61 b3 3a cd f0 1f 3c 61 3f 0f bb
       0.002346456 0.0013685734 0.009762001 -0.0021857845
000190 02 ae fa 3b 47 bf 69 3a 03 00 00 00 03 00 00 80
       0.007650138 0.0008916747 4e-45 -4e-45
0001a0 03 00 00 00 03 00 00 80 03 00 00 00 03 00 00 80
       4e-45 -4e-45 4e-45 -4e-45
0001b0 c1 ab 94 3a 90 dc c9 bb 7c 97 89 ba 42 d6 aa 3a
       0.001134269 -0.0061603263 -0.0010497416 0.0013033825
0001c0 24 ed a1 3b 71 56 8a bb 03 00 00 80 03 00 00 00
       0.0049415994 -0.0042217304 -4e-45 4e-45
0001d0 03 00 00 80 03 00 00 00 03 00 00 00 03 00 00 80
       -4e-45 4e-45 4e-45 -4e-45
0001e0 03 00 00 00 03 00 00 00 03 00 00 00 03 00 00 00
       4e-45 4e-45 4e-45 4e-45
0001f0 03 00 00 80 03 00 00 80 03 00 00 00 03 00 00 00
       -4e-45 -4e-45 4e-45 4e-45
000200 03 00 00 00 03 00 00 00 03 00 00 00 03 00 00 00
       4e-45 4e-45 4e-45 4e-45
000210 03 00 00 80 03 00 00 80 03 00 00 80 03 00 00 80
       -4e-45 -4e-45 -4e-45 -4e-45
000220 03 00 00 80 03 00 00 00 cb 50 a3 3a 0a 28 da 39
       -4e-45 4e-45 0.0012459991 0.00041610032
000230 4f 52 b7 ba 4f 52 b7 3a 00 1f fa 39 17 d3 88 b9
       -0.0013986322 0.0013986322 0.00047706813 -0.00026097216
000240 47 4c 7e 3a 6c 5b fc 39 4d de 04 3a e7 08 0b 3a
       0.0009700697 0.000481333 0.0005068526 0.0005303756
000250 24 50 3e b9 58 9a 79 b8 90 e5 d2 3b 21 a4 5a 3b
       -0.00018149667 -5.950997e-05 0.0064360574 0.0033361989
000260 4c d6 b2 3a bf 84 03 3a e6 7a 99 b8 ee 9e 6c 3b
       0.0013644188 0.0005017034 -7.3185e-05 0.0036105472
000270 03 00 00 00 03 00 00 00 03 00 00 80 03 00 00 00
       4e-45 4e-45 -4e-45 4e-45
000280 03 00 00 00 03 00 00 00 03 00 00 80 03 00 00 80
       4e-45 4e-45 -4e-45 -4e-45
000290 03 00 00 80 03 00 00 80 03 00 00 00 03 00 00 80
       -4e-45 -4e-45 4e-45 -4e-45
0002a0 68 de ed 3b 04 9b 92 bb e7 b9 13 3c fe 55 87 3a
       0.007259179 -0.0044740457 0.009016491 0.001032531
0002b0 7d 8f 64 3c 78 6c 4e ba 79 2b d7 ba 2b 6c df 3a
       0.013950226 -0.00078744395 -0.0016416154 0.0017045786
0002c0 84 46 8a b8 65 19 0a 3b 42 5c 36 3a 07 1e b6 3a
       -6.593487e-05 0.0021072265 0.00069564965 0.0013894447
0002d0 fd 15 94 3a 4a 8f 46 3a 38 cd e2 3b a1 57 a0 3b
       0.0011298057 0.00075744523 0.0069214366 0.0048932587
0002e0 c2 56 16 ba 0f 17 cb b9 0f 26 02 3a 48 79 fb bb
       -0.0005734974 -0.00038736357 0.00049647776 -0.00767437
0002f0 e3 46 36 3b 7b 9b 03 3c c3 40 2a 3c 73 59 b1 bb
       0.0027813248 0.008032675 0.010391417 -0.0054122745
000300 03 00 00 00 03 00 00 00 03 00 00 00 03 00 00 00
       4e-45 4e-45 4e-45 4e-45
000310 03 00 00 00 03 00 00 00 46 4d c7 3a 09 49 91 3a
       4e-45 4e-45 0.0015205524 0.0011084388
000320 31 22 4d ba 2a 1b ca b9 de 5f c5 b9 13 ef 8a b7
       -0.00078252243 -0.0003854868 -0.00037646195 -1.656221e-05
000330 04 00 00 80 04 00 00 00 04 00 00 00 04 00 00 00
       -6e-45 6e-45 6e-45 6e-45
000340 04 00 00 80 04 00 00 80 03 00 00 80 03 00 00 00
       -6e-45 -6e-45 -4e-45 4e-45
000350 03 00 00 00 03 00 00 80 03 00 00 00 03 00 00 80
       4e-45 -4e-45 4e-45 -4e-45
000360 03 00 00 00 03 00 00 80 03 00 00 80 03 00 00 00
       4e-45 -4e-45 -4e-45 4e-45
000370 03 00 00 80 03 00 00 80 3f 46 b6 3a 95 61 9b ba
       -4e-45 -4e-45 0.0013906433 -0.0011854643
000380 da da 6a ba b2 bd 3b ba ff a0 83 3a c4 07 d1 ba
       -0.0008959003 -0.00071617507 0.0010042487 -0.0015947749
000390 24 00 71 3c 30 6e c5 3a ae 35 41 bb 19 3a cc ba
       0.014709506 0.0015062746 -0.0029481458 -0.0015581279
0003a0 ab f1 97 ba b6 36 8d 39 04 00 00 00 04 00 00 00
       -0.0011592408 0.0002693438 6e-45 6e-45
0003b0 04 00 00 00 04 00 00 00 04 00 00 80 04 00 00 80
       6e-45 6e-45 -6e-45 -6e-45
0003c0 03 00 00 00 03 00 00 00 03 00 00 80 03 00 00 00
       4e-45 4e-45 -4e-45 4e-45
0003d0 03 00 00 80 03 00 00 80 08 96 b2 bb 77 63 43 3b
       -4e-45 -4e-45 -0.005450014 0.0029813924
0003e0 a5 a7 74 3b a6 94 02 3b 73 74 30 3b 4b 50 d9 3b
       0.003733137 0.0019925027 0.0026924878 0.006631886
0003f0 8a fe 0e 3c d2 77 92 3b 98 6f 3b 3b 60 0a 7e bb
       0.008727679 0.00446985 0.002860045 -0.0038763508

sqr_avg f4 [100, 6]
000000 19 ac c6 3a 9a 8d d8 3a 7f 83 cf 3a 83 61 09 3b
       0.001515749 0.0016521693 0.0015832036 0.0020962663
000010 dd 12 05 3b c7 1e de 3a 32 00 00 00 32 00 00 00
       0.0020305433 0.0016946428 7e-44 7e-44
000020 32 00 00 00 32 00 00 00 32 00 00 00 32 00 00 00
       7e-44 7e-44 7e-44 7e-44
000030 32 00 00 00 32 00 00 00 32 00 00 00 32 00 00 00
       7e-44 7e-44 7e-44 7e-44
000040 32 00 00 00 32 00 00 00 32 00 00 00 32 00 00 00
       7e-44 7e-44 7e-44 7e-44
000050 32 00 00 00 32 00 00 00 32 00 00 00 32 00 00 00
       7e-44 7e-44 7e-44 7e-44
000060 00 0d 99 3a f0 35 69 3a a8 e8 6f 3a ad 1d 6c 3a
       0.0011676848 0.0008896282 0.0009151795 0.00090071076
000070 5a 88 75 3a 55 cf 8f 3a 32 00 00 00 32 00 00 00
       0.0009366326 0.0010971824 7e-44 7e-44
000080 32 00 00 00 32 00 00 00 32 00 00 00 32 00 00 00
       7e-44 7e-44 7e-44 7e-44
000090 32 00 00 00 32 00 00 00 32 00 00 00 32 00 00 00
       7e-44 7e-44 7e-44 7e-44
0000a0 32 00 00 00 32 00 00 00 9e 04 00 00 71 04 00 00
       7e-44 7e-44 1.656e-42 1.593e-42
0000b0 2c 05 00 00 1e 04 00 00 5b 04 00 00 37 04 00 00
       1.855e-42 1.477e-42 1.562e-42 1.512e-42
0000c0 13 da ab 3a c3 5a c2 3a ee 24 c3 3a c9 a7 b7 3a
       0.0013111256 0.0014828074 0.0014888325 0.0014011796
0000d0 17 8d af 3a 2e ad af 3a 32 00 00 00 32 00 00 00
       0.0013393488 0.0013403052 7e-44 7e-44
0000e0 32 00 00 00 32 00 00 00 32 00 00 00 32 00 00 00
       7e-44 7e-44 7e-44 7e-44
0000f0 32 00 00 00 32 00 00 00 32 00 00 00 32 00 00 00
       7e-44 7e-44 7e-44 7e-44
000100 32 00 00 00 32 00 00 00 32 00 00 00 32 00 00 00
       7e-44 7e-44 7e-44 7e-44
000110 32 00 00 00 32 00 00 00 32 00 00 00 32 00 00 00
       7e-44 7e-44 7e-44 7e-44
000120 03 ac e0 10 34 e6 c3 10 0b 90 d3 10 0b 90 bb 10
       8.861745e-29 7.726862e-29 8.344676e-29 7.398043e-29
000130 ba 95 af 10 88 e2 ce 10 32 00 00 00 32 00 00 00
       6.925602e-29 8.16017e-29 7e-44 7e-44
000140 32 00 00 00 32 00 00 00 32 00 00 00 32 00 00 00
       7e-44 7e-44 7e-44 7e-44
000150 fd 9f ae 3a 68 cf c5 3a 48 2e c1 3a e0 be a5 3a
       0.0013322827 0.0015091719 0.0014738524 0.0012645386
000160 30 33 b2 3a d2 aa b4 3a 32 00 00 00 32 00 00 00
       0.0013595577 0.0013783819 7e-44 7e-44
000170 32 00 00 00 32 00 00 00 32 00 00 00 32 00 00 00
       7e-44 7e-44 7e-44 7e-44
000180 81 8e 48 3b d7 0b 5a 3b ca f2 3d 3b 28 cc 4c 3b
       0.0030602517 0.0033271217 0.0028983825 0.0031249616
000190 de 11 36 3b a3 55 3d 3b 32 00 00 00 32 00 00 00
       0.0027781646 0.0028890155 7e-44 7e-44
0001a0 32 00 00 00 32 00 00 00 32 00 00 00 32 00 00 00
       7e-44 7e-44 7e-44 7e-44
0001b0 83 8d bf 39 30 95 05 3a 36 74 af 39 1d 4e b7 39
       0.00036535793 0.0005095778 0.00033465185 0.0003496268
0001c0 41 93 bb 39 b9 89 d9 39 32 00 00 00 32 00 00 00
       0.00035777132 0.00041492077 7e-44 7e-44
0001d0 32 00 00 00 32 00 00 00 32 00 00 00 32 00 00 00
       7e-44 7e-44 7e-44 7e-44
0001e0 32 00 00 00 32 00 00 00 32 00 00 00 32 00 00 00
       7e-44 7e-44 7e-44 7e-44
0001f0 32 00 00 00 32 00 00 00 32 00 00 00 32 00 00 00
       7e-44 7e-44 7e-44 7e-44
000200 32 00 00 00 32 00 00 00 32 00 00 00 32 00 00 00
       7e-44 7e-44 7e-44 7e-44
000210 32 00 00 00 32 00 00 00 32 00 00 00 32 00 00 00
       7e-44 7e-44 7e-44 7e-44
000220 32 00 00 00 32 00 00 00 4a 0b 05 39 32 be 13 39
       7e-44 7e-44 0.00012688074 0.00014089866
000230 a8 b9 07 39 c2 b9 07 39 17 15 eb 38 87 66 33 39
       0.00012943766 0.00012943803 0.000112096015 0.00017108965
000240 84 11 3a 38 03 48 1f 38 4f 0a 31 38 0c 92 0f 38
       4.436217e-05 3.797562e-05 4.220969e-05 3.4229874e-05
000250 4d da 43 38 b6 2a 2d 38 17 7a 43 3b 16 aa 29 3b
       4.669493e-05 4.1286192e-05 0.002982741 0.0025888733
000260 a8 66 1f 3b ae 3c 27 3b 27 cf 3c 3b 02 ad 32 3b
       0.0024322663 0.0025518346 0.0028809996 0.0027263765
000270 32 00 00 00 32 00 00 00 32 00 00 00 32 00 00 00
       7e-44 7e-44 7e-44 7e-44
000280 32 00 00 00 32 00 00 00 32 00 00 00 32 00 00 00
       7e-44 7e-44 7e-44 7e-44
000290 32 00 00 00 32 00 00 00 32 00 00 00 32 00 00 00
       7e-44 7e-44 7e-44 7e-44
0002a0 6d 8b 2f 3b a8 95 4e 3b 5e 0c 67 3b d8 cf 2f 3b
       0.0026785985 0.0031522308 0.0035255174 0.0026826765
0002b0 60 57 2c 3b 18 1c 4a 3b ea e2 bc 38 e0 9f bb 38
       0.0026297197 0.00308395 9.0068046e-05 8.946634e-05
0002c0 51 e0 d2 38 fa 67 c1 38 b0 db a4 38 8b 35 c2 38
       0.000100553625 9.222324e-05 7.8610494e-05 9.260614e-05
0002d0 34 eb 37 3a bb 91 0c 3a 87 b4 47 3a ae 81 11 3a
       0.0007015944 0.00053622917 0.0007618148 0.0005550635
0002e0 47 58 27 3a 08 9d 25 3a 04 80 0b 3b df 37 14 3b
       0.0006383699 0.000631765 0.002128602 0.002261631
0002f0 80 3d 03 3b 36 a6 24 3b 0b 26 0b 3b 2d 22 2c 3b
       0.002002567 0.0025123484 0.0021232392 0.0026265488
000300 32 00 00 00 32 00 00 00 32 00 00 00 32 00 00 00
       7e-44 7e-44 7e-44 7e-44
000310 32 00 00 00 32 00 00 00 2f 8e 18 38 00 a7 39 38
       7e-44 7e-44 3.6372043e-05 4.4262968e-05
000320 c6 91 4f 38 76 20 43 38 e0 96 53 38 0a f5 50 38
       4.9488408e-05 4.6521855e-05 5.0446833e-05 4.9819275e-05
000330 32 00 00 00 32 00 00 00 32 00 00 00 32 00 00 00
       7e-44 7e-44 7e-44 7e-44
000340 32 00 00 00 32 00 00 00 32 00 00 00 32 00 00 00
       7e-44 7e-44 7e-44 7e-44
000350 32 00 00 00 32 00 00 00 32 00 00 00 32 00 00 00
       7e-44 7e-44 7e-44 7e-44
000360 32 00 00 00 32 00 00 00 32 00 00 00 32 00 00 00
       7e-44 7e-44 7e-44 7e-44
000370 32 00 00 00 32 00 00 00 34 00 0c 39 37 a0 03 39
       7e-44 7e-44 0.00013351516 0.00012552818
000380 e0 0e e5 38 ed 9e e7 38 94 53 b9 38 35 c0 f4 38
       0.000109223416 0.000110445406 8.837055e-05 0.00011670628
000390 77 8f a1 3b 0d ab 98 3b 5d 69 b3 3b 01 87 a1 3b
       0.0049304324 0.0046590627 0.0054752068 0.004929424
0003a0 76 1f a8 3b f8 18 d6 3b 32 00 00 00 32 00 00 00
       0.0051307036 0.006533738 7e-44 7e-44
0003b0 32 00 00 00 32 00 00 00 32 00 00 00 32 00 00 00
       7e-44 7e-44 7e-44 7e-44
0003c0 32 00 00 00 32 00 00 00 32 00 00 00 32 00 00 00
       7e-44 7e-44 7e-44 7e-44
0003d0 32 00 00 00 32 00 00 00 4d c8 2c 3b 61 6f 0c 3b
       7e-44 7e-44 0.0026364506 0.0021428692
0003e0 f0 0f 13 3b 6d f9 19 3b 16 74 1f 3b 9f fe 21 3b
       0.002243992 0.0023494617 0.0024330667 0.0024718416
0003f0 ba 0f aa 3a 20 63 ae 3a f2 b2 b4 3a ce bb a5 3a
       0.0012974658 0.0013304688 0.001378624 0.0012644471

grad_avg f4 [100]
000000 a5 17 ac bb 03 00 00 00 03 00 00 00 03 00 00 00
       -0.005251842 4e-45 4e-45 4e-45
000010 4e 13 c0 ba 03 00 00 00 03 00 00 00 04 00 00 00
       -0.0014654191 4e-45 4e-45 6e-45
000020 f9 aa 61 38 03 00 00 00 03 00 00 00 03 00 00 00
       5.380341e-05 4e-45 4e-45 4e-45
000030 07 00 00 00 03 00 00 00 08 36 cd bb 03 00 00 00
       1e-44 4e-45 -0.0062625445 4e-45
000040 fc 36 53 bb 03 00 00 00 87 0d aa ba 03 00 00 00
       -0.0032228818 4e-45 -0.0012974002 4e-45
000050 03 00 00 00 03 00 00 00 03 00 00 00 4f 52 b7 3a
       4e-45 4e-45 4e-45 0.0013986322
000060 92 2a 1b b9 9f 35 cb 3a 03 00 00 00 03 00 00 00
       -0.0001479781 0.0015503651 4e-45 4e-45
000070 68 03 75 bb 96 34 f1 39 7c 61 56 bb d0 16 a5 bb
       -0.0037386063 0.00046006282 -0.0032711914 -0.00503812
000080 03 00 00 00 9f fc 47 3a 04 00 00 00 03 00 00 00
       4e-45 0.0007628891 6e-45 4e-45
000090 03 00 00 00 27 4d 57 ba b1 e0 1e 3b 04 00 00 00
       4e-45 -0.0008213096 0.0024242813 6e-45
0000a0 03 00 00 00 11 53 ae bb 29 89 30 ba 03 00 00 00
       4e-45 -0.005319961 -0.00067343056 4e-45
0000b0 03 00 00 00 03 00 00 00 03 00 00 00 03 00 00 00
       4e-45 4e-45 4e-45 4e-45
0000c0 a1 0c 9b 3a 03 00 00 00 03 00 00 00 31 ad 89 bb
       0.0011829325 4e-45 4e-45 -0.004201554
0000d0 03 00 00 00 03 06 32 ba 03 00 00 00 03 00 00 00
       4e-45 -0.0006791057 4e-45 4e-45
0000e0 03 00 00 00 03 00 00 00 03 00 00 00 15 74 9d ba
       4e-45 4e-45 4e-45 -0.0012012745
0000f0 03 00 00 00 03 00 00 00 03 00 00 00 03 00 00 00
       4e-45 4e-45 4e-45 4e-45
000100 03 00 00 00 03 00 00 00 03 00 00 00 01 dd 32 3c
       4e-45 4e-45 4e-45 0.010916949
000110 03 00 00 00 99 4a ec b9 03 00 00 00 03 00 00 00
       4e-45 -0.00045069007 4e-45 4e-45
000120 03 00 00 00 c8 01 8e 38 03 00 00 00 03 00 00 00
       4e-45 6.7714194e-05 4e-45 4e-45
000130 03 00 00 00 03 00 00 00 03 00 00 00 03 00 00 00
       4e-45 4e-45 4e-45 4e-45
000140 03 00 00 00 03 00 00 00 04 00 00 00 3b c4 dc bb
       4e-45 4e-45 6e-45 -0.0067372597
000150 03 00 00 00 03 00 00 00 52 60 95 3a 03 00 00 00
       4e-45 4e-45 0.0011396504 4e-45
000160 03 00 00 00 03 00 00 00 cb 03 01 3b 1b cf a5 3a
       4e-45 4e-45 0.0019686099 0.0012650223
000170 03 00 00 00 03 00 00 00 03 00 00 00 00 5f f9 ba
       4e-45 4e-45 4e-45 -0.0019025505
000180 f1 a5 5c 3b 03 00 00 00 03 00 00 00 07 57 67 ba
       0.0033668245 4e-45 4e-45 -0.0008824919

sqr_avg f4 [100]
000000 bb 33 fb 3a 32 00 00 00 32 00 00 00 32 00 00 00
       0.0019165197 7e-44 7e-44 7e-44
000010 67 56 79 3a 32 00 00 00 32 00 00 00 70 04 00 00
       0.0009511471 7e-44 7e-44 1.592e-42
000020 ab 83 b0 3a 32 00 00 00 32 00 00 00 32 00 00 00
       0.0013466974 7e-44 7e-44 7e-44
000030 b6 e1 ce 10 32 00 00 00 c5 9c d5 3a 32 00 00 00
       8.1600436e-29 7e-44 0.0016297331 7e-44
000040 87 1c 5a 3b 32 00 00 00 74 7b e4 39 32 00 00 00
       0.0033281164 7e-44 0.0004357953 7e-44
000050 32 00 00 00 32 00 00 00 32 00 00 00 a9 b9 07 39
       7e-44 7e-44 7e-44 0.00012943767
000060 0a 1a 3f 38 ca 97 2c 3b 32 00 00 00 32 00 00 00
       4.55622e-05 0.002633559 7e-44 7e-44
000070 64 20 6f 3b c4 91 b5 38 18 2a 34 3a 03 fb 21 3b
       0.0036487812 8.6579035e-05 0.00068727275 0.0024716265
000080 32 00 00 00 31 a3 3d 38 32 00 00 00 32 00 00 00
       7e-44 4.5213095e-05 7e-44 7e-44
000090 32 00 00 00 91 3c e1 38 94 b2 aa 3b 32 00 00 00
       7e-44 0.000107401174 0.0052092765 7e-44
0000a0 32 00 00 00 c2 a5 3f 3b a5 6e a9 3a 32 00 00 00
       7e-44 0.0029243086 0.0012926651 7e-44
0000b0 32 00 00 00 32 00 00 00 32 00 00 00 32 00 00 00
       7e-44 7e-44 7e-44 7e-44
0000c0 2c be 7f 3b 32 00 00 00 32 00 00 00 99 c3 05 3a
       0.0039023263 7e-44 7e-44 0.00051026937
0000d0 32 00 00 00 16 d4 e2 39 32 00 00 00 32 00 00 00
       7e-44 0.00043264095 7e-44 7e-44
0000e0 32 00 00 00 32 00 00 00 32 00 00 00 37 41 6d 3a
       7e-44 7e-44 7e-44 0.000905055
0000f0 32 00 00 00 32 00 00 00 32 00 00 00 32 00 00 00
       7e-44 7e-44 7e-44 7e-44
000100 32 00 00 00 32 00 00 00 32 00 00 00 77 62 2d 3b
       7e-44 7e-44 7e-44 0.0026456395
000110 32 00 00 00 c4 86 44 38 32 00 00 00 32 00 00 00
       7e-44 4.685555e-05 7e-44 7e-44
000120 32 00 00 00 0e 22 51 3a 32 00 00 00 32 00 00 00
       7e-44 0.0007977792 7e-44 7e-44
000130 32 00 00 00 32 00 00 00 32 00 00 00 32 00 00 00
       7e-44 7e-44 7e-44 7e-44
000140 32 00 00 00 32 00 00 00 32 00 00 00 6e 30 c7 3a
       7e-44 7e-44 7e-44 0.0015196928
000150 32 00 00 00 32 00 00 00 f1 f7 dc 3a 32 00 00 00
       7e-44 7e-44 0.001685856 7e-44
000160 32 00 00 00 32 00 00 00 ae c4 4f 39 49 3d d5 3a
       7e-44 7e-44 0.00019814327 0.0016268875
000170 32 00 00 00 32 00 00 00 32 00 00 00 ba c2 a4 39
       7e-44 7e-44 7e-44 0.000314256
000180 0a d1 57 3a 32 00 00 00 32 00 00 00 0f 6c 53 39
       0.00082327484 7e-44 7e-44 0.00020162783

grad_avg f4 [1, 100]
000000 79 11 e9 3b 03 00 00 80 03 00 00 00 03 00 00 00
       0.0071126786 -4e-45 4e-45 4e-45
000010 21 88 d3 3c 03 00 00 80 03 00 00 00 04 00 00 00
       0.025821747 -4e-45 4e-45 6e-45
000020 d2 24 5f 3c 03 00 00 00 03 00 00 80 03 00 00 80
       0.0136196185 4e-45 -4e-45 -4e-45
000030 07 00 00 00 03 00 00 00 c4 d6 42 3c 03 00 00 00
       1e-44 4e-45 0.011892024 4e-45
000040 06 f6 66 bc 03 00 00 00 ea 22 3b 3c 03 00 00 80
       -0.0140967425 4e-45 0.011421898 -4e-45
000050 03 00 00 80 03 00 00 80 03 00 00 80 42 13 81 bb
       -4e-45 -4e-45 -4e-45 -0.0039390633
000060 01 ae b4 3b 69 32 76 3c 03 00 00 00 03 00 00 00
       0.005513907 0.015026667 4e-45 4e-45
000070 9b 80 85 3c f1 04 d2 3a a6 dc c1 3b fb 21 ea 3c
       0.016296675 0.0016023201 0.005916196 0.028580656
000080 03 00 00 80 aa 03 37 bc 04 00 00 80 03 00 00 80
       -4e-45 -0.011170307 -6e-45 -4e-45
000090 03 00 00 80 bf da 9d 3a 2d 25 ca bc 04 00 00 00
       -4e-45 0.0012043341 -0.02467593 6e-45
0000a0 03 00 00 00 6a d2 0e 3c e2 7c 3e 3c 03 00 00 80
       4e-45 0.008717159 0.011626454 -4e-45
0000b0 03 00 00 00 03 00 00 00 03 00 00 80 03 00 00 00
       4e-45 4e-45 -4e-45 4e-45
0000c0 61 c1 cf 3c 03 00 00 80 03 00 00 80 fa b8 b1 3c
       0.025360765 -4e-45 -4e-45 0.021694649
0000d0 03 00 00 80 13 e8 d9 3c 03 00 00 00 03 00 00 00
       -4e-45 0.02659992 4e-45 4e-45
0000e0 03 00 00 80 03 00 00 00 03 00 00 00 0b 36 7c 3c
       -4e-45 4e-45 4e-45 0.015393744
0000f0 03 00 00 00 03 00 00 00 03 00 00 80 03 00 00 80
       4e-45 4e-45 -4e-45 -4e-45
000100 03 00 00 00 03 00 00 80 03 00 00 80 09 22 b1 bc
       4e-45 -4e-45 -4e-45 -0.021622675
000110 03 00 00 80 93 e1 72 bb 03 00 00 00 03 00 00 80
       -4e-45 -0.0037060722 4e-45 -4e-45
000120 03 00 00 80 8d 8b 31 3c 03 00 00 80 03 00 00 80
       -4e-45 0.010836494 -4e-45 -4e-45
000130 03 00 00 00 03 00 00 80 03 00 00 00 03 00 00 00
       4e-45 -4e-45 4e-45 4e-45
000140 03 00 00 00 03 00 00 80 04 00 00 00 d0 98 f5 3c
       4e-45 -4e-45 6e-45 0.029980093
000150 03 00 00 00 03 00 00 00 17 90 1a bc 03 00 00 80
       4e-45 4e-45 -0.009433768 -4e-45
000160 03 00 00 80 03 00 00 80 c2 60 d8 ba 30 d1 0b b9
       -4e-45 -4e-45 -0.0016508328 -0.00013334001
000170 03 00 00 00 03 00 00 80 03 00 00 80 9c 93 33 3c
       4e-45 -4e-45 -4e-45 0.010960486
000180 7b 5e 74 3c 03 00 00 00 03 00 00 00 7d 72 c7 3b
       0.014915104 4e-45 4e-45 0.006086646
