trees/save/0.5_2_100/models/model.pth (torch, 5339 bytes, 4 tensors)

node_factors.weight f4 [4, 1]
0.004616572 0.0026735088 0.0053490466 0.008093572
00000000: 9d46 973b 0936 2f3b 0e47 af3b e79a 043c

layers.0.weight f4 [200, 2]
-0.558169 -0.32598352 -0.1996691 -0.42516384 0.06673894 -0.6983946 0.63859457 -0.60066473
0.54590577 0.11767611 -0.22960077 0.4369566 0.11020313 0.57131636 0.07730069 -0.22300251
0.18998805 -0.19175282 0.2975912 0.6313206 0.40874982 -0.30912766 0.40818775 0.12651995
0.35909358 -0.43098515 -0.69997096 -0.27319816 -0.54236704 0.5802086 0.2036689 0.2928932
0.22363041 -0.012300811 0.5533876 -0.502409 0.044522077 -0.4826288 0.21803778 -0.24351504
0.21666902 -0.14731967 0.5864686 -0.41910353 -0.42171705 -0.42174253 0.63600206 0.23564412
0.68041396 -0.58355844 -0.7013623 -0.5532147 -0.475663 0.28640664 0.25319785 0.58755225
-0.3651679 -0.48204303 0.3751754 -0.28581572 0.42915994 -0.16779688 0.40449753 -0.5493993
-0.35684127 0.2155802 0.1494877 -0.18028305 0.42148474 0.4806977 -0.512775 -0.37750182
0.6474708 -0.2386008 -0.25068092 -0.6841927 -0.404939 0.17663786 -0.09333327 -0.5132789
0.016586386 -0.48301154 -0.59990704 -0.38937727 -0.6188684 -0.4502418 0.7068302 0.13355476
0.21790181 -0.6595074 -0.4644092 -0.2353646 0.11057107 -0.62219834 -0.30467325 -0.4233226
0.0019595756 -0.2631167 -0.048999503 -0.47915655 -0.48535466 -0.41252735 -0.24204083 -0.5581059
0.5928877 -0.14033526 0.60839236 0.2203218 -0.59877586 0.48934278 -0.19455676 -0.27105245
-0.58694845 -0.7029777 0.20231077 -0.15446314 0.27529302 -0.5802967 0.5249767 -0.51905435
-0.12209849 0.14769317 0.36504513 0.5708546 0.6441454 -0.5606806 0.17795563 -0.30414498
-0.07748816 -0.5292624 0.6440743 -0.51898134 0.3779141 0.24850532 0.22977854 -0.3822946
0.64272577 0.155387 0.09096225 -0.6231412 0.29683527 -0.106080584 -0.32394278 0.6073669
0.1576486 -0.3912255 -0.35789427 -0.033768393 0.39482105 -0.18068969 -0.40345737 -0.24214368
-0.52826166 0.25217724 0.54732907 -0.6656988 0.16422604 0.36528555 0.12821923 -0.25181815
0.36906883 0.37159392 0.26440647 -0.124253795 -0.18724276 0.07564693 -0.12491331 -0.21071856
0.4519875 0.60768723 -0.0700017 -0.15831898 0.010318307 -0.0422201 0.16999644 0.19815509
-0.6422345 -0.26094908 0.59547544 0.27545696 -0.035169773 -0.42631873 -0.43261153 -0.6334028
-0.23049024 0.23879291 0.45086658 0.3264693 -0.6250428 -0.42522746 -0.111593224 0.6840194
0.10228829 -0.18311997 0.29254085 -0.26932392 -0.45767885 0.5161082 -0.3215227 -0.1417514
-0.70343286 0.4732458 0.5357286 0.25770378 -0.49304733 -0.69787186 -0.57429725 0.5272897
0.33948603 0.59503347 0.37043193 0.17896318 -0.006924474 -0.53775895 -0.6058294 -0.6613914
0.28946263 -0.34716678 -0.14230706 -0.40694365 -0.12885152 -0.49768642 -0.46203464 0.23455496
-0.21014957 0.43652755 -0.22684605 -0.5187104 -0.12476116 -0.34276816 -0.21633336 -0.6731625
0.3956198 -0.49229094 0.35540438 0.3208739 0.5051802 -0.5423877 0.5085489 -0.33428586
0.26238555 0.66405433 -0.09972458 -0.005468385 -0.1627976 -0.5904232 0.33934256 -0.7019575
0.43897182 0.529075 0.66871536 -0.16679202 -0.5809886 0.158979 0.3906251 -0.70378953
00000000: 2ae4 0ebf 50e7 a6be 0e76 4cbe 13af d9be
00000010: 6dae 883d fdc9 32bf ef7a 233f 2ac5 19bf
00000020: 7bc0 0b3f 2c00 f13d 771c 6bbe c7b8 df3e
00000030: 2eb2 e13d ca41 123f d34f 9e3d c55a 64be
00000040: 3a8c 423e da5a 44be e05d 983e 3a9e 213f
00000050: a847 d13e fb45 9ebe fcfd d03e 728e 013e
00000060: 1ddb b73e 16aa dcbe 4c31 33bf a1e0 8bbe
00000070: 91d8 0abf 8d88 143f 958e 503e 19f6 953e
00000080: 5fff 643e 5789 49bc cfaa 0d3f e09d 00bf
00000090: c85c 363d 1f1b f7be 4c45 5f3e 025c 79be
000000a0: 7cde 5d3e f8da 16be ce22 163f bd94 d6be
000000b0: 4ceb d7be a3ee d7be 08d1 223f b14c 713e
000000c0: 9c2f 2e3f 1664 15bf 7b8c 33bf 7b9f 0dbf
000000d0: 1a8a f3be e4a3 923e 26a3 813e d369 163f
000000e0: 49f7 babe 58ce f6be fd16 c03e 7056 92be
000000f0: daba db3e f2d2 2bbe 4d1a cf3e 6fa5 0cbf
00000100: e6b3 b6be 0ec1 5c3e 4e13 193e 1f9c 38be
00000110: d9cc d73e 021e f63e 3945 03bf eb47 c1be
00000120: a5c0 253f c553 74be 4059 80be 4127 2fbf
00000130: 2a54 cfbe 8ee0 343e 8325 bfbd 3f66 03bf
00000140: 2ce0 873c 4a4d f7be 8293 19bf 755c c7be
00000150: 296e 1ebf 1886 e6be d3f2 343f 94c2 083e
00000160: a721 5f3e 7ad5 28bf 0bc7 edbe 6b03 71be
00000170: 1673 e23d 6448 1fbf 22fe 9bbe bdbd d8be
00000180: 396c 003b 3bb7 86be b4b3 48bd 0254 f5be
00000190: 6880 f8be c936 d3be 8dd9 77be 07e0 0ebf
000001a0: 7dc7 173f 0cb4 0fbe 9abf 1b3f 0a9c 613e
000001b0: 6049 19bf 238b fa3e e339 47be 63c7 8abe
000001c0: 4142 16bf 59f6 33bf 8e2a 4f3e 962b 1ebe
000001d0: 35f3 8c3e 538e 14bf df64 063f bfe0 04bf
000001e0: c60e fabd e13c 173e 32e7 ba3e 8723 123f
000001f0: b7e6 243f c488 0fbf 003a 363e e4b8 9bbe
00000200: 1db2 9ebd be7d 07bf 0ee2 243f f6db 04bf
00000210: f57d c13e 2e78 7e3e 114b 6b3e 1ebc c3be
00000220: ad89 243f c51d 1f3e 6b4a ba3d 2f86 1fbf
00000230: cbfa 973e c740 d9bd d4db a5be 667c 1b3f
00000240: a26e 213e b54e c8be eb3d b7be ba50 0abd
00000250: fc25 ca3e b806 39be f791 cebe 83f4 77be
00000260: 283c 07bf 601d 813e c21d 0c3f 3d6b 2abf
00000270: df2a 283e b506 bb3e e74b 033e 4fee 80be
00000280: 97f6 bc3e 8f41 be3e 4960 873e c678 febd
00000290: 91bc 3fbe c7ec 9a3d 8dd2 ffbd 9bc6 57be
000002a0: e86a e73e 6491 1b3f 0d5d 8fbd 5f1e 22be
000002b0: 1e0e 293c fcee 2cbd 8c13 2e3e 2be9 4a3e
000002c0: 7b69 24bf 1e9b 85be 1471 183f b208 8d3e
000002d0: 2e0e 10bd 7346 dabe 427f ddbe b026 22bf
000002e0: a205 6cbe 2186 743e fcd7 e63e fc26 a73e
000002f0: ce02 20bf 6ab7 d9be fd8a e4bd e51b 2f3f
00000300: 867c d13d cd83 3bbe eac7 953e d3e4 89be
00000310: e254 eabe ab1f 043f a09e a4be 4727 11be
00000320: 2d14 34bf 464d f23e 8225 093f c0f1 833e
00000330: b370 fcbe bba7 32bf 2505 13bf 75fc 063f
00000340: 1dd1 ad3e 1d54 183f 41a9 bd3e 2042 373e
00000350: b3e6 e2bb 92aa 09bf a317 1bbf f250 29bf
00000360: 7234 943e d8bf b1be f1b8 11be eb5a d0be
00000370: a7f1 03be c1d0 febe ce8f ecbe 2d2f 703e
00000380: 7331 57be 8a80 df3e 554a 68be 34ca 04bf
00000390: c782 ffbd 4f7f afbe 7e86 5dbe 6154 2cbf
000003a0: ae8e ca3e 8f0d fcbe 90f7 b53e 9549 a43e
000003b0: 7d53 013f ecd9 0abf 4330 023f 8427 abbe
000003c0: 6657 863e 77ff 293f 673c ccbd 2330 b3bb
000003d0: 6ab4 26be fa25 17bf 4fbe ad3e 7db3 33bf
000003e0: eac0 e03e 7671 073f ee30 2b3f 87cb 2abe
000003f0: abbb 14bf 64cb 223e 0300 c83e 8d2b 34bf

layers.0.bias f4 [200]
0.568629 0.11470922 -0.12311667 -0.6549739 -0.25755566 0.18001921 0.3334227 -0.08939068
-0.27955666 0.39401832 -0.5631396 0.44690418 -0.2743255 0.010822552 -0.13973552 0.085728884
-0.21368654 0.5141564 -0.01838277 0.55196714 0.67986935 -0.34449604 -0.5158408 0.5673132
0.5540987 -0.5399095 -0.05466168 -0.69729656 -0.578837 0.13657239 0.18811487 0.14989324
-0.19244951 0.652361 0.101100676 -0.41725296 -0.040032003 0.1698083 0.24762361 -0.49998164
0.26501626 -0.36124787 -0.5875636 -0.38622698 0.6819404 0.60447574 0.6332031 0.4150796
0.5341835 -0.09464606 -0.38906986 0.35331053 -0.36641052 -0.4772022 -0.22580326 0.1483929
0.36401618 -0.27464664 -0.4161792 0.09538379 -0.4167922 -0.46036994 0.36858076 -0.11878305
0.64614356 0.68786114 0.21149954 0.24335624 0.1628352 0.011073915 -0.051429607 0.009718557
0.26405117 0.6574472 -0.18325314 -0.2989052 -0.17123641 -0.34162045 0.12023552 0.52781874
0.5529415 0.32465076 -0.52038217 -0.37950757 -0.15535943 -0.13033685 0.05815793 -0.6491039
0.22008325 -0.53943205 -0.44741803 -0.5878762 0.61611605 -0.66958755 0.5334178 -0.023770738
-0.082235664 0.44228008 -0.06535619 0.4434649 0.51124877 -0.61391723 0.27208337 0.13348691
0.15203623 0.10323154 0.1934156 -0.34016562 -0.09046804 0.67183626 0.4750693 -0.026564905
-0.66505575 0.030990914 -0.48152098 0.5750132 -0.4292756 -0.051054247 -0.15693715 0.12583236
0.665407 0.06718873 0.40953082 0.5488716 0.5708552 -0.24420035 -0.15814914 0.34078145
-0.19294658 0.33111262 -0.15448 -0.47959682 0.2878231 0.10841223 0.31526238 0.7025007
0.48276508 0.67032385 0.037846353 -0.6082621 -0.49605465 -0.43923616 -0.6231367 -0.3544355
-0.6509397 -0.6523875 -0.42253488 -0.6970898 -0.43403095 0.26962593 0.58976436 -0.21033798
-0.20568235 0.377562 -0.3488659 -0.3343431 0.43566936 -0.6161033 0.086461306 0.62464535
0.121259265 0.1922933 -0.41181272 -0.009755647 0.03887988 0.17354824 0.2747435 0.61442477
-0.53973424 0.021195734 -0.3532962 -0.55936664 -0.056623448 -0.62242144 0.49348927 0.08189343
-0.3811009 0.3695192 -0.66922563 -0.27350834 -0.13775764 -0.6008642 -0.44964096 -0.11541299
0.5365276 0.6828207 0.44990546 -0.42223042 -0.46260422 0.61708724 0.250116 0.0187862
0.09569425 -0.5682994 -0.23609264 0.6806738 -0.17439531 -0.035471376 -0.58713275 -0.39556056
00000000: ac91 113f abec ea3d 9824 fcbd 5fac 27bf
00000010: 56de 83be f556 383e 61b6 aa3e 7612 b7bd
00000020: 0d22 8fbe c5bc c93e eb29 10bf a0d0 e43e
00000030: 6474 8cbe 1351 313c d416 0fbe a092 af3d
00000040: a5d0 5abe c19f 033f 7697 96bc b84d 0d3f
00000050: eb0b 2e3f c961 b0be 250e 04bf 703b 113f
00000060: 6ad9 0d3f 8237 0abf ede4 5fbd 0782 32bf
00000070: a92e 14bf a2d9 0b3e 2fa1 403e 9d7d 193e
00000080: 7c11 45be 2101 273f df0d cf3d 2ea2 d5be
00000090: 99f8 23bd 3ae2 2d3e 0b91 7d3e 98fd ffbe
000000a0: 36b0 873e 7bf5 b8be 916a 16bf 8bbf c5be
000000b0: a593 2e3f ecbe 1a3f 9919 223f 5085 d43e
000000c0: 40c0 083f cbd5 c1bd 2a34 c7be 1ee5 b43e
000000d0: 299a bbbe d953 f4be f838 67be 4ff4 173e
000000e0: 5460 ba3e 7c9e 8cbe 7115 d5be 9458 c33d
000000f0: ca65 d5be 9cb5 ebbe 9eb6 bc3e 8744 f3bd
00000100: aa69 253f ab17 303f 5693 583e 6132 793e
00000110: 45be 263e 5e6f 353c daa7 52bd 953a 1f3c
00000120: b731 873e 764e 283f b6a6 3bbe 1a0a 99be
00000130: 9958 2fbe e0e8 aebe 0a3e f63d 211f 073f
00000140: 938d 0d3f a038 a63e c437 05bf d14e c2be
00000150: 8b16 1fbe 0677 05be 0237 6e3d ac2b 26bf
00000160: 815d 613e 3818 0abf fa13 e5be 0e7f 16bf
00000170: c8b9 1d3f 176a 2bbf 128e 083f daba c2bc
00000180: 2c6b a8bd 8972 e23e 77d9 85bd d50d e33e
00000190: 33e1 023f ae29 1dbf 834e 8b3e cbb0 083e
000001a0: 63af 1b3e 0f6b d33d bd0e 463e 302a aebe
000001b0: 4f47 b9bd 76fd 2b3f 493c f33e a59e d9bc
000001c0: 1841 2abf a8e0 fd3c eb89 f6be 1134 133f
000001d0: 03ca dbbe 421e 51bd 22b4 20be 33da 003e
000001e0: 1d58 2a3f 3f9a 893d 06ae d13e d982 0c3f
000001f0: 9123 123f a80f 7abe d9f1 21be e87a ae3e
00000200: ca93 45be 9887 a93e 0130 1ebe b78d f5be
00000210: 8d5d 933e 3b07 de3d 126a a13e 16d7 333f
00000220: fc2c f73e 589a 2b3f c704 1b3d 11b7 1bbf
00000230: e0fa fdbe 90e3 e0be e385 1fbf 9278 b5be
00000240: fca3 26bf de02 27bf 7e56 d8be 7a74 32bf
00000250: 4e39 debe 690c 8a3e ccfa 163f d762 57be
00000260: 659e 52be ce4f c13e 8d9e b2be 052f abbe
00000270: 0e10 df3e f2b8 1dbf a012 b13d c2e8 1f3f
00000280: c756 f83d 89e8 443e 1ed9 d2be 26d6 1fbc
00000290: 8240 1f3d a1b6 313e 2eab 8c3e f14a 1d3f
000002a0: 062c 0abf ada2 ad3c 3de3 b4be a732 0fbf
000002b0: fded 67bd 0357 1fbf a0aa fc3e beb7 a73d
000002c0: a81f c3be 9f31 bd3e 5f52 2bbf 4909 8cbe
000002d0: 5710 0dbe 3cd2 19bf 5737 e6be a55d ecbd
000002e0: df59 093f 56cd 2e3f 025a e63e 962e d8be
000002f0: 76da ecbe 6ef9 1d3f 340f 803e 84e5 993c
00000300: 59fb c33d 127c 11bf 45c2 71be a340 2e3f
00000310: af94 32be 6f4a 11bd 554e 16bf ea86 cabe

layers.2.weight f4 [1, 200]
-0.0014438836 -0.043922607 -0.008768804 0.02877636 -0.069167584 0.021001928 -0.04675448 -0.034510422
0.027146516 0.056223493 -0.01932584 -0.02903162 -0.06393913 -0.036462504 -0.061916884 -0.01618359
0.014428899 -0.06624712 0.06173845 0.044363234 -0.06922193 -0.033773754 0.023062656 -0.014528188
-0.007705801 -0.031926982 0.0567962 -0.039527144 0.05863873 0.0045624133 0.014214388 0.05516365
-0.011650688 -0.040258653 -0.011436337 0.05735014 -0.05246643 0.016049942 -0.06949385 0.03707376
0.026125316 0.002997585 0.03034854 7.9531106e-05 0.039127957 -0.055976026 -0.01038404 0.03136829
0.070414886 0.036019415 -0.051418997 0.054383364 -0.015768358 -0.015097752 -0.064269625 -0.011130874
0.050015558 0.009860239 -0.041185718 0.021765603 -0.022672983 0.06455843 -0.061373662 -0.022335773
-0.06827636 -0.027848 0.022291377 0.06806714 0.0118756 0.06932182 0.013834695 0.040837962
0.05668608 0.059108708 -0.039578445 0.06501069 0.04283409 -0.03306283 -0.033743374 -0.059308313
0.017758086 -0.05731449 0.029869936 0.02233027 -0.061433595 0.019268723 -0.005750938 0.032301895
0.040573053 -0.070296675 0.064848684 0.059300948 0.028134624 -0.064626805 -0.025259323 -0.020492584
-0.018172499 0.03987539 0.025708323 0.056015525 -0.026482789 0.023796955 0.025158517 -0.058873065
-0.06859076 -0.036691 0.04840483 -0.06657125 -0.061548967 0.039612163 0.03815046 0.05815195
-0.053382233 -0.05175313 0.036273636 0.061492145 0.04230895 0.011076977 0.023304451 0.0671134
-0.045622837 -0.032103483 0.049459785 -0.04838305 -0.03899076 0.051618166 0.02231078 0.022844503
-0.029970044 -0.0009758429 0.064716734 -0.04244197 0.00055594224 0.033629965 -0.04881556 0.068672575
-0.035327803 -0.016980182 -0.019132208 -0.046079244 -0.069385886 0.03987033 0.018785998 -0.06622768
-0.04551129 0.069888175 0.0270281 0.028372282 -0.042306066 -0.030999286 -0.01067407 -0.012931564
-0.048454378 0.0058254953 0.007027793 -0.008953458 0.00980275 -0.028026223 0.018402588 0.026667856
-0.037246075 -0.07011523 0.037012402 0.016867094 -0.0359626 0.06814402 -0.031978764 0.047782518
0.035873543 -0.059284408 0.04560424 -0.06501656 -0.039174754 -0.011788525 -0.047662288 0.06907796
-0.014183124 0.028085558 -0.06313841 0.040705767 -0.02197573 -0.05378758 0.010339525 0.034256622
0.061192818 -0.043189563 -0.03479703 0.01359504 0.019181065 0.027186295 0.03881134 -0.01603391
0.03928471 0.05213439 -0.018471152 0.050307628 0.03454779 0.062370554 -0.040183034 -0.03491757
00000000: b240 bdba 31e8 33bd 08ab 0fbc 67bc eb3c
00000010: bca7 8dbd 3c0c ac3c a081 3fbd cd5a 0dbd
00000020: 5f62 de3c 9b4a 663d 3951 9ebc b8d3 edbc
00000030: 85f2 82bd b559 15bd 8f9c 7dbd 7393 84bc
00000040: 3067 6c3c 92ac 87bd 75e1 7c3d 39b6 353d
00000050: 3ac4 8dbd 5956 0abd e5ed bc3c a307 6ebc
00000060: f280 fcbb dec5 02bd 22a3 683d 37e7 21bd
00000070: 2a2f 703d 4c80 953b 77e3 683c 48f3 613d
00000080: 87e2 3ebc 42e6 24bd 795f 3bbc fbe7 6a3d
00000090: 0ae7 56bd 2b7b 833c cb52 8ebd a8da 173d
000000a0: c204 d63c 2273 443b 809d f83c f0c9 a638
000000b0: a344 203d 1e47 65bd d221 2abc 097c 003d
000000c0: ae35 903d 1889 133d ba9c 52bd 17c1 5e3d
000000d0: a52c 81bc 905c 77bc cb9f 83bd 455e 36bc
000000e0: 1ddd 4c3d d78c 213c 5bb2 28bd c74d b23c
000000f0: b1bc b9bc 3637 843d f362 7bbd 83f9 b6bc
00000100: 7ad4 8bbd 7d21 e4bc 689c b63c c966 8b3d
00000110: e091 423c 99f8 8d3d ebaa 623c b545 273d
00000120: aa2f 683d f91b 723d 021d 22bd 5324 853d
00000130: cc72 2f3d e46c 07bd 7e36 0abd 46ed 72bd
00000140: 6879 913c 99c2 6abd ccb1 f43c f8ed b63c
00000150: cba1 7bbd 71d9 9d3c 5d72 bcbb fe4e 043d
00000160: ee2f 263d b4f7 8fbd 63cf 843d 8de5 723d
00000170: 957a e63c 0f5b 84bd a4ec cebc 10e0 a7bc
00000180: 7ede 94bc 6054 233d 439a d23c 8970 653d
00000190: 6ff2 d8bc d5f1 c23c 3c19 ce3c e224 71bd
000001a0: 5079 8cbd 4d49 16bd 2544 463d 8256 88bd
000001b0: c51a 7cbd 5d40 223d a843 1c3d bd30 6e3d
000001c0: 54a7 5abd 17fb 53bd aa93 143d 30df 7b3d
000001d0: 264c 2d3d 357c 353c fae8 be3c c072 893d
000001e0: 03df 3abd f17e 03bd 5896 4a3d 4e2d 46bd
000001f0: c6b4 1fbd 926d 533d 19c5 b63c 6524 bb3c
00000200: bd83 f5bc b5cf 7fba 358a 843d a2d7 2dbd
00000210: a7bc 113a 93bf 093d d3f2 47bd 35a4 8c3d
00000220: e3b3 10bd 061a 8bbc 26bb 9cbc 97bd 3cbd
00000230: 301a 8ebd 124f 233d 18e5 993c 61a2 87bd
00000240: 0c6a 3abd 8821 8f3d 096a dd3c fd6c e83c
00000250: 2049 2dbd 37f2 fdbc 4be2 2ebc e9de 53bc
00000260: 1978 46bd cce3 be3b 6749 e63b 86b1 12bc
00000270: b79b 203c 4097 e5bc 06c1 963c 8c76 da3c
00000280: 578f 18bd 9398 8fbd 519a 173d dc2c 8a3c
00000290: 854d 13bd 188f 8b3d 2afc 02bd 9ab7 433d
000002a0: 23f0 123d 35d4 72bd 83cb 3a3d 6727 85bd
000002b0: b575 20bd a824 41bc 8839 43bd bf78 8d3d
000002c0: 5560 68bc af13 e63c b64e 81bd 17bb 263d
000002d0: 7206 b4bc 5e50 5cbd 1c67 293c ac50 0c3d
000002e0: 52a5 7a3d 8ae7 30bd 5587 0ebd bbbd 5e3c
000002f0: 9c21 9d3c cbb5 de3c a4f8 1e3d 8c59 83bc
00000300: 01e9 203d df8a 553d d050 97bc 5f0f 4e3d
00000310: fc81 0d3d 4478 7f3d f796 24bd ba05 0fbd
