trees/save/0.5_3_50/models/model.pth (torch, 14520 bytes, 12 tensors)

node_factors.weight f4 [26, 1]
00000000: 264f 103c 466e 73bd 323a 45bd 5344 98bd
00000010: c9cb 77bd 2f36 8cbd 88b5 7fbd 89da 62bd
00000020: 125a 74bd 4218 8ebd 9860 89bd 0cf3 66bd
00000030: 2720 56bd 1804 6ebd bcda 93bd edca 66bd
00000040: 8abc 73bd 9416 90bd e0a8 3dbd 406f 4bbd
00000050: 5467 85bd 64df a8bd 2279 80bd 35a1 25bd
00000060: a384 85bd 48b8 87bd
0.008807933 -0.059431337 -0.048151202 -0.07434907 -0.06049708 -0.06846272 -0.06242898 -0.055384193
-0.05965621 -0.069382206 -0.06707877 -0.05638413 -0.052276757 -0.058109373 -0.07219455 -0.05634587
-0.059505977 -0.070355564 -0.04630363 -0.049666643 -0.06513849 -0.082457334 -0.06273104 -0.040436942
-0.06519439 -0.06626946

layers.0.weight f4 [200, 2]
00000000: 5ecc 93be ffca 98bd 121a 9f3d bf94 013f
00000010: bf3d 26bf 0460 0cbf 20d2 11bf 8a02 0ebf
00000020: 76e9 993d 568e ee3e 0335 d03d 5df0 5f3e
00000030: f931 923d a195 b1bc a2d8 23bf a96f 213f
00000040: 1bcb 2e3f 0bf6 83bb f2b2 023e aaf0 053e
00000050: 0dfc 323f 10b0 b0ba eb04 eebd cbf1 c4be
00000060: 0010 3b3e d9c1 a63e ad08 2ebf 36da 1e3e
00000070: 12af 343e ae72 a03e 9f93 a93e 2868 3dbe
00000080: fb27 2a3e 414e d7be 1f0b b53e 0784 29bf
00000090: 99b0 0dbf 77c8 e8be 49d2 c9be 8d85 f13c
000000a0: 5191 c13e 4ff0 39be 93df 013f b669 ecbd
000000b0: ec5a 193f 49a7 f93e be45 b93e a3e7 4d3e
000000c0: f2a3 f3be c73b 313f 6621 2cbf 4e91 fdbe
000000d0: b783 02bf db72 8bbe 2da3 653e 0682 783d
000000e0: aaa7 1bbf 3d9f 2e3f 13bf 293f 8764 b23e
000000f0: ec2a 31bf 0413 ca3e 68b0 eb3d 4d89 34be
00000100: 75cc 2cbf 0c2a 033f 7326 97be b293 28bf
00000110: aad9 eb3e fe92 403e a9f8 543e 82c9 e93e
00000120: 1906 7c3e 3174 1dbe 6999 fbbd 8a86 153f
00000130: aeb3 bdbc 0812 17bf d2f5 f9be 6e7e 08bf
00000140: d76e 0e3e 0a52 173f f140 f13e 7c93 743e
00000150: 96ca 193e b783 d8be 4948 293f 43f5 893e
00000160: f9fc e3be dbf9 f0be 7f07 22bf 44d2 4dbe
00000170: 3f49 043f 52e5 293d f725 d6be c3af e13d
00000180: c387 e9be c6de 7e3e c7be 083f d614 cc3e
00000190: 5b42 5cbe 4125 76be 113d 973e 2ab9 db3e
000001a0: ebba d5bd 688c 8f3d 522f a3bd c40b aabd
000001b0: 015f 36bf 9edb 2bbf f789 053f 87c7 dabe
000001c0: efb9 053f 566b e03e 9414 dcbd 9ef7 aebe
000001d0: 403a 74bd fc9a 55be e69b d6be 90cc 2f3f
000001e0: 8995 64bd ca72 debd d58f 0fbf 457a f33c
000001f0: 6e86 c83d a759 323f 9e64 5fbe ca6e cb3e
00000200: 3b5c 0c3d 9207 c03e 0e79 75bb 5ab7 07be
00000210: f2fa a43e 3d1d 88be 775e fe3e b326 05bf
00000220: 17a7 01bf 834f 2c3f 8a4e 88be cdce 0fbf
00000230: 615b 19bf 7c75 193f a975 39be 7c09 2ebf
00000240: 6e91 d0bd 6654 b0be b3b9 09bf 0290 cfbe
00000250: fcfc 083f 8ce8 913e 49de a73e f4a6 f2bc
00000260: b44b 88be f886 82be 412d 02bf 7a20 0abf
00000270: 32f0 1bbf 9586 003e 2ace bd3e b996 133f
00000280: 0cd0 253d a6b7 29bd d091 11be 097e 443e
00000290: 7a2d e5bd 8133 7ebe 23c5 8dbe 8d80 46bf
000002a0: db48 0bbf f7d4 9abe 062f 8c3d 6c31 e3be
000002b0: a488 8a3e 8cd4 c5be d1fb 2e3f 38d6 1fbf
000002c0: f0d3 9d3e 782e e9be b841 80be 5fe0 28bf
000002d0: 2002 3dbf c753 41bf 2d52 5ebc ed95 263f
000002e0: 8b02 743e 2425 b53e c8fb 213e 15c2 8bbe
000002f0: a3df 8cbe 1ce7 56be c3f9 28bf 31d4 c63e
00000300: 031e 97be 3dbc f9be ee48 b83d 67be b4bd
00000310: c7b7 c43e e7e1 ecbe c2ab 333f bafc 8fbe
00000320: 5834 3d3e 1ed6 0e3f f6bf f7bd eead 33bf
00000330: ab3f 46bf 1486 1e3f 8c6a 3ebf 0be7 b1be
00000340: 0cb7 f63e 92ac 0cbf 57aa 333f 193f e93d
00000350: 574f 0c3e cad3 ce3c f718 9f3d 0f02 cb3e
00000360: 9506 32bf 7507 883d 35b5 a3be 632b 2b3f
00000370: 8dbe 153f 6f17 8ebe 1024 9f3e d34e 52be
00000380: 93de be3e da9e 4cbe 12ad d3be 5f9c 983e
00000390: 2f21 883e 1997 0c3f d466 8d3e 06f9 84be
000003a0: c5ff 523e 6475 943d a9c3 0d3f 7b3e 6f3e
000003b0: bf42 1a3f 8ff1 563d 7b1b 09bf 379b e7be
000003c0: 274e 233f d0fa 213f 90a9 8e3e d4ed debe
000003d0: 9428 043f f80c 963e 03b5 0ebf 3552 523e
000003e0: ee51 2e3f 7ce9 eebe dc70 ee3d 05fd 883e
000003f0: 8260 acbe 2f5b c23e 9394 0b3f 2d06 1a3f
-0.28866857 -0.074605934 0.077686444 0.50617594 -0.6493797 -0.5483401 -0.5696125 -0.55472624
0.07515232 0.4659297 0.10166361 0.21869035 0.07138438 -0.021677794 -0.6400243 0.63061005
0.68278664 -0.0040271333 0.12763575 0.13080087 0.6991585 -0.0013480205 -0.11622032 -0.38465723
0.18267822 0.3256977 -0.6798199 0.15512928 0.17644909 0.31337494 0.33120438 -0.18496764
0.16616814 -0.4205189 0.35360047 -0.6621708 -0.5534759 -0.45465443 -0.39418247 0.029482627
0.3780618 -0.18158077 0.5073177 -0.115436 0.5990436 0.4876044 0.36186022 0.20107894
-0.47586018 0.6923184 -0.6723846 -0.4952492 -0.5098223 -0.27236065 0.22425528 0.060670875
-0.6080271 0.6821173 0.6630718 0.3484232 -0.6920612 0.39467633 0.11508256 -0.17630501
-0.67499477 0.51236033 -0.29521522 -0.65850365 0.46064502 0.18806073 0.20797981 0.4566155
0.24611701 -0.15376355 -0.1228512 0.58408415 -0.023156967 -0.5901189 -0.4882036 -0.53317916
0.1390947 0.59109557 0.4711986 0.23884386 0.15018687 -0.4228799 0.66125923 0.26944932
-0.4452894 -0.47065625 -0.6329269 -0.20099741 0.51674265 0.041478463 -0.4182584 0.11019852
-0.4561139 0.24889669 0.53416103 0.39859647 -0.21509688 -0.24037649 0.29538777 0.42914706
-0.104360424 0.07009202 -0.0796801 -0.08303025 -0.71238714 -0.67131984 0.5216364 -0.42730352
0.5223684 0.4383189 -0.107461125 -0.34173292 -0.059625864 -0.20859903 -0.41915816 0.6867151
-0.05580667 -0.10861738 -0.56078845 0.029721389 0.097912654 0.6966805 -0.21815726 0.39732963
0.034267645 0.37505776 -0.0037456187 -0.13253537 0.32222706 -0.26584807 0.49681446 -0.52012175
-0.50645584 0.67308825 -0.2662242 -0.5617493 -0.5990506 0.5994489 -0.1811129 -0.6798322
-0.101839885 -0.3443939 -0.5379898 -0.40539557 0.53511024 0.28497732 0.32786778 -0.029620625
-0.26620257 -0.25493598 -0.508503 -0.53955805 -0.60913384 0.12551339 0.37071353 0.5765186
0.040481612 -0.041434906 -0.1421578 0.19188704 -0.111903146 -0.24824335 -0.27689466 -0.775399
-0.54408044 -0.30240604 0.068449065 -0.44373643 0.27057374 -0.38638723 0.6835299 -0.62436247
0.30825758 -0.45543265 -0.2505014 -0.65967363 -0.7383137 -0.7551846 -0.013569397 0.6507252
0.23829095 0.353799 0.15818703 -0.2729651 -0.2751437 -0.20986599 -0.66006106 0.38833764
-0.29515085 -0.48776427 0.08998285 -0.08825379 0.3842146 -0.462661 0.70183957 -0.28122503
0.18476999 0.55795467 -0.120971605 -0.7018727 -0.774409 0.61923337 -0.7438133 -0.34746584
0.4818653 -0.5495082 0.7018179 0.11388988 0.13702141 0.025247473 0.077684335 0.39650008
-0.69541293 0.06642047 -0.31974187 0.6686308 0.5849388 -0.27752253 0.310822 -0.20537882
0.37279186 -0.19982472 -0.4134298 0.29806802 0.26587817 0.54918057 0.27617514 -0.2597124
0.20605381 0.07248953 0.5537668 0.23363678 0.60258096 0.052476462 -0.53557557 -0.45235607
0.63791126 0.63273335 0.2786374 -0.43540823 0.5162442 0.2930677 -0.5574495 0.20539172
0.68093765 -0.4666251 0.1164262 0.2675554 -0.3366738 0.37960193 0.5452358 0.60165673

layers.0.bias f4 [200]
00000000: 487d 0a3e 7836 dfbe 08f2 02be 03fd 01bf
00000010: 8d8d 933e 84dd 8c3e 530a ca3e 45f9 05bf
00000020: 3986 c9be 6351 dcbe 7b1a 16bf 4cd8 28bf
00000030: 7801 12bf ddba 0c3f 7872 5abe 1f95 05be
00000040: 3c4a 2e3e 71ea 623e bcfb 8d3e a8a0 ffbe
00000050: b8fb 313f ce61 67bd d1eb abbe f33c 043f
00000060: d081 16bf 8bd1 d7be 6966 e83e 4b5e a83e
00000070: 0a61 8fbe 6676 67bd d33c 04be 7381 bb3e
00000080: 7590 4a3e f5ab a23e 8c49 253f 50ff f8be
00000090: 383f 0bbf a8c7 2bbe badc a4be e7bb 00bf
000000a0: 6301 1d3f 191d 0e3f a1bf 223f 4bfb debe
000000b0: 1a3e abbd 9ed8 0cbf 8989 82be 136d 253f
000000c0: 9f0f 653d f120 563e 04f2 33bf 929a 873e
000000d0: 6fd3 de3e f405 8bbe e359 1a3f 6348 c13e
000000e0: 722c 04bf 2eb2 07bf 57fa 833d 3f99 2ebf
000000f0: ff01 fdbe 8c18 a93e bb3c 6ebe fd41 cdbc
00000100: 2dec 93be cf0a df3e dcb3 0b3f bdf9 ef3e
00000110: a7f9 20bf fd11 56be 005e cb3e 0ccc f13e
00000120: 5648 22be 7fdf cf3e 1843 abbc 2625 103e
00000130: 3196 e33e 9a51 f03e 8c96 ffbe 49cc dbbe
00000140: 91a5 593e c2c2 f63e 7398 28be b553 2e3f
00000150: 0ed4 a6bd 8198 b7be 92d1 93bd 8512 1abf
00000160: c192 923e ae6c 26bf 4d9f 363f 4b5a 09bf
00000170: 6a27 073f c3c7 07bf 470d d3bd 1b80 c8be
00000180: 599c d93e ea3b f33e d845 29bf 7967 1bbf
00000190: 356c 163e b451 6a3d 20b8 a13d ffb8 893e
000001a0: a61a 0fbe 0c02 103f bc67 d63d 21c9 a6be
000001b0: 7173 9a3e 6a72 0cbf 2d25 adbe 63f1 843e
000001c0: efe3 97be 58d1 2cbf 373e d33e c61e 153e
000001d0: 92cb 323e 372c 843e fe9f 32bf 4fb9 9dbe
000001e0: d7dd afbe 35e0 223f e486 98be dcd7 edbe
000001f0: 3e22 7ebe b64e ee3c f0ad ad3e 12a2 133f
00000200: 4b11 113f d0fc 0b3d ab1e 393f ac06 dc3e
00000210: deeb aa3e 8b39 1bbf e174 723c 24c9 19be
00000220: c107 2cbf 36cb b2be 4fe3 173f 0739 5d3e
00000230: 3586 353f e772 033f 7540 b1bb fde0 303f
00000240: 57dc db3d 26b8 d4bd 06d1 9abe 62e9 d33e
00000250: 821a 8c3e 4f79 0b3f 9492 fbbd c388 27bf
00000260: c7dc ad3d bc30 0c3e 05a8 ebbe 5c31 693e
00000270: 3944 afbd affd 143f 6c82 ec3d 78ce b2be
00000280: e324 1f3f 6a5b a43d c237 f3bd 2af0 a03e
00000290: 3f90 253f 4c77 923e 98c6 993d 2c44 273f
000002a0: 03c6 9ebe 60da 143f 3a46 cebe e1f3 8c3d
000002b0: b13a 333f f330 ac3e c4be 17be 92b7 fa3e
000002c0: 60e8 c23e 8c2b 23bf 4c67 a1bd e575 0ebf
000002d0: 9512 1cbe 5807 d2bd ded4 90be 1852 84be
000002e0: 5186 b13e 0608 acbc 2c1c 34bf bc76 393e
000002f0: 7d05 32bf 095e f8be 5a9d cd3e 16dc 003f
00000300: a873 80be 0ed6 dbbe 02bc bf3e 0fec 2cbf
00000310: af3a fc3e 8f5d 0a3f 7fa1 823e 5b28 8c3e
0.13524354 -0.43596244 -0.1278764 -0.5077669 0.28818932 0.27512753 0.39461002 -0.5233348
-0.39360216 -0.43030843 -0.58634156 -0.6595504 -0.5703349 0.5497263 -0.21332729 -0.13045166
0.17020506 0.22159745 0.2773112 -0.49927258 0.6952472 -0.05648976 -0.3357835 0.516555
-0.5879183 -0.42152056 0.45390633 0.3288444 -0.28003722 -0.056509398 -0.12913828 0.366222
0.19781668 0.31771818 0.6456535 -0.48632288 -0.5439334 -0.16775382 -0.3219965 -0.50286716
0.6133024 0.5551315 0.6357365 -0.43551096 -0.08361454 -0.5501803 -0.25495556 0.6461956
0.0559231 0.20911004 -0.7029116 0.26485115 0.43520686 -0.2715298 0.60293406 0.3775054
-0.5163032 -0.53006256 0.06444233 -0.68202585 -0.49415585 0.3302654 -0.23265354 -0.02505588
-0.28891125 0.43562934 0.5457132 0.46870223 -0.6288094 -0.209053 0.39720154 0.47225988
-0.15847906 0.406002 -0.020906016 0.14076671 0.44450524 0.46937257 -0.49919546 -0.42929295
0.21254565 0.48195463 -0.16464405 0.68096477 -0.08145915 -0.3585854 -0.07217707 -0.6018451
0.2862759 -0.6500958 0.71336824 -0.536534 0.52794516 -0.5303919 -0.10305267 -0.39160237
0.42502096 0.47506648 -0.661222 -0.6070476 0.14689715 0.057206824 0.07896447 0.26898953
-0.1397501 0.56253123 0.104690045 -0.32575324 0.301662 -0.5486208 -0.33817425 0.25965413
-0.29666087 -0.67506933 0.41258404 0.1456252 0.17460468 0.25814983 -0.6977538 -0.30805442
-0.34348938 0.6362336 -0.29790413 -0.4645375 -0.2481775 0.029090267 0.33921766 0.57669175
0.5666701 0.034176648 0.7231242 0.4297384 0.33383077 -0.6063468 0.014798374 -0.15018135
-0.6719933 -0.34920663 0.5933122 0.21603785 0.7090791 0.513472 -0.005409295 0.69093305
0.10735386 -0.10386686 -0.30237597 0.41388994 0.27363974 0.5448198 -0.12283817 -0.65443057
0.084893756 0.13690466 -0.46026626 0.22772735 -0.08557934 0.5819959 0.115483135 -0.34923148
0.6216566 0.08025248 -0.11875869 0.3143323 0.6467323 0.2860664 0.07508582 0.653384
-0.31010446 0.58145714 -0.40287954 0.06882454 0.7001143 0.33631095 -0.14818865 0.48968178
0.38067913 -0.6373832 -0.078810304 -0.5564864 -0.15241463 -0.10255307 -0.28287405 -0.25843883
0.34672788 -0.02099992 -0.70355487 0.181117 -0.69539624 -0.48509243 0.40159112 0.50335824
-0.2508824 -0.42936748 0.37448126 -0.67547697 0.49263522 0.5404901 0.25513837 0.2737454

layers.2.weight f4 [1, 200]
00000000: 6358 08bd 07d7 5dbd 06d4 e7bc e0a8 3a3d
00000010: 9419 483c 084d 42bd bd3c f5bc d03c 89bd
00000020: 3948 4c3d 4d8c 28bd 151f 1bbd efc4 8e3d
00000030: 92e7 a5bc 6b56 afbd 6838 1f3c 870c 643d
00000040: 79ff 853c c58a 30bd 0ac0 82ba 0060 4e3d
00000050: b94e 7abd 7ca8 64bd e521 f93a e3c8 95bd
00000060: 75d1 ca3c f005 54bd df38 c8bd c3a3 d2bd
00000070: f67b 58bd 691d 5c3d 912c 90bd 72ae 58bd
00000080: b2e6 c2bd 7d24 a6bd d619 8ebd b5c1 073d
00000090: 4495 423d 7f37 82bc 95fa 163b acb7 4bba
000000a0: d428 863c a98a 85bc b4b2 83bd b0f3 433d
000000b0: a5a8 69bd 9e61 e53c 3e79 603d 5ab2 b0bd
000000c0: 5004 a3bc 4d7c 60bc 48c7 72bd 2d2a d9bc
000000d0: 7afe a93b 0598 d43b 3b44 83bd fba2 9ebd
000000e0: 760f 40bd d28c 8c3c 3c4d 0dbe f9b3 77bd
000000f0: db68 d1bc edda f0bd 4f1b 873d 287c babc
00000100: efd9 19bd 5548 fabc 0b7f 92bc dd2f a23b
00000110: c2a7 e9bc d442 4abc ae4a d3bd 9775 e5bd
00000120: 59d2 fbbc 9c8e 29bd de74 0fbd 85e1 91bd
00000130: 8841 babc 2058 0dbd 448d 323d dca0 053d
00000140: 7525 2abc 425c b0bd 4236 1b3d 2304 e8bd
00000150: 2a3a b23c 4481 36bd 29d0 9f3c 6060 84bd
00000160: ce8e 7fbd b7fd 313d 991f afbd 6623 333d
00000170: 4262 76bd 7cbd 873d 9b51 883d b6bc 2abd
00000180: 9d7d 89bd d25f 83bd bad4 dabc 7e3f be3c
00000190: bfec e8bd 32a4 fabd 2603 b8bd 396b ebbd
000001a0: 0b96 8abd 8c56 9abc 81cd e6bd 0a43 403d
000001b0: 2dac bcbd 8aa1 b8bb 657c 2e3d 9f77 f5bd
000001c0: 86de 8cbd 86cd 403b 4e01 9fbd 3df6 66bc
000001d0: 9f98 b5bc 1d10 1cbd e33e d93c 1e92 773d
000001e0: 0ab6 373c 85ac e3ba 9027 23bd d46d 6e3d
000001f0: 98d1 4dbc 6a09 5ebb af86 debd f99b babd
00000200: a730 bbbd 7c5d 343a 8e0e 54bd 11ee e9bd
00000210: 81f7 b63c 6dd8 963c 46de 843c b77d 103c
00000220: 9eee 253c 3295 503d f578 c8bd bd0e ab3c
00000230: bfd8 c1bd bc13 2ebd f833 3cbd 1dc6 c4bd
00000240: 16a1 f13b 8ddb 98bc 303c 59bc 2917 fd3b
00000250: 64aa a93c be2c e8bd a0a2 a1ba 0844 a53c
00000260: ef27 ad3c 01f4 b0bd 705a bcbc 263b bfbd
00000270: cbe0 933c f751 00bd 60ac 84bd 92cb eabb
00000280: d587 cabd 683f b2bd ad1c dcbc d257 f6bc
00000290: efc6 8bbc f384 65bc 33a2 e9bd ec63 62bd
000002a0: e4e6 5cbc 0bfc b23c bbd1 503d 0552 f6bd
000002b0: b01b b5bd 5622 d3bd 43d8 90bc aaf1 e5bd
000002c0: b7f6 66bc b03c ffbc 193c 11bd 21d2 5a3b
000002d0: 11ec b8bc 5998 143d 3c28 833d f42f 81bd
000002e0: 329d 80bc 7c38 c13a 73e2 173d 5c3a a1bd
000002f0: 7847 afbb df37 adba 20cf c1bc ad50 4fbc
00000300: 61b7 e13c f20e 0e3c 8970 dbbd 8a3b 26bd
00000310: c7ee b9bd b573 f5bd d1ce 9e3c 01d0 a7bd
-0.033287417 -0.054160144 -0.028299343 0.045571208 0.01221313 -0.047436744 -0.029936189 -0.06701052
0.049873564 -0.041149426 -0.03787144 0.06971156 -0.020252023 -0.08561405 0.009718038 0.05567601
0.01635717 -0.04310109 -0.0009975445 0.05038452 -0.061110232 -0.05582474 0.0019007294 -0.07313707
0.02475808 -0.051763475 -0.09776472 -0.10285141 -0.052852593 0.053738985 -0.0703975 -0.05290074
-0.09516658 -0.08112428 -0.069385216 0.033143718 0.047505632 -0.015895603 0.0023037542 -0.00077712047
0.01637689 -0.01630147 -0.06430569 0.04783982 -0.057045598 0.028000649 0.054803126 -0.08627768
-0.019899517 -0.013701511 -0.05927208 -0.026509369 0.0051878067 0.0064878487 -0.06409498 -0.0774593
-0.046889745 0.017156992 -0.13798994 -0.06047437 -0.025562694 -0.11760507 0.065970056 -0.02276428
-0.037561353 -0.030552069 -0.017882844 0.0049495534 -0.028522376 -0.012345035 -0.103169784 -0.11204069
-0.03073995 -0.04139577 -0.035023563 -0.071230926 -0.022736326 -0.03450787 0.043591753 0.03262411
-0.010384907 -0.08611347 0.03789354 -0.11328914 0.02175625 -0.04455687 0.019508438 -0.064636946
-0.06239205 0.043454852 -0.08550949 0.04373493 -0.0601523 0.06627938 0.0665619 -0.041683875
-0.06713412 -0.06414761 -0.026712764 0.023223635 -0.11373281 -0.12238349 -0.089849755 -0.114950605
-0.067669 -0.018840097 -0.112696655 0.046938933 -0.092125274 -0.0056344913 0.0425991 -0.119857065
-0.068783805 0.0029419377 -0.07763921 -0.014096794 -0.022167502 -0.038101304 0.026519245 0.060442083
0.011212835 -0.001737014 -0.03983265 0.05821021 -0.012562178 -0.0033880123 -0.108655326 -0.09111781
-0.09140139 0.00068803853 -0.051771693 -0.11422361 0.022334816 0.018413747 0.01621927 0.008819035
0.010127692 0.050923534 -0.09788696 0.020881051 -0.09465169 -0.04249929 -0.045948 -0.096080996
0.0073739393 -0.018659377 -0.013258979 0.007723708 0.020711131 -0.11336659 -0.0012331791 0.020174041
0.021137206 -0.0864029 -0.022992343 -0.093374535 0.018051526 -0.031328168 -0.064781904 -0.0071653808
-0.09889189 -0.087035 -0.026869142 -0.030071173 -0.017062632 -0.014008748 -0.1140789 -0.055271074
-0.013482783 0.0218487 0.050981265 -0.12027363 -0.088431716 -0.103092834 -0.017681247 -0.112277344
-0.014096907 -0.031156868 -0.035457704 0.0033389407 -0.022573503 0.036278103 0.064041585 -0.063079745
-0.015699957 0.0014741565 0.037081193 -0.07872459 -0.005349096 -0.0013215503 -0.023658335 -0.012653512
0.027553262 0.008670555 -0.10714824 -0.040584125 -0.09078746 -0.1198496 0.019385727 -0.081939705

grad_avg f4 [26, 1]
00000000: 0000 0000 64f9 713e 29bf 553e 6da2 3b3e
00000010: 3811 533e f57a 813e 19c1 9e3e 227c 3a3e
00000020: 564a 4e3e 350b 903e 5706 623e ef35 8a3e
00000030: 728d 803e 4791 9f3e c483 4a3e fb62 9e3e
00000040: dcd2 833e 4247 5e3e 477a e33d f312 af3e
00000050: 847a ad3e 68da 9d3e d749 453e 59ef f73c
00000060: b455 153e fcb6 913e
0.0 0.23630291 0.20873703 0.1832368 0.20612037 0.2528912 0.31006697 0.18211415
0.20145544 0.2813355 0.22072731 0.26994273 0.25107914 0.31165525 0.19776827 0.3093489
0.2574681 0.2170687 0.11107307 0.34194145 0.33882535 0.30830693 0.19266449 0.030265497
0.14583474 0.28459918

sqr_avg f4 [26, 1]
00000000: 0000 0000 ae94 013d 49a1 9b3c b181 c73c
00000010: 62c6 133d 082b 423d c4ba 853d 58b6 f23c
00000020: dffd 203d d1f5 4f3d f31d 3f3d 1717 8c3d
00000030: 6f7f 5c3d d315 953d 755c 3f3d 131f b73d
00000040: cf0e ae3d b199 863d dbb3 c43c 33dd ce3d
00000050: 7984 cb3d 3ac3 ef3d 8e5a 3c3d 0e11 d53c
00000060: d1c1 333d 396f f03d
0.0 0.031635933 0.018997805 0.024353834 0.036077864 0.04740432 0.06529763 0.029627964
0.03930461 0.05077154 0.04665942 0.068403415 0.053832468 0.07279553 0.046719033 0.08941474
0.08498918 0.06572283 0.024011543 0.10100784 0.099373765 0.117071584 0.045984797 0.026009109
0.04388601 0.11739964

grad_avg f4 [200, 2]
00000000: 9335 8d3b 933c 8a3b 0000 0000 0000 0000
00000010: 0000 0000 0000 0000 0000 0000 0000 0000
00000020: 7616 ddbb 1de8 dcbb 7d3e f83b d64c f43b
00000030: 7c0b 643b 668d 5e3b 0000 0000 0000 0000
00000040: 0000 0000 0000 0000 0000 0000 0000 0000
00000050: 0000 0000 0000 0000 0000 0000 0000 0000
00000060: 0000 0000 0000 0000 4b67 8a3c 07c0 883c
00000070: 0000 0000 0000 0000 0000 0000 0000 0000
00000080: 3c72 00bc 9135 00bc 6d7c d63b 92d8 d23b
00000090: 72f1 75bb 3b65 77bb 0000 0000 0000 0000
000000a0: 65ae 333c cc39 313c 0000 0000 0000 0000
000000b0: 0000 0000 0000 0000 5765 643c 5f85 613c
000000c0: 0000 0000 0000 0000 0000 0000 0000 0000
000000d0: ac50 a23c 7773 a03c 045a ad3c d465 ab3c
000000e0: 0000 0000 0000 0000 0000 0000 0000 0000
000000f0: 0000 0000 0000 0000 ea62 103c 9a38 0e3c
00000100: b8c3 9b3c 9ff2 993c 426c 7f3c 2247 7c3c
00000110: 7c91 553c dad2 523c 0000 0000 0000 0000
00000120: 0000 0000 0000 0000 0000 0000 0000 0000
00000130: 0000 0000 0000 0000 0000 0000 0000 0000
00000140: 22c1 00bc 5584 00bc 811d 3039 f201 ed38
00000150: c5c7 3f3c fa36 3d3c 0000 0000 0000 0000
00000160: 0000 0000 0000 0000 0000 0000 0000 0000
00000170: 0000 0000 0000 0000 3116 8c3c d46b 8a3c
00000180: e0f8 a23a 00c2 9a3a 4e79 71b9 73d1 92b9
00000190: 0000 0000 0000 0000 b80c 383b c604 333b
000001a0: 0ad6 a8bb 5223 a9bb 0000 0000 0000 0000
000001b0: 7b23 3d3c 4695 3a3c 2758 743c 4052 713c
000001c0: 0000 0000 0000 0000 0000 0000 0000 0000
000001d0: 2e36 dc3c e9ad d93c 0000 0000 0000 0000
000001e0: 0000 0000 0000 0000 5ad3 c93c da9d c73c
000001f0: 0000 0000 0000 0000 0000 0000 0000 0000
00000200: 0000 0000 0000 0000 baf7 6b3b 5f64 663b
00000210: d701 033a 4c7e e739 adfc a6bb 294e a7bb
00000220: 0000 0000 0000 0000 0000 0000 0000 0000
00000230: d4cc ad3c 46d7 ab3c dc08 bf3c 04ec bc3c
00000240: 0000 0000 0000 0000 ca2e c83b e1a6 c43b
00000250: 0000 0000 0000 0000 39d4 563c f407 543c
00000260: 3b41 d73a cc48 ce3a d949 923b 293b 8f3b
00000270: 0000 0000 0000 0000 0000 0000 0000 0000
00000280: 8a4c a4ba ceda a9ba 8bc6 8b3c e71c 8a3c
00000290: 0000 0000 0000 0000 e0f8 c13c 4bd6 bf3c
000002a0: 0000 0000 0000 0000 0000 0000 0000 0000
000002b0: 0000 0000 0000 0000 0000 0000 0000 0000
000002c0: a5ae 353c 0530 333c 0000 0000 0000 0000
000002d0: e5e7 893c 3741 883c 0000 0000 0000 0000
000002e0: 291f 303c 05b3 2d3c 0000 0000 0000 0000
000002f0: 0000 0000 0000 0000 0000 0000 0000 0000
00000300: d504 493c b15b 463c d9f9 3e3c 8f6a 3c3c
00000310: 0000 0000 0000 0000 0000 0000 0000 0000
00000320: 0c7c c33c 4557 c13c ca9b 9f3c e39e 9e3c
00000330: cc32 653c 65c4 5f3c ecf0 c23c dec7 c03c
00000340: 0000 0000 0000 0000 317b 513a 64a9 413a
00000350: d997 bc3c 9879 ba3c 0000 0000 0000 0000
00000360: 0f2b 963c 4f67 943c 0000 0000 0000 0000
00000370: 0000 0000 0000 0000 58ec ce3c 99ac cc3c
00000380: 0000 0000 0000 0000 0000 0000 0000 0000
00000390: 5ae6 763c 19de 733c 1040 90b9 02a5 aab9
000003a0: df75 e43a f09b db3a d8c7 b83b 3777 b53b
000003b0: 0000 0000 0000 0000 0000 0000 0000 0000
000003c0: 0000 0000 0000 0000 077a 64bb ad0a 66bb
000003d0: 0000 0000 0000 0000 0000 0000 0000 0000
000003e0: 0000 0000 0000 0000 cffb 0dbb b0db 0fbb
000003f0: 07b0 b83c 15a2 b63c d0de 963c 771e 953c
0.004309365 0.004218647 0.0 0.0 0.0 0.0 0.0 0.0
-0.0067470623 -0.0067415372 0.0075758086 0.0074554486 0.0034796884 0.0033958792 0.0 0.0
0.0 0.0 0.0 0.0 0.0 0.0 0.0 0.0
0.0 0.0 0.016894957 0.016693128 0.0 0.0 0.0 0.0
-0.007839736 -0.007825271 0.0065455944 0.0064345086 -0.0037527946 -0.0037749547 0.0 0.0
0.010966872 0.0108170025 0.0 0.0 0.0 0.0 0.013940177 0.013764708
0.0 0.0 0.0 0.0 0.019813858 0.019586308 0.021161087 0.020922579
0.0 0.0 0.0 0.0 0.0 0.0 0.008812645 0.008680487
0.019014224 0.018792449 0.0155897755 0.015397819 0.013035174 0.012867654 0.0 0.0
0.0 0.0 0.0 0.0 0.0 0.0 0.0 0.0
-0.007858546 -0.00784405 0.00016795659 0.00011301403 0.011705344 0.011548752 0.0 0.0
0.0 0.0 0.0 0.0 0.0 0.0 0.017100425 0.01689712
0.001243379 0.0011807084 -0.0002302874 -0.00028003342 0.0 0.0 0.0028083753 0.0027316078
-0.0051524686 -0.005161681 0.0 0.0 0.011544104 0.011388129 0.014913595 0.014729083
0.0 0.0 0.0 0.0 0.026881304 0.026572185 0.0 0.0
0.0 0.0 0.024636913 0.024367262 0.0 0.0 0.0 0.0
0.0 0.0 0.003600581 0.003515504 0.00049975276 0.00044153852 -0.0050960393 -0.005105753
0.0 0.0 0.0 0.0 0.021215834 0.020976674 0.023319654 0.02306176
0.0 0.0 0.0061090933 0.006001339 0.0 0.0 0.013112121 0.012941349
0.0016422638 0.0015738248 0.0044643697 0.004371066 0.0 0.0 0.0 0.0
-0.0012535017 -0.0012958886 0.017062446 0.016859485 0.0 0.0 0.023678243 0.023417613
0.0 0.0 0.0 0.0 0.0 0.0 0.0 0.0
0.011089002 0.010936742 0.0 0.0 0.016834209 0.01663266 0.0 0.0
0.010749617 0.010601764 0.0 0.0 0.0 0.0 0.0 0.0
0.012269218 0.012106822 0.011656248 0.011500015 0.0 0.0 0.0 0.0
0.023862861 0.023601184 0.019483466 0.019362872 0.013989162 0.013657664 0.023796521 0.023532804
0.0 0.0 0.0007991074 0.0007387607 0.023021625 0.022763059 0.0 0.0
0.018331079 0.018115668 0.0 0.0 0.0 0.0 0.025259182 0.024984645
0.0 0.0 0.0 0.0 0.0150695685 0.014884495 -0.0002751355 -0.00032547867
0.0017430148 0.0016754847 0.0056390576 0.005537893 0.0 0.0 0.0 0.0
0.0 0.0 -0.0034862773 -0.0035101578 0.0 0.0 0.0 0.0
0.0 0.0 -0.0021664982 -0.0021951012 0.022544874 0.022294084 0.018416792 0.018203003

sqr_avg f4 [200, 2]
00000000: 6632 8636 9111 8436 0000 0000 0000 0000
00000010: 0000 0000 0000 0000 0000 0000 0000 0000
00000020: b6ac 2638 916f 2a38 6963 5d37 115e 5737
00000030: 42f5 4e36 68d7 4f36 0000 0000 0000 0000
00000040: 0000 0000 0000 0000 0000 0000 0000 0000
00000050: 0000 0000 0000 0000 0000 0000 0000 0000
00000060: 0000 0000 0000 0000 9571 bb38 bbca b838
00000070: 0000 0000 0000 0000 0000 0000 0000 0000
00000080: 80e4 4e38 a313 5338 6ac0 1c37 8053 1837
00000090: 29e5 ab37 9b7c b137 0000 0000 0000 0000
000000a0: 6415 0838 7739 0538 0000 0000 0000 0000
000000b0: 0000 0000 0000 0000 c23d 7138 4c2e 6d38
000000c0: 0000 0000 0000 0000 0000 0000 0000 0000
000000d0: f577 0639 66d4 0439 39b0 1c39 47ea 1a39
000000e0: 0000 0000 0000 0000 0000 0000 0000 0000
000000f0: 0000 0000 0000 0000 f235 9e37 5337 9a37
00000100: b202 f338 9fe0 ef38 63ce 9938 b467 9738
00000110: e825 4e38 3a75 4a38 0000 0000 0000 0000
00000120: 0000 0000 0000 0000 0000 0000 0000 0000
00000130: 0000 0000 0000 0000 0000 0000 0000 0000
00000140: 89f8 4f38 472c 5438 0764 af36 55b9 b936
00000150: 7c9b 1e38 6072 1b38 0000 0000 0000 0000
00000160: 0000 0000 0000 0000 0000 0000 0000 0000
00000170: 0000 0000 0000 0000 ef2b c138 837b be38
00000180: 43e6 5736 1b42 6536 5077 be36 9767 c936
00000190: 0000 0000 0000 0000 4a4e 3236 f8b7 3636
000001a0: 49e1 ef37 ff63 f637 0000 0000 0000 0000
000001b0: b32b 1838 fd10 1538 1d85 8c38 4c48 8a38
000001c0: 0000 0000 0000 0000 0000 0000 0000 0000
000001d0: dd25 7139 8556 6e39 0000 0000 0000 0000
000001e0: 0000 0000 0000 0000 2ac3 5a39 b698 5839
000001f0: 0000 0000 0000 0000 0000 0000 0000 0000
00000200: 0000 0000 0000 0000 854b 5636 8787 5636
00000210: 4ed6 9c36 324e a636 1bcc ec37 e044 f337
00000220: 0000 0000 0000 0000 0000 0000 0000 0000
00000230: 8c6f 1d39 7ea7 1b39 5ef4 4139 3cf0 3f39
00000240: 0000 0000 0000 0000 a952 0537 8e96 0137
00000250: 0000 0000 0000 0000 3ef1 4b38 ff2c 4838
00000260: b614 5836 aa56 6436 a9b6 8e36 d050 8c36
00000270: 0000 0000 0000 0000 0000 0000 0000 0000
00000280: 7c60 1637 7d98 1d37 c236 c038 7988 bd38
00000290: 0000 0000 0000 0000 0a12 4939 8205 4739
000002a0: 0000 0000 0000 0000 0000 0000 0000 0000
000002b0: 0000 0000 0000 0000 0000 0000 0000 0000
000002c0: 92c1 0938 0bd6 0638 0000 0000 0000 0000
000002d0: 6c8a b938 a8e5 b638 0000 0000 0000 0000
000002e0: cadc 0138 0f2f fe37 0000 0000 0000 0000
000002f0: 0000 0000 0000 0000 0000 0000 0000 0000
00000300: a4de 2f38 8a77 2c38 c6e7 1c38 9ac3 1938
00000310: 0000 0000 0000 0000 0000 0000 0000 0000
00000320: db2e 4d39 b21f 4b39 f332 c738 d55f c838
00000330: 15cc 3e38 4bc7 3638 d608 4939 28f0 4639
00000340: 0000 0000 0000 0000 cbd3 8836 0a44 9136
00000350: 910c 3939 b203 3739 0000 0000 0000 0000
00000360: 0e31 e038 dc36 dd38 0000 0000 0000 0000
00000370: 0000 0000 0000 0000 85cc 6739 f392 6539
00000380: 0000 0000 0000 0000 0000 0000 0000 0000
00000390: fcef 9038 c2ad 8e38 955e ca36 5fc1 d536
000003a0: 42c2 4036 4e7b 4b36 3290 e436 a245 de36
000003b0: 0000 0000 0000 0000 0000 0000 0000 0000
000003c0: 0000 0000 0000 0000 97a5 9d37 20fa a237
000003d0: 0000 0000 0000 0000 0000 0000 0000 0000
000003e0: 0000 0000 0000 0000 b510 2c37 3d76 3337
000003f0: 5445 3439 4e58 3239 8762 e638 b170 e338
3.9993784e-06 3.9359516e-06 0.0 0.0 0.0 0.0 0.0 0.0
3.9738334e-05 4.0635063e-05 1.3195772e-05 1.28369e-05 3.083915e-06 3.0970787e-06 0.0 0.0
0.0 0.0 0.0 0.0 0.0 0.0 0.0 0.0
0.0 0.0 8.938011e-05 8.811565e-05 0.0 0.0 0.0 0.0
4.9327035e-05 5.032461e-05 9.3431245e-06 9.079347e-06 2.04915e-05 2.1158068e-05 0.0 0.0
3.244485e-05 3.176319e-05 0.0 0.0 0.0 0.0 5.7516394e-05 5.654832e-05
0.0 0.0 0.0 0.0 0.00012823923 0.00012667626 0.00014942967 0.0001477386
0.0 0.0 0.0 0.0 0.0 0.0 1.8860188e-05 1.8383993e-05
0.00011587645 0.00011438247 7.334051e-05 7.219557e-05 4.914953e-05 4.826973e-05 0.0 0.0
0.0 0.0 0.0 0.0 0.0 0.0 0.0 0.0
4.9584112e-05 5.0585975e-05 5.227051e-06 5.535005e-06 3.781494e-05 3.70614e-05 0.0 0.0
0.0 0.0 0.0 0.0 0.0 0.0 9.2111404e-05 9.082912e-05
3.2171527e-06 3.4162138e-06 5.676331e-06 6.0023262e-06 0.0 0.0 2.6569637e-06 2.7227197e-06
2.8595927e-05 2.937205e-05 0.0 0.0 3.6280322e-05 3.554019e-05 6.7005145e-05 6.593819e-05
0.0 0.0 0.0 0.0 0.00022997656 0.0002272968 0.0 0.0
0.0 0.0 0.00020862804 0.00020656254 0.0 0.0 0.0 0.0
0.0 0.0 3.1932443e-06 3.1967372e-06 4.6741106e-06 4.9562886e-06 2.8228436e-05 2.899993e-05
0.0 0.0 0.0 0.0 0.00015014241 0.00014844348 0.00018496948 0.00018304674
0.0 0.0 7.946664e-06 7.724053e-06 0.0 0.0 4.8623646e-05 4.772562e-05
3.2198564e-06 3.4025093e-06 4.253194e-06 4.181733e-06 0.0 0.0 0.0 0.0
8.963161e-06 9.393433e-06 9.165473e-05 9.037642e-05 0.0 0.0 0.00019175574 0.0001898017
0.0 0.0 0.0 0.0 0.0 0.0 0.0 0.0
3.284362e-05 3.2147433e-05 0.0 0.0 8.8472705e-05 8.721213e-05 0.0 0.0
3.0961623e-05 3.0301073e-05 0.0 0.0 0.0 0.0 0.0 0.0
4.19306e-05 4.1119325e-05 3.7409154e-05 3.666021e-05 0.0 0.0 0.0 0.0
0.00019567779 0.00019371396 9.4985495e-05 9.554593e-05 4.5489596e-05 4.3577787e-05 0.00019172145 0.00018972217
0.0 0.0 4.077772e-06 4.3292575e-06 0.00017647656 0.00017453617 0.0 0.0
0.000106902895 0.000105483196 0.0 0.0 0.0 0.0 0.00022106066 0.00021893885
0.0 0.0 0.0 0.0 6.911156e-05 6.8034526e-05 6.03108e-06 6.370406e-06
2.8723302e-06 3.032113e-06 6.811716e-06 6.624222e-06 0.0 0.0 0.0 0.0
0.0 0.0 1.8792967e-05 1.9428378e-05 0.0 0.0 0.0 0.0
0.0 0.0 1.0255889e-05 1.0696761e-05 0.00017191964 0.00017008299 0.00010985607 0.00010845194

grad_avg f4 [200]
00000000: adeb 90bd 0000 0000 0000 0000 0000 0000
00000010: 83c6 c13e 98c8 4dbe 0eff 14bd 0000 0000
00000020: 0000 0000 0000 0000 0000 0000 0000 0000
00000030: 0000 0000 5e2e 14bf 0000 0000 0000 0000
00000040: 6019 d93e 9e9e 23be 4b30 853e 0000 0000
00000050: 396d adbe 0000 0000 0000 0000 fb91 ebbe
00000060: 0000 0000 0000 0000 565f 32bf 38c9 40bf
00000070: 0000 0000 0000 0000 0000 0000 5212 7fbe
00000080: e46f 29bf 7fd3 05bf 9ed1 d8be 0000 0000
00000090: 0000 0000 0000 0000 0000 0000 0000 0000
000000a0: f3a1 d93e 17e7 c83d ec7a bcbe 0000 0000
000000b0: 0000 0000 0000 0000 0000 0000 2f7b 16bf
000000c0: d00c 513d f4c7 e23d 0000 0000 a252 3dbc
000000d0: e880 a13e 0000 0000 904d b8be 6338 ffbe
000000e0: 0000 0000 0000 0000 e470 71bf 0000 0000
000000f0: 0000 0000 5779 64bf 0000 0000 0000 0000
00000100: 0000 0000 6f4e 27bd 6de6 ae3d 4d57 a03e
00000110: 0000 0000 0000 0000 2344 41bf afec 56bf
00000120: 0000 0000 1e70 10be 0000 0000 c0ba d7be
00000130: e103 223d 5490 98bd 0000 0000 0000 0000
00000140: 0433 1f3e 7b18 16bf 0000 0000 29db 5abf
00000150: 0000 0000 0000 0000 0000 0000 0000 0000
00000160: 5295 aebe 0000 0000 b36a 13bf 0000 0000
00000170: f209 a9be 0000 0000 0000 0000 0000 0000
00000180: e845 c7be 5963 bbbe 0000 0000 0000 0000
00000190: 5e11 5dbf 1f42 04bf f1d6 cabe 9502 5bbf
000001a0: 0000 0000 e802 943d 551f 52bf 0000 0000
000001b0: d68c 22bf 0000 0000 0000 0000 3039 6bbf
000001c0: 0000 0000 0000 0000 2da6 01bf a6a2 ea3d
000001d0: bf3d 023d e822 02be 0000 0000 0000 0000
000001e0: 0000 0000 4309 7e3e 0000 0000 0000 0000
000001f0: 0000 0000 42d4 383e 760e 4fbf a0ae 24bf
00000200: 22be 22bf 38ea 2c3e 016e 7abe a65d 5ebf
00000210: e738 f43e 0000 0000 a818 dc3e 0000 0000
00000220: 0000 0000 0000 0000 05c1 33bf da81 e83e
00000230: 93a8 2cbf 9a2b 1fbe 0000 0000 1d33 30bf
00000240: 8efb a73e 0000 0000 0000 0000 6e86 ab3e
00000250: bfe8 f13e daac 5bbf 0000 0000 0000 0000
00000260: 622a ed3e 3b2d 06bf 0000 0000 9f13 24bf
00000270: 0000 0000 609e 39bd b179 88be 0000 0000
00000280: 538b 36bf a81b 08bf 0000 0000 1c9e 09bd
00000290: 1e3c bf3d 293d ea3d 573d 49bf 0d8a 8dbe
000002a0: 0000 0000 a92b f83e 0000 0000 10a2 4abf
000002b0: 21fb 1bbf ac40 41bf 0000 0000 2e50 57bf
000002c0: 7124 ed3d 0000 0000 0000 0000 0000 0000
000002d0: 0000 0000 a3f4 ee3a 0000 0000 0000 0000
000002e0: 7a8d cd3d 0000 0000 0000 0000 892a fcbe
000002f0: 0000 0000 0000 0000 e280 ca3c 6ac4 093e
00000300: 0000 0000 0000 0000 2892 49bf 0000 0000
00000310: 7337 20bf 66a3 6cbf ae4d ea3e 63b7 0abf
-0.070762016 0.0 0.0 0.0 0.37846765 -0.20096052 -0.03637605 0.0
0.0 0.0 0.0 0.0 0.0 -0.5788325 0.0 0.0
0.42402172 -0.15978476 0.26013407 0.0 -0.33872393 0.0 0.0 -0.46009812
0.0 0.0 -0.6967672 -0.75307035 0.0 0.0 0.0 -0.24909332
-0.66186357 -0.5227584 -0.42347425 0.0 0.0 0.0 0.0 0.0
0.4250637 0.09809702 -0.36812532 0.0 0.0 0.0 0.0 -0.58781713
0.05103761 0.11073294 0.0 -0.011555346 0.3154366 0.0 -0.35996675 -0.49847707
0.0 0.0 -0.9431288 0.0 0.0 -0.8924765 0.0 0.0
0.0 -0.040846284 0.08540044 0.31316605 0.0 0.0 -0.75494593 -0.839549
0.0 -0.1410527 0.0 -0.42134666 0.03955448 -0.074494034 0.0 0.0
0.15546805 -0.58631104 0.0 -0.8549066 0.0 0.0 0.0 0.0
-0.34098297 0.0 -0.57584685 0.0 -0.330154 0.0 0.0 0.0
-0.38920522 -0.36599234 0.0 0.0 -0.86354625 -0.5166339 -0.39617112 -0.85550815
0.0 0.07227117 -0.8207906 0.0 -0.6349615 0.0 0.0 -0.91884136
0.0 0.0 -0.5064419 0.11456804 0.031797167 -0.12708628 0.0 0.0
0.0 0.2480822 0.0 0.0 0.0 0.1804972 -0.8088144 -0.64328957
-0.6357137 0.16886222 -0.24456026 -0.86861646 0.47699663 0.0 0.4298756 0.0
0.0 0.0 -0.702164 0.4541157 -0.67444724 -0.15543976 0.0 -0.6882799
0.32809108 0.0 0.0 0.33501 0.47247884 -0.85810626 0.0 0.0
0.46321398 -0.52412766 0.0 -0.6409244 0.0 -0.045317054 -0.26655343 0.0
-0.7130634 -0.531672 0.0 -0.03359805 0.09337638 0.114374466 -0.7860922 -0.27644387
0.0 0.4847081 0.0 -0.7915354 -0.6093007 -0.75489306 0.0 -0.8410672
0.11579216 0.0 0.0 0.0 0.0 0.0018230866 0.0 0.0
0.1003675 0.0 0.0 -0.49251202 0.0 0.0 0.02471966 0.13453832
0.0 0.0 -0.7873864 0.0 -0.6258461 -0.92436826 0.4576239 -0.54186076

sqr_avg f4 [200]
00000000: e0ec 423d 0000 0000 0000 0000 0000 0000
00000010: 84c0 843f 9360 953c 63c0 9a3d 0000 0000
00000020: 0000 0000 0000 0000 0000 0000 0000 0000
00000030: 0000 0000 133e 143f 0000 0000 0000 0000
00000040: f524 9c3f dd16 7e3c fc8d 273f 0000 0000
00000050: 04aa e23d 0000 0000 0000 0000 fcf0 993e
00000060: 0000 0000 0000 0000 5b79 733f 51c7 953f
00000070: 0000 0000 0000 0000 0000 0000 19a5 0e3d
00000080: 744b 523f 933a da3e 07d2 6e3e 0000 0000
00000090: 0000 0000 0000 0000 0000 0000 0000 0000
000000a0: 74df 9c3f b6ca 843e ddd0 153e 0000 0000
000000b0: 0000 0000 0000 0000 0000 0000 de35 1b3f
000000c0: dcb1 323e 87aa 8c3e 0000 0000 ea6c c63d
000000d0: 0a79 523f 0000 0000 0da4 083e 9bd4 c13e
000000e0: 0000 0000 0000 0000 9355 e63f 0000 0000
000000f0: 0000 0000 58d4 e33f 0000 0000 0000 0000
00000100: 0000 0000 449b 933d cf1b 743e c091 503f
00000110: 0000 0000 0000 0000 cc87 963f 5c31 c43f
00000120: 0000 0000 5517 983c 0000 0000 0347 613e
00000130: bf86 2a3e e0b2 423d 0000 0000 0000 0000
00000140: 9ea1 bf3e 0126 1a3f 0000 0000 8dc6 cd3f
00000150: 0000 0000 0000 0000 0000 0000 0000 0000
00000160: 2454 e13d 0000 0000 22b9 113f 0000 0000
00000170: 81c3 cf3d 0000 0000 0000 0000 0000 0000
00000180: 6e40 313e acb7 123e 0000 0000 0000 0000
00000190: 4abf d33f 60ff 033e db9f c63d 164c cb3f
000001a0: 0000 0000 083d 5b3e 4b2f b53f 0000 0000
000001b0: 5cda 3c3f 0000 0000 0000 0000 4780 f53f
000001c0: 0000 0000 0000 0000 d320 cd3e efc3 923e
000001d0: b7dd 183e ea93 a23c 0000 0000 0000 0000
000001e0: 0000 0000 4c81 1d3f 0000 0000 0000 0000
000001f0: 0000 0000 b5a8 cb3e 9f2a b33f 0815 483f
00000200: 9859 3f3f 623b c13e 9783 083d b0db d63f
00000210: 7ecd b73f 0000 0000 1437 a03f 0000 0000
00000220: 0000 0000 0000 0000 0398 793f 75ac a93f
00000230: 07b7 613f 686d 833c 0000 0000 6af8 6d3f
00000240: 8ec4 5a3f 0000 0000 0000 0000 b0e3 613f
00000250: 7b4a b73f 1620 d03f 0000 0000 0000 0000
00000260: 93b5 af3f bc19 ca3e 0000 0000 9c25 403f
00000270: 0000 0000 09b2 8d3d e792 033d 0000 0000
00000280: b107 823f c4fe d33e 0000 0000 1485 a23d
00000290: 0445 813e 905c 923e f3c3 9a3f 2932 553d
000002a0: 0000 0000 0c70 be3f 0000 0000 8a3d 933f
000002b0: c844 2b3f 659e 963f 0000 0000 c9ee c43f
000002c0: 3b88 943e 0000 0000 0000 0000 0000 0000
000002d0: 0000 0000 3605 8935 0000 0000 0000 0000
000002e0: c9c1 853e 0000 0000 0000 0000 1f20 b53e
000002f0: 0000 0000 0000 0000 c6de 123e 7d4a a93e
00000300: 0000 0000 0000 0000 9a66 a63f 0000 0000
00000310: 0691 363f d838 fa3f c7ba ae3f de30 f63e
0.047589183 0.0 0.0 0.0 1.0371251 0.018234527 0.07556226 0.0
0.0 0.0 0.0 0.0 0.0 0.5790722 0.0 0.0
1.2198778 0.015508381 0.65451026 0.0 0.11067584 0.0 0.0 0.3006667
0.0 0.0 0.9510705 1.1701452 0.0 0.0 0.0 0.03482542
0.8214638 0.42622814 0.23322307 0.0 0.0 0.0 0.0 0.0
1.2255692 0.25935906 0.14630456 0.0 0.0 0.0 0.0 0.6062907
0.1745066 0.27473852 0.0 0.096887425 0.8221594 0.0 0.1334383 0.37857518
0.0 0.0 1.7994865 0.0 0.0 1.7799177 0.0 0.0
0.0 0.07207349 0.23838733 0.81472397 0.0 0.0 1.1760192 1.5327563
0.0 0.018565813 0.0 0.21999745 0.16652964 0.04753387 0.0 0.0
0.37427992 0.6021424 0.0 1.6076218 0.0 0.0 0.0 0.0
0.11002377 0.0 0.56923115 0.0 0.10144711 0.0 0.0 0.0
0.17309734 0.14327878 0.0 0.0 1.6542752 0.12890387 0.09698459 1.5882595
0.0 0.2141 1.4155058 0.0 0.7377069 0.0 0.0 1.9179772
0.0 0.0 0.40064105 0.2866511 0.14928328 0.019845922 0.0 0.0
0.0 0.61525416 0.0 0.0 0.0 0.3977715 1.3997382 0.7815709
0.74746084 0.37740618 0.03332862 1.6785793 1.4359586 0.0 1.2516809 0.0
0.0 0.0 0.97497576 1.3255755 0.881699 0.01604338 0.0 0.92957175
0.8545617 0.0 0.0 0.8823805 1.4319605 1.6259792 0.0 0.0
1.3727287 0.3947276 0.0 0.7505739 0.0 0.06918723 0.03212252 0.0
1.0158597 0.41405308 0.0 0.07935539 0.25247967 0.28586245 1.2091049 0.05204979
0.0 1.4877944 0.0 1.1503155 0.66901827 1.1767088 0.0 1.5385371
0.29010186 0.0 0.0 0.0 0.0 1.0208812e-06 0.0 0.0
0.2612441 0.0 0.0 0.3537607 0.0 0.0 0.14342794 0.33064643
0.0 0.0 1.3000062 0.0 0.7131504 1.9548597 1.365075 0.48084158

grad_avg f4 [1, 200]
00000000: 2c21 b83f 0000 0000 0000 0000 0000 0000
00000010: 04ad 3e40 d8f7 0940 6a4a 7f40 0000 0000
00000020: 0000 0000 0000 0000 0000 0000 0000 0000
00000030: 0000 0000 b094 a840 0000 0000 0000 0000
00000040: 7dd6 ff3f d19b f73f cff0 4e40 0000 0000
00000050: 2f0c cf40 0000 0000 0000 0000 60bb 9440
00000060: 0000 0000 0000 0000 4f63 8c40 db7e 3840
00000070: 0000 0000 0000 0000 0000 0000 066d 4a40
00000080: ad8e d63f ccdd 4240 b7f3 bc40 0000 0000
00000090: 0000 0000 0000 0000 0000 0000 0000 0000
000000a0: a8d6 c540 f462 b140 2936 c040 0000 0000
000000b0: 0000 0000 0000 0000 0000 0000 f0bd c540
000000c0: 7d67 423f 9a9b 0240 0000 0000 d6d9 2340
000000d0: c28e 9240 0000 0000 4b3e be40 7670 5840
000000e0: 0000 0000 0000 0000 5f3c c23e 0000 0000
000000f0: 0000 0000 9bb7 4640 0000 0000 0000 0000
00000100: 0000 0000 73ff 8d40 4348 b340 1f1f 9d40
00000110: 0000 0000 0000 0000 5db5 6840 002c 9340
00000120: 0000 0000 2d45 8140 0000 0000 9f03 723f
00000130: af9a 9640 77f8 9d40 0000 0000 0000 0000
00000140: d95f 1440 2e78 8e40 0000 0000 0b5e d740
00000150: 0000 0000 0000 0000 0000 0000 0000 0000
00000160: 4b0c 1e40 0000 0000 e55f e440 0000 0000
00000170: a55e 9640 0000 0000 0000 0000 0000 0000
00000180: c828 8140 e0b7 8a40 0000 0000 0000 0000
00000190: f259 763f 39db 973e bd60 b23e b825 2840
000001a0: 0000 0000 2580 b240 9c78 2d3f 0000 0000
000001b0: 9fb6 3440 0000 0000 0000 0000 5aad 0f40
000001c0: 0000 0000 0000 0000 7dd5 6340 20de d03f
000001d0: 76ba e73f 88e6 0b40 0000 0000 0000 0000
000001e0: 0000 0000 3c61 d340 0000 0000 0000 0000
000001f0: 0000 0000 f6d4 cd3e 8032 4340 e664 a440
00000200: 9513 b040 4d66 953e 36d9 d540 f5ea 7840
00000210: f68a 5440 0000 0000 02b5 143f 0000 0000
00000220: 0000 0000 0000 0000 a822 b740 f41b 0740
00000230: 6fcb d540 111d 9c40 0000 0000 c2a2 d040
00000240: e08e a93f 0000 0000 0000 0000 2e2b 8540
00000250: ad74 4640 4310 a540 0000 0000 0000 0000
00000260: 538a 8e3f f6a5 ac3f 0000 0000 275d 0540
00000270: 0000 0000 d17c c040 f761 4b3f 0000 0000
00000280: 265d bf40 b8fc ba3e 0000 0000 c47c 5640
00000290: 0afa d140 d497 3640 2a79 c93e 045b c540
000002a0: 0000 0000 96d6 c440 0000 0000 3e5b cc3e
000002b0: d825 d840 7073 3e40 0000 0000 c560 9a40
000002c0: 74e4 7040 0000 0000 0000 0000 0000 0000
000002d0: 0000 0000 7584 2f39 0000 0000 0000 0000
000002e0: 2e5a 5e40 0000 0000 0000 0000 388d bf3f
000002f0: 0000 0000 0000 0000 a423 8240 153c a240
00000300: 0000 0000 0000 0000 dd58 6740 0000 0000
00000310: 0359 9b40 52d1 a140 47fa 3740 bd0f 1440
1.4385123 0.0 0.0 0.0 2.97931 2.1557522 3.9889169 0.0
0.0 0.0 0.0 0.0 0.0 5.2681503 0.0 0.0
1.9987332 1.9344426 3.2334478 0.0 6.4702373 0.0 0.0 4.647873
0.0 0.0 4.3871226 2.8827426 0.0 0.0 0.0 3.1629043
1.6762291 3.0447874 5.9047503 0.0 0.0 0.0 0.0 0.0
6.182453 5.5433292 6.0066113 0.0 0.0 0.0 0.0 6.1794357
0.7593916 2.0407472 0.0 2.5601707 4.5799265 0.0 5.945104 3.381864
0.0 0.0 0.37936684 0.0 0.0 3.1049564 0.0 0.0
0.0 4.437433 5.602571 4.910049 0.0 0.0 3.6360695 4.599121
0.0 4.0396943 0.0 0.94536775 4.7063823 4.93658 0.0 0.0
2.31835 4.4521704 0.0 6.73023 0.0 0.0 0.0 0.0
2.4695003 0.0 7.136706 0.0 4.6990533 0.0 0.0 0.0
4.036228 4.3349457 0.0 0.0 0.96230996 0.2965944 0.3483943 2.6273022
0.0 5.5781426 0.6776216 0.0 2.8236463 0.0 0.0 2.2449555
0.0 0.0 3.5599053 1.6317787 1.8103778 2.1859455 0.0 0.0
0.0 6.6056194 0.0 0.0 0.0 0.4020154 3.0499573 5.1373167
5.5023904 0.29179612 6.682765 3.8893406 3.3209815 0.0 0.58088696 0.0
0.0 0.0 5.7229805 2.1110811 6.681083 4.878548 0.0 6.519868
1.3246727 0.0 0.0 4.161521 3.1008713 5.158235 0.0 0.0
1.1135963 1.3488147 0.0 2.0838106 0.0 6.0152364 0.7944636 0.0
5.9801207 0.36520934 0.0 3.351365 6.5617723 2.8530169 0.39350253 6.1673603
0.0 6.1511946 0.0 0.39913362 6.7546196 2.9757957 0.0 4.8243127
3.7639437 0.0 0.0 0.0 0.0 0.00016738645 0.0 0.0
3.4742541 0.0 0.0 1.4964972 0.0 0.0 4.0668507 5.069834
0.0 0.0 3.6147988 0.0 4.8546157 5.056802 2.8746507 2.3134606

sqr_avg f4 [1, 200]
00000000: b8f6 ec40 0000 0000 0000 0000 0000 0000
00000010: bb41 0f42 1920 6541 969a 6842 0000 0000
00000020: 0000 0000 0000 0000 0000 0000 0000 0000
00000030: 0000 0000 1c6a aa42 0000 0000 0000 0000
00000040: 30e0 7141 78bd 3941 fcc3 0a42 0000 0000
00000050: 5073 0843 0000 0000 0000 0000 a058 8f42
00000060: 0000 0000 0000 0000 2925 6242 20cc d141
00000070: 0000 0000 0000 0000 0000 0000 4356 ea41
00000080: dff8 eb40 c736 c541 2714 ea42 0000 0000
00000090: 0000 0000 0000 0000 0000 0000 0000 0000
000000a0: 039d 0f43 a841 e842 3871 e342 0000 0000
000000b0: 0000 0000 0000 0000 0000 0000 a0ea f142
000000c0: bde0 1e40 092f 9941 0000 0000 c561 db41
000000d0: eaac 9842 0000 0000 fedf cd42 0742 0e42
000000e0: 0000 0000 0000 0000 46d5 d73d 0000 0000
000000f0: 0000 0000 4fb7 db41 0000 0000 0000 0000
00000100: 0000 0000 65a8 8c42 b2d7 e242 c034 af42
00000110: 0000 0000 0000 0000 7f1c 2442 173a 7942
00000120: 0000 0000 a86b 4d42 0000 0000 98f1 1140
00000130: e2e5 9942 d637 a042 0000 0000 0000 0000
00000140: b9d6 a541 4a86 7b42 0000 0000 de89 0a43
00000150: 0000 0000 0000 0000 0000 0000 0000 0000
00000160: 39f0 8941 0000 0000 2e7a 1843 0000 0000
00000170: b5c0 9142 0000 0000 0000 0000 0000 0000
00000180: def9 3a42 12fa 6a42 0000 0000 0000 0000
00000190: 689e 3f40 d699 ae3c 6a20 703d d260 8a41
000001a0: 0000 0000 e5ab ec42 478e 7f3f 0000 0000
000001b0: a3be ae41 0000 0000 0000 0000 d44c 7141
000001c0: 0000 0000 0000 0000 ce64 2b42 2de7 2c41
000001d0: 5304 5b41 82a5 9a41 0000 0000 0000 0000
000001e0: 0000 0000 22e1 1a43 0000 0000 0000 0000
000001f0: 0000 0000 e807 aa3f 092a e441 4349 b842
00000200: c8b8 b742 d95b b13f a296 0f43 ba1c 4442
00000210: e736 3942 0000 0000 e6ea 903f 0000 0000
00000220: 0000 0000 0000 0000 a929 cb42 d86e aa41
00000230: 6b3e 1343 eb40 9d42 0000 0000 9d65 0b43
00000240: 2feb e740 0000 0000 0000 0000 c605 8942
00000250: 3df1 0742 6f14 a842 0000 0000 0000 0000
00000260: 76ec a940 559a 3240 0000 0000 f8ae 2f41
00000270: 0000 0000 a091 f742 68ff 273f 0000 0000
00000280: b566 e042 8eaa 503e 0000 0000 627d 1a42
00000290: eb3a 1c43 1b42 0742 1adf 543e 90e2 ea42
000002a0: 0000 0000 2e6d 0443 0000 0000 ab06 0e3e
000002b0: ca76 1043 7ad5 dd41 0000 0000 03a4 8742
000002c0: 1fe9 6342 0000 0000 0000 0000 0000 0000
000002d0: 0000 0000 e10f 0032 0000 0000 0000 0000
000002e0: 9a3d 4042 0000 0000 0000 0000 7255 b040
000002f0: 0000 0000 0000 0000 5f88 7842 e24f c242
00000300: 0000 0000 0000 0000 259e 1342 0000 0000
00000310: fb3e 8842 a5cf a442 1e0b ef41 0bc8 8241
7.405117 0.0 0.0 0.0 35.81419 14.320336 58.150963 0.0
0.0 0.0 0.0 0.0 0.0 85.207245 0.0 0.0
15.117233 11.608757 34.69139 0.0 136.45044 0.0 0.0 71.673096
0.0 0.0 56.53629 26.22467 0.0 0.0 0.0 29.29212
7.37413 24.651747 117.03936 0.0 0.0 0.0 0.0 0.0
143.61333 116.128235 113.72113 0.0 0.0 0.0 0.0 120.95825
2.482467 19.147966 0.0 27.422739 76.33772 0.0 102.937485 35.56448
0.0 0.0 0.105387256 0.0 0.0 27.464506 0.0 0.0
0.0 70.328896 113.42128 87.60303 0.0 0.0 41.02783 62.30673
0.0 51.355133 0.0 2.2803707 76.94899 80.109055 0.0 0.0
20.729845 62.88114 0.0 138.53854 0.0 0.0 0.0 0.0
17.242296 0.0 152.47726 0.0 72.87638 0.0 0.0 0.0
46.74401 58.74421 0.0 0.0 2.9940434 0.021313589 0.058624662 17.297276
0.0 118.33573 0.99826473 0.0 21.843084 0.0 0.0 15.081257
0.0 0.0 42.848442 10.806439 13.688556 19.330814 0.0 0.0
0.0 154.87943 0.0 0.0 0.0 1.3283663 28.520525 92.14309
91.8609 1.3856155 143.58841 49.028053 46.303616 0.0 1.1321685 0.0
0.0 0.0 101.58137 21.304123 147.24382 78.62679 0.0 139.39693
7.247459 0.0 0.0 68.51128 33.985584 84.03991 0.0 0.0
5.310115 2.7906697 0.0 10.980217 0.0 123.784424 0.65624094 0.0
112.2006 0.20377561 0.0 38.622444 156.23015 33.814556 0.20788231 117.442505
0.0 132.42648 0.0 0.13869731 144.46402 27.729237 0.0 67.820335
56.977657 0.0 0.0 0.0 0.0 7.454191e-09 0.0 0.0
48.060158 0.0 0.0 5.5104303 0.0 0.0 62.133175 97.15602
0.0 0.0 36.904438 0.0 68.12301 82.405556 29.880428 16.347677
