trees/save/graph/1bits/split_75.0_0.1_50/models/model.pth (torch, 11542 bytes, 12 tensors)

embedding_layers.weight f4 [170, 1]
0	0xbad5cada	-0.0016311065
1	0xbad20823	-0.0016024153
2	0xbba1173a	-0.004916099
3	0xba042061	-0.0005040225
4	0x3c7e48ec	0.015520316
5	0x3b809cb2	0.0039249295
6	0xbb3e2cf4	-0.0029018493
7	0x3c5d98d9	0.013525211
8	0x3c2c324e	0.01051004
9	0x3c4f3405	0.01264668
10	0x3bc32854	0.005955735
11	0xbbeaa665	-0.007160949
12	0x3b7fb1ce	0.0039015892
13	0xba8d80cc	-0.0010795831
14	0x3c736d2d	0.0148575725
15	0x3c33709c	0.010952141
16	0xba5e1344	-0.0008471499
17	0x3b2c96fb	0.0026335109
18	0xbc44798b	-0.011991869
19	0x3bcacab5	0.0061887153
20	0x3b8efd46	0.0043636886
21	0x3b214da4	0.0024612928
22	0x3aa19b78	0.0012329658
23	0xbb7e2151	-0.0038777182
24	0xbb8c105f	-0.0042744125
25	0x3c11ac20	0.008891135
26	0xbc4065bb	-0.011743004
27	0x3baf7274	0.00535422
28	0xbc4b4095	-0.012405534
29	0xba871685	-0.0010306394
30	0x3bec8a23	0.0072186156
31	0x3bbab846	0.0056982366
32	0x3c615300	0.013752699
33	0x3b8dcf7d	0.004327713
34	0x3be6b93b	0.007041124
35	0xbc24f1b9	-0.010067397
36	0x3bcaf533	0.006193781
37	0xbbf4b9f4	-0.0074684564
38	0x3c4d9775	0.012548317
39	0xb9cf5708	-0.0003954696
40	0xba94973c	-0.0011336575
41	0x3b143c19	0.0022618829
42	0xba261729	-0.00063358486
43	0xbbb8599e	-0.0056259176
44	0xbb5a21d6	-0.0033284328
45	0xbc65821f	-0.014008074
46	0xbc23d89d	-0.010000375
47	0xb8298286	-4.04143e-05
48	0x3b29841f	0.0025866104
49	0xbb0e1e0d	-0.0021685392
50	0xbc846d20	-0.016165316
51	0xbaee27ae	-0.0018169784
52	0xbb1c924c	-0.002389091
53	0xbbb2bb1e	-0.005454435
54	0xbb41ce36	-0.0029572374
55	0xbb6c0a3d	-0.0036016845
56	0x39a0248a	0.00030544802
57	0x3c4379a8	0.011930861
58	0xbc484aa0	-0.012224823
59	0xbb283edb	-0.002567223
60	0xbc23dca0	-0.010001332
61	0x3bd3ae36	0.0064599765
62	0xb9d7ddff	-0.00041173396
63	0xbbcfe689	-0.0063446206
64	0x3bc7962a	0.006090899
65	0x3c4715f4	0.01215123
66	0xbb5d4335	-0.0033761982
67	0x3c31bd58	0.010848366
68	0x3c6d72d6	0.014492711
69	0x3c54ac96	0.012980601
70	0xbbed1d79	-0.0072361794
71	0xbac64336	-0.0015126232
72	0xbbf15c4a	-0.007365738
73	0x3bf77810	0.0075521544
74	0x3c1ac97b	0.009447451
75	0x3baa802e	0.0052032685
76	0xbabc6872	-0.0014374389
77	0x3b408d26	0.0029381006
78	0xbbeec09f	-0.007286146
79	0x3c24747f	0.01003754
80	0x3a0d3d2c	0.00053878385
81	0x3ad6d03a	0.0016388961
82	0xbb261b8b	-0.0025346007
83	0x3ab5d366	0.0013872206
84	0x3b699b4a	0.0035645538
85	0x3bcbee24	0.006223457
86	0xbaadd65f	-0.001326274
87	0xbb8dcef7	-0.0043276506
88	0x3c01afa7	0.007915414
89	0xba8ca0a6	-0.0010729029
90	0xbc808124	-0.015686579
91	0x3ac1ecf0	0.0014795344
92	0x3b766891	0.0037598948
93	0x3b850190	0.004059024
94	0xbba4b421	-0.005026356
95	0xbb8fc581	-0.004387558
96	0x3b7569d7	0.0037447119
97	0xbb06cac1	-0.0020567628
98	0xbc495d67	-0.012290335
99	0xbb4e89f3	-0.003151533
100	0xbb526ca0	-0.0032108203
101	0xbbd12092	-0.0063820565
102	0x3c15403c	0.009109553
103	0xbbbe8c6d	-0.00581508
104	0xbc1f7a43	-0.009733739
105	0xbc6d4ba6	-0.014483368
106	0xbb2144ed	-0.0024607733
107	0xba7cdc23	-0.000964584
108	0xbbc5f846	-0.0060415594
109	0x3c644a5e	0.013933746
110	0xba6ef973	-0.00091161503
111	0xba175ea9	-0.00057742983
112	0x3b47d8f9	0.0030494316
113	0xbb9a7aab	-0.00471433
114	0xbc760b93	-0.015017408
115	0xbb92e37e	-0.0044826856
116	0xbbbfe304	-0.00585592
117	0xbb892085	-0.004184785
118	0x3c181a0e	0.009283556
119	0xbb1cbc05	-0.002391578
120	0xbb3ec1e3	-0.0029107265
121	0xbb86b553	-0.004110971
122	0x3b92335c	0.004461689
123	0xbbc0c0f5	-0.0058823773
124	0xb8d740e8	-0.000102640886
125	0xbb43f67e	-0.002990156
126	0xbba23195	-0.0049497583
127	0xb8ee29c5	-0.000113565045
128	0x3c68f7fe	0.014219282
129	0xbb2fd3cc	-0.0026829122
130	0x3b8741f4	0.0041277353
131	0x3b8e3ea7	0.004340965
132	0xbb3a2231	-0.0028401727
133	0x3bff3e3c	0.0077894013
134	0xbb992fc0	-0.0046748817
135	0xbb74fcf4	-0.0037382217
136	0x3c076206	0.008263117
137	0x3c6492be	0.013951002
138	0x3b8bc9b3	0.004265988
139	0x3c359038	0.011081748
140	0xbaafec6b	-0.0013421898
141	0x3b8978e6	0.0041953204
142	0xbc04179f	-0.008062272
143	0xbbf2fdc5	-0.0074155056
144	0x3bbdbbd0	0.0057902113
145	0x3be9c7a3	0.0071343943
146	0xbc1e16d0	-0.009648994
147	0xbc357124	-0.011074338
148	0x3bedf4c6	0.0072618453
149	0xba6e8708	-0.0009099101
150	0xbbf32724	-0.0074204374
151	0x3ac5cc9e	0.0015090888
152	0x3baaede8	0.005216349
153	0xba979888	-0.0011565844
154	0xbc87d4b1	-0.016580911
155	0x3c22934d	0.009922815
156	0xbbef0414	-0.0072941873
157	0xbba04057	-0.0048904824
158	0xba4f0536	-0.00078972
159	0xbc1d9309	-0.009617575
160	0xbc7fcbab	-0.015612523
161	0xb9a43b5f	-0.00031324752
162	0x3b0f41b5	0.0021859233
163	0x3bc7724e	0.006086624
164	0xbb0a89e4	-0.0021139318
165	0xbbd7e3a0	-0.0065884143
166	0xbbef3e2f	-0.007301114
167	0x3bea66fc	0.00715339
168	0xbc143ccc	-0.009047698
169	0xbc5e4aa7	-0.013567603

layers.0.weight f4 [100, 2]
0	0x3dc0ef7d	0.09420679
1	0xbd7e23e9	-0.062045965
2	0x3dc14777	0.09437459
3	0xbe9558d7	-0.29169342
4	0xbeaf1b8d	-0.34200707
5	0x3da0227c	0.078190774
6	0x3d6a7fe3	0.05725087
7	0x3db0a73f	0.0862565
8	0x3ec00f26	0.37511557
9	0x3eb58dd8	0.3545978
10	0xbef1ce5e	-0.47227758
11	0x3cc7b83e	0.024379846
12	0x3d9426d3	0.07233968
13	0xbe8c2a07	-0.27375814
14	0xbec1c799	-0.37847593
15	0x3e43d9e1	0.19126083
16	0x3e1680f2	0.14697626
17	0x3d2aee4f	0.041731175
18	0x3ef5b99d	0.47993174
19	0x3e15d13d	0.146306
20	0xbae6f96f	-0.0017621944
21	0xbe864d91	-0.26231053
22	0xbe109ede	-0.14123103
23	0xbe6beef1	-0.23040368
24	0x3b6930a9	0.0035581982
25	0x3bdff564	0.0068346728
26	0xbcec31a7	-0.02883227
27	0xbc646f82	-0.013942601
28	0xbcf5414c	-0.029938363
29	0x3eaf5efe	0.3425216
30	0xbb458c47	-0.0030143426
31	0xbc3e9d1d	-0.011634138
32	0x3dcc1ce0	0.09966445
33	0xbe95e7b4	-0.29278338
34	0x3e80e6b8	0.25176024
35	0x3ea1ab36	0.31575936
36	0x3a8b2dc6	0.00106185
37	0x3e4ff3a6	0.20307788
38	0x3c4e256f	0.012582167
39	0xba719e8c	-0.0009217046
40	0x3ecbf813	0.39837703
41	0x3dfca628	0.12336379
42	0xbd9c38df	-0.07628035
43	0x3ec9abff	0.39389035
44	0xbeb180ec	-0.34668672
45	0x3d0611be	0.032731764
46	0x3cdfdb56	0.027326267
47	0xbd226221	-0.039644364
48	0x3ebb45e3	0.36576757
49	0xba1b1d6e	-0.0005917166
50	0xbd0011a5	-0.031266827
51	0xbced4000	-0.028961182
52	0x3e93746a	0.28799754
53	0x3dc34ffd	0.09536741
54	0x3d3cbf97	0.04608115
55	0xbebbc37b	-0.36672577
56	0xbe785d32	-0.24254301
57	0xbeb292c5	-0.348776
58	0xbaedd0a3	-0.0018143844
59	0xbd87952e	-0.06620251
60	0x3ee6802a	0.45019656
61	0xbe8612ce	-0.26186222
62	0x3e5ec557	0.21754967
63	0xbe3789f5	-0.1792372
64	0x3e26a93c	0.16275495
65	0xbe7aca0c	-0.24491137
66	0x3c63b104	0.013897184
67	0x37fb57e3	2.9962457e-05
68	0xbe99c68a	-0.30034286
69	0x3e97e325	0.29665485
70	0x3dc457c5	0.09587053
71	0x3cdad4c1	0.026712777
72	0xbe498cf0	-0.1968267
73	0xbc51f7ca	-0.012815425
74	0x3cd5b292	0.026086126
75	0xbd7ed8cd	-0.062218476
76	0xbec72401	-0.38894656
77	0x3ee1557a	0.44010526
78	0xbe8884c7	-0.266638
79	0xbebcfbb8	-0.36910796
80	0x3dfe1de8	0.12408048
81	0xbe1f1b04	-0.1553765
82	0xbead0918	-0.33796
83	0x3d9c24bf	0.07624196
84	0xbd63b099	-0.05558834
85	0x3ed6b680	0.4193611
86	0x3e5f2f27	0.21795331
87	0xbf0f201b	-0.55908364
88	0xbe5b914d	-0.21442147
89	0x3e1cf904	0.15329367
90	0xba9fc886	-0.0012190498
91	0xb9fdddb0	-0.0004842109
92	0x3d406a51	0.04697639
93	0x3eb2ac0f	0.34896895
94	0xbeb1cfec	-0.34728944
95	0x3eefb014	0.46814024
96	0x3ed2fb10	0.4120717
97	0x3ae52a82	0.0017483982
98	0xbdea8181	-0.11450482
99	0x3ea19367	0.31557772
100	0x3ec01f85	0.37524047
101	0x3ebafc84	0.3652078
102	0x3d875efd	0.066099145
103	0x3eb2b3f4	0.34902918
104	0xbda56dc0	-0.08077574
105	0xbc591e73	-0.013251889
106	0x3caceed6	0.02110998
107	0xbe08ed41	-0.13371755
108	0xbe0b21af	-0.13587068
109	0x3e944ba6	0.28963965
110	0x3c4291b6	0.0118755605
111	0x3e387644	0.18013865
112	0xbddf5bf3	-0.1090621
113	0xbe1ed960	-0.1551261
114	0x3d089a95	0.033350546
115	0xbea9edcc	-0.33189237
116	0xbec491a2	-0.3839236
117	0xbe9427d4	-0.28936636
118	0x3e1b3d00	0.15159988
119	0x3e9bed0a	0.30454284
120	0xb7a0a713	-1.9151286e-05
121	0x3a2553d3	0.0006306741
122	0xbe8d6425	-0.27615467
123	0xbef284e7	-0.4736702
124	0x3e47a31f	0.1949582
125	0x3b81e178	0.0039636455
126	0x3ce43714	0.027858295
127	0x3dff2ef6	0.12460129
128	0x3e63448a	0.22194114
129	0xbddd1a8c	-0.10796079
130	0x3dd4c91e	0.103899226
131	0x3d640042	0.05566431
132	0x3e9e0ed2	0.30870682
133	0x3e836437	0.25662395
134	0x3bcdbf5a	0.0062789144
135	0x3b136b45	0.0022494358
136	0xbb866341	-0.0041011875
137	0x3e4c46ab	0.19948833
138	0x3e845d44	0.25852406
139	0x3ea319a8	0.31855512
140	0x3e4b20d2	0.19836739
141	0xbdc9d6bd	-0.09855411
142	0x3a91df49	0.0011129166
143	0xbeaa8116	-0.3330161
144	0x3e748c10	0.23881555
145	0xbe476fe2	-0.19476274
146	0x3c8caefb	0.017173281
147	0xbe2f2f6d	-0.17107935
148	0xbea39a47	-0.31953642
149	0x3c861d0b	0.01637127
150	0x3cee5f50	0.029098183
151	0xbd43a248	-0.047762185
152	0xbe4d0b7c	-0.20023912
153	0x3ca5d067	0.020240976
154	0x3ea631f9	0.3246
155	0x3c99934a	0.01874699
156	0xbeac1145	-0.33606926
157	0x3e955fdd	0.291747
158	0x3d3f66bc	0.046728835
159	0x3dab3efa	0.08361621
160	0xbeaa9b02	-0.33321387
161	0xbdadbc59	-0.0848319
162	0xbd84ce41	-0.06484652
163	0x3f056c76	0.52118623
164	0x3e01d599	0.12679137
165	0x3ee7c281	0.45265582
166	0x3db2f8a3	0.0873883
167	0x3e7174e7	0.23579751
168	0x39bb95f2	0.00035779137
169	0x3b07327b	0.0020629454
170	0x3c51690d	0.012781394
171	0x3de187ef	0.110122554
172	0x3e2d383c	0.16915983
173	0x3d467ca7	0.04845872
174	0x3eab52a6	0.33461493
175	0xbea56f83	-0.3231164
176	0x3f077ed2	0.5292789
177	0x3eca60ef	0.3952708
178	0xbda142d1	-0.07874072
179	0xbe48044f	-0.19532894
180	0xbcaf48d4	-0.021397032
181	0x3c614d92	0.013751404
182	0x3cee75b0	0.029108852
183	0xbdc0bf87	-0.09411531
184	0x3d0d11fd	0.034440983
185	0xbe82b484	-0.25528347
186	0xbefee73b	-0.4978579
187	0xbdf3f11d	-0.11911223
188	0x3e6521b8	0.22376144
189	0xbeadeaf0	-0.33968306
190	0x3ef4a9fa	0.47785932
191	0xbdcc7a0d	-0.09984217
192	0xbcea34d4	-0.028589644
193	0x3c7cde8d	0.01543392
194	0xbdf61d09	-0.12017257
195	0xbebf5a84	-0.37373745
196	0x3e07275f	0.13198613
197	0xbe4dd5f2	-0.20101145
198	0xbecafcca	-0.39645988
199	0xbebfb797	-0.37444755

layers.0.bias f4 [100]
0	0x3ef23279	0.47304133
1	0xbedd471d	-0.43218318
2	0xbf065fd1	-0.52489954
3	0xbe290c38	-0.16508567
4	0x3ebb8c8c	0.36630666
5	0xbf167125	-0.58766395
6	0x3e6617dc	0.22470039
7	0xbf27aeb0	-0.65500927
8	0xbe5e3ac3	-0.21702103
9	0xbcdae3b0	-0.026719898
10	0xbe97002c	-0.2949232
11	0xbf0ffb78	-0.56243086
12	0xbc75cee1	-0.015002937
13	0xbd6ac89b	-0.05732022
14	0xbed32e92	-0.41246468
15	0xbc86bc53	-0.016447222
16	0xbece2012	-0.40258843
17	0xbf1b663c	-0.6070287
18	0xbe5ade92	-0.21373966
19	0xbca97f45	-0.02069057
20	0xbf18a652	-0.59628785
21	0xbf07341d	-0.52813894
22	0xbecb425e	-0.39699072
23	0xbd9e6243	-0.07733586
24	0xbee90a5a	-0.4551571
25	0xbd8c2607	-0.06843191
26	0x3de50774	0.11183062
27	0xbef6e07f	-0.48218152
28	0xbf1b9510	-0.60774326
29	0xbec662b2	-0.38747174
30	0x3e9de426	0.30838126
31	0x3eb4a0cd	0.3527893
32	0xbef0baf5	-0.47017637
33	0xbc824572	-0.015902255
34	0xbf2e1188	-0.679955
35	0xbe0ffa28	-0.14060271
36	0xbe6dfed0	-0.23241735
37	0xbde8104b	-0.11331233
38	0xbebded85	-0.37095276
39	0xbf3dbfa8	-0.7412057
40	0xbea10ac9	-0.3145354
41	0xbf005e4a	-0.50143874
42	0x3dad1bf0	0.08452594
43	0x3d6851ee	0.05671876
44	0xbed4b4b8	-0.41544127
45	0xbc53144f	-0.01288326
46	0xbedc0abd	-0.42976943
47	0xbf021470	-0.50812435
48	0x3e96818d	0.29395714
49	0xbf01a67c	-0.5064466
50	0x3f10dbee	0.56585586
51	0xbf19e8ee	-0.6012105
52	0x3f1c74c2	0.6111566
53	0xbe36e1d9	-0.17859592
54	0x3f05975e	0.52184093
55	0xbe5ffc4f	-0.21873592
56	0x3e936ee5	0.28795543
57	0x3d09c1fd	0.033632267
58	0x3ec3d363	0.38247213
59	0xbf08c6e9	-0.5342851
60	0xbaa8de1d	-0.0012883578
61	0x3f3e446f	0.7432317
62	0xbe4e69e7	-0.20157586
63	0x3ec896c5	0.39177528
64	0xbec50857	-0.38482925
65	0xbe6151f6	-0.22003922
66	0xbf265d79	-0.6498638
67	0xbca5d7f4	-0.020244576
68	0xbe8734bc	-0.2640742
69	0x3f1d9a8b	0.6156394
70	0xbead3e55	-0.33836618
71	0xbec6723a	-0.38759023
72	0xbefdc5fb	-0.4956511
73	0xbe659cf3	-0.22423153
74	0xbec1f917	-0.37885353
75	0x3eb6b07e	0.35681528
76	0xbe781d4c	-0.24229926
77	0xbebf8b18	-0.37410808
78	0x3efbbdfe	0.4916839
79	0xbe188541	-0.14894582
80	0xbf314cd9	-0.69257885
81	0x3e932f53	0.28747043
82	0xbf2b7ca5	-0.6698707
83	0xbeaff9b2	-0.3437019
84	0xbb8a90d0	-0.004228689
85	0xbe06f14f	-0.1317799
86	0xbe8e7141	-0.2782078
87	0xbf3b23bc	-0.731014
88	0x3c450e6b	0.012027363
89	0xbece00e2	-0.4023505
90	0xbd253e9b	-0.04034291
91	0xbe0ff6b3	-0.14058952
92	0x3f24affd	0.64331037
93	0x3e6ec57f	0.23317526
94	0xbf2408ff	-0.64076227
95	0xbf2c8178	-0.67385054
96	0xbf2daa18	-0.6783767
97	0x3da20b99	0.07912368
98	0xbf2d7150	-0.67751026
99	0x3ec87e1f	0.39158723

layers.2.weight f4 [1, 100]
0	0xbdaec69d	-0.08533976
1	0x3a061613	0.00051149837
2	0xbd704094	-0.058655336
3	0x38325f59	4.2527307e-05
4	0xbdbcac9a	-0.09212609
5	0x3aee9f3d	0.0018205416
6	0xbd6e0af4	-0.058115914
7	0xba33df6d	-0.0006861601
8	0xb5f72ea2	-1.8416506e-06
9	0xbdcd933c	-0.10037848
10	0xb8838af4	-6.272449e-05
11	0x3d35b8d3	0.044365715
12	0xb833f3aa	-4.2903856e-05
13	0x3aeec4cb	0.0018216608
14	0xb9588e55	-0.00020652388
15	0xb6de47b7	-6.6244643e-06
16	0xb752fe12	-1.2576131e-05
17	0xba8af8c5	-0.0010602704
18	0xb863c498	-5.430411e-05
19	0x39b56f86	0.00034606102
20	0xb7d57df4	-2.545023e-05
21	0x39888930	0.00026042154
22	0xb93296b6	-0.00017031547
23	0xb714620f	-8.8443185e-06
24	0xbade6336	-0.0016966823
25	0xb85ef1e3	-5.31542e-05
26	0xbdb5a99c	-0.08870241
27	0xba1758a3	-0.0005773401
28	0xb979f195	-0.00023836487
29	0x3cc297e2	0.023754064
30	0xbdd1da09	-0.10246665
31	0xbd71f52c	-0.059071705
32	0xb9bd2249	-0.00036074434
33	0x3825b7d2	3.951026e-05
34	0x393e18f2	0.00018129105
35	0xb8787f10	-5.9246144e-05
36	0xb6f797d9	-7.378851e-06
37	0x392dccac	0.00016574812
38	0xbdc4d013	-0.096099995
39	0xb958a1e6	-0.00020659677
40	0x36ccad0c	6.099819e-06
41	0x3cb5017d	0.022095436
42	0xbdc12ba9	-0.09432156
43	0xbe036e6f	-0.12835096
44	0xb881cad3	-6.188978e-05
45	0xbb25c700	-0.0025295615
46	0x38ed5f98	0.000113188464
47	0xbd875a6e	-0.06609045
48	0xbdc770fc	-0.09738347
49	0xb9d71cb0	-0.0004102937
50	0xbde91286	-0.11380486
51	0xbbd50333	-0.0065006255
52	0xbdf3e81b	-0.11909505
53	0xba7a695f	-0.00095524447
54	0xbdbbccab	-0.09169897
55	0x3823bf9e	3.9040686e-05
56	0xbd4c3cfa	-0.04986284
57	0xbd851539	-0.064981885
58	0xbe042863	-0.12906031
59	0xb95f5903	-0.00021300097
60	0x37bdece5	2.2640868e-05
61	0xbe2ddb61	-0.16978218
62	0x39b0d06a	0.00033724617
63	0xbd98e21a	-0.074650005
64	0xba9e5629	-0.0012080121
65	0xbb2c89a0	-0.0026327148
66	0x39803726	0.0002445515
67	0xbb35f7a3	-0.0027766011
68	0xbb5e8e62	-0.0033959378
69	0xbe0e07d8	-0.1387018
70	0xb8af512e	-8.359771e-05
71	0x37c11769	2.3018294e-05
72	0x362ba23f	2.5575425e-06
73	0xba03136e	-0.00050001487
74	0x37c7561f	2.3762752e-05
75	0xbd620bb2	-0.055186935
76	0xb8723b7a	-5.7752688e-05
77	0xb81c6d9f	-3.729539e-05
78	0xbe138d13	-0.14409284
79	0x396634a2	0.00021954117
80	0x3d744a85	0.05964138
81	0xbe170b17	-0.14750324
82	0xb8014ade	-3.0825722e-05
83	0x3905cf8b	0.00012761184
84	0xba01c078	-0.00049496396
85	0x38868219	6.4138505e-05
86	0xbd35fa71	-0.044428293
87	0xb83acf8a	-4.453914e-05
88	0xbdd402ae	-0.103520736
89	0x3bd7bade	0.0065835556
90	0xb905b396	-0.0001275077
91	0x3a6027aa	0.0008550832
92	0xbdd67aac	-0.104726166
93	0xbe1ab38c	-0.15107554
94	0xb944d434	-0.00018771068
95	0x39b55b39	0.00034590976
96	0x3c1ed62a	0.009694615
97	0xbd97f1a7	-0.074191384
98	0x3d8a3e81	0.06750203
99	0xbde7234d	-0.1128603

grad_avg f4 [170, 1]
0	0x00000000	0.0
1	0x00000000	0.0
2	0x00000000	0.0
3	0x00000000	0.0
4	0x00000000	0.0
5	0x00000000	0.0
6	0x00000000	0.0
7	0x00000000	0.0
8	0x00000000	0.0
9	0x00000000	0.0
10	0x00000000	0.0
11	0x00000000	0.0
12	0x00000000	0.0
13	0x00000000	0.0
14	0x00000000	0.0
15	0x00000000	0.0
16	0x00000000	0.0
17	0x00000000	0.0
18	0x00000000	0.0
19	0x00000000	0.0
20	0x00000000	0.0
21	0x00000000	0.0
22	0x00000000	0.0
23	0x00000000	0.0
24	0x00000000	0.0
25	0x00000000	0.0
26	0x00000000	0.0
27	0x00000000	0.0
28	0x00000000	0.0
29	0x00000000	0.0
30	0x00000000	0.0
31	0x00000000	0.0
32	0x00000000	0.0
33	0x00000000	0.0
34	0x00000000	0.0
35	0x00000000	0.0
36	0x00000000	0.0
37	0x00000000	0.0
38	0x00000000	0.0
39	0x00000000	0.0
40	0x00000000	0.0
41	0x00000000	0.0
42	0x00000000	0.0
43	0x00000000	0.0
44	0x00000000	0.0
45	0x00000000	0.0
46	0x00000000	0.0
47	0x00000000	0.0
48	0x00000000	0.0
49	0x00000000	0.0
50	0x00000000	0.0
51	0x00000000	0.0
52	0x00000000	0.0
53	0x00000000	0.0
54	0x00000000	0.0
55	0x00000000	0.0
56	0x00000000	0.0
57	0x00000000	0.0
58	0x00000000	0.0
59	0x00000000	0.0
60	0x00000000	0.0
61	0x00000000	0.0
62	0x00000000	0.0
63	0x00000000	0.0
64	0x00000000	0.0
65	0x00000000	0.0
66	0x00000000	0.0
67	0x00000000	0.0
68	0x00000000	0.0
69	0x00000000	0.0
70	0x00000000	0.0
71	0x00000000	0.0
72	0x00000000	0.0
73	0x00000000	0.0
74	0x00000000	0.0
75	0x00000000	0.0
76	0x00000000	0.0
77	0x00000000	0.0
78	0x00000000	0.0
79	0x00000000	0.0
80	0x00000000	0.0
81	0x00000000	0.0
82	0x00000000	0.0
83	0x00000000	0.0
84	0x00000000	0.0
85	0x00000000	0.0
86	0x00000000	0.0
87	0x00000000	0.0
88	0x00000000	0.0
89	0x00000000	0.0
90	0x00000000	0.0
91	0x00000000	0.0
92	0x00000000	0.0
93	0x00000000	0.0
94	0x00000000	0.0
95	0x00000000	0.0
96	0x00000000	0.0
97	0x00000000	0.0
98	0x00000000	0.0
99	0x00000000	0.0
100	0x00000000	0.0
101	0x00000000	0.0
102	0x00000000	0.0
103	0x00000000	0.0
104	0x00000000	0.0
105	0x00000000	0.0
106	0x00000000	0.0
107	0x00000000	0.0
108	0x00000000	0.0
109	0x00000000	0.0
110	0x00000000	0.0
111	0x00000000	0.0
112	0x00000000	0.0
113	0x00000000	0.0
114	0x00000000	0.0
115	0x00000000	0.0
116	0x00000000	0.0
117	0x00000000	0.0
118	0x00000000	0.0
119	0x00000000	0.0
120	0x00000000	0.0
121	0x00000000	0.0
122	0x00000000	0.0
123	0x00000000	0.0
124	0x00000000	0.0
125	0x00000000	0.0
126	0x00000000	0.0
127	0x00000000	0.0
128	0x00000000	0.0
129	0x00000000	0.0
130	0x00000000	0.0
131	0x00000000	0.0
132	0x00000000	0.0
133	0x00000000	0.0
134	0x00000000	0.0
135	0x00000000	0.0
136	0x00000000	0.0
137	0x00000000	0.0
138	0x00000000	0.0
139	0x00000000	0.0
140	0x00000000	0.0
141	0x00000000	0.0
142	0x00000000	0.0
143	0x00000000	0.0
144	0x00000000	0.0
145	0x00000000	0.0
146	0x00000000	0.0
147	0x00000000	0.0
148	0x00000000	0.0
149	0x00000000	0.0
150	0x00000000	0.0
151	0x00000000	0.0
152	0x00000000	0.0
153	0x00000000	0.0
154	0x00000000	0.0
155	0x00000000	0.0
156	0x00000000	0.0
157	0x00000000	0.0
158	0x00000000	0.0
159	0x00000000	0.0
160	0x00000000	0.0
161	0x00000000	0.0
162	0x00000000	0.0
163	0x00000000	0.0
164	0x00000000	0.0
165	0x00000000	0.0
166	0x00000000	0.0
167	0x00000000	0.0
168	0x00000000	0.0
169	0x00000000	0.0

sqr_avg f4 [170, 1]
0	0x00000000	0.0
1	0x00000000	0.0
2	0x00000000	0.0
3	0x00000000	0.0
4	0x00000000	0.0
5	0x00000000	0.0
6	0x00000000	0.0
7	0x00000000	0.0
8	0x00000000	0.0
9	0x00000000	0.0
10	0x00000000	0.0
11	0x00000000	0.0
12	0x00000000	0.0
13	0x00000000	0.0
14	0x00000000	0.0
15	0x00000000	0.0
16	0x00000000	0.0
17	0x00000000	0.0
18	0x00000000	0.0
19	0x00000000	0.0
20	0x00000000	0.0
21	0x00000000	0.0
22	0x00000000	0.0
23	0x00000000	0.0
24	0x00000000	0.0
25	0x00000000	0.0
26	0x00000000	0.0
27	0x00000000	0.0
28	0x00000000	0.0
29	0x00000000	0.0
30	0x00000000	0.0
31	0x00000000	0.0
32	0x00000000	0.0
33	0x00000000	0.0
34	0x00000000	0.0
35	0x00000000	0.0
36	0x00000000	0.0
37	0x00000000	0.0
38	0x00000000	0.0
39	0x00000000	0.0
40	0x00000000	0.0
41	0x00000000	0.0
42	0x00000000	0.0
43	0x00000000	0.0
44	0x00000000	0.0
45	0x00000000	0.0
46	0x00000000	0.0
47	0x00000000	0.0
48	0x00000000	0.0
49	0x00000000	0.0
50	0x00000000	0.0
51	0x00000000	0.0
52	0x00000000	0.0
53	0x00000000	0.0
54	0x00000000	0.0
55	0x00000000	0.0
56	0x00000000	0.0
57	0x00000000	0.0
58	0x00000000	0.0
59	0x00000000	0.0
60	0x00000000	0.0
61	0x00000000	0.0
62	0x00000000	0.0
63	0x00000000	0.0
64	0x00000000	0.0
65	0x00000000	0.0
66	0x00000000	0.0
67	0x00000000	0.0
68	0x00000000	0.0
69	0x00000000	0.0
70	0x00000000	0.0
71	0x00000000	0.0
72	0x00000000	0.0
73	0x00000000	0.0
74	0x00000000	0.0
75	0x00000000	0.0
76	0x00000000	0.0
77	0x00000000	0.0
78	0x00000000	0.0
79	0x00000000	0.0
80	0x00000000	0.0
81	0x00000000	0.0
82	0x00000000	0.0
83	0x00000000	0.0
84	0x00000000	0.0
85	0x00000000	0.0
86	0x00000000	0.0
87	0x00000000	0.0
88	0x00000000	0.0
89	0x00000000	0.0
90	0x00000000	0.0
91	0x00000000	0.0
92	0x00000000	0.0
93	0x00000000	0.0
94	0x00000000	0.0
95	0x00000000	0.0
96	0x00000000	0.0
97	0x00000000	0.0
98	0x00000000	0.0
99	0x00000000	0.0
100	0x00000000	0.0
101	0x00000000	0.0
102	0x00000000	0.0
103	0x00000000	0.0
104	0x00000000	0.0
105	0x00000000	0.0
106	0x00000000	0.0
107	0x00000000	0.0
108	0x00000000	0.0
109	0x00000000	0.0
110	0x00000000	0.0
111	0x00000000	0.0
112	0x00000000	0.0
113	0x00000000	0.0
114	0x00000000	0.0
115	0x00000000	0.0
116	0x00000000	0.0
117	0x00000000	0.0
118	0x00000000	0.0
119	0x00000000	0.0
120	0x00000000	0.0
121	0x00000000	0.0
122	0x00000000	0.0
123	0x00000000	0.0
124	0x00000000	0.0
125	0x00000000	0.0
126	0x00000000	0.0
127	0x00000000	0.0
128	0x00000000	0.0
129	0x00000000	0.0
130	0x00000000	0.0
131	0x00000000	0.0
132	0x00000000	0.0
133	0x00000000	0.0
134	0x00000000	0.0
135	0x00000000	0.0
136	0x00000000	0.0
137	0x00000000	0.0
138	0x00000000	0.0
139	0x00000000	0.0
140	0x00000000	0.0
141	0x00000000	0.0
142	0x00000000	0.0
143	0x00000000	0.0
144	0x00000000	0.0
145	0x00000000	0.0
146	0x00000000	0.0
147	0x00000000	0.0
148	0x00000000	0.0
149	0x00000000	0.0
150	0x00000000	0.0
151	0x00000000	0.0
152	0x00000000	0.0
153	0x00000000	0.0
154	0x00000000	0.0
155	0x00000000	0.0
156	0x00000000	0.0
157	0x00000000	0.0
158	0x00000000	0.0
159	0x00000000	0.0
160	0x00000000	0.0
161	0x00000000	0.0
162	0x00000000	0.0
163	0x00000000	0.0
164	0x00000000	0.0
165	0x00000000	0.0
166	0x00000000	0.0
167	0x00000000	0.0
168	0x00000000	0.0
169	0x00000000	0.0

grad_avg f4 [100, 2]
0	0x3ba52a27	0.0050404253
1	0xbb6a6261	-0.0035764205
2	0x00000003	4e-45
3	0x80000003	-4e-45
4	0x00000000	0.0
5	0x00000000	0.0
6	0x00000003	4e-45
7	0x00000003	4e-45
8	0x3aae1179	0.0013280354
9	0xbc02a556	-0.0079739895
10	0x80000003	-4e-45
11	0x00000003	4e-45
12	0x3b8a95a5	0.004229265
13	0xbb53d51d	-0.003232307
14	0x80000003	-4e-45
15	0x00000003	4e-45
16	0x00000003	4e-45
17	0x00000003	4e-45
18	0x3b390526	0.0028231828
19	0xbc24e56d	-0.010064465
20	0x80000003	-4e-45
21	0x80000003	-4e-45
22	0x00000000	0.0
23	0x00000000	0.0
24	0x00000003	4e-45
25	0x00000003	4e-45
26	0x80000006	-8e-45
27	0x80000006	-8e-45
28	0x80000003	-4e-45
29	0x00000003	4e-45
30	0x80000003	-4e-45
31	0x80000003	-4e-45
32	0x00000006	8e-45
33	0x80000006	-8e-45
34	0x00000004	6e-45
35	0x00000004	6e-45
36	0x00000006	8e-45
37	0x00000006	8e-45
38	0x00000003	4e-45
39	0x00000003	4e-45
40	0x00000003	4e-45
41	0x00000003	4e-45
42	0x80000003	-4e-45
43	0x00000003	4e-45
44	0x80000007	-1e-44
45	0x00000007	1e-44
46	0x00000003	4e-45
47	0x80000003	-4e-45
48	0x00000003	4e-45
49	0x00000003	4e-45
50	0x80000003	-4e-45
51	0x80000003	-4e-45
52	0x3b237fb2	0.0024947939
53	0xbc11b729	-0.008893766
54	0x00000003	4e-45
55	0x80000003	-4e-45
56	0x80000006	-8e-45
57	0x80000006	-8e-45
58	0x00000000	0.0
59	0x00000000	0.0
60	0x3bf45852	0.0074568177
61	0xbbbabe74	-0.0056989733
62	0x3b8cdd32	0.0042988295
63	0xbb5750e6	-0.0032854616
64	0x00000003	4e-45
65	0x80000003	-4e-45
66	0x00000003	4e-45
67	0x80000003	-4e-45
68	0x80000003	-4e-45
69	0x00000003	4e-45
70	0x00000003	4e-45
71	0x00000003	4e-45
72	0x80000003	-4e-45
73	0x80000003	-4e-45
74	0x00000003	4e-45
75	0x80000003	-4e-45
76	0xbaacb201	-0.0013175608
77	0x3aacb201	0.0013175608
78	0x80000003	-4e-45
79	0x80000003	-4e-45
80	0x00000003	4e-45
81	0x80000003	-4e-45
82	0x80000003	-4e-45
83	0x00000003	4e-45
84	0xbb99db65	-0.0046953433
85	0xbb0a3754	-0.0021090107
86	0x3c64e2d0	0.013970092
87	0xbb246dc8	-0.0025089849
88	0x80000003	-4e-45
89	0x00000003	4e-45
90	0x80000008	-1.1e-44
91	0x00000008	1.1e-44
92	0x00000004	6e-45
93	0x00000004	6e-45
94	0xba6d89ab	-0.00090613466
95	0x3a6d89ab	0.00090613466
96	0x3b33800d	0.0027389557
97	0xbc1ff9f6	-0.009764185
98	0x80000003	-4e-45
99	0x00000003	4e-45
100	0x3ad7074d	0.0016405374
101	0xbc216395	-0.009850402
102	0x00000000	0.0
103	0x00000000	0.0
104	0x3be67e2a	0.007034083
105	0xbba38b90	-0.0049910024
106	0x00000003	4e-45
107	0x80000003	-4e-45
108	0x3bb1786c	0.0054159667
109	0xbb7bd86b	-0.0038428556
110	0x00000003	4e-45
111	0x00000003	4e-45
112	0x3b41017f	0.0029450355
113	0xbb08f2e2	-0.0020896723
114	0x3be7c2fd	0.007072805
115	0xbaa67fb3	-0.0012702852
116	0x3c492902	0.012277843
117	0xba45828b	-0.0007534406
118	0x00000003	4e-45
119	0x00000003	4e-45
120	0x00000003	4e-45
121	0x00000003	4e-45
122	0x3c8450e1	0.016151847
123	0xba81ea2d	-0.0009911709
124	0x00010405	9.3277e-41
125	0x00010405	9.3277e-41
126	0x3b9079a2	0.004409031
127	0xbb4d05e2	-0.0031284024
128	0x00000003	4e-45
129	0x80000003	-4e-45
130	0x00000003	4e-45
131	0x00000003	4e-45
132	0x00000003	4e-45
133	0x00000003	4e-45
134	0x80000003	-4e-45
135	0x80000003	-4e-45
136	0x80000003	-4e-45
137	0x00000003	4e-45
138	0x3c063848	0.008192129
139	0xbbbe7812	-0.0058126533
140	0x00000003	4e-45
141	0x80000003	-4e-45
142	0x00000003	4e-45
143	0x80000003	-4e-45
144	0x00000003	4e-45
145	0x80000003	-4e-45
146	0x00000003	4e-45
147	0x80000003	-4e-45
148	0x80000003	-4e-45
149	0x00000003	4e-45
150	0x3b559d63	0.003259503
151	0xbb179223	-0.0023127876
152	0x80000003	-4e-45
153	0x00000003	4e-45
154	0x00000004	6e-45
155	0x00000004	6e-45
156	0xba41de15	-0.00073954585
157	0x3b5277da	0.0032114894
158	0x00000003	4e-45
159	0x00000003	4e-45
160	0x00000000	0.0
161	0x00000000	0.0
162	0xbbf09b29	-0.0073427153
163	0xbb5825f3	-0.0032981604
164	0x00000003	4e-45
165	0x00000003	4e-45
166	0x00000004	6e-45
167	0x00000004	6e-45
168	0x80000003	-4e-45
169	0x00000003	4e-45
170	0x00000004	6e-45
171	0x00000004	6e-45
172	0x00000000	0.0
173	0x00000000	0.0
174	0x00000003	4e-45
175	0x80000003	-4e-45
176	0x3b3ecfa0	0.0029115453
177	0xbc2a0ec5	-0.010379498
178	0x00000000	0.0
179	0x00000000	0.0
180	0x80000003	-4e-45
181	0x00000003	4e-45
182	0x00000003	4e-45
183	0x80000003	-4e-45
184	0x3bcaaf38	0.0061854385
185	0xbb8fd080	-0.004388869
186	0x3b99278a	0.004673903
187	0x3c107285	0.008816366
188	0x00000003	4e-45
189	0x80000003	-4e-45
190	0x00000003	4e-45
191	0x80000003	-4e-45
192	0x00000000	0.0
193	0x00000000	0.0
194	0x3c044db2	0.008075165
195	0xbabe1823	-0.0014503043
196	0x00000000	0.0
197	0x00000000	0.0
198	0x3c2fe8f5	0.010736694
199	0xba2cb87d	-0.000658877

sqr_avg f4 [100, 2]
0	0x3b1b5d03	0.0023706562
1	0x3b18e495	0.0023329605
2	0x1526c269	3.3676796e-26
3	0x1526c269	3.3676796e-26
4	0x00000000	0.0
5	0x00000000	0.0
6	0x0f3a0463	9.171353e-30
7	0x0f6ef8db	1.1782234e-29
8	0x3b043d1e	0.002017803
9	0x3adec0e4	0.0016994742
10	0x0e16e7b5	1.860049e-30
11	0x0e168202	1.8551524e-30
12	0x3a5af965	0.0008353203
13	0x3a4b960f	0.0007766196
14	0x1132c96c	1.4103792e-28
15	0x1132c96c	1.4103792e-28
16	0x0f02b44f	6.444221e-30
17	0x0f076e98	6.6773135e-30
18	0x3abc8eeb	0.0014385855
19	0x3aa74407	0.0012761363
20	0x1494ffd1	1.5045083e-26
21	0x14c2b639	1.9660868e-26
22	0x00000000	0.0
23	0x00000000	0.0
24	0x135598e5	2.6959762e-27
25	0x1346b817	2.5081877e-27
26	0x2287621d	3.6695705e-18
27	0x2291a1c8	3.947362e-18
28	0x16027b38	1.0540197e-25
29	0x160d853d	1.1431932e-25
30	0x15602e7a	4.5273103e-26
31	0x15856bd8	5.388842e-26
32	0x23b70a33	1.984522e-17
33	0x23b70aff	1.9845557e-17
34	0x1bc49a66	3.2525258e-22
35	0x1bc49a66	3.2525258e-22
36	0x2299ed47	4.172196e-18
37	0x22a8d513	4.5762092e-18
38	0x14293fe8	8.544923e-27
39	0x14191eba	7.730586e-27
40	0x1241ec9a	6.1191696e-28
41	0x1241ec9a	6.1191696e-28
42	0x14a82703	1.6979052e-26
43	0x14a89d96	1.7025822e-26
44	0x24576170	4.6703226e-17
45	0x2455c1c4	4.635114e-17
46	0x0efc419b	6.2185972e-30
47	0x0ef8d333	6.1340098e-30
48	0x0c55ff6b	1.6485785e-31
49	0x0beceb33	9.125778e-32
50	0x121ce33e	4.950502e-28
51	0x12233394	5.1497306e-28
52	0x3a9339cb	0.0011232434
53	0x3a8299c6	0.0009964041
54	0x0e6cbde8	2.9180682e-30
55	0x0e6cbde8	2.9180682e-30
56	0x23adc68c	1.8840785e-17
57	0x23adc68c	1.8840785e-17
58	0x00000000	0.0
59	0x00000000	0.0
60	0x3b2a2af9	0.0025965555
61	0x3b1e317b	0.002413838
62	0x3a62291f	0.00086273433
63	0x3a524430	0.0008021025
64	0x11db09c7	3.4558133e-28
65	0x11db09c7	3.4558133e-28
66	0x14188eaf	7.702178e-27
67	0x1416676f	7.593463e-27
68	0x1281b35a	8.185258e-28
69	0x1281b35a	8.185258e-28
70	0x0ee5a939	5.6615814e-30
71	0x0edbaf58	5.4156518e-30
72	0x14281b00	8.487157e-27
73	0x141dfebe	7.9767134e-27
74	0x10975255	5.968585e-29
75	0x109d7a43	6.2113955e-29
76	0x3a36dbef	0.00069755217
77	0x3a36dbef	0.00069755217
78	0x0d2e4346	5.3698867e-31
79	0x0d2e4346	5.3698867e-31
80	0x1375543b	3.0964876e-27
81	0x1375543b	3.0964876e-27
82	0x0b55f1f0	4.120432e-32
83	0x0b55f1f0	4.120432e-32
84	0x3aa58e0f	0.0012630838
85	0x3a8ca15c	0.0010729241
86	0x3b54f0b7	0.003249211
87	0x3b538d88	0.0032280404
88	0x143d70cb	9.564306e-27
89	0x143d70cb	9.564306e-27
90	0x261a90d3	5.3625756e-16
91	0x261b4e72	5.388274e-16
92	0x1955773c	1.1035921e-23
93	0x1962beac	1.1722432e-23
94	0x39acf508	0.0003298896
95	0x39acf508	0.0003298896
96	0x3ab170af	0.0013537611
97	0x3a9d675a	0.001200895
98	0x0bd284f2	8.108909e-32
99	0x0bd284f2	8.108909e-32
100	0x3b49cde0	0.0030792877
101	0x3b29f7e6	0.0025935112
102	0x00000000	0.0
103	0x00000000	0.0
104	0x3b9754ea	0.004618277
105	0x3b94ebd9	0.004544717
106	0x14df2eff	2.2535782e-26
107	0x15177e25	3.0593718e-26
108	0x3b33701e	0.002738006
109	0x3b3092fb	0.0026943076
110	0x10ad86e9	6.844433e-29
111	0x10efabb1	9.453341e-29
112	0x3a5439b4	0.00080957566
113	0x3a50dbf6	0.0007967347
114	0x3a5a4dd0	0.0008327635
115	0x3a58e92a	0.000827449
116	0x3b908dbf	0.0044114287
117	0x3ba2324e	0.0049498444
118	0x0e9aa43b	3.812208e-30
119	0x0e9aa43b	3.812208e-30
120	0x0e241cd5	2.0228443e-30
121	0x0e3c9935	2.3246556e-30
122	0x3bfa20e2	0.0076333145
123	0x3c0c547d	0.008565065
124	0x2a66e2e8	2.0506828e-13
125	0x2a40305e	1.7069806e-13
126	0x3aedc205	0.0018139487
127	0x3ae9f848	0.0017850483
128	0x1271c6c9	7.6291213e-28
129	0x1271defb	7.6321036e-28
130	0x0d6ae62d	7.238388e-31
131	0x0d61fd9e	6.963876e-31
132	0x10664905	4.5415754e-29
133	0x10664905	4.5415754e-29
134	0x0d9c6297	9.637977e-31
135	0x0d9ab3bd	9.534253e-31
136	0x0d18c112	4.7071016e-31
137	0x0d72a62d	7.4772034e-31
138	0x3bcd3ba7	0.0062632146
139	0x3bc9f5ce	0.0061633354
140	0x11983541	2.4014192e-28
141	0x11983541	2.4014192e-28
142	0x0d16256d	4.626737e-31
143	0x0d8d53c4	8.709962e-31
144	0x0fc59dc4	1.9486469e-29
145	0x0fc59dc4	1.9486469e-29
146	0x0c4ccc14	1.5777001e-31
147	0x0ca35187	2.5163194e-31
148	0x12cd6d7b	1.2964308e-27
149	0x12c83a5c	1.2636161e-27
150	0x3a81eb00	0.0009911954
151	0x3a7fb611	0.0009754608
152	0x1728467a	5.437268e-25
153	0x1710615c	4.6651794e-25
154	0x1905b5ea	6.912676e-24
155	0x19082c69	7.040004e-24
156	0x3b9beddb	0.004758579
157	0x3ba44058	0.005012553
158	0x162f9fcd	1.4186812e-25
159	0x162dd2bf	1.4041328e-25
160	0x00000000	0.0
161	0x00000000	0.0
162	0x3b4a74c2	0.0030892347
163	0x3b2bfa12	0.0026241583
164	0x0ef4964d	6.029538e-30
165	0x0ef4964d	6.029538e-30
166	0x1c988c1c	1.0094734e-21
167	0x1c98af46	1.0103823e-21
168	0x13285663	2.1247173e-27
169	0x13286630	2.1254963e-27
170	0x1a9fcd46	6.6092496e-23
171	0x1abf5111	7.912672e-23
172	0x00000000	0.0
173	0x00000000	0.0
174	0x16a99bba	2.74017e-25
175	0x16a99bba	2.74017e-25
176	0x3ac8996a	0.001530451
177	0x3ab1f241	0.0013576226
178	0x00000000	0.0
179	0x00000000	0.0
180	0x139f04f2	4.014212e-27
181	0x139747a6	3.818841e-27
182	0x14f57033	2.4782933e-26
183	0x150dd860	2.8645413e-26
184	0x3b6a0404	0.003570796
185	0x3b664b47	0.0035140084
186	0x3b83f436	0.004026915
187	0x3b9d1786	0.004794064
188	0x1229a954	5.353571e-28
189	0x1229a954	5.353571e-28
190	0x0e13b394	1.8205613e-30
191	0x0e13b394	1.8205613e-30
192	0x00000000	0.0
193	0x00000000	0.0
194	0x3a8e5a03	0.0010860566
195	0x3a8d6f64	0.0010790643
196	0x00000000	0.0
197	0x00000000	0.0
198	0x3b5d1579	0.0033734723
199	0x3b7811e5	0.0037852463

grad_avg f4 [100]
0	0xb97ba4b5	-0.00023998583
1	0x00000003	4e-45
2	0x00000000	0.0
3	0x00000003	4e-45
4	0x3b7c953e	0.0038541104
5	0x00000003	4e-45
6	0xba7bb32d	-0.00096015894
7	0x00000003	4e-45
8	0x00000003	4e-45
9	0x3b390523	0.0028231821
10	0x00000003	4e-45
11	0x00000000	0.0
12	0x00000003	4e-45
13	0x00000006	8e-45
14	0x00000003	4e-45
15	0x00000003	4e-45
16	0x00000006	8e-45
17	0x00000004	6e-45
18	0x00000006	8e-45
19	0x00000003	4e-45
20	0x00000003	4e-45
21	0x00000003	4e-45
22	0x00000007	1e-44
23	0x00000003	4e-45
24	0x00000003	4e-45
25	0x00000003	4e-45
26	0x3b237fb3	0.002494794
27	0x00000003	4e-45
28	0x00000006	8e-45
29	0x00000000	0.0
30	0xbadde673	-0.0016929641
31	0xba7fd733	-0.0009759545
32	0x00000003	4e-45
33	0x00000003	4e-45
34	0x00000003	4e-45
35	0x00000003	4e-45
36	0x00000003	4e-45
37	0x00000003	4e-45
38	0x3aacb206	0.0013175614
39	0x00000003	4e-45
40	0x00000003	4e-45
41	0x00000003	4e-45
42	0xbb0a3758	-0.0021090116
43	0x3b246dcb	0.0025089856
44	0x00000003	4e-45
45	0x00000008	1.1e-44
46	0x00000004	6e-45
47	0x3a6d89a9	0.00090613455
48	0x3b33800e	0.002738956
49	0x00000003	4e-45
50	0x3b9c028a	0.004761045
51	0x00000000	0.0
52	0xb9af997c	-0.00033492956
53	0x00000003	4e-45
54	0xb9873523	-0.00025788796
55	0x00000003	4e-45
56	0xb91302dd	-0.00014020079
57	0x3aa67fb8	0.0012702858
58	0x3b8ca5d7	0.0042922306
59	0x00000003	4e-45
60	0x00000003	4e-45
61	0x3bb90695	0.0056465366
62	0x00010405	9.3277e-41
63	0xb95c1fc1	-0.00020992664
64	0x00000003	4e-45
65	0x00000003	4e-45
66	0x00000003	4e-45
67	0x00000003	4e-45
68	0x00000003	4e-45
69	0xb9cc85ab	-0.00039009503
70	0x00000003	4e-45
71	0x00000003	4e-45
72	0x00000003	4e-45
73	0x00000003	4e-45
74	0x00000003	4e-45
75	0xb922b652	-0.00015517444
76	0x00000003	4e-45
77	0x00000004	6e-45
78	0xbc1e3142	-0.009655299
79	0x00000003	4e-45
80	0x00000000	0.0
81	0xbb5825f1	-0.00329816
82	0x00000003	4e-45
83	0x00000004	6e-45
84	0x00000003	4e-45
85	0x00000004	6e-45
86	0x00000000	0.0
87	0x00000003	4e-45
88	0x3b3ecfa4	0.0029115463
89	0x00000000	0.0
90	0x00000003	4e-45
91	0x00000003	4e-45
92	0xb99a68d4	-0.00029451272
93	0xbb99278d	-0.0046739043
94	0x00000003	4e-45
95	0x00000003	4e-45
96	0x00000000	0.0
97	0x3abe1825	0.0014503045
98	0x00000000	0.0
99	0x3b75fcab	0.0037534635

sqr_avg f4 [100]
0	0x3b153c36	0.0022771484
1	0x1526c269	3.3676796e-26
2	0x00000000	0.0
3	0x0f6ef8db	1.1782234e-29
4	0x3add2f3e	0.0016875041
5	0x0e16e7b5	1.860049e-30
6	0x3a7216d4	0.0009234969
7	0x1132c96c	1.4103792e-28
8	0x0f02b44f	6.444221e-30
9	0x3abc8eeb	0.0014385855
10	0x14c2b639	1.9660868e-26
11	0x00000000	0.0
12	0x136f23ab	3.0183627e-27
13	0x22885433	3.6952023e-18
14	0x160d853d	1.1431932e-25
15	0x159195ba	5.880126e-26
16	0x23b70af7	1.9845544e-17
17	0x1bc49a66	3.2525258e-22
18	0x22a8d513	4.5762092e-18
19	0x14443ac3	9.90706e-27
20	0x1241ec9a	6.1191696e-28
21	0x14a89d96	1.7025822e-26
22	0x24576170	4.6703226e-17
23	0x0f20148b	7.8925655e-30
24	0x0c55ff6b	1.6485785e-31
25	0x12373b61	5.781781e-28
26	0x3a9339c9	0.0011232431
27	0x0e6cbde8	2.9180682e-30
28	0x23adc68c	1.8840785e-17
29	0x00000000	0.0
30	0x3b3c15c3	0.0028699494
31	0x3a7a043d	0.0009537375
32	0x11db09c7	3.4558133e-28
33	0x1427e79b	8.4770215e-27
34	0x1281b35a	8.185258e-28
35	0x0ee5a488	5.6611296e-30
36	0x14281b00	8.487157e-27
37	0x10ab8ec1	6.7667555e-29
38	0x3a36dbef	0.00069755217
39	0x0d2e4346	5.3698867e-31
40	0x1375543b	3.0964876e-27
41	0x0b55f1f0	4.120432e-32
42	0x3a8ca15c	0.0010729241
43	0x3b538d88	0.0032280404
44	0x143d70cb	9.564306e-27
45	0x26314226	6.149886e-16
46	0x1962beac	1.1722432e-23
47	0x39acf508	0.0003298896
48	0x3ab170b0	0.0013537612
49	0x0bd284f2	8.108909e-32
50	0x3b28c5c1	0.0025752636
51	0x00000000	0.0
52	0x3b915cce	0.004436112
53	0x15177e25	3.0593718e-26
54	0x3b2c5cd9	0.0026300459
55	0x10efabb1	9.453341e-29
56	0x3a4beb84	0.000777893
57	0x3a58e927	0.00082744885
58	0x3b86483f	0.004097968
59	0x0e9aa43b	3.812208e-30
60	0x0e86761b	3.314728e-30
61	0x3be8588f	0.007090635
62	0x2a66e2e8	2.0506828e-13
63	0x3ae461df	0.0017424187
64	0x1271c6c9	7.6291213e-28
65	0x0d6ae62d	7.238388e-31
66	0x10664905	4.5415754e-29
67	0x0df3d7ae	1.5027954e-30
68	0x0d72a62d	7.4772034e-31
69	0x3bc51c51	0.0060153385
70	0x11983541	2.4014192e-28
71	0x0d8d53c4	8.709962e-31
72	0x0fc59dc4	1.9486469e-29
73	0x0ca35187	2.5163194e-31
74	0x12cd6d7b	1.2964308e-27
75	0x3a799f03	0.0009522291
76	0x1728467a	5.437268e-25
77	0x1905b5ea	6.912676e-24
78	0x3b9ffd16	0.004882465
79	0x162dd26d	1.4041227e-25
80	0x00000000	0.0
81	0x3b2bfa12	0.0026241583
82	0x0ef4964d	6.029538e-30
83	0x1c98af46	1.0103823e-21
84	0x133e780d	2.4040561e-27
85	0x1abf5111	7.912672e-23
86	0x00000000	0.0
87	0x16a99bba	2.74017e-25
88	0x3ac89969	0.0015304509
89	0x00000000	0.0
90	0x13adbf00	4.385968e-27
91	0x150dd860	2.8645413e-26
92	0x3b60c95c	0.0034299707
93	0x3b83f437	0.0040269154
94	0x1229a954	5.353571e-28
95	0x0e13b394	1.8205613e-30
96	0x00000000	0.0
97	0x3a8d6f64	0.0010790643
98	0x00000000	0.0
99	0x3b4d60b4	0.0031338157

grad_avg f4 [1, 100]
0	0xbbdfef9c	-0.0068339836
1	0x80000003	-4e-45
2	0x00000000	0.0
3	0x00000003	4e-45
4	0x3c233093	0.009960311
5	0x80000003	-4e-45
6	0xbc897136	-0.016777616
7	0x80000003	-4e-45
8	0x00000003	4e-45
9	0x3afc0081	0.0019226224
10	0x80000003	-4e-45
11	0x00000000	0.0
12	0x80000003	-4e-45
13	0x80000006	-8e-45
14	0x80000003	-4e-45
15	0x00000003	4e-45
16	0x80000006	-8e-45
17	0x80000004	-6e-45
18	0x80000006	-8e-45
19	0x00000003	4e-45
20	0x80000003	-4e-45
21	0x80000003	-4e-45
22	0x80000007	-1e-44
23	0x80000003	-4e-45
24	0x80000003	-4e-45
25	0x80000003	-4e-45
26	0xbadca2e5	-0.0016833214
27	0x00000003	4e-45
28	0x80000006	-8e-45
29	0x00000000	0.0
30	0xbd2cfa78	-0.042231053
31	0xbca39b6f	-0.019971577
32	0x80000003	-4e-45
33	0x80000003	-4e-45
34	0x80000003	-4e-45
35	0x00000003	4e-45
36	0x80000003	-4e-45
37	0x80000003	-4e-45
38	0xbbcdcd87	-0.0062806043
39	0x80000003	-4e-45
40	0x80000003	-4e-45
41	0x00000003	4e-45
42	0x3c0b4244	0.008499686
43	0xbd127944	-0.03576018
44	0x80000003	-4e-45
45	0x00000008	1.1e-44
46	0x80000004	-6e-45
47	0xbb8a0f38	-0.00421324
48	0xbca13c13	-0.019681966
49	0x80000003	-4e-45
50	0x3b25b910	0.0025287308
51	0x00000000	0.0
52	0x3bc27487	0.0059343013
53	0x00000003	4e-45
54	0x3cb132b1	0.021630617
55	0x80000003	-4e-45
56	0x3a44b095	0.00075031194
57	0xbc308a92	-0.010775225
58	0x3cb52928	0.022114351
59	0x80000003	-4e-45
60	0x80000003	-4e-45
61	0xba9ed4df	-0.0012117884
62	0x80052857	-4.73649e-40
63	0x3b994aca	0.004678105
64	0x80000003	-4e-45
65	0x80000003	-4e-45
66	0x80000003	-4e-45
67	0x80000003	-4e-45
68	0x00000003	4e-45
69	0xb9450433	-0.00018788948
70	0x80000003	-4e-45
71	0x00000003	4e-45
72	0x00000003	4e-45
73	0x00000003	4e-45
74	0x80000003	-4e-45
75	0xbb320c2f	-0.0027167907
76	0x80000003	-4e-45
77	0x80000004	-6e-45
78	0x3cca805f	0.024719415
79	0x80000003	-4e-45
80	0x00000000	0.0
81	0x3c735c21	0.014853508
82	0x00000003	4e-45
83	0x80000004	-6e-45
84	0x00000003	4e-45
85	0x80000004	-6e-45
86	0x00000000	0.0
87	0x80000003	-4e-45
88	0x3cc7f21a	0.024407435
89	0x00000000	0.0
90	0x00000003	4e-45
91	0x80000003	-4e-45
92	0xbc32f764	-0.01092324
93	0x3cf23777	0.029567463
94	0x00000003	4e-45
95	0x80000003	-4e-45
96	0x00000000	0.0
97	0x3b8a8669	0.0042274487
98	0x00000000	0.0
99	0x3cb860e7	0.022507144

sqr_avg f4 [1, 100]
0	0x3d9acdde	0.07558797
1	0x1810e30a	1.872619e-24
2	0x00000000	0.0
3	0x148fbf52	1.4514773e-26
4	0x3db0346c	0.08603749
5	0x10331718	3.5319316e-29
6	0x3d41659e	0.04721605
7	0x12ad42f0	1.0934336e-27
8	0x150bb88d	2.821641e-26
9	0x3ced4560	0.028963745
10	0x1851380a	2.704091e-24
11	0x00000000	0.0
12	0x18c1f919	5.0140855e-24
13	0x268fdece	9.98301e-16
14	0x188a566f	3.575944e-24
15	0x1b8f88c9	2.374576e-22
16	0x26267188	5.7746683e-16
17	0x1d75fd32	3.2556379e-21
18	0x257f5e00	2.2149573e-16
19	0x19e2e122	2.3458783e-23
20	0x13053135	1.6811221e-27
21	0x177cc136	8.166946e-25
22	0x27b038b0	4.8911274e-15
23	0x15ab5e6c	6.921532e-26
24	0x12012773	4.075385e-28
25	0x17ec70a3	1.5279576e-24
26	0x3cb5ef17	0.022208733
27	0x10b55733	7.1526264e-29
28	0x261ac935	5.370217e-16
29	0x00000000	0.0
30	0x3dd1febe	0.10253666
31	0x3d8c2af9	0.06844134
32	0x15715e3d	4.8743903e-26
33	0x1940adab	9.961239e-24
34	0x154df26e	4.1590664e-26
35	0x153ab1b7	3.7702593e-26
36	0x19c1f258	2.0053614e-23
37	0x168bd7b4	2.259279e-25
38	0x3c81dc6b	0.015852174
39	0x120dcb47	4.4742314e-28
40	0x1736f175	5.9112133e-25
41	0x0b9f8eda	6.145951e-32
42	0x3d03c693	0.032171797
43	0x3d962a2c	0.073322624
44	0x15a8313e	6.793235e-26
45	0x2986bebc	5.9838826e-14
46	0x1cbcfdd1	1.2506406e-21
47	0x3be9be87	0.0071333083
48	0x3d91add9	0.07113237
49	0x0ead7d30	4.2768344e-30
50	0x3e0f9038	0.14019859
51	0x00000000	0.0
52	0x3dfcff77	0.123534136
53	0x1a8c9731	5.8146906e-23
54	0x3dcd7873	0.100327395
55	0x1500e4bd	2.6029837e-26
56	0x3d3d6a00	0.046243668
57	0x3cd09b5f	0.025464712
58	0x3e147fde	0.14501902
59	0x11c85d76	3.1612036e-28
60	0x14ee88d7	2.4085832e-26
61	0x3eabd141	0.33558086
62	0x2d88e419	1.5562706e-11
63	0x3d38cea8	0.045118958
64	0x17b94ac7	1.1974221e-24
65	0x124fd091	6.557476e-28
66	0x132b8ab5	2.1651622e-27
67	0x109f8717	6.292258e-29
68	0x11484425	1.5798217e-28
69	0x3e072b19	0.13200034
70	0x144597cd	9.975896e-27
71	0x1320feb5	2.032042e-27
72	0x1532ea66	3.613172e-26
73	0x108eb24d	5.628384e-29
74	0x16579a51	1.7416255e-25
75	0x3d2ef11e	0.042710416
76	0x1a786079	5.1363128e-23
77	0x1d0b9d02	1.8477668e-21
78	0x3e028b8e	0.12748548
79	0x1a58512d	4.4733326e-23
80	0x00000000	0.0
81	0x3da7033b	0.08154913
82	0x12a0340e	1.0110252e-27
83	0x1ff3ae7c	1.03203163e-19
84	0x178023cc	8.280843e-25
85	0x1d5e3e55	2.941368e-21
86	0x00000000	0.0
87	0x19b1aee6	1.8372012e-23
88	0x3d53c6a4	0.05170311
89	0x00000000	0.0
90	0x194232fe	1.0039863e-23
91	0x185fb669	2.8914168e-24
92	0x3e323975	0.1740473
93	0x3dd63257	0.1045882
94	0x14d00f18	2.1008586e-26
95	0x115f7d78	1.7630261e-28
96	0x00000000	0.0
97	0x3d418f6d	0.047255922
98	0x00000000	0.0
99	0x3e312aaa	0.17301431
