trees/save/graph/2bits/split_75.0_0.1_50/models/model.pth (torch, 15958 bytes, 12 tensors)

embedding_layers.weight f4 [170, 2]
00000000: e4b9 41bc 3b7d 8bba caea bdbb 482b 3dbc
00000010: e04f 64ba c16e 2e3a 3dd3 083c 5eb5 1f3b
00000020: b298 1c3b 7092 c3bb 9c24 32bb 50cb 04bc
00000030: d3e4 a839 a51b 5dbc 58f6 33bb d288 633b
00000040: 8ea8 a0bb 9ccd c239 825b bfbb 4728 c83a
00000050: 7da2 3f3b 23fc 983b 0374 24bb f59c c7ba
00000060: 2f95 cabb bc15 99ba db4e 09bc 5ae4 93bb
00000070: 1977 0a3c c087 a7bb 545a 67bb 70de 10bc
00000080: 3a31 daba 8927 373c c831 d43a 8cea 773a
00000090: 37f8 d8bb 42ac e739 9dad c7bb 1d77 5e3c
000000a0: 1e28 463c e7d8 30bc de31 733b 432a 8dbb
000000b0: b296 073c 305f 67bc 88db 273a 23d0 44bb
000000c0: 421e 843b 603b 84ba 5200 ca3b 2b16 43bc
000000d0: 678f edbb 59af f03b 933d 3dbb 206a 7a39
000000e0: 12d9 4d3c 017d 2b3b c5f6 fb3b 1b46 c2b9
000000f0: 00e7 c2bb cd8e 43bc 4d42 4d3c d7c7 57bc
00000100: b01f 93ba 837f 0ebc 5428 243c 6bed 7bbc
00000110: 56f0 c8bb 7a96 07bb 73a4 0dbc 5b8d 16ba
00000120: ec08 c23a 8d70 0d3a f8e5 f83b bbfc f93a
00000130: 6100 003b 7adc a93b 97af 923b b2bf 9bbb
00000140: 0f24 ba3b 2559 083a 97ff 283c 8de8 08bc
00000150: 1dbf bc3a 2adc ef3b a15b 97ba 2fd9 02bc
00000160: 9b8f 273b a589 a43b 6e06 5e3c be0d 7d3a
00000170: 1996 b93b 4728 ce3a e441 853c 54b5 873b
00000180: 614f 263c 03d8 473b 5726 83ba 99a9 a6bb
00000190: 2e5f 77bb 2327 59bb 20c2 6bba cb32 fcba
000001a0: 6e09 3f3c 3b32 a63b e745 0f3c bedf 1fbb
000001b0: 5f0b 40bc 16c4 e93b e480 ddbb be74 9fba
000001c0: 2650 b5bb 71d7 263b 3b42 81bb 25cf 293a
000001d0: 75c4 e8ba 1483 9b38 3577 c3bb 840e d6bb
000001e0: c46f 143b 0a4d db3b 9c6f 88ba 314c 46bb
000001f0: 8935 3e3b f9a6 39bc 936b 5f3c 30c7 7d3c
00000200: 07ca bf3a 36db 5eba 20a3 30bc 4108 d8bb
00000210: 2e7d 633a 3041 aebb 0ff8 42bc 87c1 27ba
00000220: e53b 0bbb d890 63bc c253 ffb8 ab2c dfbb
00000230: 8602 7c3b 0b3f 353c 826b 453c 1c40 893b
00000240: 6ab5 973a c74e 65bb 6419 1cbc dfc4 01bc
00000250: ef2a 78bb 79a8 dabb 5526 673b 9de2 683c
00000260: 715d 293c 67cc 7cbb d436 55bb d016 c63b
00000270: 03f4 48bb b838 ae3b 5e01 3a3c 2b3f 4f3a
00000280: a213 1dba 6007 293c 10f6 56bc b740 893b
00000290: f2f2 d23b bdb2 7cbc 3480 72bb be47 1dbb
000002a0: e858 1f3c c573 403b 8e64 9e3b 7064 4b3b
000002b0: 239b 093c aeee d83b caad cbbb 613a 18bc
000002c0: 6df5 de3b 6bd3 6dbb 7618 35bc 9aeb 603b
000002d0: 4da7 7a3c 2e58 96bb 1918 16bb c579 f73b
000002e0: 3e18 793b 48dc f03b 0282 203c ff8b 8bbb
000002f0: e559 ca3b 47af 173b 7d48 c43b 0a30 2bbc
00000300: a1ff 2a3c 92c5 55bc 68a2 283c f30b 66bc
00000310: 80e3 5c3b 26dc 65b9 4060 bd3a 9a82 183c
00000320: ee7d 443b fc77 0abc 1b33 e4bb 506e 14ba
00000330: 2a1e b0bb 7437 153c 9d26 4c3a a5b9 323c
00000340: 8e79 c4bb d016 e53b e809 163c d924 35bc
00000350: 2bce 4cbc 8874 943b f720 dfbb 39ec 94bb
00000360: 0b3d a8bb 1948 043b 9b89 5d3c b4db c03b
00000370: 6dd9 2dbc 9142 d9ba a62f 383c c024 64bc
00000380: 8cbb 8bbb b19b 07bc 5a1b e93a e65f 5fbc
00000390: 4df8 793c d85f 86ba 40f8 243c 906f c83b
000003a0: 864e 823c 2968 14bc 52c1 87bc ac0a 2e3c
000003b0: 95c8 213c 9798 5abc 2dc6 afba 0108 123c
000003c0: ffc7 133b 6481 44bb 289e 6f3c c096 9cbb
000003d0: 83ed cb3b 97f6 2c3c 8d71 19bc 3472 a6bb
000003e0: 8b44 07bb 625a d9bb 4788 9f3b 4f86 823b
000003f0: 2422 e5bb e28d 72bb c128 00bb cf41 a5ba
-0.011824105 -0.001064218 -0.0057958113 -0.011545964 -0.0008709412 0.0006654077 0.008351144 0.0024369578
0.0023894724 -0.0059683844 -0.0027182465 -0.008105114 0.00032213944 -0.0134953605 -0.0027460065 0.0034719002
-0.004902906 0.00037155754 -0.005839766 0.0015270793 0.0029241138 0.004668729 -0.0025093562 -0.0015229272
-0.006182335 -0.0011679451 -0.008380617 -0.0045133056 0.008451247 -0.005112618 -0.0035301642 -0.008842096
-0.0016646751 0.0111788595 0.0016189152 0.00094572525 -0.0066213864 0.00044188095 -0.0060936944 0.0135782035
0.012094526 -0.010793901 0.003710858 -0.0043080165 0.008275675 -0.014121816 0.0006403257 -0.0030031286
0.0040319273 -0.0010088496 0.006164589 -0.011907141 -0.007249761 0.007345122 -0.0028875812 0.00023881393
0.012563961 0.0026167037 0.0076893293 -0.00037054796 -0.0059479475 -0.011935902 0.012528014 -0.013170204
-0.0011224654 -0.008697393 0.010019381 -0.015376429 -0.006132166 -0.0020689056 -0.008645165 -0.00057431095
0.0014803684 0.00053954945 0.007595774 0.0019072512 0.0019531476 0.0051837536 0.0044764983 -0.0047530765
0.005680568 0.0005201272 0.010314844 -0.008356226 0.0014400218 0.007319947 -0.0011547693 -0.007986351
0.0025567773 0.0050212913 0.013551338 0.0009653232 0.005663645 0.0015728556 0.01626677 0.004141489
0.010150761 0.0030493743 -0.0010005933 -0.0050861356 -0.003774594 -0.00331349 -0.00089934655 -0.0019241212
0.011659963 0.005071906 0.008744693 -0.0024394835 -0.011721461 0.007133971 -0.0067597497 -0.0012165529
-0.005533236 0.0025458003 -0.003944663 0.00064777053 -0.0017758744 7.415391e-05 -0.0059651383 -0.006532492
0.0022649625 0.0066925334 -0.0010409239 -0.0030257816 0.0029023609 -0.011331313 0.013636488 0.0154893845
0.0014632352 -0.0008501293 -0.0107810795 -0.006592781 0.0008678016 -0.0053178295 -0.011899962 -0.0006399382
-0.0021245417 -0.013889514 -0.00012174949 -0.0068107448 0.0038453653 0.011062394 0.012049558 0.0041885506
0.0011574451 -0.0034989582 -0.009527538 -0.007920473 -0.0037867387 -0.0066729155 0.003527065 0.014214185
0.01033722 -0.0038573982 -0.00325339 0.0060452 -0.003066302 0.00531682 0.011352865 0.0007905836
-0.0005992 0.0103167 -0.013120189 0.004188623 0.0064376527 -0.015423474 -0.0037002685 -0.002399906
0.009725787 0.002936588 0.0048337644 0.0031035207 0.008398804 0.0066202497 -0.0062157856 -0.009291262
0.0068041594 -0.0036289345 -0.011053195 0.0034320117 0.015298677 -0.0045881486 -0.0022902547 0.007552358
0.0038008834 0.0073504783 0.009796621 -0.004258632 0.006175267 0.0023145245 0.0059900866 -0.010448465
0.010436923 -0.013047593 0.010292627 -0.014040935 0.0033704937 -0.00021921154 0.001444824 0.009308482
0.0029982287 -0.008451458 -0.0069641 -0.000566219 -0.0053746896 0.009107459 0.0007787736 0.010908519
-0.0059959358 0.006991245 0.009157635 -0.011056148 -0.012500326 0.004530493 -0.0068093496 -0.0045447615
-0.00513423 0.0020184575 0.013521577 0.0058855657 -0.01061092 -0.0016575624 0.011241829 -0.0139247775
-0.0042643007 -0.008276866 0.0017784641 -0.013633704 0.015256953 -0.0010251952 0.010068953 0.006116815
0.015906584 -0.009058037 -0.016571674 0.010622662 0.009874483 -0.013342044 -0.0013410501 0.008913041
0.0022549627 -0.002998435 0.01462511 -0.004778713 0.006223382 0.0105568385 -0.0093654515 -0.005079532
-0.002064022 -0.006633089 0.0048685404 0.003983296 -0.0069925953 -0.0037010838 -0.0019555541 -0.0012608113

layers.0.weight f4 [100, 4]
00000000: ddeb 023e 397e 673e a752 cd3d c4ca df3e
00000010: 9812 2c3e 90d4 ce3c d6f6 80bc 37ca 4abd
00000020: eb43 b93e f7c9 81be 83ce 9ebd 0827 acbe
00000030: 44b9 fabd 7063 113d c0bf 603d 10c4 89bd
00000040: 7fa2 523b 88e0 153a fc12 8d3b a4cf 4dbb
00000050: 515c 23bd f30b 72bc fd2b 8c3c e2ac 7e3d
00000060: 8ecf 98bd 6995 57bc f611 fbbc 4499 12be
00000070: 2ebe 3ebc 86c7 7b3d 4a7b 2cbe 2da5 d03d
00000080: 8d06 01bd c5b0 a23d 06fd 483c 74b9 1f3d
00000090: 8ab9 a3bd b163 b03d 1ea8 1a3e 3b68 bb3b
000000a0: c2a9 6d3b 4e99 e5bd 3f35 ae3d a9d4 21be
000000b0: a84a f73d 1912 09bd 9506 51bd 63f6 03be
000000c0: 415e 7ebe 52bd 94be f6fc c4bd 69c4 ed3d
000000d0: 8a4a 5c3d cfe2 c4bd a008 783e 4487 563e
000000e0: 0010 01be f9a5 21be 7492 e3bc 8174 09be
000000f0: 9f5b 9cbe c632 323e 7102 2a3e 953c 62be
00000100: f7a8 edbd c8c0 efbb 4abd 4ebe 4728 3dbe
00000110: cd16 ddbe e0dc 533d d7d6 e9be 0e9c 17be
00000120: b18a 7abd 090f 613d 9132 cf3e e136 e0be
00000130: 7ea4 b2bc fc91 d6bc 9c15 6ebd 08ee 7a3c
00000140: 80b5 a7bc 2010 18bd 18db 813d b0e4 e43d
00000150: 299c 84be 83bd 06be 9e05 643b fb85 c9bd
00000160: 8ec1 99bd 13cf babc 0cff 49bd 7805 443e
00000170: 1c90 5d3d 4b33 b63c 1489 793b 13c5 463d
00000180: 0251 91be bc5d 133e fa58 98be 91b9 d4be
00000190: b876 e63d 34f1 15bd 8624 a83b c216 f43c
000001a0: c48a 983c 46d8 3c3d 6a0f 503d 21f1 be3c
000001b0: 24cd 003d cacb e83c c315 61bd cf60 7d3d
000001c0: 1059 1dbd 6f26 003d f73f adbb 9f74 20bc
000001d0: f680 6dbe 4b32 db3d 0480 293d 90ba 1cbd
000001e0: ffda a73e b357 89be f3e0 913e 326f 97be
000001f0: 0681 efbd 4a86 033e 8142 603e f018 85bd
00000200: a962 22be f274 993d cb85 8ebd 9a2d a5be
00000210: cb92 343d 82f7 943b d6f5 ea3c 509d 143e
00000220: 4410 b43d ea6f 293c c01a 98ba 1ea5 8b3c
00000230: 91d2 5a3e 8c19 0fbd 63ab 19bc 6a58 4c3e
00000240: 491b a93c afd7 1fbc dfcc a2be 236c 02bd
00000250: 758e 7ebd 45a8 553c ca91 02bc 2301 51bd
00000260: 2ef4 c33c 1f60 173e 306a db39 5ffa 0bbd
00000270: 4f99 343e 88d0 4a3e db4a 39be d3c5 48be
00000280: be07 4f3d 2b1d 033d e295 143d f493 84bd
00000290: 88a8 a1bd c609 13bd 0d52 64bc a801 edbc
000002a0: 01dd 47be b39a 49be 743b 3e3c 3d9e 3d3e
000002b0: 7556 b2bc e768 40bd a8da ecbc 0be1 b7bc
000002c0: d937 9a3a 204e 6d3c 7980 4bbd bd99 9c3c
000002d0: aeec dfba adb4 09be d6bd 97bc 971f d9bd
000002e0: eb48 34be b794 f0bd 0539 0dbe cec3 0cbc
000002f0: 36cf ac3e 0101 a53e f6e0 b13d 4963 613e
00000300: 8460 2fbc 4293 b0bc 0871 7abc e370 92bd
00000310: 6602 9a3c b48c 8bbe 2628 5b3c 18a3 833e
00000320: 373c 98be 64e8 403e 20ce 16be 5012 113e
00000330: 128c 263e 4cb6 76bd ee1b 05be bc48 d03c
00000340: c5c4 2abd 4bb1 09bd 2834 383c e51a 583b
00000350: 837c 24bd 51e1 24be 89b1 0c3d 9b15 483d
00000360: 2def 8cbd 2d6a 30bd 6a52 98bc 6588 d1bc
00000370: 9514 1e3e 7ef4 46be 1912 8cbd 1de0 253c
00000380: 9ddc 313d 2315 adbc 3691 edbc 9dee a63c
00000390: 8814 0f3d 0c9e aa3b 1192 b93d 5dd9 93bd
000003a0: 3d3a a9bd 49bb a5bd 972b 053d 1e06 2a3e
000003b0: 499c ee3c fde5 37bc 37b1 93bc 3637 703c
000003c0: 563f 48bd f24f be3c 6e1b 6cbe ee84 66bd
000003d0: fc94 9fbd c550 633d 91c7 0ebc 71a8 c0bd
000003e0: cdfa cabd cb6b 4dbe c494 723e 150f b83e
000003f0: 4033 82bd deae 12bd 537a 8ebd a5ad ea3b
0.12785287 0.22606744 0.1002553 0.43709385 0.16803968 0.025247842 -0.0157427 -0.049509253
0.3618463 -0.253494 -0.07754233 -0.33623528 -0.12242368 0.03549522 0.054870367 -0.06726849
0.0032140312 0.00057173567 0.0043052416 -0.003140428 -0.03988296 -0.014773357 0.017110819 0.062176593
-0.07461463 -0.013158181 -0.030648213 -0.14316279 -0.011642022 0.061469577 -0.16843906 0.10187755
-0.031500388 0.07943872 0.012267357 0.03899522 -0.07994373 0.086127646 0.15103194 0.0057192123
0.0036264514 -0.11210881 0.0850625 -0.1580378 0.120747864 -0.033464525 -0.051031668 -0.12886958
-0.24840643 -0.2905069 -0.09618561 0.11609728 0.053782023 -0.09613573 0.2422204 0.20950037
-0.1260376 -0.1578597 -0.027779795 -0.13423349 -0.3053865 0.17402181 0.16602494 -0.22093423
-0.11604493 -0.0073166825 -0.20189396 -0.18472396 -0.43181458 0.051724315 -0.45671722 -0.14805624
-0.061167423 0.05494598 0.40468267 -0.4379187 -0.021806952 -0.026192658 -0.058126077 0.01531554
-0.020472288 -0.037124753 0.06340617 0.11176431 -0.2590039 -0.1315823 0.0034793387 -0.09840008
-0.07507621 -0.022803819 -0.049315497 0.19142711 0.05409251 0.022241255 0.003807609 0.04852779
-0.28382117 0.14391226 -0.29755384 -0.41547826 0.112531126 -0.036606982 0.005131307 0.029796008
0.018620856 0.046104692 0.05079595 0.023308339 0.031445637 0.028417487 -0.054952394 0.061859902
-0.038415015 0.031286653 -0.005287166 -0.00979343 -0.23193726 0.10702952 0.04138185 -0.038263857
0.32784268 -0.26824722 0.28491935 -0.29577023 -0.11694531 0.12844196 0.21900369 -0.06498897
-0.15857948 0.07493009 -0.06959113 -0.32261354 0.044085305 0.004546107 0.028681677 0.14513135
0.08792165 0.010341624 -0.0011604652 0.017046507 0.21369387 -0.034936473 -0.009379241 0.19955602
0.020642893 -0.009756013 -0.3179693 -0.03184141 -0.062147576 0.013040607 -0.007969329 -0.051026475
0.023920145 0.14782761 0.0004185005 -0.03417432 0.17636608 0.19806111 -0.18094961 -0.19606714
0.050544493 0.03201024 0.036275752 -0.06473532 -0.07893473 -0.035897993 -0.013935578 -0.028931454
-0.195179 -0.1968792 0.011610854 0.18517394 -0.021769742 -0.046975043 -0.028912857 -0.022446176
0.0011765911 0.0144839585 -0.049683068 0.019116277 -0.0017084086 -0.13447829 -0.018523138 -0.106017284
-0.17605941 -0.11747115 -0.13791282 -0.008591605 0.3375184 0.32227328 0.08685486 0.2201053
-0.010704163 -0.021554593 -0.015285738 -0.07150438 0.018799972 -0.27255785 0.013376271 0.25710368
-0.2973344 0.1883865 -0.14727068 0.14167142 0.1626437 -0.060232446 -0.12998936 0.025425307
-0.04169156 -0.033616345 0.011242904 0.0032975015 -0.040157806 -0.16101576 0.034349 0.04884873
-0.06881557 -0.043070007 -0.018593986 -0.025577733 0.15437539 -0.19429204 -0.06839389 0.010124234
0.043423284 -0.021128243 -0.028999906 0.020377452 0.03493169 0.005206829 0.09061063 -0.07219193
-0.08263061 -0.080923624 0.032512274 0.16603896 0.029127257 -0.011224267 -0.018028839 0.014661601
-0.048888527 0.02323148 -0.23057339 -0.056279115 -0.077920884 0.05549695 -0.0087145725 -0.09407128
-0.09911118 -0.20060651 0.23689562 0.35949007 -0.063574314 -0.035811298 -0.06956925 0.0071618133

layers.0.bias f4 [100]
00000000: 7ac8 d63e ddbb 9fbe 08d7 b43d b748 b6be
00000010: 3ca8 89bc 99c7 1dbe 0d83 8cbe 1675 c1be
00000020: 4f5d 16be e7b3 bcbe d917 d1be 01d6 b7be
00000030: 68d3 fbbe 92d4 31bf 65fd 02bf e3b8 0ebf
00000040: 7afb 17bf cb11 2c3f 212a 023f b965 15be
00000050: 6d0e 85be ef72 97bd 336f d2be 1342 22be
00000060: f217 b1be 359d 62be 9b37 22be b4fe 78be
00000070: a741 d1bd 98f4 e9be 701c 003f 457e 16bf
00000080: c75b eabe 7839 84be 07c6 0abe 5474 f5be
00000090: 0558 cbbe 135b 1bbe 1f58 66be 91b9 b23e
000000a0: 654e 81be 6ba2 2cbe a72f 21bf e3de 0ebe
000000b0: cc2d c9bd 5082 8cbe 6d51 08bf bee4 3cbe
000000c0: 2fd1 0fbe 881d 1fbf 976c f03e cdb4 e0be
000000d0: ac8d cbbd ea02 a1be 1daf 33be 83cb fcbe
000000e0: 74a9 06be 29ab 80be a633 d2be 68f7 adbd
000000f0: 6261 b8be a035 8dbe 3f62 29be b8ae 4ebe
00000100: f8d7 98bc e3cd fe3e bdea d1be 4cd0 fabb
00000110: fead 843e bcda f6bd 24c3 b4be 5803 95be
00000120: 09f8 01be 3756 d8be e5a3 0fbe 20f0 61be
00000130: 4369 0f3f 8ee6 d93e d02d 143e 518c 7fbe
00000140: 7186 10bf 98da c3be 3da5 ffbe d3d7 1dbe
00000150: 913a c8bd e349 6bbc 59e5 fbbe c399 58be
00000160: 9a4f cfbe 586e fdbe 6b09 92be 828b 50bd
00000170: 175d 123f c8e4 96be 4386 eabe 4ac9 ddbe
00000180: a820 cabd a82b 233f 62de ccbe d281 38bd
0.41949826 -0.31198016 0.088300765 -0.35602352 -0.016803853 -0.15408172 -0.27443734 -0.37784642
-0.14684032 -0.36856005 -0.40838507 -0.3590546 -0.49184728 -0.6946498 -0.511679 -0.55750865
-0.593681 0.6721465 0.50845534 -0.14589585 -0.25987568 -0.07394969 -0.41100463 -0.15845518
-0.3458858 -0.22130282 -0.15841524 -0.24315912 -0.102176 -0.45694423 0.5004339 -0.5878642
-0.45773146 -0.25825095 -0.13552104 -0.47940314 -0.3971559 -0.15171461 -0.22494553 0.349072
-0.25255123 -0.16858833 -0.62963337 -0.13952212 -0.09823188 -0.2744317 -0.53249246 -0.18446633
-0.14044641 -0.62154436 0.46957847 -0.4388794 -0.09939131 -0.31447536 -0.17547269 -0.49374017
-0.13150579 -0.25130585 -0.4105503 -0.084944546 -0.36011797 -0.27579975 -0.16541384 -0.20183837
-0.01865767 0.49766454 -0.40999404 -0.0076542255 0.25913996 -0.12053439 -0.3530513 -0.29104114
-0.12692274 -0.42253277 -0.14027365 -0.22064257 0.5601999 0.42558712 0.14470601 -0.2495587
-0.5645514 -0.3825271 -0.49930754 -0.15414362 -0.09776796 -0.014360878 -0.49198416 -0.21152405
-0.4049042 -0.49498248 -0.2852281 -0.050914295 0.57173294 -0.2947142 -0.4580556 -0.43317634
-0.0986951 0.6373849 -0.40013415 -0.04504568

layers.2.weight f4 [1, 100]
00000000: ccd0 19be d5b1 9b38 db83 eebd 7862 17ba
00000010: 4d10 c6b9 8a7a 7f39 97e3 b8b8 0f25 5a39
00000020: c6a4 ed39 1c1e 1cb9 377f fc39 c65a 813a
00000030: bac9 24bc 8de5 6ab6 54f5 7ab9 0afc bebc
00000040: f92f f7b7 9236 5fbe f7f1 2abe b5ac 423a
00000050: 1589 83ba bb22 dbbc b05c adb9 a174 a7ba
00000060: 4521 8fbd 5352 683a 2f95 fbb8 2e4c 593b
00000070: bb12 5dba b389 ccba 974d 11be e58a 10b9
00000080: 05b7 9dbb a24a acb9 31e8 ae37 211b e4b8
00000090: f03e a4b8 5b7e 043a 18cb 8338 184b 9bbd
000000a0: c87f 3cbb 587d 90b9 b519 20bc ab17 4eba
000000b0: 5b88 d6b9 6a1d 74bb adc1 063d 9f31 aebd
000000c0: d0f6 133a f505 8b37 25bc b7bd 7f36 a8b8
000000d0: 283f 5939 d2af 5138 8d4f 96b8 0f3b 873a
000000e0: 28ee 8538 a0f6 47bb aa8d f8b8 2fee 08b8
000000f0: 8ca2 d637 adb7 38b9 441d 0dbd 20d7 cc38
00000100: bb73 d8bd 9c51 06be 260e 8e39 e762 40ba
00000110: d335 d8bd c110 39ba 0f7d 9cbb f82f 6cbd
00000120: 21f5 0c39 f953 40bd ecf9 d2b7 f495 1637
00000130: 83fb 23be 0202 6bbd 996d a1bd 35c0 c7b8
00000140: 9640 a93a f304 2eb8 41e1 b5b8 0042 2cbd
00000150: b362 ffbd 49a3 91b4 5e67 b1ba 33b0 70b9
00000160: 7af6 d9bc 9b70 9b3c 0f9d 9139 7360 caba
00000170: 11a1 03be 286f 85b9 2ca3 8fba d582 c7b8
00000180: b87b ccb8 2a83 19be 77c6 1b3b fa6d b8bc
-0.15021056 7.4241e-05 -0.11646243 -0.0005774866 -0.00037777648 0.00024364344 -8.8161956e-05 0.00020803905
0.00045326928 -0.00014888536 0.00048159968 0.0009868972 -0.010057861 -3.5002333e-06 -0.0002393325 -0.023313541
-2.9467034e-05 -0.2179816 -0.16693865 0.0007426248 -0.001003536 -0.02674996 -0.0003306619 -0.0012775847
-0.069887675 0.0008862365 -0.000119964 0.003315698 -0.0008433272 -0.0015605002 -0.14189754 -0.00013784652
-0.0048130774 -0.00032862002 2.0850539e-05 -0.0001087694 -7.8318524e-05 0.0005054229 6.284396e-05 -0.07582682
-0.0028762687 -0.0002755921 -0.009771754 -0.0007861803 -0.00040918853 -0.0037248977 0.032899547 -0.08505558
0.0005644383 1.6572865e-05 -0.089714326 -8.021015e-05 0.0002071826 4.999323e-05 -7.167375e-05 0.0010317283
6.386294e-05 -0.003051199 -0.000118519485 -3.2646753e-05 2.558648e-05 -0.00017616032 -0.034451738 9.767548e-05
-0.10568949 -0.13117069 0.00027094892 -0.00073389563 -0.10557141 -0.00070596865 -0.0047756503 -0.057662934
0.00013442758 -0.046955083 -2.515033e-05 8.97561e-06 -0.16013913 -0.05737496 -0.07882232 -9.524861e-05
0.0012912925 -4.1489442e-05 -8.6727094e-05 -0.04205513 -0.12469997 -2.712716e-07 -0.0013534834 -0.00022953823
-0.026606787 0.018974593 0.00027773573 -0.0015440121 -0.1285441 -0.00025450555 -0.0010958663 -9.513429e-05
-9.7505224e-05 -0.14991441 0.0023769417 -0.022513378

grad_avg f4 [170, 2]
00000000: 0000 0000 0000 0000 0000 0000 0000 0000
00000010: 0000 0000 0000 0000 0000 0000 0000 0000
00000020: 0000 0000 0000 0000 0000 0000 0000 0000
00000030: 0000 0000 0000 0000 0000 0000 0000 0000
00000040: 0000 0000 0000 0000 0000 0000 0000 0000
00000050: 0000 0000 0000 0000 0000 0000 0000 0000
00000060: 0000 0000 0000 0000 0000 0000 0000 0000
00000070: 0000 0000 0000 0000 0000 0000 0000 0000
00000080: 0000 0000 0000 0000 0000 0000 0000 0000
00000090: 0000 0000 0000 0000 0000 0000 0000 0000
000000a0: 0000 0000 0000 0000 0000 0000 0000 0000
000000b0: 0000 0000 0000 0000 0000 0000 0000 0000
000000c0: 0000 0000 0000 0000 0000 0000 0000 0000
000000d0: 0000 0000 0000 0000 0000 0000 0000 0000
000000e0: 0000 0000 0000 0000 0000 0000 0000 0000
000000f0: 0000 0000 0000 0000 0000 0000 0000 0000
00000100: 0000 0000 0000 0000 0000 0000 0000 0000
00000110: 0000 0000 0000 0000 0000 0000 0000 0000
00000120: 0000 0000 0000 0000 0000 0000 0000 0000
00000130: 0000 0000 0000 0000 0000 0000 0000 0000
00000140: 0000 0000 0000 0000 0000 0000 0000 0000
00000150: 0000 0000 0000 0000 0000 0000 0000 0000
00000160: 0000 0000 0000 0000 0000 0000 0000 0000
00000170: 0000 0000 0000 0000 0000 0000 0000 0000
00000180: 0000 0000 0000 0000 0000 0000 0000 0000
00000190: 0000 0000 0000 0000 0000 0000 0000 0000
000001a0: 0000 0000 0000 0000 0000 0000 0000 0000
000001b0: 0000 0000 0000 0000 0000 0000 0000 0000
000001c0: 0000 0000 0000 0000 0000 0000 0000 0000
000001d0: 0000 0000 0000 0000 0000 0000 0000 0000
000001e0: 0000 0000 0000 0000 0000 0000 0000 0000
000001f0: 0000 0000 0000 0000 0000 0000 0000 0000
00000200: 0000 0000 0000 0000 0000 0000 0000 0000
00000210: 0000 0000 0000 0000 0000 0000 0000 0000
00000220: 0000 0000 0000 0000 0000 0000 0000 0000
00000230: 0000 0000 0000 0000 0000 0000 0000 0000
00000240: 0000 0000 0000 0000 0000 0000 0000 0000
00000250: 0000 0000 0000 0000 0000 0000 0000 0000
00000260: 0000 0000 0000 0000 0000 0000 0000 0000
00000270: 0000 0000 0000 0000 0000 0000 0000 0000
00000280: 0000 0000 0000 0000 0000 0000 0000 0000
00000290: 0000 0000 0000 0000 0000 0000 0000 0000
000002a0: 0000 0000 0000 0000 0000 0000 0000 0000
000002b0: 0000 0000 0000 0000 0000 0000 0000 0000
000002c0: 0000 0000 0000 0000 0000 0000 0000 0000
000002d0: 0000 0000 0000 0000 0000 0000 0000 0000
000002e0: 0000 0000 0000 0000 0000 0000 0000 0000
000002f0: 0000 0000 0000 0000 0000 0000 0000 0000
00000300: 0000 0000 0000 0000 0000 0000 0000 0000
00000310: 0000 0000 0000 0000 0000 0000 0000 0000
00000320: 0000 0000 0000 0000 0000 0000 0000 0000
00000330: 0000 0000 0000 0000 0000 0000 0000 0000
00000340: 0000 0000 0000 0000 0000 0000 0000 0000
00000350: 0000 0000 0000 0000 0000 0000 0000 0000
00000360: 0000 0000 0000 0000 0000 0000 0000 0000
00000370: 0000 0000 0000 0000 0000 0000 0000 0000
00000380: 0000 0000 0000 0000 0000 0000 0000 0000
00000390: 0000 0000 0000 0000 0000 0000 0000 0000
000003a0: 0000 0000 0000 0000 0000 0000 0000 0000
000003b0: 0000 0000 0000 0000 0000 0000 0000 0000
000003c0: 0000 0000 0000 0000 0000 0000 0000 0000
000003d0: 0000 0000 0000 0000 0000 0000 0000 0000
000003e0: 0000 0000 0000 0000 0000 0000 0000 0000
000003f0: 0000 0000 0000 0000 0000 0000 0000 0000
0.0 0.0 0.0 0.0 0.0 0.0 0.0 0.0
0.0 0.0 0.0 0.0 0.0 0.0 0.0 0.0
0.0 0.0 0.0 0.0 0.0 0.0 0.0 0.0
0.0 0.0 0.0 0.0 0.0 0.0 0.0 0.0
0.0 0.0 0.0 0.0 0.0 0.0 0.0 0.0
0.0 0.0 0.0 0.0 0.0 0.0 0.0 0.0
0.0 0.0 0.0 0.0 0.0 0.0 0.0 0.0
0.0 0.0 0.0 0.0 0.0 0.0 0.0 0.0
0.0 0.0 0.0 0.0 0.0 0.0 0.0 0.0
0.0 0.0 0.0 0.0 0.0 0.0 0.0 0.0
0.0 0.0 0.0 0.0 0.0 0.0 0.0 0.0
0.0 0.0 0.0 0.0 0.0 0.0 0.0 0.0
0.0 0.0 0.0 0.0 0.0 0.0 0.0 0.0
0.0 0.0 0.0 0.0 0.0 0.0 0.0 0.0
0.0 0.0 0.0 0.0 0.0 0.0 0.0 0.0
0.0 0.0 0.0 0.0 0.0 0.0 0.0 0.0
0.0 0.0 0.0 0.0 0.0 0.0 0.0 0.0
0.0 0.0 0.0 0.0 0.0 0.0 0.0 0.0
0.0 0.0 0.0 0.0 0.0 0.0 0.0 0.0
0.0 0.0 0.0 0.0 0.0 0.0 0.0 0.0
0.0 0.0 0.0 0.0 0.0 0.0 0.0 0.0
0.0 0.0 0.0 0.0 0.0 0.0 0.0 0.0
0.0 0.0 0.0 0.0 0.0 0.0 0.0 0.0
0.0 0.0 0.0 0.0 0.0 0.0 0.0 0.0
0.0 0.0 0.0 0.0 0.0 0.0 0.0 0.0
0.0 0.0 0.0 0.0 0.0 0.0 0.0 0.0
0.0 0.0 0.0 0.0 0.0 0.0 0.0 0.0
0.0 0.0 0.0 0.0 0.0 0.0 0.0 0.0
0.0 0.0 0.0 0.0 0.0 0.0 0.0 0.0
0.0 0.0 0.0 0.0 0.0 0.0 0.0 0.0
0.0 0.0 0.0 0.0 0.0 0.0 0.0 0.0
0.0 0.0 0.0 0.0 0.0 0.0 0.0 0.0

sqr_avg f4 [170, 2]
00000000: 0000 0000 0000 0000 0000 0000 0000 0000
00000010: 0000 0000 0000 0000 0000 0000 0000 0000
00000020: 0000 0000 0000 0000 0000 0000 0000 0000
00000030: 0000 0000 0000 0000 0000 0000 0000 0000
00000040: 0000 0000 0000 0000 0000 0000 0000 0000
00000050: 0000 0000 0000 0000 0000 0000 0000 0000
00000060: 0000 0000 0000 0000 0000 0000 0000 0000
00000070: 0000 0000 0000 0000 0000 0000 0000 0000
00000080: 0000 0000 0000 0000 0000 0000 0000 0000
00000090: 0000 0000 0000 0000 0000 0000 0000 0000
000000a0: 0000 0000 0000 0000 0000 0000 0000 0000
000000b0: 0000 0000 0000 0000 0000 0000 0000 0000
000000c0: 0000 0000 0000 0000 0000 0000 0000 0000
000000d0: 0000 0000 0000 0000 0000 0000 0000 0000
000000e0: 0000 0000 0000 0000 0000 0000 0000 0000
000000f0: 0000 0000 0000 0000 0000 0000 0000 0000
00000100: 0000 0000 0000 0000 0000 0000 0000 0000
00000110: 0000 0000 0000 0000 0000 0000 0000 0000
00000120: 0000 0000 0000 0000 0000 0000 0000 0000
00000130: 0000 0000 0000 0000 0000 0000 0000 0000
00000140: 0000 0000 0000 0000 0000 0000 0000 0000
00000150: 0000 0000 0000 0000 0000 0000 0000 0000
00000160: 0000 0000 0000 0000 0000 0000 0000 0000
00000170: 0000 0000 0000 0000 0000 0000 0000 0000
00000180: 0000 0000 0000 0000 0000 0000 0000 0000
00000190: 0000 0000 0000 0000 0000 0000 0000 0000
000001a0: 0000 0000 0000 0000 0000 0000 0000 0000
000001b0: 0000 0000 0000 0000 0000 0000 0000 0000
000001c0: 0000 0000 0000 0000 0000 0000 0000 0000
000001d0: 0000 0000 0000 0000 0000 0000 0000 0000
000001e0: 0000 0000 0000 0000 0000 0000 0000 0000
000001f0: 0000 0000 0000 0000 0000 0000 0000 0000
00000200: 0000 0000 0000 0000 0000 0000 0000 0000
00000210: 0000 0000 0000 0000 0000 0000 0000 0000
00000220: 0000 0000 0000 0000 0000 0000 0000 0000
00000230: 0000 0000 0000 0000 0000 0000 0000 0000
00000240: 0000 0000 0000 0000 0000 0000 0000 0000
00000250: 0000 0000 0000 0000 0000 0000 0000 0000
00000260: 0000 0000 0000 0000 0000 0000 0000 0000
00000270: 0000 0000 0000 0000 0000 0000 0000 0000
00000280: 0000 0000 0000 0000 0000 0000 0000 0000
00000290: 0000 0000 0000 0000 0000 0000 0000 0000
000002a0: 0000 0000 0000 0000 0000 0000 0000 0000
000002b0: 0000 0000 0000 0000 0000 0000 0000 0000
000002c0: 0000 0000 0000 0000 0000 0000 0000 0000
000002d0: 0000 0000 0000 0000 0000 0000 0000 0000
000002e0: 0000 0000 0000 0000 0000 0000 0000 0000
000002f0: 0000 0000 0000 0000 0000 0000 0000 0000
00000300: 0000 0000 0000 0000 0000 0000 0000 0000
00000310: 0000 0000 0000 0000 0000 0000 0000 0000
00000320: 0000 0000 0000 0000 0000 0000 0000 0000
00000330: 0000 0000 0000 0000 0000 0000 0000 0000
00000340: 0000 0000 0000 0000 0000 0000 0000 0000
00000350: 0000 0000 0000 0000 0000 0000 0000 0000
00000360: 0000 0000 0000 0000 0000 0000 0000 0000
00000370: 0000 0000 0000 0000 0000 0000 0000 0000
00000380: 0000 0000 0000 0000 0000 0000 0000 0000
00000390: 0000 0000 0000 0000 0000 0000 0000 0000
000003a0: 0000 0000 0000 0000 0000 0000 0000 0000
000003b0: 0000 0000 0000 0000 0000 0000 0000 0000
000003c0: 0000 0000 0000 0000 0000 0000 0000 0000
000003d0: 0000 0000 0000 0000 0000 0000 0000 0000
000003e0: 0000 0000 0000 0000 0000 0000 0000 0000
000003f0: 0000 0000 0000 0000 0000 0000 0000 0000
0.0 0.0 0.0 0.0 0.0 0.0 0.0 0.0
0.0 0.0 0.0 0.0 0.0 0.0 0.0 0.0
0.0 0.0 0.0 0.0 0.0 0.0 0.0 0.0
0.0 0.0 0.0 0.0 0.0 0.0 0.0 0.0
0.0 0.0 0.0 0.0 0.0 0.0 0.0 0.0
0.0 0.0 0.0 0.0 0.0 0.0 0.0 0.0
0.0 0.0 0.0 0.0 0.0 0.0 0.0 0.0
0.0 0.0 0.0 0.0 0.0 0.0 0.0 0.0
0.0 0.0 0.0 0.0 0.0 0.0 0.0 0.0
0.0 0.0 0.0 0.0 0.0 0.0 0.0 0.0
0.0 0.0 0.0 0.0 0.0 0.0 0.0 0.0
0.0 0.0 0.0 0.0 0.0 0.0 0.0 0.0
0.0 0.0 0.0 0.0 0.0 0.0 0.0 0.0
0.0 0.0 0.0 0.0 0.0 0.0 0.0 0.0
0.0 0.0 0.0 0.0 0.0 0.0 0.0 0.0
0.0 0.0 0.0 0.0 0.0 0.0 0.0 0.0
0.0 0.0 0.0 0.0 0.0 0.0 0.0 0.0
0.0 0.0 0.0 0.0 0.0 0.0 0.0 0.0
0.0 0.0 0.0 0.0 0.0 0.0 0.0 0.0
0.0 0.0 0.0 0.0 0.0 0.0 0.0 0.0
0.0 0.0 0.0 0.0 0.0 0.0 0.0 0.0
0.0 0.0 0.0 0.0 0.0 0.0 0.0 0.0
0.0 0.0 0.0 0.0 0.0 0.0 0.0 0.0
0.0 0.0 0.0 0.0 0.0 0.0 0.0 0.0
0.0 0.0 0.0 0.0 0.0 0.0 0.0 0.0
0.0 0.0 0.0 0.0 0.0 0.0 0.0 0.0
0.0 0.0 0.0 0.0 0.0 0.0 0.0 0.0
0.0 0.0 0.0 0.0 0.0 0.0 0.0 0.0
0.0 0.0 0.0 0.0 0.0 0.0 0.0 0.0
0.0 0.0 0.0 0.0 0.0 0.0 0.0 0.0
0.0 0.0 0.0 0.0 0.0 0.0 0.0 0.0
0.0 0.0 0.0 0.0 0.0 0.0 0.0 0.0

grad_avg f4 [100, 4]
00000000: 8ab7 2abc 33eb 77bb 9dd6 9c3b 3970 bbbb
00000010: 0300 0000 0300 0000 0300 0080 0300 0080
00000020: 2809 9abb 015f 213b d8eb 923b 7ce3 1a38
00000030: 0300 0080 0300 0000 0300 0000 0300 0080
00000040: 0300 0000 0300 0000 0300 0000 0300 0080
00000050: 0300 0080 0300 0080 0300 0000 0300 0000
00000060: 0900 0080 0900 0080 0900 0080 0900 0080
00000070: 0300 0080 0300 0000 0300 0080 0300 0000
00000080: aa3d e336 aa3d e3b6 aa3d e3b6 aa3d e3b6
00000090: 0300 0080 0300 0000 0300 0000 0300 0000
000000a0: 0300 0000 0300 0080 0300 0000 0300 0080
000000b0: 0400 0000 0400 0080 0400 0080 0400 0080
000000c0: fb1e c9b8 fb1e c9b8 f41d 66b9 db96 9fb8
000000d0: 0300 0000 0300 0080 0300 0000 0300 0000
000000e0: 0300 0080 0300 0080 0300 0080 0300 0080
000000f0: 9ac6 9138 9ac6 91b8 9ac6 91b8 9ac6 9138
00000100: 0300 0080 0300 0080 0300 0080 0300 0080
00000110: d0f0 9fbc a1e3 323c 1a52 d73b f26c 16bc
00000120: 391b 2abc f96b c139 3a79 afbb 5c81 22ba
00000130: 0300 0080 0300 0080 0300 0080 0300 0000
00000140: 0300 0080 0300 0080 0300 0000 0300 0000
00000150: 8277 1aba e060 9f39 34af aaba 08b0 0cba
00000160: 0300 0080 0300 0080 0300 0080 0300 0000
00000170: 0300 0000 0300 0000 0300 0080 0300 0000
00000180: e759 e6ba ad0e 173a 0a69 0fbb 762d e8ba
00000190: 0300 0000 0300 0080 0300 0000 0300 0000
000001a0: 0300 0000 0300 0000 0300 0000 0300 0000
000001b0: 0300 0000 0300 0000 0300 0080 0300 0000
000001c0: 0300 0080 0300 0000 0300 0080 0300 0080
000001d0: 0400 0080 0400 0000 0400 0000 0400 0080
000001e0: e849 06bc b33c a5b9 e2e0 d339 6f8e 88bb
000001f0: 0300 0080 0300 0000 0300 0000 0300 0080
00000200: 6bd9 feb8 b773 2438 538b 1db9 6bd9 feb8
00000210: 0300 0000 0300 0000 0300 0000 0300 0000
00000220: 0300 0000 0300 0000 0300 0080 0300 0000
00000230: 0500 0000 0500 0080 0500 0080 0500 0000
00000240: 0500 0000 0500 0080 0500 0080 0500 0080
00000250: 0400 0080 0400 0000 0400 0080 0400 0080
00000260: 0300 0000 0300 0000 0300 0000 0300 0080
00000270: 493b 0abc 5af3 fa38 5744 97b8 c36d cbbb
00000280: 0300 0000 0300 0000 0300 0000 0300 0080
00000290: 0500 0080 0500 0080 0500 0080 0500 0080
000002a0: 0500 0080 0500 0080 0500 0000 0500 0000
000002b0: 0300 0080 0300 0080 0300 0080 0300 0080
000002c0: 0300 0080 0300 0000 0300 0080 0300 0000
000002d0: 0900 0000 0900 0080 0900 0080 0900 0080
000002e0: 0300 0080 0300 0080 0300 0080 0300 0080
000002f0: b236 82bb d0ab 7fbb cbcf 873a 6e42 08ba
00000300: 0300 0080 0300 0080 0300 0080 0300 0080
00000310: 0300 0000 0300 0080 0300 0000 0300 0000
00000320: c2c3 1ebc d3f9 df39 3788 b2ba 828d e1bb
00000330: 0300 0000 0300 0080 0300 0080 0300 0000
00000340: 0400 0080 0400 0080 0400 0000 0400 0000
00000350: 0300 0080 0300 0080 0300 0000 0300 0000
00000360: 0300 0080 0300 0080 0300 0080 0300 0080
00000370: 0300 0000 0300 0080 0300 0080 0300 0000
00000380: 0300 0000 0300 0080 0300 0080 0300 0000
00000390: 0300 0000 0300 0000 0300 0000 0300 0080
000003a0: 0300 0080 0300 0080 0300 0000 0300 0000
000003b0: 0300 0000 0300 0080 0300 0080 0300 0000
000003c0: 9c88 b4a1 9c88 b421 9c88 b4a1 9c88 b4a1
000003d0: 0300 0080 0300 0000 0300 0080 0300 0080
000003e0: bdf3 f3ba e0db 8539 e817 103a e66f 46ba
000003f0: 0300 0080 0300 0080 0300 0080 0300 0000
-0.010419736 -0.0037829399 0.004786326 -0.005720165 4e-45 4e-45 -4e-45 -4e-45
-0.0047007985 0.0024623277 0.004483681 3.6928323e-05 -4e-45 4e-45 4e-45 -4e-45
4e-45 4e-45 4e-45 -4e-45 -4e-45 -4e-45 4e-45 4e-45
-1.3e-44 -1.3e-44 -1.3e-44 -1.3e-44 -4e-45 4e-45 -4e-45 4e-45
6.772306e-06 -6.772306e-06 -6.772306e-06 -6.772306e-06 -4e-45 4e-45 4e-45 4e-45
4e-45 -4e-45 4e-45 -4e-45 6e-45 -6e-45 -6e-45 -6e-45
-9.5901974e-05 -9.5901974e-05 -0.00021945668 -7.60981e-05 4e-45 -4e-45 4e-45 4e-45
-4e-45 -4e-45 -4e-45 -4e-45 6.951131e-05 -6.951131e-05 -6.951131e-05 6.951131e-05
-4e-45 -4e-45 -4e-45 -4e-45 -0.019524008 0.010918529 0.0065710666 -0.009181248
-0.010382467 0.00036892275 -0.0053550275 -0.00061990856 -4e-45 -4e-45 -4e-45 4e-45
-4e-45 -4e-45 4e-45 4e-45 -0.0005892442 0.0003039902 -0.0013022185 -0.0005366807
-4e-45 -4e-45 -4e-45 4e-45 4e-45 4e-45 -4e-45 4e-45
-0.00175744 0.000576238 -0.0021882677 -0.0017713744 4e-45 -4e-45 4e-45 4e-45
4e-45 4e-45 4e-45 4e-45 4e-45 4e-45 -4e-45 4e-45
-4e-45 4e-45 -4e-45 -4e-45 -6e-45 6e-45 6e-45 -6e-45
-0.008196332 -0.00031516477 0.00040412607 -0.00416737 -4e-45 4e-45 4e-45 -4e-45
-0.00012152161 3.9208415e-05 -0.00015024589 -0.00012152161 4e-45 4e-45 4e-45 4e-45
4e-45 4e-45 -4e-45 4e-45 7e-45 -7e-45 -7e-45 7e-45
7e-45 -7e-45 -7e-45 -7e-45 -6e-45 6e-45 -6e-45 -6e-45
4e-45 4e-45 4e-45 -4e-45 -0.008436986 0.00011966257 -7.2129704e-05 -0.006208153
4e-45 4e-45 4e-45 -4e-45 -7e-45 -7e-45 -7e-45 -7e-45
-7e-45 -7e-45 7e-45 7e-45 -4e-45 -4e-45 -4e-45 -4e-45
-4e-45 4e-45 -4e-45 4e-45 1.3e-44 -1.3e-44 -1.3e-44 -1.3e-44
-4e-45 -4e-45 -4e-45 -4e-45 -0.0039738053 -0.003901232 0.001036161 -0.0005197887
-4e-45 -4e-45 -4e-45 -4e-45 4e-45 -4e-45 4e-45 4e-45
-0.009690227 0.00042720008 -0.0013620917 -0.006883324 4e-45 -4e-45 -4e-45 4e-45
-6e-45 -6e-45 6e-45 6e-45 -4e-45 -4e-45 4e-45 4e-45
-4e-45 -4e-45 -4e-45 -4e-45 4e-45 -4e-45 -4e-45 4e-45
4e-45 -4e-45 -4e-45 4e-45 4e-45 4e-45 4e-45 -4e-45
-4e-45 -4e-45 4e-45 4e-45 4e-45 -4e-45 -4e-45 4e-45
-1.2233435e-18 1.2233435e-18 -1.2233435e-18 -1.2233435e-18 -4e-45 4e-45 -4e-45 -4e-45
-0.0018612068 0.00025531556 0.00054967264 -0.0007569775 -4e-45 -4e-45 -4e-45 4e-45

sqr_avg f4 [100, 4]
00000000: 6366 853b 0a57 a13b 4eb3 b13b 9e65 be3b
00000010: b427 780e 603b 670e 67cf 600e 29fd 600e
00000020: 42d2 0c3b 048c 053b 999c 213b a44e 253b
00000030: 636f 5a0d fd74 4d0d 636f 5a0d 636f 5a0d
00000040: 00c4 1214 1191 0514 d6c0 0814 d722 1714
00000050: e165 4711 eea6 5611 56f6 3511 d090 6611
00000060: 89cb 7a26 2c18 7026 cbe4 5f26 66bf 7c26
00000070: c42e bf18 a2fb a918 7578 bf18 c77a b918
00000080: 7ca8 c031 30ae c031 7fa9 c031 e2ac c031
00000090: d7bd 9110 62ac 9710 8f46 9f10 0d2c 8810
000000a0: 6c05 1913 56e9 3a13 d688 3b13 56e9 3a13
000000b0: 13b8 401d 6929 1b1d a82d 331d 728b 3f1d
000000c0: 00b6 9f36 00b6 9f36 592b a636 1267 bf36
000000d0: 63c6 a80d ff81 b00d dc3a bb0d d7eb b40d
000000e0: a121 5310 6fd0 5310 8a95 4910 1dc7 5310
000000f0: 5305 2937 5305 2937 5305 2937 5305 2937
00000100: 0959 e90b b905 8f0b f29b ed0b f29b ed0b
00000110: bd90 293c d3ec 173c c21a 2b3c c137 453c
00000120: c310 e43b b5f5 b73b e493 e73b 8a9c 023c
00000130: aeda d610 71fe eb10 e724 0311 50b1 fc10
00000140: 3e7d 9516 6645 7f16 1518 a516 3d14 a916
00000150: 85fc 9638 65f7 9738 505d a438 1a42 a638
00000160: c74f d10e bee3 bb0e 56db b90e 89c3 db0e
00000170: 620b 0c14 d6c4 0c14 3074 f413 c42e 0114
00000180: 85f6 b139 f5ea 8639 6d36 a139 d962 9a39
00000190: 7d30 7d11 f948 8d11 ef41 8e11 109f 6511
000001a0: 9793 1710 2249 2110 48d1 0d10 2631 1b10
000001b0: 25db 8510 d081 8510 ac4f 5e10 a5a0 7510
000001c0: 94cd 9b0f be21 c40f 7d27 a80f 88ba f50f
000001d0: c105 921a 3c7d 911a 83d8 781a 903e 741a
000001e0: 8fa0 8e3b 3186 8a3b 0ab0 a73b 5424 b33b
000001f0: a110 7c14 6fd3 8014 70bd 8514 e373 6014
00000200: f884 9035 a49c 8435 26a1 8d35 f884 9035
00000210: 31c8 d60f f5b1 e30f eb64 df0f 55c9 0010
00000220: 79b7 340e e357 b90d d76f db0d 50f9 bb0d
00000230: 6751 2f1e b2ae 3a1e c750 381e 6751 2f1e
00000240: 75e3 471f 19ca 261f daed 3d1f e1b6 371f
00000250: 7eb7 8d1c c849 871c a35c 891c 7d1b 871c
00000260: 879b 9017 e681 9517 7568 8217 c0b6 7117
00000270: 07d2 973a ea9f 8a3a c31e aa3a c743 be3a
00000280: 1c88 0910 d7f1 0310 ec1f 0c10 83c3 f90f
00000290: c16d 161e e859 371e b294 1c1e 21b9 151e
000002a0: f2d9 bc20 f2d9 bc20 b3b3 9c20 afd9 bc20
000002b0: 2770 8011 c901 8111 1034 6311 aa1f 9b11
000002c0: 9f29 bc14 ce9f c314 9069 a314 9782 af14
000002d0: 14b8 3f27 a735 3d27 8938 2627 8135 3d27
000002e0: 7118 e40a 7118 e40a 7118 e40a ecad 2b0a
000002f0: f312 593a 3538 6a3a 3633 943a be5b 913a
00000300: 7ee0 a60c 2dae d70c 3543 c60c 17fc 470d
00000310: 0dff a115 c577 d815 3bcb cd15 c577 d815
00000320: 1d6f ea3a 3ec2 e83a 7c24 043b fe27 133b
00000330: 525c 190e ceab bf0d 3837 0f0e c849 d10d
00000340: 1f53 601c 97b5 461c 3948 2f1c c16e 3b1c
00000350: 2c4b 3f15 75ca 5815 f428 7415 1dd8 7015
00000360: d49e 2a13 c72f 4f13 5bde 2a13 f856 4013
00000370: ea96 3311 ea96 3311 c458 1811 8ccc 3711
00000380: 9188 2510 3d30 2510 a617 2710 e81b 2410
00000390: c3f1 1b10 0c08 0e10 0d05 2410 d8b4 1c10
000003a0: 795a 8412 c3a0 6812 9f3f 5b12 5f66 8212
000003b0: b146 ef0e 10ac ae0e c69f b80e a878 b40e
000003c0: ae7c a42d 845a a42d a100 a52d c3e1 a42d
000003d0: 324d 140f 8caa ef0e 71dd e30e 726e 090f
000003e0: 947c 4639 817f 3c39 8067 4639 5dac 3a39
000003f0: f6dc 2710 367f 3b10 8320 3110 6f0a 3310
0.0040710433 0.004923706 0.005422986 0.0058104536 3.0587476e-30 2.8501536e-30 2.7709992e-30 2.7732024e-30
0.0021487628 0.0020377645 0.002465999 0.0025223875 6.7310513e-31 6.331132e-31 6.7310513e-31 6.7310513e-31
7.4097705e-27 6.743393e-27 6.9042755e-27 7.630423e-27 1.5729726e-28 1.6933063e-28 1.435429e-28 1.8188425e-28
8.7012015e-16 8.3299486e-16 7.767874e-16 8.7689456e-16 4.9419564e-24 4.393956e-24 4.9493973e-24 4.7945353e-24
5.60709e-09 5.6077383e-09 5.607205e-09 5.60759e-09 5.748491e-29 5.9824596e-29 6.2823155e-29 5.371041e-29
1.9313988e-27 2.3591544e-27 2.3670184e-27 2.3591544e-27 2.5506153e-21 2.0535488e-21 2.3714056e-21 2.5350731e-21
4.759757e-06 4.759757e-06 4.952232e-06 5.7042425e-06 1.0401559e-30 1.0878133e-30 1.1538935e-30 1.1150133e-30
4.163832e-29 4.1772984e-29 3.975546e-29 4.1765804e-29 1.0074425e-05 1.0074425e-05 1.0074425e-05 1.0074425e-05
8.98823e-32 5.5090207e-32 9.152372e-32 9.152372e-32 0.01034945 0.009272772 0.010443391 0.012037219
0.006960006 0.0056140074 0.0070671905 0.007971892 8.4745046e-29 9.3083185e-29 1.0345449e-28 9.966967e-29
2.4151287e-25 2.0620634e-25 2.6672386e-25 2.7316195e-25 7.199593e-05 7.246322e-05 7.83751e-05 7.927809e-05
5.15993e-30 4.6318367e-30 4.5817234e-30 5.417596e-30 7.0704386e-27 7.107013e-27 6.170883e-27 6.5220585e-27
0.00033943742 0.00025733528 0.00030748863 0.00029446816 1.9973123e-28 2.229085e-28 2.2444284e-28 1.811393e-28
2.9893198e-29 3.180799e-29 2.796857e-29 3.0606223e-29 5.2796896e-29 5.265926e-29 4.3843157e-29 4.8441486e-29
1.5363366e-29 1.9340089e-29 1.658129e-29 2.4230714e-29 6.039348e-23 6.017292e-23 5.1460095e-23 5.0508555e-23
0.004352636 0.0042274226 0.005117421 0.005466977 1.2726028e-26 1.3008093e-26 1.3504288e-26 1.13319646e-26
1.0767535e-06 9.880355e-07 1.0552219e-06 1.0767535e-06 2.117914e-29 2.2452475e-29 2.202837e-29 2.539865e-29
2.2275052e-30 1.1422663e-30 1.35238415e-30 1.1584785e-30 9.2812565e-21 9.882884e-21 9.757583e-21 9.2812565e-21
4.2328037e-20 3.531904e-20 4.0219053e-20 3.890303e-20 9.378029e-22 8.952623e-22 9.089846e-22 8.940656e-22
9.345043e-25 9.66169e-25 8.427422e-25 7.8101963e-25 0.0011582979 0.0010576223 0.0012979138 0.0014516049
2.712334e-29 2.60215e-29 2.7634723e-29 2.4628604e-29 7.9636305e-21 9.7065315e-21 8.289321e-21 7.926278e-21
3.1992663e-19 3.1992663e-19 2.6546343e-19 3.199249e-19 2.0263958e-28 2.0353712e-28 1.7923186e-28 2.4474203e-28
1.8999565e-26 1.9753e-26 1.6500431e-26 1.7721993e-26 2.6606364e-15 2.6258104e-15 2.3067776e-15 2.6258023e-15
2.1964795e-32 2.1964795e-32 2.1964795e-32 8.2660616e-33 0.0008280717 0.0008934767 0.0011306766 0.0011089963
2.571146e-31 3.3230823e-31 3.054718e-31 6.162505e-31 6.542978e-26 8.743067e-26 8.311948e-26 8.743067e-26
0.0017885898 0.0017758084 0.0020163348 0.0022454257 1.8903157e-30 1.1812644e-30 1.7652698e-30 1.2898382e-30
7.4222814e-22 6.5747404e-22 5.799599e-22 6.2016256e-22 3.8631443e-26 4.3780563e-26 4.9307714e-26 4.8638097e-26
2.1535325e-27 2.615063e-27 2.1566646e-27 2.4276686e-27 1.4167114e-28 1.4167114e-28 1.2018039e-28 1.4499185e-28
3.264572e-29 3.2577674e-29 3.295316e-29 3.2364795e-29 3.0754607e-29 2.801076e-29 3.2347188e-29 3.0904892e-29
8.352674e-28 7.3404446e-28 6.9182634e-28 8.22939e-28 5.8986122e-30 4.3060002e-30 4.551336e-30 4.4489614e-30
1.870001e-11 1.8684838e-11 1.8758608e-11 1.87449e-11 7.311831e-30 5.908228e-30 5.617306e-30 6.7758925e-30
0.0001892916 0.00017976576 0.00018921308 0.00017802553 3.3105165e-29 3.6977247e-29 3.493214e-29 3.5309563e-29

grad_avg f4 [100]
00000000: e94b 06bc 0300 0000 52af 71bb 0300 0000
00000010: 0300 0000 0300 0000 0900 0000 0300 0000
00000020: a63d e3b6 0300 0000 0300 0000 0400 0000
00000030: fd1e c938 0300 0000 0300 0000 9ac6 91b8
00000040: 0300 0000 88cf bebb b2b2 c9b9 0300 0000
00000050: 0300 0000 8577 1a3a 0300 0000 0300 0000
00000060: 782d e83a 0300 0000 0300 0000 0300 0000
00000070: 0300 0000 0400 0000 5080 1cbc 0300 0000
00000080: 6cd9 fe38 0300 0000 0300 0000 0500 0000
00000090: 0500 0000 0400 0000 0300 0000 4b0c b3bb
000000a0: 0300 0000 0500 0000 0500 0000 0300 0000
000000b0: 0300 0000 0900 0000 0300 0000 f370 b9ba
000000c0: 0300 0000 0300 0000 c5c0 84bb 0300 0000
000000d0: 0400 0000 0300 0000 0300 0000 0300 0000
000000e0: 0300 0000 0300 0000 0300 0000 0300 0000
000000f0: 9c88 b421 0300 0000 ea29 89ba 0300 0000
00000100: 2a0e b6bb 7b91 baba 0400 0000 7379 0500
00000110: 1cca afbb 0300 0000 0300 0000 12ea 943a
00000120: 0900 0000 e304 74ba 0300 0000 0300 0000
00000130: dda7 84bb 6389 2bbb 2045 813b 0300 0000
00000140: 0300 0000 0400 0000 0400 0000 d384 3dba
00000150: d7bc e6ba 0300 0000 0300 0000 0300 0000
00000160: d5eb 7dba 0300 0000 6f57 5605 0300 0000
00000170: 216b eabb 0300 0000 0300 0000 0300 0000
00000180: 0300 0000 341b e0bb 0500 0000 071e 9bba
-0.008196809 4e-45 -0.003687818 4e-45 4e-45 4e-45 1.3e-44 4e-45
-6.772304e-06 4e-45 4e-45 6e-45 9.590199e-05 4e-45 4e-45 -6.951131e-05
4e-45 -0.0058230795 -0.00038470846 4e-45 4e-45 0.00058924436 4e-45 4e-45
0.0017713746 4e-45 4e-45 4e-45 4e-45 6e-45 -0.009552076 4e-45
0.00012152162 4e-45 4e-45 7e-45 7e-45 6e-45 4e-45 -0.005464112
4e-45 7e-45 7e-45 4e-45 4e-45 1.3e-44 4e-45 -0.0014148041
4e-45 4e-45 -0.0040513 4e-45 6e-45 4e-45 4e-45 4e-45
4e-45 4e-45 4e-45 4e-45 1.2233435e-18 4e-45 -0.0010464762 4e-45
-0.0055558877 -0.001423403 6e-45 5.02745e-40 -0.0053646695 4e-45 4e-45 0.0011361262
1.3e-44 -0.00093085895 4e-45 4e-45 -0.004048331 -0.0026174418 0.003945008 4e-45
4e-45 6e-45 6e-45 -0.000722957 -0.0017603886 4e-45 4e-45 4e-45
-0.0009686326 4e-45 1.0078291e-35 4e-45 -0.007153884 4e-45 4e-45 4e-45
4e-45 -0.0068391804 7e-45 -0.001183451

sqr_avg f4 [100]
00000000: fe0c 9d3b b425 7c0e 86d3 003b 636f 5a0d
00000010: dc51 3e14 ef80 6311 62c2 7c26 ac76 bf18
00000020: 33ae c031 ee4b 9e10 56e9 3a13 45dd 401d
00000030: 00b6 9f36 1241 bf0d 6fd0 5310 5205 2937
00000040: f29b ed0b 4072 223c 7583 c53b 9103 0311
00000050: f5fd a516 87fc 9638 89c3 db0e 428f 1814
00000060: d962 9a39 596f 7f11 dca8 1f10 8ef8 7c10
00000070: 5f7a db0f c105 921a 3c15 863b 70bd 8514
00000080: f884 9035 e5bc 0610 1809 510e 6751 2f1e
00000090: daed 3d1f 5c78 911c e681 9517 0fe7 993a
000000a0: 7104 1010 4a42 1a1e f2d9 bc20 9224 a511
000000b0: 58e3 b614 a735 3d27 7118 e40a 1bbd 633a
000000c0: 8676 4c0d ab77 d815 1474 f43a ea05 1e0e
000000d0: f7f1 4e1c 75ca 5815 187a 3913 ea96 3311
000000e0: f595 4510 8476 2b10 bb75 8212 b224 050f
000000f0: a100 a52d 28ee 190f bf8d 4e39 488f 4610
00000100: 2471 e23a c1f1 833b eb60 541b 918c 372a
00000110: e87f 163b 1403 1712 6dcc 6c15 7ffe 8139
00000120: aeaa 2f28 c718 4d39 f7d3 4212 1193 800f
00000130: 80bc b73b e033 753a 9049 7e3a 0ee0 1310
00000140: 0bdd 8a0d 649f 821b b71a 091c 491d 9f39
00000150: 14b6 0f3b aae3 1310 9664 9415 3188 300c
00000160: 6e3d 9e38 5b28 a20d d571 ed2a cd62 760f
00000170: 25c8 663b 46f9 0c18 9ef6 2018 4030 a20d
00000180: b814 2311 444a d13b 2307 ff20 5292 a438
0.0047928086 3.1079552e-30 0.0019657328 6.7310513e-31 9.6086925e-27 1.7946873e-28 8.76935e-16 4.949217e-24
5.6077396e-09 6.2437e-29 2.3591544e-27 2.5525382e-21 4.759757e-06 1.1786949e-30 4.1772984e-29 1.0074424e-05
9.152372e-32 0.009914935 0.006027634 1.0335177e-28 2.6817457e-25 7.199594e-05 5.417596e-30 7.7022915e-27
0.00029446816 2.0150265e-28 3.1487306e-29 4.9889717e-29 2.1642203e-29 6.039348e-23 0.004091887 1.3504288e-26
1.0767535e-06 2.657236e-29 2.5765617e-30 9.2812565e-21 4.0219053e-20 9.626407e-22 9.66169e-25 0.0011741834
2.8402414e-29 8.1664e-21 3.1992663e-19 2.6054948e-28 1.8466975e-26 2.6258104e-15 2.1964795e-32 0.00086875417
6.300502e-31 8.743051e-26 0.0018650317 1.9477851e-30 6.8472415e-22 4.3780563e-26 2.341048e-27 1.4167114e-28
3.8966922e-29 3.3815105e-29 8.233176e-28 6.5644735e-30 1.8758608e-11 7.58935e-30 0.00019698495 3.9158995e-29
0.001727615 0.004026622 1.7567545e-22 1.6302434e-13 0.0022964422 4.7650993e-28 4.7821084e-26 0.00024794412
9.751462e-15 0.00019559554 6.1476873e-28 1.2678422e-29 0.0056071877 0.0009353738 0.0009700293 2.9163244e-29
8.558121e-31 2.16097e-22 4.5364026e-22 0.00030348662 0.0021928595 2.9166024e-29 5.993542e-26 1.359953e-31
7.545469e-05 9.993736e-31 4.2178644e-13 1.2147765e-29 0.003521451 1.8220427e-24 2.0804025e-24 9.995637e-31
1.2864817e-28 0.006387027 4.3203403e-19 7.847384e-05

grad_avg f4 [1, 100]
00000000: be80 503d 0300 0080 95c9 d33c 0300 0000
00000010: 0300 0080 0300 0080 0900 0080 0300 0080
00000020: 0c1a 72b9 0300 0080 0300 0080 0400 0080
00000030: 05be daba 0300 0000 0300 0080 5b73 713a
00000040: 0300 0080 4b45 81bc 40ec 0c3c 0300 0080
00000050: 0300 0000 f7b5 8fbb 0300 0080 0300 0080
00000060: e0f5 9ebc 0300 0000 0300 0000 0300 0080
00000070: 0300 0000 0400 0080 ba34 2e3d 0300 0080
00000080: d12b 5dbb 0300 0000 0300 0080 0500 0080
00000090: 0500 0000 0400 0080 0300 0080 2259 e73c
000000a0: 0300 0000 0500 0000 0500 0080 0300 0080
000000b0: 0300 0080 0900 0000 0300 0000 a27c e33c
000000c0: 0300 0000 0300 0080 b6fe 4fbb 0300 0080
000000d0: 0400 0000 0300 0080 0300 0000 0300 0000
000000e0: 0300 0080 0300 0000 0300 0000 0300 0080
000000f0: 5a9e c622 0300 0080 d165 9cbb 0300 0000
00000100: 2b99 643d 3d0e a03c 0400 0080 5253 0680
00000110: 9090 fd3c 0300 0000 0300 0080 0f79 8cbc
00000120: 0900 0080 3eda 8b3b 0300 0080 0300 0000
00000130: 1577 e93b c459 753c 6af7 ccbb 0300 0000
00000140: 0300 0000 0400 0080 0400 0000 dcfe 0a3b
00000150: e063 8c3c 0300 0000 0300 0080 0300 0080
00000160: 08cd 2e3c 0300 0000 edd6 a806 0300 0000
00000170: 0631 183d 0300 0080 0300 0080 0300 0080
00000180: 0300 0080 42d4 583d 0500 0080 46bb b33c
0.050904028 -4e-45 0.025852958 4e-45 -4e-45 -4e-45 -1.3e-44 -4e-45
-0.00023088622 -4e-45 -4e-45 -6e-45 -0.001668871 4e-45 -4e-45 0.000921061
-4e-45 -0.015780112 0.008601248 -4e-45 4e-45 -0.0043857056 -4e-45 -4e-45
-0.019404352 4e-45 4e-45 -4e-45 4e-45 -6e-45 0.042530753 -4e-45
-0.003374804 4e-45 -4e-45 -7e-45 7e-45 -6e-45 -4e-45 0.028240744
4e-45 7e-45 -7e-45 -4e-45 -4e-45 1.3e-44 4e-45 0.02776939
4e-45 -4e-45 -0.0031737513 -4e-45 6e-45 -4e-45 4e-45 4e-45
-4e-45 4e-45 4e-45 -4e-45 5.383567e-18 -4e-45 -0.0047728796 4e-45
0.055810135 0.01953804 -6e-45 -5.80903e-40 0.030952722 4e-45 -4e-45 -0.017147569
-1.3e-44 0.00426796 -4e-45 4e-45 0.0071247914 0.014975015 -0.00625508 4e-45
4e-45 -6e-45 6e-45 0.0021209037 0.017137468 4e-45 -4e-45 -4e-45
0.010669 4e-45 6.351038e-35 4e-45 0.037156127 -4e-45 -4e-45 -4e-45
-4e-45 0.0529368 -7e-45 0.021939885

sqr_avg f4 [1, 100]
00000000: 967c 183e 3727 9313 e49c 8f3d 24c0 c40e
00000010: 1184 0e19 7492 2217 fd14 312a 7baa 2e1c
00000020: 194d c936 10d5 4d15 7956 6715 af0d 8720
00000030: e78a 903a e971 2e13 7c26 f113 58db e73a
00000040: 1101 b210 37f2 533e f17b 3d3e 949b 9915
00000050: b2bd 9a1a d72f 003c 309a 1712 c017 5919
00000060: f0d5 603c d074 6b16 7614 6916 630d a715
00000070: 8dc1 3315 6b4f 8b1d 1b20 473e 0274 0618
00000080: 8ab8 e239 34a3 5c15 fbde 7b12 c6d8 e921
00000090: 00b8 7922 ef34 9f20 8dde 8f1a 4bde 8d3d
000000a0: 2ba7 6515 030a 5422 3692 8723 2def 1a16
000000b0: 29f5 7f19 9d1a 912a a648 cc0b f204 d03c
000000c0: 65a3 d410 4e1c e618 d0af d83d d768 e213
000000d0: 3989 8720 6d5d 2c19 a009 a917 e4c9 6c15
000000e0: f1e5 0315 b2e8 5815 2587 6016 df08 e911
000000f0: c86f c131 c268 8713 d38e b53c dd7b 5815
00000100: 5b92 6b3d 91bb 1f3e 7ccd 9b1e 969a 202e
00000110: 3810 d63d 1b92 9616 d052 5319 b4e5 853c
00000120: 8e65 4a2c 8020 393c 3327 c117 fb12 db14
00000130: c0d8 213e 5863 533d dec5 703d 1061 4013
00000140: 42c4 0c11 d7b4 e71e fc4d 601f 033f a03c
00000150: e928 4e3d b524 4016 ec41 cc18 4625 3011
00000160: 8848 9b3c 8b19 670e 8e27 9e2f 3d0f e614
00000170: 2be0 383e 1a7d 191c e949 0a1b 837d b612
00000180: a30a 9b16 2673 0f3e 13fe 1f24 a41a 653c
0.14891276 3.7146686e-27 0.070123464 4.8502755e-30 7.3678985e-24 5.2529873e-25 1.572804e-13 5.779211e-22
5.999242e-06 4.1567497e-26 4.6718293e-26 2.2878945e-19 0.0011027724 2.201805e-27 6.08749e-27 0.0017689271
7.0210264e-29 0.20697866 0.18504311 6.2041667e-26 6.3999376e-23 0.007823906 4.783725e-28 1.1223433e-23
0.013722882 1.9020008e-25 1.8828046e-25 6.7471883e-26 3.6301447e-26 3.687511e-21 0.19445841 1.7377663e-24
0.0004324357 4.455739e-26 7.947648e-28 1.5846074e-18 3.3843201e-18 2.6970676e-19 5.9502964e-23 0.06927165
4.6378054e-26 2.8736658e-18 1.4698652e-17 1.2515492e-25 1.3232701e-23 2.577564e-13 7.868725e-32 0.025392983
8.3871005e-29 5.9482187e-24 0.105804086 5.71538e-27 2.2960696e-19 8.911059e-24 1.0923799e-24 4.7819084e-26
2.663663e-26 4.3804417e-26 1.813722e-25 3.6766385e-28 5.6297473e-09 3.418209e-27 0.02216283 4.3718564e-26
0.057512622 0.15598895 1.649625e-20 3.6517088e-11 0.10452312 2.4326013e-25 1.0925168e-23 0.016344883
2.87623e-12 0.0112992525 1.2482228e-24 2.2120835e-26 0.1580534 0.051608413 0.05878245 2.4281663e-27
1.1104529e-28 2.453287e-20 4.7498352e-20 0.019561296 0.050331984 1.5521219e-25 5.279933e-24 1.3895438e-28
0.018955484 2.8485247e-30 2.8768138e-10 2.3230075e-26 0.18054263 5.0785143e-22 1.1438974e-22 1.1516756e-27
2.5048313e-25 0.1400877 3.4692838e-17 0.013983402
