cycles/save/0.44_3_100/models/model.pth (torch, 14520 bytes, 12 tensors)

node_factors.weight f4 [26, 1]
00000000: ff10 053c 2098 823e acb7 bc3e 7180 1b3e
00000010: 37ef 1d3e c3b5 7d3d a7b5 813d d6fb 963e
00000020: 92de 9f39 2313 483b 9588 a03e b5e0 3c3e
00000030: af00 c63d fa6d 7fbe 55c5 a9bd 8533 d43d
00000040: 3a78 6a3e 5869 0f3e 1497 c2bd 4de8 9abe
00000050: 49a7 d5bd 5eea 4a3e 7b43 663e 3e5e 143e
00000060: 3867 863c 5469 80be
0.008121728 0.25506687 0.3685888 0.15185715 0.15423284 0.06194092 0.063334756 0.2948901
0.0003049267 0.0030528984 0.31354204 0.18445094 0.09668099 -0.24944296 -0.08289591 0.10361389
0.22897425 0.14005029 -0.09501472 -0.30255356 -0.10432298 0.19815966 0.2248668 0.14489076
0.01640664 -0.2508036

layers.0.weight f4 [200, 2]
00000000: 4854 383f 9663 38bf d245 a13e 5fcd d93e
00000010: 7aca 033e e0a8 fa3e 1fe6 1a3f 3895 c13d
00000020: 7f88 4dbf 51c5 8c3e 811c cdbe 8dea c6be
00000030: ee2e 143f 9735 093f 6da8 923d c852 ebbd
00000040: 4908 65bf 19d7 d3be 77d9 293f 5063 343e
00000050: 3b97 723d 0117 13be ce96 c8be bf70 733e
00000060: 40bc d3bd 04c4 8f3e efc0 fabd 1dbe 9a3e
00000070: ceea f73d aa18 aabd e5bf a33e 4023 a33e
00000080: 9b25 243f 1f24 083f a89a ddbe 0ecc 5abf
00000090: 33fa d5bd ec0a 90be 97c1 38be c83b edbd
000000a0: 7f7b adbd eccc c53e 85d2 5c3e f787 7bbe
000000b0: 9a89 19bf 1652 06bf 8701 ddbe cf99 db3e
000000c0: 3a4d a03d c4e8 9c3e e8cd 39be 0ca7 a3bd
000000d0: 6228 a43d cfc3 56bf 7c03 7d3d d886 3dbd
000000e0: 3139 a9be 9179 f5be 2aca 8b3f d64b 8a3f
000000f0: 3e26 a43e 68fc 283f 38ba 8fbe 5eb2 f4bd
00000100: 219b dc3d 103d 96be 7b22 eabe 4a9c 6ebf
00000110: 734e 3e3e bc09 d6be 6a6e 10be 22d3 f33e
00000120: 7e1f 72be 026d 70be 4045 883e 3df1 dbbe
00000130: 3f40 50be 9236 f53e b2e4 debe fb78 2bbf
00000140: 4a36 c6be 2c63 44be 9238 f1be acd4 05bf
00000150: 7445 133e 4e11 1dbd 50b7 62be ec94 09bf
00000160: 1308 5fbe e179 95be e596 e4be d04f 56bf
00000170: 5b6a f93d a882 07bf 7eea 09bf beaf 10bf
00000180: ae31 c93d 7b6b 23bf 3ba0 be3e ac69 6c3f
00000190: a396 663e 8e3d 6c3e 6625 28bf b3fa fdbe
000001a0: 0e58 cabe aeac d53e 2a51 6dbe cb5b 57bf
000001b0: 32f0 8d3b 088a 09bf 7cb0 16bb b44f 31bd
000001c0: b5ce 453f 7cfe 4d3f 615a 8bbe 1d0b 70bd
000001d0: 4bf4 7fbe 42f2 663e 28d4 c5bb 0cc8 eebd
000001e0: e9c1 7ebe 7c3b 083f 1f49 9abe bd98 02bf
000001f0: 34c3 c63e 23ce 043f b6a0 213f 7d71 173e
00000200: b62a 5ebe a977 1e3e efee 173f 9bb1 2dbf
00000210: e79e 96be efa1 2ebf 1402 043e 4f7b 923e
00000220: 87a8 aebe eb88 9abe 025e 363e b84a 4cbe
00000230: 9ec3 37bf 9aaf 193f 0343 b2be 1aa3 9bbd
00000240: e8a1 853d 6647 2abd f8f9 52bf 20fb e83d
00000250: f15d 15bf d0bf 2cbf 733c 293e b2d4 b8be
00000260: d8cc f7be 8bab d8be 4e0e 85be c5ea 93be
00000270: 2a0b 91be ee3d 913e 8d77 34bf 57d5 15bf
00000280: 36cb 25be d4c3 dabd d49b c33e ccc9 f8be
00000290: 8344 a13d 383e 6a3e 4440 333e 54c4 64bf
000002a0: 8dc0 1cbf eb79 7fbf f5a9 15bf 8bc1 5c3e
000002b0: 778a d3bd 266c 963e 55e7 cfbe 3048 d73d
000002c0: eb39 d6be a90c b13e d83d 16bf da2d 01bf
000002d0: bcc6 1dbf 5c7a 13b9 b9fd 353f 4eb3 3d3f
000002e0: a5f7 bcbe 3a6c 183c e856 9bbd a491 0ebf
000002f0: cada aa3e ee83 76be 4d2d 153e c806 8fbe
00000300: b543 9abe f0a5 c53d 5233 933d f141 bfbd
00000310: 82b1 aabe 21ef 2b3f 8bc0 e1be 3dac 48bf
00000320: 49ba acbd 102c 243f 38c7 a1bd 4460 2cbe
00000330: 30af f2be 9ac3 a7be 0526 15bf 95ba 0cbf
00000340: 61d4 883e 6a7c dd3e 0200 003f 99f5 32bf
00000350: f5b6 c83e 5094 e6be 8749 d33e 888e ff3e
00000360: 0a1a bf3e a644 a23e 1e90 dd3e 0a98 5c3c
00000370: b67a 213e 1724 debe c32f 023e 9504 dbbe
00000380: 7f4e 3ebc 3e22 1abf 4137 39be 6a40 babe
00000390: 23f1 6ebe f32b e2be b519 4dbf 476e 2abe
000003a0: cf14 8d3e 1a1d d73e 7ec7 2f3e 0da6 1cbf
000003b0: 93ba 7dbf 02f9 b2bd 0481 c93e aeb6 19bf
000003c0: 3f01 7e3e 42b9 153f 34bb 5bbe aa38 37bf
000003d0: 438d cd3e 25b3 c83d 27b4 9d3e 7f33 24bf
000003e0: d248 b43f a04c b4bf 3d34 023f 1cd7 00bf
000003f0: 3a8c 803e 604c 69bd 1b9d 0d3d 8368 8ebe
0.72003603 -0.72026956 0.3149858 0.42539498 0.12870207 0.48956966 0.60507387 0.09452289
-0.802864 0.2749429 -0.4006081 -0.38850823 0.5788411 0.53597397 0.07161031 -0.11490399
-0.8946577 -0.41375044 0.6634745 0.1761601 0.059226256 -0.14364244 -0.39177555 0.23773478
-0.1033864 0.28079236 -0.122438304 0.3022317 0.12105332 -0.083054855 0.3198234 0.3186283
0.6411988 0.53180116 -0.43282056 -0.8546761 -0.10448112 -0.28133333 -0.18042599 -0.11583668
-0.08470821 0.38632905 0.21564682 -0.24563585 -0.5997559 -0.52469003 -0.43165228 0.42890784
0.0782723 0.30646336 -0.18144953 -0.07990846 0.08015515 -0.8389253 0.0617709 -0.046271175
-0.33051446 -0.4794431 1.092107 1.0804393 0.32060426 0.6601014 -0.2807176 -0.11948083
0.10771776 -0.29343462 -0.45729432 -0.9320723 0.18584614 -0.41804302 -0.1410462 0.4762202
-0.23644826 -0.23479083 0.26615334 -0.42957488 -0.20337008 0.47893196 -0.43533856 -0.66981477
-0.38713294 -0.19178456 -0.47113472 -0.52277637 0.14381963 -0.03834658 -0.2214024 -0.5374286
-0.21780424 -0.2919455 -0.44646373 -0.83715534 0.12178489 -0.5293374 -0.5387343 -0.5651816
0.09823929 -0.6383588 0.3723162 0.9234874 0.22518401 0.23070356 -0.65682065 -0.4960533
-0.39520305 0.41733307 -0.23175493 -0.8412444 0.004331612 -0.53726244 -0.0022993376 -0.0432889
0.77268535 0.8046644 -0.2721739 -0.05860435 -0.24995534 0.22553352 -0.006037254 -0.1165925
-0.24878658 0.53215766 -0.30133912 -0.5101431 0.38820803 0.5187704 0.6313585 0.14789386
-0.2169598 0.15475334 0.5934896 -0.6784913 -0.29418108 -0.6821584 0.12891418 0.28609702
-0.3411295 -0.30182585 0.17809299 -0.19950378 -0.71782863 0.6003357 -0.3481675 -0.075994685
0.06525022 -0.041571997 -0.8241267 0.11376023 -0.5834647 -0.6748018 0.16526966 -0.36099774
-0.4839847 -0.42318377 -0.25987476 -0.28890052 -0.2832883 0.2836756 -0.7049492 -0.58528656
-0.161908 -0.106818825 0.38204825 -0.4859146 0.07874396 0.22875297 0.17504984 -0.8936207
-0.6123131 -0.9979541 -0.5846246 0.21558206 -0.103291444 0.29379386 -0.4060618 0.105118155
-0.41841063 0.3457997 -0.58688116 -0.5046059 -0.6163137 -0.00014064595 0.71090275 0.7410172
-0.36907688 0.009303147 -0.075849354 -0.5569098 0.33370048 -0.24073765 0.14568062 -0.2793486
-0.3012978 0.09650791 0.07187523 -0.09338749 -0.33338553 0.67161757 -0.4409221 -0.78387815
-0.084339686 0.64129734 -0.07899326 -0.16833597 -0.47399282 -0.3276642 -0.5826114 -0.549722
0.26724532 0.43258983 0.5000001 -0.69906 0.39202085 -0.45035028 0.41267034 0.4991343
0.37324554 0.31693 0.43274015 0.013463983 0.15769467 -0.4338691 0.12713532 -0.42776933
-0.011615395 -0.602085 -0.18087484 -0.3637727 -0.23334174 -0.44174156 -0.8011735 -0.1664363
0.27554938 0.4201439 0.17165944 -0.61190873 -0.99112815 -0.08738901 0.39356244 -0.6004437
0.24805163 0.58485806 -0.21458131 -0.7157084 0.40146837 0.09799794 0.30801508 -0.64141077
1.4084723 -1.4085884 0.5086096 -0.5032823 0.25106984 -0.056957603 0.034573656 -0.2781411

layers.0.bias f4 [200]
00000000: 3c38 8f39 e4a4 8bbe bdb0 393f 354c 84be
00000010: 9d97 e23e aded 073e eecd 18bf d1f0 753e
00000020: d247 103f 4acf ecbe 4203 eabe 63a9 463f
00000030: 3b19 263f adfa c9be 7aa2 063f e7b6 71be
00000040: e778 32bf 77c1 323e 0cd9 873e e231 59be
00000050: b194 533e 30ca 1abf cb20 f23e 833d 343f
00000060: 341a bb3e a4f1 803e f1a4 a33e e5f9 02bf
00000070: a098 7abe e220 bd3c 3178 c9be 5bb4 05bf
00000080: 4fe5 0f3f 2730 ed3e 4e66 24bf 3c3f ab3e
00000090: ef5a 773e cb74 413f e228 fa3e 06a3 3b3f
000000a0: 330e 6dbe ae5f 123f 0419 263f 0ff1 2abf
000000b0: 314e 11bf 459d d73d 4536 ae3e 94dd b3be
000000c0: 7c88 4e3e 9264 b8bd 3011 843e 948a c2be
000000d0: 708d f13e 588c e33e 1a34 fbbe 0dfb 61bc
000000e0: 02ab e73c aeb8 9e3e 195a 1d3f 07c4 383e
000000f0: e480 4bbe a39a 393f 8bd5 abbe 9ea3 92be
00000100: b875 d03c 0bd9 09bf 6910 3a3e 66a2 f5be
00000110: 5f19 ee3d 5101 043d e3b1 1f3d 1ea7 18bf
00000120: e8ed 2bbf 0f36 df3e 6561 1d3f aea1 20bf
00000130: 3b4d b53e 9240 05bf 1974 d6b7 da63 3c3f
00000140: d145 263f b659 04bf b8ed 033f f992 e63e
00000150: 1882 183e 64fe 433f f3ca 8fbe 1881 28be
00000160: befa b6be 2f8e c93d 3077 0f3e 34fd b23c
00000170: 46b2 cbbe 48fa a2be 3a29 9b3e f8b8 1ebf
00000180: 7eab 07be 797c 163e 5caf 92be 0688 793e
00000190: c222 833c 866c e83e 961f 0abd 1c7f e4be
000001a0: 693f 133f 5044 303e 8363 3dbe e69e eebe
000001b0: 4151 073e cca5 2cbf 284a 8d3e 8c67 ed3e
000001c0: 4eca 1ebf 4804 edbe b523 02bf 9531 383f
000001d0: ffa7 393f a305 183e 0696 263f cda6 71be
000001e0: d3bc 2fbf de3d 8b3e 7c62 b73e c7a0 463f
000001f0: 84fc 7c39 559c 2b3f b078 093f c0ed 173f
00000200: 9da1 33bf 3e0e 283f 7a4f 1abf c80c 433f
00000210: cb73 b63c 246c 20bf 9566 a13e 0aa6 23ba
00000220: 2297 22bf 9011 87be bd98 103d baa7 123f
00000230: c310 1fbe 2882 d23e 5bd2 283e eb75 013e
00000240: 6955 5f3e 3b98 edbe 8476 16bf 4799 62be
00000250: 00af 28bf 41d6 a8be 89cc 1c3e 2871 eebe
00000260: 152c 96be 411e 3cbe 4c4f 4dbe c3d9 c7be
00000270: ea63 b8b9 0923 02be 362f 3f3e a915 e93d
00000280: 89ca b4be 302a 8ebe 25f2 403d 24e8 e1be
00000290: 6b01 2a3e 5351 a9b9 e1ec bd3e 581d 793e
000002a0: bf46 1f3f 8306 c03c 91c1 05bf 6086 8b3e
000002b0: f0ad f4be 4c39 10be 4d75 6abe a25f 89be
000002c0: d0f2 85be f5d1 1c3f 86c9 f73e a0d3 933e
000002d0: f1f5 2f3f 300b 24bf ad40 423e 558f 063f
000002e0: 0dbc 173f 9e10 10bf dd84 883e 933f cebe
000002f0: 5780 08ba e917 17be 0c25 17bf 4dad 2cbf
00000300: 3b2f eebe 3d95 8d3e 1a37 cc3e ad71 1dbf
00000310: f9f5 87be 31d4 283e 9381 1cbf 8c02 c93e
0.00027316983 -0.2727424 0.72535306 -0.2583939 0.44256297 0.1327426 -0.59689224 0.24017645
0.5635959 -0.462519 -0.4570561 0.77602214 0.6488225 -0.39449063 0.5259167 -0.23604928
-0.6971573 0.17456613 0.2653278 -0.21210435 0.2066219 -0.60464764 0.47290644 0.7040636
0.3654343 0.25184357 0.31961778 -0.5116256 -0.24472284 0.023086969 -0.3934951 -0.52228326
0.5620927 0.463258 -0.64218605 0.33446681 0.24155782 0.75568837 0.48859316 0.7329563
-0.23149948 0.57177246 0.6488192 -0.66774076 -0.56759936 0.10528044 0.3402578 -0.35129988
0.20169252 -0.09003557 0.25794363 -0.37996352 0.4717822 0.4444301 -0.49063188 -0.013792765
0.028279785 0.31000274 0.61465603 0.18043528 -0.19873387 0.7250158 -0.33561358 -0.28640455
0.025446758 -0.53846806 0.18170322 -0.47975463 0.11625933 0.032227818 0.038988005 -0.5963
-0.6715989 0.4359593 0.6147674 -0.62746704 0.35410485 -0.5205165 -2.556485e-05 0.7358986
0.6495028 -0.5169939 0.51534605 0.45034006 0.14893377 0.76560044 -0.28084525 -0.16455495
-0.35738176 0.098415725 0.1401031 0.021849252 -0.3978445 -0.31831574 0.3030489 -0.6200099
-0.13249013 0.1469592 -0.28649414 0.24368295 0.016007785 0.45395297 -0.03372153 -0.44628227
0.5751863 0.17213559 -0.18494992 -0.46605605 0.1321459 -0.67440486 0.2759564 0.46368062
-0.6202744 -0.4629233 -0.50835735 0.71950656 0.72521967 0.148459 0.6507267 -0.23598786
-0.686475 0.27195638 0.35817325 0.77589077 0.00024126662 0.6703542 0.5369978 0.5934715
-0.7016848 0.6564673 -0.6027752 0.7619138 0.022272011 -0.6266501 0.31523576 -0.00062426983
-0.6351186 -0.26380587 0.035301913 0.5728718 -0.15533738 0.41114926 0.16486494 0.12642638
0.21809925 -0.46405205 -0.5877459 -0.22128783 -0.6589203 -0.32975963 0.15312399 -0.46570706
-0.29330507 -0.18370916 -0.2004978 -0.39033327 -0.00035169657 -0.12708677 0.18670353 0.113810845
-0.35310772 -0.27766562 0.047105927 -0.44122422 0.16602103 -0.00032294783 0.37094787 0.243276
0.62217325 0.023440605 -0.52248484 0.27250957 -0.47788954 -0.14084357 -0.22896309 -0.26830775
-0.26161814 0.6125787 0.48395938 0.28872395 0.6873465 -0.6407957 0.18969984 0.5256246
0.5927132 -0.56275356 0.26663867 -0.40282878 -0.00052071124 -0.14755215 -0.59040904 -0.67451936
-0.4652041 0.27652922 0.3988579 -0.6150158 -0.2655485 0.16487195 -0.61135215 0.39259756

layers.2.weight f4 [1, 200]
00000000: 3887 273f a97c 1f3b 71c8 e2bd 92eb 083c
00000010: a084 0fbd 40eb 22bc cfc1 16bd 7c0d 01be
00000020: 35a6 03bd 331e 8d3b c5a3 b8bc 212e b9bd
00000030: 9946 c5bd 115d 653d c1f6 96bd a220 a63c
00000040: 91ec 7c3d bdd4 d3bd 61b1 3dbd f05f 9abb
00000050: e518 e9bb 9d50 7fbd 01d0 0ebd 8dc7 94bd
00000060: ab3b c7bc e2e6 92bd f960 c1bd 64b1 f4bb
00000070: 88dc 033b 7db0 e1be 7419 33bd 7bde 7dbc
00000080: 86dd b2bd 22a5 14bd 00ae 3e3d 465a 8cbd
00000090: b2f5 973b fd3f b9bd ae3a cbbd 81df c2bd
000000a0: c636 43bd 2855 e8bd c4cd fabd 4c1e 7bbd
000000b0: 28e7 933c 124f e0bc a936 973b 4c59 713d
000000c0: 2245 b0bd 956f b2be 52f0 cdbd c808 db3c
000000d0: ced5 02be 34e9 f2bc 67e0 4f3c 8141 2b3b
000000e0: febf 89be bb14 c7bd 56d7 9239 21b2 c1bc
000000f0: a070 b33c be0b 5bbd b57e 243d f8ea 1e3d
00000100: 6149 04bc 10d7 573d 187c d3bd 8b4e 3a3d
00000110: f9c3 62bd d393 02bc b9da d83c 5d51 803c
00000120: 5f55 d2bc 2f45 96bd 8dc3 30bd 7718 3f3c
00000130: 00e2 b3bd aa00 5e3d 443c be3c b346 dcbd
00000140: a5c9 8bbd 6e97 d9bb 853b d4bd 95a3 5bbd
00000150: 4853 f9be bf0f c8bd fa36 b6bc 9c0c cabc
00000160: 0987 873d 5af7 35bd f746 bc3b 7eec 2ebd
00000170: 8250 803c 83f5 e83c 2c4a 3fbd 8f5b 5ebd
00000180: 7af8 ddbc 727c dabd 104e 883a 2967 21bd
00000190: 851a 41b8 d039 98bb 6d9d abbe 8a67 c1bc
000001a0: f80a e3bd 0fd6 f5bd 2107 cfbd c3e9 aa3c
000001b0: 00e5 37bc fbe5 773d c4bc b4bd 148e 8ebd
000001c0: 9948 a8bc 9285 84b9 c6e7 b53c 4173 87bd
000001d0: 9f3d 66bd 14c8 9cbd 61f2 12bd e2c5 06bd
000001e0: 92f4 28bd 50ab 45bd 7689 8bbd 9d0a bfbd
000001f0: 8822 9f3f 4832 7bbd ece2 91bd 6008 c4bd
00000200: a31c 15bc eb59 fdbd 18ea 803c 1d42 7dbd
00000210: 5161 4abf 085d 923b 9d79 88bd 5802 e13e
00000220: b69a 573d 616b b5be 9410 8ebc 5918 2cbd
00000230: ee8f 51be 6526 1cbd cc11 e6bd 1d1a 15be
00000240: 1f9e cebd b1c2 40bd 9626 5f3d 25e5 c7bd
00000250: bbac 0d3d 9202 7fbd 62dc f4bd 4b31 873b
00000260: 056e 493d 85c5 16be 75b9 ddbe 7b90 2f3c
00000270: 9a09 d53d 7407 2d3e 5e06 1abd 89b0 11be
00000280: 75e5 44bd a814 773d dae3 05be 7bf1 40bc
00000290: 8ee2 dbbd 74b7 703f 79a3 a7bd 02a4 f5bd
000002a0: 7dbe a2bd 625d 24bf 0492 e03c 5cd7 e2bb
000002b0: c004 68bc f2a3 e03c 4251 85bd 7745 db3c
000002c0: 552f 023d 10c5 60bc 75bf c8bd ea71 afbd
000002d0: 1532 31bd 8d58 49bd 769a f4bd 1db2 07be
000002e0: 1057 6dbd 7ff3 2f3d 17ce 31bd d630 8a3b
000002f0: 687d 363f 6d0d 32bd c7f8 ee3b f2c6 8cbc
00000300: 594b 0cbd 7fba 143b efb1 eebd a317 263c
00000310: 9cf9 78bd fe41 3bbe ddcf fbbc 1b95 2bbd
0.654407 0.0024335778 -0.110733874 0.008356946 -0.03503859 -0.009943783 -0.036805924 -0.126028
-0.03214093 0.0043065785 -0.022539029 -0.090420015 -0.09632606 0.05599696 -0.07371283 0.020279232
0.061749045 -0.10343311 -0.04631174 -0.0047111437 -0.0071135634 -0.06233274 -0.034866337 -0.07264624
-0.024320444 -0.07172944 -0.09442324 -0.0074674357 0.002012046 -0.44079962 -0.043725446 -0.015494938
-0.087336585 -0.036290295 0.046552658 -0.06853156 0.0046374435 -0.09045408 -0.09923302 -0.09515286
-0.047659658 -0.11344367 -0.12246278 -0.06130819 0.01805456 -0.027381454 0.0046146703 0.05892305
-0.08606936 -0.34850755 -0.10055603 0.026737586 -0.12776873 -0.029652216 0.012687779 0.0026131573
-0.2690429 -0.09720751 0.00028007728 -0.023644509 0.02190429 -0.053477995 0.0401599 0.038798302
-0.0080741355 0.052695334 -0.103264034 0.04548506 -0.055362675 -0.007969814 0.026471483 0.015663797
-0.025675474 -0.073374145 -0.04315524 0.011663548 -0.087833405 0.054199852 0.023222096 -0.10755672
-0.0682557 -0.0066403663 -0.10362915 -0.0536228 -0.4869635 -0.09768628 -0.022243012 -0.024664216
0.06617553 -0.044425346 0.0057457644 -0.042706005 0.01566339 0.028437382 -0.046701595 -0.054286536
-0.027096022 -0.10668267 0.0010399241 -0.03940502 -4.6039484e-05 -0.0046455637 -0.33518544 -0.023608942
-0.110860765 -0.12003719 -0.101087816 0.02086342 -0.011224031 0.06052206 -0.08825067 -0.06960693
-0.02054243 -0.0002527652 0.022205245 -0.0661378 -0.05621111 -0.076553494 -0.03587568 -0.03290356
-0.041248865 -0.04825908 -0.06813328 -0.09328196 1.2432413 -0.06132725 -0.0712336 -0.0957191
-0.009101066 -0.12370666 0.015736625 -0.06183063 -0.79054743 0.0044666566 -0.06663821 0.439471
0.05263778 -0.35433486 -0.01734189 -0.042015407 -0.20465061 -0.038122553 -0.11233863 -0.14560743
-0.10088753 -0.047060672 0.054480158 -0.09760503 0.034588557 -0.06225831 -0.11956097 0.004125749
0.04917719 -0.14723785 -0.43305555 0.010715599 0.10402222 0.16897374 -0.03760373 -0.14227499
-0.04807039 0.060322434 -0.130752 -0.011776323 -0.10736571 0.9402993 -0.08185477 -0.11994173
-0.07946489 -0.6420499 0.027413376 -0.0069226455 -0.014161289 0.027421925 -0.06509639 0.026766522
0.03178342 -0.013718858 -0.098021425 -0.08566649 -0.043260653 -0.049156714 -0.119435236 -0.13251539
-0.057944357 0.042956825 -0.043409433 0.0042172475 0.71285105 -0.043469835 0.00729284 -0.017184708
-0.034251545 0.0022694168 -0.11655032 0.010137471 -0.06078492 -0.18286893 -0.030738765 -0.041890245

grad_avg f4 [26, 1]
00000000: 0000 0000 b006 79bb c57c 29bc fffa b0bb
00000010: c50d b23b 1aa0 8b3c 892f ca3c 0850 bbbc
00000020: 434f 2b3c db08 a83c cd3e 64bc 138b b9bc
00000030: 72b8 a83b 1b86 533c 862d abba c691 5bbc
00000040: fe2f b4bb cd5e e7bb db15 a7bb 5aca 3d3c
00000050: 18f3 1ebc ba8c 9cbc 6270 c83a 6afc 73bc
00000060: fedd 803a 5e22 8c3b
0.0 -0.003799837 -0.010344689 -0.005401015 0.0054337704 0.017044116 0.02468087 -0.02286531
0.010455909 0.020512035 -0.0139309885 -0.022649324 0.0051489407 0.012910391 -0.0013059832 -0.013401454
-0.005498885 -0.0070608617 -0.005099041 0.011583889 -0.009701513 -0.019110072 0.0015292282 -0.014891723
0.0009831784 0.004276558

sqr_avg f4 [26, 1]
00000000: 0000 0000 7fda 1e3b 8d62 803a 9720 773b
00000010: 234a 3f3b 2524 233c b8f9 163c 5220 2e3b
00000020: 1df1 383c b775 693c 899f 0e3b 969b bc3b
00000030: 241b 0b3c 6124 843c af9e f13c f972 713c
00000040: 910c c03b f898 1a3c 3c6a a53c 1653 163b
00000050: 7923 f43c dcd8 9f3c 8899 663c 7202 a83c
00000060: 1c69 263d ced3 3b3b
0.0 0.002423912 0.0009794995 0.0037708634 0.0029188476 0.009957348 0.009214811 0.0026569557
0.011287955 0.014249257 0.002176257 0.005755852 0.008490358 0.016130628 0.029494612 0.014736884
0.005860873 0.009435885 0.020192258 0.0022937707 0.02980207 0.019512586 0.014074691 0.020508979
0.040627584 0.002866018

grad_avg f4 [200, 2]
00000000: d59f 01bb b9b2 1d3b 9e9d c135 9e9d c135
00000010: 4b39 9139 4e50 093a b4db 9b35 b4db 9b35
00000020: ea93 b638 c8a9 2d39 3284 26b8 2330 8eb7
00000030: 0000 0000 0000 0000 0c3a a539 f13c 1c3a
00000040: aa42 a738 ad26 1f39 0000 0000 0000 0000
00000050: 0000 0000 0000 0000 c2e8 6c39 c932 e039
00000060: b681 7c39 29de ee39 0000 0000 0000 0000
00000070: f925 4139 1cc4 b639 53a2 5736 53a2 5736
00000080: 0000 0000 0000 0000 124d 8939 0e27 0c39
00000090: c7ed f138 fb72 6539 0000 0000 0000 0000
000000a0: 6240 9337 c698 0d38 0000 0000 0000 0000
000000b0: 96a5 b538 f1a5 2c39 fb38 3e39 f922 b439
000000c0: c274 7e38 e95d f138 f44d 3b39 bfbe b139
000000d0: 8b3d 7739 03ee e939 0000 0000 0000 0000
000000e0: c163 0ab6 c163 0ab6 9278 f839 d575 e33a
000000f0: 0000 0000 0000 0000 0000 0000 0000 0000
00000100: 5be4 6439 8086 d839 b1f8 0539 550c 5b39
00000110: 0000 0000 0000 0000 1675 3339 3f02 aa39
00000120: d625 4cb7 0cbd b9b7 1a21 6d39 2643 e039
00000130: 180e 8239 551a f639 ab33 7939 99d9 eb39
00000140: 0000 0000 0000 0000 4394 9439 1f99 0c3a
00000150: 1598 a039 75d5 173a 0000 0000 0000 0000
00000160: 0000 0000 0000 0000 ffe4 e1b7 448c e038
00000170: 9ff5 47b7 0fa5 b8b7 0000 0000 0000 0000
00000180: bbb3 1239 ca9c 8739 0d2e 5e3a 80df 893a
00000190: a0f1 8339 bb72 f939 0000 0000 0000 0000
000001a0: 6876 a739 c96b 1e3a c37d 9a38 64c2 1239
000001b0: 0000 0000 0000 0000 42c5 28b5 42c5 28b5
000001c0: 62c2 8139 51b5 8e3a 597c 7e39 0ef8 f039
000001d0: beef 92b5 6f17 b7b5 02d1 7638 9f4f ea38
000001e0: ce1b 04b0 58c9 f92f 3fd2 0b39 6585 8439
000001f0: 6808 0637 6808 0637 e129 2934 e129 2934
00000200: 2ead 40b8 8a98 1bb7 0000 0000 0000 0000
00000210: 854c 9b39 1d54 cd39 0000 0000 0000 0000
00000220: 5108 44b8 b6d3 2239 a9cc 6fb7 7884 f5b7
00000230: 9d82 5339 86b5 9eb7 0000 0000 0000 0000
00000240: 0000 0000 0000 0000 24aa 3f39 41d9 b539
00000250: 9f40 e138 d4c5 5539 0000 0000 0000 0000
00000260: 739f 6539 309e d939 0000 0000 0000 0000
00000270: 603d d538 3a91 d7b8 1fd9 8c39 204d 053a
00000280: e3b2 3239 ec35 a939 0000 0000 0000 0000
00000290: 53e0 8739 267f 003a 2e41 0c39 9ad1 8439
000002a0: ad37 f139 5ed3 2539 a8ec 7f39 8034 f239
000002b0: 0000 0000 0000 0000 0000 0000 0000 0000
000002c0: 0000 0000 0000 0000 03a1 40b9 19ee 9cb7
000002d0: ec84 f0b7 d55c 0ab8 24e7 2e38 874f 3339
000002e0: 0000 0000 0000 0000 0000 0000 0000 0000
000002f0: 99c5 f438 cc8d 6739 0000 0000 0000 0000
00000300: 865c 8bb2 5e13 4532 fbd6 8a39 f91e 043a
00000310: 0000 0000 0000 0000 66a4 5638 59d5 a338
00000320: 6e4e dbb5 7716 d835 1893 3c37 a77c b737
00000330: 8070 4a3a 9041 9739 0000 0000 0000 0000
00000340: f66c 9139 f07a 093a 41b9 aeb9 9697 cb3a
00000350: 6d07 2cb9 8d0c 5a39 0000 0000 0000 0000
00000360: 128e 5e37 7444 1a38 0000 0000 0000 0000
00000370: a435 6739 2ab7 da39 dd46 3639 b086 ac39
00000380: 0000 0000 0000 0000 0000 0000 0000 0000
00000390: 0000 0000 0000 0000 c9e6 2c39 bce9 a339
000003a0: d94d 1339 576c 8b39 613f ecb8 0194 a539
000003b0: c3f8 ba38 18bf 3139 a3cf 9cb8 0e35 e338
000003c0: 0000 0000 0000 0000 ee7b 5139 c987 8b39
000003d0: 99c2 3239 fc01 a939 4d8b 7439 9f42 e739
000003e0: 7edb 9cbb 47ec 693b fdb4 2039 8808 9839
000003f0: 9eb4 3a39 f7a1 b039 59e1 7a39 b84f ed39
-0.0019779105 0.0024062826 1.4425493e-06 1.4425493e-06 0.00027699242 0.00052381016 1.1612342e-06 1.1612342e-06
8.7059874e-05 0.00016561814 -3.97006e-05 -1.6950135e-05 0.0 0.0 0.000315145 0.0005960009
7.975598e-05 0.0001517783 0.0 0.0 0.0 0.0 0.00022593423 0.00042762447
0.00024080914 0.0004556042 0.0 0.0 0.0001842006 0.00034859858 3.2131982e-06 3.2131982e-06
0.0 0.0 0.00026188098 0.0001336599 0.00011536065 0.00021881975 0.0 0.0
1.7553746e-05 3.37593e-05 0.0 0.0 8.661595e-05 0.00016465016 0.00018141039 0.00034358332
6.066706e-05 0.00011509268 0.0001786275 0.00033902188 0.00023578682 0.00044618556 0.0 0.0
-2.0621667e-06 -2.0621667e-06 0.00047392078 0.0017353842 0.0 0.0 0.0 0.0
0.00021828843 0.0004129894 0.00012776513 0.00020890062 0.0 0.0 0.00017114388 0.000324266
-1.2168157e-05 -2.214175e-05 0.00022614413 0.0004277464 0.00024806033 0.00046940395 0.00023765738 0.00044984816
0.0 0.0 0.00028339223 0.0005363393 0.00030630888 0.00057920004 0.0 0.0
0.0 0.0 -2.6928725e-05 0.00010707279 -1.1918512e-05 -2.201137e-05 0.0 0.0
0.000139906 0.00025866023 0.000847549 0.0010518879 0.00025166292 0.00047578462 0.0 0.0
0.00031940942 0.0006043283 7.366717e-05 0.00013996061 0.0 0.0 -6.2871925e-07 -6.2871925e-07
0.00024749624 0.0010887777 0.00024269651 0.00045961182 -1.0947622e-06 -1.3641383e-06 5.8845624e-05 0.0001117282
-4.8060833e-10 4.54359e-10 0.00013334396 0.0002527639 7.98898e-06 7.98898e-06 1.5754587e-07 1.5754587e-07
-4.5937653e-05 -9.274236e-06 0.0 0.0 0.00029620915 0.00039163316 0.0 0.0
-4.6737787e-05 0.00015528392 -1.4293161e-05 -2.9267962e-05 0.00020171185 -1.8919596e-05 0.0 0.0
0.0 0.0 0.00018278562 0.00034684877 0.00010740873 0.0002038696 0.0 0.0
0.00021898541 0.00041507324 0.0 0.0 0.000101680635 -0.000102790495 0.0002686465 0.000508504
0.00017042043 0.00032274367 0.0 0.0 0.0002591634 0.0004901759 0.00013375722 0.00025333167
0.00046008584 0.00015814367 0.00024406856 0.00046196952 0.0 0.0 0.0 0.0
0.0 0.0 -0.00018370528 -1.8707522e-05 -2.8672126e-05 -3.298822e-05 4.17001e-05 0.00017100397
0.0 0.0 0.0 0.0 0.00011671632 0.000220827 0.0 0.0
-1.6223805e-08 1.1471313e-08 0.00026481584 0.00050400157 0.0 0.0 5.1174684e-05 7.812185e-05
-1.6339598e-06 1.6099792e-06 1.1239921e-05 2.1873346e-05 0.0007722452 0.00028849812 0.0 0.0
0.00027737737 0.00052444544 -0.0003332589 0.0015532847 -0.00016405965 0.00020794776 0.0 0.0
1.32653095e-05 3.6780213e-05 0.0 0.0 0.0002204986 0.00041716668 0.00017383271 0.00032906746
0.0 0.0 0.0 0.0 0.0 0.0 0.00016489172 0.00031263928
0.00014048013 0.00026592865 -0.00011265162 0.00031581524 8.9155066e-05 0.00016951223 -7.477335e-05 0.00010834086
0.0 0.0 0.0001997796 0.00026613314 0.00017047896 0.0003223567 0.00023321547 0.0004410939
-0.0047869077 0.003569381 0.00015326212 0.00028998055 0.00017805627 0.0003369001 0.00023925806 0.00045263558

sqr_avg f4 [200, 2]
00000000: 88f3 4739 927d 1139 b48f d42d b48f d42d
00000010: c784 2d37 fce8 0937 78d9 192e 78d9 192e
00000020: 7a97 7035 2b3b 3935 dc27 6734 ddf7 6134
00000030: 0000 0000 0000 0000 33c5 5f37 c6c7 3137
00000040: ef32 4735 3d1e 1935 0000 0000 0000 0000
00000050: 0000 0000 0000 0000 c193 df36 4652 b036
00000060: 7388 0037 ea51 cb36 0000 0000 0000 0000
00000070: b454 9136 9de4 6336 0c87 d32e 0c87 d32e
00000080: 0000 0000 0000 0000 d62b ae36 8c4b a036
00000090: 5403 d535 df52 a435 0000 0000 0000 0000
000000a0: 2203 1434 37e0 0b34 0000 0000 0000 0000
000000b0: 2d38 6a35 e3bc 3335 28c2 8c36 d6a5 5c36
000000c0: 2e4c f934 9826 c334 1922 8236 c8d6 4936
000000d0: 7d24 ec36 f3f8 b836 0000 0000 0000 0000
000000e0: 6463 1f2f 6463 1f2f 4ef6 9d38 f442 8538
000000f0: 0000 0000 0000 0000 0000 0000 0000 0000
00000100: 8a42 cf36 3c2c a336 fec7 7c35 6589 4435
00000110: 0000 0000 0000 0000 abb0 7b36 0874 4536
00000120: 5d29 af34 a19a ad34 e8f1 df36 b397 b036
00000130: 7d29 0937 4d45 d936 6ee8 f436 78be c036
00000140: 0000 0000 0000 0000 a019 3137 74fe 0b37
00000150: da9d 5437 f51b 2937 0000 0000 0000 0000
00000160: 0000 0000 0000 0000 32ba d334 96bc c734
00000170: d10e a934 5ba1 a734 0000 0000 0000 0000
00000180: 3340 b636 9a72 8b36 da27 0938 589a 1a38
00000190: 8740 0f37 b7a6 e336 0000 0000 0000 0000
000001a0: f79d 6737 6254 3837 5b4a 2b35 0312 0435
000001b0: 0000 0000 0000 0000 3a41 6c30 0c78 7b30
000001c0: c6c7 f737 a3d1 d337 07b6 ff36 ce55 c936
000001d0: 8098 6934 f2fd 6a34 fbe6 e634 808b b434
000001e0: a3fe fb32 037d ba32 4d49 1036 183a df35
000001f0: 7aac 792f 7aac 792f 9f63 d52f 9f63 d52f
00000200: 1aa3 4433 1da2 4e33 0000 0000 0000 0000
00000210: 2787 f736 08e6 bf36 0000 0000 0000 0000
00000220: e530 e635 27f6 c835 355b ca33 80af b733
00000230: 43ee 1635 2556 1735 0000 0000 0000 0000
00000240: 0000 0000 0000 0000 60aa 8a36 31ec 5736
00000250: b7f6 b535 0cd0 8b35 0000 0000 0000 0000
00000260: 5137 c936 7427 9d36 0000 0000 0000 0000
00000270: 7853 7134 1f83 7934 8758 1e37 7a03 fa36
00000280: 8ab4 7436 e014 3f36 0000 0000 0000 0000
00000290: d970 1637 5195 ee36 3fd4 0f36 fe13 de35
000002a0: 5e07 e438 25c6 d638 7022 0337 bc22 cf36
000002b0: 0000 0000 0000 0000 0000 0000 0000 0000
000002c0: 0000 0000 0000 0000 a0c4 6035 ade2 7c35
000002d0: a45e ce34 23c5 ce34 fdab 5635 fe0c 4135
000002e0: 0000 0000 0000 0000 0000 0000 0000 0000
000002f0: 1dc0 e035 f183 ae35 0000 0000 0000 0000
00000300: eb19 0632 f521 9b31 03c0 0537 07cc cd36
00000310: 0000 0000 0000 0000 46ad 8a35 ebf5 5935
00000320: 5912 be32 0bc4 b532 966d 4034 1752 3e34
00000330: 546a 5037 7c80 0f37 0000 0000 0000 0000
00000340: ef9e 2e37 95e4 0a37 feb6 2137 cd39 0a37
00000350: f4ea a334 60bc 1a35 0000 0000 0000 0000
00000360: 3d61 1d34 5a83 0734 0000 0000 0000 0000
00000370: e726 d036 d04d a336 cc63 7d36 42a9 4536
00000380: 0000 0000 0000 0000 0000 0000 0000 0000
00000390: 0000 0000 0000 0000 9db0 6036 caa9 2e36
000003a0: 2f86 2636 75f8 0136 034e 6236 5de8 2736
000003b0: 3640 7a35 e84a 4035 b3fb c431 ff2b 5132
000003c0: 0000 0000 0000 0000 5118 e035 26bb ad35
000003d0: 11ac 7b36 7ebd 4536 3166 ee36 1e0d bc36
000003e0: 7a7b 3f3a 15c3 0a3a 4992 4436 012d 1936
000003f0: 26dd 8736 8f09 5536 9f72 fb36 b476 c636
0.00019068841 0.00013875056 2.4165427e-11 2.4165427e-11 1.0342518e-05 8.220082e-06 3.4981323e-11 3.4981323e-11
8.9627395e-07 6.900397e-07 2.1528052e-07 2.104493e-07 0.0 0.0 1.333775e-05 1.05965355e-05
7.4207395e-07 5.7040944e-07 0.0 0.0 0.0 0.0 6.6631187e-06 5.2547866e-06
7.661164e-06 6.0594075e-06 0.0 0.0 4.3311975e-06 3.3958706e-06 9.619158e-11 9.619158e-11
0.0 0.0 5.1907073e-06 4.7771664e-06 1.5870705e-06 1.2243071e-06 0.0 0.0
1.3784714e-07 1.3026953e-07 0.0 0.0 8.725354e-07 6.695756e-07 4.194928e-06 3.2879084e-06
4.6435292e-07 3.634966e-07 3.8782714e-06 3.0076353e-06 7.037596e-06 5.512609e-06 0.0 0.0
1.4496276e-10 1.4496276e-10 7.532221e-05 6.354405e-05 0.0 0.0 0.0 0.0
6.176827e-06 4.862928e-06 9.416834e-07 7.3215625e-07 0.0 0.0 3.750475e-06 2.9422827e-06
3.2626386e-07 3.2336268e-07 6.6740795e-06 5.262869e-06 8.175496e-06 6.4751716e-06 7.298825e-06 5.7442194e-06
0.0 0.0 1.0555988e-05 8.34429e-06 1.2672937e-05 1.0079694e-05 0.0 0.0
0.0 0.0 3.9437288e-07 3.7203853e-07 3.1489483e-07 3.1223576e-07 0.0 0.0
5.4314964e-06 4.155864e-06 3.270046e-05 3.6860205e-05 8.538488e-06 6.7845353e-06 0.0 0.0
1.3805452e-05 1.09869015e-05 6.3810666e-07 4.920004e-07 0.0 0.0 8.594899e-10 9.1483865e-10
2.9537721e-05 2.525078e-05 7.620783e-06 6.000256e-06 2.1755295e-07 2.1885333e-07 4.30089e-07 3.3629112e-07
2.9336041e-08 2.1710099e-08 2.1500339e-06 1.6631702e-06 2.2707694e-10 2.2707694e-10 3.881526e-10 3.881526e-10
4.5783146e-08 4.8110554e-08 0.0 0.0 7.3769074e-06 5.7190227e-06 0.0 0.0
1.7150566e-06 1.4972801e-06 9.4229485e-08 8.553525e-08 5.622607e-07 5.637724e-07 0.0 0.0
0.0 0.0 4.1325547e-06 3.2174978e-06 1.3557354e-06 1.0416857e-06 0.0 0.0
5.9967065e-06 4.6835576e-06 0.0 0.0 2.247524e-07 2.3237634e-07 9.438146e-06 7.4509853e-06
3.646392e-06 2.8473369e-06 0.0 0.0 8.966971e-06 7.1103354e-06 2.1432204e-06 1.6546107e-06
0.000108732595 0.000102412225 7.816227e-06 6.1731243e-06 0.0 0.0 0.0 0.0
0.0 0.0 8.373263e-07 9.420717e-07 3.843935e-07 3.8513926e-07 7.997149e-07 7.191701e-07
0.0 0.0 0.0 0.0 1.6745213e-06 1.300241e-06 0.0 0.0
7.80572e-09 4.514954e-09 7.972124e-06 6.133228e-06 0.0 0.0 1.033223e-06 8.119666e-07
2.2127255e-08 2.1160323e-08 1.792126e-07 1.7724993e-07 1.2422523e-05 8.553379e-06 0.0 0.0
1.0408213e-05 8.278662e-06 9.638954e-06 8.238899e-06 3.0532067e-07 5.764359e-07 0.0 0.0
1.465714e-07 1.262064e-07 0.0 0.0 6.203412e-06 4.866837e-06 3.7758027e-06 2.9453809e-06
0.0 0.0 0.0 0.0 0.0 0.0 3.3481404e-06 2.602685e-06
2.4814033e-06 1.936712e-06 3.3722033e-06 2.5020192e-06 9.3225697e-07 7.1634577e-07 5.7329657e-09 1.2175405e-08
0.0 0.0 1.6696378e-06 1.2943972e-06 3.750207e-06 2.9465587e-06 7.1048494e-06 5.6043637e-06
0.0007304471 0.0005293352 2.9291425e-06 2.2824972e-06 4.0490586e-06 3.1745037e-06 7.4937266e-06 5.9146787e-06

grad_avg f4 [200]
00000000: 31b8 1fbc 87a3 8536 17e2 8a3a e610 5836
00000010: ae1d b239 9a76 8bb9 0000 0000 2a26 9e3a
00000020: 5ca2 a339 0000 0000 0000 0000 1a36 633a
00000030: 7aeb 713a 0000 0000 f5a0 393a 0cc7 1337
00000040: 0000 0000 5f70 b5b9 32be ea39 0000 0000
00000050: 11a2 9838 0000 0000 f130 b139 e0f6 363a
00000060: 7849 7839 e1e7 353a f47f 6d3a 0000 0000
00000070: d32e e736 f03e 78bb 0000 0000 0000 0000
00000080: 7d8a 5b3a c1a1 ee39 0000 0000 c00d 2d3a
00000090: b0da 21b8 8f39 633a 863f 793a 1e10 6f3a
000000a0: 0000 0000 865d 8e3a ef84 993a 0000 0000
000000b0: 0000 0000 1568 6c39 4ac9 21b8 0000 0000
000000c0: 402f df39 e0b8 d23b 38a8 7c3a 0000 0000
000000d0: c237 a03a 6d02 9739 0000 0000 14ad 0c36
000000e0: ee12 f9ba 9782 743a 8398 4c36 2365 7139
000000f0: 3df1 0831 712e 073a f44f b737 ba63 f834
00000100: 4c69 47b9 0000 0000 97d9 3d3a 0000 0000
00000110: ef66 93b9 2f1b 97b9 673f d93a 0000 0000
00000120: 0000 0000 8f31 393a 8e9e da39 0000 0000
00000130: b93a 5d3a 0000 0000 533f 2aba 1e02 873a
00000140: da0d 2c3a 0000 0000 6011 823a 5b9a 073a
00000150: f0f4 a1bb a75a 753a 0000 0000 0000 0000
00000160: 0000 0000 e922 02bb a807 fdb8 8292 9ab9
00000170: 0000 0000 0000 0000 b892 ec39 0000 0000
00000180: c199 8b33 6c59 8b3a 0000 0000 6c62 9db8
00000190: 0130 3137 f5c4 5038 a09f f03a 0000 0000
000001a0: 6a0b 8b3a 576e c63b b498 1eba 0000 0000
000001b0: 0a8c 2639 0000 0000 ae28 5e3a 8386 2f3a
000001c0: 0000 0000 0000 0000 0000 0000 e3e2 263a
000001d0: d9f1 0d3a 3544 5a3a 5c47 b639 7ec4 bcb9
000001e0: 0000 0000 fede 1f3a 7fcf 2b3a 1545 6a3a
000001f0: accd 65bc f6b6 1a3a 946b 333a 5e6d 703a
00000200: 0000 0000 0829 9b3a 0000 0000 1603 1c3a
00000210: bde6 ddbb 0000 0000 8134 153a 97a7 99bc
00000220: 0000 0000 d5f0 9a3a 425c 1439 66a3 d439
00000230: 887b beba f380 c139 1418 a63b 7caf ed39
00000240: c904 7e3a 0000 0000 0000 0000 15a3 a03a
00000250: 0000 0000 0000 0000 e1d9 703a 0000 0000
00000260: 0000 0000 de56 9c39 7584 1aba 0000 0000
00000270: 430b 57ba 88d0 aa3a c04a e9b8 2024 87b9
00000280: 0000 0000 0cbf 6237 703e 053a 0000 0000
00000290: c4a8 8bba 20fc 30bd 0347 4e3a edac 963a
000002a0: 01e1 473a 5661 b8bb 0000 0000 a511 f338
000002b0: 0000 0000 620d c735 0000 0000 0000 0000
000002c0: 0000 0000 b8d0 0e39 211b 763a c40c 583a
000002d0: c1e4 da39 0000 0000 0a19 963a 9625 a63a
000002e0: 646a 123a 0000 0000 934c 2a3a 0000 0000
000002f0: c961 fcbc 0000 0000 0000 0000 0000 0000
00000300: 0000 0000 a6a8 8db7 7640 923a 0000 0000
00000310: 0000 0000 275f e93a 0000 0000 e7dd 143a
-0.0097485045 3.982746e-06 0.0010595944 3.2196344e-06 0.0003397292 -0.0002660051 0.0 0.0012065817
0.0003121075 0.0 0.0 0.00086674246 0.0009228509 0.0 0.00070811744 8.808227e-06
0.0 -0.00034606733 0.00044773665 0.0 7.278112e-05 0.0 0.00033796535 0.0006979536
0.00023678492 0.00069391547 0.0009059899 0.0 6.8897875e-06 -0.003787931 0.0 0.0
0.00083748234 0.00045515414 0.0 0.0006601475 -3.858906e-05 0.00086679397 0.0009508062 0.0009119528
0.0 0.0010861612 0.0011712591 0.0 0.0 0.00022545487 -3.8572856e-05 0.0
0.00042569079 0.00643073 0.00096381037 0.0 0.0012223648 0.00028802772 0.0 2.096237e-06
-0.0019002834 0.0009327321 3.0487142e-06 0.00023021227 1.9927733e-09 0.00051567616 2.1852531e-05 4.626616e-07
-0.00019017345 0.0 0.0007242201 0.0 -0.00028114716 -0.00028821218 0.0016574682 0.0
0.0 0.0007064575 0.00041698333 0.0 0.00084392313 0.0 -0.00064944214 0.0010300314
0.00065633433 0.0 0.0009923391 0.0005172842 -0.004942529 0.00093595166 0.0 0.0
0.0 -0.0019857234 -0.00012065406 -0.00029482326 0.0 0.0 0.00045122742 0.0
6.5006596e-08 0.0010631508 0.0 -7.504676e-05 1.0561199e-05 4.9774495e-05 0.0018358119 0.0
0.001060826 0.006055634 -0.0006049976 0.0 0.00015883162 0.0 0.00084746897 0.0006695764
0.0 0.0 0.0 0.0006366206 0.0005414761 0.00083262037 0.00034766912 -0.00036004552
0.0 0.0006098597 0.00065540517 0.00089366856 -0.014026087 0.0005901897 0.00068443385 0.00091715704
0.0 0.001183779 0.0 0.00059513876 -0.006771891 0.0 0.00056917226 -0.01875667
0.0 0.0011821041 0.00014148749 0.00040557532 -0.0014532665 0.00036907903 0.0050687883 0.0004533491
0.0009690044 0.0 0.0 0.0012255633 0.0 0.0 0.000918774 0.0
0.0 0.0002981936 -0.00058943714 0.0 -0.0008203277 0.0013032118 -0.00011124229 -0.00025776122
0.0 1.3515131e-05 0.0005082851 0.0 -0.0010655154 -0.043209195 0.0007868858 0.0011495628
0.0007624776 -0.0056268377 0.0 0.000115904295 0.0 1.483055e-06 0.0 0.0
0.0 0.00013619929 0.0009388198 0.00082416483 0.00041750635 0.0 0.0011451554 0.0012675996
0.00055853114 0.0 0.0006496396 0.0 -0.030808346 0.0 0.0 0.0
0.0 -1.6887043e-05 0.0011158127 0.0 0.0 0.0017804847 0.0 0.0005678818

sqr_avg f4 [200]
00000000: 3219 ff3b d438 8f2f 8efb e53b 21a9 bc2f
00000010: 0f0a 313a b36e 873b 0000 0000 d866 1e3c
00000020: b2b8 893a 0000 0000 0000 0000 17b3 3d3b
00000030: 27bd 803b 0000 0000 9a87 853a ed02 9b30
00000040: 0000 0000 7a92 9839 6cda 8239 0000 0000
00000050: c9a1 423b 0000 0000 1bc9 5a3a 9689 7c3a
00000060: 6e9a 953a 68c8 d039 96cd 213b 0000 0000
00000070: 7b61 5c31 64df 7b3b 0000 0000 0000 0000
00000080: daa0 1b3b 301d 553a 0000 0000 cdab 393a
00000090: 1cfb c93b bdfd 3c3b adba 923b 1c20 513b
000000a0: 0000 0000 0980 d13b 7e3b 1c3c 0000 0000
000000b0: 0000 0000 1fbc 143b 81ab c63b 0000 0000
000000c0: a505 1c3a 2c5e c13a 94c8 a23b 0000 0000
000000d0: 4b5c 313c 2477 a23a 0000 0000 902a 9c39
000000e0: f57c d73a 342f 5a3b 9910 a23b bd25 a63a
000000f0: 2169 4735 486b 4939 d4a9 0631 e0b6 7f31
00000100: 61ea 913a 0000 0000 b97e 9a3a 0000 0000
00000110: ad31 9739 816a 0f3b b7b8 d83b 0000 0000
00000120: 0000 0000 80a8 323a 9476 d039 0000 0000
00000130: 2ee8 db3a 0000 0000 4a1e 103b 0d48 ac3b
00000140: 50e9 1c3a 0000 0000 df94 ae3b 96c3 4d39
00000150: 10c8 a63b cf03 813b 0000 0000 0000 0000
00000160: 0000 0000 cbd3 4b3a f829 dd3b 05ee c239
00000170: 0000 0000 0000 0000 174c 5239 0000 0000
00000180: e643 0734 aa66 b839 0000 0000 3b8d 423a
00000190: 2082 433a 029a 873b e78f 9939 0000 0000
000001a0: 7fb3 ea3b df21 e33b f650 fa36 0000 0000
000001b0: 9d99 dd3a 0000 0000 73af 033b c32f 1c3a
000001c0: 0000 0000 0000 0000 0000 0000 e6a0 d539
000001d0: 3442 8439 87a2 7d39 712c 3c3a 804f 1034
000001e0: 0000 0000 47db 9939 88c7 453a c06a 543b
000001f0: 737d 013d 0fa5 ab39 0af0 653a 347a 6a3b
00000200: 0000 0000 1171 103c 0000 0000 fe3a a539
00000210: 1f6d 473c 0000 0000 d1c1 7939 e648 693b
00000220: 0000 0000 2d6b 2538 8f64 0d3b ee53 9f39
00000230: 6caf dc38 fd0a 223a 9463 a53b 9419 143b
00000240: 10fe 673b 0000 0000 0000 0000 6633 ae36
00000250: 0000 0000 0000 0000 cb4b 833a 0000 0000
00000260: 0000 0000 3b34 4437 67e5 9338 0000 0000
00000270: f7b6 123b a11e 8f38 6cdc 3e3a 45f0 ad3b
00000280: 0000 0000 3120 7b31 cb4f 803b 0000 0000
00000290: d9a2 6a3a 3e11 a23c 95d9 a83a 5829 f13b
000002a0: 1998 c63a 69a9 033c 0000 0000 106c 953b
000002b0: 0000 0000 ea77 4931 0000 0000 0000 0000
000002c0: 0000 0000 ff55 283b 9aa0 973b 0730 d63a
000002d0: 9c62 9d39 0000 0000 79e3 013c fe90 323c
000002e0: 6305 7f39 0000 0000 f0d7 ac39 0000 0000
000002f0: 82d6 243c 0000 0000 0000 0000 0000 0000
00000300: 0000 0000 60f7 a33b b8a4 f63b 0000 0000
00000310: 0000 0000 de12 903a 0000 0000 2a33 103a
0.007784986 2.6051927e-10 0.007018513 3.4317174e-10 0.0006753513 0.0041330694 0.0 0.009668075
0.0010507314 0.0 0.0 0.0028945857 0.0039287987 0.0 0.0010187507 1.1278566e-09
0.0 0.00029100833 0.0002495827 0.0 0.0029698482 0.0 0.0008346007 0.0009633539
0.0011413821 0.00039822166 0.002468919 0.0 3.2069625e-09 0.0038432712 0.0 0.0
0.0023746998 0.00081296545 0.0 0.000708279 0.006163968 0.0028837763 0.00447782 0.0031910008
0.0 0.006393437 0.009535668 0.0 0.0 0.0022695137 0.0060629253 0.0
0.0005951769 0.0014752797 0.0049677584 0.0 0.010825227 0.0012395126 0.0 0.0002978635
0.0016440438 0.0033292295 0.0049458263 0.0012676042 7.428626e-07 0.00019208819 1.9596103e-09 3.7211336e-09
0.0011132472 0.0 0.0011787034 0.0 0.00028837976 0.002188355 0.0066138166 0.0
0.0 0.00068152696 0.000397612 0.0 0.0016777569 0.0 0.002199071 0.0052576126
0.0005985694 0.0 0.0053278054 0.00019623185 0.0050897673 0.0039372216 0.0 0.0
0.0 0.0007775395 0.006749388 0.00037179902 0.0 0.0 0.00020055506 0.0
1.2597556e-07 0.00035171706 0.0 0.00074215577 0.000745805 0.004138232 0.0002928965 0.0
0.007162511 0.006931528 7.4600057e-06 0.0 0.0016906742 0.0 0.002009359 0.0005958045
0.0 0.0 0.0 0.00040746405 0.00025226327 0.00024188506 0.0007178253 1.3439967e-07
0.0 0.00029345808 0.0007544686 0.003241226 0.03161378 0.0003273864 0.00087714253 0.0035778405
0.0 0.00881602 0.0 0.00031515205 0.012172013 0.0 0.00023818693 0.003559643
0.0 3.943888e-05 0.002157483 0.00030389376 0.00010523092 0.0006181447 0.005047271 0.0022598254
0.0035399236 0.0 0.0 5.1915877e-06 0.0 0.0 0.0010017095 0.0
0.0 1.1694671e-05 7.052236e-05 0.0 0.0022386888 6.8244764e-05 0.000728077 0.0053081834
0.0 3.6543606e-09 0.003915762 0.0 0.0008950658 0.019783612 0.0012882227 0.007359665
0.001515153 0.008035996 0.0 0.004560001 0.0 2.9317513e-09 0.0 0.0
0.0 0.0025686023 0.0046272995 0.0016341218 0.00030018843 0.0 0.007927769 0.010898827
0.00024320702 0.0 0.00032967282 0.0 0.010060908 0.0 0.0 0.0
0.0 0.0050038546 0.00752696 0.0 0.0 0.0010991951 0.0 0.0005500788

grad_avg f4 [1, 200]
00000000: ec49 9dbb 74d9 6b34 56b7 1cbc 355f c133
00000010: b53d 67bb 3b1f b83a 0000 0000 a038 ffba
00000020: 09f3 9bba 0000 0000 0000 0000 8297 f7bb
00000030: 423c eebb 0000 0000 5c28 a2bb f58e 9632
00000040: 0000 0000 a00f 363b 61f7 7eba 0000 0000
00000050: 5a46 6bbb 0000 0000 5937 0eba ebb2 fbbb
00000060: 2693 a8bb 0ffa d2ba 3022 363a 0000 0000
00000070: 8656 4935 f3f9 acbb 0000 0000 0000 0000
00000080: c397 8bbb 73f5 a03a 0000 0000 fab8 a7bb
00000090: 0cfc 1aba d7cf bfbb e8c6 d2bb 0ade 33bb
000000a0: 0000 0000 ccdc edba 4cf9 d0bb 0000 0000
000000b0: 0000 0000 0cd3 023b 2488 87ba 0000 0000
000000c0: 78ae 443a ebb4 07bb 498c 87bb 0000 0000
000000d0: 332d b4bb 1f16 a139 0000 0000 1025 9331
000000e0: 5f04 7bbb ab69 04bb bb09 cebb c89f 99ba
000000f0: 0847 2930 ea99 77bb ff9e 6134 cd9c 4131
00000100: 761e e4b9 0000 0000 1fe1 0c3b 0000 0000
00000110: 7970 943a ab58 4d3a f576 61bb 0000 0000
00000120: 0000 0000 216a 2ebb 6c45 a1ba 0000 0000
00000130: e35d 46b9 0000 0000 df35 25bb ff8b 23bb
00000140: 1eea adbb 0000 0000 b378 cbbb ec95 0eba
00000150: e342 1a3b 360d e1bb 0000 0000 0000 0000
00000160: 0000 0000 1eab db3a 25db bbb8 a784 66bb
00000170: 0000 0000 0000 0000 cfed 2bbb 0000 0000
00000180: ba60 eab1 905f 9dba 0000 0000 66e1 2b3b
00000190: f8c1 bbba ac34 5abb b949 c83a 0000 0000
000001a0: 9693 06bc 59ca d43a 099a af39 0000 0000
000001b0: b3eb 57bb 0000 0000 931f 83ba c5f4 33bb
000001c0: 0000 0000 0000 0000 0000 0000 d52d 86bb
000001d0: e2a4 1dbc c2fd 993a cecf 59bb 7313 2939
000001e0: 0000 0000 b90c b83a 9ffa a0bb 06b3 a8bb
000001f0: b5c5 1abc 9925 aebb a359 b4bb a7b0 91bb
00000200: 0000 0000 0dc6 15bb 0000 0000 6128 aabb
00000210: 540b a6bb 0000 0000 6d3a edb8 5da1 eabb
00000220: 0000 0000 007a 243a 38fc b63a 2959 97bb
00000230: 0381 423b dfa0 21ba 55ee dc3a 0f5e 5d3a
00000240: 2a01 b9ba 0000 0000 0000 0000 4e65 f438
00000250: 0000 0000 0000 0000 c3f3 c43a 0000 0000
00000260: 0000 0000 7db4 6439 873e f239 0000 0000
00000270: 9c75 b1bb 6634 7b39 0524 ea3a de31 9d3a
00000280: 0000 0000 a28c 5e33 822f 2cbb 0000 0000
00000290: b92c 133b 6d82 0abc a633 c4ba aab2 adba
000002a0: cb53 9abb 8c30 b5bb 0000 0000 b86b c13a
000002b0: 0000 0000 24bc ae30 0000 0000 0000 0000
000002c0: 0000 0000 c78e e6bb 6261 f8bb 7b10 18bb
000002d0: b542 91bb 0000 0000 adca 17bb 45ce feb9
000002e0: aeab b8bb 0000 0000 73fe ebba 0000 0000
000002f0: 93c7 fdbb 0000 0000 0000 0000 0000 0000
00000300: 0000 0000 bf27 03bb deb2 55bb 0000 0000
00000310: 0000 0000 8073 023b 0000 0000 5312 b63a
-0.004800072 2.196519e-07 -0.009565195 9.004581e-08 -0.0035284583 0.0014047393 0.0 -0.0019471832
-0.0011897992 0.0 0.0 -0.007555903 -0.007270367 0.0 -0.004948659 1.7527308e-08
0.0 0.002778031 -0.00097261934 0.0 -0.0035900087 0.0 -0.00054251176 -0.007681241
-0.0051444946 -0.0016096252 0.00069478434 0.0 7.5004243e-07 -0.0052788197 0.0 0.0
-0.0042600348 0.0012280181 0.0 -0.0051184865 -0.00059121917 -0.005853634 -0.006432403 -0.0027445578
0.0 -0.0018147468 -0.0063773748 0.0 0.0 0.001996222 -0.0010340256 0.0
0.00075028045 -0.00207072 -0.0041365963 0.0 -0.005498552 0.00030724794 0.0 4.2824766e-09
-0.0038302166 -0.0020204585 -0.006287781 -0.0011720592 6.1582783e-10 -0.003778095 2.10126e-07 2.8174327e-09
-0.00043510244 0.0 0.0021496487 0.0 0.0011325023 0.0007833342 -0.003440318 0.0
0.0 -0.002661355 -0.0012304015 0.0 -0.00018917727 0.0 -0.0025209112 -0.002495527
-0.00530745 0.0 -0.006209457 -0.000543921 0.0023538403 -0.00686803 0.0 0.0
0.0 0.0016759371 -8.957674e-05 -0.0035174282 0.0 0.0 -0.0026234274 0.0
-6.821293e-09 -0.0012006629 0.0 0.0026226877 -0.0014324775 -0.0033295555 0.001528076 0.0
-0.008213898 0.0016234621 0.00033493366 0.0 -0.0032946884 0.0 -0.0010003917 -0.0027459126
0.0 0.0 0.0 -0.004094819 -0.009621831 0.0011748599 -0.0033235434 0.00016124341
0.0 0.0014041878 -0.004912689 -0.0051482944 -0.009446551 -0.0053145406 -0.0055038496 -0.0044461074
0.0 -0.0022853643 0.0 -0.005192802 -0.0050672684 0.0 -0.00011311923 -0.0071603493
0.0 0.0006274283 0.0013960665 -0.004618783 0.0029678948 -0.0006165634 0.0016855696 0.0008444497
-0.0014114727 0.0 0.0 0.00011653696 0.0 0.0 0.001502626 0.0
0.0 0.00021811012 0.00046204423 0.0 -0.0054156315 0.00023956745 0.0017863518 0.0011993011
0.0 5.1816308e-08 -0.0026273434 0.0 0.0022457077 -0.0084539475 -0.0014969006 -0.0013252099
-0.004709696 -0.005529469 0.0 0.0014756834 0.0 1.2713639e-09 0.0 0.0
0.0 -0.0070360634 -0.0075799683 -0.0023203182 -0.004433001 0.0 -0.0023161576 -0.00048600338
-0.0056357 0.0 -0.0018004909 0.0 -0.0077447384 0.0 0.0 0.0
0.0 -0.0020012704 -0.0032607834 0.0 0.0 0.001990527 0.0 0.0013890959

sqr_avg f4 [1, 200]
00000000: f859 ef39 2282 a42b 71ed 4a3f 550b 442b
00000010: ce89 b73e 4641 443d 0000 0000 0f44 683d
00000020: a159 173f 0000 0000 0000 0000 cbf6 623f
00000030: 46f6 1a3f 0000 0000 6ca4 b03e a3f7 412b
00000040: 0000 0000 6803 8f3b 02a8 b63d 0000 0000
00000050: 0a45 d43d 0000 0000 6914 d33e fcef 2d3f
00000060: acab 893e 3c54 023d 2415 d63d 0000 0000
00000070: 9a41 922d 0164 503a 0000 0000 0000 0000
00000080: b093 d93e d13b c93e 0000 0000 1ec5 d43d
00000090: 2888 0c3e b223 563f 59f3 a33e 0a60 453f
000000a0: 0000 0000 959e e63e 8557 1e3f 0000 0000
000000b0: 0000 0000 d8e8 fc3c 138d 813e 0000 0000
000000c0: 13db 713c 41ec c838 c74e 8a3d 0000 0000
000000d0: b9b0 9a3e 0802 c23e 0000 0000 cdc5 b237
000000e0: b3a3 ef39 56b7 ce3d 9323 423f 3548 953d
000000f0: cf1c 0434 33df 353f 6b43 c72a 81e9 852b
00000100: 91b9 4a3b 0000 0000 13b7 573c 0000 0000
00000110: 2fe4 fd3b 2a14 da3b 3b64 713c 0000 0000
00000120: 0000 0000 5caf 4d3e 65c8 223f 0000 0000
00000130: d117 053e 0000 0000 1f15 223b 3247 493f
00000140: e7f0 093f 0000 0000 3ab9 ba3e 54bf 733e
00000150: a8f8 473a 087a 5d3f 0000 0000 0000 0000
00000160: 0000 0000 6c84 793c ba13 633d a954 b93b
00000170: 0000 0000 0000 0000 6fc5 d13d 0000 0000
00000180: 290d 4831 9df9 1a3a 0000 0000 42d2 df3d
00000190: f5e8 443b d1ef d93e e5a3 2737 0000 0000
000001a0: 86e6 f33e b9ed b73c 8219 9b34 0000 0000
000001b0: 92e9 433d 0000 0000 7e60 8f3d 8e1a 703e
000001c0: 0000 0000 0000 0000 0000 0000 6ea0 263f
000001d0: d508 2b3f ad2e 6f3b f312 443f 816e 1733
000001e0: 0000 0000 d21d d13d 3f23 033e c93b 633f
000001f0: d9b8 f53a 13a5 0c3f be03 b83e 3782 fa3e
00000200: 0000 0000 1d10 1e3f 0000 0000 12dc 3c3f
00000210: f3e2 3d3a 0000 0000 8bbe 893d b5ff 023a
00000220: 0000 0000 004e d835 955b f23b 898c 093f
00000230: 3e37 3f38 53a1 9a3e 056d 983c e472 133b
00000240: ded9 1c3d 0000 0000 0000 0000 e803 2235
00000250: 0000 0000 0000 0000 27e1 723b 0000 0000
00000260: 0000 0000 bd3e 5935 9945 9b35 0000 0000
00000270: 2554 fd3a db4c ea36 6f6d 893d dd8c 523b
00000280: 0000 0000 8a59 fd29 c48e 6a3a 0000 0000
00000290: 83ca 013c 8f88 3d3a 2c66 133e 9467 663d
000002a0: 5670 063f 4918 613a 0000 0000 4c19 283e
000002b0: 0000 0000 7a6b d12a 0000 0000 0000 0000
000002c0: 0000 0000 f04b 3e3f 51ee a23e 4eab 9c3d
000002d0: b84f 473f 0000 0000 3045 eb3c 845c c03e
000002e0: 471c ce3e 0000 0000 94d9 dc3d 0000 0000
000002f0: 6d46 1d3a 0000 0000 0000 0000 0000 0000
00000300: 0000 0000 cfbc 343e ddc5 4c3e 0000 0000
00000310: 0000 0000 f550 b93a 0000 0000 cd27 893e
0.00045652664 1.168902e-12 0.79268557 6.9648914e-13 0.35847324 0.047913812 0.0 0.05670553
0.5912114 0.0 0.0 0.88657826 0.60532033 0.0 0.34500444 6.891104e-13
0.0 0.0043644197 0.08918764 0.0 0.10364731 0.0 0.4122651 0.6794431
0.26888788 0.031818613 0.10453251 0.0 1.6627411e-11 0.0007949472 0.0 0.0
0.4249549 0.3930345 0.0 0.103891596 0.13723814 0.83648217 0.32021597 0.7709967
0.0 0.45042863 0.61852294 0.0 0.0 0.030872747 0.25302944 0.0
0.014761704 9.580749e-05 0.06753307 0.0 0.30212954 0.37892175 0.0 2.1311362e-05
0.00045707598 0.10093562 0.7583553 0.07289163 1.2303938e-07 0.710437 3.5396282e-13 9.515029e-13
0.003093336 0.0 0.013166207 0.0 0.007748149 0.006655236 0.014733369 0.0
0.0 0.20086426 0.6358703 0.0 0.12997366 0.0 0.0024731827 0.7862426
0.5388321 0.0 0.36469442 0.23803455 0.00076283 0.8651433 0.0 0.0
0.0 0.015229326 0.055438735 0.005655844 0.0 0.0 0.102427356 0.0
2.9111311e-09 0.0005911829 0.0 0.10928775 0.003004608 0.42565778 9.992135e-06 0.0
0.47636813 0.022452222 2.888956e-07 0.0 0.047830172 0.0 0.07000826 0.2344763
0.0 0.0 0.0 0.65088546 0.6681035 0.0036496327 0.76591414 3.525793e-08
0.0 0.10210766 0.12806414 0.887631 0.0018747105 0.54939383 0.35940355 0.4892747
0.0 0.61743337 0.0 0.737733 0.0007243596 0.0 0.06725796 0.000499721
0.0 1.6115955e-06 0.0073961713 0.53730065 4.5589397e-05 0.30201206 0.018606672 0.00224989
0.03829371 0.0 0.0 6.035539e-07 0.0 0.0 0.003706047 0.0
0.0 8.0930096e-07 1.1568656e-06 0.0 0.0019327445 6.9826906e-06 0.06710326 0.0032127418
0.0 1.12509896e-13 0.00089476653 0.0 0.007921818 0.00072301266 0.14394444 0.056251124
0.5251516 0.00085866876 0.0 0.164159 0.0 3.7200435e-13 0.0 0.0
0.0 0.7433462 0.31822446 0.07649861 0.77856016 0.0 0.028719515 0.37570584
0.4025595 0.0 0.10783687 0.0 0.0005999569 0.0 0.0 0.0
0.0 0.1765015 0.19997354 0.0 0.0 0.0014138507 0.0 0.26788178
