trees/save/tree/6bits/split_75.0_0.1_5_50/models/model.pth (torch, 57046 bytes, 12 tensors)

embedding_layers.weight f4 [494, 6]
00000000: c441 44bc f0cb 933b fa00 243c 62c4 003c
00000010: 93f7 c0ba ef4d 16bc 4116 7bbb cb59 183c
00000020: a5f2 333c b8bd 723b 4142 4f3b 7902 bebb
00000030: d7e1 caba d1a0 623b 4aab 1ebc 9dd2 1a3c
00000040: 3c08 553c af7e 36bb 4132 6e3b 01c9 f63b
00000050: ae80 babb d4c3 26bb 2174 27bb df0c d4bb
00000060: c826 613b ef1b 17bc 5208 ffbb c30d 7fbc
00000070: 97b0 763c 0e41 193c 148a deba e8c3 f2ba
00000080: e035 8bbc ee36 953b 6980 e73b 6291 543c
00000090: cab7 2cbc 1eca 00ba 890d 893a 9cf9 03bc
000000a0: 1514 8bbc 5647 14bc 06fb de3b 3733 f33a
000000b0: 3ec4 593c dee0 d13b 6c6d 2cba b36c 5dba
000000c0: c07e 5db9 a96f c73a 4e8c 4d3a 8d46 5d3b
000000d0: 7dc8 26b9 f2ed c2bb 0bd6 e0bb 3f76 49b9
000000e0: bf32 b0b9 266c 0639 bc17 7cba b0c7 0cba
000000f0: 0cf9 c8bb 6f2c 7ebc aff7 e5bb 57fd 673c
00000100: 8e84 75b8 ac23 4f3b bc1c b8bb c67d bf3a
00000110: 59f3 a13b 3e97 12bc 7216 6cb9 21ea 16bc
00000120: 5468 a83b 612f 973a bfc7 2c3b ec61 59bb
00000130: 87e0 3bbb cf2d a6bb 9c78 013c dddd b6bb
00000140: 26bf e83b 2f8e 4bbc 897e d33b 2e89 043b
00000150: c2a7 dd39 4f22 263c ddf1 93bb 327a dbbb
00000160: e0b9 373b 4308 85bc d2ff 1ebc 9722 403c
00000170: 2ee4 21bb 5b84 6439 669a ab3b a100 2a3c
00000180: b974 373c e89c 50bc c2f5 523b 1a9d debb
00000190: e7a2 d33b bce2 5ebc faf1 8b3b f095 ffb9
000001a0: a906 e7bb 10e8 633b 965f 80bc 08ca 81bb
000001b0: 43e3 9cbb 657d 33bc dd5f 8d39 fc57 5cbc
000001c0: ced3 fb3b e54d d4ba 43e1 aa3b 78e8 21bb
000001d0: cd27 1a3b 6a0d be3b 24ad 9f3b 26b2 0e3c
000001e0: 68a2 03bb bc0b ad3b 83fb 8bbc ee75 23ba
000001f0: caaf 55bc 43bc 3c3b 7895 daba 0685 183c
00000200: 46f6 d0bb d42c 043c 7722 de3b 78e4 ab3a
00000210: cfd1 453c e187 d1bb bc62 1cbb a33a 1ebc
00000220: 74d6 92ba dbb8 383c c769 003c 21fc e93b
00000230: ae52 393b 0c58 263c f403 823c 01a1 273b
00000240: b7d1 eeba 5868 8eb9 33fd eb3b 3e73 ab36
00000250: df0d 1b3c a34d 0d3c 9731 f43b 4902 a13b
00000260: e535 713c b941 323c 4f04 003c 4c83 843a
00000270: db8a 59bb 2f82 41bb e9a2 1dbb 422f ea39
00000280: 5f96 7f3b ad4a ddbb ca83 c4b9 d3f0 833c
00000290: 3c42 02bc f07f 1fbc a052 21bc c75b f03b
000002a0: 8065 bdb9 0c43 21bb f451 3dbb 4174 a3bb
000002b0: 3b27 48bc e54f 56bb 0ca7 883b 0b50 2dbc
000002c0: d14d e5bb 9915 e43b 2c0c d23b 4aa5 09bc
000002d0: 30c9 02bc 32b3 c43a 6ae6 aaba 751d 77ba
000002e0: b5c1 203c a9d1 57bc 6857 843b 5e06 583b
000002f0: 9761 293c 7eb9 c93b 0adc 893a dfa3 1eba
00000300: 889d 32bc 0d68 b7b9 3cee e83b 0a22 1fbc
00000310: 3cc0 263c dad8 d1bb abfe 2e3b fdeb 783c
00000320: b625 4c3b 1320 7bbb 77dd 8bbb c8de 76bc
00000330: bc91 ad3b 6167 5c3b f6b6 4e3b f77f 263c
00000340: 3829 213b 9a19 60bb 6892 36b7 fc2e babb
00000350: d44c 3d3c af72 763c cdbd 033c 9146 0e3b
00000360: 7f50 ab3a d2e5 1fbc ccb1 bf3b ba10 c0bb
00000370: e92d 003c 5508 d9b9 18ff d5b9 d20f 73bc
00000380: e229 96ba 84a6 b33b 1020 5d3c 5fa7 2dbb
00000390: 6831 45bb a6ec beba 7cf5 36bb 7578 18bc
000003a0: 1726 663c 11cc 6cbc 3a69 5abc 29c0 eebb
000003b0: d3b4 5b3c fe5b d83a 6fb7 e43b 03b5 5a3b
000003c0: fe10 43bc 84bd 2abc e3ae 413c 2271 0a3b
000003d0: 54d8 6bbb e655 37bb 2cb6 1ebb c54b fd3b
000003e0: 4365 383c 6f12 283c 4b84 363c 6db4 8a3b
000003f0: a824 443b 29c0 0fbc 59d9 10bb 3caf 2c3c
-0.01197857 0.004510395 0.010009998 0.007859321 -0.001472222 -0.009173854 -0.0038312825 0.009298752
0.010983144 0.003703935 0.0031625184 -0.0057986346 -0.0015478682 0.0034580717 -0.009684393 0.009449628
0.0130024515 -0.0027846505 0.0036345872 0.0075312858 -0.0056916093 -0.0025446313 -0.0025551396 -0.006471261
0.003435539 -0.0092229685 -0.0077829743 -0.015567246 0.015056751 0.009353889 -0.0016978406 -0.0018521519
-0.016993463 0.0045536673 0.007064868 0.012974115 -0.010541866 -0.00049129303 0.0010456304 -0.008055117
-0.01697735 -0.009050211 0.0068048267 0.0018554692 0.013291417 0.00640498 -0.00065775844 -0.00084466784
-0.0002112342 0.0015215772 0.00078410364 0.0033763975 -0.00015905681 -0.0059487754 -0.0068614534 -0.00019212904
-0.00033607145 0.00012819524 -0.0009616574 -0.0005370332 -0.0061332043 -0.0155135235 -0.0070180516 0.014159522
-5.8536003e-05 0.0031606955 -0.00561866 0.0014609627 0.0049423394 -0.008947192 -0.00022515075 -0.009211094
0.00513939 0.0011534506 0.0026364175 -0.0033169938 -0.0028667764 -0.005071379 0.007902291 -0.0055806474
0.007102865 -0.012424036 0.006454293 0.0020223367 0.00042277394 0.010140016 -0.0045149163 -0.0066979164
0.0028034374 -0.016239291 -0.009704547 0.011726997 -0.0024702656 0.0002179308 0.0052369116 0.0103761265
0.011197262 -0.012732722 0.003218994 -0.0067936303 0.0064586285 -0.013603862 0.004270789 -0.00048749102
-0.0070503545 0.0034775771 -0.015670579 -0.0039608516 -0.004787834 -0.010955189 0.0002696504 -0.0134487115
0.007685161 -0.0016197531 0.0052148416 -0.0024705213 0.0023522258 0.005799939 0.004872935 0.008709466
-0.0020085815 0.00528094 -0.017087704 -0.00062355294 -0.0130424 0.0028798736 -0.0016676625 0.009309059
-0.0063770143 0.0080673285 0.006779011 0.0013114354 0.012073948 -0.006394372 -0.0023862561 -0.009657535
-0.0011202828 0.011274542 0.007837719 0.007140652 0.002827804 0.010152828 0.015871026 0.0025578144
-0.0018220459 -0.00027162093 0.0072018146 5.109613e-06 0.009463756 0.008624467 0.0074522006 0.0049136025
0.014722322 0.010879927 0.007813527 0.001010993 -0.0033194337 -0.0029527058 -0.00240534 0.00044667168
0.003899954 -0.006753287 -0.00037482224 0.016106045 -0.007950362 -0.0097350925 -0.0098463595 0.0073351595
-0.00036124513 -0.0024606613 -0.002888796 -0.004988224 -0.0122163845 -0.003270143 0.004170304 -0.010578166
-0.006997802 0.0069605825 0.0064101424 -0.008401224 -0.007982537 0.0015007018 -0.001303864 -0.00094266917
0.009811808 -0.0131725455 0.00403874 0.003296278 0.010338209 0.0061561456 0.0010517847 -0.00060516404
-0.010901816 -0.00034982004 0.007108478 -0.009712705 0.010177668 -0.0064040245 0.0026702087 0.015192983
0.0031150407 -0.0038318678 -0.004268344 -0.015067764 0.005296914 0.0033630955 0.0031542159 0.010162345
0.0024591219 -0.0034194947 -1.0882133e-05 -0.0056818705 0.011553962 0.015041991 0.0080408575 0.0021709541
0.0013070254 -0.009759383 0.0058500525 -0.005861369 0.007823446 -0.00041395673 -0.00040816586 -0.014835315
-0.0011456574 0.0054824967 0.013496414 -0.0026497466 -0.0030089263 -0.0014566376 -0.0027917316 -0.009306063
0.014047167 -0.01445295 -0.013330752 -0.007286091 0.013409811 0.0016506908 0.006979875 0.0033372052
-0.011905907 -0.010421161 0.011821481 0.0021124561 -0.0035987096 -0.0027974783 -0.002421747 0.0077299797
0.011254611 0.010258301 0.01113994 0.004232934 0.0029929075 -0.008773842 -0.0022102206 0.010539826

layers.0.weight f4 [100, 12]
00000000: 3fb0 3abe 5a81 06bd b9e2 8d3e 02d0 4b3e
00000010: ac87 3f3e 812e cfbd 0f3c 8bbe 499b 553d
00000020: 22a9 783e 9124 d4be 561b c0be 9305 e5bd
00000030: f656 793e 8730 e43e dfed abbe afa6 3c3e
00000040: 3611 dc3d 94cf 1d3e fb8d 79be 78d6 e3be
00000050: ecdf ab3e 2a09 3cbe e452 dbbd 50fa 1dbe
00000060: ea56 27be f60d f3bc 1575 fdbd 04de 163e
00000070: 82b5 68be 680a 103d e886 303d e7b5 dd3d
00000080: 4009 503e b377 3f3e ee65 503e 096c aa3d
00000090: 111b 94bd b302 59bd 05e7 86be bf5a c03e
000000a0: 6501 6dbe 3dbf f03d bd6c 763e a5ea 4d3e
000000b0: ece4 a3bd 9092 3fbe c0dc 01be fa52 05be
000000c0: f5fc 1d3e 4b79 e23e 7d8e b63d d6e3 39be
000000d0: ff5f 3fbe c9da 7cbe 96ac 80be 8466 a2be
000000e0: dd40 debe 7a06 cfbd e1e7 e0be 453e ecbd
000000f0: 06bc 043e 461e 263e 5036 453e 8e35 11be
00000100: 095d 97be 8f5c 7b3c deff 04be 2997 aabe
00000110: dfa9 b9bd 8f2b 59bc 0112 b5be 58a5 653e
00000120: 1792 4dbe d197 dd3a 6da7 9abe 969f 91be
00000130: 6ed6 50be 500b 073f dd9d 88be 43a7 d8bd
00000140: 74cb 6abe e867 493e 7c92 dabe b012 93be
00000150: 19ca 0d3f ee10 54bd 9d08 23be cf38 473e
00000160: 9e23 da3e 402f 433e 0056 5cbb dfe3 9dbd
00000170: 3b53 f83d a28b 373d 2ccb 0c3e ec74 ccbd
00000180: ba50 ca3d cf74 913d 9e88 30ba 1ce0 d23e
00000190: 431e 9e3e 9c02 12be 73de 89be 68e6 4b3e
000001a0: b9da 8bbc d3f6 013d ce67 6a3e fa5d 86be
000001b0: 0d73 643e 6875 f0bc d69a 0e3d 5db8 3b3e
000001c0: 76a3 393d 8e39 8abe 9429 14be ff99 e53b
000001d0: 48c5 9b3d b9d0 94bd 3200 313b 2639 55be
000001e0: cd07 913e 7812 69be 6cb3 523e 170e cfbd
000001f0: c42f babd 3398 1f3e aed1 47be e516 a2bc
00000200: 3652 dcbc 6cbc 65be 774d 21be b847 02be
00000210: cf90 9f3e 5029 993d e50a 64be a418 c0bd
00000220: b2aa 68be 2e45 37be ac0d 67be aec4 78be
00000230: a384 e23e 0735 d4be 54a7 87be 9924 dfbd
00000240: dd46 a03d b6ba e6bd 8810 b23e 6707 d7be
00000250: 2b1a babd 6ba7 4dbe d9f7 89bd 2a97 eb3d
00000260: 1920 ea3e 783e c83e 2dd3 893b 8d37 973e
00000270: 345c e9bd a074 4abe fd9a 643d 650d d43d
00000280: 91e9 1a3e be91 3ebd ca1f b73d 0dd3 38be
00000290: 69a6 873e cfcc d4be 18c2 233e 5c68 ce3d
000002a0: c92c 9b3e c6fc 843e 2570 ccbd 9feb 0e3e
000002b0: 95da 483e f0b7 1f3e d3f8 c4be 106c 8d3e
000002c0: 9502 d93d 2c2d 6cbe 4858 a93e 87f0 d93e
000002d0: c06f 093d 847d 46be d81e 893e bf96 ad3e
000002e0: 6ebf ec3d 61eb 94be 51fd 0abf 5017 81be
000002f0: b87a 97be 33d7 d03d 68ed 05bf b808 27bd
00000300: 9a9c cc3e 765c cc3e 2e31 303e 0b81 8fbd
00000310: 74ed 2ebe 7911 d83e 480c 78be 9501 6d3e
00000320: 3210 b6be c5df 0e3e 17f7 d4be 39d9 483d
00000330: cb1d a6bb c650 073d 3bb1 e8bc b33b 37bc
00000340: f548 40bd ad97 403c 9853 a7bc 70b3 79bd
00000350: fec4 c3bd 1226 4f3c 412e 133c ac3f ed3c
00000360: c8aa 8c3e 34ae 52bc 2a9a 0a3e 8eea bf3d
00000370: b5af 1abe 4f3b 993d 40dd 23bd 31e2 d6be
00000380: 8f35 71be 14f0 ebbe 1885 c4be 752f 413e
00000390: 54e9 d53d 841f c93e 71e7 be3e bb9e 793e
000003a0: a3a6 c53d 0729 6d3d 9d79 c83d 325e bcbe
000003b0: 1b70 a73e 7262 f1bd 1b3d 4c3c f3d9 b23c
000003c0: 5483 473d 3924 ffb8 4d20 f5be 33b4 e83c
000003d0: ca92 543e 037d 313e ddcc 69be 85ce cabe
000003e0: 9bc3 bd3e deb1 2e3e 1b3b 603e 93f4 943c
000003f0: 3a5c a83d e2fb b83e dcdb bf3e 56e8 653e
-0.18231295 -0.032838203 0.27712038 0.19903567 0.18704098 -0.10116292 -0.2719426 0.052150045
0.24283269 -0.41434148 -0.37520856 -0.11182704 0.24349579 0.44568273 -0.3357992 0.1842296
0.1074547 0.15411216 -0.24370568 -0.44499564 0.33569276 -0.18362871 -0.107091695 -0.15427518
-0.16341749 -0.029669743 -0.12375847 0.1473313 -0.2272549 0.035166174 0.043097407 0.10825711
0.20316029 0.18698005 0.20351383 0.08321387 -0.07231725 -0.05298109 -0.2634813 0.37569234
-0.23145063 0.11755226 0.24064918 0.20109041 -0.08002648 -0.18708253 -0.12681866 -0.13019934
0.15428527 0.44233164 0.08913896 -0.18153319 -0.18688963 -0.24692835 -0.25131673 -0.31718838
-0.43408862 -0.10108657 -0.4392691 -0.115353145 0.1296235 0.16222486 0.19259 -0.14180586
-0.29563168 0.015341892 -0.1298823 -0.3331845 -0.090656035 -0.013255014 -0.35365298 0.22426355
-0.2007526 0.0016906207 -0.3020586 -0.28442067 -0.20394298 0.52751637 -0.2668294 -0.10578778
-0.22929174 0.19668543 -0.42689884 -0.28725195 0.553865 -0.051773958 -0.15921254 0.19455265
0.426053 0.19060993 -0.0033620596 -0.077094786 0.1212525 0.0448109 0.13749379 -0.099832386
0.098786786 0.071023576 -0.0006734225 0.41186607 0.30882463 -0.14258808 -0.26927528 0.19912112
-0.017072069 0.03172953 0.22891161 -0.26243573 0.22309513 -0.029352859 0.03481563 0.18332048
0.045321904 -0.26997036 -0.14468986 0.007006883 0.07605988 -0.07266373 0.0027008173 -0.20822582
0.28326264 -0.22760952 0.20576257 -0.10110109 -0.09091142 0.15585403 -0.1951358 -0.019786308
-0.02689467 -0.22435158 -0.15752207 -0.12722671 0.31165168 0.07478583 -0.22269781 -0.093797
-0.22721365 -0.17897484 -0.22563809 -0.24293777 0.4424182 -0.41446707 -0.2649485 -0.10895652
0.07826016 -0.11266081 0.34778237 -0.41997835 -0.090870224 -0.20083396 -0.06736726 0.11503442
0.45727614 0.3911016 0.0042060823 0.2953457 -0.113945395 -0.19771051 0.05581187 0.10354117
0.15128161 -0.04652571 0.0894161 -0.1804926 0.26494148 -0.41562507 0.1599201 0.10078499
0.30307606 0.259741 -0.09982327 0.1395707 0.19614632 0.1559751 -0.38471088 0.27621508
0.105961956 -0.23064107 0.33075166 0.4256632 0.03355384 -0.19383818 0.26781344 0.33904073
0.1155995 -0.2908583 -0.5429278 -0.252131 -0.29585814 0.10197296 -0.5231538 -0.0407798
0.39963228 0.39914292 0.1720626 -0.07007035 -0.17082769 0.4220083 -0.24223435 0.23145135
-0.3555923 0.13952549 -0.41594765 0.049035285 -0.0050694696 0.033036016 -0.028404823 -0.011183667
-0.046944577 0.011754912 -0.020425603 -0.06096214 -0.09559058 0.012643354 0.008983196 0.028961025
0.27474046 -0.012858916 0.13535371 0.0937091 -0.1510609 0.07482015 -0.040005922 -0.41969445
-0.23555587 -0.46081603 -0.38382792 0.1886576 0.104448944 0.39281857 0.3728595 0.24376957
0.09650924 0.057900455 0.09788821 -0.36790615 0.32702717 -0.11786355 0.012465741 0.021832442
0.04870923 -0.000121660945 -0.47876206 0.028406238 0.2075912 0.17332844 -0.22832055 -0.39610687
0.37063298 0.17060038 0.21897547 0.018183028 0.08220716 0.3612967 0.37472427 0.2245191

layers.0.bias f4 [100]
00000000: e02a 9dbd 4ec2 be39 5839 0cbf a4b3 d7be
00000010: ae6d 6f3d 47b4 62be dd01 3dbe ec70 16be
00000020: 656b 4ebe 8a1e fcbe 9044 01be b995 d7bd
00000030: 418b dcbd 15b3 3dbf 6189 4fbe 0e76 f9bd
00000040: f520 78be 7e9b ecbe a51d 52bd 20c5 14be
00000050: 0e7c 73be 14aa 66be 3170 35bf 7f73 73be
00000060: 5702 34be 7c7f fabd 11dd 84be 594d 28bf
00000070: dcb4 24bf fc82 88bd 8122 0dbf 6c9f 87bd
00000080: 933b 2dbe d2ee 10bf 9909 e63e 81f4 0dbe
00000090: 84dc c0be 0ab5 eebe cea1 4cbd f638 4dbe
000000a0: 744a 29bf 9997 0fbd 8af8 65bf ac65 b9be
000000b0: 27b8 33be 5f6f 9ebe 0fa3 e73b 220d 33be
000000c0: e051 c9be 2494 a4be 08d0 1bbf 933a 80bd
000000d0: 2639 9bbd ff77 00bd c190 42bf cddb a53e
000000e0: 59b5 6fbe 8a7a 36bd 3a2b ef3a 89ea 4c3d
000000f0: 99f8 25bf eff2 6439 bd77 25bf 7c89 8abe
00000100: f027 87be a8cc e5be c526 8bbe 3c09 eabd
00000110: 2bb4 b4be b092 023b f414 8cbe 3eed 553c
00000120: e863 f4ba 6671 f2be 4b35 a7bd 7ffa 33bf
00000130: 9a2f 96be 0c11 afbc 4a5c e0be 1dda fabe
00000140: 7b6b 90be f9ed cb3a 6c9a 1ebf 95f1 c9be
00000150: 69e6 9b3c 8514 d1bd 9d36 03be b508 12bf
00000160: 91c4 b1be b2fd 58be e137 9239 f6ff 17bf
00000170: 7558 9abe d673 dfbe 1021 583e d271 10bf
00000180: e04f e6bb dcdb 0cbd e5c9 f63c 1caa 8fbb
-0.076741934 0.00036384392 -0.54775 -0.42129242 0.058454208 -0.22139083 -0.18457742 -0.14691514
-0.20158155 -0.4924205 -0.12623811 -0.10526604 -0.10768748 -0.7410138 -0.2026725 -0.1218072
-0.24231322 -0.4621238 -0.051297802 -0.14528322 -0.23777792 -0.22525817 -0.70874316 -0.23774527
-0.17579018 -0.12231347 -0.2594991 -0.65743023 -0.6433847 -0.06665608 -0.55130774 -0.06622204
-0.16917257 -0.5661441 0.44929197 -0.13862802 -0.3766824 -0.46622497 -0.049958996 -0.2004126
-0.6612923 -0.035056684 -0.89832366 -0.36210382 -0.17550717 -0.30944344 0.0070689986 -0.17485479
-0.39320278 -0.32144272 -0.60864305 -0.06261172 -0.075792596 -0.031364437 -0.76002127 0.32394257
-0.23409022 -0.044550456 0.0018247135 0.050028358 -0.64832455 0.00021834274 -0.6463583 -0.27058017
-0.26397657 -0.44882703 -0.27178016 -0.114275426 -0.35293707 0.0019923858 -0.27359736 0.013057051
-0.0018645497 -0.4735214 -0.08164462 -0.703041 -0.29333192 -0.021370433 -0.4382041 -0.48994532
-0.28207 0.0015558592 -0.6195438 -0.39442125 0.019030767 -0.10208992 -0.12813802 -0.57044536
-0.3472028 -0.21190527 0.00027888923 -0.5937494 -0.30145612 -0.43643063 0.21106362 -0.56423676
-0.007028565 -0.03438936 0.030125568 -0.0043842923

layers.2.weight f4 [1, 100]
00000000: 569d 90bd 9bd8 8d3e 38f1 8d3e 2ef4 01be
00000010: e4d5 3abe 012a aebd 16ac 3cbe 7922 febd
00000020: 1ddb 1abe 20c2 8f3e 7ece a5bd fe9f 3dbe
00000030: 784f 21be 5b05 e43e 5b83 17be bf22 55be
00000040: 3a95 48be 3446 d6bb ea39 02be 7589 04be
00000050: 2c16 a0bd 7b9d 7ebe 0271 ac3e d79e 32ba
00000060: 73e4 12be 5dce 6ebe a6e1 ee3b c31d 90be
00000070: edae 7fbe a596 08be eabf 943e 50c0 20be
00000080: 91a6 2aba be68 4abe a594 0fbe 0fa3 b1bd
00000090: fd0b 28bc 2875 bdbd d12a 08be b28e 34be
000000a0: 0410 da3e 457c ffbd 60b4 1cbf 8571 75bb
000000b0: 28dc 96ba b502 28be 4347 1cbe fc73 2abe
000000c0: 17d5 dfbd fbeb fcbd 8c6a af3e 7675 21be
000000d0: fdd6 49be 0f48 0ebe 7640 b9be 0b1b c1bc
000000e0: 448a 40be d66d abbd 58d4 903e 91f7 d5bd
000000f0: feae 72be 9668 e13e 1b7d aabe df65 3fbb
00000100: 2d3a 19be c173 43be bbf8 283b 8b55 8ebd
00000110: 3173 813e 0f4f 273e faec 7bbe 69a9 72be
00000120: 6a9f d7bd ef90 6fbe e137 1ebe be74 9bbe
00000130: 215a c6bd e517 7cbe 918a dbb8 bdda d73d
00000140: 266f 3f3b c47b 913e cfba 75be 3a33 86be
00000150: 41fd 96bd 606d 2abe 6e9b 40be f82c 96be
00000160: df23 97bb 2c84 e1bd 729f 8b3e 7a01 b3be
00000170: aa65 4ebe c334 39be afa5 28be 4235 a2be
00000180: 1459 19bd c9d7 c4bd d0b2 36be a95e aabd
-0.070612594 0.2770432 0.27723098 -0.12690803 -0.18245655 -0.08504105 -0.1842502 -0.12408919
-0.15122648 0.28077793 -0.08096026 -0.18518063 -0.15752971 0.44535336 -0.14796202 -0.20814036
-0.19588175 -0.0065391306 -0.12717405 -0.1294306 -0.07816729 -0.24864762 0.33679968 -0.000681383
-0.14344959 -0.23320909 0.007290083 -0.28147706 -0.24969073 -0.13338716 0.2905267 -0.15698361
-0.00065098057 -0.19766518 -0.14021547 -0.08673679 -0.0102567645 -0.092508614 -0.13297583 -0.17632559
0.42590344 -0.124748744 -0.6121273 -0.0037451696 -0.0011509703 -0.16407283 -0.15261559 -0.16645807
-0.109293155 -0.12349697 0.34260976 -0.15767464 -0.19710918 -0.13894676 -0.36181992 -0.023572465
-0.18802744 -0.08370559 0.28287005 -0.1044761 -0.23699567 0.44025105 -0.33298573 -0.0029205007
-0.14963599 -0.19087125 0.002578302 -0.0694991 0.25283197 0.16338752 -0.24602118 -0.23697437
-0.10528453 -0.23395132 -0.15451004 -0.30362505 -0.096851595 -0.2461849 -0.00010468544 0.10539768
0.0029210537 0.28414738 -0.23997043 -0.26210958 -0.07372523 -0.16643286 -0.18809292 -0.29331183
-0.0046124305 -0.11011538 0.27270085 -0.34962064 -0.2015597 -0.18086533 -0.16469453 -0.31681257
-0.037438467 -0.0961147 -0.17841649 -0.08318836

grad_avg f4 [494, 6]
00000000: 0000 0000 0000 0000 0000 0000 0000 0000
00000010: 0000 0000 0000 0000 0000 0000 0000 0000
00000020: 0000 0000 0000 0000 0000 0000 0000 0000
00000030: 0000 0000 0000 0000 0000 0000 0000 0000
00000040: 0000 0000 0000 0000 0000 0000 0000 0000
00000050: 0000 0000 0000 0000 0000 0000 0000 0000
00000060: 0000 0000 0000 0000 0000 0000 0000 0000
00000070: 0000 0000 0000 0000 0000 0000 0000 0000
00000080: 0000 0000 0000 0000 0000 0000 0000 0000
00000090: 0000 0000 0000 0000 0000 0000 0000 0000
000000a0: 0000 0000 0000 0000 0000 0000 0000 0000
000000b0: 0000 0000 0000 0000 0000 0000 0000 0000
000000c0: 0000 0000 0000 0000 0000 0000 0000 0000
000000d0: 0000 0000 0000 0000 0000 0000 0000 0000
000000e0: 0000 0000 0000 0000 0000 0000 0000 0000
000000f0: 0000 0000 0000 0000 0000 0000 0000 0000
00000100: 0000 0000 0000 0000 0000 0000 0000 0000
00000110: 0000 0000 0000 0000 0000 0000 0000 0000
00000120: 0000 0000 0000 0000 0000 0000 0000 0000
00000130: 0000 0000 0000 0000 0000 0000 0000 0000
00000140: 0000 0000 0000 0000 0000 0000 0000 0000
00000150: 0000 0000 0000 0000 0000 0000 0000 0000
00000160: 0000 0000 0000 0000 0000 0000 0000 0000
00000170: 0000 0000 0000 0000 0000 0000 0000 0000
00000180: 0000 0000 0000 0000 0000 0000 0000 0000
00000190: 0000 0000 0000 0000 0000 0000 0000 0000
000001a0: 0000 0000 0000 0000 0000 0000 0000 0000
000001b0: 0000 0000 0000 0000 0000 0000 0000 0000
000001c0: 0000 0000 0000 0000 0000 0000 0000 0000
000001d0: 0000 0000 0000 0000 0000 0000 0000 0000
000001e0: 0000 0000 0000 0000 0000 0000 0000 0000
000001f0: 0000 0000 0000 0000 0000 0000 0000 0000
00000200: 0000 0000 0000 0000 0000 0000 0000 0000
00000210: 0000 0000 0000 0000 0000 0000 0000 0000
00000220: 0000 0000 0000 0000 0000 0000 0000 0000
00000230: 0000 0000 0000 0000 0000 0000 0000 0000
00000240: 0000 0000 0000 0000 0000 0000 0000 0000
00000250: 0000 0000 0000 0000 0000 0000 0000 0000
00000260: 0000 0000 0000 0000 0000 0000 0000 0000
00000270: 0000 0000 0000 0000 0000 0000 0000 0000
00000280: 0000 0000 0000 0000 0000 0000 0000 0000
00000290: 0000 0000 0000 0000 0000 0000 0000 0000
000002a0: 0000 0000 0000 0000 0000 0000 0000 0000
000002b0: 0000 0000 0000 0000 0000 0000 0000 0000
000002c0: 0000 0000 0000 0000 0000 0000 0000 0000
000002d0: 0000 0000 0000 0000 0000 0000 0000 0000
000002e0: 0000 0000 0000 0000 0000 0000 0000 0000
000002f0: 0000 0000 0000 0000 0000 0000 0000 0000
00000300: 0000 0000 0000 0000 0000 0000 0000 0000
00000310: 0000 0000 0000 0000 0000 0000 0000 0000
00000320: 0000 0000 0000 0000 0000 0000 0000 0000
00000330: 0000 0000 0000 0000 0000 0000 0000 0000
00000340: 0000 0000 0000 0000 0000 0000 0000 0000
00000350: 0000 0000 0000 0000 0000 0000 0000 0000
00000360: 0000 0000 0000 0000 0000 0000 0000 0000
00000370: 0000 0000 0000 0000 0000 0000 0000 0000
00000380: 0000 0000 0000 0000 0000 0000 0000 0000
00000390: 0000 0000 0000 0000 0000 0000 0000 0000
000003a0: 0000 0000 0000 0000 0000 0000 0000 0000
000003b0: 0000 0000 0000 0000 0000 0000 0000 0000
000003c0: 0000 0000 0000 0000 0000 0000 0000 0000
000003d0: 0000 0000 0000 0000 0000 0000 0000 0000
000003e0: 0000 0000 0000 0000 0000 0000 0000 0000
000003f0: 0000 0000 0000 0000 0000 0000 0000 0000
0.0 0.0 0.0 0.0 0.0 0.0 0.0 0.0
0.0 0.0 0.0 0.0 0.0 0.0 0.0 0.0
0.0 0.0 0.0 0.0 0.0 0.0 0.0 0.0
0.0 0.0 0.0 0.0 0.0 0.0 0.0 0.0
0.0 0.0 0.0 0.0 0.0 0.0 0.0 0.0
0.0 0.0 0.0 0.0 0.0 0.0 0.0 0.0
0.0 0.0 0.0 0.0 0.0 0.0 0.0 0.0
0.0 0.0 0.0 0.0 0.0 0.0 0.0 0.0
0.0 0.0 0.0 0.0 0.0 0.0 0.0 0.0
0.0 0.0 0.0 0.0 0.0 0.0 0.0 0.0
0.0 0.0 0.0 0.0 0.0 0.0 0.0 0.0
0.0 0.0 0.0 0.0 0.0 0.0 0.0 0.0
0.0 0.0 0.0 0.0 0.0 0.0 0.0 0.0
0.0 0.0 0.0 0.0 0.0 0.0 0.0 0.0
0.0 0.0 0.0 0.0 0.0 0.0 0.0 0.0
0.0 0.0 0.0 0.0 0.0 0.0 0.0 0.0
0.0 0.0 0.0 0.0 0.0 0.0 0.0 0.0
0.0 0.0 0.0 0.0 0.0 0.0 0.0 0.0
0.0 0.0 0.0 0.0 0.0 0.0 0.0 0.0
0.0 0.0 0.0 0.0 0.0 0.0 0.0 0.0
0.0 0.0 0.0 0.0 0.0 0.0 0.0 0.0
0.0 0.0 0.0 0.0 0.0 0.0 0.0 0.0
0.0 0.0 0.0 0.0 0.0 0.0 0.0 0.0
0.0 0.0 0.0 0.0 0.0 0.0 0.0 0.0
0.0 0.0 0.0 0.0 0.0 0.0 0.0 0.0
0.0 0.0 0.0 0.0 0.0 0.0 0.0 0.0
0.0 0.0 0.0 0.0 0.0 0.0 0.0 0.0
0.0 0.0 0.0 0.0 0.0 0.0 0.0 0.0
0.0 0.0 0.0 0.0 0.0 0.0 0.0 0.0
0.0 0.0 0.0 0.0 0.0 0.0 0.0 0.0
0.0 0.0 0.0 0.0 0.0 0.0 0.0 0.0
0.0 0.0 0.0 0.0 0.0 0.0 0.0 0.0

sqr_avg f4 [494, 6]
00000000: 0000 0000 0000 0000 0000 0000 0000 0000
00000010: 0000 0000 0000 0000 0000 0000 0000 0000
00000020: 0000 0000 0000 0000 0000 0000 0000 0000
00000030: 0000 0000 0000 0000 0000 0000 0000 0000
00000040: 0000 0000 0000 0000 0000 0000 0000 0000
00000050: 0000 0000 0000 0000 0000 0000 0000 0000
00000060: 0000 0000 0000 0000 0000 0000 0000 0000
00000070: 0000 0000 0000 0000 0000 0000 0000 0000
00000080: 0000 0000 0000 0000 0000 0000 0000 0000
00000090: 0000 0000 0000 0000 0000 0000 0000 0000
000000a0: 0000 0000 0000 0000 0000 0000 0000 0000
000000b0: 0000 0000 0000 0000 0000 0000 0000 0000
000000c0: 0000 0000 0000 0000 0000 0000 0000 0000
000000d0: 0000 0000 0000 0000 0000 0000 0000 0000
000000e0: 0000 0000 0000 0000 0000 0000 0000 0000
000000f0: 0000 0000 0000 0000 0000 0000 0000 0000
00000100: 0000 0000 0000 0000 0000 0000 0000 0000
00000110: 0000 0000 0000 0000 0000 0000 0000 0000
00000120: 0000 0000 0000 0000 0000 0000 0000 0000
00000130: 0000 0000 0000 0000 0000 0000 0000 0000
00000140: 0000 0000 0000 0000 0000 0000 0000 0000
00000150: 0000 0000 0000 0000 0000 0000 0000 0000
00000160: 0000 0000 0000 0000 0000 0000 0000 0000
00000170: 0000 0000 0000 0000 0000 0000 0000 0000
00000180: 0000 0000 0000 0000 0000 0000 0000 0000
00000190: 0000 0000 0000 0000 0000 0000 0000 0000
000001a0: 0000 0000 0000 0000 0000 0000 0000 0000
000001b0: 0000 0000 0000 0000 0000 0000 0000 0000
000001c0: 0000 0000 0000 0000 0000 0000 0000 0000
000001d0: 0000 0000 0000 0000 0000 0000 0000 0000
000001e0: 0000 0000 0000 0000 0000 0000 0000 0000
000001f0: 0000 0000 0000 0000 0000 0000 0000 0000
00000200: 0000 0000 0000 0000 0000 0000 0000 0000
00000210: 0000 0000 0000 0000 0000 0000 0000 0000
00000220: 0000 0000 0000 0000 0000 0000 0000 0000
00000230: 0000 0000 0000 0000 0000 0000 0000 0000
00000240: 0000 0000 0000 0000 0000 0000 0000 0000
00000250: 0000 0000 0000 0000 0000 0000 0000 0000
00000260: 0000 0000 0000 0000 0000 0000 0000 0000
00000270: 0000 0000 0000 0000 0000 0000 0000 0000
00000280: 0000 0000 0000 0000 0000 0000 0000 0000
00000290: 0000 0000 0000 0000 0000 0000 0000 0000
000002a0: 0000 0000 0000 0000 0000 0000 0000 0000
000002b0: 0000 0000 0000 0000 0000 0000 0000 0000
000002c0: 0000 0000 0000 0000 0000 0000 0000 0000
000002d0: 0000 0000 0000 0000 0000 0000 0000 0000
000002e0: 0000 0000 0000 0000 0000 0000 0000 0000
000002f0: 0000 0000 0000 0000 0000 0000 0000 0000
00000300: 0000 0000 0000 0000 0000 0000 0000 0000
00000310: 0000 0000 0000 0000 0000 0000 0000 0000
00000320: 0000 0000 0000 0000 0000 0000 0000 0000
00000330: 0000 0000 0000 0000 0000 0000 0000 0000
00000340: 0000 0000 0000 0000 0000 0000 0000 0000
00000350: 0000 0000 0000 0000 0000 0000 0000 0000
00000360: 0000 0000 0000 0000 0000 0000 0000 0000
00000370: 0000 0000 0000 0000 0000 0000 0000 0000
00000380: 0000 0000 0000 0000 0000 0000 0000 0000
00000390: 0000 0000 0000 0000 0000 0000 0000 0000
000003a0: 0000 0000 0000 0000 0000 0000 0000 0000
000003b0: 0000 0000 0000 0000 0000 0000 0000 0000
000003c0: 0000 0000 0000 0000 0000 0000 0000 0000
000003d0: 0000 0000 0000 0000 0000 0000 0000 0000
000003e0: 0000 0000 0000 0000 0000 0000 0000 0000
000003f0: 0000 0000 0000 0000 0000 0000 0000 0000
0.0 0.0 0.0 0.0 0.0 0.0 0.0 0.0
0.0 0.0 0.0 0.0 0.0 0.0 0.0 0.0
0.0 0.0 0.0 0.0 0.0 0.0 0.0 0.0
0.0 0.0 0.0 0.0 0.0 0.0 0.0 0.0
0.0 0.0 0.0 0.0 0.0 0.0 0.0 0.0
0.0 0.0 0.0 0.0 0.0 0.0 0.0 0.0
0.0 0.0 0.0 0.0 0.0 0.0 0.0 0.0
0.0 0.0 0.0 0.0 0.0 0.0 0.0 0.0
0.0 0.0 0.0 0.0 0.0 0.0 0.0 0.0
0.0 0.0 0.0 0.0 0.0 0.0 0.0 0.0
0.0 0.0 0.0 0.0 0.0 0.0 0.0 0.0
0.0 0.0 0.0 0.0 0.0 0.0 0.0 0.0
0.0 0.0 0.0 0.0 0.0 0.0 0.0 0.0
0.0 0.0 0.0 0.0 0.0 0.0 0.0 0.0
0.0 0.0 0.0 0.0 0.0 0.0 0.0 0.0
0.0 0.0 0.0 0.0 0.0 0.0 0.0 0.0
0.0 0.0 0.0 0.0 0.0 0.0 0.0 0.0
0.0 0.0 0.0 0.0 0.0 0.0 0.0 0.0
0.0 0.0 0.0 0.0 0.0 0.0 0.0 0.0
0.0 0.0 0.0 0.0 0.0 0.0 0.0 0.0
0.0 0.0 0.0 0.0 0.0 0.0 0.0 0.0
0.0 0.0 0.0 0.0 0.0 0.0 0.0 0.0
0.0 0.0 0.0 0.0 0.0 0.0 0.0 0.0
0.0 0.0 0.0 0.0 0.0 0.0 0.0 0.0
0.0 0.0 0.0 0.0 0.0 0.0 0.0 0.0
0.0 0.0 0.0 0.0 0.0 0.0 0.0 0.0
0.0 0.0 0.0 0.0 0.0 0.0 0.0 0.0
0.0 0.0 0.0 0.0 0.0 0.0 0.0 0.0
0.0 0.0 0.0 0.0 0.0 0.0 0.0 0.0
0.0 0.0 0.0 0.0 0.0 0.0 0.0 0.0
0.0 0.0 0.0 0.0 0.0 0.0 0.0 0.0
0.0 0.0 0.0 0.0 0.0 0.0 0.0 0.0

grad_avg f4 [100, 12]
00000000: b818 6039 5009 daba 3e8a 9ab9 177a 91bb
00000010: 3f82 4f3b 6365 98ba bdc5 09bb 34e7 02bb
00000020: f2a5 d6ba 693f 0abb 9590 7bbb 95b8 38bb
00000030: 327c 8fbb cdf7 0f3c 0e19 923c 54e6 233c
00000040: c34c 56bc 9588 a73b 0960 013c 67ed 4e3c
00000050: f668 093c 3e34 8c3c e84a 91b9 254b 91bb
00000060: 52b4 f3bb d2b4 633b 8e17 b63a 17d4 2bbb
00000070: 0f58 f6b9 f8af b8ba a189 633b 3055 ba3b
00000080: d052 1f3b 0055 27bb 2e8e 153b 6767 44bb
00000090: b85d 163a 1306 4bbb f47c 90ba 83fd 0b3b
000000a0: 1fe3 843b 00d1 c83a ebe1 20bb 8c3a 8fbb
000000b0: aba2 bdba 182c 703a 8fda 3ebb cb5c 4b3b
000000c0: 74f8 5e3b 26af 22bb aa8a 34bc 3cc4 9bbb
000000d0: e377 db3b 1ba9 64bc 65b1 c9bb ded7 4e3b
000000e0: 3ec3 35bc a8d5 0cbc d7dd e03a 3e5d 0ebb
000000f0: 4b65 323b f4f8 8cba bd13 c1bb 7a04 833a
00000100: aeb0 5c3b a89e f0bb 552a 94ba 4503 fcba
00000110: c5c4 c1bb f066 42bb 6b95 003b e063 95ba
00000120: 4178 b4b9 6b4a 76bb 2375 1abc 5765 2cbb
00000130: 0f13 ce3b 635e 5abb 7eaa a03a 73b5 e4ba
00000140: a401 a13b aa2a 34bc 43b9 0dbb 2625 bfbb
00000150: 959f b23b 6486 01bc 19f6 bdbb 508c 91b8
00000160: bf93 753b f291 19bb 7daf a5ba f4b0 023a
00000170: d1de 4ebb 7272 08bb b966 1ebb eeea c13b
00000180: 31a8 a03b 31f6 6dba 2075 6cbb b133 a6bb
00000190: 6fc9 043b ee0f 7bbb ac18 d2bb f39a a7ba
000001a0: b62b 01bc 6b6d eeba 3e41 72bb 3186 873b
000001b0: bd2f 4cbc 2f51 8d3b bf73 d2bb d58a afbb
000001c0: 98ec 8a3b 7f27 103c ba3c a43b ec51 903b
000001d0: 7398 c83b 0129 973b 3a97 7e3a 815f 993b
000001e0: 9b27 3339 8a48 bcbb 7525 16bb 3781 34bb
000001f0: c25c 683b 4da7 8fbb 0aab 1fbb 2887 4eb7
00000200: 3e54 edb9 29e7 14bb 1265 913a cf35 f9ba
00000210: 873e 893b 49c7 01bc 5649 b2bb 3e3f c3bb
00000220: c519 b63b 4b15 6cbb 889f 04bc da85 10bc
00000230: e8be dabb a3ff bebb a082 e9ba 0eba ad37
00000240: 1c51 923b 15cc 00bc d986 073a 5aab f4ba
00000250: d600 183b 1493 c4ba 21ea 4ebb d3be 4d3a
00000260: be23 00bc 8537 92bb 4c26 c53b 71b4 8839
00000270: 7585 bdbb 2fb5 6f3b 84ce 7bba 2e7b 6d39
00000280: a1fd 52bb ba3f eebb 1d25 abbb b10e 183c
00000290: e915 0cbb 5c5c 013b b2a8 103c 906e cdbb
000002a0: 31f6 9d3b 15fc 80bb 340a c5bb 856e 87bb
000002b0: b773 223c d4fa 32bc 2ac2 22bb 6ffb 44bb
000002c0: f942 69bb e65b 7bbb e431 0c3b 3789 c33b
000002d0: efb7 2c3c 570a 31bc 0338 e9ba fad3 adbb
000002e0: 0fab bd3a 3ceb 39bc 0654 96bb c131 6b3b
000002f0: b5dc 1fbc 9c46 a0bb 8ae0 2bbb 03ef 0ebc
00000300: c906 cb3a f653 dbbb 0e83 0abc fde1 b5bb
00000310: fa27 453c b0a2 57bc 06b3 283b a007 833b
00000320: 726a 08bc d7c6 b2ba 2250 94bb 340e 3d39
00000330: 0300 0080 0300 0080 0300 0080 0300 0080
00000340: 0300 0080 0300 0000 0300 0080 0300 0080
00000350: 0300 0080 0300 0000 0300 0000 0300 0000
00000360: 4255 97b9 07d8 77bb 162f 04bc bae8 e5ba
00000370: 2946 c33b 242c cbbb 05aa 393a 6d28 adbb
00000380: 1edd 273b 9e24 efbb be20 61bb 9d47 15bb
00000390: 649d ab39 f2ef 07bc f518 81bb 65f6 4bba
000003a0: 45a5 8d3b a631 95bb 38f7 50bb 880b dbbb
000003b0: 2019 e8ba 651f fabb 5905 c038 6f72 17bb
000003c0: fbbf 23ba 38ff 693a 923a beba 9401 b8b8
000003d0: 0f46 1dba a799 c73a dc01 15b7 405b 4cbb
000003e0: 03ee 8f3a 10ee ffba 93ad c0b9 3994 1a3b
000003f0: 7739 823b 8317 1aba 8f9f b6bb b609 163b
0.00021371513 -0.0016634855 -0.00029476167 -0.004439603 0.0031663326 -0.0011626895 -0.0021022402 -0.0019974234
-0.001637636 -0.0021094924 -0.0038385738 -0.0028186191 -0.004378819 0.008787108 0.017834213 0.010003645
-0.013079825 0.0051127174 0.007896432 0.012629843 0.008386841 0.017114755 -0.00027712365 -0.0044340068
-0.0074372673 0.0034745228 0.0013892518 -0.0026218945 -0.00046986385 -0.0014090529 0.0034719484 0.0056864247
0.0024310835 -0.0025532842 0.0022820341 -0.002996886 0.0005736011 -0.0030978962 -0.0011023567 0.0021360822
0.0040553953 0.0015321076 -0.002454872 -0.004370993 -0.0014468034 0.0009161844 -0.002912197 0.003103065
0.0034022601 -0.0024823635 -0.011019388 -0.0047536176 0.006697641 -0.0139563335 -0.0061551803 0.0031561772
-0.011093913 -0.0085958615 0.0017155957 -0.0021723057 0.002722102 -0.0010755346 -0.0058922456 0.0009995841
0.0033674645 -0.007343132 -0.001130412 -0.0019227049 -0.0059133493 -0.0029663406 0.001962031 -0.0011397563
-0.00034421872 -0.0037580978 -0.009427342 -0.002630552 0.006288893 -0.003332042 0.0012257842 -0.0017449096
0.0049135257 -0.0109965 -0.0021625317 -0.005833286 0.0054511526 -0.007905576 -0.0057971594 -6.940274e-05
0.0037472097 -0.0023432937 -0.00126408 0.00049854745 -0.0031565914 -0.0020820168 -0.0024170114 0.0059178984
0.0049028625 -0.0009077518 -0.0036080554 -0.00507208 0.0020261665 -0.0038309055 -0.0064116325 -0.0012787267
-0.007883957 -0.0018190568 -0.0036965157 0.00413587 -0.012462554 0.0043126564 -0.0064224894 -0.0053571262
0.00423963 0.008798479 0.005012122 0.004404297 0.006121689 0.0046130423 0.00097118656 0.0046805744
0.00017085524 -0.005745952 -0.002291051 -0.0027542838 0.0035455679 -0.0043839575 -0.0024363422 -1.2310025e-05
-0.00045266928 -0.002272079 0.0011092743 -0.0019013229 0.004188362 -0.007921048 -0.005440871 -0.005958467
0.005557271 -0.0036023434 -0.008094676 -0.008820975 -0.00667559 -0.005828814 -0.0017815419 2.0709846e-05
0.0044652354 -0.007861157 0.0005169935 -0.0018666789 0.0023193858 -0.0014997446 -0.0031572657 0.00078485644
-0.007821022 -0.004462185 0.0060165282 0.0002607438 -0.0057837316 0.00365765 -0.00096056634 0.0002264797
-0.0032194632 -0.0072707804 -0.00522293 0.009280846 -0.0021375364 0.0019738888 0.008829283 -0.0062692836
0.004820608 -0.0039363005 -0.006013179 -0.004133048 0.009915284 -0.01092406 -0.002483497 -0.0030057093
-0.0035592897 -0.0038354336 0.0021392042 0.005967285 0.0105419 -0.010805688 -0.0017793182 -0.0053048106
0.0014470535 -0.011347588 -0.004587653 0.003588781 -0.0097572105 -0.00489123 -0.0026226365 -0.008723977
0.0015489693 -0.0066933585 -0.008454097 -0.0055506215 0.012033457 -0.013161346 0.0025741472 0.0039987117
-0.00832616 -0.0013639581 -0.004526154 0.00018029736 -4e-45 -4e-45 -4e-45 -4e-45
-4e-45 4e-45 -4e-45 -4e-45 -4e-45 4e-45 4e-45 4e-45
-0.00028864486 -0.0037817971 -0.008067867 -0.0017540671 0.0059592915 -0.0062003303 0.0007082525 -0.00528436
0.0025613974 -0.0072980663 -0.0034351791 -0.002277828 0.00032732927 -0.0082969535 -0.0039397427 -0.0007780551
0.00432268 -0.0045530377 -0.0031885635 -0.0066847242 -0.0017707683 -0.007633137 9.1562695e-05 -0.002310898
-0.0006246564 0.0008926275 -0.0014513305 -8.774098e-05 -0.0005999514 0.0015228287 -8.881525e-06 -0.003118232
0.0010980967 -0.0019525904 -0.00036750417 0.0023586883 0.0039741355 -0.00058781373 -0.00557322 0.0022893972

sqr_avg f4 [100, 12]
00000000: 508c 9939 a9a1 9839 cec6 9639 911a 8c39
00000010: f669 8839 f3ae 9839 43e4 8439 d173 8939
00000020: 5e4c 7339 8bf4 a739 2f43 a239 782e 9239
00000030: c1c9 953b 2be9 8a3b 488c 933b 9898 953b
00000040: e9a2 983b 98bd 7d3b 6f29 9f3b 168f 843b
00000050: c881 8a3b 8889 a93b e412 aa3b 0431 943b
00000060: 1b40 883a d3a7 6b3a f761 873a 563c 663a
00000070: afec 763a b1d2 643a 1584 583a b344 6a3a
00000080: 419f 643a eef5 813a af22 793a d7eb 703a
00000090: 2d12 f839 1ab9 0d3a 9bf8 1b3a 0b0f 183a
000000a0: 26bd 063a 79ed 1c3a 4a3b 2a3a a958 013a
000000b0: e1bc 1c3a ac7e 1b3a 9800 173a e55a 213a
000000c0: 8add 183b 1adf 0b3b 052b 0d3b 5800 033b
000000d0: a34c 133b 671b 1e3b 87c9 243b 9ff8 093b
000000e0: 73b7 193b 054b 163b 76b5 1b3b b877 093b
000000f0: a028 bf39 5664 c739 40e6 b739 c9e7 cb39
00000100: 3c28 d939 e350 d339 f48d dc39 7fd4 c839
00000110: d9d9 b739 fa9e c339 18ac c839 760c ad39
00000120: ce4f fd3a 4711 f23a d4ee f83a 1744 d83a
00000130: 5b90 023b 3045 033b 691a 103b 328c f03a
00000140: 5c59 183b 1561 dd3a 68c5 063b 9628 e23a
00000150: 1f55 433a 2ed9 343a 1733 603a edc1 463a
00000160: 683f 723a 14e8 333a 6d75 413a cfea 2c3a
00000170: c656 2e3a aee8 4c3a 1d51 253a a938 513a
00000180: 0e39 513a 3d99 753a 446c 8d3a ad43 343a
00000190: cbc9 8d3a 736b 483a 411b 6d3a 0367 3c3a
000001a0: 6fe8 653a 5027 6b3a 2f2c 563a 6559 843a
000001b0: cbe0 c33a 71f4 b93a df5d ba3a d775 b83a
000001c0: e636 a43a 6d07 bd3a 8de9 d33a c9c2 9a3a
000001d0: 9be0 b13a bc50 c03a 8987 bf3a 4591 c63a
000001e0: 5221 bb39 ce42 c239 bbfe b739 dc91 e739
000001f0: f542 c039 4b0f d139 a8a4 bf39 7ad2 e339
00000200: ef7e bd39 2f93 ab39 bcc7 a539 113a da39
00000210: 0157 0d3b c3cb e73a b57b 013b b58b 063b
00000220: 0329 033b fd72 083b 7482 153b 9a01 f33a
00000230: dc99 ed3a 8ad2 083b 48aa 163b b79c 003b
00000240: 5513 9a3a 29af b43a 3b6d 8a3a d028 a53a
00000250: 77b9 9b3a 78b7 9c3a 57e2 ab3a 0e50 a13a
00000260: 635c b33a 958a a13a 7773 a43a 6237 9c3a
00000270: 535d 373b ffa3 333b 4800 223b 7682 2f3b
00000280: 948c 363b c572 223b 75a2 103b 3363 373b
00000290: 4a47 1b3b 03ca 293b 740a 353b 4e33 1d3b
000002a0: 3dc1 5b3a 28df 953a 423e 8f3a 182b 6e3a
000002b0: 5ad5 853a 2d2b 6e3a 5027 663a 5b7b 763a
000002c0: 9b32 6e3a 2007 713a dc67 6b3a 2d37 683a
000002d0: 57e8 0a3b 8818 233b 6e0f 123b 4cfd 053b
000002e0: 9733 0c3b 45a9 173b 2396 043b 4341 1c3b
000002f0: c042 233b 2456 233b 4694 1e3b 6ee9 203b
00000300: aa99 f03a 12c2 ff3a adc8 e53a 9007 ea3a
00000310: e8fa 0b3b 2007 063b 2019 f43a 4de4 ed3a
00000320: 5e52 043b c10b df3a 41e2 e63a 3d4c d43a
00000330: 064f a915 cc71 9d15 6c6c 9715 d880 9515
00000340: 8334 b015 2733 ae15 248d aa15 0050 b015
00000350: 0702 b115 db3b 9f15 4a82 a715 4123 a415
00000360: ae78 843a cd19 813a 93aa 7d3a bf0b 863a
00000370: f09c 813a bc6c 843a ab2b 893a aeba 763a
00000380: 8d2a 633a 24a1 7b3a c322 8e3a 28e3 873a
00000390: 9b9c 683a 7c71 553a 1b34 6f3a 8c36 4e3a
000003a0: 1979 793a c603 5a3a 7572 673a 0860 433a
000003b0: 7f27 343a a05a 543a c5ba 603a 704d 503a
000003c0: 7ae2 8539 f90b 8a39 f6e6 7039 54b1 9439
000003d0: e3a3 7739 9772 7139 a820 8739 45f3 5c39
000003e0: 6827 8839 06d7 8539 fb25 8c39 0a3c 9439
000003f0: 5b7a 2f3b 2bfc 4a3b 94fc 3f3b f2f4 0b3b
0.00029286975 0.00029112145 0.0002875835 0.00026722674 0.00026018888 0.00029122047 0.0002534707 0.00026216966
0.00023202735 0.0003203492 0.00030949104 0.00027881912 0.00457117 0.0042392216 0.004502807 0.0045653097
0.0046580923 0.0038717743 0.004857234 0.0040453775 0.004226897 0.0051738657 0.00519024 0.0045224447
0.0010395081 0.00089895463 0.0010328878 0.00087827945 0.0009419424 0.0008728905 0.0008259428 0.00089366286
0.00087212404 0.0009915212 0.00095037644 0.00091904163 0.00047315788 0.00054063054 0.0005949826 0.00058005814
0.00051398796 0.0005986314 0.000649382 0.0004934171 0.0005979073 0.00059316563 0.00057602813 0.0006155207
0.0023325407 0.0021342696 0.0021540534 0.0019989219 0.00224761 0.002412522 0.0025144534 0.002105273
0.0023455292 0.0022932899 0.0023759282 0.00209759 0.00036460627 0.00038030994 0.0003507603 0.0003889187
0.00041419442 0.0004030532 0.00042067433 0.00038305295 0.0003506679 0.00037311745 0.00038275192 0.00033006415
0.0019326152 0.0018468284 0.0018992075 0.0016499785 0.0019922468 0.0020030253 0.0021988398 0.0018352328
0.0023246622 0.0016889895 0.002056444 0.0017254527 0.00074513437 0.00068988174 0.0008552535 0.0007581998
0.00092410157 0.00068628904 0.00073798635 0.00065962685 0.00066505035 0.00078166544 0.00063063373 0.00079811603
0.0007981219 0.00093688426 0.0010789712 0.00068765396 0.0010817585 0.0007645406 0.00090448937 0.0007186981
0.0008770292 0.00089703966 0.0008170036 0.0010097442 0.0014944313 0.0014187229 0.001421865 0.0014073205
0.0012528568 0.0014421769 0.0016167626 0.0011807318 0.0013570966 0.0014672498 0.0014612536 0.0015149495
0.00035692245 0.00037052337 0.0003509427 0.00044168427 0.0003667098 0.0003987498 0.00036553037 0.0004345363
0.00036143462 0.00032725322 0.00031620066 0.00041623463 0.002156675 0.0017684627 0.0019757573 0.002053005
0.0020013459 0.0020820491 0.0022813352 0.0018539906 0.0018127519 0.0020877444 0.002298968 0.001962466
0.0011755029 0.0013785112 0.0010561118 0.0012600664 0.0011880834 0.0011956533 0.0013113719 0.0012307183
0.001368415 0.0012324626 0.0012546618 0.0011918361 0.002797921 0.0027410982 0.0024719406 0.0026780642
0.0027854787 0.0024787646 0.0022069488 0.0027982711 0.0023693615 0.0025907762 0.0027624639 0.0023986879
0.0008382982 0.0011434304 0.0010928588 0.0009085401 0.0010210678 0.0009085413 0.0008779662 0.00094025367
0.00090865203 0.0009194482 0.0008980015 0.00088583195 0.0021195614 0.0024886448 0.002228703 0.0020445166
0.0021393055 0.0023141664 0.002023109 0.002384261 0.0024911612 0.002492317 0.0024197265 0.0024553197
0.0018356342 0.0019512794 0.001753112 0.0017855037 0.0021359269 0.0020451024 0.001862321 0.0018149704
0.0020190696 0.0017017053 0.0017615036 0.0016197037 6.8383233e-26 6.3591335e-26 6.1159474e-26 6.03839e-26
7.116868e-26 7.0358744e-26 6.8885134e-26 7.121205e-26 7.149293e-26 6.4314024e-26 6.765632e-26 6.6294693e-26
0.0010106766 0.0009849608 0.00096766016 0.0010226889 0.000988869 0.0010103206 0.0010465285 0.0009411973
0.00086657034 0.0009598902 0.00108441 0.001036738 0.00088734337 0.00081422157 0.0009124891 0.00078664045
0.0009516641 0.00083166023 0.0008829006 0.00074529694 0.00068723405 0.00081006624 0.00085727527 0.00079461094
0.00025536475 0.00026330331 0.00022974223 0.0002836088 0.00023616808 0.00023026239 0.00025773537 0.0002107146
0.000259693 0.00025527942 0.00026731179 0.00028273492 0.002677581 0.0030973058 0.0029294835 0.0021355716

grad_avg f4 [100]
00000000: 947d 333b 72a9 16bc 9296 3d3b 1516 0d38
00000010: cd82 e63b fb6f e23a 92a5 f7ba c1dd fd3b
00000020: b2f8 253a 5e0d 2fbc e8ca 3a3b 7e3c e23b
00000030: 9b68 b3bb 95fe 3d3a 8c34 8b3b a7c6 f13b
00000040: 8903 1a3a 0300 0000 bcd0 063c bf06 563a
00000050: 3e2b 093b a06f 253c 367b 4e3a 0300 0000
00000060: 931e e339 c769 2e3c 0300 0000 a94d d23a
00000070: 0046 f0b8 3878 963b 7128 a2bb b55a 233c
00000080: 0300 0000 ad48 f3bb f2de 9b3b bba3 4abb
00000090: 0300 0000 d106 51ba 62ec de3b a51e 1abb
000000a0: ad93 c43a 0608 b03b c31a 61bb 0400 0000
000000b0: 0300 0000 f495 ffbb 7b1c bcbb 541a 253c
000000c0: 8568 8d39 f954 1f3b f2dc 35ba 89ea 803b
000000d0: 9b15 b23b 1fe8 023c 7756 8ebb 1514 713a
000000e0: 0b0c d43b 8cfa b93b 22bc 7bbc a166 a239
000000f0: beb2 843b 602b 85bc 9be9 6f3b 0300 0000
00000100: f285 59bb ade0 c4b9 0800 0000 8e97 893a
00000110: 6d0c 1cbb 45be a23a 16d2 d6ba 48d7 463c
00000120: a452 5d3a 5e0b 993b b2c0 12ba ac06 f638
00000130: f3cf 503b 5ca3 3f3c 0300 0000 8012 28ba
00000140: 0900 0000 bc0d 31bb ec8e 48b8 81eb b3ba
00000150: be9e a83b b19a 4d3b d341 b13b 1c23 55bc
00000160: 0500 0000 6928 013a ffcb a7bb 7080 2dbc
00000170: befd 763c 097e 3d3c 1e5b 453c ea82 7cba
00000180: deaa 79ba 3ec6 4f3b 32f0 be3a d0b5 aeba
0.0027388083 -0.009195672 0.0028928858 3.3637585e-05 0.0070346356 0.0017275804 -0.0018893948 0.0077473824
0.0006331309 -0.010684339 0.002850229 0.006904184 -0.0054751164 0.00072477135 0.0042482074 0.0073784175
0.00058751606 4e-45 0.008228477 0.00081644574 0.0020930315 0.010097414 0.0007876636 4e-45
0.00043319594 0.0106453365 4e-45 0.0016044873 -0.0001145713 0.004591968 -0.0049486686 0.009970357
4e-45 -0.007424435 0.0047568018 -0.0030920345 4e-45 -0.0007973733 0.0068030814 -0.00235168
0.0014997624 0.00537205 -0.0034348227 6e-45 4e-45 -0.007799858 -0.0057407 0.010077078
0.0002697149 0.0024312122 -0.00069375255 0.003934209 0.0054347045 0.007989912 -0.0043438035 0.0009196413
0.006471162 0.0056756195 -0.015364679 0.00030975512 0.004049628 -0.016256034 0.0036607746 4e-45
-0.003319141 -0.0003755143 1.1e-44 0.0010497437 -0.0023811117 0.0012416324 -0.0016389515 0.012136288
0.00084427954 0.0046705445 -0.0005598172 0.00011731437 0.0031862229 0.011696663 4e-45 -0.0006411448
1.3e-44 -0.0027016243 -4.7816822e-05 -0.0013726802 0.0051458767 0.003137272 0.005409458 -0.013008859
7e-45 0.0004926981 -0.005120754 -0.010589704 0.015075145 0.011565694 0.01204565 -0.0009632545
-0.00095240574 0.0031703855 0.0014567433 -0.0013329331

sqr_avg f4 [100]
00000000: 9d69 8139 c88a 953b 1358 703a 3ba4 1a3a
00000010: bf6a 293b 727f cf39 3595 013b bff6 4e3a
00000020: da0e 563a 214e cd3a 50fe e339 4f7e 073b
00000030: af36 ad3a 7500 273b 1a52 7e3a e2b6 293b
00000040: 931b f63a 5152 b815 14df 903a 7520 483a
00000050: f983 7c39 e549 3b3b ab0e 123b f3c0 9e14
00000060: 0d8b 923a b8fd 273b e309 2218 63a5 553a
00000070: 3e7a c23a 5c1f 7c3a 22e0 c93a 2467 e73a
00000080: e9bc 4515 4ca2 973a 9b2c e63a 5df8 c339
00000090: 0bac aa15 149d 8839 e917 7d3a 6634 b93a
000000a0: 6c17 5a3b b00e 873a 2ded 163b a27b a01c
000000b0: f4d5 d114 b8c7 a93a e44e a03a 0bb8 de3a
000000c0: 6300 b639 cfe1 ee39 6a8f 243b 0123 b33a
000000d0: ab22 103b 1491 9d3a 793f cf3a 57af 5938
000000e0: 3dca dc3a 89ea c939 0860 a33b 2553 1a3a
000000f0: 0fbf 9a3a aa91 623c d80c 043b 3738 b317
00000100: ca7b 803a e2db 993a b900 2323 69eb 6b39
00000110: 2756 003b de7c d73a 38c2 fa3a 0302 723b
00000120: c745 243a 08e9 003b 6fd5 903a 7f4c e639
00000130: 6cf8 cf39 76bb 5f3b e2a9 fe13 42c7 0739
00000140: f2fa 3025 5823 b23b f1d4 953a d3fd 303b
00000150: 954f c039 7c47 b03a 10c2 063b a171 b43a
00000160: b257 e81e db74 123a 542c a33b c33d be3a
00000170: 44f7 1d3b 0b2d 9f3a 326c 2e3b 99db 793a
00000180: 8c8f a538 eea1 0f3a a4a2 023b 3c1a e739
0.00024683485 0.004563663 0.00091683975 0.0005899106 0.002585098 0.0003957707 0.0019772772 0.00078950444
0.0008165665 0.0015663543 0.00043486292 0.002067465 0.001321515 0.002548245 0.0009701565 0.002589636
0.0018776528 7.444688e-26 0.0011052811 0.0007634231 0.00024081756 0.002857798 0.0022286575 1.6030028e-26
0.0011180356 0.0025633406 2.0943e-24 0.000814995 0.0014837456 0.000961771 0.001540188 0.001765464
3.9932857e-26 0.0011568754 0.0017560901 0.00037378343 6.893389e-26 0.00026056974 0.0009654747 0.0014129996
0.003327812 0.001030406 0.0023029551 1.061987e-21 2.1187997e-26 0.0012953198 0.0012230542 0.0016992105
0.00034714033 0.00045563138 0.0025109896 0.0013667048 0.002199332 0.0012021386 0.0015811763 5.190013e-05
0.001684494 0.0003851245 0.004985813 0.0005887023 0.0011806207 0.013828674 0.0020149257 1.15817945e-24
0.0009802517 0.0011738504 8.836401e-18 0.00022499044 0.00195826 0.0016440412 0.0019131368 0.0036927469
0.0006266501 0.0019670147 0.0011049936 0.00043926013 0.00039667205 0.0034138835 6.428613e-27 0.00012948833
1.535059e-16 0.005436342 0.0011431259 0.002700676 0.00036680387 0.0013449038 0.0020562448 0.0013766774
2.4600225e-20 0.0005586871 0.0049796496 0.0014514256 0.002410368 0.0012144161 0.0026614782 0.0009531319
7.894551e-05 0.00054791465 0.0019933367 0.000440793

grad_avg f4 [1, 100]
00000000: 547a 02bd e32a 06bd ea12 b238 7837 103c
00000010: 7e87 2bbd 528f d13c 8885 3eba b386 c0bc
00000020: 02cd d93b 26fd 15bc 9193 2ebc 46fa debc
00000030: 74e4 533c d4d0 01bc b215 cebc 912b 26bd
00000040: 1205 f73c 0300 0080 d717 b2bc cecf 993c
00000050: a745 a5bc 6e98 1cbb a80e 8db9 0300 0080
00000060: 1bb6 bc3b e543 22bd 0300 0000 73ae a13b
00000070: 3116 ff3b 596c d4bc 1a15 53bc c0ed 3bbd
00000080: 0300 0080 eeb3 103c 3002 76bd a221 1a3d
00000090: 0300 0080 558d 33b9 4c98 c6bc 5eb2 7c3c
000000a0: 3103 08bc 7c27 abbc 152e ca3a 0400 0080
000000b0: 0300 0080 9c8c 163d bc02 6e3b 367f 98bd
000000c0: 9d05 453c 5cc1 a2ba 01be 113c cd88 1fbd
000000d0: 1ab0 22bd 3bda 3dbd cbd2 d13b 5827 423c
000000e0: 579e 05bd 0b94 acbc 3ac0 8cbd a458 5ebc
000000f0: b219 47bb 70d8 b8bd b73f 09bc 0300 0080
00000100: bb4e 963c f56f da3c 0800 0000 7ad4 953b
00000110: 4338 a3bb 785b e5bc e848 343c 42af 68bd
00000120: eacb 24bc 8a49 08bb b214 0f3c fc44 663a
00000130: c1d8 3dbd cf91 ccbc 0300 0080 c598 98bb
00000140: 0900 0000 469d 88bd be9f fc3a 8a10 933b
00000150: 25e1 35bd 624c 8a3b 90b4 c9bc a7f4 3d3c
00000160: 0500 0080 a309 57b9 ebfe 41bc 23fc 063c
00000170: 678b 41bd 3938 d1bc 09aa 76bd eaf6 143b
00000180: 36b3 b93c 741c d4bc 3202 4bbb 42bc cdbb
-0.031854942 -0.032755744 8.4912244e-05 0.008802287 -0.041877262 0.025581036 -0.00072678225 -0.02350173
0.0066467533 -0.009154594 -0.0106553 -0.027218949 0.012932885 -0.007923324 -0.02515683 -0.040568892
0.030153785 -4e-45 -0.021739883 0.018775847 -0.020174814 -0.0023894566 -0.00026904535 -4e-45
0.0057590134 -0.03961553 4e-45 0.004934126 0.007784628 -0.02593057 -0.012883449 -0.045881033
-4e-45 0.008831961 -0.06006068 0.03762973 -4e-45 -0.0001712342 -0.024242543 0.015423385
-0.008301542 -0.020892851 0.001542511 -6e-45 -4e-45 0.03675519 0.0036317548 -0.074461386
0.012025264 -0.0012417245 0.008895398 -0.038948823 -0.039718725 -0.0463507 0.0064033023 0.011850201
-0.032621708 -0.021066686 -0.06872602 -0.013570938 -0.0030380306 -0.09025657 -0.008377007 -4e-45
0.018348088 0.026664713 1.1e-44 0.0045724483 -0.004981072 -0.027997717 0.01100371 -0.056807764
-0.0100583825 -0.0020795786 0.0087329615 0.0008784083 -0.04634929 -0.02497187 -4e-45 -0.0046568834
1.3e-44 -0.066706225 0.0019273681 0.0044880556 -0.044404168 0.0042205313 -0.024622232 0.011593974
-7e-45 -0.00020507588 -0.011840562 0.008238825 -0.047252085 -0.025539504 -0.060220752 0.002273018
0.022668462 -0.025892474 -0.003097665 -0.0062785456

sqr_avg f4 [1, 100]
00000000: a927 0d3d 0e14 3c3d e5af 693a a4cd f83b
00000010: 24ca 9e3d 6cd3 cd3c f779 323d b62f af3c
00000020: 2815 633c 9846 073b f20f 9b3c 4fa8 2b3d
00000030: b806 2c3d 6aa1 123b 49b5 d23c 76fa 503d
00000040: 3079 413d 0e8a 7019 a436 5c3d 60e4 b33c
00000050: ccef af3c 3d2c dc3c e4fb a53b 4ba7 2a19
00000060: 85d7 0a3d 4c4a 293d 5aa3 391b 23c3 4c3a
00000070: b085 ac3b ce45 003d 186f 4f3b afc2 673d
00000080: edb3 9a1a 791a ba3b 985a d43d 0b03 a83c
00000090: 4a95 6119 7ad6 ec3b 14b7 0b3d 9a27 d83c
000000a0: a199 7b3b a941 073d c0d4 063a d21f ad1f
000000b0: 2c2d 5f19 6a55 0a3d 91ff 1e3d bd6b 823d
000000c0: a224 fe3b 321b f93b 9206 0d3c e26c 063d
000000d0: 44d5 453d 6625 6f3d b35f 9a3a b248 1d3d
000000e0: 557a 213d 89b6 963c 3341 5d3d 1661 1a3d
000000f0: 4eb1 563b 903c c93d 8d55 2f3b c756 2e1c
00000100: ff0e c83c d669 803c 1372 0b26 3a38 2c3c
00000110: 6895 d43b ddd0 343d b191 963c eb6b 813d
00000120: 8a18 213d 63a9 4f3c 396a 2c3d d9d1 db38
00000130: cdab cb3c 8443 333d d2ea da17 b3bd 543a
00000140: 4131 d928 72c6 313d dfb5 4a3b e508 c23c
00000150: 4153 463d 69be e93c 3228 4b3d f542 c93a
00000160: d5e5 ce21 e43f 393c c843 823d 8e1d 1b3a
00000170: 4d08 143d 6de5 583c baeb b33d 2fd3 4e3a
00000180: 0127 993c fef8 0e3d 889d 7b3d f531 3f3d
0.03446165 0.045917563 0.0008914455 0.0075928736 0.07753399 0.025125228 0.043573346 0.021385055
0.0138600245 0.0020641442 0.018928502 0.04190856 0.041998595 0.0022374042 0.02572121 0.05102011
0.047234714 1.2435589e-23 0.053763047 0.021959484 0.021476649 0.026876563 0.005065428 8.8225786e-24
0.03389694 0.04133062 1.5355623e-22 0.000781106 0.00526496 0.03131657 0.003165191 0.05658215
6.398359e-23 0.0056794253 0.10368842 0.020509264 1.1662376e-23 0.007227716 0.034110144 0.026386071
0.003839113 0.033021603 0.00051433966 7.332099e-20 1.1537952e-23 0.033772863 0.038817946 0.06368206
0.007755832 0.007602119 0.0086075235 0.032818682 0.04829909 0.058385275 0.0011777788 0.038399406
0.039423306 0.018397586 0.054017257 0.037690245 0.003275949 0.098260045 0.0026753873 5.768393e-22
0.024421213 0.015675467 4.837991e-16 0.010511452 0.006487537 0.0441445 0.018380018 0.06319412
0.039330043 0.012674662 0.04209349 0.00010481821 0.024862194 0.04376556 1.4147197e-24 0.00081154256
2.41132e-14 0.043402143 0.0030931158 0.023685882 0.04841924 0.028533177 0.04959888 0.0015355038
1.4019939e-18 0.011306737 0.063605845 0.0005917185 0.03614073 0.013238293 0.08785196 0.0007889745
0.018695356 0.034905426 0.06142953 0.046678502
