trees/save/1.0_3_1000/models/model.pth (torch, 14520 bytes, 12 tensors)

node_factors.weight f4 [26, 1]
000000 14 71 bb 39 d2 b8 ee bd 1a ee 0e be ef 1f fa bd
       0.0003575167 -0.116563454 -0.13958016 -0.12213122
000010 23 b5 02 be dd dc ea bd 5c e3 00 be d9 62 df bd
       -0.1276441 -0.114679076 -0.1258673 -0.109075256
000020 37 9e 02 be 58 78 ea bd dc 5e db bd 96 3c 8f bd
       -0.12755667 -0.11448735 -0.10711452 -0.06993978
000030 d0 a4 bc bd 24 a2 ef bd 7b 5f af bd ad ea d9 bd
       -0.09211123 -0.11700848 -0.08563133 -0.10640464
000040 68 3f dc bd 56 00 b5 bd 3b b4 a0 bd c0 68 f1 bd
       -0.10754281 -0.08837955 -0.07846876 -0.117875576
000050 ff 11 b7 bd 0e 66 de bd 91 30 58 bc 08 df cf bd
       -0.08938979 -0.10859309 -0.013195173 -0.10149962
000060 42 0d 3b bd 0c b1 89 bd
       -0.04566694 -0.06723222

layers.0.weight f4 [200, 2]
000000 59 81 95 3e d4 a3 89 be 2e 85 c6 be 2b 5f 15 3f
       0.29200247 -0.26882803 -0.38773483 0.5834834
000010 09 51 a4 be e2 e2 10 be c3 00 36 bf 02 fe f3 3e
       -0.32093075 -0.14149049 -0.7109491 0.4765473
000020 e4 e4 08 3f 8d b3 83 3e bd f9 fb be 85 53 32 bf
       0.5347426 0.25722924 -0.49213973 -0.6965869
000030 dd cf 3a bf 47 fc c5 3e 34 7f ad 3e 56 0c 18 3f
       -0.72973424 0.38669035 0.3388611 0.59393823
000040 e0 4f bd 3e c6 eb 36 3e ee 0d 06 be 73 f5 28 bf
       0.36975002 0.17863378 -0.13091251 -0.65999526
000050 81 ce 1a bf 31 01 29 bf 4b e9 23 3e eb 0a f3 be
       -0.6047135 -0.6601744 0.16006963 -0.47469267
000060 47 74 11 be b6 f8 cf be 75 b3 03 be a1 58 fe be
       -0.14204513 -0.4061944 -0.12861426 -0.49676993
000070 2f b2 14 bf 6b 20 ec 3d 0c b7 aa be 1c 2b a0 3e
       -0.58084387 0.11529621 -0.3334278 0.3128289
000080 d8 dc 67 be 9f 8b 04 bf 52 0a ff bd 9e 2c af be
       -0.22642839 -0.51775545 -0.1245314 -0.34213728
000090 1c 1e 5d be 25 03 2c bf 34 2f ca 3e cc 96 fb be
       -0.21593517 -0.671923 0.39489138 -0.49138486
0000a0 c7 a1 b5 3e 2c fc a3 3e 8d 16 01 3f 7c 98 0a bf
       0.3547499 0.3202833 0.50425035 -0.5413892
0000b0 51 e5 e1 3e 7c 01 cc be 16 18 86 3e 53 af 29 3f
       0.44120267 -0.39844882 0.2619025 0.6628315
0000c0 7e ff 61 be 7f d4 00 be d6 46 90 be db 31 35 bf
       -0.22070119 -0.12581061 -0.28179044 -0.707792
0000d0 6f 6c ad 3e cc 5e 33 bf fa 56 e0 3e 9c 31 07 3f
       0.3387179 -0.70066524 0.43816358 0.5281007
0000e0 cd 79 0b 3f d8 be 93 be 92 75 14 bf a8 7e 22 3e
       0.5448273 -0.2885654 -0.579919 0.15868628
0000f0 bf a1 c7 3e a3 d6 33 bf 17 0d 24 be 61 a0 d8 be
       0.3899059 -0.70249385 -0.16020618 -0.4230986
000100 c9 2e b9 bd 39 d6 bf be 9b b7 93 be 0e 71 65 be
       -0.09042127 -0.37468126 -0.28851017 -0.22406408
000110 3e 19 4a bf b6 27 ec 3e 11 00 23 3f b8 48 87 bd
       -0.78944767 0.46124047 0.63671976 -0.06605667
000120 c5 89 53 be dd b6 d3 be d2 33 1a bf e2 e2 26 bf
       -0.20658024 -0.4135045 -0.6023532 -0.65189946
000130 9b 4e 86 3e f5 68 c6 be 5e 51 e8 be 30 90 61 bd
       0.26231846 -0.3875195 -0.45374578 -0.05506915
000140 8f ae 70 be a0 d2 69 be 49 fc d7 3d 8f f6 8a bd
       -0.23504089 -0.22834253 0.105461664 -0.067853086
000150 8f d9 78 be f6 06 ad be 41 2e 32 bf 35 29 f1 3e
       -0.24301742 -0.33794373 -0.6960183 0.4710175
000160 d0 9d 90 be 33 83 3f 3e 7a a8 bd be ab 1b 8a bd
       -0.282454 0.18702392 -0.370426 -0.067435585
000170 87 79 08 3f 37 d5 4d 3e e5 bb 06 bf d9 8e ba 3e
       0.53310436 0.20100866 -0.52630454 0.3643711
000180 97 0f 3f 3f 51 b6 85 3e 66 c6 eb 3e b6 ec 2e 3f
       0.74633163 0.2611566 0.46049803 0.6832994
000190 5e 28 7a be 59 7a 2e 3c 9d 2a fb be e6 f0 14 be
       -0.24429461 0.010649287 -0.4905595 -0.1454502
0001a0 2b d0 05 3f 7f 41 b9 3e d7 74 ba be 94 08 f8 be
       0.52270764 0.36182782 -0.36417267 -0.48444045
0001b0 02 c7 12 bf b0 4e 49 bf 67 a4 2d bf 85 96 9d be
       -0.5733491 -0.7863569 -0.67828983 -0.307789
0001c0 c4 e1 f3 3e f8 f2 f1 3d 48 6e 2a bf 22 c6 31 bf
       0.47633183 0.11813921 -0.66574526 -0.6944295
0001d0 0f c6 b3 3e d7 66 06 bf b3 fa b1 bd 3e 5a ad 3e
       0.35112044 -0.5250067 -0.08690395 0.33857912
0001e0 55 3f a7 be ac 9d 9d bd cb a4 7b bd 44 fd 2a be
       -0.32665506 -0.07696089 -0.061436456 -0.16698176
0001f0 e3 a6 b1 be 19 25 1e bf 4a b8 12 bf b2 60 c2 be
       -0.34697637 -0.61775357 -0.5731245 -0.37964398
000200 70 83 2e 3f 4d 8c ae be 5e 85 d3 be de d3 6c 3e
       0.6816931 -0.34091416 -0.4131269 0.23127696
000210 1f 32 47 3e d9 ff c5 3e 19 77 1e 3f 00 02 f3 3e
       0.19452713 0.3867176 0.6190048 0.47462463
000220 88 26 33 bf ce 32 80 3d fd e6 da 3e 94 99 85 bd
       -0.6998067 0.0625969 0.42754355 -0.06523433
000230 fd f2 d4 be 56 41 2c 3f c6 29 87 be c9 be cd be
       -0.41591635 0.67287195 -0.26399058 -0.4018462
000240 23 6d 48 bf 80 04 eb bd 75 09 3a 3e 61 43 d3 3c
       -0.7829153 -0.11475468 0.1816767 0.025788965
000250 44 66 e0 3a d7 2e 2c bf c6 1d 4c bf 07 8a 00 be
       0.0017120321 -0.6725897 -0.7973293 -0.12552653
000260 b5 be 37 3f cc 09 f6 3e 23 5c f0 be 70 0d 18 be
       0.7177537 0.4805435 -0.46945295 -0.14848876
000270 35 1e 26 bf 40 d1 ef be 1e ec a9 3a e8 5e 84 3e
       -0.6488984 -0.46839333 0.0012964045 0.25853658
000280 bf ac 15 3f 95 e3 25 bf 97 6c b0 3e 11 da 1f bf
       0.58466715 -0.6480039 0.34457847 -0.6244212
000290 b8 42 b1 3e 06 a3 2d 3f 7d 62 22 3c cb 63 24 3f
       0.34621215 0.6782688 0.009911177 0.6421477
0002a0 3b f4 19 bf 8a 07 8a be 79 c5 d2 3e 72 76 1d be
       -0.6013829 -0.26958877 0.41166285 -0.15377215
0002b0 30 9b 82 be cf df ce be 97 18 f9 3e 12 41 b1 3e
       -0.25509024 -0.40405127 0.48651573 0.34619957
0002c0 cf b8 db 3d 5d c2 03 bf f3 e5 34 bf f6 26 69 bd
       0.10728609 -0.5146845 -0.70663375 -0.05692192
0002d0 48 22 56 3e 8e d9 a6 be eb 89 a4 be de 06 b5 3e
       0.20911515 -0.32587856 -0.32136473 0.35356802
0002e0 5c 4b 66 3d a5 6f 02 3d be a9 c0 bd 15 79 0f bf
       0.056224212 0.031844754 -0.09407376 -0.5604413
0002f0 0f 8a 16 bf 6c 79 86 be 77 b1 b7 be 6d 2c 61 3e
       -0.5880441 -0.26264513 -0.35877582 0.21989603
000300 67 72 fb bd 44 06 47 be 05 e3 0b 3f de e4 f5 3d
       -0.1227768 -0.19435984 0.5464328 0.120065436
000310 ed 46 bc 3e ea 00 f4 be c6 9b 93 be a6 d1 84 3e
       0.36772862 -0.47656947 -0.28829783 0.259412
000320 f5 c5 f0 be fe 3a ec be 1b a2 0b bd fa 2c 84 be
       -0.4702603 -0.46138757 -0.034090143 -0.25815564
000330 ea 73 07 bf dd 59 d6 3e 2b 64 f9 3e f9 2d 11 3d
       -0.52911246 0.41865435 0.48709235 0.035444234
000340 c5 77 7c be 40 d2 46 bf 17 ff ca be 81 c1 25 3d
       -0.24655063 -0.77664566 -0.39647743 0.040467743
000350 e9 65 aa 3e 32 bc b6 bd ab 82 d1 be 1c 11 87 3e
       0.33280876 -0.08922614 -0.40920004 0.2638024
000360 a6 32 31 bf 6d 23 a2 3e 32 32 8c be 80 fd 30 3c
       -0.6921791 0.31667653 -0.27382046 0.010802627
000370 65 d3 0e be e8 3f af 3d 84 69 5a be b7 61 03 3f
       -0.13947828 0.08557111 -0.21329314 0.51320976
000380 09 01 84 3d c5 00 22 3f e5 b9 2d 3f ab 0e b0 be
       0.0644551 0.63282424 0.6786178 -0.3438619
000390 e7 cf 03 bf 04 f7 10 3f 9c d7 db 3e 7e 6e 29 bf
       -0.5148911 0.56626916 0.42937934 -0.6618422
0003a0 d8 73 3e be bf a8 53 bf 03 03 34 bf e1 27 3f 3c
       -0.18598878 -0.8267936 -0.70317096 0.011667223
0003b0 66 46 40 3e 48 35 19 3e a0 b4 44 be 6c b2 26 3f
       0.18776855 0.14961731 -0.19209528 0.65116
0003c0 e2 f4 8d bc 1d bd 08 bf 11 3e 2d be a1 b9 27 3d
       -0.017328683 -0.53413564 -0.16918208 0.040948514
0003d0 58 a5 01 3e e4 69 1e bf 0c 82 08 3e 1f 76 fb be
       0.1266073 -0.61880326 0.13330859 -0.49113557
0003e0 40 d9 36 bf 67 37 03 bf 79 55 0d 3f 6a 6d f3 3e
       -0.7142525 -0.5125641 0.55208546 0.47544414
0003f0 30 cd 21 3f 27 21 d4 3e d0 7f 08 3f 6c 7a c1 bd
       0.63203716 0.41431543 0.53320026 -0.09447178

layers.0.bias f4 [200]
000000 45 c2 71 be 2e 33 24 3f af 94 32 be 74 10 c1 bc
       -0.23609264 0.64140594 -0.17439531 -0.023567416
000010 55 4e 16 bf ea 86 ca be 29 42 c7 3d 3c e2 e0 be
       -0.58713275 -0.39556056 0.09729416 -0.43922603
000020 c9 95 b3 bd 4f 8d b4 3e aa 11 31 bf a5 41 8f 3e
       -0.087688036 0.3526406 -0.6916758 0.2797977
000030 07 62 ef be 80 b1 b0 be d6 5e aa 3e 59 8e 20 3f
       -0.46754476 -0.34510422 0.3327548 0.62717205
000040 87 e5 45 be 52 a4 94 be 26 af 23 bf 22 b0 ba be
       -0.19325839 -0.29031616 -0.6393913 -0.36462504
000050 d9 81 1e bf 4f b8 25 be 34 f3 08 3e b6 97 29 bf
       -0.6191688 -0.1618359 0.13374025 -0.6624712
000060 8e 18 2e 3f 81 31 01 3f 48 35 31 bf ef eb ac be
       0.6800622 0.5046616 -0.69221926 -0.33773753
000070 3f bc 8e 3e c5 c4 14 be 97 d0 9d bd 54 77 a3 be
       0.27877995 -0.14528187 -0.07705801 -0.31926978
000080 57 3d 0c 3f 04 61 ca be b8 a7 25 3f 64 ec 7f 3c
       0.547811 -0.39527142 0.64709044 0.015620325
000090 eb b7 55 3e 69 0a 05 3f 27 9b ee bd d2 1f ce be
       0.2087094 0.5196901 -0.11650687 -0.40258652
0000a0 57 37 ea bd 3b c2 07 3f 66 50 06 bf 84 a1 64 3e
       -0.114363365 0.5303075 -0.5246643 0.22327238
0000b0 7d e7 31 bf 48 e2 df 3e 4e b6 a7 3e 85 51 58 bc
       -0.6949385 0.43727326 0.32756275 -0.0132030295
0000c0 1a 64 86 3e 22 aa 36 bc 50 fd f4 3e 72 4c 0f bf
       0.26248246 -0.011148961 0.47849512 -0.5597602
0000d0 45 aa d4 bd b6 7f 8a 3e a8 3b 34 3f e6 79 e1 3e
       -0.10384039 0.2705056 0.7040353 0.44038314
0000e0 f4 a1 03 bf 2c 23 1d 3f ce 77 21 be d9 99 1a be
       -0.51418996 0.61381793 -0.15768358 -0.1509775
0000f0 bd 87 24 bf d5 f5 e3 bd e5 ff f1 3e f6 32 96 3d
       -0.6426962 -0.11130873 0.47265545 0.07333939
000100 f0 de d2 be 9e cd 38 3e dc 2b 68 be f8 40 1a 3f
       -0.41185713 0.18047187 -0.22672981 0.60255384
000110 d7 1d 1d bf e3 b7 64 be 98 c9 2e bf ee 94 8e be
       -0.61373657 -0.22335772 -0.6827636 -0.27848
000120 53 a2 a4 3e 7e fa 40 3f 90 cd 4b 3e 6b bf 48 3f
       0.32155094 0.7538222 0.19902635 0.7841708
000130 30 2e c8 3d 2f 51 ca 3e cf f6 22 3f 10 af 28 3f
       0.097744346 0.39515063 0.6365785 0.65892124
000140 42 a4 ca be 61 fc 37 3f 77 68 c5 3e 1c 48 a9 be
       -0.39578444 0.71869475 0.38556263 -0.33062828
000150 1d c4 ac be 4b d4 17 bf da a3 48 3e 9f b9 12 bf
       -0.33743373 -0.5930831 0.19593754 -0.57314485
000160 c1 06 b8 3e 4a c8 9a 3e 1e 45 1d bf 0f e6 83 3e
       0.35942653 0.30230933 -0.6143359 0.25761458
000170 f3 8e 6b bd 54 bd 8f 3e f1 ad ba 3e a0 f5 33 bf
       -0.057509374 0.28074133 0.36460832 -0.7029667
000180 52 f4 1a 3f 0f 32 29 3f c3 56 b8 3e d3 71 25 bf
       0.60529053 0.6609201 0.36003694 -0.64626807
000190 e6 53 81 be 13 d8 51 be 1d 16 3a be e3 7b c9 3e
       -0.25259322 -0.20492582 -0.18172498 0.3935233
0001a0 b7 9f a4 3e 81 2b 27 3f 85 97 87 be 4c 6d 9e 3e
       0.32153103 0.65300757 -0.26482788 0.30942762
0001b0 1c 4a a5 3e 0d b7 16 bf a4 97 2f bf a0 db bb be
       0.32283103 -0.58873063 -0.6859076 -0.36690998
0001c0 10 c1 e1 3e 22 6c 2a bf bb 90 1d bf ee 05 ec 3e
       0.44092607 -0.6657125 -0.61548966 0.46098274
0001d0 4a a0 e8 3e 28 e3 25 3f 94 a8 08 bf ee 7c 04 bf
       0.4543479 0.6479974 -0.5338223 -0.5175313
0001e0 a4 33 cb 3e 85 87 2f 3f 9c 6a f8 3e 8b f2 3a 3e
       0.39687836 0.6856616 0.48518836 0.18256585
0001f0 eb 3d 9a 3e 12 d1 3d 3f c3 96 e9 be ad 5e a4 be
       0.30125365 0.7414714 -0.45622835 -0.32103482
000200 df 9c 0e 3f a1 b8 f7 be f7 a1 c7 be 5a cc fa 3e
       0.55708116 -0.48383048 -0.38990757 0.48984033
000210 74 36 93 3e 02 01 98 3e 55 72 99 be 94 b8 8f bc
       0.28752482 0.2968827 -0.2997004 -0.017544068
000220 e1 a6 1c 3f 89 4d d9 be cb 99 92 3d 90 5d cf 3e
       0.61192137 -0.42441967 0.0715824 0.4050107
000230 87 ef f9 be 28 51 42 3f db e0 b4 be 87 e0 2d be
       -0.48815557 0.75905085 -0.353278 -0.16980182
000240 ef e9 43 be fc ec eb be bc a0 31 bf 91 95 b6 3e
       -0.19132207 -0.46079242 -0.69385886 0.35660985
000250 4d d4 33 3e f8 8a 29 bf 8e 04 e9 be 6f 53 45 3f
       0.17561455 -0.66227674 -0.45511287 0.77080435
000260 2c 79 7b 3e 68 b5 84 3e 67 9b d8 be 62 b7 9e be
       0.24557942 0.25919652 -0.42306063 -0.30999285
000270 dc 9a da bd 51 6b 04 be 1f 16 f8 be ec 3c ac 3c
       -0.10674068 -0.12931563 -0.48454377 0.021025144
000280 92 43 e4 3c e7 5d b7 bd 42 6d af 3d 87 7e 8f be
       0.027864251 -0.08953457 0.08565761 -0.2802622
000290 bc fb 19 3e e8 d2 65 3e 2c b3 be be b7 7e 33 bf
       0.15037435 0.22443736 -0.37246072 -0.70115227
0002a0 ca e0 dd 3e fb 9b 44 3e e6 20 b8 be 87 e3 41 3f
       0.43335563 0.19200127 -0.359626 0.75737804
0002b0 33 bb a3 be 23 10 e6 3e 11 52 e0 3e a1 c4 17 bf
       -0.3197876 0.44934186 0.43812612 -0.59284407
0002c0 5a 90 d4 3e 40 71 26 bf 22 93 c8 be d1 6d f1 bd
       0.41516382 -0.65016556 -0.39174753 -0.11788524
0002d0 e9 07 f4 be c3 5e 40 3f 34 3c 11 be d4 0f b2 3e
       -0.47662285 0.75144595 -0.14183122 0.347777
0002e0 63 a2 21 bf fb 41 d2 3e 0e 08 61 be 3a b2 09 bf
       -0.6313841 0.41065964 -0.21975729 -0.5378758
0002f0 53 3d 33 3e e7 d5 d2 3e 35 f9 2d 3f 6c 21 dd be
       0.17503862 0.4117882 0.67958385 -0.4318956
000300 29 29 b2 be ba f8 4a 3e 22 3c 83 3e a2 17 bc 3e
       -0.34797028 0.19821444 0.25631815 0.3673678
000310 91 2f e1 3e ee 2f 24 be 55 4e e9 3e d2 c1 01 3f
       0.43981603 -0.16033909 0.45567575 0.5068637

layers.2.weight f4 [1, 200]
000000 80 09 97 bc ed e4 e8 ba 47 3f 0d 3d 4c 44 cf 3d
       -0.018437147 -0.001776842 0.034484174 0.101204485
000010 65 49 24 bd 50 c2 0e bd e8 74 28 be 41 a3 6a 3b
       -0.040109057 -0.03485328 -0.16450846 0.0035802873
000020 25 84 2d 3d e6 12 c7 bd e9 bc 10 3d 61 f6 a7 bd
       0.04236235 -0.097204015 0.03533641 -0.0820129
000030 89 a5 2e 3d e6 9b 5b bb 64 b1 f1 bd f0 fd bd bd
       0.042638335 -0.003350967 -0.11801413 -0.0927695
000040 2a 3c 51 bd b1 61 0f 3d 9a da 41 bd 66 b2 c0 bb
       -0.051082768 0.035005275 -0.047327615 -0.0058806418
000050 83 7f 79 3c 2e 8a 1e bd 60 64 ed bc 13 24 8d bd
       0.015228155 -0.038705997 -0.028978527 -0.06891646
000060 09 8c d6 bd 67 6a f5 bd 1c e4 ae bc 99 a2 d2 bc
       -0.10475928 -0.11983185 -0.021349005 -0.025712298
000070 5e 62 2a bd 5d d5 55 bc 51 e6 07 3d 90 85 84 3d
       -0.041597717 -0.013051358 0.03317863 0.064707875
000080 0c 04 e1 bc 50 ca e3 bc 72 86 f6 bd d3 a7 b5 bb
       -0.02746775 -0.027806431 -0.12037362 -0.005543688
000090 d5 07 c2 bd 7c ef 93 bc ed 41 41 3d 98 05 df 3c
       -0.0947415 -0.018058531 0.047182012 0.027224347
0000a0 be a1 87 3d 54 a3 75 3c a7 da 74 3c ab 76 de bd
       0.06622647 0.014992554 0.014944709 -0.10862478
0000b0 5e 25 81 3d 72 ef b5 bd 01 43 b0 bd 24 89 a1 3c
       0.06305955 -0.08883561 -0.0860653 0.019718714
0000c0 48 34 d0 3b cd b8 25 3c 62 8f 4d bd e3 2d 73 bd
       0.0063538887 0.010114861 -0.05018557 -0.059369933
0000d0 86 13 f0 bb f5 b1 65 3c 41 68 13 bd 8c c4 4c bd
       -0.007326546 0.014019479 -0.035988096 -0.04999213
0000e0 2f 20 70 bc 12 00 a5 bd 0e 4f 2c 3d 32 a0 8e 3b
       -0.014656111 -0.08056654 0.04206758 0.004352593
0000f0 5f 14 3c 3d f7 ad 4c bc 25 83 ba bc fe de dc bc
       0.045917865 -0.012492648 -0.022767613 -0.0269618
000100 22 67 38 3c ff 7b e8 bb 76 29 35 3d e9 e3 70 3c
       0.0112550575 -0.0070948596 0.044228993 0.0147027755
000110 58 40 5e 3d b6 d7 93 bc 89 c1 74 bd 8e 68 53 3c
       0.05426058 -0.018047195 -0.059754882 0.012903346
000120 7e 28 74 bd cf 5d 93 bd 82 95 96 bd c8 ee 52 bd
       -0.05960893 -0.07195627 -0.07352735 -0.05149725
000130 a4 70 30 3c 3b 80 fe bc aa fd a4 bd 90 0d a9 bd
       0.010769043 -0.031067004 -0.08056195 -0.0825454
000140 e9 2d 8f bc 03 c7 a6 bd 14 ce 61 3c 8c 1e 19 3d
       -0.017477946 -0.08143427 0.013782043 0.037382647
000150 2d 86 82 3d 42 5b 6c 39 35 72 24 bd 68 7f c8 3c
       0.06373248 0.0002254071 -0.04014798 0.024474815
000160 c3 fe fa bd 02 b6 4f bd b9 b3 9a bb 33 d1 c2 bd
       -0.12255623 -0.050710686 -0.0047211316 -0.09512558
000170 18 53 60 bd 98 9f 18 3c 94 62 7d 3b de fc 05 3d
       -0.054766744 0.009315394 0.0038663493 0.032711856
000180 3f 79 71 3c e9 1b a7 bd eb 64 8a bd 64 ea da 3c
       0.01473838 -0.0815962 -0.0675753 0.026723094
000190 0f 11 3f bc 94 ec 62 bc fc f4 6e bd 92 e7 01 bd
       -0.011661782 -0.01385035 -0.058339104 -0.031714983
0001a0 87 24 ce bd 15 de 54 bd 7f ee 8c 3d 86 b8 9e bd
       -0.10065561 -0.051969606 0.06881427 -0.07750039
0001b0 6d e7 a0 bd 97 6a 2e 3d 52 93 d4 bc a2 9d c6 bb
       -0.07856641 0.04258212 -0.025949154 -0.0060612718
0001c0 90 70 79 3c 81 0b ed bc ca d2 4e bd 3b 14 c1 bd
       0.015224591 -0.02893615 -0.050493993 -0.09427687
0001d0 df cf 9b bd c8 e4 b4 bd a3 05 16 bd 12 8f e9 3c
       -0.07608008 -0.08832699 -0.03662647 0.028510604
0001e0 d9 e8 2a bd 2c ee 9c bd 85 2e e1 bd 1c 9f a8 bd
       -0.041725967 -0.07662615 -0.10995201 -0.08233473
0001f0 98 25 b6 bd 63 97 9a bd a0 66 82 bd c8 1e 79 3c
       -0.08893889 -0.07548406 -0.063672304 0.015205093
000200 80 bd d9 bd 25 26 61 bd d7 33 6c bd 05 6a b7 bc
       -0.106318474 -0.054968018 -0.057666626 -0.022389421
000210 1f 3d cc bd 39 74 b4 bd 4b 9b 62 3d e3 ce fb 3c
       -0.099725954 -0.0881123 0.05532388 0.0307383
000220 e7 24 34 bc 08 40 89 bd 72 92 15 be 1c 0e a3 bd
       -0.010995126 -0.06701666 -0.14606646 -0.079616755
000230 ab d2 6e 3d 4f 4a 40 bd 1f 37 58 bd 3e b7 e7 39
       0.058306377 -0.046945866 -0.052786943 0.0004419628
000240 a2 88 60 bd 46 5d 7d bc 4a fd 9e bc 6d b3 13 3c
       -0.054817803 -0.015464133 -0.019407887 0.009014946
000250 43 0c 0a bd 24 a4 49 bc fe 58 43 3c 50 98 97 bd
       -0.0337031 -0.012307201 0.011923073 -0.07402098
000260 7d 9c b5 bc c6 d9 c1 bc ae 45 9b 3c 05 5e e1 bc
       -0.022169346 -0.023663413 0.018954124 -0.027510652
000270 d8 a4 76 3d ba f2 26 bc e1 19 e1 bc 85 f0 02 bc
       0.0602158 -0.010189706 -0.02747816 -0.007991915
000280 09 09 83 3c 64 d9 8f 3d 8f 57 e8 bc 76 1a c5 bc
       0.01599552 0.07023886 -0.028362064 -0.02406047
000290 e0 69 12 bc ae 4e 35 3c 47 c7 8d bd 01 43 0f bc
       -0.008936375 0.011066122 -0.06922775 -0.008744002
0002a0 13 b9 d5 bd 5d 93 18 bd 04 22 ef 3c af de 89 bd
       -0.10435691 -0.03724991 0.029191025 -0.06731927
0002b0 0c 7b c1 bb 1d 39 b2 bc 98 a0 8d bd 46 c7 72 bd
       -0.005904561 -0.02175575 -0.069153965 -0.059272073
0002c0 66 8b 37 3b d5 81 11 bd 25 14 fe bb 06 28 da 3b
       0.0028006672 -0.035524208 -0.0077538663 0.006657603
0002d0 b0 fd 8a bb cf f6 f6 bd 59 a3 04 3d cd b1 b1 bd
       -0.0042416677 -0.12058794 0.032382343 -0.08676491
0002e0 7b f1 15 bd 4d 98 0f bd 80 de 16 bd f9 9b 05 bd
       -0.036607247 -0.035057355 -0.036833286 -0.03261945
0002f0 81 76 b6 bd 26 60 aa bd 13 c5 a9 bd 5a ee 9b bc
       -0.089093216 -0.0831912 -0.08289542 -0.019034553
000300 4c 42 96 3c 5d 39 f3 bd 58 e5 cf bd a8 2d 53 bd
       0.01834216 -0.118761756 -0.10151166 -0.051557213
000310 44 50 32 bd a3 aa 1f 3d 3e 9e d4 bd f6 6b f9 bc
       -0.04353358 0.03898109 -0.10381745 -0.030446988

grad_avg f4 [26, 1]
000000 00 00 00 00 1d 00 51 3e 7e 33 5b 3e 9f 92 13 3e
       0.0 0.204102 0.21406361 0.144114
000010 87 4e 3a 3e 6b ca 89 3d 27 d2 30 3e 27 30 ba 3d
       0.18194018 0.06728061 0.17267667 0.090912156
000020 b3 9e 8a 3e bd 8e 82 3d e9 d6 33 3e 7c 54 04 be
       0.27074203 0.063748814 0.1756245 -0.12922853
000030 a9 91 07 3e f2 36 8f 3e 11 cb a4 bd 80 83 f5 3d
       0.13239159 0.27971607 -0.08046544 0.11987972
000040 a5 05 3d 3d 30 9d 42 be bc 12 05 be f6 03 1f 3e
       0.04614796 -0.19005275 -0.12995428 0.15528855
000050 e9 f5 2a 3c 16 bd 53 3e aa a2 f2 be 98 af 8a 3d
       0.010434606 0.206776 -0.47389728 0.06771773
000060 1c b7 bd be 1f 01 1d be
       -0.37053764 -0.15332459

sqr_avg f4 [26, 1]
000000 00 00 00 00 a6 78 74 3e 21 ff 9a 3e 8d ef 7c 3e
       0.0 0.23874149 0.30272773 0.24700756
000010 7e c0 b5 3e 37 a5 9c 3e ae f8 00 3f 73 0b b4 3e
       0.35498422 0.305948 0.50379455 0.35164985
000020 3e 7e 0f 3f b2 f0 00 3f 3d 51 ab 3e 99 c4 2c 3e
       0.56052005 0.5036727 0.33460417 0.16871871
000030 b6 26 16 3f a5 fb 1d 3f 1c 0d 65 3e f2 40 c7 3e
       0.5865282 0.61712104 0.22368282 0.38916737
000040 db 7a 96 3e 6a 7c 2a 3f 20 0f 97 3e 41 41 13 3f
       0.29390606 0.6659609 0.29503727 0.57521445
000050 1e 3b 06 3f 96 01 7a 3f 5a d6 88 3e 8e 03 47 3f
       0.52433956 0.9765867 0.26726037 0.777398
000060 7a f2 da 3e b2 44 14 3f
       0.4276312 0.5791732

grad_avg f4 [200, 2]
000000 00 00 00 00 00 00 00 00 cf 59 92 b8 40 fc 84 b8
       0.0 0.0 -6.978551e-05 -6.341236e-05
000010 00 00 00 00 00 00 00 00 b8 c8 80 ba 89 20 f7 ba
       0.0 0.0 -0.0009825444 -0.0018854301
000020 00 00 00 00 00 00 00 00 00 00 00 00 00 00 00 00
       0.0 0.0 0.0 0.0
000030 9c 47 54 3c 06 c7 62 3c 00 00 00 00 00 00 00 00
       0.012956526 0.013841396 0.0 0.0
000040 00 00 00 00 00 00 00 00 e6 a5 08 3c 3c 6d 11 3c
       0.0 0.0 0.0083403345 0.008876141
000050 00 00 00 00 00 00 00 00 8f 38 e5 3b 8c 03 f4 3b
       0.0 0.0 0.0069952677 0.007446712
000060 00 00 00 00 00 00 00 00 00 00 00 00 00 00 00 00
       0.0 0.0 0.0 0.0
000070 52 18 27 3c a1 c5 31 3c 19 d9 02 3c d6 3b 0b 3c
       0.0101986695 0.010850341 0.00798633 0.008498153
000080 00 00 00 00 00 00 00 00 00 00 00 00 00 00 00 00
       0.0 0.0 0.0 0.0
000090 00 00 00 00 00 00 00 00 00 00 00 00 00 00 00 00
       0.0 0.0 0.0 0.0
0000a0 00 00 00 00 00 00 00 00 00 00 00 00 00 00 00 00
       0.0 0.0 0.0 0.0
0000b0 79 d7 1a 3b 1f 2f 25 3b 00 00 00 00 00 00 00 00
       0.0023626967 0.0025205088 0.0 0.0
0000c0 56 36 14 3c 42 b0 1d 3c d8 c7 29 3c a3 9f 34 3c
       0.009046158 0.009624543 0.010362588 0.0110243885
0000d0 00 00 00 00 00 00 00 00 00 00 00 00 00 00 00 00
       0.0 0.0 0.0 0.0
0000e0 e7 84 62 3b 12 6f 71 3b 00 00 00 00 00 00 00 00
       0.003456408 0.0036839885 0.0 0.0
0000f0 00 00 00 00 00 00 00 00 00 00 00 00 00 00 00 00
       0.0 0.0 0.0 0.0
000100 d2 0c 10 3b d0 cf 19 3b 00 00 00 00 00 00 00 00
       0.0021980298 0.0023469813 0.0 0.0
000110 43 ec 2a 3c 3c d2 35 3c ae 99 bd b7 f6 20 34 b8
       0.010432306 0.011097487 -2.2602118e-05 -4.294604e-05
000120 c2 77 04 3c 3b 03 0d 3c 64 95 b0 3a 92 37 bd 3a
       0.008085193 0.008606727 0.0013472256 0.0014436117
000130 00 00 00 00 00 00 00 00 00 00 00 00 00 00 00 00
       0.0 0.0 0.0 0.0
000140 00 00 00 00 00 00 00 00 98 6c cc ba 47 cf d7 ba
       0.0 0.0 -0.0015596328 -0.0016464972
000150 00 00 00 00 00 00 00 00 f4 3f 19 3c b0 11 23 3c
       0.0 0.0 0.0093536265 0.0099529475
000160 00 00 00 00 00 00 00 00 6a a3 f9 3b 6f d7 04 3c
       0.0 0.0 0.0076183574 0.008108004
000170 db ce f2 3b 4b 2f 01 3c 3d 0b 0c bb 6e 44 1f bb
       0.007409913 0.007884811 -0.0021369003 -0.0024302262
000180 c5 26 43 ba a6 1f 4d ba b2 b8 d8 33 7f 97 09 34
       -0.0007444437 -0.00078248454 1.009188e-07 1.2814233e-07
000190 46 4e 89 3b f9 4f 92 3b 00 00 00 00 00 00 00 00
       0.004190239 0.0044651 0.0 0.0
0001a0 00 00 00 00 00 00 00 00 2d 58 c4 ba fe 13 cf ba
       0.0 0.0 -0.0014979892 -0.0015798805
0001b0 60 91 40 3b 75 6a 4d 3b d1 03 88 3b 46 f9 90 3b
       0.0029383525 0.003134397 0.0041508456 0.004424247
0001c0 00 00 00 00 00 00 00 00 4b 46 e1 3b b5 ce ef 3b
       0.0 0.0 0.0068748347 0.0073183426
0001d0 00 00 00 00 00 00 00 00 00 00 00 00 00 00 00 00
       0.0 0.0 0.0 0.0
0001e0 00 00 00 00 00 00 00 00 00 00 00 00 00 00 00 00
       0.0 0.0 0.0 0.0
0001f0 9a f2 e7 3a 7a 05 f8 3a 2b ea 08 3b 4f 6a 12 3b
       0.0017696202 0.001892253 0.0020891528 0.0022341197
000200 00 00 00 00 00 00 00 00 77 e2 d3 39 80 b9 e6 39
       0.0 0.0 0.00040413786 0.00044007227
000210 00 00 00 00 00 00 00 00 a3 9e c6 ba 95 c0 d1 ba
       0.0 0.0 -0.0015153479 -0.0016002828
000220 00 00 00 00 00 00 00 00 00 00 00 00 00 00 00 00
       0.0 0.0 0.0 0.0
000230 00 00 00 00 00 00 00 00 00 00 00 00 00 00 00 00
       0.0 0.0 0.0 0.0
000240 38 f3 a2 3b df a4 ad 3b 86 4d c9 3b 28 49 d6 3b
       0.0049728416 0.005299195 0.0061432747 0.0065394826
000250 57 52 ca 3b 50 88 d7 3b 24 1e 8d 3b e0 5c 96 3b
       0.0061743665 0.006577529 0.0043065716 0.0045887083
000260 bc 67 e8 38 d4 e4 b8 38 46 95 24 3b 0e a6 2f 3b
       0.00011081944 8.816426e-05 0.0025113388 0.0026801857
000270 cf 76 e1 3b e8 ff ef 3b fa 21 e8 3b 7c 0b f7 3b
       0.006880618 0.0073242076 0.0070841284 0.007539211
000280 00 00 00 00 00 00 00 00 cd 9a e4 3b 2a 4f f3 3b
       0.0 0.0 0.0069764615 0.0074252086
000290 b1 34 ba ba be a3 c4 ba 00 00 00 00 00 00 00 00
       -0.0014206377 -0.0015002412 0.0 0.0
0002a0 00 00 00 00 00 00 00 00 00 00 00 00 00 00 00 00
       0.0 0.0 0.0 0.0
0002b0 6d 69 57 3b 2f c0 65 3b 00 00 00 00 00 00 00 00
       0.0032869235 0.0035057177 0.0 0.0
0002c0 e1 ca 2d 3c 72 e2 38 3c f2 82 89 3b 71 97 92 3b
       0.010607452 0.0112844575 0.004196518 0.0044736196
0002d0 00 00 00 00 00 00 00 00 5c f7 05 3c d8 8f 0e 3c
       0.0 0.0 0.008176651 0.008701287
0002e0 00 00 00 00 00 00 00 00 e7 ae 8c ba 55 f9 93 ba
       0.0 0.0 -0.0010733277 -0.0011289517
0002f0 12 90 1b ba 12 38 22 ba 00 00 00 00 00 00 00 00
       -0.0005934249 -0.00061881647 0.0 0.0
000300 7d 73 ca ba f9 aa d5 ba 94 a0 e5 3b ea 5e f4 3b
       -0.0015445795 -0.0016301564 0.007007668 0.0074576037
000310 7c c6 bb 3b 9a f2 c7 3b 00 00 00 00 00 00 00 00
       0.0057304483 0.0061019184 0.0 0.0
000320 00 00 00 00 00 00 00 00 00 00 00 00 00 00 00 00
       0.0 0.0 0.0 0.0
000330 00 00 00 00 00 00 00 00 43 73 2a 3b 9b c9 35 3b
       0.0 0.0 0.0026008643 0.0027738574
000340 69 6d 0d 3c 30 84 16 3c 12 a2 8e 3b 80 f7 97 3b
       0.008632042 0.009186789 0.0043528164 0.0046376586
000350 00 00 00 00 00 00 00 00 33 82 d8 3b 95 7c e6 3b
       0.0 0.0 0.006607318 0.0070338943
000360 0d 5b db 3b 08 86 e9 3b 00 00 00 00 00 00 00 00
       0.0066942037 0.0071265735 0.0 0.0
000370 00 00 00 00 00 00 00 00 00 00 00 00 00 00 00 00
       0.0 0.0 0.0 0.0
000380 bb b8 cc ba 40 3c d8 ba 00 00 00 00 00 00 00 00
       -0.0015619019 -0.0016497448 0.0 0.0
000390 00 00 00 00 00 00 00 00 1e dc 04 3c 39 61 0d 3c
       0.0 0.0 0.008109121 0.008629137
0003a0 65 fc d3 3b a4 b2 e1 3b 95 5b f8 3b 0c 28 04 3c
       0.0064692968 0.0068877507 0.007579277 0.008066189
0003b0 00 00 00 00 00 00 00 00 00 00 00 00 00 00 00 00
       0.0 0.0 0.0 0.0
0003c0 53 d4 61 3b 07 c4 70 3b 7f ac d6 3b f4 80 e4 3b
       0.003445883 0.0036737935 0.006551325 0.00697338
0003d0 46 95 1b 3c 7c 87 25 3c f2 b8 e4 3b 08 8d f3 3b
       0.009496039 0.010103103 0.006980055 0.0074325837
0003e0 61 40 f8 3b b2 24 04 3c 6a 09 d4 3b 97 ab e1 3b
       0.007576034 0.0080653895 0.006470849 0.00688691
0003f0 00 00 00 00 00 00 00 00 00 00 00 00 00 00 00 00
       0.0 0.0 0.0 0.0

sqr_avg f4 [200, 2]
000000 00 00 00 00 00 00 00 00 47 96 02 3a 28 c7 0b 3a
       0.0 0.0 0.00049814995 0.0005332106
000010 00 00 00 00 00 00 00 00 73 70 2a 35 18 10 a6 35
       0.0 0.0 6.349357e-07 1.2372648e-06
000020 00 00 00 00 00 00 00 00 00 00 00 00 00 00 00 00
       0.0 0.0 0.0 0.0
000030 16 32 b7 3a 9f 92 b6 3a 00 00 00 00 00 00 00 00
       0.0013976719 0.0013929195 0.0 0.0
000040 00 00 00 00 00 00 00 00 dc a6 0d 3b bb 77 13 3b
       0.0 0.0 0.0021614349 0.0022501785
000050 00 00 00 00 00 00 00 00 26 8c a7 3a 83 fd ad 3a
       0.0 0.0 0.0012782856 0.0013274405
000060 00 00 00 00 00 00 00 00 00 00 00 00 00 00 00 00
       0.0 0.0 0.0 0.0
000070 38 ac 7b 3b e5 4b 83 3b d5 90 05 3b c2 0c 0b 3b
       0.003840221 0.00400685 0.0020380516 0.002121732
000080 00 00 00 00 00 00 00 00 00 00 00 00 00 00 00 00
       0.0 0.0 0.0 0.0
000090 00 00 00 00 00 00 00 00 00 00 00 00 00 00 00 00
       0.0 0.0 0.0 0.0
0000a0 00 00 00 00 00 00 00 00 00 00 00 00 00 00 00 00
       0.0 0.0 0.0 0.0
0000b0 cb f2 72 38 e3 66 80 38 00 00 00 00 00 00 00 00
       5.7923415e-05 6.12268e-05 0.0 0.0
0000c0 c2 24 3c 3b f0 21 44 3b 96 ff 83 3b 31 c0 89 3b
       0.0028708433 0.0029927455 0.004028271 0.004203819
0000d0 00 00 00 00 00 00 00 00 00 00 00 00 00 00 00 00
       0.0 0.0 0.0 0.0
0000e0 13 f0 07 39 f2 a8 0b 39 00 00 00 00 00 00 00 00
       0.00012964038 0.0001331901 0.0 0.0
0000f0 00 00 00 00 00 00 00 00 00 00 00 00 00 00 00 00
       0.0 0.0 0.0 0.0
000100 75 6a 95 38 ee a8 a0 38 00 00 00 00 00 00 00 00
       7.124703e-05 7.66086e-05 0.0 0.0
000110 32 dd 89 3b ea e7 8f 3b 79 9e 6b 38 d7 1e 81 38
       0.0042072767 0.00439166 5.6175955e-05 6.156944e-05
000120 e7 0d f2 3a dc bf fb 3a a6 b4 33 39 98 40 42 39
       0.0018467278 0.0019206959 0.00017138067 0.00018525345
000130 00 00 00 00 00 00 00 00 00 00 00 00 00 00 00 00
       0.0 0.0 0.0 0.0
000140 00 00 00 00 00 00 00 00 ce 40 98 3a 34 f7 a1 3a
       0.0 0.0 0.0011615993 0.0012356997
000150 00 00 00 00 00 00 00 00 46 0c 43 3b e8 4f 4b 3b
       0.0 0.0 0.0029761954 0.003102297
000160 00 00 00 00 00 00 00 00 ec 39 e1 3a c1 43 ea 3a
       0.0 0.0 0.00171834 0.0017872975
000170 c2 4d dd 3a 5e 38 e6 3a 88 4a 62 3a 29 5a 70 3a
       0.0016884136 0.0017564406 0.0008632322 0.00091687083
000180 7b af 2b 3a 1c 49 37 3a f3 0d ed 34 d1 a2 48 35
       0.0006549281 0.000699179 4.415484e-07 7.4742735e-07
000190 0d bb 70 39 1d 77 77 39 00 00 00 00 00 00 00 00
       0.00022957865 0.00023600129 0.0 0.0
0001a0 00 00 00 00 00 00 00 00 0d b6 9b 3a b1 a4 a5 3a
       0.0 0.0 0.0011879817 0.0012637583
0001b0 69 d0 9b 38 4f 38 a2 38 3a ec 56 39 9c ca 5c 39
       7.4297954e-05 7.73525e-05 0.00020496632 0.00021056313
0001c0 00 00 00 00 00 00 00 00 86 3c a2 3a 32 76 a8 3a
       0.0 0.0 0.0012377657 0.0012852608
0001d0 00 00 00 00 00 00 00 00 00 00 00 00 00 00 00 00
       0.0 0.0 0.0 0.0
0001e0 00 00 00 00 00 00 00 00 00 00 00 00 00 00 00 00
       0.0 0.0 0.0 0.0
0001f0 63 63 e4 38 fa 5b f7 38 96 0f c8 38 6a 59 d8 38
       0.000108903994 0.0001179501 9.539646e-05 0.00010316337
000200 00 00 00 00 00 00 00 00 3b e2 b1 39 e5 0a bf 39
       0.0 0.0 0.00033928626 0.00036438476
000210 00 00 00 00 00 00 00 00 e5 d3 8e 3a 13 fb 97 3a
       0.0 0.0 0.001089689 0.0011595212
000220 00 00 00 00 00 00 00 00 00 00 00 00 00 00 00 00
       0.0 0.0 0.0 0.0
000230 00 00 00 00 00 00 00 00 00 00 00 00 00 00 00 00
       0.0 0.0 0.0 0.0
000240 a4 69 bc 39 c4 0c c2 39 b7 81 74 3a a9 8f 7d 3a
       0.00035936863 0.00037012075 0.00093271903 0.0009672591
000250 2d b5 3c 3a 8e 2e 43 3a d5 d2 84 39 4b 99 88 39
       0.0007198628 0.0007445597 0.00025334084 0.00026054154
000260 73 33 14 3a 6c 41 1e 3a 7a 80 87 38 9d c3 8f 38
       0.00056534185 0.00060369703 6.461232e-05 6.855207e-05
000270 4e bc a4 3a 2b 14 ab 3a b6 fe bd 3a 70 7e c5 3a
       0.0012568326 0.0013052275 0.0014495465 0.0015067589
000280 00 00 00 00 00 00 00 00 7d 63 b2 3a 11 5c b9 3a
       0.0 0.0 0.0013609972 0.0014141818
000290 a9 9f 83 3a cf 1d 8c 3a 00 00 00 00 00 00 00 00
       0.0010042089 0.0010690036 0.0 0.0
0002a0 00 00 00 00 00 00 00 00 00 00 00 00 00 00 00 00
       0.0 0.0 0.0 0.0
0002b0 50 36 c7 38 f5 5e cd 38 00 00 00 00 00 00 00 00
       9.499176e-05 9.792849e-05 0.0 0.0
0002c0 b8 b6 8c 3b 5d e0 92 3b ef 78 53 39 c4 37 59 39
       0.0042942427 0.0044823126 0.0002016758 0.00020715507
0002d0 00 00 00 00 00 00 00 00 52 c2 09 3b be 69 0f 3b
       0.0 0.0 0.0021020365 0.0021883096
0002e0 00 00 00 00 00 00 00 00 70 c7 78 3a c6 81 84 3a
       0.0 0.0 0.0009490168 0.0010109476
0002f0 90 0f 42 3a 35 18 4f 3a 00 00 00 00 00 00 00 00
       0.00074028317 0.00079000305 0.0 0.0
000300 37 f2 99 3a a9 c3 a3 3a cd b7 ba 3a ef 14 c2 3a
       0.0011745159 0.0012494224 0.0014245451 0.0014807264
000310 4e 8e 36 3a 39 f0 3c 3a 00 00 00 00 00 00 00 00
       0.0006963954 0.0007207427 0.0 0.0
000320 00 00 00 00 00 00 00 00 00 00 00 00 00 00 00 00
       0.0 0.0 0.0 0.0
000330 00 00 00 00 00 00 00 00 0b a2 86 38 8c 0e 8d 38
       0.0 0.0 6.419801e-05 6.7261135e-05
000340 bc e0 18 3b 35 31 1f 3b cf 48 8c 39 38 52 90 39
       0.0023327312 0.0024290804 0.00026757127 0.00027527078
000350 00 00 00 00 00 00 00 00 dc cc 8f 3a d5 38 95 3a
       0.0 0.0 0.0010971087 0.0011384735
000360 73 81 93 3a 5a 14 99 3a 00 00 00 00 00 00 00 00
       0.0011253789 0.0011679039 0.0 0.0
000370 00 00 00 00 00 00 00 00 00 00 00 00 00 00 00 00
       0.0 0.0 0.0 0.0
000380 fb da 91 3a 59 2e 9b 3a 00 00 00 00 00 00 00 00
       0.0011127883 0.0011839374 0.0 0.0
000390 00 00 00 00 00 00 00 00 92 eb 08 3b ec 8b 0e 3b
       0.0 0.0 0.0020892364 0.002175088
0003a0 98 78 83 3a 31 59 88 3a 14 a1 e0 3a 1a a7 e9 3a
       0.0010030447 0.0010402558 0.0017137849 0.0017826289
0003b0 00 00 00 00 00 00 00 00 00 00 00 00 00 00 00 00
       0.0 0.0 0.0 0.0
0003c0 ea 4a f3 38 39 21 fa 38 2d 81 93 3a 43 1e 99 3a
       0.00011601097 0.00011927117 0.0011253707 0.0011681992
0003d0 ea 6a 53 3b 86 79 5c 3b e0 00 97 3a 7c a9 9c 3a
       0.003225977 0.003364177 0.0011520647 0.0011952366
0003e0 cd 61 c9 3a 35 46 d1 3a 9d 7d 94 3a 5c 2c 9a 3a
       0.001536423 0.0015966358 0.001132894 0.0011762488
0003f0 00 00 00 00 00 00 00 00 00 00 00 00 00 00 00 00
       0.0 0.0 0.0 0.0

grad_avg f4 [200]
000000 00 00 00 00 6e a1 80 3b 00 00 00 00 3d ad bf 3a
       0.0 0.003925494 0.0 0.0014623773
000010 00 00 00 00 00 00 00 00 a0 1e a1 bd 00 00 00 00
       0.0 0.0 -0.078671694 0.0
000020 00 00 00 00 5a 3b 69 bd 00 00 00 00 81 13 41 bd
       0.0 -0.056941368 0.0 -0.04713774
000030 00 00 00 00 00 00 00 00 98 9a 90 bd bd 16 60 bd
       0.0 0.0 -0.070607364 -0.054709185
000040 00 00 00 00 00 00 00 00 00 00 00 00 00 00 00 00
       0.0 0.0 0.0 0.0
000050 00 00 00 00 00 00 00 00 dc 0c 67 bc 00 00 00 00
       0.0 0.0 -0.014102187 0.0
000060 24 a5 7f bd 28 20 93 bd 00 00 00 00 00 00 00 00
       -0.06241335 -0.07183868 0.0 0.0
000070 29 ae b2 bc 00 00 00 00 00 00 00 00 00 00 00 00
       -0.021811562 0.0 0.0 0.0
000080 a2 76 4d bc 00 00 00 00 be 8e 94 bd 9e 47 a1 3a
       -0.012540491 0.0 -0.072537884 0.0012304669
000090 02 36 60 bd 33 b6 ca bb 00 00 00 00 00 00 00 00
       -0.054739006 -0.0061862706 0.0 0.0
0000a0 00 00 00 00 f4 c1 72 3c 00 00 00 00 b4 b7 83 bd
       0.0 0.01481675 0.0 -0.06431523
0000b0 00 00 00 00 71 63 54 bd b1 71 4f bd fe 4a b4 3c
       0.0 -0.051852647 -0.050645534 0.022008415
0000c0 1b 06 0a 3c ba 40 db 37 c3 10 dc bc 00 00 00 00
       0.008424307 2.6136975e-05 -0.026863461 0.0
0000d0 00 00 00 00 05 ac 6e 3c 56 e1 91 bc 6e 3c d8 bc
       0.0 0.01456738 -0.017807644 -0.026396003
0000e0 00 00 00 00 bb d5 3d bd 00 00 00 00 00 00 00 00
       0.0 -0.046346407 0.0 0.0
0000f0 00 00 00 00 00 00 00 00 f0 99 18 bc 48 12 39 bc
       0.0 0.0 -0.009314045 -0.0112958625
000100 00 00 00 00 ba e1 d8 39 00 00 00 00 c2 d8 6a 3c
       0.0 0.0004136691 0.0 0.014333906
000110 00 00 00 00 00 00 00 00 00 00 00 00 00 00 00 00
       0.0 0.0 0.0 0.0
000120 44 65 03 bd 4c 1e 29 bd 3e 0d 26 bd 26 f4 e2 bc
       -0.032078996 -0.04128866 -0.040539972 -0.02770431
000130 f5 05 02 ba 09 49 72 bc 85 3a 3e bd 4d 4a 45 bd
       -0.0004959994 -0.014787921 -0.046442527 -0.048166562
000140 00 00 00 00 a4 c1 41 bd b5 89 5d 3c 00 00 00 00
       0.0 -0.04730381 0.013521601 0.0
000150 00 00 00 00 00 00 00 00 0b de a5 bc 00 00 00 00
       0.0 0.0 -0.02024748 0.0
000160 67 d3 96 bd 9d cf d9 bc 00 00 00 00 94 02 65 bd
       -0.073645405 -0.026588256 0.0 -0.05591066
000170 00 00 00 00 a8 d7 3a 3c 04 0e 02 3c 00 00 00 00
       0.0 0.0114039555 0.007937912 0.0
000180 b6 0e 72 3c cd 47 43 bd 63 dd 1b bd 00 00 00 00
       0.014774015 -0.047675896 -0.038052928 0.0
000190 00 00 00 00 00 00 00 00 00 00 00 00 51 d0 80 bc
       0.0 0.0 0.0 -0.015724333
0001a0 fe 6d 71 bd bf ff e5 bc 00 00 00 00 64 ec 35 bd
       -0.058942787 -0.02807605 0.0 -0.044414893
0001b0 43 41 38 bd 00 00 00 00 00 00 00 00 00 00 00 00
       -0.044984113 0.0 0.0 0.0
0001c0 18 60 70 3c 00 00 00 00 00 00 00 00 de 5a 63 bd
       0.014671348 0.0 0.0 -0.05550658
0001d0 b0 6c 31 bd 77 76 53 bd 00 00 00 00 00 00 00 00
       -0.043316543 -0.05162665 0.0 0.0
0001e0 58 4d b0 bc 58 17 35 bd ad 58 86 bd 1e f8 3e bd
       -0.021521255 -0.044211715 -0.06559882 -0.04662334
0001f0 c2 42 51 bd bd 6d 33 bd 00 00 00 00 00 00 00 00
       -0.051089056 -0.043805826 0.0 0.0
000200 83 cf 81 bd 00 00 00 00 00 00 00 00 82 eb 1a bc
       -0.06338408 0.0 0.0 -0.0094555635
000210 65 ae 6f bd ab 38 4f bd 00 00 00 00 15 cd 6a 36
       -0.058515925 -0.050591152 0.0 3.498809e-06
000220 1f ed 0d bb 00 00 00 00 89 0d a5 bd 56 0d 3e bd
       -0.0021656228 0.0 -0.08059222 -0.046399437
000230 00 00 00 00 9c b4 cb bc 00 00 00 00 00 00 00 00
       0.0 -0.024866395 0.0 0.0
000240 00 00 00 00 00 00 00 00 00 00 00 00 39 97 33 3c
       0.0 0.0 0.0 0.010961347
000250 36 f4 81 bc 00 00 00 00 00 00 00 00 b5 83 2e bd
       -0.01586352 0.0 0.0 -0.042606074
000260 35 dc 1e bc 2b bd 28 bc 00 00 00 00 00 00 00 00
       -0.009696056 -0.010299007 0.0 0.0
000270 00 00 00 00 00 00 00 00 00 00 00 00 b6 c5 6b 39
       0.0 0.0 0.0 0.00022485
000280 f6 d1 dd 3b 00 00 00 00 36 17 5f bc 00 00 00 00
       0.006769414 0.0 -0.013616374 0.0
000290 dd 3a 11 bb ea 5d 40 3c 00 00 00 00 00 00 00 00
       -0.002216033 0.011741141 0.0 0.0
0002a0 15 d6 7c bd 15 6f 9d bc 00 00 00 00 3a 87 1d bd
       -0.061727602 -0.019218007 0.0 -0.03845904
0002b0 00 00 00 00 35 1f 0e bc 7b 4f 1e bd 00 00 00 00
       0.0 -0.0086744325 -0.038650017 0.0
0002c0 50 6f ee 3b 00 00 00 00 00 00 00 00 00 00 00 00
       0.007276453 0.0 0.0 0.0
0002d0 00 00 00 00 43 e0 94 bd 00 00 00 00 6e 7f 4f bd
       0.0 -0.07269337 0.0 -0.050658636
0002e0 00 00 00 00 d0 4d 90 bc 00 00 00 00 00 00 00 00
       0.0 -0.017615229 0.0 0.0
0002f0 22 36 4c bd ab 2f 44 bd 77 4f 46 bd 00 00 00 00
       -0.049856313 -0.047897022 -0.048415627 0.0
000300 00 00 00 00 a8 2d 8f bd c9 09 73 bd 1d 74 e7 bc
       0.0 -0.0699113 -0.059335504 -0.02825361
000310 87 9f ba bc 00 00 00 00 7e 32 7d bd e1 4d 6c bc
       -0.022781147 0.0 -0.06181573 -0.014422865

sqr_avg f4 [200]
000000 00 00 00 00 f6 30 97 40 00 00 00 00 70 e7 9a 37
       0.0 4.7247267 0.0 1.8466002e-05
000010 00 00 00 00 00 00 00 00 4d 06 78 3f 00 00 00 00
       0.0 0.0 0.96884614 0.0
000020 00 00 00 00 f3 ae c7 40 00 00 00 00 bf c4 43 40
       0.0 6.240106 0.0 3.0588834
000030 00 00 00 00 00 00 00 00 54 6a 4d 41 76 a4 bb 40
       0.0 0.0 12.838459 5.863826
000040 00 00 00 00 00 00 00 00 00 00 00 00 00 00 00 00
       0.0 0.0 0.0 0.0
000050 00 00 00 00 00 00 00 00 8e 4d 08 3f 00 00 00 00
       0.0 0.0 0.5324334 0.0
000060 c7 d7 10 41 90 d6 59 41 00 00 00 00 00 00 00 00
       9.05268 13.614883 0.0 0.0
000070 9e 47 1e 3e 00 00 00 00 00 00 00 00 00 00 00 00
       0.15457007 0.0 0.0 0.0
000080 6b 47 69 3f 00 00 00 00 fb 92 66 41 fa aa 70 3f
       0.911246 0.0 14.410884 0.9401089
000090 00 cf 9f 40 48 05 09 40 00 00 00 00 00 00 00 00
       4.9940186 2.1409473 0.0 0.0
0000a0 00 00 00 00 2d da 11 41 00 00 00 00 0c b6 15 41
       0.0 9.115766 0.0 9.356945
0000b0 00 00 00 00 66 a7 94 40 86 36 93 40 6e f6 dc 40
       0.0 4.6454344 4.6004057 6.9050817
0000c0 47 4a b8 40 33 10 12 3d ea 45 3e 3e 00 00 00 00
       5.759067 0.03565998 0.18581358 0.0
0000d0 00 00 00 00 db ff 14 41 95 30 cc 3e 55 1c 27 3e
       0.0 9.312465 0.39880815 0.16319402
0000e0 00 00 00 00 d8 15 3c 40 00 00 00 00 00 00 00 00
       0.0 2.9388332 0.0 0.0
0000f0 00 00 00 00 00 00 00 00 af 53 bd 3f 49 c2 a4 3f
       0.0 0.0 1.4791163 1.2871791
000100 00 00 00 00 1d 8e 62 40 00 00 00 00 f1 29 0a 41
       0.0 3.539924 0.0 8.63524
000110 00 00 00 00 00 00 00 00 00 00 00 00 00 00 00 00
       0.0 0.0 0.0 0.0
000120 65 de b8 3e f5 ec fc 3f 58 bf 9a 3f 95 1c 59 3e
       0.36107174 1.9759814 1.2089643 0.2120231
000130 78 2a a1 40 89 16 25 3f 41 d5 40 40 d2 74 6e 40
       5.036434 0.6448751 3.013016 3.7258801
000140 00 00 00 00 01 aa 59 40 5c 1d 01 41 00 00 00 00
       0.0 3.4010012 8.069668 0.0
000150 00 00 00 00 00 00 00 00 39 e0 79 3e 00 00 00 00
       0.0 0.0 0.2440194 0.0
000160 50 34 6b 41 e1 48 24 3e 00 00 00 00 f2 b7 c1 40
       14.700272 0.16043426 0.0 6.0537043
000170 00 00 00 00 51 f4 f8 40 03 41 cd 40 00 00 00 00
       0.0 7.779824 6.414186 0.0
000180 8f 5a 13 41 e9 9c 69 40 fc 19 9d 3f 00 00 00 00
       9.209609 3.650202 1.2273555 0.0
000190 00 00 00 00 00 00 00 00 00 00 00 00 4a 3a e6 3e
       0.0 0.0 0.0 0.44966346
0001a0 c5 4f db 40 81 64 6d 3e 00 00 00 00 7c 09 1e 40
       6.8534875 0.2318287 0.0 2.4693289
0001b0 6c 60 23 40 00 00 00 00 00 00 00 00 00 00 00 00
       2.5527601 0.0 0.0 0.0
0001c0 11 76 0c 41 00 00 00 00 00 00 00 00 be fe c0 40
       8.778825 0.0 0.0 6.0310965
0001d0 fb 9a 09 40 e3 90 94 40 00 00 00 00 00 00 00 00
       2.1500843 4.6426864 0.0 0.0
0001e0 27 3f 3f 3e 08 40 26 40 b6 c1 26 41 81 2f 24 40
       0.18676434 2.5976582 10.422293 2.5653994
0001f0 49 ab 79 40 13 bb 29 40 00 00 00 00 00 00 00 00
       3.9010794 2.652043 0.0 0.0
000200 a4 86 17 41 00 00 00 00 00 00 00 00 a2 5a a9 3f
       9.470371 0.0 0.0 1.3230784
000210 f0 ce d9 40 a3 6f 71 40 00 00 00 00 d1 7c 0c 3b
       6.806511 3.7724388 0.0 0.00214367
000220 ea 75 36 40 00 00 00 00 80 cb 16 41 f4 f8 51 40
       2.850947 0.0 9.424683 3.28082
000230 00 00 00 00 07 b7 1b 3e 00 00 00 00 00 00 00 00
       0.0 0.15206538 0.0 0.0
000240 00 00 00 00 00 00 00 00 00 00 00 00 b9 c3 ec 40
       0.0 0.0 0.0 7.398892
000250 05 aa 22 3f 00 00 00 00 00 00 00 00 d6 67 10 40
       0.6354068 0.0 0.0 2.2563376
000260 be 0a 92 3f 0d 6f 94 3f 00 00 00 00 00 00 00 00
       1.1409528 1.159639 0.0 0.0
000270 00 00 00 00 00 00 00 00 00 00 00 00 d9 08 61 40
       0.0 0.0 0.0 3.516165
000280 65 aa cf 40 00 00 00 00 a0 6c 11 3f 00 00 00 00
       6.48955 0.0 0.56806374 0.0
000290 26 fd 08 40 4b 4a e8 40 00 00 00 00 00 00 00 00
       2.140451 7.259069 0.0 0.0
0002a0 d6 c8 05 41 ad b8 55 3e 00 00 00 00 dd 18 be 3f
       8.361532 0.2087123 0.0 1.4851338
0002b0 00 00 00 00 04 9b cb 3f ea 77 99 3f 00 00 00 00
       0.0 1.5906682 1.198972 0.0
0002c0 5e df c5 40 00 00 00 00 00 00 00 00 00 00 00 00
       6.1835165 0.0 0.0 0.0
0002d0 00 00 00 00 6a 6e 68 41 00 00 00 00 c9 dd 8a 40
       0.0 14.526957 0.0 4.3395734
0002e0 00 00 00 00 c0 1e b0 3e 00 00 00 00 00 00 00 00
       0.0 0.3439846 0.0 0.0
0002f0 1a c7 35 40 0b 85 51 40 d8 07 74 40 00 00 00 00
       2.8402772 3.2737453 3.8129787 0.0
000300 00 00 00 00 23 a3 33 41 c0 09 dc 40 64 9b 8e 3e
       0.0 11.227328 6.87619 0.2785293
000310 c3 cf 1e 3e 00 00 00 00 21 68 0c 41 c5 ea 2e 3f
       0.15508942 0.0 8.775422 0.6832698

grad_avg f4 [1, 200]
000000 00 00 00 00 a8 ea cb 3e 00 00 00 00 0d f3 f8 ba
       0.0 0.39827466 0.0 -0.0018993333
000010 00 00 00 00 00 00 00 00 3e 3b 8e 3d 00 00 00 00
       0.0 0.0 0.06944893 0.0
000020 00 00 00 00 37 9f 95 3e 00 00 00 00 4b 63 4d 3e
       0.0 0.29223034 0.0 0.20057409
000030 00 00 00 00 00 00 00 00 a6 f0 7c 3e a4 f3 ca 3e
       0.0 0.0 0.24701175 0.39639008
000040 00 00 00 00 00 00 00 00 00 00 00 00 00 00 00 00
       0.0 0.0 0.0 0.0
000050 00 00 00 00 00 00 00 00 1a 3a a1 3d 00 00 00 00
       0.0 0.0 0.0787241 0.0
000060 aa d5 ec 3e 35 b6 d1 3e 00 00 00 00 00 00 00 00
       0.46256763 0.40959325 0.0 0.0
000070 e0 93 12 3e 00 00 00 00 00 00 00 00 00 00 00 00
       0.14314222 0.0 0.0 0.0
000080 0c 09 ca 3e 00 00 00 00 d9 a1 df 3e be ad 79 3a
       0.39460027 0.0 0.43678167 0.0009524486
000090 6f 56 3a 3e 7d 92 e7 3e 00 00 00 00 00 00 00 00
       0.18197034 0.4522895 0.0 0.0
0000a0 00 00 00 00 9a bd b0 3e 00 00 00 00 1f 02 1c 3e
       0.0 0.34519655 0.0 0.15235184
0000b0 00 00 00 00 1c c9 9f 3e 2b c8 0a 3e f2 87 56 3b
       0.0 0.31208122 0.1355292 0.0032734838
0000c0 e5 1e aa 3d fc 59 b3 36 af 62 9f 3e 00 00 00 00
       0.08306674 5.3450913e-06 0.31129977 0.0
0000d0 00 00 00 00 b5 fb 83 3e 70 8f 12 3f 01 bb b5 3e
       0.0 0.25777975 0.5725012 0.35494235
0000e0 00 00 00 00 b6 d5 02 3f 00 00 00 00 00 00 00 00
       0.0 0.51107347 0.0 0.0
0000f0 00 00 00 00 00 00 00 00 43 d7 c9 3e af 3b 07 3e
       0.0 0.0 0.39422044 0.13206361
000100 00 00 00 00 82 8b 09 3e 00 00 00 00 3e 27 97 3e
       0.0 0.13432124 0.0 0.29522127
000110 00 00 00 00 00 00 00 00 00 00 00 00 00 00 00 00
       0.0 0.0 0.0 0.0
000120 41 bf 8a 3e cf 7b ea 3e cd c7 36 3e 73 58 12 3f
       0.2709904 0.45797583 0.17849655 0.5716621
000130 ee 8d a4 bb c1 9d 9c 3e 72 c9 00 3f b9 8e c8 3e
       -0.005021802 0.30589107 0.5030738 0.3917139
000140 00 00 00 00 ef 57 f7 3e 27 5d 23 3e 00 00 00 00
       0.0 0.48309276 0.15953504 0.0
000150 00 00 00 00 00 00 00 00 c2 c6 33 3e 00 00 00 00
       0.0 0.0 0.17556289 0.0
000160 dd 8a 86 3e 23 14 7a 3e 00 00 00 00 cb 95 1b 3e
       0.2627782 0.24421744 0.0 0.1519386
000170 00 00 00 00 b6 43 7d 3e 83 56 a2 3e 00 00 00 00
       0.0 0.24732861 0.31706628 0.0
000180 82 1a da 3e 30 20 b7 3e 63 f4 6d 3e 00 00 00 00
       0.4259835 0.35766745 0.23237757 0.0
000190 00 00 00 00 00 00 00 00 00 00 00 00 13 a2 4d 3e
       0.0 0.0 0.0 0.20081358
0001a0 e3 3b 96 3e 25 18 df 3e 00 00 00 00 5d 18 4d 3e
       0.29342565 0.43573108 0.0 0.20028825
0001b0 75 a5 6a 3e 00 00 00 00 00 00 00 00 00 00 00 00
       0.2291468 0.0 0.0 0.0
0001c0 ca 33 66 3e 00 00 00 00 00 00 00 00 30 36 a0 3e
       0.22480693 0.0 0.0 0.31291342
0001d0 af 00 c1 3e d1 06 f1 3e 00 00 00 00 00 00 00 00
       0.37695834 0.47075513 0.0 0.0
0001e0 8d cf 96 3e a4 59 e3 3e 73 42 b4 3e 36 57 10 3e
       0.29455224 0.44404328 0.35206947 0.14095768
0001f0 73 8c 97 3e 9e 28 c0 3e 00 00 00 00 00 00 00 00
       0.29599342 0.37530988 0.0 0.0
000200 cc db bf 3e 00 00 00 00 00 00 00 00 be f6 9d 3e
       0.3747238 0.0 0.0 0.30852312
000210 e8 21 68 3e e2 ea 91 3e 00 00 00 00 e9 6e 1f 34
       0.22669184 0.28499514 0.0 1.4848378e-07
000220 d1 c7 b1 3e 00 00 00 00 f9 66 80 3d bf f0 41 3e
       0.3472276 0.0 0.062696405 0.18939494
000230 00 00 00 00 15 43 0b 3f 00 00 00 00 00 00 00 00
       0.0 0.54399234 0.0 0.0
000240 00 00 00 00 00 00 00 00 00 00 00 00 40 14 81 3e
       0.0 0.0 0.0 0.25210762
000250 31 fe 5a 3e 00 00 00 00 00 00 00 00 5e 56 f4 3e
       0.21386029 0.0 0.0 0.47722143
000260 80 1e f9 3d 13 64 37 3e 00 00 00 00 00 00 00 00
       0.121640205 0.17909269 0.0 0.0
000270 00 00 00 00 00 00 00 00 00 00 00 00 74 05 7a 3d
       0.0 0.0 0.0 0.061040357
000280 a4 bd 68 bb 00 00 00 00 b3 2d 80 3d 00 00 00 00
       -0.0035513425 0.0 0.062587164 0.0
000290 ff f9 19 3b f4 19 dc 3d 00 00 00 00 00 00 00 00
       0.0023494957 0.10747138 0.0 0.0
0002a0 ed 50 b4 3e d4 b0 c5 3d 00 00 00 00 17 15 cb 3e
       0.3521799 0.09652868 0.0 0.39664528
0002b0 00 00 00 00 44 d0 be 3e 29 99 c4 3e 00 00 00 00
       0.0 0.3726827 0.38398102 0.0
0002c0 19 79 b9 3e 00 00 00 00 00 00 00 00 00 00 00 00
       0.36225203 0.0 0.0 0.0
0002d0 00 00 00 00 36 d7 04 3f 00 00 00 00 c3 e1 55 3e
       0.0 0.51890886 0.0 0.20886903
0002e0 00 00 00 00 48 3c 82 3e 00 00 00 00 00 00 00 00
       0.0 0.25436616 0.0 0.0
0002f0 28 a0 56 3e aa 7b af 3e 16 74 cd 3e 00 00 00 00
       0.20959532 0.34274036 0.4012763 0.0
000300 00 00 00 00 38 d0 56 3e d4 cb 6a 3e 01 68 09 3e
       0.0 0.20977867 0.22929317 0.1341858
000310 96 cf 94 3e 00 00 00 00 e4 54 91 3e 9e 60 c1 3e
       0.29064626 0.0 0.2838508 0.37769026
