save/0.1_3_200/models/model.pth (torch, 14230 bytes, 12 tensors)

node_factors.weight f4 [26, 1]
0	0x3c01f9d8	0.007933103
1	0x3e9fc77f	0.3120689
2	0x3f33c007	0.70214885
3	0x3e9ff943	0.3124486
4	0x3ea3d7d5	0.32000604
5	0x3f21ab30	0.63151836
6	0x3e91abbf	0.28451344
7	0x3deb7159	0.11496229
8	0x3e035a38	0.12827384
9	0x3e9f294c	0.31086195
10	0x3f346f3b	0.70482224
11	0xbe307a7f	-0.17234229
12	0xbdad4f43	-0.084623836
13	0xbef225ae	-0.47294372
14	0x3cd6a424	0.026201315
15	0x3e116e3a	0.14202204
16	0x3ea8b4c6	0.3295042
17	0x3f2b5ca4	0.66938233
18	0xbe781fcb	-0.24230878
19	0xbed3c6ef	-0.41362712
20	0xbf216780	-0.63048553
21	0x3db274d0	0.087136865
22	0x3e923295	0.28554216
23	0x3f151beb	0.58245724
24	0x3ed5ffa6	0.41796607
25	0xbe8ff6f9	-0.28118113

layers.0.weight f4 [200, 2]
0	0x3f742729	0.95372254
1	0xbf74275b	-0.9537255
2	0x3ee9492e	0.45563644
3	0x3eeb0b6c	0.45907152
4	0x3e285960	0.16440344
5	0x3eed0913	0.46295986
6	0x3effc6e1	0.4995642
7	0x3eb2b8eb	0.34906706
8	0xbf3673b8	-0.7127032
9	0x3edd8963	0.4326888
10	0xbe3fff43	-0.18749718
11	0xbe3f805a	-0.18701306
12	0x3f217079	0.63062245
13	0x3f213b74	0.62981343
14	0x3dd5955e	0.1042888
15	0xbdfe38d3	-0.12413182
16	0xbf3e30dc	-0.74293303
17	0xbecc9687	-0.39958593
18	0x3f21b688	0.63169146
19	0x3eab6776	0.33477372
20	0x3d6cf517	0.057850923
21	0xbe0fac95	-0.14030679
22	0xbea9d667	-0.33171389
23	0x3e65ceaf	0.22442125
24	0xbd602abd	-0.05472826
25	0x3e874d68	0.26426244
26	0xbdf4ee26	-0.11959486
27	0x3e972637	0.29521343
28	0x3e3723f1	0.17884804
29	0xbd923df7	-0.07140725
30	0x3eb2e53b	0.34940514
31	0x3ebcfe36	0.36912698
32	0x3f1645f8	0.58700514
33	0x3ef5d583	0.4801446
34	0xbe817134	-0.2528168
35	0xbed49b02	-0.41524512
36	0x3b71b4da	0.0036881478
37	0xbe58c47f	-0.21168707
38	0xbe34773f	-0.17623614
39	0xbde7b997	-0.11314695
40	0xbd72f4f8	-0.05931565
41	0x3ca38e90	0.01996544
42	0x3e57b1ce	0.21063921
43	0xbe75b0bd	-0.23993202
44	0xbeeb3812	-0.45941216
45	0xbee9216b	-0.45533308
46	0xbeb4e78f	-0.35332915
47	0x3ed828cf	0.42218634
48	0x3e24eb60	0.16105413
49	0x3e9872e7	0.29775164
50	0xbdb3acf2	-0.08773221
51	0xbd3f45dd	-0.046697486
52	0x3ec8a865	0.39190975
53	0xbf4442a7	-0.76664203
54	0x3d772383	0.0603366
55	0xbd392024	-0.045196667
56	0xbeb48bca	-0.352629
57	0xbeb8e3d9	-0.36111334
58	0x3f7aadf0	0.9792166
59	0x3f7a9358	0.9788108
60	0x3ed884ea	0.42288905
61	0x3f1f59da	0.6224648
62	0xbe8c63a8	-0.27419782
63	0xbdef03bb	-0.116706334
64	0x3e1d50a5	0.15362795
65	0xbe92d1cc	-0.28675687
66	0xbea80085	-0.32812896
67	0xbf2f02c4	-0.68363595
68	0x3e39e337	0.18153082
69	0xbed11161	-0.40833572
70	0xbd25193e	-0.040307276
71	0x3ee7c653	0.45268497
72	0xbe830596	-0.255902
73	0xbe853ffb	-0.26025376
74	0x3e9c0d2b	0.30478796
75	0xbed81ed1	-0.4221101
76	0xbe1a973b	-0.15096752
77	0x3ee8f2ed	0.45497838
78	0xbec1f6c8	-0.37883592
79	0xbf28dc7b	-0.65961426
80	0xbe9b5fff	-0.30346677
81	0xbe9b63df	-0.30349633
82	0xbeda26b9	-0.42607668
83	0xbf074cad	-0.5285137
84	0x3e32629c	0.17420429
85	0xbd59feb6	-0.053221427
86	0xbe5d738b	-0.21626107
87	0xbf0662f9	-0.5249477
88	0xbe59da3e	-0.21274659
89	0xbe920134	-0.28516543
90	0xbf093c54	-0.5360768
91	0xbf5c3a92	-0.8602687
92	0xbd49a69d	-0.04923116
93	0xbed38446	-0.41311854
94	0xbecdbb84	-0.40182126
95	0xbedaf587	-0.42765447
96	0x3f0cbb57	0.5497336
97	0xbf0228d9	-0.5084358
98	0xbd73538e	-0.059405856
99	0x3f29f250	0.66385365
100	0x3e8682a8	0.26271558
101	0x3e5f2ec5	0.21795185
102	0xbf056344	-0.5210459
103	0xbf015a7f	-0.5052871
104	0xbeb22935	-0.34797063
105	0x3ec64ef4	0.3873211
106	0xbdf7361c	-0.120708674
107	0xbf3493a5	-0.7053779
108	0x3b8aa477	0.0042310315
109	0xbf065854	-0.5247853
110	0xbfa10705	-1.2580267
111	0xbfa01c86	-1.2508705
112	0x3f4023b0	0.75054455
113	0x3f401014	0.75024533
114	0xbe5b6be1	-0.21427871
115	0xbd81606e	-0.06317221
116	0xbe6ecb19	-0.23319663
117	0x3d4dbfd7	0.05023178
118	0x3d1bea03	0.038064968
119	0xbddae9b4	-0.106891066
120	0xbe7f287c	-0.24917787
121	0x3ebcc909	0.36872128
122	0xbe4d3e8b	-0.2004339
123	0xbeea1099	-0.45715788
124	0x3eecd477	0.46255848
125	0x3eeb31b5	0.4593636
126	0x3eedb5d2	0.4642778
127	0x3eec2828	0.46124387
128	0xbe68df3e	-0.2274141
129	0x3ea059bd	0.31318465
130	0x3ee4c2dc	0.44679916
131	0xbf33d1fb	-0.7024228
132	0xbe4c01ab	-0.19922511
133	0xbeb5a934	-0.35480654
134	0x3e00f13d	0.12592025
135	0x3e8f147c	0.27945316
136	0xbe40e530	-0.18837428
137	0xbe3e5e9e	-0.18590781
138	0x3ea78f79	0.32726648
139	0xbe74873b	-0.23879711
140	0xbf6e7e20	-0.931612
141	0x3f6e8039	0.931644
142	0xbeae1f4f	-0.34008262
143	0xbd9805da	-0.07422991
144	0x3d828777	0.06373494
145	0xbd265321	-0.04060662
146	0xbf348111	-0.7050944
147	0x3e689fbf	0.22717188
148	0xbee7cae9	-0.45271996
149	0xbf18d59a	-0.5970093
150	0x3e254e6c	0.16143197
151	0xbeb489ed	-0.3526148
152	0xbedb3904	-0.42816937
153	0xbed6cea1	-0.4195452
154	0xbe81f73e	-0.25383943
155	0xbe907b63	-0.28219137
156	0xbf2b8f45	-0.67015487
157	0x3f2b916e	0.67018783
158	0xbf2706e2	-0.6524488
159	0xbf16e9ea	-0.58950675
160	0xbdb39e79	-0.08770461
161	0xbdb83152	-0.08993782
162	0x3ebf10ee	0.37317604
163	0xbef302c5	-0.4746305
164	0x3df30cb8	0.1186766
165	0x3e58d52e	0.21175072
166	0x3ef4c75e	0.47808355
167	0xbf4ada5d	-0.79239446
168	0xbd2bdcf4	-0.041958764
169	0xbf4a18d7	-0.7894415
170	0xbf05ecee	-0.5231465
171	0x3e4bffbc	0.19921774
172	0xbdcea0e7	-0.100892834
173	0x3e92edf3	0.28697166
174	0xbf2475b3	-0.64242095
175	0x3eef1741	0.4669743
176	0xbed37778	-0.41302085
177	0x3eac3de7	0.33640978
178	0xbe687c0d	-0.22703572
179	0xbe6291d5	-0.22125943
180	0xbef23232	-0.4730392
181	0x3e282914	0.1642192
182	0x3f4bc186	0.7959217
183	0x3f4bbac8	0.7958188
184	0xbeb8944f	-0.3605065
185	0x3c14e20f	0.0090871
186	0xbd4961af	-0.049165424
187	0xbf04e0c2	-0.51905453
188	0x3ec35fc4	0.38159
189	0xbe2dea37	-0.16983877
190	0x3e11b660	0.14229727
191	0xbe8bb485	-0.27286163
192	0xbe7f19af	-0.24912141
193	0x3d3c2fd7	0.04594406
194	0x3f144cb8	0.57929564
195	0x3f14252b	0.57869214
196	0xbf2b2cb3	-0.6686508
197	0x3f22cf09	0.6359716
198	0xbe83f9d4	-0.2577654
199	0xbed948fb	-0.42438492
200	0x3f362b8d	0.71160203
201	0x3f5ca363	0.8618681
202	0xbe2bfb8f	-0.1679518
203	0xbe7e5f89	-0.24841131
204	0xbf1a0a3c	-0.60171866
205	0xbf124869	-0.5714174
206	0xbf080445	-0.53131515
207	0xbf07cc33	-0.5304596
208	0x3e9915d4	0.29899466
209	0x3ed0dd19	0.40793684
210	0x3f5a7f1b	0.853502
211	0xbf1dd948	-0.6165967
212	0x3f15a5a6	0.58455884
213	0xbf5236f6	-0.82115114
214	0x3ef21a4b	0.47285685
215	0x3efd0fad	0.49426022
216	0x3eaa4ace	0.33260196
217	0x3e68cb84	0.22733885
218	0x3ed86af0	0.42269087
219	0x3c5778b4	0.013151336
220	0x3ed0c5f9	0.4077604
221	0xbee6251b	-0.44950184
222	0x3e4234d5	0.18965466
223	0xbecab47f	-0.39590833
224	0xbc39e323	-0.0113456575
225	0xbf168de1	-0.5881024
226	0xbe34ea38	-0.17667472
227	0xbeb5ed2c	-0.3553251
228	0xbe6964b3	-0.2279232
229	0xbedceb7c	-0.4314841
230	0xbf337bf3	-0.70111006
231	0xbe153170	-0.1456964
232	0x3eb3d7b6	0.35125512
233	0x3edf090f	0.435616
234	0x3f01a018	0.5063491
235	0xbed5ec24	-0.41781723
236	0xbf536cf8	-0.8258815
237	0xbce22cb6	-0.02760921
238	0x3e75c677	0.2400149
239	0xbef3a686	-0.47587985
240	0x3e781b5f	0.24229191
241	0x3f123f38	0.57127714
242	0xbca7b04d	-0.020469809
243	0xbf019ed4	-0.5063298
244	0x3ee86dc7	0.45396253
245	0x3de9dcfe	0.11419104
246	0x3eafd432	0.3434158
247	0xbf21285a	-0.62952197
248	0x3fb00bbe	1.3753583
249	0xbfb00c9c	-1.3753848
250	0x3f11165f	0.5667476
251	0xbeebf8bf	-0.46088216
252	0x3e9cfba6	0.30660743
253	0xbd3131a4	-0.04326023
254	0x3d9f6632	0.07783164
255	0xbe8df24c	-0.2772392

layers.0.bias f4 [200]
0	0xb5834e39	-9.783026e-07
1	0xbeea3305	-0.4574205
2	0x3f364595	0.71199924
3	0xbee03de3	-0.43797216
4	0x3ec9db99	0.39425352
5	0x3e1b81a2	0.1518617
6	0xbf216142	-0.6303903
7	0x3e697a8d	0.22800656
8	0x3f0da7e6	0.5533432
9	0xbef3153e	-0.47477144
10	0xbeea0342	-0.4570561
11	0x3f4223d2	0.7583591
12	0x3f21f010	0.6325693
13	0xbec9faad	-0.39449063
14	0x3eff27cd	0.49835053
15	0xbeb97292	-0.36220223
16	0xbf40b89e	-0.75281703
17	0x3ea4f024	0.32214463
18	0x3e7763aa	0.24159113
19	0xbe5931e2	-0.21210435
20	0x3e1a4af3	0.15067653
21	0xbf1aca30	-0.60464764
22	0x3ee9d845	0.45672813
23	0x3f2d3c49	0.6767011
24	0x3ea2d8a7	0.31805918
25	0x3e5288ea	0.20560041
26	0x3ea699e6	0.3253929
27	0xbf02f9e4	-0.5116255
28	0xbebf462f	-0.37358233
29	0x3e427da7	0.18993245
30	0xbf0cad3b	-0.5495183
31	0xbf05b45a	-0.5222832
32	0x3f0af991	0.5428706
33	0x3f019180	0.5061264
34	0xbf24664e	-0.64218605
35	0x3e9e302f	0.30896136
36	0x3e554d86	0.20830354
37	0x3f3ced4a	0.73799574
38	0x3ef22078	0.47290397
39	0x3f377bf3	0.71673506
40	0xbea23cdd	-0.3168706
41	0x3f0e98a6	0.55701673
42	0x3f2318b6	0.6370958
43	0xbf2af10f	-0.66774076
44	0xbf114e31	-0.56759936
45	0x3e182d75	0.1486109
46	0x3e99d2ae	0.30043548
47	0xbf05ee1e	-0.52316463
48	0x3e519a7e	0.2046909
49	0xbb3e42e9	-0.002903158
50	0x3e774b5c	0.24149841
51	0xbf099a69	-0.53751236
52	0x3eebe8fa	0.46076185
53	0x3eecdd56	0.46262616
54	0xbefb341a	-0.49063188
55	0xbe7a913f	-0.2446947
56	0x3e15232c	0.14564198
57	0x3e95f600	0.29289246
58	0x3f115af6	0.5677942
59	0x3e0efb94	0.13963157
60	0xbe9c5bf6	-0.3053891
61	0x3f30ec9b	0.6911103
62	0xbeee9515	-0.46598116
63	0xbeecfa4c	-0.4628471
64	0x3ddca1ad	0.10773025
65	0xbf209f1d	-0.6274279
66	0x3e89d348	0.26919007
67	0xbef5a266	-0.47975463
68	0x3e1b0168	0.15137255
69	0x3de7b951	0.11314643
70	0x37b12b91	2.1120331e-05
71	0xbf18a71e	-0.5963
72	0xbf2bede8	-0.6715989
73	0x3ed697b2	0.4191261
74	0x3f17e626	0.59335554
75	0xbf20a1ae	-0.62746704
76	0x3eaef247	0.34169218
77	0xbf054092	-0.5205165
78	0x37b66da7	2.1747152e-05
79	0x3f3858f2	0.7201072
80	0x3f1dade4	0.6159346
81	0xbf0459b6	-0.5169939
82	0x3f001dcb	0.5004546
83	0x3ed70a32	0.41999966
84	0x3e0aac32	0.1354225
85	0x3f4004b2	0.75007164
86	0xbe8fcaf3	-0.28084525
87	0xbe629b28	-0.221295
88	0xbebe9837	-0.37225506
89	0x3e38c4f5	0.18043883
90	0x3e5006f2	0.2031515
91	0x3e1e25e9	0.15444149
92	0xbecbb246	-0.3978445
93	0xbeb77199	-0.35828856
94	0x3e8fc576	0.28080338
95	0xbf1eb8f8	-0.6200099
96	0xbe447c7c	-0.19188112
97	0x3de6467f	0.11243915
98	0xbea5d391	-0.32387975
99	0x3ea846a4	0.32866395
100	0xbe280051	-0.1640637
101	0x3ed27556	0.41105145
102	0xbdf4d499	-0.11954612
103	0xbf0ded6b	-0.55440396
104	0x3f0fc791	0.5616389
105	0x3e952efe	0.29137415
106	0xbe8cae52	-0.27476746
107	0xbef8ddc1	-0.48606685
108	0x3dca6192	0.09881891
109	0xbf2ca5cc	-0.67440486
110	0x3e7214a9	0.23640694
111	0x3edc12df	0.42983148
112	0xbf1eca4e	-0.6202744
113	0xbeed0448	-0.4629233
114	0xbf0223b4	-0.5083573
115	0x3f2e678c	0.6812675
116	0x3f2cf88a	0.6756674
117	0x3e4c0d35	0.19926913
118	0x3f20dade	0.62833965
119	0xbec4ea4a	-0.38459998
120	0xbf2fbcd3	-0.686475
121	0x3e9ba9f4	0.304031
122	0x3ea5acf6	0.3235852
123	0x3f425abb	0.75919694
124	0x34fe2395	4.7337076e-07
125	0x3f204976	0.6261209
126	0x3f01df71	0.5073157
127	0x3f13b8d2	0.5770389
128	0xbf33a19d	-0.7016848
129	0x3f23d7de	0.6400126
130	0xbf1a4f7a	-0.6027752
131	0x3f37d0c2	0.71802914
132	0x3e25035f	0.16114567
133	0xbf206c24	-0.6266501
134	0x3eb09080	0.34485245
135	0x37987b06	1.81771e-05
136	0xbf229722	-0.6351186
137	0xbf03b550	-0.51448536
138	0xbd2c9302	-0.042132385
139	0x3f0c848c	0.5488975
140	0xbeb6d559	-0.35709646
141	0x3ec61163	0.3868514
142	0x3e8fe525	0.2810451
143	0x3e5debaf	0.21671937
144	0x3e4d9a04	0.20078284
145	0xbeed983b	-0.46405205
146	0xbf167684	-0.5877459
147	0xbea71d54	-0.32639563
148	0xbf28af00	-0.6589203
149	0xbef12b1d	-0.47103205
150	0x3e5fa546	0.2184039
151	0xbef55051	-0.4791284
152	0xbea97ddc	-0.33103836
153	0xbe87d265	-0.26527706
154	0xbee1210c	-0.43970525
155	0xbeb1c0d2	-0.34717423
156	0x36bbd383	5.5976575e-06
157	0xb4193e83	-1.4271977e-07
158	0x3e5c7a89	0.21531118
159	0x3e204038	0.15649498
160	0xbef87edd	-0.4853429
161	0xbec56494	-0.38553298
162	0x3e08932f	0.13337396
163	0xbee1e824	-0.44122422
164	0x3e8560ba	0.2605036
165	0x37b6a01d	2.177065e-05
166	0x3eb16567	0.34647676
167	0x3e6c07ca	0.23049846
168	0x3f1974ff	0.59944147
169	0x3e3c1d4e	0.18370554
170	0xbf18c0e0	-0.59669304
171	0x3e941b7e	0.28927225
172	0xbef4adf0	-0.47788954
173	0xbe5bfe6d	-0.21483774
174	0xbe87fd7c	-0.2656058
175	0xbeadb3de	-0.3392629
176	0xbe97241a	-0.2951973
177	0x3f12306a	0.57105124
178	0x3eef54e9	0.4674447
179	0x3e7b5515	0.24544175
180	0x3f2a6ff2	0.66577065
181	0xbf2791d6	-0.65456903
182	0x3e344abd	0.17606635
183	0x3f087618	0.53305197
184	0x3f0b7049	0.5446821
185	0xbf10109e	-0.56275356
186	0x3e85850f	0.26078078
187	0xbf013dab	-0.5048472
188	0x37899177	1.639941e-05
189	0xbe409aa8	-0.18808997
190	0xbf17250c	-0.59040904
191	0xbf2cad4d	-0.67451936
192	0xbeee2f3b	-0.4652041
193	0x3e6fb346	0.23408231
194	0x3ec5aec7	0.38609907
195	0xbf1d71ad	-0.6150158
196	0xbe7264d7	-0.2367128
197	0x3e617449	0.22017016
198	0xbf1c8193	-0.61135215
199	0x3eec7df9	0.4618986

layers.2.weight f4 [1, 200]
0	0x3f5517de	0.83239543
1	0xbfdcdd73	-1.7255081
2	0xbdc961a2	-0.09833075
3	0xbf8518f6	-1.0398242
4	0xbd5ef340	-0.0544312
5	0xbce2f338	-0.027703866
6	0xbfb80191	-1.4375478
7	0xbddccdc9	-0.10781438
8	0xbd326224	-0.043550625
9	0xbe8d800e	-0.2763676
10	0xbcb45a1c	-0.022015624
11	0xbdb01975	-0.085986055
12	0xbdb2f585	-0.087382354
13	0x3d600971	0.054696504
14	0xbd7e5b63	-0.062098872
15	0xbf98afca	-1.1928647
16	0x3d709ef3	0.058745336
17	0xbe04f879	-0.1298541
18	0xbd12e8de	-0.03586661
19	0xbb96ca31	-0.00460174
20	0xbabdf3ea	-0.0014492248
21	0xbd7962ce	-0.060885243
22	0xbd2c3340	-0.042041063
23	0xbd895feb	-0.06707748
24	0xbc161556	-0.00916036
25	0xbd626c96	-0.055279337
26	0xbdf70570	-0.12061584
27	0xbbef02c9	-0.007294033
28	0xbee608be	-0.44928545
29	0xbede2f60	-0.4339552
30	0xbf98330d	-1.189058
31	0xbc77f976	-0.01513516
32	0xbda0f615	-0.078594364
33	0xbd3799ec	-0.044824526
34	0x3d3a4074	0.045471624
35	0xbd4b43e1	-0.04962528
36	0xbc0a18b3	-0.00842874
37	0xbda83639	-0.08213467
38	0xbdb4e5cc	-0.08832893
39	0xbdc6f226	-0.09714155
40	0xbf0f4c94	-0.55976224
41	0xbdeeb46f	-0.11655509
42	0xbde599ea	-0.112109974
43	0xbd754948	-0.05988434
44	0x3c9077da	0.017635275
45	0x3e3642d5	0.17798932
46	0xba247b4b	-0.00062744756
47	0x3d3028d7	0.043007698
48	0xbe1e2e3d	-0.15447326
49	0xbc71367a	-0.014722461
50	0xbd946d6f	-0.07247435
51	0xbf05de2b	-0.52292126
52	0xbdf6e0a5	-0.12054566
53	0xbd0351e9	-0.032060537
54	0x3c4b0c8e	0.01239313
55	0xbfbb9d27	-1.4657334
56	0xbe9cfa1f	-0.30659577
57	0xbdbb72af	-0.091527335
58	0xbaa10906	-0.0012286014
59	0xbc2668f9	-0.010156863
60	0x3dce3ff4	0.10070792
61	0xbd56a248	-0.052400857
62	0xbf95158b	-1.1647199
63	0xbf860147	-1.046914
64	0xbdf62518	-0.12018794
65	0x3ed8fcc1	0.42380336
66	0xbde5ee02	-0.11227037
67	0x3d35fafd	0.044428814
68	0xbd89d06e	-0.06729208
69	0xbde2d20c	-0.110752195
70	0x3e629006	0.22125253
71	0x3c7aacc8	0.015299983
72	0xbccd72fe	-0.025079247
73	0xbdb8af00	-0.090177536
74	0xbd437934	-0.04772301
75	0x3c3aa87a	0.011392707
76	0xbdcd5eae	-0.10027824
77	0x3d58d8e7	0.05294123
78	0x3e84fcfa	0.25974256
79	0xbde6bf73	-0.11266985
80	0xbd7f3d58	-0.06231436
81	0xbbd489c8	-0.0064861514
82	0xbdb96e03	-0.09054186
83	0xbd99ebbb	-0.07515665
84	0xbe81ae53	-0.2532831
85	0xbdc3c3a5	-0.095588006
86	0xbcb1fbb6	-0.02172647
87	0xbf15a2f1	-0.58451754
88	0x3e2e91ce	0.17047808
89	0xbd63ea78	-0.05564353
90	0xbd4ce2fe	-0.050021164
91	0xbdc631a1	-0.09677435
92	0x3c7aab22	0.01529959
93	0x3cdd866c	0.027041636
94	0xbcbf3f87	-0.023345722
95	0xbd5931c1	-0.053025965
96	0xbcd03ac0	-0.02541864
97	0xbe6f4dea	-0.23369566
98	0xbef7e328	-0.48415494
99	0xbd412d01	-0.04716206
100	0x3ef4636d	0.47732106
101	0xbbc54a16	-0.0060207946
102	0xbf8493ff	-1.0357665
103	0xbf3a84d7	-0.7285895
104	0xbdc1b6da	-0.09458704
105	0xbe77702a	-0.24163881
106	0xbf38711b	-0.72047585
107	0xbf234c2f	-0.6378812
108	0x3c2c5293	0.010517734
109	0x3d722447	0.059116628
110	0xbde69644	-0.1125913
111	0xbd73e553	-0.059544872
112	0xbca46026	-0.020065378
113	0xb98171db	-0.00024689626
114	0x3cb1ae68	0.021689609
115	0xbd8deb3f	-0.06929635
116	0xbd2a9829	-0.041649017
117	0xbe250af1	-0.16117455
118	0xbd28754b	-0.041127484
119	0x3e35968c	0.1773321
120	0xbd25082a	-0.04029099
121	0xbd44c6c2	-0.048041113
122	0xbd2ebd8c	-0.042661235
123	0xbdafc33d	-0.085821606
124	0x3fa53a3e	1.2908399
125	0xbd480ecd	-0.04884224
126	0xbd6afeef	-0.05737203
127	0xbdb4ea3f	-0.088337414
128	0xbc11a62d	-0.008889717
129	0xbe053d6c	-0.13011712
130	0x3c7bd744	0.015371148
131	0xbd64d257	-0.05586466
132	0xbef9f393	-0.48818645
133	0x3b8ef6ef	0.004362933
134	0xbd9cffbd	-0.07665966
135	0x3f0a4d5c	0.5402429
136	0x3d52991a	0.05141554
137	0xbfb3f8b4	-1.4060273
138	0xbd14df20	-0.0363456
139	0xbcf069a2	-0.029347245
140	0xbf2daa4d	-0.67837983
141	0xbd31a917	-0.043374147
142	0xbe70c0cb	-0.23511045
143	0xbe5144b3	-0.20436363
144	0xbdba8ee1	-0.09109283
145	0xbd3c48d4	-0.04596789
146	0x3d59f7f9	0.053215
147	0xbf30f68a	-0.6912619
148	0x3d0a627c	0.03378533
149	0xbfaf6ca4	-1.370503
150	0xbe2a57c1	-0.16635038
151	0xbe175a50	-0.14780545
152	0xbf4c87ac	-0.7989452
153	0xbee6b678	-0.45061088
154	0xbffeb3bf	-1.9898604
155	0xbf06209d	-0.52393514
156	0x3ee2d1e4	0.4430076
157	0x3ee2e1f3	0.4431301
158	0xbd4f30cc	-0.050583646
159	0xbe1236d8	-0.14278734
160	0xbf2cf13b	-0.6755559
161	0x3d4d9123	0.05018724
162	0xbe6449fe	-0.22293851
163	0xbc3c7678	-0.0115028545
164	0xbe1e6036	-0.15466389
165	0x3f36991f	0.71327394
166	0xbda93036	-0.08261149
167	0xbdebaac6	-0.11507182
168	0xbd8e4939	-0.0694756
169	0xbedce890	-0.4314618
170	0x3c9b8871	0.018985959
171	0xbcd1c878	-0.025608286
172	0xbc62a178	-0.013832442
173	0x3bff5621	0.00779225
174	0xbeed8e94	-0.4639784
175	0xbf0fb7ba	-0.5613972
176	0x3d8380da	0.06421061
177	0xbc36b533	-0.0111516
178	0xbda13242	-0.07870914
179	0xbe17bb6d	-0.14817591
180	0xbd0ddcd0	-0.03463441
181	0xbfa2dfdb	-1.2724565
182	0xbdca4145	-0.098757304
183	0xbe0db86d	-0.13839884
184	0xbd441fd2	-0.04788191
185	0x3d2bdd8a	0.041959323
186	0xbded1a73	-0.115773104
187	0xbf5c0e5f	-0.8595943
188	0x3f47bc81	0.7802201
189	0xbee09744	-0.43865407
190	0x3be96c1e	0.0071234843
191	0xbc898201	-0.016785624
192	0xbd090953	-0.033456158
193	0x3a45fd35	0.00075526844
194	0xbddf05e3	-0.10889795
195	0x3c223c2a	0.00990204
196	0xbecf3f05	-0.40477768
197	0xbe25c0ec	-0.16186875
198	0xbcf5f6b4	-0.030024864
199	0xbd646bf4	-0.055767015

grad_avg f4 [26, 1]
0	0x00000000	0.0
1	0xbd460c41	-0.04835153
2	0x3b825d54	0.0039784107
3	0x3d5f8cb5	0.054577548
4	0x38ae0fb0	8.2998886e-05
5	0xbbbb20b1	-0.005710684
6	0xbbeed1fa	-0.0072882148
7	0xbb854e92	-0.004068204
8	0x3b44e0bc	0.0030041179
9	0xbd3f8234	-0.04675503
10	0xbd0da5e0	-0.03458202
11	0xbc84a4d9	-0.016191887
12	0xbcbb7f36	-0.022887807
13	0x3cc0a80a	0.023517627
14	0x3da28fd9	0.07937593
15	0xbb5398de	-0.003228716
16	0x3c9e042a	0.019289095
17	0xbb5ec41a	-0.0033991397
18	0x3c3d9d84	0.011573199
19	0x3c0076dc	0.007840838
20	0x3d66f984	0.0563903
21	0xbc17d2a0	-0.0092665255
22	0xbc8b93ee	-0.017038312
23	0xbb98cd74	-0.004663164
24	0x3d10eeae	0.035383873
25	0xbc44e388	-0.012017138

sqr_avg f4 [26, 1]
0	0x00000000	0.0
1	0x3bfab92e	0.0076514697
2	0x3bad57b8	0.005289998
3	0x3c3aaa2e	0.011393113
4	0x3b214eeb	0.002461369
5	0x3a870636	0.0010301534
6	0x3b5eec99	0.0034015535
7	0x3b744c22	0.0037276824
8	0x3b34140d	0.0027477772
9	0x3c8472f4	0.016168095
10	0x3b9ea35f	0.0048412527
11	0x3c185603	0.009297851
12	0x3c2beac2	0.010492982
13	0x3bd9cfb9	0.006647077
14	0x3cca1d24	0.024672098
15	0x3c0beb6c	0.008540016
16	0x3bd961b7	0.006633963
17	0x3a2c2940	0.0006567426
18	0x3b653e96	0.003497993
19	0x3b363aa4	0.0027805949
20	0x3c88d270	0.016701907
21	0x3c92f902	0.017941002
22	0x3bf90365	0.0075992816
23	0x3b1ba95e	0.0023752074
24	0x3c835b39	0.01603471
25	0x3bab0d72	0.0052201087

grad_avg f4 [200, 2]
0	0xbb3bbff4	-0.0028648349
1	0xbaa2b565	-0.0012413679
2	0xbb86d21c	-0.0041144025
3	0x3b8d0e5a	0.0043046894
4	0x3a102e88	0.0005500098
5	0x38628a18	5.401121e-05
6	0xbb3b1d10	-0.0028551258
7	0xbabcd3f0	-0.0014406424
8	0x361b4120	2.3134708e-06
9	0xb9b41b14	-0.0003435245
10	0x3878747c	5.9236292e-05
11	0xb7ec3c04	-2.816134e-05
12	0xbb3d35c1	-0.002887115
13	0x3a8ecc4c	0.0010894625
14	0x3a1e1720	0.00060306676
15	0x3878532a	5.920526e-05
16	0x36b49f88	5.38299e-06
17	0x383b2394	4.461741e-05
18	0xb9a915e0	-0.0003225049
19	0xba0874b2	-0.0005205377
20	0x00000000	0.0
21	0x00000000	0.0
22	0x39fc2872	0.0004809532
23	0x384615ca	4.722717e-05
24	0x3a0020d1	0.00048877025
25	0x38494d7a	4.799429e-05
26	0x00000000	0.0
27	0x00000000	0.0
28	0x39b61fd7	0.00034737468
29	0x380f00ba	3.4094533e-05
30	0x3a899123	0.0010495525
31	0x3b376092	0.0027981144
32	0x2d5f8b47	1.2707008e-11
33	0x2d5f8b47	1.2707008e-11
34	0x39b81cf3	0.00035116784
35	0xba6699fe	-0.00087967503
36	0x39526706	0.0002006554
37	0x37a508f2	1.9673698e-05
38	0x00000000	0.0
39	0x00000000	0.0
40	0x37089240	8.140283e-06
41	0x35517f37	7.804369e-07
42	0x00000000	0.0
43	0x00000000	0.0
44	0x394e6c88	0.00019686122
45	0xb89cf2a0	-7.483852e-05
46	0x39c4b56c	0.00037519203
47	0x381a888c	3.684363e-05
48	0x38571758	5.1281735e-05
49	0x36a89132	5.023693e-06
50	0x39a21e28	0.00030921516
51	0x37fe96f6	3.0349456e-05
52	0xb9d11e0c	-0.00039885973
53	0xb8e56c32	-0.00010939724
54	0x00000000	0.0
55	0x00000000	0.0
56	0x3806c90b	3.2135325e-05
57	0x37e1f4f4	2.6936155e-05
58	0x3b83aa29	0.0040180874
59	0xbb6498f1	-0.00348812
60	0x3a976d33	0.001155293
61	0x3b45525f	0.0030108911
62	0x00000000	0.0
63	0x00000000	0.0
64	0x39e67ee8	0.0004396357
65	0x3834fe98	4.3152453e-05
66	0x38fe429a	0.00012124069
67	0xb99f3a25	-0.00030370164
68	0x00000000	0.0
69	0x00000000	0.0
70	0x39909cee	0.00027582742
71	0x37f4a54e	2.9164043e-05
72	0x38809eec	6.133117e-05
73	0xb86c60d1	-5.6356952e-05
74	0x39f0e0e0	0.00045943912
75	0x383d2650	4.5096793e-05
76	0x3a018361	0.00049405365
77	0x384b848b	4.852241e-05
78	0x3a106354	0.0005507965
79	0x387eef3d	6.0781127e-05
80	0xb84e67a6	-4.9210757e-05
81	0xb8d3640e	-0.00010079901
82	0x3a321ca1	0.0006794427
83	0x38bfeea8	9.152043e-05
84	0x3a2462f4	0.00062708487
85	0x38812023	6.157185e-05
86	0x00000000	0.0
87	0x00000000	0.0
88	0x00000000	0.0
89	0x00000000	0.0
90	0x3b05f403	0.0020439632
91	0x3a093a86	0.0005234856
92	0x36742db5	3.6385438e-06
93	0x34d31ac0	3.9321276e-07
94	0xb180d36f	-3.7493275e-09
95	0xb180d36f	-3.7493275e-09
96	0xba12e1ac	-0.0005603086
97	0xb8bd93f0	-9.039778e-05
98	0x39493c8f	0.00019191414
99	0xb82ade02	-4.073792e-05
100	0x39e7e3ab	0.0004422938
101	0x38a7796f	7.985799e-05
102	0x37be5588	2.2689594e-05
103	0x38050af2	3.1719865e-05
104	0x3a30befa	0.0006742325
105	0x388ae100	6.622262e-05
106	0xb7dd20a2	-2.6360449e-05
107	0xb90dffb2	-0.00013542062
108	0x00000000	0.0
109	0x00000000	0.0
110	0xbba9aa34	-0.0051777605
111	0x3c4da646	0.01255185
112	0x3b360602	0.0027774577
113	0xbb2042de	-0.0024453918
114	0x3a0633d9	0.000511942
115	0x3852d446	5.0265597e-05
116	0x36e7be0e	6.9064617e-06
117	0x3530cc8b	6.586276e-07
118	0x386e8288	5.686519e-05
119	0x36ba3ae8	5.5500896e-06
120	0xb822e989	-3.8841306e-05
121	0x39934895	0.00028092103
122	0x3999ae4c	0.00029312295
123	0x37f14400	2.8761104e-05
124	0xbbd1ec72	-0.0064063603
125	0xbb5289bd	-0.0032125555
126	0xbb6b3214	-0.0035888003
127	0xbaae4f87	-0.0013298847
128	0x3a67bb78	0.00088398857
129	0xb99272c6	-0.00027932803
130	0x3b3d1368	0.0028850678
131	0xbb0d68f5	-0.0021577452
132	0x399f2f4b	0.0003036208
133	0xba4760c2	-0.00076056656
134	0x00000000	0.0
135	0x00000000	0.0
136	0x391756a0	0.00014432753
137	0xb88a957e	-6.608198e-05
138	0xb9980fa5	-0.00029003355
139	0x3a1b0e7d	0.00059149397
140	0xb9f88355	-0.00047400096
141	0x395ca47c	0.0002104211
142	0x00000000	0.0
143	0x00000000	0.0
144	0x00000000	0.0
145	0x00000000	0.0
146	0x39b45bdc	0.00034400716
147	0xba6ea25e	-0.0009103174
148	0x3999f231	0.0002936288
149	0x385dbe03	5.286747e-05
150	0x00000000	0.0
151	0x00000000	0.0
152	0x3961832c	0.00021506537
153	0xb8ce7879	-9.845285e-05
154	0x00000000	0.0
155	0x00000000	0.0
156	0xba139c75	-0.0005630919
157	0x397c0d52	0.00024037555
158	0x3a35b661	0.00069317786
159	0x3902ec9e	0.00012485913
160	0x39b6c015	0.00034856857
161	0x380f819a	3.4214558e-05
162	0x00000000	0.0
163	0x00000000	0.0
164	0x3a04c332	0.0005064487
165	0x3850945c	4.9729235e-05
166	0xb97f7f20	-0.00024366053
167	0x394ec32a	0.00019718395
168	0xba814160	-0.0009861402
169	0x3a879faa	0.0010347266
170	0x3a0c27c3	0.0005346501
171	0x385c372c	5.250347e-05
172	0x00000000	0.0
173	0x00000000	0.0
174	0x3ab95d93	0.0014142267
175	0xbbc62364	-0.0060466994
176	0xb9b3d21f	-0.00034298093
177	0x3916a15a	0.00014365223
178	0x38fa4a2a	0.00011934743
179	0xb865390d	-5.4650987e-05
180	0x3951aefc	0.0001999698
181	0xb92d133b	-0.0001650573
182	0x3a64b86c	0.0008724991
183	0xba49c045	-0.0007696192
184	0x00000000	0.0
185	0x00000000	0.0
186	0xb0c8313e	-1.4565911e-09
187	0xb0c8313e	-1.4565911e-09
188	0x396f9161	0.00022846974
189	0xb80addc3	-3.3108296e-05
190	0x00000000	0.0
191	0x00000000	0.0
192	0x801a7077	-2.428068e-39
193	0x001e1a1a	2.764428e-39
194	0x3b0ad855	0.0021186073
195	0xbaf4e502	-0.0018683972
196	0x3b8c6e5c	0.004285617
197	0xba81637c	-0.0009871568
198	0x3905c133	0.0001275584
199	0xb9a786cd	-0.00031953157
200	0xbbad433a	-0.005287555
201	0xbba588de	-0.005051716
202	0x380d699a	3.371537e-05
203	0x365c34fa	3.281339e-06
204	0x3b9e8b20	0.0048383623
205	0x3ad036eb	0.0015885507
206	0xb84fe966	-4.9570015e-05
207	0xb7184332	-9.075551e-06
208	0x3a0ab1ba	0.00052907655
209	0x3859e950	5.195412e-05
210	0x3a5969a7	0.00082936365
211	0x3b26dbd2	0.0025460613
212	0xbbc6e2b1	-0.006069504
213	0x3a4bd703	0.00077758747
214	0xbb204dfd	-0.0024460547
215	0x3989733a	0.00026216527
216	0xb7d11dab	-2.4928557e-05
217	0xb74ba624	-1.21384255e-05
218	0x00000000	0.0
219	0x00000000	0.0
220	0xb99023b9	-0.00027492436
221	0x39a336de	0.00031130662
222	0x39aea383	0.00033309692
223	0x380913b3	3.268169e-05
224	0x00000000	0.0
225	0x00000000	0.0
226	0x00000000	0.0
227	0x00000000	0.0
228	0x00000000	0.0
229	0x00000000	0.0
230	0x39cb3632	0.00038759556
231	0x381f9b88	3.8053404e-05
232	0x39744ff2	0.00023299435
233	0x37bfd780	2.2869324e-05
234	0xba6663bc	-0.0008788665
235	0x3a8f1066	0.0010914921
236	0x39713626	0.00023003723
237	0x37bd6deb	2.258174e-05
238	0x3a9e37b3	0.0012071043
239	0xba6cb026	-0.0009028934
240	0x00000000	0.0
241	0x00000000	0.0
242	0xb9cf6567	-0.00039557667
243	0x38be27ae	9.067297e-05
244	0x39820d5f	0.00024805494
245	0x37ec91e1	2.8201322e-05
246	0x39fbb0e2	0.0004800624
247	0x3845a1de	4.711921e-05
248	0xbbe2ec49	-0.00692514
249	0xbb906bc8	-0.00440738
250	0x398f4219	0.00027324332
251	0x37e0d8cb	2.6803833e-05
252	0x39a84407	0.0003209414
253	0x38041cdb	3.1498126e-05
254	0x3a01882a	0.00049412495
255	0x384b72e8	4.8505986e-05

sqr_avg f4 [200, 2]
0	0x3acad34f	0.0015474352
1	0x3a6848ec	0.0008860964
2	0x3a06ba25	0.0005139432
3	0x3a147d93	0.0005664464
4	0x37e31595	2.7070559e-05
5	0x38015072	3.0830917e-05
6	0x3912f415	0.00014014573
7	0x37f2fe0f	2.8966953e-05
8	0x367c8879	3.7630364e-06
9	0x36fbb19f	7.5010607e-06
10	0x35f550ca	1.8277435e-06
11	0x3608e58e	2.0399198e-06
12	0x39a36155	0.000311623
13	0x399737de	0.0002884259
14	0x380889bc	3.2553202e-05
15	0x381b7e8d	3.707274e-05
16	0x369d56db	4.689076e-06
17	0x36c218ec	5.784552e-06
18	0x379487ad	1.7706154e-05
19	0x36494a0d	2.9994437e-06
20	0x00000000	0.0
21	0x00000000	0.0
22	0x37ad59f6	2.0665098e-05
23	0x37c5711f	2.3536906e-05
24	0x37b33467	2.1362865e-05
25	0x37cc1a00	2.4330802e-05
26	0x00000000	0.0
27	0x00000000	0.0
28	0x37354b35	1.0805951e-05
29	0x374e762c	1.2306071e-05
30	0x381db45d	3.7599693e-05
31	0x393555b6	0.00017293435
32	0x2ade8893	3.952989e-13
33	0x2ade8893	3.952989e-13
34	0x383e549a	4.537832e-05
35	0x384a3728	4.821192e-05
36	0x3671a9ce	3.6010638e-06
37	0x3689971c	4.1005096e-06
38	0x00000000	0.0
39	0x00000000	0.0
40	0x31c6b763	5.783407e-09
41	0x31e20147	6.577611e-09
42	0x00000000	0.0
43	0x00000000	0.0
44	0x36979eb9	4.5186284e-06
45	0x36a9d441	5.061302e-06
46	0x3752efe1	1.2572827e-05
47	0x37704181	1.4320366e-05
48	0x34808362	2.3937451e-07
49	0x34924183	2.7242285e-07
50	0x370f42f0	8.539049e-06
51	0x3723281b	9.724895e-06
52	0x380b71df	3.3246233e-05
53	0x37b5a17e	2.1652082e-05
54	0x00000000	0.0
55	0x00000000	0.0
56	0x326ed19c	1.3901083e-08
57	0x32f065d1	2.7985978e-08
58	0x39f792e8	0.00047220965
59	0x3a0a50c5	0.0005276318
60	0x38224c9c	3.8695158e-05
61	0x394321c3	0.00018609226
62	0x00000000	0.0
63	0x00000000	0.0
64	0x3791160c	1.7295613e-05
65	0x37a53b3c	1.9697116e-05
66	0x36b509d6	5.3953654e-06
67	0x36c01711	5.724731e-06
68	0x00000000	0.0
69	0x00000000	0.0
70	0x36e88338	6.9294147e-06
71	0x3704f176	7.924033e-06
72	0x3433082f	1.6673651e-07
73	0x343e6cbd	1.7734688e-07
74	0x379e7d92	1.8893541e-05
75	0x37b47f20	2.151687e-05
76	0x37b70b08	2.1820437e-05
77	0x37d07a9a	2.4852623e-05
78	0x37dd2213	2.636112e-05
79	0x37fbb368	3.0005074e-05
80	0x332f28d4	4.0782496e-08
81	0x336ed975	5.561147e-08
82	0x381f0be4	3.7919628e-05
83	0x38354b22	4.3223736e-05
84	0x381390c9	3.5182373e-05
85	0x38280fbd	4.006898e-05
86	0x00000000	0.0
87	0x00000000	0.0
88	0x00000000	0.0
89	0x00000000	0.0
90	0x3848b0e8	4.7848473e-05
91	0x38273f55	3.9874885e-05
92	0x3092eddb	1.0690501e-09
93	0x309cf13d	1.1419058e-09
94	0x2c28f3cf	2.4009577e-12
95	0x2c28f3cf	2.4009577e-12
96	0x38661a34	5.4860677e-05
97	0x381a34c3	3.67656e-05
98	0x34bf2150	3.560076e-07
99	0x351cebee	5.845785e-07
100	0x377879d0	1.4810314e-05
101	0x378ce396	1.6795278e-05
102	0x32ffcf83	2.9780272e-08
103	0x32811c1b	1.5030357e-08
104	0x382a5332	4.060864e-05
105	0x3841ff8b	4.625278e-05
106	0x3636df04	2.7249926e-06
107	0x3629d2cc	2.5305662e-06
108	0x00000000	0.0
109	0x00000000	0.0
110	0x3a7caf70	0.00096391793
111	0x3a95d5c3	0.0011431504
112	0x397868d9	0.00023690182
113	0x398a59b9	0.0002638826
114	0x37c440b5	2.3395152e-05
115	0x37df8609	2.6646087e-05
116	0x318c16d1	4.07713e-09
117	0x319f7bf0	4.641599e-09
118	0x349cadc5	2.9183698e-07
119	0x34b239d5	3.3197162e-07
120	0x369660f9	4.4816375e-06
121	0x36a8ad36	5.0269546e-06
122	0x3700b41c	7.6713295e-06
123	0x371294bb	8.736907e-06
124	0x39298123	0.00016165203
125	0x3900fecf	0.00012301955
126	0x39449bd4	0.00018750067
127	0x39263114	0.00015849277
128	0x379e2c6c	1.8855753e-05
129	0x3811f924	3.4802724e-05
130	0x38725104	5.7772748e-05
131	0x38925b8b	6.978874e-05
132	0x380e3f19	3.3914203e-05
133	0x38171f60	3.6030426e-05
134	0x00000000	0.0
135	0x00000000	0.0
136	0x3736e99d	1.0902438e-05
137	0x374b4b44	1.2117267e-05
138	0x37eaa37a	2.7971098e-05
139	0x37a0bbc4	1.9160922e-05
140	0x3844745c	4.683841e-05
141	0x38ed8909	0.000113265654
142	0x00000000	0.0
143	0x00000000	0.0
144	0x00000000	0.0
145	0x00000000	0.0
146	0x3742a3eb	1.1601466e-05
147	0x37bd8ab6	2.2595148e-05
148	0x36d50fab	6.3497187e-06
149	0x36f23ffc	7.219611e-06
150	0x00000000	0.0
151	0x00000000	0.0
152	0x37cb90b2	2.4266865e-05
153	0x37e179d3	2.6878819e-05
154	0x00000000	0.0
155	0x00000000	0.0
156	0x38873d13	6.4486776e-05
157	0x3923e1af	0.00015628965
158	0x3814c61d	3.5470457e-05
159	0x382923f7	4.0326235e-05
160	0x3736346f	1.08602535e-05
161	0x374f839c	1.2368804e-05
162	0x00000000	0.0
163	0x00000000	0.0
164	0x37c08dbf	2.295419e-05
165	0x37db4c37	2.6142325e-05
166	0x3768d951	1.38788755e-05
167	0x371e37ba	9.430509e-06
168	0x3906fd26	0.00012873541
169	0x38a4825a	7.844409e-05
170	0x37d61b3f	2.5523475e-05
171	0x37f3dd9b	2.907105e-05
172	0x00000000	0.0
173	0x00000000	0.0
174	0x39a2c723	0.00031047416
175	0x3a0bd219	0.0005333736
176	0x373da12d	1.13028045e-05
177	0x371021a8	8.590905e-06
178	0x36f9c7fb	7.444059e-06
179	0x370a8fda	8.258934e-06
180	0x36405292	2.8658292e-06
181	0x36c3d260	5.8359437e-06
182	0x37c5fce8	2.3601999e-05
183	0x37dc87a6	2.628921e-05
184	0x00000000	0.0
185	0x00000000	0.0
186	0x2b45a5cb	7.0218543e-13
187	0x2b45a5cb	7.0218543e-13
188	0x35cc3f55	1.5217616e-06
189	0x35d9a858	1.6216754e-06
190	0x00000000	0.0
191	0x00000000	0.0
192	0x29fcff66	1.12353527e-13
193	0x2a225203	1.4416944e-13
194	0x391092eb	0.00013787641
195	0x39201a19	0.00015268511
196	0x3958bde1	0.000206701
197	0x39b4fdaa	0.0003452127
198	0x36c84203	5.9681493e-06
199	0x36d4cc32	6.341864e-06
200	0x39b97306	0.0003537165
201	0x39d1d560	0.00040022563
202	0x33d7157e	1.0015627e-07
203	0x33f4e0a1	1.1402995e-07
204	0x39e101b4	0.00042916613
205	0x39962110	0.00028634863
206	0x33b58168	8.452008e-08
207	0x334ab980	4.72005e-08
208	0x37d24749	2.5067146e-05
209	0x37ef7b31	2.8548386e-05
210	0x390cde04	0.00013434148
211	0x38cd1796	9.779555e-05
212	0x3a66799e	0.0008791926
213	0x3a1921d2	0.00058415264
214	0x3845ed5d	4.7189522e-05
215	0x3877fc29	5.912423e-05
216	0x3493c850	2.752663e-07
217	0x34ad6447	3.2296722e-07
218	0x00000000	0.0
219	0x00000000	0.0
220	0x37fd8f17	3.0226582e-05
221	0x37a634b4	1.9813284e-05
222	0x3726b0b3	9.935512e-06
223	0x373dd282	1.13142905e-05
224	0x00000000	0.0
225	0x00000000	0.0
226	0x00000000	0.0
227	0x00000000	0.0
228	0x00000000	0.0
229	0x00000000	0.0
230	0x37609c90	1.3387893e-05
231	0x377fd75b	1.5249326e-05
232	0x36a370c7	4.8709076e-06
233	0x36ba1fc8	5.546932e-06
234	0x3880145f	6.10731e-05
235	0x382b941c	4.0907515e-05
236	0x369db53a	4.700062e-06
237	0x36b3a79d	5.3541285e-06
238	0x372497ce	9.8105065e-06
239	0x37488502	1.1951897e-05
240	0x00000000	0.0
241	0x00000000	0.0
242	0x36d102e4	6.229022e-06
243	0x36a060e9	4.7796534e-06
244	0x36acce9d	5.1500524e-06
245	0x36c3fcd3	5.8408855e-06
246	0x37ad0717	2.0626509e-05
247	0x37c50d24	2.349035e-05
248	0x3b741636	0.0037244684
249	0x3b0c0259	0.0021363704
250	0x36e0d87c	6.7009223e-06
251	0x370003c9	7.630276e-06
252	0x371aea4b	9.233666e-06
253	0x37306a1a	1.0515121e-05
254	0x37b731b1	2.183844e-05
255	0x37d0a2ca	2.4871337e-05

grad_avg f4 [200]
0	0xbaca13e6	-0.0015417307
1	0x3a418904	0.00073827826
2	0xbb3f0cf2	-0.0029152003
3	0xbb81f746	-0.003966245
4	0xbb123fa7	-0.0022315772
5	0xba83e48c	-0.0010062619
6	0xbab0f135	-0.001349962
7	0xbb5179a0	-0.0031963363
8	0xbad65a00	-0.0016353726
9	0xba1165e5	-0.00055464945
10	0x00000000	0.0
11	0xbb271042	-0.0025491868
12	0xbb29c6c0	-0.0025905818
13	0x00000000	0.0
14	0xbaf14a76	-0.0018409032
15	0x3b866d37	0.004102375
16	0x2d9ef912	1.807313e-11
17	0xbbacee60	-0.00527744
18	0xba8b57fc	-0.001063108
19	0x00000000	0.0
20	0xb8331524	-4.2696614e-05
21	0x00000000	0.0
22	0xbab6ef70	-0.0013956856
23	0xbb0252c8	-0.0019885767
24	0xb98e42f3	-0.00027134232
25	0xbad6ca4b	-0.0016387192
26	0xbb81b9b5	-0.0039589056
27	0x00000000	0.0
28	0xb83330aa	-4.2722248e-05
29	0xbbffafed	-0.0078029544
30	0x3b90d94c	0.004420435
31	0x00000000	0.0
32	0xbb18b280	-0.0023299754
33	0xbaeec0d8	-0.0018215431
34	0x00000000	0.0
35	0xbac138fc	-0.0014741714
36	0xb9a34a52	-0.00031145156
37	0xbb1f938f	-0.0024349426
38	0xbb2b9e36	-0.002618683
39	0xbb3c0b03	-0.0028693087
40	0x3928bfbc	0.00016093155
41	0xbb5fbbb4	-0.003413898
42	0xbb59d2b1	-0.0033237154
43	0x00000000	0.0
44	0x00000000	0.0
45	0x3a9e640f	0.0012084263
46	0xb7984f44	-1.8156723e-05
47	0x31cc8caf	5.9531753e-09
48	0xbbb1ff15	-0.0054320195
49	0xb90ba546	-0.00013317642
50	0xbb11c8bb	-0.0022244889
51	0xb816f077	-3.5986737e-05
52	0xbb6a383c	-0.0035739085
53	0xba9d6b01	-0.0012010039
54	0x00000000	0.0
55	0xbc92e479	-0.01793121
56	0xbbad7c1d	-0.0052943365
57	0xbb31d472	-0.0027134684
58	0xb817a1f8	-3.615205e-05
59	0xb99db842	-0.00030082656
60	0x3a23f9ce	0.00062551803
61	0xbacb99d6	-0.0015533518
62	0xbc179a19	-0.009253048
63	0xbb96703d	-0.0045910166
64	0xbba00543	-0.0048834397
65	0x3ba58b18	0.0050519817
66	0xbb958355	-0.004562775
67	0x00000000	0.0
68	0xbb1ffd0b	-0.00244123
69	0xbb37a4e0	-0.0028021857
70	0x3be6e889	0.0070467633
71	0x00000000	0.0
72	0x00000000	0.0
73	0xbb390867	-0.0028233768
74	0xbab3b874	-0.0013711588
75	0x00000000	0.0
76	0xbb6e6c48	-0.0036380459
77	0x00000000	0.0
78	0x3c06e316	0.008232852
79	0xbb542e54	-0.0032376247
80	0xbaf2211e	-0.0018473004
81	0x00000000	0.0
82	0xbb2fea46	-0.0026842519
83	0xbb03a777	-0.002008883
84	0xbb632559	-0.0034659712
85	0xbb39b8c8	-0.0028338898
86	0x00000000	0.0
87	0x39e1ec20	0.0004309127
88	0x3a56573e	0.0008176452
89	0xbb044a63	-0.002018594
90	0xbaeba7c4	-0.0017979075
91	0xbad9ae11	-0.0016607662
92	0x00000000	0.0
93	0x311eed97	2.312708e-09
94	0xba5437de	-0.0008095483
95	0x00000000	0.0
96	0x003ec63c	5.764914e-39
97	0xbb83bdb5	-0.0040204176
98	0xba9997f4	-0.0011718259
99	0xbafb34b4	-0.0019165487
100	0x3c030d87	0.007998831
101	0xb93add0f	-0.00017820693
102	0xbca25e58	-0.019820377
103	0x38a4e8cc	7.863491e-05
104	0xbb37c6a2	-0.0028041978
105	0xbbfc8407	-0.0077061686
106	0x3acca236	0.0015612307
107	0xbb01e24c	-0.0019818721
108	0x3968cdc6	0.000222019
109	0x00000000	0.0
110	0xbb52719a	-0.003211117
111	0xbae75cda	-0.0017651573
112	0x00000000	0.0
113	0x00000000	0.0
114	0x00000000	0.0
115	0xbb06a226	-0.0020543425
116	0xbaa1d26e	-0.0012346038
117	0xbb14e10a	-0.0022717142
118	0xba9fcca0	-0.001219172
119	0x3b0a87db	0.0021138105
120	0x00000000	0.0
121	0xbab646d8	-0.0013906611
122	0xbaa7b43c	-0.0012794803
123	0xbb26bd7a	-0.0025442527
124	0x3c219cdf	0.009864061
125	0xbabdc546	-0.0014478348
126	0xbadeebdd	-0.0017007549
127	0xbb2ba11c	-0.0026188558
128	0x00000000	0.0
129	0xbb5c495c	-0.0033613062
130	0x00000000	0.0
131	0xbad90fbd	-0.0016560477
132	0xbc0c299e	-0.008554844
133	0x00000000	0.0
134	0xbb2b63b2	-0.0026151952
135	0x3c869752	0.016429577
136	0x00000000	0.0
137	0xbbafbd03	-0.005363108
138	0xb9886bd9	-0.00026020294
139	0xba64048e	-0.00086981885
140	0x3ac0ce72	0.0014709963
141	0xbaa68162	-0.0012703354
142	0xbbf5c132	-0.0074998373
143	0xbc146e0d	-0.009059441
144	0xbb30fc8c	-0.0027005998
145	0x00000000	0.0
146	0x00000000	0.0
147	0xbb998f46	-0.004686269
148	0x00000000	0.0
149	0x3ba6deb6	0.005092467
150	0xbbd1716a	-0.006391694
151	0x3a100e42	0.00054952886
152	0x3c1d4605	0.0095992135
153	0x3b563739	0.0032686724
154	0x3bf26424	0.0073971916
155	0xbb457f60	-0.0030135736
156	0x3c4634b0	0.012097523
157	0x3b05ef40	0.0020436794
158	0xbaf084b6	-0.0018350098
159	0xbbae8506	-0.005325916
160	0x3b249759	0.0025114624
161	0x2cce8db5	5.870605e-12
162	0xbb7dbdba	-0.0038717822
163	0x00000000	0.0
164	0xbbc3a46c	-0.0059705283
165	0x3cbc4864	0.022983737
166	0xbb1e929a	-0.0024196268
167	0xbb5f9490	-0.003411565
168	0xbb06fa6c	-0.002059604
169	0xbbfb7888	-0.0076742806
170	0x32a35a5a	1.9016785e-08
171	0xba737dee	-0.00092884793
172	0x00000000	0.0
173	0x311650a9	2.1873723e-09
174	0xb881fe28	-6.1985396e-05
175	0x3a8ed0db	0.0010895984
176	0x398db74c	0.00027030183
177	0xb9ad3717	-0.00033038176
178	0xbb18286f	-0.002321746
179	0xbb9978db	-0.0046835965
180	0xba868e22	-0.0010265748
181	0xbbb4c470	-0.0055165812
182	0xbb3fe1b4	-0.0029278817
183	0xbbb84faa	-0.005624731
184	0xbaba0ab1	-0.001419386
185	0x00000000	0.0
186	0xbb6fd207	-0.0036593692
187	0xbb56e0cb	-0.0032787796
188	0x3cba71c9	0.022759335
189	0x3b372aab	0.0027949016
190	0x00000000	0.0
191	0x00000000	0.0
192	0x00000000	0.0
193	0x37be8a3e	2.2714139e-05
194	0xbb539514	-0.0032284902
195	0x00000000	0.0
196	0x3a51c370	0.000800184
197	0xbbcdc143	-0.006279142
198	0x00000000	0.0
199	0xbb0760e5	-0.002065712

sqr_avg f4 [200]
0	0x3c09f653	0.008420545
1	0x3afe0bd1	0.0019382184
2	0x398bc0ed	0.00026655887
3	0x3997b407	0.00028935095
4	0x3871991f	5.7601483e-05
5	0x3792abf5	1.748463e-05
6	0x3a8d9787	0.0010802605
7	0x39a8123d	0.00032057046
8	0x384db6ab	4.904593e-05
9	0x381e2fbc	3.771459e-05
10	0x00000000	0.0
11	0x3955552a	0.00020344989
12	0x395c8e82	0.00021033923
13	0x00000000	0.0
14	0x38df25ea	0.00010640531
15	0x39be43ea	0.00036290224
16	0x2b642a0d	8.106023e-13
17	0x39dcc803	0.0004211069
18	0x3814b65c	3.5455785e-05
19	0x00000000	0.0
20	0x3384a578	6.1768276e-08
21	0x00000000	0.0
22	0x383b91b9	4.471999e-05
23	0x3901c91e	0.0001237732
24	0x361e6afd	2.360611e-06
25	0x38b04c2d	8.406523e-05
26	0x39801bbc	0.00024434726
27	0x00000000	0.0
28	0x33980502	7.0789625e-08
29	0x3b7b20fa	0.0038319216
30	0x39cb9473	0.0003882978
31	0x00000000	0.0
32	0x393293ae	0.00017030418
33	0x38523bef	5.012372e-05
34	0x00000000	0.0
35	0x388e0ae0	6.773113e-05
36	0x35ce53df	1.5372606e-06
37	0x39431491	0.00018604311
38	0x39614699	0.00021483972
39	0x39880614	0.0002594447
40	0x3432d4c8	1.6654951e-07
41	0x39c3b50c	0.0003732819
42	0x39b5a1f0	0.00034643663
43	0x00000000	0.0
44	0x00000000	0.0
45	0x39d83022	0.00041234592
46	0x32b4c39a	2.1043707e-08
47	0x2cda1e89	6.1993227e-12
48	0x39d6eafa	0.00040992332
49	0x366c13a5	3.5178175e-06
50	0x39186155	0.00014532109
51	0x33a20ed4	7.54641e-08
52	0x39d19e23	0.00039981407
53	0x37c5bb78	2.3571527e-05
54	0x00000000	0.0
55	0x3c0e8a93	0.008700031
56	0x3af99f4c	0.0019044667
57	0x397181d3	0.00023031914
58	0x33512b2c	4.870087e-08
59	0x36411a2b	2.8774473e-06
60	0x3782dbd8	1.559958e-05
61	0x389e5f34	7.55176e-05
62	0x3a034dce	0.0005008847
63	0x3a23d0bb	0.000624906
64	0x397ca0f3	0.00024092551
65	0x395003b9	0.00019837813
66	0x39a507d0	0.00031477073
67	0x00000000	0.0
68	0x38d92c9a	0.00010355674
69	0x39602b16	0.00021378355
70	0x3a2b24e8	0.0006528632
71	0x00000000	0.0
72	0x00000000	0.0
73	0x392d2d5d	0.00016515465
74	0x3882cfec	6.2376115e-05
75	0x00000000	0.0
76	0x3971b155	0.00023049612
77	0x00000000	0.0
78	0x3a6cbf2f	0.0009031174
79	0x39b6bc38	0.0003485398
80	0x38e03aec	0.000106921274
81	0x00000000	0.0
82	0x396d0178	0.00022602628
83	0x38e3f5f2	0.000108700144
84	0x3a5da4db	0.00084550463
85	0x3983bd43	0.00025127278
86	0x00000000	0.0
87	0x3b128267	0.0022355558
88	0x3800599c	3.0601033e-05
89	0x389470e9	7.078221e-05
90	0x383b4397	4.4647222e-05
91	0x39471e15	0.00018989325
92	0x00000000	0.0
93	0x2bfbf887	1.7903603e-12
94	0x376ae020	1.399967e-05
95	0x00000000	0.0
96	0x2b3744a5	6.5109924e-13
97	0x3a9161ed	0.0011091806
98	0x3aa20ff7	0.0012364377
99	0x38684325	5.5375644e-05
100	0x3b0a917a	0.002114384
101	0x3585100b	9.913941e-07
102	0x3b4fc519	0.0031703173
103	0x347349f3	2.2658041e-07
104	0x39816b61	0.000246848
105	0x3a7e4004	0.000969887
106	0x3b7ebff8	0.0038871747
107	0x39426a81	0.00018540958
108	0x36313696	2.6406829e-06
109	0x00000000	0.0
110	0x39702bbd	0.00022904477
111	0x38cd2d6a	9.783621e-05
112	0x00000000	0.0
113	0x00000000	0.0
114	0x00000000	0.0
115	0x390a2c98	0.00013177318
116	0x3849301f	4.796695e-05
117	0x39eeb825	0.00045532096
118	0x3841f84d	4.6246034e-05
119	0x380e0486	3.385965e-05
120	0x00000000	0.0
121	0x38587954	5.161141e-05
122	0x3853ea28	5.0524395e-05
123	0x3954f981	0.00020310843
124	0x3ca9572e	0.020671453
125	0x388a674e	6.599595e-05
126	0x38beb220	9.0930844e-05
127	0x3961797a	0.00021502926
128	0x00000000	0.0
129	0x39ec161c	0.000450299
130	0x00000000	0.0
131	0x38b468e5	8.602607e-05
132	0x3b9d5776	0.004801686
133	0x00000000	0.0
134	0x3922ddbf	0.00015532131
135	0x3b8190a9	0.0039540124
136	0x00000000	0.0
137	0x3a0b3db3	0.0005311623
138	0x37406e98	1.1469841e-05
139	0x37c89586	2.3911485e-05
140	0x3b48c3f6	0.003063438
141	0x38516764	4.9925773e-05
142	0x3a6f8efd	0.00091384334
143	0x3a48cc16	0.00076598057
144	0x396f2475	0.00022806397
145	0x00000000	0.0
146	0x00000000	0.0
147	0x3b4b97ce	0.0031065824
148	0x00000000	0.0
149	0x3a0c0301	0.0005341024
150	0x3a087d85	0.0005206692
151	0x36c8bda6	5.9825425e-06
152	0x3ba0d36c	0.004908016
153	0x3aae7c99	0.001331228
154	0x3a8e5b5a	0.0010860965
155	0x3aff4f58	0.0019478602
156	0x3b21659f	0.0024627221
157	0x3b1deb3e	0.0024096514
158	0x387518ac	5.843553e-05
159	0x3a0ba339	0.0005326751
160	0x39038eb2	0.00012546292
161	0x2abc46a1	3.3444517e-13
162	0x3a841f7e	0.0010080186
163	0x00000000	0.0
164	0x39d64cd6	0.00040874508
165	0x3bdf2bc5	0.0068106377
166	0x39445f53	0.00018727528
167	0x39bec946	0.00036389584
168	0x390baf38	0.00013321347
169	0x3b76cbb6	0.0037658042
170	0x2c8afb24	3.950078e-12
171	0x3778ff8f	1.4841454e-05
172	0x00000000	0.0
173	0x2ae795ef	4.113788e-13
174	0x33794725	5.8039536e-08
175	0x3b09e420	0.0021040514
176	0x36f29284	7.2292187e-06
177	0x36650c9e	3.4131003e-06
178	0x3933622e	0.00017107345
179	0x39ada6a0	0.00033121277
180	0x380b3771	3.3191816e-05
181	0x3a6ac5b4	0.00089558517
182	0x398ccb12	0.0002685418
183	0x39fb5129	0.0004793492
184	0x38849d09	6.3235006e-05
185	0x00000000	0.0
186	0x39539279	0.00020177093
187	0x395038f0	0.00019857637
188	0x3c089dcd	0.008338404
189	0x39a47629	0.00031368554
190	0x00000000	0.0
191	0x00000000	0.0
192	0x00000000	0.0
193	0x32c56986	2.2981805e-08
194	0x39ab272b	0.00032644844
195	0x00000000	0.0
196	0x3aa1594d	0.0012309939
197	0x3a2d732f	0.000661659
198	0x00000000	0.0
199	0x389ea90e	7.565516e-05

grad_avg f4 [1, 200]
0	0xbaf3c2e4	-0.0018597511
1	0x390f5254	0.00013668212
2	0x3ca35145	0.019936213
3	0x394193e9	0.00018461015
4	0x3c9b0ace	0.01892605
5	0x3bbbb2b9	0.0057280925
6	0x394e940f	0.00019700847
7	0x3bcca119	0.0062447903
8	0x3cae594a	0.02128281
9	0x39d96f57	0.0004147242
10	0x00000000	0.0
11	0x3cc661e6	0.024216603
12	0x3c9af58b	0.018915912
13	0x00000000	0.0
14	0x3c6255d0	0.013814405
15	0x3897638c	7.218783e-05
16	0x29990410	6.7952696e-14
17	0x3c33a02c	0.010963481
18	0x3bedd748	0.0072583295
19	0x00000000	0.0
20	0x3b9ce3c5	0.0047878944
21	0x00000000	0.0
22	0x3c8737e0	0.016506135
23	0x3cb2a61a	0.021807719
24	0x3c090fac	0.008365553
25	0x3bd8a88d	0.0066118897
26	0x3c38d69f	0.011281638
27	0x00000000	0.0
28	0x373e51d4	1.1343935e-05
29	0x3b113a78	0.0022160094
30	0x38698d3b	5.568306e-05
31	0x00000000	0.0
32	0x3c7c362c	0.015393775
33	0x3c89d844	0.016826756
34	0x00000000	0.0
35	0x3c15b2eb	0.009136896
36	0x3c0039ba	0.007826263
37	0x3ca72ed7	0.020408077
38	0x3c6f7564	0.01461539
39	0x3cc26c1e	0.023733195
40	0x3723dfbc	9.767649e-06
41	0x3c9d6873	0.019214844
42	0x3c92ff91	0.01794413
43	0x00000000	0.0
44	0x00000000	0.0
45	0xbbfbae48	-0.007680688
46	0x3c1a44c9	0.009415814
47	0x2df06e7a	2.7333903e-11
48	0x3c11b9aa	0.008894363
49	0x3b29802e	0.0025863755
50	0x3bb68174	0.0055696312
51	0x378871e1	1.6265492e-05
52	0x3c7c38be	0.015394388
53	0x3c699504	0.0142567195
54	0x00000000	0.0
55	0x3b5690dd	0.0032740154
56	0x3adec7bd	0.0016996783
57	0x3c227a74	0.00991689
58	0x3c945de1	0.018111171
59	0x3b82983a	0.003985432
60	0xba4a7e4f	-0.000772451
61	0x3cb319d9	0.021862911
62	0x38e404a9	0.00010872755
63	0x391aad23	0.00014751083
64	0x3bde17c6	0.0067777364
65	0xba61ce5e	-0.000861382
66	0x3c14b246	0.009075707
67	0x00000000	0.0
68	0x3bbb36c0	0.005713314
69	0x3ba3af2a	0.0049952464
70	0x3b3ce8ff	0.00288254
71	0x00000000	0.0
72	0x00000000	0.0
73	0x3c94531b	0.018106034
74	0x3ca7ec48	0.02049841
75	0x00000000	0.0
76	0x3c536941	0.012903512
77	0x00000000	0.0
78	0x3b07ea52	0.002073903
79	0x3ccfc2cf	0.025361447
80	0x3c9a061a	0.018801738
81	0x00000000	0.0
82	0x3c665281	0.014057756
83	0x3c736b50	0.014857128
84	0x3ba10cb6	0.0049148453
85	0x3ccd4103	0.025055414
86	0x00000000	0.0
87	0x3bd690bc	0.0065480154
88	0xba2fe6e4	-0.00067101256
89	0x3bdf59c7	0.006816122
90	0x3c1f814e	0.0097354185
91	0x3aec762c	0.0018040589
92	0x00000000	0.0
93	0x2cca8271	5.755667e-12
94	0x3bbcf79e	0.005766823
95	0x00000000	0.0
96	0x800133bd	-1.10396e-40
97	0x3aab9d63	0.001309317
98	0x3bd2bfad	0.006431541
99	0x3c372bf8	0.011179917
100	0xbca1d5b3	-0.01975522
101	0x3c594cbc	0.013262924
102	0x3ab76967	0.0013993204
103	0x378f364c	1.7072212e-05
104	0x3c71c140	0.014755547
105	0x3c52b1b2	0.012859749
106	0x3bd1e827	0.0064058485
107	0x38d125e9	9.972958e-05
108	0x3a872a08	0.0010312209
109	0x00000000	0.0
110	0x3c132690	0.008981362
111	0x3c42fb15	0.011900683
112	0x00000000	0.0
113	0x00000000	0.0
114	0x00000000	0.0
115	0x3cc63f95	0.02420024
116	0x3c920e04	0.017828949
117	0x3c099d3d	0.008399305
118	0x3cbe93fc	0.023263924
119	0xba0a5c50	-0.0005278038
120	0x00000000	0.0
121	0x3c1d1f68	0.009590007
122	0x3be51f23	0.006992237
123	0x3cab7f05	0.020934591
124	0xbb2fc76b	-0.0026821743
125	0x3c802e8a	0.015647192
126	0x3c5abac6	0.013350194
127	0x3c89d5bd	0.016825551
128	0x00000000	0.0
129	0x3cc18c3d	0.023626441
130	0x00000000	0.0
131	0x3cab0541	0.020876529
132	0x3af69e2f	0.0018815453
133	0x00000000	0.0
134	0x3c5602e3	0.013062212
135	0x3b3e72b4	0.0029060068
136	0x00000000	0.0
137	0x396ffe31	0.0002288751
138	0x3b445f86	0.0029964163
139	0x3c5e5cce	0.013571931
140	0x3c2e02a8	0.0106207505
141	0x3c69f14d	0.014278722
142	0x3c4b36fe	0.012403248
143	0x3c298bb5	0.01034825
144	0x3be549b1	0.00699731
145	0x00000000	0.0
146	0x00000000	0.0
147	0x3c1eea90	0.009699479
148	0x00000000	0.0
149	0x38bdcd4c	9.050462e-05
150	0x3c062b08	0.00818897
151	0xb8062f11	-3.1991924e-05
152	0x3bfd3624	0.0077274013
153	0x3b645b4f	0.0034844463
154	0x38b2c075	8.523549e-05
155	0x3bcd8576	0.0062720133
156	0xbb134f8a	-0.002247783
157	0xbab90635	-0.001411623
158	0x3c0538b4	0.008131195
159	0x3bb4254c	0.00549761
160	0x37e96134	2.7821028e-05
161	0x279f98c4	4.4296994e-15
162	0x3acbe2fc	0.0015555318
163	0x00000000	0.0
164	0x3c14a0ef	0.009071573
165	0x3b26701a	0.0025396408
166	0x3c4b8f4c	0.012424301
167	0x3c078775	0.008272042
168	0x3c84067b	0.016116371
169	0x3b0c7f48	0.002143817
170	0x2f58580f	1.967637e-10
171	0x3c33868e	0.010957373
172	0x00000000	0.0
173	0x2d9548f9	1.6971745e-11
174	0x37094138	8.181021e-06
175	0x3ba0ca23	0.004906909
176	0xbaadb368	-0.001325232
177	0x3c949293	0.018136298
178	0x3c4122fc	0.011788126
179	0x3c6220ea	0.013801793
180	0x3c9056dc	0.017619543
181	0x395b203d	0.00020897477
182	0x3bb796b2	0.005602681
183	0x3c914731	0.017734142
184	0x3c808166	0.015686702
185	0x00000000	0.0
186	0x3c75fbff	0.015013694
187	0x39735483	0.00023205769
188	0x3b4574aa	0.0030129352
189	0x38c3cbb6	9.336269e-05
190	0x00000000	0.0
191	0x00000000	0.0
192	0x00000000	0.0
193	0x3bd054af	0.0063577513
194	0x3c472231	0.012154148
195	0x00000000	0.0
196	0x3bb4a8fa	0.0055133076
197	0x3bf6efb0	0.007535897
198	0x00000000	0.0
199	0x3c918046	0.01776136
