cycles/save/0.44_2_20/models/model.pth (torch, 5339 bytes, 4 tensors)

node_factors.weight f4 [4, 1]
00000000: 8776 e3ba 33e9 623c 82dd e63b 8dd7 473c
-0.001735405 0.013849544 0.0070454488 0.012197387

layers.0.weight f4 [200, 2]
00000000: a3ee d7be 08d1 223f b14c 713e 9c2f 2e3f
00000010: 1664 15bf 7b8c 33bf 7b9f 0dbf 1a8a f3be
00000020: e4a3 923e 26a3 813e d369 163f 49f7 babe
00000030: 58ce f6be fd16 c03e 7056 92be daba db3e
00000040: f2d2 2bbe 4d1a cf3e 6fa5 0cbf e6b3 b6be
00000050: 0ec1 5c3e 4e13 193e 1f9c 38be d9cc d73e
00000060: 021e f63e 3945 03bf eb47 c1be a5c0 253f
00000070: c553 74be 4059 80be 4127 2fbf 2a54 cfbe
00000080: 8ee0 343e 8325 bfbd 3f66 03bf 2ce0 873c
00000090: 4a4d f7be 8293 19bf 755c c7be 296e 1ebf
000000a0: 1886 e6be d3f2 343f 94c2 083e a721 5f3e
000000b0: 7ad5 28bf 0bc7 edbe 6b03 71be 1673 e23d
000000c0: 6448 1fbf 22fe 9bbe bdbd d8be 396c 003b
000000d0: 3bb7 86be b4b3 48bd 0254 f5be 6880 f8be
000000e0: c936 d3be 8dd9 77be 07e0 0ebf 7dc7 173f
000000f0: 0cb4 0fbe 9abf 1b3f 0a9c 613e 6049 19bf
00000100: 238b fa3e e339 47be 63c7 8abe 4142 16bf
00000110: 59f6 33bf 8e2a 4f3e 962b 1ebe 35f3 8c3e
00000120: 538e 14bf df64 063f bfe0 04bf c60e fabd
00000130: e13c 173e 32e7 ba3e 8723 123f b7e6 243f
00000140: c488 0fbf 003a 363e e4b8 9bbe 1db2 9ebd
00000150: be7d 07bf 0ee2 243f f6db 04bf f57d c13e
00000160: 2e78 7e3e 114b 6b3e 1ebc c3be ad89 243f
00000170: c51d 1f3e 6b4a ba3d 2f86 1fbf cbfa 973e
00000180: c740 d9bd d4db a5be 667c 1b3f a26e 213e
00000190: b54e c8be eb3d b7be ba50 0abd fc25 ca3e
000001a0: b806 39be f791 cebe 83f4 77be 283c 07bf
000001b0: 601d 813e c21d 0c3f 3d6b 2abf df2a 283e
000001c0: b506 bb3e e74b 033e 4fee 80be 97f6 bc3e
000001d0: 8f41 be3e 4960 873e c678 febd 91bc 3fbe
000001e0: c7ec 9a3d 8dd2 ffbd 9bc6 57be e86a e73e
000001f0: 6491 1b3f 0d5d 8fbd 5f1e 22be 1e0e 293c
00000200: fcee 2cbd 8c13 2e3e 2be9 4a3e 7b69 24bf
00000210: 1e9b 85be 1471 183f b208 8d3e 2e0e 10bd
00000220: 7346 dabe 427f ddbe b026 22bf a205 6cbe
00000230: 2186 743e fcd7 e63e fc26 a73e ce02 20bf
00000240: 6ab7 d9be fd8a e4bd e51b 2f3f 867c d13d
00000250: cd83 3bbe eac7 953e d3e4 89be e254 eabe
00000260: ab1f 043f a09e a4be 4727 11be 2d14 34bf
00000270: 464d f23e 8225 093f c0f1 833e b370 fcbe
00000280: bba7 32bf 2505 13bf 75fc 063f 1dd1 ad3e
00000290: 1d54 183f 41a9 bd3e 2042 373e b3e6 e2bb
000002a0: 92aa 09bf a317 1bbf f250 29bf 7234 943e
000002b0: d8bf b1be f1b8 11be eb5a d0be a7f1 03be
000002c0: c1d0 febe ce8f ecbe 2d2f 703e 7331 57be
000002d0: 8a80 df3e 554a 68be 34ca 04bf c782 ffbd
000002e0: 4f7f afbe 7e86 5dbe 6154 2cbf ae8e ca3e
000002f0: 8f0d fcbe 90f7 b53e 9549 a43e 7d53 013f
00000300: ecd9 0abf 4330 023f 8427 abbe 6657 863e
00000310: 77ff 293f 673c ccbd 2330 b3bb 6ab4 26be
00000320: fa25 17bf 4fbe ad3e 7db3 33bf eac0 e03e
00000330: 7671 073f ee30 2b3f 87cb 2abe abbb 14bf
00000340: 64cb 223e 0300 c83e 8d2b 34bf 8e5a 24be
00000350: ac06 d9be 7152 7dbd 4833 b2be 5bfd 93be
00000360: 62dd 65be fe05 2cbf 1987 143f 11c1 173f
00000370: b02b e3bd 39eb a4bd 54c1 93be ca78 23bf
00000380: 7028 30bf 038e 863e a4c6 c6be 0fbf e8be
00000390: b4fa 61bd 3620 71be 0a41 6abe af1f ba3c
000003a0: f795 19be 0f4f 79be a458 adbe 8951 13bf
000003b0: 38c9 173f 1ae2 90be 9add 3f3e eb3a 7bbe
000003c0: 985b 6b3d b0c3 283f a7cc a63e 0ddf 1cbf
000003d0: b4b1 8f3e d0d4 2b3f 207e 3e3e 3cb8 f23e
000003e0: f776 323f 38e6 ddbd 1549 163e 2ca1 fbbe
000003f0: 3c37 15be 5b0f 063f fd98 b93e 1618 e5be
-0.42174253 0.63600206 0.23564412 0.68041396 -0.58355844 -0.7013623 -0.5532147 -0.475663
0.28640664 0.25319785 0.58755225 -0.3651679 -0.48204303 0.3751754 -0.28581572 0.42915994
-0.16779688 0.40449753 -0.5493993 -0.35684127 0.2155802 0.1494877 -0.18028305 0.42148474
0.4806977 -0.512775 -0.37750182 0.6474708 -0.2386008 -0.25068092 -0.6841927 -0.404939
0.17663786 -0.09333327 -0.5132789 0.016586386 -0.48301154 -0.59990704 -0.38937727 -0.6188684
-0.4502418 0.7068302 0.13355476 0.21790181 -0.6595074 -0.4644092 -0.2353646 0.11057107
-0.62219834 -0.30467325 -0.4233226 0.0019595756 -0.2631167 -0.048999503 -0.47915655 -0.48535466
-0.41252735 -0.24204083 -0.5581059 0.5928877 -0.14033526 0.60839236 0.2203218 -0.59877586
0.48934278 -0.19455676 -0.27105245 -0.58694845 -0.7029777 0.20231077 -0.15446314 0.27529302
-0.5802967 0.5249767 -0.51905435 -0.12209849 0.14769317 0.36504513 0.5708546 0.6441454
-0.5606806 0.17795563 -0.30414498 -0.07748816 -0.5292624 0.6440743 -0.51898134 0.3779141
0.24850532 0.22977854 -0.3822946 0.64272577 0.155387 0.09096225 -0.6231412 0.29683527
-0.106080584 -0.32394278 0.6073669 0.1576486 -0.3912255 -0.35789427 -0.033768393 0.39482105
-0.18068969 -0.40345737 -0.24214368 -0.52826166 0.25217724 0.54732907 -0.6656988 0.16422604
0.36528555 0.12821923 -0.25181815 0.36906883 0.37159392 0.26440647 -0.124253795 -0.18724276
0.07564693 -0.12491331 -0.21071856 0.4519875 0.60768723 -0.0700017 -0.15831898 0.010318307
-0.0422201 0.16999644 0.19815509 -0.6422345 -0.26094908 0.59547544 0.27545696 -0.035169773
-0.42631873 -0.43261153 -0.6334028 -0.23049024 0.23879291 0.45086658 0.3264693 -0.6250428
-0.42522746 -0.111593224 0.6840194 0.10228829 -0.18311997 0.29254085 -0.26932392 -0.45767885
0.5161082 -0.3215227 -0.1417514 -0.70343286 0.4732458 0.5357286 0.25770378 -0.49304733
-0.69787186 -0.57429725 0.5272897 0.33948603 0.59503347 0.37043193 0.17896318 -0.006924474
-0.53775895 -0.6058294 -0.6613914 0.28946263 -0.34716678 -0.14230706 -0.40694365 -0.12885152
-0.49768642 -0.46203464 0.23455496 -0.21014957 0.43652755 -0.22684605 -0.5187104 -0.12476116
-0.34276816 -0.21633336 -0.6731625 0.3956198 -0.49229094 0.35540438 0.3208739 0.5051802
-0.5423877 0.5085489 -0.33428586 0.26238555 0.66405433 -0.09972458 -0.005468385 -0.1627976
-0.5904232 0.33934256 -0.7019575 0.43897182 0.529075 0.66871536 -0.16679202 -0.5809886
0.158979 0.3906251 -0.70378953 -0.16050169 -0.42387903 -0.0618462 -0.3480475 -0.28904232
-0.22447732 -0.67196643 0.5801864 0.5927897 -0.11092317 -0.08052678 -0.28858435 -0.63856184
-0.688117 0.2628022 -0.38823426 -0.45458266 -0.05517073 -0.23547444 -0.22876373 0.022720186
-0.14998613 -0.24346565 -0.3385669 -0.5754629 0.5929141 -0.28297502 0.18736878 -0.24534194
0.057460397 0.65923595 0.32578012 -0.6127785 0.28065264 0.671216 0.186028 0.47406185
0.69712776 -0.10834926 0.14676316 -0.49146402 -0.14571851 0.5236718 0.36249533 -0.4474494

layers.0.bias f4 [200]
00000000: ecbe 1a3f 9919 223f 5085 d43e 40c0 083f
00000010: cbd5 c1bd 2a34 c7be 1ee5 b43e 299a bbbe
00000020: d953 f4be f838 67be 4ff4 173e 5460 ba3e
00000030: 7c9e 8cbe 7115 d5be 9458 c33d ca65 d5be
00000040: 9cb5 ebbe 9eb6 bc3e 8744 f3bd aa69 253f
00000050: ab17 303f 5693 583e 6132 793e 45be 263e
00000060: 5e6f 353c daa7 52bd 953a 1f3c b731 873e
00000070: 764e 283f b6a6 3bbe 1a0a 99be 9958 2fbe
00000080: e0e8 aebe 0a3e f63d 211f 073f 938d 0d3f
00000090: a038 a63e c437 05bf d14e c2be 8b16 1fbe
000000a0: 0677 05be 0237 6e3d ac2b 26bf 815d 613e
000000b0: 3818 0abf fa13 e5be 0e7f 16bf c8b9 1d3f
000000c0: 176a 2bbf 128e 083f daba c2bc 2c6b a8bd
000000d0: 8972 e23e 77d9 85bd d50d e33e 33e1 023f
000000e0: ae29 1dbf 834e 8b3e cbb0 083e 63af 1b3e
000000f0: 0f6b d33d bd0e 463e 302a aebe 4f47 b9bd
00000100: 76fd 2b3f 493c f33e a59e d9bc 1841 2abf
00000110: a8e0 fd3c eb89 f6be 1134 133f 03ca dbbe
00000120: 421e 51bd 22b4 20be 33da 003e 1d58 2a3f
00000130: 3f9a 893d 06ae d13e d982 0c3f 9123 123f
00000140: a80f 7abe d9f1 21be e87a ae3e ca93 45be
00000150: 9887 a93e 0130 1ebe b78d f5be 8d5d 933e
00000160: 3b07 de3d 126a a13e 16d7 333f fc2c f73e
00000170: 589a 2b3f c704 1b3d 11b7 1bbf e0fa fdbe
00000180: 90e3 e0be e385 1fbf 9278 b5be fca3 26bf
00000190: de02 27bf 7e56 d8be 7a74 32bf 4e39 debe
000001a0: 690c 8a3e ccfa 163f d762 57be 659e 52be
000001b0: ce4f c13e 8d9e b2be 052f abbe 0e10 df3e
000001c0: f2b8 1dbf a012 b13d c2e8 1f3f c756 f83d
000001d0: 89e8 443e 1ed9 d2be 26d6 1fbc 8240 1f3d
000001e0: a1b6 313e 2eab 8c3e f14a 1d3f 062c 0abf
000001f0: ada2 ad3c 3de3 b4be a732 0fbf fded 67bd
00000200: 0357 1fbf a0aa fc3e beb7 a73d a81f c3be
00000210: 9f31 bd3e 5f52 2bbf 4909 8cbe 5710 0dbe
00000220: 3cd2 19bf 5737 e6be a55d ecbd df59 093f
00000230: 56cd 2e3f 025a e63e 962e d8be 76da ecbe
00000240: 6ef9 1d3f 340f 803e 84e5 993c 59fb c33d
00000250: 127c 11bf 45c2 71be a340 2e3f af94 32be
00000260: 6f4a 11bd 554e 16bf ea86 cabe de90 6cbc
00000270: 3ce2 e0be c995 b3bd c055 933e aa11 31bf
00000280: 4a0f 573e 0762 efbe 80b1 b0be 7bfd 8a3e
00000290: a0ee 0f3f 87e5 45be 52a4 94be 26af 23bf
000002a0: 22b0 babe d981 1ebf 4fb8 25be 7dc0 133e
000002b0: b697 29bf e90c 1e3f c723 e33e 4835 31bf
000002c0: efeb acbe 5d29 6c3e c5c4 14be 97d0 9dbd
000002d0: 5477 a3be f565 113f 0461 cabe 791d 163f
000002e0: 5ee0 3a3d 2a8e 113e 0d38 0d3f 279b eebd
000002f0: d21f cebe 5737 eabd fcd0 123f 6650 06bf
00000300: f559 243e 7de7 31bf 51d1 bd3e f9c2 853e
00000310: ea8f f53c 6f62 9b3e 6b7c 503a cb55 c83e
0.60447574 0.6332031 0.4150796 0.5341835 -0.09464606 -0.38906986 0.35331053 -0.36641052
-0.4772022 -0.22580326 0.1483929 0.36401618 -0.27464664 -0.4161792 0.09538379 -0.4167922
-0.46036994 0.36858076 -0.11878305 0.64614356 0.68786114 0.21149954 0.24335624 0.1628352
0.011073915 -0.051429607 0.009718557 0.26405117 0.6574472 -0.18325314 -0.2989052 -0.17123641
-0.34162045 0.12023552 0.52781874 0.5529415 0.32465076 -0.52038217 -0.37950757 -0.15535943
-0.13033685 0.05815793 -0.6491039 0.22008325 -0.53943205 -0.44741803 -0.5878762 0.61611605
-0.66958755 0.5334178 -0.023770738 -0.082235664 0.44228008 -0.06535619 0.4434649 0.51124877
-0.61391723 0.27208337 0.13348691 0.15203623 0.10323154 0.1934156 -0.34016562 -0.09046804
0.67183626 0.4750693 -0.026564905 -0.66505575 0.030990914 -0.48152098 0.5750132 -0.4292756
-0.051054247 -0.15693715 0.12583236 0.665407 0.06718873 0.40953082 0.5488716 0.5708552
-0.24420035 -0.15814914 0.34078145 -0.19294658 0.33111262 -0.15448 -0.47959682 0.2878231
0.10841223 0.31526238 0.7025007 0.48276508 0.67032385 0.037846353 -0.6082621 -0.49605465
-0.43923616 -0.6231367 -0.3544355 -0.6509397 -0.6523875 -0.42253488 -0.6970898 -0.43403095
0.26962593 0.58976436 -0.21033798 -0.20568235 0.377562 -0.3488659 -0.3343431 0.43566936
-0.6161033 0.086461306 0.62464535 0.121259265 0.1922933 -0.41181272 -0.009755647 0.03887988
0.17354824 0.2747435 0.61442477 -0.53973424 0.021195734 -0.3532962 -0.55936664 -0.056623448
-0.62242144 0.49348927 0.08189343 -0.3811009 0.3695192 -0.66922563 -0.27350834 -0.13775764
-0.6008642 -0.44964096 -0.11541299 0.5365276 0.6828207 0.44990546 -0.42223042 -0.46260422
0.61708724 0.250116 0.0187862 0.09569425 -0.5682994 -0.23609264 0.6806738 -0.17439531
-0.035471376 -0.58713275 -0.39556056 -0.014438836 -0.43922603 -0.087688036 0.2877636 -0.6916758
0.21001926 -0.46754476 -0.34510422 0.27146515 0.5622349 -0.19325839 -0.29031616 -0.6393913
-0.36462504 -0.6191688 -0.1618359 0.14428897 -0.6624712 0.6173845 0.44363233 -0.69221926
-0.33773753 0.23062654 -0.14528187 -0.07705801 -0.31926978 0.567962 -0.39527142 0.5863872
0.04562413 0.14214388 0.5516365 -0.11650687 -0.40258652 -0.114363365 0.57350135 -0.5246643
0.16049941 -0.6949385 0.37073758 0.26125315 0.02997585 0.30348536 0.000795311 0.39127955

layers.2.weight f4 [1, 200]
00000000: 1e47 65bd d221 2abc 097c 003d ae35 903d
00000010: 1889 133d ba9c 52bd 17c1 5e3d a52c 81bc
00000020: 905c 77bc cb9f 83bd 455e 36bc 1ddd 4c3d
00000030: d78c 213c 5bb2 28bd c74d b23c b1bc b9bc
00000040: 3637 843d f362 7bbd 83f9 b6bc 7ad4 8bbd
00000050: 7d21 e4bc 689c b63c c966 8b3d e091 423c
00000060: 99f8 8d3d ebaa 623c b545 273d aa2f 683d
00000070: f91b 723d 021d 22bd 5324 853d cc72 2f3d
00000080: e46c 07bd 7e36 0abd 46ed 72bd 6879 913c
00000090: 99c2 6abd ccb1 f43c f8ed b63c cba1 7bbd
000000a0: 71d9 9d3c 5d72 bcbb fe4e 043d ee2f 263d
000000b0: b4f7 8fbd 63cf 843d 8de5 723d 957a e63c
000000c0: 0f5b 84bd a4ec cebc 10e0 a7bc 7ede 94bc
000000d0: 6054 233d 439a d23c 8970 653d 6ff2 d8bc
000000e0: d5f1 c23c 3c19 ce3c e224 71bd 5079 8cbd
000000f0: 4d49 16bd 2544 463d 8256 88bd c51a 7cbd
00000100: 5d40 223d a843 1c3d bd30 6e3d 54a7 5abd
00000110: 17fb 53bd aa93 143d 30df 7b3d 264c 2d3d
00000120: 357c 353c fae8 be3c c072 893d 03df 3abd
00000130: f17e 03bd 5896 4a3d 4e2d 46bd c6b4 1fbd
00000140: 926d 533d 19c5 b63c 6524 bb3c bd83 f5bc
00000150: b5cf 7fba 358a 843d a2d7 2dbd a7bc 113a
00000160: 93bf 093d d3f2 47bd 35a4 8c3d e3b3 10bd
00000170: 061a 8bbc 26bb 9cbc 97bd 3cbd 301a 8ebd
00000180: 124f 233d 18e5 993c 61a2 87bd 0c6a 3abd
00000190: 8821 8f3d 096a dd3c fd6c e83c 2049 2dbd
000001a0: 37f2 fdbc 4be2 2ebc e9de 53bc 1978 46bd
000001b0: cce3 be3b 6749 e63b 86b1 12bc b79b 203c
000001c0: 4097 e5bc 06c1 963c 8c76 da3c 578f 18bd
000001d0: 9398 8fbd 519a 173d dc2c 8a3c 854d 13bd
000001e0: 188f 8b3d 2afc 02bd 9ab7 433d 23f0 123d
000001f0: 35d4 72bd 83cb 3a3d 6727 85bd b575 20bd
00000200: a824 41bc 8839 43bd bf78 8d3d 5560 68bc
00000210: af13 e63c b64e 81bd 17bb 263d 7206 b4bc
00000220: 5e50 5cbd 1c67 293c ac50 0c3d 52a5 7a3d
00000230: 8ae7 30bd 5587 0ebd bbbd 5e3c 9c21 9d3c
00000240: cbb5 de3c a4f8 1e3d 8c59 83bc 01e9 203d
00000250: df8a 553d d050 97bc 5f0f 4e3d fc81 0d3d
00000260: 4478 7f3d f796 24bd ba05 0fbd b67c a7bc
00000270: 0b12 6b3b 11d6 2d3d e956 25bd 4001 113d
00000280: c098 cfbc 00f8 2e3d 9a03 5cbb edbd 7dbd
00000290: 455e 1fbd f99e 51bd 66a5 0f3d 2636 42bd
000002a0: 640d c1bb 50f5 793c 03d5 1ebd 8619 a73c
000002b0: b666 8dbd c03b 4fbd 7f38 83bd af36 afbc
000002c0: 0b06 d3bc 96e4 253c 523a 56bc 7b26 083d
000002d0: 23c4 843d 82d5 cf3c db35 e4bc 679a 87bd
000002e0: 4ecf d13c fc7f 0fbd e762 133d 2a9d 413d
000002f0: e56e df3c c5e1 873d 948b 893d 434e 753c
00000300: 2709 53bd 5662 813d bd6d 09bd e7ce 08bd
00000310: 645b 723d b768 603d 5606 af3c cc3d 913b
-0.055976026 -0.01038404 0.03136829 0.070414886 0.036019415 -0.051418997 0.054383364 -0.015768358
-0.015097752 -0.064269625 -0.011130874 0.050015558 0.009860239 -0.041185718 0.021765603 -0.022672983
0.06455843 -0.061373662 -0.022335773 -0.06827636 -0.027848 0.022291377 0.06806714 0.0118756
0.06932182 0.013834695 0.040837962 0.05668608 0.059108708 -0.039578445 0.06501069 0.04283409
-0.03306283 -0.033743374 -0.059308313 0.017758086 -0.05731449 0.029869936 0.02233027 -0.061433595
0.019268723 -0.005750938 0.032301895 0.040573053 -0.070296675 0.064848684 0.059300948 0.028134624
-0.064626805 -0.025259323 -0.020492584 -0.018172499 0.03987539 0.025708323 0.056015525 -0.026482789
0.023796955 0.025158517 -0.058873065 -0.06859076 -0.036691 0.04840483 -0.06657125 -0.061548967
0.039612163 0.03815046 0.05815195 -0.053382233 -0.05175313 0.036273636 0.061492145 0.04230895
0.011076977 0.023304451 0.0671134 -0.045622837 -0.032103483 0.049459785 -0.04838305 -0.03899076
0.051618166 0.02231078 0.022844503 -0.029970044 -0.0009758429 0.064716734 -0.04244197 0.00055594224
0.033629965 -0.04881556 0.068672575 -0.035327803 -0.016980182 -0.019132208 -0.046079244 -0.069385886
0.03987033 0.018785998 -0.06622768 -0.04551129 0.069888175 0.0270281 0.028372282 -0.042306066
-0.030999286 -0.01067407 -0.012931564 -0.048454378 0.0058254953 0.007027793 -0.008953458 0.00980275
-0.028026223 0.018402588 0.026667856 -0.037246075 -0.07011523 0.037012402 0.016867094 -0.0359626
0.06814402 -0.031978764 0.047782518 0.035873543 -0.059284408 0.04560424 -0.06501656 -0.039174754
-0.011788525 -0.047662288 0.06907796 -0.014183124 0.028085558 -0.06313841 0.040705767 -0.02197573
-0.05378758 0.010339525 0.034256622 0.061192818 -0.043189563 -0.03479703 0.01359504 0.019181065
0.027186295 0.03881134 -0.01603391 0.03928471 0.05213439 -0.018471152 0.050307628 0.03454779
0.062370554 -0.040183034 -0.03491757 -0.020445209 0.0035868909 0.042440478 -0.040366087 0.035401583
-0.025341392 0.04271698 -0.0033571483 -0.061948705 -0.03890826 -0.051177 0.035069846 -0.04741492
-0.005891489 0.015256241 -0.038777363 0.020397913 -0.06904356 -0.05059409 -0.0640726 -0.02138838
-0.025759717 0.0101253 -0.013075428 0.033239823 0.064827226 0.025370363 -0.027857712 -0.06621247
0.025611546 -0.035034165 0.035982993 0.047269024 0.027274558 0.06634859 0.067160755 0.014972272
-0.0515224 0.06317584 -0.03355192 -0.033400442 0.05916919 0.054787364 0.021365326 0.0044324156
