trees/save/tree/8bits/split_75.0_0.1_5_50/models/model.pth (torch, 73558 bytes, 12 tensors)

embedding_layers.weight f4 [494, 8]
0.00036425173 -0.002049695 0.0018541592 -0.00029464124 0.0059630885 0.003150684 0.012210308 -0.004718104
0.0041923337 0.007568215 -0.0080012195 -0.0034699247 -0.010521193 -0.0015855717 -0.00769384 -0.011375354
-0.0019376812 0.0044988166 -0.009258938 0.007704361 0.008036335 0.010417668 0.0031730826 -0.0034338206
0.0085456865 0.0064474787 0.005147578 -0.0007599384 0.00084939814 -0.0018107714 -0.0031995222 0.0033387311
-0.015901813 0.0066658985 0.012900233 -0.0020106747 0.014115214 -0.00083638803 0.00867283 -0.008997105
-0.002496321 -0.00038987276 -0.012422405 -0.005406122 0.009097111 -0.003954137 -0.003378554 0.0027057687
0.011508765 -0.012401058 -0.003679778 -0.0094658965 -0.0075885877 -0.0032829698 0.0011426609 0.00021604299
-0.008961814 0.0046092994 -0.005717451 -0.00072384276 -0.010482353 0.010071973 0.013256751 -0.013644503
-0.0004662368 0.011517481 -0.0064082434 0.0036034572 0.008239881 -0.0059599997 0.0073237256 0.00044484882
-0.0015282559 -0.0017270761 0.010811915 -0.0047238236 0.0053064255 0.0054360824 -0.0020752556 -0.014325216
-0.011181001 0.008859079 -0.010358418 -0.014110962 0.002616449 0.00014706353 0.004826626 -0.013482841
-0.0043246667 0.0081640445 0.00037756696 0.00036301772 0.004548758 -0.0044304477 -0.0040233177 -0.0025689676
-0.0015201643 -0.008999188 0.0033516118 0.0073815943 -0.00058741163 0.0051837 -0.012173603 -0.0047659823
-0.0014167853 -0.0013283523 -0.00086184917 0.013740048 0.0030579043 -0.005867013 -0.008019105 0.0012445371
-0.0026736935 -0.0062948205 -0.013851707 -0.0012965815 -0.0034842126 0.0017907863 0.0054939534 0.012258279
0.0022383197 0.0025141872 -0.00026364526 -0.0026808481 0.0050266935 -0.0071549322 -0.012935981 0.0069579654
0.0055311974 -0.0006089674 0.008555075 -0.008104217 -0.009482582 -0.001145454 0.0010080442 -0.010260011
-0.015573486 0.0012675459 0.003008325 -0.002389063 -0.0036577298 0.006845038 0.01494683 0.0019111776
0.01640264 0.0069571384 -0.0072428603 -0.009538098 0.002734284 -0.0073313517 -0.008326609 0.0009824602
0.007885156 -0.0050468054 0.006552485 0.0028582609 -0.0030963856 0.002870583 -0.0010671807 -0.0061692633
-0.0029778339 0.00081031735 -0.0010050257 0.010149976 0.011965925 0.0025581531 -0.007382361 -0.0021372016
0.01036611 -0.0035351731 -0.013349944 -0.005070232 0.013050718 0.00016299602 -0.0049059163 0.0039732633
-0.007276776 0.015079235 -0.0034331677 -0.012346803 -0.005352771 0.00012957388 -0.008745203 0.013114935
-0.009838054 0.0041440865 0.0013056878 0.0013208617 -0.004588025 0.0083809635 -0.0017715702 -0.00875672
0.009223438 0.002981565 -0.0077719875 0.0035492503 -0.01058295 0.0037831515 -0.0008042731 -0.00936355
0.0011593099 0.0034704623 0.009461281 0.007181033 0.009472849 0.0042619137 -0.0123832375 -0.0071020424
-0.0025276353 0.012318609 -0.0035479823 -0.0016688246 -0.00050985184 -0.010778361 0.0064373924 0.008028521
-0.011348114 0.014652057 -0.010919883 -0.016472047 0.0052384087 0.0085481675 -0.0010792735 0.0026646003
0.010845861 -0.004511708 -0.008843916 -0.006278277 -0.007897404 0.0020568285 -0.007980755 0.012668218
0.00042021886 0.004809257 -0.0036733078 0.0017537336 0.010422121 0.0072450964 -0.002467042 0.0010338471
-0.008511274 0.00766166 -0.00051926286 0.012860863 -0.0010664524 -0.011967867 0.00903114 -0.0039767013
-0.0053802812 -0.006114554 -0.006677058 -0.00586736 -0.0073585175 0.013854684 0.00986315 0.014260911
00000000: 0af9 be39 2d54 06bb 4207 f33a 147a 9ab9
00000010: 0366 c33b b57b 4e3b be0d 483c 539a 9abb
00000020: d85f 893b cafe f73b 8c17 03bc ad67 63bb
00000030: 1561 2cbc f5d2 cfba 9c1c fcbb b15f 3abc
00000040: cbf9 fdba cf6a 933b cdb2 17bc dd74 fc3b
00000050: d5aa 033c deae 2a3c 7ef3 4f3b f309 61bb
00000060: 3503 0c3c 5f45 d33b 04ad a83b 9a36 47ba
00000070: 25aa 5e3a 6857 edba 13af 51bb 9dce 5a3b
00000080: 8544 82bc 9c6d da3b 805b 533c 86c5 03bb
00000090: 8043 673c 0d41 5bba 7c18 0e3c 9868 13bc
000000a0: 5199 23bb d667 ccb9 5887 4bbc d725 b1bb
000000b0: 0d0c 153c b591 81bb bb6a 5dbb 4453 313b
000000c0: 428f 3c3c cf2d 4bbc 6e28 71bb d916 1bbc
000000d0: b0a9 f8bb 1827 57bb 56c5 953a 9989 6239
000000e0: 93d4 12bc 9b09 973b 7559 bbbb 44c0 3dba
000000f0: 2dbe 2bbc eb04 253c d832 593c 328d 5fbc
00000100: 3e71 f4b9 d1b3 3c3c 3efc d1bb fb27 6c3b
00000110: 9100 073c 1a4c c3bb ddfb ef3b 993a e939
00000120: c24f c8ba 0f5f e2ba 7524 313c 4eca 9abb
00000130: 86e1 ad3b 2a21 b23b 0301 08bb 50b4 6abc
00000140: 8430 37bc ac25 113c 5bb6 29bc aa31 67bc
00000150: bb78 2b3b 1135 1a39 ac28 9e3b 22e7 5cbc
00000160: efb5 8dbb 7cc2 053c 2ef4 c539 6a53 be39
00000170: bf0d 953b 4a2d 91bb 09d6 83bb 205c 28bb
00000180: 4040 c7ba 5571 13bc b7a6 5b3b 4de1 f13b
00000190: 87fc 19ba 07dc a93b cb73 47bc f52b 9cbb
000001a0: 6db3 b9ba 1b1c aeba b8ed 61ba f01d 613c
000001b0: 1f67 483b 1240 c0bb 9062 03bc bc1f a33a
000001c0: 2239 2fbb c844 cebb 45f2 62bc 0ef2 a9ba
000001d0: 6357 64bb d1b8 ea3a 9f06 b43b f3d6 483c
000001e0: c6b0 123b 10c5 243b de39 8ab9 2bb1 2fbb
000001f0: f6b6 a43b ec73 eabb 70f1 53bc a5ff e33b
00000200: 0c3f b53b 1ca3 1fba 962a 0c3c 8dc7 04bc
00000210: d55c 1bbc 0f23 96ba 5a20 843a 9b19 28bc
00000220: ef27 7fbc c823 a63a 5127 453b d391 1cbb
00000230: 86b6 6fbb 574c e03b 8de3 743c 7b80 fa3a
00000240: d45e 863c b5f8 e33b 8455 edbb af45 1cbc
00000250: ac31 333b d63b f0bb 546c 08bc e5c5 803a
00000260: be30 013c ac5f a5bb 3ab6 d63b a951 3b3b
00000270: bbec 4abb 6420 3c3b a4e0 8bba 8827 cabb
00000280: c327 43bb 7a6b 543a 11bb 83ba 164c 263c
00000290: ba0c 443c b0a6 273b bce7 f1bb 4b10 0cbb
000002a0: 9ed6 293c 5dae 67bb b9b9 5abc 3024 a6bb
000002b0: aed2 553c e9e9 2a39 cfc1 a0bb 2632 823b
000002c0: 0572 eebb e50e 773c fffe 60bb 3f4a 4abc
000002d0: 4c66 afbb 39de 0739 0a48 0fbc 06e0 563c
000002e0: ca2f 21bc 1ecb 873b 9d23 ab3a c420 ad3a
000002f0: 2557 96bb 4f50 093c 0834 e8ba 5978 0fbc
00000300: e71d 173c 5c66 433b 28ac febb 8a9a 683b
00000310: 1c64 2dbc c0ee 773b dbd5 52ba 9369 19bc
00000320: fcf3 973a b270 633b 7d03 1b3c df4e eb3b
00000330: 0234 1b3c 86a7 8b3b 10e3 4abc 40b8 e8bb
00000340: afa6 25bb fed3 493c 4485 68bb 76bc daba
00000350: 94a7 05ba b997 30bc c3f0 d23b 0f8a 033c
00000360: 71ed 39bc 2e0f 703c 4fe9 32bc 63f0 86bc
00000370: f5a6 ab3b 9d0d 0c3c 6976 8dba 93a0 2e3b
00000380: d7b2 313c f3d6 93bb 12e6 10bc 01ba cdbb
00000390: 1d64 01bc dbcb 063b b6c1 02bc 5c8e 4f3c
000003a0: d250 dc39 f996 9d3b e1bb 70bb 89dd e53a
000003b0: 8bc1 2a3c 4668 ed3b 19ae 21bb 2782 873a
000003c0: df72 0bbc aa0e fb3b 241f 08ba 5eb6 523c
000003d0: 34c8 8bba df14 44bc 59f7 133c fd4e 82bb
000003e0: 124d b0bb 995c c8bb 39cb dabb fc42 c0bb
000003f0: b81f f1bb c2fe 623c 0d99 213c 99a6 693c

layers.0.weight f4 [100, 16]
0.0153577 0.06406278 -0.10052296 -0.14664586 0.085094385 -0.05961961 0.13944635 0.09208121
-0.16985196 -0.30772224 -0.37221384 0.30599245 -0.10330418 -0.17505564 -0.2512532 -0.0066126743
-0.06794791 0.15645584 -0.08489363 -0.05450746 -0.045128103 -0.05683115 -0.24033296 0.04127985
-0.30657402 -0.11953022 0.020768303 0.25711676 0.092096105 -0.41296557 0.1136934 -0.349131
0.0020935596 0.0022869317 -0.027686467 -0.007933533 0.03578574 0.015295177 0.04160226 0.061325494
0.029158067 -0.04186845 0.0039849854 0.0049683605 -0.043974973 -0.050100405 -0.036151305 -0.012182064
-0.45140377 0.1514041 0.52674496 -0.24961211 -0.09283354 -0.29855472 0.2389198 0.41132528
0.062644735 0.012886841 -0.15531234 -0.057168566 -0.21419194 0.20829214 0.15730907 -0.13687922
0.15444466 -0.20658347 -0.21739748 0.16571917 0.31456593 -0.3149974 -0.06732761 0.30696756
0.23821613 -0.11839671 -0.1490829 -0.33564067 0.055304717 0.2739626 0.09149135 -0.27752042
0.16256212 0.34967834 -0.03737517 0.17590843 0.1012383 0.40293118 0.3347724 -0.08941519
-0.21807168 -0.017238768 -0.16174655 0.134454 -0.12476999 0.0545818 -0.0303287 -0.01641285
-0.22066244 -0.33905917 0.12824516 0.49631974 0.047842927 -0.07135995 0.046827752 -0.3103154
-0.1467023 -0.002060857 0.0438635 -0.006335756 -0.008611242 -0.039095305 -0.1417316 0.04017288
-0.17800581 -0.30876744 0.074982196 0.12140656 0.0412545 -0.31542975 0.15147878 -0.17496358
-0.0672189 -0.01376767 -0.053651214 -0.0216611 0.04368338 -0.1544269 0.10128176 -0.0638289
0.29217565 -0.007439852 0.19477887 -0.15771079 0.12163927 0.11299864 0.1375023 0.0018347134
-0.051902186 0.45815602 0.25299796 0.20272481 0.025998624 0.50221306 0.16522403 -0.10585911
-0.0013533253 0.1101255 0.18705788 0.02587982 0.055495013 -0.26810887 0.18564586 -0.08357802
-0.12353111 0.4628183 -0.09387294 0.49259835 -0.1843085 -0.31727624 -0.42047864 -0.11985255
-0.21368374 0.25732005 -0.1498687 0.14365593 -0.42648748 0.13961229 -0.27282476 -0.07423568
-0.2537134 -0.25654918 0.1922402 -0.097788975 -0.04303201 -0.04873975 -0.32365215 0.036747623
-0.31027892 0.21827279 -0.2838852 0.19446778 -0.39389122 -0.059207857 -0.3328871 0.43228522
-0.1820312 0.39805782 0.30746186 0.112875395 -0.0025805663 0.28360343 0.12333532 0.21276058
-0.2875504 -0.048237104 0.19297265 -0.21050183 -0.20169143 0.30752817 -0.15826052 0.25213164
-0.076326445 -0.10706267 0.065095834 -0.04433606 -0.09789183 0.15327674 -0.20922254 -0.09933602
0.30993426 -0.16673385 0.220218 0.088798 0.04656378 0.024031384 0.17167304 0.13794656
-0.53758705 -0.20665081 -0.04288906 0.046965864 0.06109865 0.27614883 0.08076637 0.2773463
-0.1462265 -0.13015185 0.077458985 -0.09464165 -0.07581031 -0.113816224 0.08515664 0.25398824
0.16738886 0.3463384 0.038105614 -0.16358088 -0.30099192 0.34766972 0.14433405 0.1816131
0.0285258 -0.07315524 0.12576987 0.111060135 0.14522503 0.027633822 0.09623457 -0.2528288
-0.19206357 0.2509329 0.2547222 0.356209 -0.091994695 0.35683116 0.23376843 -0.019291008
00000000: dd9e 7b3c 5933 833d fbde cdbd 552a 16be
00000010: f745 ae3d b133 74bd 06cb 0e3e 1395 bc3d
00000020: aced 2dbe c58d 9dbe d092 bebe 0bab 9c3e
00000030: 2491 d3bd c941 33be 42a4 80be 22af d8bb
00000040: 4628 8bbd f635 203e b6dc adbd 3743 5fbd
00000050: 3fd8 38bd c8c7 68bd d819 76be 0f15 293d
00000060: 45f7 9cbe 43cc f4bd 4a22 aa3c cfa4 833e
00000070: e29c bc3d 3970 d3be 16d8 e83d 4cc1 b2be
00000080: 1a34 093b 59e0 153b bbce e2bc a6fb 01bc
00000090: 1194 123d 9f98 7a3c 2267 2a3d 7130 7b3d
000000a0: e6dc ee3c 407e 2bbd 7b94 823b a1cd a23b
000000b0: 1a1f 34bd 1536 4dbd 6413 14bd 4897 47bc
000000c0: 651e e7be ad09 1b3e c2d8 063f 519a 7fbe
000000d0: 831f bebd 2adc 98be 64a7 743e 3a99 d23e
000000e0: e24b 803d 5423 533c 330a 1fbe 9629 6abd
000000f0: 2255 5bbe 894a 553e a115 213e 112a 0cbe
00000100: be26 1e3e 9e8a 53be 729d 5ebe 49b2 293e
00000110: c90e a13e 5747 a1be 0fe3 89bd da2a 9d3e
00000120: eeee 733e f979 f2bd 30a9 18be 18d9 abbe
00000130: 3387 623d d344 8c3e d15f bb3d 2817 8ebe
00000140: af76 263e 0a09 b33e b516 19bd 5721 343e
00000150: 0756 cf3d ff4c ce3e 4a67 ab3e 501f b7bd
00000160: 2f4e 5fbe 5138 8dbc e3a0 25be 4fae 093e
00000170: 6987 ffbd 2a91 5f3d e573 f8bc 3e74 86bc
00000180: 56f5 61be 2a99 adbe b352 033e 9f1d fe3e
00000190: f2f6 433d 2a25 92bd 75ce 3f3d a9e1 9ebe
000001a0: 2139 16be 710f 07bb 37aa 333d 2c9c cfbb
000001b0: 2b16 0dbc 6622 20bd 1722 11be 518c 243d
000001c0: 2847 36be c416 9ebe 4490 993d 01a4 f83d
000001d0: 7bfa 283d 0280 a1be 411d 1b3e a729 33be
000001e0: 10aa 89bd cb91 61bc 60c1 5bbd 9f72 b1bc
000001f0: 58ed 323d 1622 1ebe d06c cf3d bab8 82bd
00000200: 0c98 953e 01ca f3bb 1d74 473e f07e 21be
00000210: 021e f93d d56b e73d 67cd 0c3e c47a f03a
00000220: 6397 54bd 6d93 ea3e f388 813e 1897 4f3e
00000230: 11fb d43c 0991 003f 7d30 293e a9cc d8bd
00000240: 1062 b1ba 7a89 e13d 1a8c 3f3e eb01 d43c
00000250: bd4e 633d 9145 89be f319 3e3e f42a abbd
00000260: e1fd fcbd 85f6 ec3e 7540 c0bd da35 fc3e
00000270: 5ebb 3cbe 0872 a2be fa48 d7be 4175 f5bd
00000280: e9cf 5abe 74bf 833e 2e77 19be 8a1a 133e
00000290: 915c dabe 86f6 0e3e b0af 8bbe e008 98bd
000002a0: b9e6 81be 6a5a 83be 9dda 443e 9645 c8bd
000002b0: 5542 30bd 55a3 47bd bcb5 a5be ad84 163d
000002c0: e1dc 9ebe e782 5f3e 6759 91be 9022 473e
000002d0: 1cac c9be f083 72bd 2e70 aabe 7d54 dd3e
000002e0: 6366 3abe 3cce cb3e a46b 9d3e 372b e73d
000002f0: b81e 29bb 7834 913e 3a97 fc3d e9dd 593e
00000300: ce39 93be 4594 45bd 9f9a 453e cb8d 57be
00000310: 3388 4ebe 5574 9d3e 0c0f 22be 6617 813e
00000320: 0a51 9cbd ac43 dbbd f750 853d ba99 35bd
00000330: 837b c8bd 94f4 1c3e 6f3e 56be af70 cbbd
00000340: b4af 9e3e 47bc 2abe d480 613e badb b53d
00000350: aab9 3e3d 77dd c43c 0fcb 2f3e dd41 0d3e
00000360: 4e9f 09bf 459c 53be 70ac 2fbd 475f 403d
00000370: 9442 7a3d 6163 8d3e d768 a53d 5600 8e3e
00000380: 66bc 15be 8746 05be d1a2 9e3d 7bd3 c1bd
00000390: 7042 9bbd 7b18 e9bd 9b66 ae3d bf0a 823e
000003a0: fc67 2b3e 4453 b13e a214 1c3d bf81 27be
000003b0: 9d1b 9abe c401 b23e 4ecc 133e c9f8 393e
000003c0: f0ae e93c 6ad2 95bd d1c9 003e 7f73 e33d
000003d0: dfb5 143e 5360 e23c a116 c53d c772 81be
000003e0: 50ac 44be 477a 803e f36a 823e 0761 b63e
000003f0: b767 bcbd 93b2 b63e fe60 6f3e 2d08 9ebc

layers.0.bias f4 [100]
-0.8930642 -0.59215355 -0.46081635 0.24141447 -0.39077273 -0.74659646 -0.53922564 -0.56791705
0.11843406 -0.06279236 -0.10290691 0.19769391 -0.041924663 -0.334086 -0.38508305 0.19102989
-0.08078513 0.14560232 -0.15195547 0.13697043 -0.6229134 -0.5263039 -0.05428817 0.0014582854
-0.042585894 -0.057780124 -0.029590946 -0.06414391 -0.28115758 -0.12538522 -0.020889629 -0.6025211
-0.35732418 -0.4000699 -0.017066855 -0.27244192 0.009934234 -0.38316455 -0.21994978 -0.70804745
-0.5914237 -0.7748216 -0.8382467 -0.3222508 0.10412967 -0.055905867 -0.3266527 -0.09536348
0.04122684 -0.3726009 0.0012069674 -0.10315286 -0.38680044 -0.6816567 -0.4826218 -0.18174602
0.04985127 -0.59585106 -0.16161735 -0.15585738 -0.06374712 -0.5246151 -0.44912603 0.001000405
0.058461033 -0.6453618 -0.060419746 0.007669564 0.021765636 -0.32611373 -0.0890107 -0.7299679
-0.50150806 -0.33334053 -0.22551669 -0.7694852 0.003478118 -0.4551412 -0.73860097 0.08069909
0.06720501 -0.66396505 -0.23408565 -0.08021596 -0.29112753 -0.028881153 -0.72302085 -0.42971507
0.05024736 -0.5227535 0.20026271 -0.036260646 -0.046232097 -0.13880078 0.0024364851 -0.5107911
-0.21497463 0.16096644 -0.26068762 0.13044229
00000000: db9f 64bf 6097 17bf 1ff0 ebbe 5b35 773e
00000010: 5d13 c8be f220 3fbf b10a 0abf 0363 11bf
00000020: 8e8d f23d 4899 80bd dcc0 d2bd 4670 4a3e
00000030: 32b9 2bbd 520d abbe 9b29 c5be 579d 433e
00000040: ad72 a5bd c618 153e 379a 1bbe fa41 0c3e
00000050: 4177 1fbf dabb 06bf 465d 5ebd f023 bf3a
00000060: 8c6e 2ebd daaa 6cbd b668 f2bc e25d 83bd
00000070: e3f3 8fbe fc64 00be ba20 abbc d33e 1abf
00000080: 32f3 b6be f6d5 ccbe cacf 8bbc 827d 8bbe
00000090: 33c3 223c 252e c4be 843a 61be 9942 35bf
000000a0: 8b67 17bf b55a 46bf 5697 56bf 0ffe a4be
000000b0: f041 d53d 8dfd 64bd 063f a7be ee4d c3bd
000000c0: 7add 283d 8cc5 bebe 1b33 9e3a cf41 d3bd
000000d0: b50a c6be 0e81 2ebf 341a f7be a11b 3abe
000000e0: d830 4c3d b289 18bf 057f 25be 1499 1fbe
000000f0: da8d 82bd 2d4d 06bf d9f3 e5be 0620 833a
00000100: d674 6f3d 6e36 25bf b27a 77bd f750 fb3b
00000110: d94d b23c 61f8 a6be 3e4b b6bd 2ddf 3abf
00000120: d562 00bf 9cab aabe d9ed 66be fbfc 44bf
00000130: 23f1 633b 4408 e9be f414 3dbf 9145 a53d
00000140: c8a2 893d 9df9 29bf 26b4 6fbe 4448 a4bd
00000150: ab0e 95be 2b98 ecbc e517 39bf 9d03 dcbe
00000160: 2dd0 4d3d 2cd3 05bf ab11 4d3e 0b86 14bd
00000170: de5d 3dbd cb21 0ebe 70ad 1f3b 35c3 02bf
00000180: 4f22 5cbe 63d4 243e d978 85be aa92 053e

layers.2.weight f4 [1, 100]
-0.5834398 0.32592404 0.008032967 -0.19722259 -0.16340098 -0.42591867 0.36196598 0.34559652
-0.13160905 -0.16131283 -0.14505023 -0.20525122 -0.0707324 -0.18809189 -0.14744833 -0.08782939
0.074788444 -0.12856093 -0.117157266 -0.056393698 0.35679212 -0.299841 -0.13163504 0.31145805
-0.17430387 -0.07966736 -0.1252966 -0.18001972 -0.27032986 -0.18598005 -0.12941849 -0.22401059
0.0033313057 -0.16873299 -0.06820203 -0.15437475 -0.22052348 0.1950232 -0.1865582 -0.36224532
-0.38401702 -0.47526303 -0.5568361 -0.13250388 -0.10044732 -0.026639983 -0.18833263 -0.2873991
-0.18652396 0.003764373 0.28912473 -0.18182248 0.0051136236 -0.31763047 0.011618054 -0.13868874
-0.24657285 -0.30532077 -0.19229603 -0.14702088 -0.14286235 0.3102218 -0.0021940912 0.445384
-0.044308007 0.3268898 -0.16610219 -0.03974398 -0.06955951 0.22486265 -0.09474379 -0.43600094
-0.26996073 -0.0006877832 -0.12493255 -0.58761245 0.44155484 0.31542587 -0.34414405 -0.0942792
-0.19698314 0.37241846 -0.15535037 -0.08317071 -0.07847659 -0.17740539 0.36656067 0.2585536
-0.09304334 -0.33943892 -0.1348327 -0.22144207 -0.18357083 0.07861264 0.48997277 -0.09024101
-0.19249488 -0.13959417 -0.10438791 -0.057325937
00000000: 505c 15bf 84df a63e b59c 033c b8f4 49be
00000010: 9652 27be 0312 dabe 9b53 b93e 07f2 b03e
00000020: 86c4 06be 312f 25be 0c88 14be 602d 52be
00000030: 26dc 90bd 299b 40be b2fc 16be e5df b3bd
00000040: af2a 993d 7aa5 03be 26f0 efbd 14fd 66bd
00000050: 75ad b63e c284 99be 56cb 06be 6e77 9f3e
00000060: b77c 32be a428 a3bd c04d 00be 1757 38be
00000070: ad68 8abe 8e71 3ebe 4886 04be 0863 65be
00000080: 0952 5a3b 57c8 2cbe 82ad 8bbd 6a14 1ebe
00000090: e8d0 61be 29b4 473e 1d09 3fbe 3878 b9be
000000a0: e19d c4be ad55 f3be d08c 0ebf 19af 07be
000000b0: 53b7 cdbd 183c dabc 45da 40be fa25 93be
000000c0: 2300 3fbe b3b3 763b 2808 943e ac2f 3abe
000000d0: 2f90 a73b 76a0 a2be a659 3e3c 6c04 0ebe
000000e0: 987d 7cbe 0153 9cbe 40e9 44be a48c 16be
000000f0: 824a 12be 64d5 9e3e beca 0fbb 5f09 e43e
00000100: 507c 35bd 1a5e a73e b116 2abe 95ca 22bd
00000110: 3775 8ebd 6542 663e 0809 c2bd 843b dfbe
00000120: 4b38 8abe 594c 34ba a3dc ffbd c56d 16bf
00000130: 7a13 e23e 807f a13e a633 b0be 7415 c1bd
00000140: f3b5 49be a2ad be3e 2b14 1fbe 6855 aabd
00000150: 56b8 a0bd c2a9 35be d7ad bb3e 2361 843e
00000160: 828d bebd f0ca adbe 9511 0abe b6c1 62be
00000170: fef9 3bbe aaff a03d b6dd fa3e 47d0 b8bd
00000180: 611d 45be c6f1 0ebe 54c9 d5bd 9ace 6abd

grad_avg f4 [494, 8]
0.0 0.0 0.0 0.0 0.0 0.0 0.0 0.0
0.0 0.0 0.0 0.0 0.0 0.0 0.0 0.0
0.0 0.0 0.0 0.0 0.0 0.0 0.0 0.0
0.0 0.0 0.0 0.0 0.0 0.0 0.0 0.0
0.0 0.0 0.0 0.0 0.0 0.0 0.0 0.0
0.0 0.0 0.0 0.0 0.0 0.0 0.0 0.0
0.0 0.0 0.0 0.0 0.0 0.0 0.0 0.0
0.0 0.0 0.0 0.0 0.0 0.0 0.0 0.0
0.0 0.0 0.0 0.0 0.0 0.0 0.0 0.0
0.0 0.0 0.0 0.0 0.0 0.0 0.0 0.0
0.0 0.0 0.0 0.0 0.0 0.0 0.0 0.0
0.0 0.0 0.0 0.0 0.0 0.0 0.0 0.0
0.0 0.0 0.0 0.0 0.0 0.0 0.0 0.0
0.0 0.0 0.0 0.0 0.0 0.0 0.0 0.0
0.0 0.0 0.0 0.0 0.0 0.0 0.0 0.0
0.0 0.0 0.0 0.0 0.0 0.0 0.0 0.0
0.0 0.0 0.0 0.0 0.0 0.0 0.0 0.0
0.0 0.0 0.0 0.0 0.0 0.0 0.0 0.0
0.0 0.0 0.0 0.0 0.0 0.0 0.0 0.0
0.0 0.0 0.0 0.0 0.0 0.0 0.0 0.0
0.0 0.0 0.0 0.0 0.0 0.0 0.0 0.0
0.0 0.0 0.0 0.0 0.0 0.0 0.0 0.0
0.0 0.0 0.0 0.0 0.0 0.0 0.0 0.0
0.0 0.0 0.0 0.0 0.0 0.0 0.0 0.0
0.0 0.0 0.0 0.0 0.0 0.0 0.0 0.0
0.0 0.0 0.0 0.0 0.0 0.0 0.0 0.0
0.0 0.0 0.0 0.0 0.0 0.0 0.0 0.0
0.0 0.0 0.0 0.0 0.0 0.0 0.0 0.0
0.0 0.0 0.0 0.0 0.0 0.0 0.0 0.0
0.0 0.0 0.0 0.0 0.0 0.0 0.0 0.0
0.0 0.0 0.0 0.0 0.0 0.0 0.0 0.0
0.0 0.0 0.0 0.0 0.0 0.0 0.0 0.0
00000000: 0000 0000 0000 0000 0000 0000 0000 0000
00000010: 0000 0000 0000 0000 0000 0000 0000 0000
00000020: 0000 0000 0000 0000 0000 0000 0000 0000
00000030: 0000 0000 0000 0000 0000 0000 0000 0000
00000040: 0000 0000 0000 0000 0000 0000 0000 0000
00000050: 0000 0000 0000 0000 0000 0000 0000 0000
00000060: 0000 0000 0000 0000 0000 0000 0000 0000
00000070: 0000 0000 0000 0000 0000 0000 0000 0000
00000080: 0000 0000 0000 0000 0000 0000 0000 0000
00000090: 0000 0000 0000 0000 0000 0000 0000 0000
000000a0: 0000 0000 0000 0000 0000 0000 0000 0000
000000b0: 0000 0000 0000 0000 0000 0000 0000 0000
000000c0: 0000 0000 0000 0000 0000 0000 0000 0000
000000d0: 0000 0000 0000 0000 0000 0000 0000 0000
000000e0: 0000 0000 0000 0000 0000 0000 0000 0000
000000f0: 0000 0000 0000 0000 0000 0000 0000 0000
00000100: 0000 0000 0000 0000 0000 0000 0000 0000
00000110: 0000 0000 0000 0000 0000 0000 0000 0000
00000120: 0000 0000 0000 0000 0000 0000 0000 0000
00000130: 0000 0000 0000 0000 0000 0000 0000 0000
00000140: 0000 0000 0000 0000 0000 0000 0000 0000
00000150: 0000 0000 0000 0000 0000 0000 0000 0000
00000160: 0000 0000 0000 0000 0000 0000 0000 0000
00000170: 0000 0000 0000 0000 0000 0000 0000 0000
00000180: 0000 0000 0000 0000 0000 0000 0000 0000
00000190: 0000 0000 0000 0000 0000 0000 0000 0000
000001a0: 0000 0000 0000 0000 0000 0000 0000 0000
000001b0: 0000 0000 0000 0000 0000 0000 0000 0000
000001c0: 0000 0000 0000 0000 0000 0000 0000 0000
000001d0: 0000 0000 0000 0000 0000 0000 0000 0000
000001e0: 0000 0000 0000 0000 0000 0000 0000 0000
000001f0: 0000 0000 0000 0000 0000 0000 0000 0000
00000200: 0000 0000 0000 0000 0000 0000 0000 0000
00000210: 0000 0000 0000 0000 0000 0000 0000 0000
00000220: 0000 0000 0000 0000 0000 0000 0000 0000
00000230: 0000 0000 0000 0000 0000 0000 0000 0000
00000240: 0000 0000 0000 0000 0000 0000 0000 0000
00000250: 0000 0000 0000 0000 0000 0000 0000 0000
00000260: 0000 0000 0000 0000 0000 0000 0000 0000
00000270: 0000 0000 0000 0000 0000 0000 0000 0000
00000280: 0000 0000 0000 0000 0000 0000 0000 0000
00000290: 0000 0000 0000 0000 0000 0000 0000 0000
000002a0: 0000 0000 0000 0000 0000 0000 0000 0000
000002b0: 0000 0000 0000 0000 0000 0000 0000 0000
000002c0: 0000 0000 0000 0000 0000 0000 0000 0000
000002d0: 0000 0000 0000 0000 0000 0000 0000 0000
000002e0: 0000 0000 0000 0000 0000 0000 0000 0000
000002f0: 0000 0000 0000 0000 0000 0000 0000 0000
00000300: 0000 0000 0000 0000 0000 0000 0000 0000
00000310: 0000 0000 0000 0000 0000 0000 0000 0000
00000320: 0000 0000 0000 0000 0000 0000 0000 0000
00000330: 0000 0000 0000 0000 0000 0000 0000 0000
00000340: 0000 0000 0000 0000 0000 0000 0000 0000
00000350: 0000 0000 0000 0000 0000 0000 0000 0000
00000360: 0000 0000 0000 0000 0000 0000 0000 0000
00000370: 0000 0000 0000 0000 0000 0000 0000 0000
00000380: 0000 0000 0000 0000 0000 0000 0000 0000
00000390: 0000 0000 0000 0000 0000 0000 0000 0000
000003a0: 0000 0000 0000 0000 0000 0000 0000 0000
000003b0: 0000 0000 0000 0000 0000 0000 0000 0000
000003c0: 0000 0000 0000 0000 0000 0000 0000 0000
000003d0: 0000 0000 0000 0000 0000 0000 0000 0000
000003e0: 0000 0000 0000 0000 0000 0000 0000 0000
000003f0: 0000 0000 0000 0000 0000 0000 0000 0000

sqr_avg f4 [494, 8]
0.0 0.0 0.0 0.0 0.0 0.0 0.0 0.0
0.0 0.0 0.0 0.0 0.0 0.0 0.0 0.0
0.0 0.0 0.0 0.0 0.0 0.0 0.0 0.0
0.0 0.0 0.0 0.0 0.0 0.0 0.0 0.0
0.0 0.0 0.0 0.0 0.0 0.0 0.0 0.0
0.0 0.0 0.0 0.0 0.0 0.0 0.0 0.0
0.0 0.0 0.0 0.0 0.0 0.0 0.0 0.0
0.0 0.0 0.0 0.0 0.0 0.0 0.0 0.0
0.0 0.0 0.0 0.0 0.0 0.0 0.0 0.0
0.0 0.0 0.0 0.0 0.0 0.0 0.0 0.0
0.0 0.0 0.0 0.0 0.0 0.0 0.0 0.0
0.0 0.0 0.0 0.0 0.0 0.0 0.0 0.0
0.0 0.0 0.0 0.0 0.0 0.0 0.0 0.0
0.0 0.0 0.0 0.0 0.0 0.0 0.0 0.0
0.0 0.0 0.0 0.0 0.0 0.0 0.0 0.0
0.0 0.0 0.0 0.0 0.0 0.0 0.0 0.0
0.0 0.0 0.0 0.0 0.0 0.0 0.0 0.0
0.0 0.0 0.0 0.0 0.0 0.0 0.0 0.0
0.0 0.0 0.0 0.0 0.0 0.0 0.0 0.0
0.0 0.0 0.0 0.0 0.0 0.0 0.0 0.0
0.0 0.0 0.0 0.0 0.0 0.0 0.0 0.0
0.0 0.0 0.0 0.0 0.0 0.0 0.0 0.0
0.0 0.0 0.0 0.0 0.0 0.0 0.0 0.0
0.0 0.0 0.0 0.0 0.0 0.0 0.0 0.0
0.0 0.0 0.0 0.0 0.0 0.0 0.0 0.0
0.0 0.0 0.0 0.0 0.0 0.0 0.0 0.0
0.0 0.0 0.0 0.0 0.0 0.0 0.0 0.0
0.0 0.0 0.0 0.0 0.0 0.0 0.0 0.0
0.0 0.0 0.0 0.0 0.0 0.0 0.0 0.0
0.0 0.0 0.0 0.0 0.0 0.0 0.0 0.0
0.0 0.0 0.0 0.0 0.0 0.0 0.0 0.0
0.0 0.0 0.0 0.0 0.0 0.0 0.0 0.0
00000000: 0000 0000 0000 0000 0000 0000 0000 0000
00000010: 0000 0000 0000 0000 0000 0000 0000 0000
00000020: 0000 0000 0000 0000 0000 0000 0000 0000
00000030: 0000 0000 0000 0000 0000 0000 0000 0000
00000040: 0000 0000 0000 0000 0000 0000 0000 0000
00000050: 0000 0000 0000 0000 0000 0000 0000 0000
00000060: 0000 0000 0000 0000 0000 0000 0000 0000
00000070: 0000 0000 0000 0000 0000 0000 0000 0000
00000080: 0000 0000 0000 0000 0000 0000 0000 0000
00000090: 0000 0000 0000 0000 0000 0000 0000 0000
000000a0: 0000 0000 0000 0000 0000 0000 0000 0000
000000b0: 0000 0000 0000 0000 0000 0000 0000 0000
000000c0: 0000 0000 0000 0000 0000 0000 0000 0000
000000d0: 0000 0000 0000 0000 0000 0000 0000 0000
000000e0: 0000 0000 0000 0000 0000 0000 0000 0000
000000f0: 0000 0000 0000 0000 0000 0000 0000 0000
00000100: 0000 0000 0000 0000 0000 0000 0000 0000
00000110: 0000 0000 0000 0000 0000 0000 0000 0000
00000120: 0000 0000 0000 0000 0000 0000 0000 0000
00000130: 0000 0000 0000 0000 0000 0000 0000 0000
00000140: 0000 0000 0000 0000 0000 0000 0000 0000
00000150: 0000 0000 0000 0000 0000 0000 0000 0000
00000160: 0000 0000 0000 0000 0000 0000 0000 0000
00000170: 0000 0000 0000 0000 0000 0000 0000 0000
00000180: 0000 0000 0000 0000 0000 0000 0000 0000
00000190: 0000 0000 0000 0000 0000 0000 0000 0000
000001a0: 0000 0000 0000 0000 0000 0000 0000 0000
000001b0: 0000 0000 0000 0000 0000 0000 0000 0000
000001c0: 0000 0000 0000 0000 0000 0000 0000 0000
000001d0: 0000 0000 0000 0000 0000 0000 0000 0000
000001e0: 0000 0000 0000 0000 0000 0000 0000 0000
000001f0: 0000 0000 0000 0000 0000 0000 0000 0000
00000200: 0000 0000 0000 0000 0000 0000 0000 0000
00000210: 0000 0000 0000 0000 0000 0000 0000 0000
00000220: 0000 0000 0000 0000 0000 0000 0000 0000
00000230: 0000 0000 0000 0000 0000 0000 0000 0000
00000240: 0000 0000 0000 0000 0000 0000 0000 0000
00000250: 0000 0000 0000 0000 0000 0000 0000 0000
00000260: 0000 0000 0000 0000 0000 0000 0000 0000
00000270: 0000 0000 0000 0000 0000 0000 0000 0000
00000280: 0000 0000 0000 0000 0000 0000 0000 0000
00000290: 0000 0000 0000 0000 0000 0000 0000 0000
000002a0: 0000 0000 0000 0000 0000 0000 0000 0000
000002b0: 0000 0000 0000 0000 0000 0000 0000 0000
000002c0: 0000 0000 0000 0000 0000 0000 0000 0000
000002d0: 0000 0000 0000 0000 0000 0000 0000 0000
000002e0: 0000 0000 0000 0000 0000 0000 0000 0000
000002f0: 0000 0000 0000 0000 0000 0000 0000 0000
00000300: 0000 0000 0000 0000 0000 0000 0000 0000
00000310: 0000 0000 0000 0000 0000 0000 0000 0000
00000320: 0000 0000 0000 0000 0000 0000 0000 0000
00000330: 0000 0000 0000 0000 0000 0000 0000 0000
00000340: 0000 0000 0000 0000 0000 0000 0000 0000
00000350: 0000 0000 0000 0000 0000 0000 0000 0000
00000360: 0000 0000 0000 0000 0000 0000 0000 0000
00000370: 0000 0000 0000 0000 0000 0000 0000 0000
00000380: 0000 0000 0000 0000 0000 0000 0000 0000
00000390: 0000 0000 0000 0000 0000 0000 0000 0000
000003a0: 0000 0000 0000 0000 0000 0000 0000 0000
000003b0: 0000 0000 0000 0000 0000 0000 0000 0000
000003c0: 0000 0000 0000 0000 0000 0000 0000 0000
000003d0: 0000 0000 0000 0000 0000 0000 0000 0000
000003e0: 0000 0000 0000 0000 0000 0000 0000 0000
000003f0: 0000 0000 0000 0000 0000 0000 0000 0000

grad_avg f4 [100, 16]
0.0033642713 0.015522067 -0.0071569546 -0.005258129 0.0060105952 -0.0020787644 0.004010026 0.00080048165
-0.01272548 -0.016244523 -0.008384418 0.0016892421 0.0048560617 -0.010166852 0.0016721901 -0.00039971367
0.0009996347 -0.007512893 0.007209422 -0.0034531285 -0.005790671 -0.0043816194 -0.0097526405 0.0006068944
0.002107709 0.010804037 0.0073137814 -0.00052720035 -0.0068323463 0.003260647 0.009609313 -0.00405156
-6e-45 6e-45 -6e-45 6e-45 6e-45 -6e-45 6e-45 6e-45
6e-45 -6e-45 6e-45 -6e-45 -6e-45 -6e-45 -6e-45 6e-45
-0.0013958219 -0.0066068633 -0.0006999285 -0.011224979 0.0011489432 0.0038387775 0.0055632885 -0.0012390001
-0.005503751 -0.0035620348 0.013847774 -0.014301928 0.00061245513 -0.0061681317 0.0058873137 0.007327352
0.002099472 -0.0019165396 -0.0034799923 -0.0035399115 -0.0006405219 0.00078423804 0.0046565924 -0.00013616594
0.0016351239 -0.0020190198 0.00022211985 -0.0025034896 -0.002345393 -0.0011615461 0.006275139 0.003188414
0.0016772045 0.0041343616 -0.019780464 0.0092374515 0.00018819179 0.00609044 -0.009246222 -0.0015151295
0.00028351505 -0.006587648 -0.012147359 0.010381353 0.0031091108 0.003568911 -0.0020944949 -0.0028337832
0.0012651042 -0.010832314 -0.013821231 0.011375044 -0.006283266 -0.0019067973 -0.009374928 -0.0072909123
0.010146472 0.0034391545 -0.009275266 0.016640002 0.005167145 0.004825359 -0.006551681 0.00093756896
0.0019237611 0.0033599879 1.09757875e-05 0.00972115 -0.0076505933 -0.0011767449 -0.012999307 -0.0058551077
0.009547182 0.0005970988 -0.0017564376 0.008411187 0.0067311847 0.0024313475 0.0007522345 -0.008517855
0.0004629679 0.0019996644 -0.0020352672 -0.0008056841 0.0036824548 -0.0026741088 0.007196347 0.0032614723
0.0005856565 0.0004984686 0.001091234 -0.009079937 -0.0019436086 0.0007496194 0.0060842605 0.004712008
0.0033482932 0.004923375 -0.0014239975 -0.0043336363 0.0010480109 0.0036240893 0.00740723 0.0035808925
-0.0051668957 -0.008133203 0.003841474 -0.0028148768 0.0032947685 -0.0013737762 0.0011193946 0.0031681445
-0.0067605143 0.0070414045 0.0006078297 0.0053313086 0.0063098827 0.0048933965 0.007035448 -0.0016984461
0.002597442 -0.003498149 -0.0038405762 -0.0012832934 -0.0020838073 -0.010443037 0.0031860245 0.0054847505
0.0013373814 0.006819409 0.00040664012 -0.0043014376 0.0049743447 0.0007403264 0.011362242 0.0025424298
-0.0048182607 0.0030434984 0.0010498861 -0.008763793 -0.0034728292 -0.0063102683 0.006757909 0.007038104
-0.0008350359 0.001127082 0.0015624689 -8.447116e-05 0.0028866958 -0.0011665758 0.002926218 0.00087891915
-0.0003891044 -0.0011784721 0.00084283296 -0.00467129 -0.00046234493 -0.00459433 0.0017370315 0.00040288485
-0.0049128905 -0.0020818193 -0.0022934398 0.0011366965 0.002022422 -0.005123864 0.005660466 0.005730961
-0.00095945667 -0.0008809274 -0.0005502667 -0.0038957736 -0.00027987603 -0.0033973467 3.3539498e-05 0.0070336536
0.0025189 -0.0026915364 -0.00025080892 -0.0027727217 0.0015384391 -0.0036641879 0.0030064746 -0.00287202
-0.0028769658 -0.000665324 0.005424032 -0.010114387 -0.0012205832 5.5040095e-05 0.0041884175 0.00024650097
-0.00013766628 0.003915885 -0.0025376973 -0.0006513124 0.003857863 0.0021482392 0.0037148478 0.00045132145
-0.0009964011 0.0005776934 0.0026497599 -0.006896241 -0.0006727141 -3.970764e-05 0.002215007 0.0025988184
00000000: 1b7b 5c3b 4550 7e3c e384 eabb 624c acbb
00000010: 87f4 c43b e13b 08bb 8966 833b 6ad7 513a
00000020: 887e 50bc 3c13 85bc cc5e 09bc 8f69 dd3a
00000030: 991f 9f3b de92 26bc 642d db3a a990 d1b9
00000040: 2d06 833a b72e f6bb 043d ec3b e24d 62bb
00000050: abbf bdbb b093 8fbb 8ac9 1fbc fe17 1f3a
00000060: 7d21 0a3b 6a03 313c 72a8 ef3b d133 0aba
00000070: e0e1 dfbb 94b0 553b 6170 1d3c f3c2 84bb
00000080: 0400 0080 0400 0000 0400 0080 0400 0000
00000090: 0400 0000 0400 0080 0400 0000 0400 0000
000000a0: 0400 0000 0400 0080 0400 0000 0400 0080
000000b0: 0400 0080 0400 0080 0400 0080 0400 0000
000000c0: 03f4 b6ba 637e d8bb 687b 37ba f9e8 37bc
000000d0: 2398 963a 0094 7b3b 3f4c b63b f265 a2ba
000000e0: cf58 b4bb 0771 69bb c6e1 623c a252 6abc
000000f0: 2b8d 203a 0a1e cabb 5eea c03b 491a f03b
00000100: 4c97 093b 6634 fbba 9510 64bb dcfd 67bb
00000110: b2e8 27ba 5395 4d3a 5496 983b c4c7 0eb9
00000120: a751 d63a 8851 04bb d8e8 6839 9611 24bb
00000130: 2ab5 19bb 053f 98ba ae9f cd3b b6f4 503b
00000140: a5d5 db3a 8a79 873b a40a a2bc ae58 173c
00000150: 5955 4539 5092 c73b 777d 17bc 4f97 c6ba
00000160: bfa4 9439 32dd d7bb b705 47bc 8d16 2a3c
00000170: 39c2 4b3b 64e4 693b cb43 09bb feb6 39bb
00000180: dad1 a53a 057a 31bc 7272 62bc 645e 3a3c
00000190: dbe3 cdbb 80ed f9ba 4c99 19bc 9be8 eebb
000001a0: 633d 263c 7063 613b 49f7 17bc 9d50 883c
000001b0: 2751 a93b 0c1e 9e3b 7caf d6bb 30c7 753a
000001c0: b626 fc3a 3e33 5c3b a624 3837 7545 1f3c
000001d0: d4b1 fabb 023d 9aba 0cfb 54bc 34dc bfbb
000001e0: c96b 1c3c 9f86 1c3a 4438 e6ba 13cf 093c
000001f0: 4591 dc3b 3e57 1f3b 9a31 453a 798e 0bbc
00000200: 80ba f239 cd0c 033b 1e62 05bb 8b34 53ba
00000210: 5755 713b 1a40 2fbb 56cf eb3b 6dbe 553b
00000220: be86 193a a9ab 023a bd07 8f3a 04c4 14bc
00000230: afc0 feba 1b82 443a 7a5e c73b 3067 9a3b
00000240: 0a6f 5b3b 4354 a13b 6da5 baba 2d01 8ebb
00000250: 695d 893a 2182 6d3b 59b8 f23b 68ad 6a3b
00000260: 104f a9bb 2041 05bc 3dc1 7b3b cc79 38bb
00000270: 0bed 573b 4810 b4ba a6b8 923a a5a0 4f3b
00000280: 4e87 ddbb 95bb e63b c356 1f3a 42b2 ae3b
00000290: 22c3 ce3b c958 a03b 9e89 e63b 659e deba
000002a0: d839 2a3b 3441 65bb 2db2 7bbb 2e34 a8ba
000002b0: 7c90 08bb 4619 2bbc 9fcc 503b 6cb9 b33b
000002c0: 134b af3a 5975 df3b 5032 d539 13f3 8cbb
000002d0: d4ff a23b 7712 423a b228 3a3c e59e 263b
000002e0: 80e2 9dbb 6e75 473b 559c 893a 0396 0fbc
000002f0: 6898 63bb 5ec6 cebb 7371 dd3b e59f e63b
00000300: 50e6 5aba 99ba 933a c2cb cc3a 1c26 b1b8
00000310: b82e 3d3b cae7 98ba cbc5 3f3b 4467 663a
00000320: b500 ccb9 f676 9aba 90f1 5c3a 9f11 99bb
00000330: e366 f2b9 098c 96bb 1bad e33a 4a3a d339
00000340: 50fc a0bb 226f 08bb 894d 16bb 35fd 943a
00000350: 9c8a 043b 16e6 a7bb 6e7b b93b c9ca bb3b
00000360: 0c84 7bba 09ee 66ba c63f 10ba 3c50 7fbb
00000370: 53bc 92b9 05a6 5ebb c3ac 0c38 907a e63b
00000380: 2114 253b 7d64 30bb 017f 83b9 8db6 35bb
00000390: 73a5 c93a df22 70bb 4608 453b 8038 3cbb
000003a0: 7a8b 3cbb 2369 2eba 14bc b13b d0b6 25bc
000003b0: fafb 9fba dada 6638 fe3e 893b cd3c 8139
000003c0: 835a 10b9 d350 803b 7f4f 26bb d6bc 2aba
000003d0: 33d4 7c3b 79c9 0c3b ce74 733b 579f ec39
000003e0: ac99 82ba 5970 173a 98a7 2d3b ddf9 e1bb
000003f0: 1459 30ba c18b 26b8 a729 113b f050 2a3b

sqr_avg f4 [100, 16]
0.0031051827 0.0027186417 0.0026446388 0.0026749477 0.0024543628 0.0027657442 0.0023352767 0.0029400229
0.0027372786 0.0031182163 0.0030809434 0.003168741 0.002570071 0.0031199611 0.0031760673 0.002758064
0.0022670897 0.0026513909 0.0021196723 0.0023462258 0.0024548394 0.00221053 0.002074415 0.0022687558
0.0019024126 0.0026565478 0.0022698487 0.0023246328 0.0023643526 0.0020543276 0.0026584945 0.002386906
8.329589e-23 1.1480189e-22 9.442951e-23 1.2798103e-22 1.413684e-22 9.955709e-23 8.660937e-23 1.0165203e-22
9.67518e-23 1.1531138e-22 8.1078897e-23 1.2595084e-22 9.942597e-23 1.3355387e-22 1.0342732e-22 9.7298356e-23
0.0020803756 0.002895863 0.0022199715 0.0023092513 0.0023874892 0.0020729853 0.0021743616 0.001881275
0.0021582416 0.0022984464 0.0019648613 0.0024642309 0.0022213205 0.0022761864 0.0024875419 0.0021490438
0.00087410625 0.0011186557 0.0009437156 0.0010900601 0.0008431057 0.0008800655 0.0008410579 0.0008953193
0.0009493767 0.0007702719 0.00082243286 0.0009786272 0.0008305458 0.00085255987 0.0009454154 0.0007949904
0.0032234958 0.0042505343 0.0035881777 0.0035550885 0.0038946266 0.0040835007 0.0033695174 0.0033056403
0.0041529103 0.0036319187 0.0039289207 0.0034656937 0.0031932779 0.0035092684 0.0042876406 0.0038990134
0.0029316451 0.002811559 0.0032498222 0.0032775046 0.003771327 0.003357912 0.0025863473 0.0028570849
0.0029134222 0.0033827128 0.0027866582 0.0029541845 0.0033740238 0.002515371 0.0037907483 0.0030808519
0.0019602217 0.001965903 0.0018183364 0.0018725957 0.0017856378 0.0019019246 0.0018505538 0.0018234804
0.0018702802 0.0018121457 0.0017383557 0.0019030356 0.0019370784 0.0016997902 0.0022169494 0.0014958741
0.0012923713 0.0013784489 0.0010326409 0.0012423099 0.001086364 0.0010879005 0.0011730612 0.000992799
0.0011943898 0.0012043981 0.0010140155 0.0011697131 0.0010224906 0.0010377903 0.0012157427 0.0011561831
0.0015167597 0.0016352263 0.001345855 0.0013364501 0.0013982435 0.0014644584 0.0012857013 0.0012778515
0.001468134 0.0016245026 0.001250762 0.0014507629 0.0014798199 0.0014441803 0.0014969524 0.0013237273
0.00096113374 0.0010959005 0.0009994812 0.0011554478 0.0011584919 0.00125239 0.0010405929 0.0010110977
0.0011119198 0.0011796153 0.00117235 0.0011693076 0.0009401096 0.001005853 0.0010834204 0.0009324966
0.0025162983 0.0028377962 0.002351063 0.0024697785 0.0027470677 0.0029886563 0.0023537502 0.0024172242
0.0024751804 0.0028775854 0.0027789876 0.0029974973 0.0020762791 0.0022904603 0.0026742304 0.0025384515
0.00026790623 0.0003113289 0.00021561129 0.00028301805 0.00025674226 0.00028242593 0.00027444094 0.00022666797
0.00028076902 0.0002715882 0.00027165833 0.00026233 0.0002478586 0.00025915593 0.0002909259 0.00024078265
0.0012130605 0.0013345578 0.0013352229 0.0013505392 0.0013318753 0.0010927886 0.0012737516 0.0010797728
0.0010943537 0.0011516465 0.0012281978 0.001355691 0.00096587325 0.0010919085 0.0010973362 0.0013068301
0.0006838617 0.00078953686 0.00072748313 0.0006746288 0.00065108645 0.00065427297 0.00068917876 0.0006373045
0.00065754616 0.0007612469 0.00064749055 0.0009738746 0.0006451634 0.0007298018 0.00070666504 0.0006763944
0.0005286567 0.00063490105 0.00049755344 0.0005136765 0.00054890057 0.0005252854 0.00044229077 0.00046671607
0.00050911336 0.00063790724 0.00046329765 0.00043568233 0.00044442754 0.0005336119 0.0004997679 0.00051714387
00000000: 5280 4b3b 3d2b 323b ad51 2d3b 2d4e 2f3b
00000010: 60d9 203b 7d41 353b 710b 193b 66ad 403b
00000020: ea63 333b fd5a 4c3b a7e9 493b a7aa 4f3b
00000030: a36e 283b 4378 4c3b 9125 503b a3c0 343b
00000040: 7493 143b f5c2 2d3b 33ea 0a3b 23c3 193b
00000050: 5fe1 203b 8ade 103b e9f2 073b 68af 143b
00000060: 605a f93a 7a19 2e3b bec1 143b de58 183b
00000070: 41f3 1a3b e6a1 063b 233a 2e3b a36d 1c3b
00000080: a965 c91a 77c9 0a1b 0951 e41a 36b8 1a1b
00000090: 67e7 2a1b dbb6 f01a 9a68 d11a 8fc7 f51a
000000a0: 77ee e91a 2567 0b1b 6809 c41a e643 181b
000000b0: b265 f01a ec74 211b 6912 fa1a c440 eb1a
000000c0: e956 083b 85c8 3d3b f17c 113b cf56 173b
000000d0: 6c77 1c3b ecda 073b bc7f 0e3b 1d95 f63a
000000e0: 4971 0d3b 88a1 163b e7c4 003b ef7e 213b
000000f0: 9393 113b 122c 153b 0706 233b f9d6 0c3b
00000100: 4724 653a db9f 923a af63 773a 59e0 8e3a
00000110: de03 5d3a 32b4 663a 717a 5c3a dcb3 6a3a
00000120: 98df 783a 12ec 493a 8998 573a 4845 803a
00000130: fcb8 593a 537e 5f3a c1d5 773a e766 503a
00000140: 4941 533b 1148 8b3b a227 6b3b 7dfc 683b
00000150: fe3c 7f3b e3ce 853b 1fd3 5c3b 71a3 583b
00000160: 2315 883b 7c05 6e3b 2dbe 803b b120 633b
00000170: 5046 513b c1fb 653b 567f 8c3b 9786 7f3b
00000180: d820 403b 2242 383b f8fa 543b 67cb 563b
00000190: 5e28 773b 6a10 5c3b b57f 293b ee3d 3b3b
000001a0: 1def 3e3b 81b0 5d3b 5ea0 363b fe9a 413b
000001b0: ba1e 5d3b ecd8 243b 346e 783b 1ee8 493b
000001c0: 1077 003b 61d6 003b 3f55 ee3a e371 f53a
000001d0: 100c ea3a 004a f93a 488e f23a d901 ef3a
000001e0: 3124 f53a 8585 ed3a 8ad9 e33a 476f f93a
000001f0: 91e5 fd3a 7fcb de3a 3d4a 113b 3511 c43a
00000200: c964 a93a 12ad b43a ae59 873a 01d5 a23a
00000210: 5464 8e3a e297 8e3a 67c1 993a ce20 823a
00000220: 128d 9c3a e5dc 9d3a b7e8 843a 0f51 993a
00000230: 1705 863a 7706 883a 8e59 9f3a 118b 973a
00000240: 03ce c63a 1755 d63a 6667 b03a d32b af3a
00000250: 4445 b73a 12f3 bf3a fa84 a83a 957d a73a
00000260: 676e c03a 43ed d43a 9cf0 a33a 8627 be3a
00000270: 84f6 c13a a64a bd3a 6335 c43a eb80 ad3a
00000280: 98f4 7b3a 52a4 8f3a 0601 833a 6572 973a
00000290: 8ad8 973a 3c27 a43a 8164 883a cf86 843a
000002a0: d6bd 913a 529d 9a3a 8aa9 993a 7443 993a
000002b0: b071 763a d3d6 833a 8e01 8e3a ca72 743a
000002c0: 7be8 243b 52fa 393b 4b14 1a3b 02dc 213b
000002d0: 2608 343b 55dd 433b 6041 1a3b 4b6a 1e3b
000002e0: a336 223b df95 3c3b ad1f 363b a971 443b
000002f0: 2f12 083b 8c1b 163b 2442 2f3b 265c 263b
00000300: c475 8c39 dc39 a339 b715 6239 0a62 9439
00000310: 5d9b 8639 9112 9439 d7e2 8f39 b8ad 6d39
00000320: 2e34 9339 f363 8e39 5d6d 8e39 5689 8939
00000330: 05f3 8139 52df 8739 6a87 9839 9a7a 7c39
00000340: 8eff 9e3a 54ec ae3a a502 af3a 9304 b13a
00000350: 5292 ae3a e73b 8f3a 03f4 a63a 2a87 8d3a
00000360: 6b70 8f3a d8f2 963a 7bfb a03a 71b1 b13a
00000370: a832 7d3a 5f1e 8f3a 7ed4 8f3a f149 ab3a
00000380: 2f45 333a ecf8 4e3a 91b4 3e3a 93d9 303a
00000390: acad 2a3a 8483 2b3a 01aa 343a c810 273a
000003a0: 2d5f 2c3a 6a8e 473a 5bbc 293a 9e4b 7f3a
000003b0: 2f20 293a 2b50 3f3a 7d3f 393a 0f50 313a
000003c0: 8d95 0a3a 7d6f 263a 3f6e 023a 3fa8 063a
000003d0: 18e4 0f3a 4eb3 093a 43e3 e739 92b1 f439
000003e0: 0576 053a 3b39 273a c2e6 f239 4b6c e439
000003f0: 0e02 e939 17e2 0b3a db02 033a f090 073a

grad_avg f4 [100]
0.014152537 0.003929714 6e-45 0.00041962642 -0.0018769784 0.009732087 0.008055257 0.0020494545
-0.0030513136 -0.0037791245 -0.00313699 -0.001172287 0.0005022633 -0.0016638994 0.004555638 -0.002680182
-0.0001585443 -0.0023016543 0.0013469383 -0.002415295 -0.00070622924 0.0037175226 -0.0020345692 -0.00071098935
-0.0006280907 0.0007708223 -0.0016062239 -0.006144045 -0.0017315892 -0.0035973699 0.00018053594 -0.007340191
6e-45 0.00025777722 -0.0017621403 -3.8831764e-05 0.00571426 0.00036544225 0.0002466496 -0.0047336044
0.0031354 0.0061135394 0.01594318 -0.0013712915 0.00086660375 4.799917e-05 0.000217979 -0.0026831985
0.007045436 7e-45 0.0065258723 0.0008667948 4e-45 0.0044931634 6e-45 0.002033585
-0.0074593914 0.0017871929 -0.0033986892 0.0048509855 0.00046603917 -0.003818974 4e-45 -0.0067561907
-0.0011041525 -0.002348483 0.0019082915 0.0008808257 -0.001134161 0.0011946743 -0.0009810949 -0.002417474
-0.0026554544 6e-45 0.0009017042 0.008093827 0.0007910938 0.010727712 0.0069535086 0.000958558
0.0007760529 0.007209222 -0.0017382872 -0.001026913 -0.0013632139 -0.0065748896 -0.0067381137 0.004512921
-0.00021018776 0.0078035886 0.0069272416 0.0007099295 -0.0037929527 1.6529442e-05 0.024578117 0.00038671968
-0.0038313165 0.0013938838 0.0012959001 -0.00042490807
00000000: 0be0 673c d5c4 803b 0400 0000 4e01 dc39
00000010: f204 f6ba 5573 1f3c 32fa 033c 2450 063b
00000020: 8cf8 47bb 30ab 77bb f595 4dbb 6da7 99ba
00000030: 52aa 033a 3317 daba 7647 953b fea5 2fbb
00000040: e93e 26b9 5ad7 16bb c08b b03a ed49 1ebb
00000050: 3e22 39ba aea1 733b 6856 05bb b061 3aba
00000060: 74a6 24ba 0211 4a3a ee87 d2ba fc53 c9bb
00000070: 7ef6 e2ba dac1 6bbb 3f4e 3d39 fc85 f0bb
00000080: 0400 0000 4626 8739 9ef7 e6ba 4adf 22b8
00000090: b03e bb3b d498 bf39 c050 8139 5a1c 9bbb
000000a0: 487b 4d3b 1654 c83b 469b 823c e8bc b3ba
000000b0: cb2c 633a b752 4938 4b91 6439 9ad8 2fbb
000000c0: 67dd e63b 0500 0000 fcd6 d53b 9d39 633a
000000d0: 0300 0000 633b 933b 0400 0000 e545 053b
000000e0: e96d f4bb 3e40 ea3a 8bbc 5ebb 04f5 9e3b
000000f0: b856 f439 c047 7abb 0300 0000 0963 ddbb
00000100: 36b9 90ba 02e9 19bb a31f fa3a 36e7 663a
00000110: 21a8 94ba 9e96 9c3a 1598 80ba 7c6e 1ebb
00000120: 2207 2ebb 0400 0000 5860 6c3a f99b 043c
00000130: 6861 4f3a 49c3 2f3c 42da e33b bd47 7b3a
00000140: 0770 4b3a 563b ec3b 3dd7 e3ba 7c99 86ba
00000150: dead b2ba 2c72 d7bb 65cb dcbb 20e1 933b
00000160: d965 5cb9 3fb5 ff3b eafd e23b 901a 3a3a
00000170: 3093 78bb b5a8 8a37 0c58 c93c a3c0 ca39
00000180: d316 7bbb fbb2 b63a 31db a93a 32c6 deb9

sqr_avg f4 [100]
0.0033856023 0.0021154901 9.882829e-23 0.002148932 0.00095011527 0.004202285 0.0030104697 0.0020454898
0.0011625388 0.0015262114 0.0011906165 0.0026936382 0.0003142777 0.0012828311 0.0006621871 0.00059853436
0.00025466923 0.001176464 0.000815765 0.0002431493 0.0017465969 0.0022403053 0.0011154584 0.0058935722
0.001431086 0.00033647643 0.0009363925 0.0012946639 0.003811914 0.0018741228 0.00074463035 0.0014870682
4.7567528e-24 0.0014622657 0.0003169545 0.00082132797 0.0025633608 0.0005104647 0.0018350967 0.0010214668
0.0022900174 0.0020573197 0.0048727924 0.0008011161 0.000606499 3.3516266e-05 0.0011683393 0.004634358
0.0015066378 1.0511578e-20 0.0051117614 0.0014095054 5.5878773e-27 0.0017085086 3.9808717e-21 0.0007725784
0.0033162453 0.002540867 0.0016851275 0.0010829606 0.0009857125 0.0040478637 5.2672627e-25 0.013324443
0.00011929435 0.0019539353 0.0013730924 8.552056e-05 0.00036639633 0.0017950571 0.00059536874 0.0032846038
0.0023006822 1.1960409e-23 0.0006467128 0.0021325166 0.009885225 0.0027718772 0.0016145009 0.00057231967
0.0019939335 0.0036649639 0.001002574 0.0003806081 0.00030402027 0.0019874978 0.0028472217 0.0016504334
0.0006156211 0.0053475555 0.0012075235 0.0020058595 0.0024857216 0.00027732106 0.013834303 0.00027503324
0.0018010634 0.0012994183 0.0004703322 0.00021259273
00000000: fbe0 5d3b 09a4 0a3b c0f3 ee1a 19d5 0c3b
00000010: 2811 793a 52b3 893b 4d4b 453b a00d 063b
00000020: 5460 983a 280b c83a 760e 9c3a c087 303b
00000030: a4c5 a439 ab24 a83a a096 2d3a f6e6 1c3a
00000040: 2085 8539 9533 9a3a 10d9 553a e5f5 7e39
00000050: 11ee e43a 16d2 123b 9334 923a de1e c13b
00000060: 4793 bb3a 1a69 b039 3d78 753a b6b1 a93a
00000070: 4ed1 793b 20a5 f53a 4c33 433a bbe9 c23a
00000080: 9904 b818 7fa9 bf3a ea2c a639 634e 573a
00000090: 0ffe 273b b5d0 053a a187 f03a bde2 853a
000000a0: 1e14 163b 19d4 063b f2ab 9f3b fe01 523a
000000b0: 75fd 1e3a d193 0c38 f622 993a d0db 973b
000000c0: 607a c53a df8e 461e 9080 a73b 27bf b83a
000000d0: cf5b dd13 09f0 df3a a164 961d dc86 4a3a
000000e0: 5d55 593b ad84 263b 7fdf dc3a 21f2 8d3a
000000f0: 0633 813a f1a3 843b 8e03 2317 c44e 5a3c
00000100: ab2d fa38 980d 003b 56f9 b33a 8059 b338
00000110: e218 c039 1f48 eb3a 8512 1c3a 8242 573b
00000120: 0bc7 163b 1459 6719 2988 293a b1c1 0b3b
00000130: a4f5 213c 62a8 353b a99d d33a b907 163a
00000140: a7ac 023b e42f 703b cd68 833a 5b8c c739
00000150: e964 9f39 ae40 023b 7498 3a3b 5b53 d83a
00000160: a261 213a 8c3a af3b c445 9e3a bd74 033b
00000170: 7de7 223b 6765 9139 46a9 623c 5632 9039
00000180: a911 ec3a 3e51 aa3a eb96 f639 6deb 5e39

grad_avg f4 [1, 100]
-0.0048411097 -0.0076850564 6e-45 0.0075315465 -0.00916064 0.00080004026 0.00913765 -0.0070929113
-0.0007348729 0.033078857 0.0010506564 0.013759192 0.018987136 -0.011942609 -0.0032739232 0.014353467
-0.009124866 0.016836088 -0.0052049225 0.061590996 -0.008764003 -0.008293886 0.015175492 -0.015479386
-0.011602417 -0.015240922 0.02658366 0.034645654 0.04738909 0.0304794 0.0012260663 0.010095556
6e-45 0.0069840425 0.028155727 -0.027023232 0.014016028 -0.00038422414 -0.008424174 0.004664562
0.002060941 -0.0041102255 -0.012847517 0.012675611 -0.015323617 -0.006937675 0.0027603384 0.0041395384
-0.036843892 7e-45 -0.026511857 -0.027491717 4e-45 0.0002668593 6e-45 -0.0120573295
0.048337147 0.0048926477 -0.0010387278 -0.00326393 0.0055516455 -0.03835602 -4e-45 -0.02533604
-0.014052117 0.0018625978 0.016738977 -0.0196419 0.035144523 0.014800915 0.011941893 0.006498726
0.0087506585 -6e-45 -0.0122001795 -0.0020176996 0.0027516466 0.012617115 -0.0028924448 -0.008844378
-0.04350018 0.0023802586 0.022658523 0.025691595 0.0039310376 0.036114056 -0.017509745 0.0024542762
0.01861773 0.023543442 -0.04652228 0.003818411 0.021819461 -0.0023265288 0.035990246 -0.00097022677
0.030903177 0.027111316 -0.009535754 0.019585378
00000000: 2ca2 9ebb edd2 fbbb 0400 0000 31cb f63b
00000010: 8216 16bc cbb9 513a 15b6 153c a76b e8bb
00000020: 7ca4 40ba b27d 073d 2eb6 893a 3c6e 613c
00000030: e98a 9b3c efaa 43bc 518f 56bb ce2a 6b3c
00000040: 7680 15bc d6eb 893c 0e8e aabb d746 7c3d
00000050: e596 0fbc 14e3 07bc a0a2 783c 409d 7dbc
00000060: 1018 3ebc 0fb5 79bc fac5 d93c 9ae8 0d3d
00000070: 101b 423d efaf f93c f5b3 a03a d567 253c
00000080: 0400 0000 65da e43b d7a6 e63c d35f ddbc
00000090: 7ba3 653c b171 c9b9 8c05 0abc 2fd9 983b
000000a0: da10 073b 12af 86bb 647e 52bc 5ead 4f3c
000000b0: e80f 7bbc 7055 e3bb cbe6 343b f7a4 873b
000000c0: 9fe9 16bd 0500 0000 652f d9bc 4f36 e1bc
000000d0: 0300 0000 40e9 8b39 0400 0000 1b8c 45bc
000000e0: 2cfd 453d 8152 a03b ec25 88ba a9e7 55bb
000000f0: 94ea b53b 341b 1dbd 0300 0080 878d cfbc
00000100: da3a 66bc 6922 f43a 2e20 893c 0de8 a0bc
00000110: b4f3 0f3d 897f 723c eea7 433c 44f3 d43b
00000120: ec5e 0f3c 0400 0080 43e3 47bc 623b 04bb
00000130: f854 343b 04b8 4e3c 2c8f 3dbb 03e8 10bc
00000140: 3f2d 32bd 1dfe 1b3b 5e9e b93c 2e77 d23c
00000150: efcf 803b 55ec 133d 9970 8fbc ecd7 203b
00000160: 3684 983c 2dde c03c 258e 3ebd 4e3e 7a3b
00000170: babe b23c ad78 18bb 826a 133d d156 7eba
00000180: a928 fd3c 8d18 de3c da3b 1cbc 8471 a03c

sqr_avg f4 [1, 100]
0.0013858041 0.0065665715 3.88611e-21 0.061031755 0.016371109 0.004103389 0.0065117665 0.0022239988
0.07667429 0.03894808 0.03470493 0.07166677 0.019977592 0.014456365 0.008304793 0.056664675
0.0094575435 0.08429849 0.04053395 0.0603914 0.0030192302 0.0039492794 0.067606516 0.081230514
0.03650077 0.024169285 0.044028267 0.04100512 0.050503436 0.04327385 0.041947294 0.013657458
2.451932e-22 0.03606317 0.03899588 0.031206474 0.043650404 0.001574205 0.04776056 0.000825025
0.0012796236 0.00081216544 0.0018621957 0.021106295 0.04081846 0.019875623 0.023137521 0.05234114
0.04181263 6.1959173e-19 0.060425617 0.036138665 2.2729144e-24 0.0020062001 1.0908555e-19 0.031532086
0.07526707 0.004975752 0.036879964 0.03176595 0.02478073 0.025832443 4.0833577e-23 0.09555866
0.038585946 0.0032287058 0.040705718 0.024149759 0.056238577 0.02248741 0.05816497 0.0025011096
0.01348347 1.2106434e-21 0.020771792 0.00035800264 0.07313114 0.008119259 0.002297948 0.030824337
0.053008143 0.014690068 0.026539367 0.038665988 0.012765469 0.07920517 0.008119298 0.0030320599
0.06736831 0.03134822 0.06726586 0.041041095 0.061098658 0.0049063032 0.11681375 0.013715173
0.038158342 0.067336716 0.02616579 0.039985478
00000000: dfa3 b53a 652c d73b 26d0 921d 6ffc 793d
00000010: b41c 863c b975 863b a860 d53b 82c0 113b
00000020: 6907 9d3d 0688 1f3d c226 0e3d 07c6 923d
00000030: 0ca8 a33c 64da 6c3c d410 083c 3819 683d
00000040: d0f3 1a3c b0a4 ac3d ed06 263d f95c 773d
00000050: 47de 453b f568 813b 4975 8a3d 2f5c a63d
00000060: d581 153d aafe c53c fc56 343d fcf4 273d
00000070: b1dc 4e3d ec3f 313d edd0 2b3d 88c3 5f3c
00000080: cf35 941b f9b6 133d 25ba 1f3d b8a4 ff3c
00000090: c4ca 323d 8e55 ce3a 94a0 433d 7e46 583a
000000a0: 0bb9 a73a 80e7 543a eb14 f43a 1ce7 ac3c
000000b0: 4231 273d 34d2 a23c e68a bd3c aa63 563d
000000c0: b843 2b3d 07df 3621 da80 773d 2306 143d
000000d0: b5db 2f18 747a 033b 16c9 0020 ca27 013d
000000e0: 9f25 9a3d a20b a33b 720f 173d 031d 023d
000000f0: f500 cb3c 8f9e d33c 8575 451a 42b4 c33d
00000100: 4c0c 1e3d b298 533b 0abb 263d b7d5 c53c
00000110: 6c5a 663d 8437 b83c 643e 6e3d a8e9 233b
00000120: c6e9 5c3c 80f2 b61c 9b29 aa3c 4db2 bb39
00000130: c7c5 953d a406 053c 2c99 163b 5283 fc3c
00000140: 111f 593d 9cae 703c 1669 d93c 3a60 1e3d
00000150: 4226 513c 5236 a23d ce06 053c 86b5 463b
00000160: 66f8 893d fe66 003d afc2 893d b51a 283d
00000170: 9642 7a3d 0ec5 a03b 0c3c ef3d 9bb5 603c
00000180: ec4b 1c3d d5e7 893d a459 d63c d0c7 233d
