trees/save/0.5_9_2000/models/model.pth (torch, 528283 bytes, 4 tensors)

node_factors.weight f4 [130814, 1]
-0.003644386 -0.0053681317 -0.0054363776 -0.0034385922 -0.005242591 0.0022187668 -0.0007781583 -0.0018397259
-0.010224555 0.019460604 0.00022829714 -0.00014770121 -0.0025189316 0.0036292942 -0.015972292 -0.005494774
-0.005925634 -0.0022905814 -0.0023905048 0.0034547865 0.001407841 -0.001115221 -0.004848126 0.0019802174
0.014434794 0.010534121 0.009124556 0.018004498 0.01747176 0.013328353 0.017720003 -0.0028573528
-0.008699321 -0.0011970318 0.0071599795 0.007935051 -0.0076744477 0.002546633 0.0016634742 0.008967733
-0.005308015 0.007517147 0.0026854537 0.003230839 -0.0074103815 0.00069324323 0.009430868 -0.0038666348
0.008512053 -0.011302918 -0.00054537866 -0.010650879 0.009862646 -0.013659964 -0.0013474415 -0.018155362
-0.003304422 0.014924041 0.019179791 -0.017481828 -0.0010672008 0.0026716515 0.0045330194 0.008881591
-0.019262131 0.012130701 -0.0055180155 -0.002660343 0.013131716 0.013784069 -0.010762186 0.015470548
0.00014360689 -0.0052137566 -0.011280925 -0.018486861 0.001911165 0.004028816 -0.014007647 -0.013520702
-0.0053840205 0.0043643136 -0.004569602 -0.0027052313 -0.013782688 0.0044742096 -0.0008752306 0.01130997
-0.001546142 0.008417443 0.0005605919 0.0009873223 0.0009503769 -0.004134011 0.0027849951 -0.006831963
0.0015903818 -0.003678072 -0.009705829 -0.007354727 0.010699442 -0.00069460087 -0.008097568 0.006466111
0.00034539532 -0.0055815154 -0.004264546 -0.008834233 -0.007846807 0.014008839 -0.00940496 0.010369395
-0.0072036814 0.016040223 0.0032481933 -0.0033235624 0.011639152 0.0017108191 0.00966761 -0.0064534955
-0.0011317215 0.0028970502 0.0020706723 0.009641405 -0.0045290855 0.0014343829 0.00081487757 -0.0006491241
0.0021325184 -0.017989907 -0.00634189 0.012042485 0.0043827184 0.0069911205 -0.00882053 0.00059574546
-0.0030702557 -0.0031749168 0.008882173 -0.00024426883 0.0063847327 -0.0012687385 0.0141327055 -0.00963231
-0.0045868945 -0.008679735 0.011674885 -0.009364632 0.00216114 -0.018570788 -0.014241947 -0.016030189
0.0030034392 0.000582982 -0.0020833605 -0.013788425 0.0064970194 -0.00962428 0.014877882 -2.7735232e-05
-0.014415215 -0.005761651 0.0007102362 0.009425816 0.0017917659 0.0015765881 -0.006265545 0.0011190324
-0.0058996477 0.0017645984 -0.001971812 0.0061510936 -0.0041402597 -0.002436138 -0.0007255072 -0.0033283033
-0.005215629 0.0017021353 0.0136853345 0.01100083 0.008643235 -0.009471125 -0.0035374511 -0.01529503
-0.011180252 0.003315016 -0.0073943953 -0.012342119 0.010132961 -0.011859486 0.0050696535 -0.0026118173
0.018539201 -0.0073330137 -0.004219644 -0.0016696368 -0.006938779 0.017802587 -0.0035886746 0.00251589
-5.499168e-05 0.004742054 -0.0023336138 0.008453762 -0.006096877 -0.013461347 0.003456891 5.5056964e-05
-0.000884819 -0.0010831032 -0.0028165823 -0.016661417 0.010317806 -0.0045384443 0.0031127234 -0.0019489528
0.0014332625 0.017445717 0.010860152 4.6104897e-06 0.008734331 0.006183463 -0.009704717 -0.0036918628
0.012292907 -0.00964087 0.017475754 -0.008289361 -0.014060711 -0.017783454 0.0013805635 -0.008946139
-0.00045939477 0.015798617 -0.0052940724 0.007274697 0.0009785382 0.0023033554 0.0054284167 -0.008808419
0.010050434 -0.008738282 -0.004036636 0.0035322134 -0.006841812 -0.0012547208 0.0020100172 0.004428743
7.16331e-05 -0.0064176586 0.004408056 -0.0063292235 -0.00618296 -0.0014500439 0.0044549336 -0.007926818
00000000: a7d6 6ebb 27e7 afbb a423 b2bb 015a 61bb
00000010: 0aca abbb bb68 113b 52fd 4bba f522 f1ba
00000020: e484 27bc d86b 9f3c 0c63 6f39 3ee0 1ab9
00000030: a914 25bb 74d9 6d3b 53d8 82bc 810d b4bb
00000040: d22b c2bb 941d 16bb 04aa 1cbb b369 623b
00000050: 4e87 b83a 9b2c 92ba 07dd 9ebb 89c6 013b
00000060: ea7f 6c3c 4e97 2c3c 297f 153c 2b7e 933c
00000070: f020 8f3c 2a5f 5a3c 8a29 913c 6d42 3bbb
00000080: 9987 0ebc b9e5 9cba 439e ea3b 0402 023c
00000090: ef79 fbbb 69e5 263b ef08 da3a 66ed 123c
000000a0: dbee adbb 6652 f63b 70fe 2f3b 7cbc 533b
000000b0: c9d2 f2bb c4ba 353a ed83 1a3c 5e67 7dbb
000000c0: 2376 0b3c e02f 39bc bef7 0eba 0681 2ebc
000000d0: f096 213c 0bce 5fbc a29c b0ba 8eba 94bc
000000e0: 008f 58bb f783 743c f01e 9d3c 0d36 8fbc
000000f0: 51e1 8bba e016 2f3b b989 943b 1884 113c
00000100: 9ecb 9dbc d9bf 463c 78d0 b4bb 2659 2ebb
00000110: 6926 573c 93d6 613c e153 30bc 2e78 7d3c
00000120: 2e95 1639 29d8 aabb a1d3 38bc c271 97bc
00000130: 0e80 fa3a 2804 843b 5480 65bc ef85 5dbc
00000140: 706c b0bb 8402 8f3b 9abc 95bb 404a 31bb
00000150: c9d0 61bc 649c 923b bb6f 65ba 744d 393c
00000160: eba7 caba 51e9 093c b0f4 123a 0a69 813a
00000170: b722 793a 9976 87bb 7784 363b a9de dfbb
00000180: 5c74 d03a cf0b 71bb 3305 1fbc ecff f0bb
00000190: b64c 2f3c e015 36ba a9ab 04bc ace1 d33b
000001a0: 2d16 b539 25e5 b6bb 9bbd 8bbb 75bd 10bc
000001b0: e58f 00bc 5485 653c 4317 1abc 65e4 293c
000001c0: dc0c ecbb c966 833c a4df 543b 20d0 59bb
000001d0: 24b2 3e3c 903d e03a e564 1e3c d877 d3bb
000001e0: 4656 94ba 70dc 3d3b 1eb4 073b fcf6 1d3c
000001f0: b968 94bb e701 bc3a 829d 553a fb29 2aba
00000200: b9c1 0b3b 925f 93bc a1cf cfbb d84d 453c
00000210: e89c 8f3b c515 e53b fc83 10bc cd2b 1c3a
00000220: 5836 49bb 4412 50bb 8986 113c 3511 80b9
00000230: 0537 d13b cd4b a6ba dd8c 673c d6d0 1dbc
00000240: a94d 96bb 7235 0ebc 0448 3f3c 1d6e 19bc
00000250: eaa1 0d3b c421 98bc 0e57 69bc be51 83bc
00000260: 59d5 443b 42d3 183a fd88 08bb d9e8 61bc
00000270: f3e4 d43b 28af 1dbc 5cc2 733c f5a8 e8b7
00000280: cb2d 6cbc 3bcc bcbb 252f 3a3a bd6e 1a3c
00000290: b0d9 ea3a 85a5 ce3a 334f cdbb 7fac 923a
000002a0: d551 c1bb 194a e73a 8439 01bb 1d8f c93b
000002b0: 04ab 87bb 9da7 1fbb f72f 3eba aa1f 5abb
000002c0: dee7 aabb 2f1a df3a 7438 603c d33c 343c
000002d0: 5b9c 0d3c c72c 1bbc 95d4 67bb 0198 7abc
000002e0: 602d 37bc bd40 593b af4c f2bb 9936 4abc
000002f0: b804 263c 4a4e 42bc 561f a63b 062b 2bbb
00000300: 86df 973c c749 f0bb f044 8abb b7d7 daba
00000310: b25e e3bb bbd6 913c f82f 6bbb a1e1 243b
00000320: dea6 66b8 3b63 9b3b 8bef 18bb a681 0a3c
00000330: 50c8 c7bb fb8c 5cbc 028d 623b f7ec 6638
00000340: 33f3 67ba eaf6 8dba 6996 38bb 867d 88bc
00000350: 040c 293c 3bb7 94bb d5fe 4b3b 0174 ffba
00000360: 4fdc bb3a 52ea 8e3c c7ee 313c ceb3 9a36
00000370: 701a 0f3c a69e ca3b 8900 1fbc 2ef3 71bb
00000380: 3068 493c bdf4 1dbc 5029 8f3c 1ad0 07bc
00000390: e55e 66bc 9bae 91bc 06f4 b43a d492 12bc
000003a0: ecda f0b9 1a6c 813c e679 adbb 9560 ee3b
000003b0: 4b42 803a e4f3 163b dce0 b13b 3051 10bc
000003c0: 93aa 243c 032b 0fbc c245 84bb b57c 673b
000003d0: 4731 e0bb 7275 a4ba 7eba 033b fd1e 913b
000003e0: ba39 9638 394b d2bb 7471 903b 6065 cfbb
000003f0: 6d9a cabb 660f beba b1fa 913b 7cdf 01bc

layers.0.weight f4 [200, 2]
0.499142 -0.49708092 -0.4620965 0.5686723 -0.433026 0.027881151 -0.68315226 0.08033897
-0.16874309 0.014257689 -0.44243655 0.12855573 0.33992368 0.6500883 -0.24446926 -0.4562539
0.64933413 0.5489978 0.23084006 0.14529215 -0.45042023 0.62538755 0.08999465 -0.09728951
0.16816069 0.393515 -0.4684188 -0.42813763 -0.1838791 0.31444448 0.054870814 0.2002041
0.6459181 -0.14681779 -0.35525233 0.70349586 -0.57311416 0.47337124 -0.6073229 0.26711306
0.700894 -0.50399363 -0.7004067 -0.41073325 0.66919786 0.28018904 0.14350893 -0.05704399
0.25317585 0.5643437 -0.050583888 -0.6521907 0.31561694 0.1662453 -0.18716337 0.6306886
-0.4888301 0.4545095 0.34115303 0.24746926 -0.578699 0.57915765 -0.5169011 0.03223762
-0.50556934 -0.11621926 -0.25556913 -0.627203 -0.2515527 -0.29346707 0.34892675 -0.51820946
0.25046557 -0.33389997 0.3358197 0.30867845 -0.50729185 -0.24529406 0.56841445 0.6866279
0.20412089 -0.6495085 -0.61476934 0.23663643 0.047936056 -0.5955558 0.1142982 0.061370447
-0.6414426 0.011608844 0.23841502 -0.054154232 0.36241275 0.025370969 0.30671114 -0.5053126
-0.47772846 -0.08872611 0.33653745 -0.6178917 0.6079462 -0.2580525 -0.348818 -0.34069422
-0.22699264 -0.39376333 -0.43287393 0.5951419 -0.38015327 0.6579901 0.6285808 -0.50137264
0.33926266 -0.10570859 0.22741073 0.47670758 -0.2946256 0.12143721 0.40714327 -0.005531184
-0.5335523 0.25855103 -0.21699043 0.15582617 -0.16252102 0.23679827 0.22665529 -0.39593768
0.6485213 -0.29310316 -0.1742005 -0.18929666 0.49886543 0.15980037 -0.4924867 -0.2085582
-0.5445587 0.21959586 -0.11237951 0.13392211 0.26589477 0.60804033 0.07101028 -0.3660581
0.7043926 0.65856 -0.40412244 -0.60234815 -0.02934727 0.49843737 -0.30988875 0.20575307
-0.38279822 -0.6646754 0.35528225 -0.3673397 0.118149586 -0.0666834 -0.14572003 -0.3539912
-0.07468051 -0.32684013 -0.593526 -0.08211816 -0.611531 0.29346934 -0.22790782 -0.011097012
0.43871793 0.14140832 -0.17525165 0.43419725 0.20905839 0.68470573 0.478583 0.06493354
-0.43759614 0.2469957 -0.6417271 -0.25883088 0.31139222 0.6609592 -0.028168762 -0.67971635
-0.05408781 0.2806862 -0.33217102 -0.3934442 0.381206 -0.15657377 0.6615459 -0.67195207
0.1000218 0.11020111 -0.65115935 -0.40687993 0.078959845 0.13886602 0.41593948 -0.2976515
-0.58415717 -0.32029986 -0.49397624 -0.39661297 -0.30040318 -0.12283463 -0.1930581 -0.38843647
0.14763425 0.31230122 -0.40356424 -0.13092649 0.5173405 0.61930865 0.067023434 0.602853
0.06675993 0.13830985 0.50040776 0.38581023 -0.35430208 -0.07891517 -0.06325441 -0.048037797
-0.17835383 -0.3045076 0.41361517 -0.36124104 0.36653545 -0.69481254 -0.2345875 -0.014441281
0.22123909 0.487762 0.13176167 0.50674796 -0.070273966 -0.295838 -0.09300773 0.12714414
0.44090897 -0.44540107 -0.08929897 0.30099535 0.68855965 0.34827077 -0.1073417 0.4170277
0.4962835 0.5565168 0.36942977 0.6936325 0.3577203 0.4378357 -0.28961587 0.36802837
00000000: 8a8f ff3e 6481 febe ea97 ecbe 8294 113f
00000010: 95b5 ddbe 0367 e43c 11e3 2ebf c288 a43d
00000020: fdca 2cbe 1599 693c 0b87 e2be 1da4 033e
00000030: 7a0a ae3e 306c 263f 2656 7abe 1c9a e9be
00000040: c33a 263f 1f8b 0c3f 5661 6c3e 77c7 143e
00000050: 7b9d e6be 6619 203f 1d4f b83d b93f c7bd
00000060: 5132 2c3e cc7a c93e 97d4 efbe db34 dbbe
00000070: ce4a 3cbe defe a03e 38c0 603d 4e02 4d3e
00000080: e35a 253f 6757 16be a2e3 b5be 4e18 343f
00000090: 9cb7 12bf b75d f23e 8379 1bbf 0bc3 883e
000000a0: ca6d 333f ba05 01bf da4d 33bf a14b d2be
000000b0: 8d50 2b3f f074 8f3e 01f4 123e f5a6 69bd
000000c0: 44a0 813e d478 103f 0d31 4fbd f8f5 26bf
000000d0: 8b98 a13e 353c 2a3e c1a7 3fbe cf74 213f
000000e0: f047 fabe 78b5 e83e 9cab ae3e 9568 7d3e
000000f0: 9e25 14bf ad43 143f a153 04bf 980b 043d
00000100: fe6c 01bf 5d04 eebd f5d9 82be 6090 20bf
00000110: 84cb 80be 5141 96be 87a6 b23e 60a9 04bf
00000120: 063d 803e f0f4 aabe 8ff0 ab3e 1a0b 9e3e
00000130: e1dd 01bf 5e2e 7bbe 9c83 113f d9c6 2f3f
00000140: 1105 513e 3046 26bf 8661 1dbf d250 723e
00000150: 9958 443d 5876 18bf 2d15 ea3d 945f 7b3d
00000160: 9535 24bf 0533 3e3c 1123 743e d4d0 5dbd
00000170: 2a8e b93e c7d6 cf3c 3e09 9d3e 2b5c 01bf
00000180: d398 f4be 09b6 b5bd a34e ac3e 272e 1ebf
00000190: 5da2 1b3f 751f 84be 4698 b2be 796f aebe
000001a0: c270 68be 599b c9be a7a1 ddbe 385b 183f
000001b0: 73a3 c2be 0a72 283f acea 203f f559 00bf
000001c0: d6b3 ad3e bf7d d8bd 5cde 683e 0413 f43e
000001d0: 2bd9 96be 12b4 f83d 1575 d03e ef3e b5bb
000001e0: e296 08bf cd60 843e bd32 5ebe e590 1f3e
000001f0: e96b 26be 3f7b 723e 5318 683e 58b8 cabe
00000200: 7e05 263f 9e11 96be 9e61 32be fcd6 41be
00000210: 4a6b ff3e b5a2 233e 3727 fcbe 4890 55be
00000220: 3368 0bbf bddd 603e 3b27 e6bd e122 093e
00000230: 5c23 883e 88a8 1b3f d66d 913d f86b bbbe
00000240: 1353 343f 6397 283f 23e9 cebe 7d33 1abf
00000250: b069 f0bc 2f33 ff3e bda9 9ebe efb0 523e
00000260: 21fe c3be 2b28 2abf 8ee7 b53e f313 bcbe
00000270: 69f8 f13d 4e91 88bd a237 15be 563e b5be
00000280: 18f2 98bd 9757 a7be 52f1 17bf 912d a8bd
00000290: 4c8d 1cbf 9d41 963e ab60 69be 3ed0 35bc
000002a0: a39f e03e 58cd 103e 2b75 33be 1a4f de3e
000002b0: 6713 563e e048 2f3f d508 f53e e0fb 843d
000002c0: 9a0c e0be 71ec 7c3e 3a48 24bf 7b85 84be
000002d0: cd6e 9f3e 9f34 293f 2dc2 e6bc e401 2ebf
000002e0: 2e8b 5dbd 1ab6 8f3e 5212 aabe 8571 c9be
000002f0: 6f2d c33e e054 20be 125b 293f 0d05 2cbf
00000300: 3bd8 cc3d 1fb1 e13d 61b2 26bf 9152 d0be
00000310: b3b5 a13d e532 0e3e 05f6 d43e c765 98be
00000320: 538b 15bf 58fe a3be 74ea fcbe db10 cbbe
00000330: 72ce 99be b990 fbbd 06b1 45be 25e1 c6be
00000340: 6f2d 173e f2e5 9f3e f99f cebe 9811 06be
00000350: 6d70 043f 038b 1e3f 9543 893d 9354 1a3f
00000360: 6eb9 883d 19a1 0d3e b91a 003f eb88 c53e
00000370: 1567 b5be 479e a1bd 878b 81bd 48c3 44bd
00000380: 63a2 36be 6ce8 9bbe 5ec5 d33e 96f4 b8be
00000390: 89aa bb3e 3cdf 31bf b537 70be 1f9b 6cbc
000003a0: 808c 623e f1bb f93e 88ec 063e 3cba 013f
000003b0: cceb 8fbd 1478 97be d67a bebd 1332 023e
000003c0: d2be e13e 9c0b e4be 61e2 b6bd 101c 9a3e
000003d0: 7245 303f 8c50 b23e f7d5 dbbd a884 d53e
000003e0: df18 fe3e e377 0e3f e625 bd3e e691 313f
000003f0: 1d27 b73e 002c e03e 8848 94be 376e bc3e

layers.0.bias f4 [200]
0.60047483 -0.60694355 0.31916314 -0.050584562 0.27363148 -0.15135649 -0.21639135 0.08119185
0.09657006 0.5134081 0.17758389 -0.6731678 -0.68451405 0.29413334 0.50986725 -0.5244594
0.36088517 0.6567076 0.4904016 0.41846594 -0.36287636 -0.10600725 0.47858337 0.6737955
-0.022078963 -0.20538041 0.33039427 -0.35156852 0.010292766 -0.11300758 0.6047999 -0.48948634
0.6098049 0.6656047 -0.6325195 -0.5725626 -0.2667592 0.42559415 0.29856557 0.086905286
-0.6982748 0.14813773 -0.42319557 0.56760544 0.34889153 0.05558301 -0.59889936 -0.31985605
0.12706406 0.030075148 0.12998872 0.22946067 -0.2668977 -0.63534737 0.0853182 -0.4580237
-0.41834557 0.5051984 0.61600375 0.43168893 0.071078464 0.5359213 -0.297738 0.11146518
-0.37095094 0.059299268 0.22447656 -0.0711164 -0.48985192 -0.4663334 0.6163102 0.25780392
-0.21363074 -0.67200243 0.49728847 0.3024661 0.16743712 -0.6446891 0.40238127 -0.2439683
0.22403486 0.34663135 -0.31581357 -0.42716455 0.099705026 -0.46050522 -0.0070611984 0.07054615
-0.17315501 -0.12055103 -0.5039719 0.32659373 0.18247326 0.17281413 -0.25311694 0.56999564
-0.04890341 -0.5028866 -0.1996341 0.15889 -0.11650771 0.14762549 -0.13893725 -0.5479221
0.12099998 0.60020566 -0.49274015 0.18703818 -0.7032268 -0.607051 0.6850253 -0.63665605
0.4894135 0.0946877 0.24905896 -0.2920436 -0.4007012 -0.44057953 -0.3496511 0.27650607
-0.4285456 0.65305775 -0.103897035 -0.49849042 -0.3910886 -0.1351726 0.705352 -0.22196443
0.3312683 0.5788893 -0.055820044 0.47019553 -0.1483639 0.17809631 0.28871435 0.6744791
-0.3025776 0.4524164 0.21800524 -0.05656832 -0.47528428 -0.63451284 -0.23343158 -0.20298031
-0.69517577 0.18760304 0.4466888 -0.27112773 -0.19892596 0.4932379 0.5490607 0.07800387
-0.46384925 -0.5773573 0.07068768 0.28733993 0.25201774 -0.18418416 -0.2370933 -0.1838556
0.46875784 -0.054421525 -0.60670125 -0.47447446 -0.5272464 0.13995147 0.5156469 -0.21971245
0.38690156 0.15083498 -0.07658141 0.44404832 0.31249654 0.07610262 0.5512455 0.22695386
-0.6863036 0.11681117 -0.28990245 0.14329001 -0.094099075 0.5486042 0.67166954 -0.58644146
0.31724682 0.30262718 -0.5644245 0.09814636 -0.007610203 0.16338916 -0.6779924 0.05993779
-0.25960243 -0.11425496 0.3091297 0.66108274 0.16138458 -0.09861781 0.07515365 0.6396956
00000000: b8b8 193f a760 1bbf 5a69 a33e c231 4fbd
00000010: 6d19 8c3e 32fd 1abe b295 5dbe ea47 a63d
00000020: 86c6 c53d b76e 033f 8dd8 353e ba54 2cbf
00000030: 503c 2fbf a598 963e a986 023f f942 06bf
00000040: f1c5 b83e fd1d 283f eb15 fb3e 2b41 d63e
00000050: eeca b9be 541a d9bd e108 f53e dd7d 2c3f
00000060: f1de b4bc 3e4f 52be 7029 a93e ca00 b4be
00000070: fda2 283c 8570 e7bd 2bd4 1a3f f49d fabe
00000080: 2d1c 1c3f 1265 2a3f ccec 21bf 7693 12bf
00000090: a994 88be 7ae7 d93e 96dd 983e 66fb b13d
000000a0: 23c2 32bf 6bb1 173e 17ad d8be 974e 113f
000000b0: e9a1 b23e 03ab 633d 7851 19bf 2cc4 a3be
000000c0: 151d 023e 2860 f63c c31b 053e bdf7 6a3e
000000d0: d1a6 88be 20a6 22bf 4fbb ae3d 1582 eabe
000000e0: 6431 d6be af54 013f 6cb2 1d3f 5506 dd3e
000000f0: 9691 913d 2332 093f 1d71 98be db47 e43d
00000100: 48ed bdbe cae3 723d 2fdd 653e 7aa5 91bd
00000110: dfcd fabe 40c3 eebe 81c6 1d3f e0fe 833e
00000120: 04c2 5abe 5a08 2cbf 989c fe3e d6dc 9a3e
00000130: a374 2b3e 580a 25bf eb04 ce3e d3d2 79be
00000140: 6569 653e aa79 b13e 51b2 a1be 50b5 dabe
00000150: 2632 cc3d 57c7 ebbe a061 e7bb 807a 903d
00000160: 8c4f 31be 75e3 f6bd 4d04 01bf 4b37 a73e
00000170: 45da 3a3e 30f6 303e 8b98 81be 3ceb 113f
00000180: f14e 48bd 2dbd 00bf e26c 4cbe 0fb4 223e
00000190: 989b eebd 232b 173e 9145 0ebe 9f44 0cbf
000001a0: d6ce f73d 14a7 193f 7048 fcbe f086 3f3e
000001b0: ac06 34bf b267 1bbf d15d 2f3f e4fb 22bf
000001c0: 6894 fa3e a0eb c13d 5009 7f3e bd86 95be
000001d0: b528 cdbe a493 e1be 7805 b3be 3492 8d3e
000001e0: 546a dbbe cb2e 273f f8c7 d4bd 233a ffbe
000001f0: c43c c8be b06a 0abe f391 343f a54a 63be
00000200: 009c a93e 1732 143f 8fa3 64bd 78bd f03e
00000210: b5ec 17be e15e 363e 5ed2 933e aaaa 2c3f
00000220: 74eb 9abe 1fa3 e73e c43c 5f3e 2fb4 67bd
00000230: 7658 f3be 6f6f 22bf b008 6fbe 12da 4fbe
00000240: 0af7 31bf 031b 403e 65b4 e43e 41d1 8abe
00000250: 3fb3 4bbe ae89 fc3e 3e8f 0c3f 7ec0 9f3d
00000260: a67d edbe b0cd 13bf b4c4 903d 381e 933e
00000270: 7808 813e c69a 3cbe 96c8 72be a444 3cbe
00000280: 0701 f03e 1be9 5ebd c650 1bbf 51ee f2be
00000290: 9ff9 06bf 704f 0f3e 6f01 043f 4dfc 60be
000002a0: f617 c63e 7c74 1a3e b7d6 9cbd 4d5a e33e
000002b0: 8cff 9f3e b1db 9b3d 6d1e 0d3f 9866 683e
000002c0: 98b1 2fbf b23a ef3d 186e 94be 9eba 123e
000002d0: 04b7 c0bd 5371 0c3f 89f2 2b3f 0721 16bf
000002e0: 2d6e a23e f3f1 9a3e 207e 10bf f500 c93d
000002f0: 035f f9bb 7d4f 273e e990 2dbf 5481 753d
00000300: 9cea 84be 81fe e9bd 3f46 9e3e b83c 293f
00000310: 0042 253e 22f8 c9bd 28ea 993d 17c3 233f

layers.2.weight f4 [1, 200]
0.0044456413 -0.0142647615 0.07019647 -0.04517548 0.004536974 0.06534977 0.021101048 0.040836953
-0.06378243 0.04438479 -0.052603696 -0.04519717 0.054671362 0.06156817 -0.018677326 -0.016998036
-0.02609663 -0.03222848 -0.02872564 0.004706876 0.00031097632 -0.037640348 -0.015559488 -0.06287151
-0.025183503 0.05494877 -0.052970726 -0.07030241 -0.05002413 -0.0031502664 0.039027292 0.0093558
0.050125442 0.039182357 -0.034995034 0.03608685 0.06291025 0.030583424 0.021735149 -0.0608862
0.044400096 -0.03469088 0.055534538 -0.04549466 -0.030760845 -0.067580484 0.038260657 -0.0010076722
0.0065937904 -0.01643868 0.010205059 -0.025703847 -0.016569326 0.007818603 0.06809516 -0.01970908
0.020284437 -0.037001893 -0.00572817 -0.063430354 0.016809842 0.0040556816 -0.051917747 0.06964135
-0.026261795 0.018690096 -0.0042381524 -0.04479766 -0.06559077 0.049553543 0.027692504 -0.06831066
0.036052812 0.020414434 0.031078413 -0.07062976 0.058389608 -0.0036711425 0.0040788203 -0.044489592
0.007814414 0.037167404 -0.006873654 -0.033613 0.018642943 -0.021664003 -0.06621252 -0.06133477
0.042972118 0.031750824 0.04577989 0.05517436 0.06891517 -0.048713095 -0.056855097 0.007561305
-0.0033466707 0.036716525 0.050307427 0.06416982 0.048341293 -0.013493677 0.0678118 0.06381343
-0.032895103 -0.019834872 -0.016662875 0.048374604 0.03403638 0.028593376 0.05311302 0.041851502
0.0048774527 -0.010738486 0.015170363 0.010408704 -0.026182828 0.06724583 -0.036220085 0.06589268
0.064870656 -0.04557032 -0.036983836 -0.070296 0.055824995 -0.020019652 0.0067578936 -0.062230475
-0.05883176 0.009989579 0.030257553 0.024176065 -0.027754713 -0.020279167 0.06878588 0.03372494
-0.008409443 0.028811721 -0.0055265734 0.0004865938 -0.018630384 -0.04422968 -0.016437154 -0.042728234
0.0349466 -0.06993897 -0.009278283 -0.008848892 -0.011204049 -0.008491511 -0.067589566 -0.0102469195
0.066773005 0.019713169 0.0044388473 -0.023495555 -0.003823697 0.014869889 0.05767294 0.04388529
0.042038996 0.019757306 0.03561178 -0.041828785 0.029519115 0.04296719 0.017103428 -0.0559912
-0.016026719 0.061532546 0.053919308 0.05574059 -0.0410641 0.0041795094 0.060874533 -0.07008179
0.01110438 -0.026460636 -0.015372187 -0.045474242 0.005101025 -0.012395954 0.030920068 0.029149234
-0.06921618 -0.018794814 -0.03239369 -0.05473211 0.06993444 -0.038723465 0.0652543 -0.01369089
-0.03289816 -0.0074739517 0.068307355 -0.027437069 0.06972273 -0.0018665154 -0.019198345 -0.038860165
00000000: beac 913b bfb6 69bc 2bc3 8f3d ed09 39bd
00000010: e5aa 943b 1ad6 853d 1bdc ac3c a644 273d
00000020: 5da0 82bd d3cc 353d f976 57bd ab20 39bd
00000030: 14ef 5f3d e82e 7c3d 3101 99bc 773f 8bbc
00000040: 9ac8 d5bc 0302 04bd 0952 ebbc 233c 9a3b
00000050: 890a a339 c42c 1abd 39ed 7ebc c7c2 80bd
00000060: a24d cebc f611 613d d5f7 58bd b6fa 8fbd
00000070: 1ae6 4cbd b374 4ebb 15db 1f3d 1249 193c
00000080: 5650 4d3d ae7d 203d f456 0fbd cecf 133d
00000090: 17d7 803d 178a fa3c e90d b23c cf63 79bd
000000a0: e0dc 353d 0618 0ebd 2f78 633d 9c58 3abd
000000b0: 2bfe fbbc a367 8abd 35b7 1c3d de13 84ba
000000c0: b910 d83b 69aa 86bc 1f33 273c e090 d2bc
000000d0: 65bc 87bc 9919 003c 7a75 8b3d f074 a1bc
000000e0: 8c2b a63c 4c8f 17bd 5fb3 bbbb c6e7 81bd
000000f0: cbb4 893c 86e5 843b b4a7 54bd 20a0 8e3d
00000100: fa22 d7bc f91b 993c 33e0 8abb c07d 37bd
00000110: 7454 86bd a8f8 4a3d 64db e23c 76e6 8bbd
00000120: 1dac 133d 2c3c a73c 2898 fe3c 56a6 90bd
00000130: f129 6f3d 8d97 70bb a0a7 853b b83a 36bd
00000140: 0708 003c d93c 183d 643c e1bb c9ad 09bd
00000150: 16b9 983c b578 b1bc 6e9a 87bd 2b3a 7bbd
00000160: 8803 303d 270d 023d b283 3b3d 82fe 613d
00000170: 6623 8d3d 6287 47bd e4e0 68bd d3c4 f73b
00000180: d153 5bbb 1164 163d 290f 4e3d 776b 833d
00000190: 8501 463d 9514 5dbc eae0 8a3d 9eb0 823d
000001a0: 04bd 06bd be7c a2bc 9580 88bc 7324 463d
000001b0: bb69 0b3d a83c ea3c 0a8d 593d 7b6c 2b3d
000001c0: 0ad3 9f3b 7af0 2fbc 1d8d 783c 4589 2a3c
000001d0: 5f7d d6bc 2fb8 893d 835b 14bd bef2 863d
000001e0: e8da 843d f2a7 3abd 5d7c 17bd 59f7 8fbd
000001f0: c0a8 643d 4100 a4bc 5271 dd3b 62e5 7ebd
00000200: 92f9 70bd 55ab 233c b0de f73c e20c c63c
00000210: da5d e3bc 7f20 a6bc 9ddf 8c3d 2a23 0a3d
00000220: c3c7 09bc 8f06 ec3c 4218 b5bb 841d ff39
00000230: bf9e 98bc 2e2a 35bd 36a7 86bc cd03 2fbd
00000240: 2b24 0f3d 2a3c 8fbd f103 18bc f1fa 10bc
00000250: 3091 37bc fb1f 0bbc 666c 8abd b2e2 27bc
00000260: 49c0 883d 837d a13c c073 913b c079 c0bc
00000270: fe96 7abb d6a0 733c 763a 6c3d 10c1 333d
00000280: 1531 2c3d 13da a13c a8dd 113d a954 2bbd
00000290: 12d2 f13c 5dfe 2f3d 7d1c 8c3c 0757 65bd
000002a0: 774a 83bc 8d09 7c3d 7eda 5c3d 3f50 643d
000002b0: d432 28bd 44f4 883b 9357 793d 0b87 8fbd
000002c0: 25ef 353c fac3 d8bc a0db 7bbc 3343 3abd
000002d0: 8026 a73b 6618 4bbc 154c fd3c 60ca ee3c
000002e0: 36c1 8dbd 95f7 99bc 3faf 04bd c72e 60bd
000002f0: ca39 8f3d 7f9c 1ebd 0ca4 853d c14f 60bc
00000300: 39c0 06bd 0de8 f4bb bae4 8b3d b4c3 e0bc
00000310: caca 8e3d dda5 f4ba d945 9dbc d62b 1fbd
