trees/save/0.5_4_100/models/model.pth (torch, 15672 bytes, 12 tensors)

node_factors.weight f4 [118, 1]
00000000: 8a0e 8dba 3c99 4c3e c1d5 883e 8acf 6d3e
00000010: f05f 5c3e bfcd 153e cc5e 553e 8628 253e
00000020: e49c 843e be42 883e 11aa 063d c777 123e
00000030: 1871 313e c885 103e 01a2 3a3e 1344 4d3e
00000040: d314 693d 068f cf3d 543a 683d 8212 5c3e
00000050: 5d40 e43d fc53 453e d154 ff3d ed9d 643d
00000060: 4165 be3d 6278 da3d 7772 c83d 20d7 203e
00000070: a41a 283e d130 e43d a26a de3d 2796 373e
00000080: c3e4 003d 100a 8e3d 195e 703e 8df8 2a3e
00000090: f46f 263e 8a9c 193d ac25 a33d 4d43 e63d
000000a0: a9e4 193e 26ea 9e3c ab70 c53d 26ef 143e
000000b0: 1501 773e 42e8 533e 30e0 183d a7e6 ad3d
000000c0: d9a8 cb3d f65d 093e 552f 5a3d 5837 f7bc
000000d0: ddb0 043d bc63 413e fbe7 693c 4436 4d3e
000000e0: 0eba 393e 6f0c f53d 9b89 35bc 8814 af3d
000000f0: 8706 a03d fb27 2b3c 43a1 0bbc d1e5 91bd
00000100: 485c ad3d 3ccc 4c3e 03dc 373e 3ee3 c93c
00000110: a3d8 203e e654 743d 3766 4a3d 02d0 ac3d
00000120: 6650 fb3d b46f dc3d a341 153d 1161 17bd
00000130: 72fa 7e3e 22d0 083e 45d8 2b3e 956e e83d
00000140: 29f5 ad3d 912d abbc 5007 e53d 5e5f 163e
00000150: e208 9f3c ad6a 813d b3a5 6fbd 6bac 123d
00000160: 3bc1 4d3d 021d 713e e83e 4d3e 6457 973d
00000170: a058 0f3e 7927 833d 7438 6e3d d1ba dc3d
00000180: 0502 973c 05b8 193e e30c 193d 5f71 033d
00000190: e272 67bd 9a26 0a3d d4a5 d53d 4ae1 063e
000001a0: 6449 1a3e e1e0 353e 8cc1 3f3e bbfe af3d
000001b0: 9a22 8d3c f1a9 d33d c6f3 9dbc 4a7b a1bc
000001c0: 0930 b73d 8486 a83c 2e53 b43c 8d15 a8bd
000001d0: a00b afbc 4475 c4bd
-0.0010761779 0.1998033 0.2672558 0.23223701 0.21520972 0.14629267 0.20836943 0.1612874
0.25900948 0.2661342 0.03287703 0.14303504 0.17328298 0.14113533 0.18225862 0.200455
0.056904625 0.101347014 0.05669625 0.21491435 0.11145089 0.19270319 0.12467349 0.055814672
0.092966564 0.106674924 0.097874574 0.15707064 0.16416413 0.111421235 0.10860182 0.17928372
0.031468164 0.06935513 0.23473395 0.16696377 0.16253644 0.037502803 0.0796617 0.11243305
0.15028633 0.01939876 0.0964063 0.14544353 0.24121507 0.20694068 0.037323177 0.08491259
0.099443145 0.1341475 0.053267796 -0.030177757 0.032395232 0.18885702 0.0142765 0.20040232
0.1813738 0.11965262 -0.011080171 0.08548838 0.07813745 0.010446544 -0.0085223345 -0.07123912
0.08464867 0.19999784 0.17955022 0.02464449 0.1570764 0.059651278 0.049413886 0.08438112
0.12271194 0.10763493 0.03643955 -0.036957804 0.24900225 0.13360646 0.16781719 0.11349217
0.08494026 -0.020895751 0.111830354 0.14684817 0.019413415 0.06319175 -0.058507632 0.03580896
0.050233107 0.23546222 0.20043528 0.07389715 0.13998652 0.06404013 0.058159307 0.1077782
0.01843358 0.15011604 0.037365805 0.03209054 -0.056506045 0.03372822 0.1043202 0.13171878
0.15067059 0.17761566 0.18726176 0.08593508 0.017228413 0.10335148 -0.01928128 -0.01971211
0.08944709 0.020571955 0.02201232 -0.082072355 -0.021367848 -0.09592679

layers.0.weight f4 [200, 2]
00000000: d3f9 28bf 62d5 763e 391d 99be efdb 1b3e
00000010: fa19 ea3e 4989 2abe df35 853f 3d89 6b3f
00000020: 294f a8be 7524 5b3f 8cca 613f 0dc8 213f
00000030: 4f99 8dbd 3020 773e 23b0 bcbe 4505 6dbe
00000040: 7a9a a43e 7542 9b3e 36ab 9c3e 43a3 2bbf
00000050: e181 103f d0ac 91be afc8 5e3f 2fd3 413f
00000060: 24be ee3e 6a43 453f c744 c83e e48b cc3e
00000070: d4dc 6cbe c3bc 213f ced1 363e 4710 ce3e
00000080: b9b7 1dbe 8995 fc3e 407a 5f3f 7116 abbe
00000090: 4bc9 463f 986f 65be 0823 46be 19ee bfbe
000000a0: 0f8f 493e 85ee 02bf 9d6e 12bf d038 75bf
000000b0: 0d6d 3a3e dd33 2bbf 8a66 edbe 0849 ef3e
000000c0: 1b3e d93e 1861 61bd afe6 793e 8019 e6be
000000d0: 506f 68be cbd4 193e 4d8f bcbe c5d6 db3e
000000e0: a3d7 ffbe 0d32 f1bd 7adc 903e d5b6 18bf
000000f0: 8a0d 523f 8480 d3bd a666 80be 6241 fcbe
00000100: a1f6 81be fe7a 86be f72d 1bbf fc59 6e3e
00000110: 78f4 7d3e 3d98 573f fa4d eb3e 99b3 173f
00000120: 403a ee3e 7348 023f 254a 233f f82c 0f3f
00000130: 8c31 eabe 11c5 1dbe b12f 28bf 191b d33c
00000140: 4f5c 76be 9c59 173f 36ef 103d 8324 94bd
00000150: f047 fcbe fcd7 08bf 183b d23e 56c1 19be
00000160: bd83 0bbd f68d 2c3f 25ee bfbd c996 f3bd
00000170: 83e4 053f 3443 883e 1a43 20bf bde4 203f
00000180: 7cd3 af3e 1fe3 1abf ed84 ca3e 00ad af3e
00000190: b055 d9bc e532 273f 29cc d1be 3f1e b43e
000001a0: dd63 3bbf 50df 92bf a7b0 ed3e 924f a7be
000001b0: 9923 033d c06a b73e 140d 80be 0915 c1be
000001c0: 8a7b 6d3e 910c 183f e9fc 323e 454f 273f
000001d0: 1e3f 053f cfba c73e a655 c3bd 9f78 633f
000001e0: 4a48 9e3e cfd7 d13d 9f09 ef3e e150 10bf
000001f0: a14e 163e 952c a4be 70aa 8dbd d088 643e
00000200: c9fb 1c3f 6ea5 c03e dcf6 06bf e044 dabe
00000210: 564d bc3e 9752 083e 02f6 11bf d5cb 2b3f
00000220: 9c7f dd3e 890e 73be ba04 273f 3aca 0b3f
00000230: c417 abbe fde2 ae3e 58cf 00be 0f27 d63e
00000240: 082c 453f 3832 063f 832e ac3e e8e9 0dbe
00000250: b89d cb3e 8d8f da3e 79b6 bd3e acc1 1bbd
00000260: 27e1 b13e a9f5 c8bd 5d25 c5be 54ed 20bf
00000270: dce8 c6be e107 b6be 9744 813f 4708 c73e
00000280: 5bad b1be 9e12 22be f852 013f 4157 333d
00000290: 9c71 45be 92f7 82be 8fb6 a13d e2aa 803e
000002a0: 6085 44bd 306b b33e c830 df3e 0184 0f3f
000002b0: 9d83 b1bc 0cbb 9bbe 39ec 8d3e 07d2 83be
000002c0: 1ce9 1f3f 8b29 283e ffc4 083e 04ac abbe
000002d0: badf 183f bab3 113f a213 1f3f 071d 77be
000002e0: 7a2c 523e 5558 d23c 3f27 debe e707 dabe
000002f0: ffe5 893e f1c3 f2be 0a05 413f da23 c23e
00000300: a436 6e3e 5eb0 e53e 4814 923e a59b 7b3e
00000310: 56f4 b43e 4301 94be c0f1 b8be b993 ffbd
00000320: 99e9 233f f034 293f f06a 003f ec06 5cbe
00000330: 4d81 233e 8cc3 96be 4b0c d73e bf46 e7be
00000340: c6cd 8bbe 7f09 0c3f 8a90 443f 024b 44bf
00000350: d9a2 dabd 68b2 63be 5ac3 a63f a5af a6bf
00000360: 358c 573f 1714 393f aaef 3f3d 7066 c2bd
00000370: fab5 493f d99c f63e 9de1 243f 64de 0c3f
00000380: f5b4 e4be e63a d73e a5e4 af3e e4a0 f7be
00000390: b080 a73e 3e27 b5be ccca cfbe f835 503c
000003a0: 401f 5e3e 7a4c e23c 4b24 ccbd 7e40 1b3f
000003b0: 83fb 193f c9e9 6fbe 6bfd eabe e7de 0fbd
000003c0: 7881 17bf db9b 0dbf 10ab 053d 6052 1c3f
000003d0: 40a9 89be 94c5 8c3d f862 e1be 54a0 33bf
000003e0: 9505 1dbe 3187 22bd 15cf e9bd 27ab f63e
000003f0: e780 073f e87b 1a3f a69b 883e e95d 923d
-0.660062 0.24104837 -0.29905108 0.15220617 0.45722944 -0.16653933 1.0407065 0.92006284
-0.32872894 0.85602504 0.88199687 0.6319588 -0.06914007 0.24133372 -0.36853132 -0.23146541
0.32149106 0.3032414 0.30599374 -0.6704599 0.5644818 -0.28452158 0.8702497 0.75712866
0.4662944 0.7705599 0.39114973 0.39950478 -0.23131114 0.6317865 0.17853472 0.40246794
-0.15402116 0.49332836 0.87295914 -0.3341556 0.776509 -0.22405851 -0.19349301 -0.37486342
0.19683479 -0.511452 -0.5720003 -0.95789814 0.18205662 -0.6687601 -0.46367294 0.46735406
0.42430195 -0.055024236 0.24404405 -0.4494133 -0.22698712 0.1502258 -0.3682808 0.42937294
-0.49969205 -0.117771246 0.2829321 -0.5965398 0.8205191 -0.10327247 -0.25078315 -0.49268633
-0.25383475 -0.2626571 -0.6061701 0.23276514 0.24800289 0.8421667 0.4595793 0.5925842
0.46528816 0.508918 0.6378501 0.5592799 -0.45740926 -0.15407206 -0.6569777 0.025769757
-0.2405865 0.5912111 0.03538438 -0.072335266 -0.49273634 -0.53454566 0.4106071 -0.15015158
-0.034061182 0.67404115 -0.09371594 -0.11893994 0.52301806 0.26613772 -0.6260239 0.62849027
0.34341037 -0.6050281 0.3955454 0.34311676 -0.026530117 0.65312034 -0.40976074 0.35179326
-0.73199254 -1.14744 0.46423838 -0.32677895 0.03201637 0.3582363 -0.25009978 -0.3771136
0.23191658 0.59394175 0.1747929 0.6535533 0.52049434 0.3900971 -0.095378205 0.8885593
0.30914527 0.1024624 0.46687028 -0.5637341 0.14678432 -0.32065263 -0.06917274 0.22317815
0.61321694 0.37626213 -0.5272043 -0.42630672 0.36777753 0.13312756 -0.57016003 0.671079
0.4326142 -0.23736013 0.6524159 0.5460545 -0.3341657 0.34157553 -0.12579095 0.41826674
0.7702031 0.5242038 0.33629236 -0.1385876 0.39768767 0.42687646 0.37053278 -0.038026497
0.3474209 -0.09812481 -0.38505068 -0.62862134 -0.38849533 -0.35552886 1.0099057 0.38873503
-0.34702572 -0.15827414 0.50517225 0.043784384 -0.1928162 -0.25579506 0.078961484 0.25130373
-0.04797876 0.35042715 0.43591905 0.56060797 -0.021669203 -0.30416143 0.27719286 -0.25746176
0.6246507 0.16422097 0.13356398 -0.33529675 0.5971638 0.56914866 0.6213933 -0.24132167
0.20524779 0.025676886 -0.43389317 -0.42584154 0.26933286 -0.47415116 0.75398314 0.37917978
0.23263031 0.4486112 0.28531098 0.24571092 0.35342664 -0.28907213 -0.3612194 -0.12479348
0.64028317 0.660964 0.50163174 -0.21487015 0.15967293 -0.29446065 0.42001566 -0.45171162
-0.2730543 0.5470199 0.7678305 -0.7667695 -0.10675592 -0.22236025 1.3028367 -1.3022352
0.84198314 0.7229628 0.04685942 -0.09492195 0.787933 0.4816654 0.6440676 0.5502684
-0.4466931 0.42037123 0.3435413 -0.48364937 0.32715368 -0.35381502 -0.4058441 0.01270818
0.21691608 0.027624357 -0.0996786 0.6064528 0.601494 -0.23429026 -0.45896468 -0.035124686
-0.5918193 -0.5531594 0.03263384 0.61063194 -0.2688694 0.068736225 -0.4402082 -0.70166516
-0.1533416 -0.03967971 -0.11416451 0.48177454 0.52931064 0.60345316 0.2668125 0.07146818

layers.0.bias f4 [200]
00000000: 4df2 2bbe c4f8 9f3d c692 273f d694 f1ba
00000010: 707c 223f a78d 2c3f d27e bcbe fdd9 78bd
00000020: 53e7 aabe bad4 883e 2d90 7ebe 10c1 a33e
00000030: 562a 9a3c 76aa edbe 7f65 f3be 5bce 30bf
00000040: 8a84 cabe 7aba 973e 1d3d 3a3d c55a 233f
00000050: 442c 1fbf 179b 063e 9b4f 22bf 85ca 803a
00000060: 2b71 ba3e d761 22bf ce54 453f 53e4 60be
00000070: e621 173f 0813 f3bd 5095 043f 7c22 1a3f
00000080: 06cf 83be 7903 30be 72e9 eb3e ecf9 1abf
00000090: 5744 d83e bb66 e3be 3f13 223f 8144 edbe
000000a0: a9fb 94be 80aa f83e 79a0 9dbe cc35 1f3f
000000b0: ceea 173f 6c55 3e3f 7375 2fbf f096 aa3a
000000c0: ab28 6ebe 8a4b 883e c9ad 08bf 69d1 863e
000000d0: 7b87 203e af21 abbe 7cd8 22bf f3c3 ca3e
000000e0: 1006 83be f84c 1c3f eab1 6a3e fe47 bd3e
000000f0: 0817 ebbd fcd9 08be def9 75be abbe 1cbf
00000100: 3fb0 133f 96fd e3be 6894 103f f937 74be
00000110: c256 1c3f eb9e 433f d16c ddbe f8e4 183f
00000120: c147 80bb 4a49 0abf 02f5 c63e f7b7 c93e
00000130: 781c 373f e450 2cbf 3594 203f a90d 2e3f
00000140: 1f3d 4c3f 83e0 0d3f e2fd afbe 8cee 1f3f
00000150: e4fc 193f c46e 8abe 45b7 ecbd b898 283f
00000160: 0bcb 3c3f 7a0e 0b3f 7761 243f 140d babe
00000170: 15d4 f9bd 3da3 90be 2d2f a63e 2d7f 353e
00000180: 35d4 0bbf 7ca5 18be f69c 13bf 3f5c 2abf
00000190: 2ac3 3d3f f11c b6be c5f9 ce3e 8a3c 21be
000001a0: e984 27be 27a9 7f3a 79c5 293f d054 8a3a
000001b0: ad45 2d3f d5e7 c33e f746 143f 7a2c 24bf
000001c0: a049 a9be 197b 13bf 2ac9 19be eaf8 15be
000001d0: 9763 863e 7e7b 2e3f 2093 8c3e 68ed fbbe
000001e0: d70c e3be 531c 213f c351 243e c90c 1e3e
000001f0: e75b bdbe 61b3 04be e60e 963e 3594 edbe
00000200: 1e17 113f f147 f13e 8221 d3be 1477 94be
00000210: 363b 2abe 5ef9 743e 92cd 84be fcd0 2b3f
00000220: 085c 2ebf c39f ccbe ecbf dbbe 90e8 8f3e
00000230: 313f 753e 8b54 4ebe 09dc 143f f843 1cbf
00000240: 0bad 9c3e 5d36 c7be ede0 24be 5a52 2ebf
00000250: d821 07bf f195 19bf 4ab7 f43e a8f2 87be
00000260: c96b f33e db34 c4be 9666 33be a9f6 553d
00000270: 0daa 2e3f 1126 43be 28d3 ca3e 4deb 283e
00000280: 0fbf f53e 553e 1d3f b617 c73e f357 5abe
00000290: c481 45be addd 6d3e 7a56 fd3e 0336 0cbe
000002a0: 3c82 e23e 34cf d9be bff7 013f 5c1c 7fbd
000002b0: 1325 f9be a8e8 afbe 803e 0abf 380a 703e
000002c0: ffb5 d6be 6c59 4fbe 4fc7 bcbd dae6 dcbe
000002d0: 81fb f53d f3ce 18be 4ef2 393e 9e4d 1b3f
000002e0: 348d dabe 795e d73e 74dd 00be cbec cebe
000002f0: 8730 a4be 90f7 8a3e fd70 733e a475 223a
00000300: 453d b4be abe7 ed3e 2017 863d 79f9 2fbf
00000310: 77ed ffbd 8373 44be 407c 9abe 71d2 c8be
-0.16791649 0.0781112 0.65458333 -0.0018431197 0.63471127 0.67403644 -0.36815506 -0.060754765
-0.3337961 0.26724797 -0.24859686 0.31983232 0.018819015 -0.46419114 -0.47538373 -0.69064873
-0.39554244 0.29634458 0.04546844 0.6381038 -0.6217692 0.131451 -0.6340272 0.000982598
0.36414465 -0.6343054 0.77082527 -0.21962099 0.590361 -0.11868864 0.5179033 0.6020887
-0.25743884 -0.17188825 0.46076542 -0.605376 0.4223964 -0.44414315 0.6331062 -0.46341327
-0.2909825 0.4856758 -0.30786493 0.6219146 0.5934266 0.74349093 -0.6853859 0.0013014954
-0.23257701 0.26620132 -0.53390175 0.26331642 0.15676682 -0.33424136 -0.6361158 0.39602622
-0.25590563 0.61054945 0.22919431 0.36968988 -0.11479002 -0.13364404 -0.24021098 -0.61228436
0.57690805 -0.44529408 0.5647645 -0.23849477 0.6106988 0.76414365 -0.43247083 0.5972438
-0.0039148037 -0.5401808 0.388588 0.39398167 0.71527815 -0.6731093 0.62726146 0.67989594
0.79780763 0.554207 -0.34373385 0.6247337 0.60151505 -0.27037632 -0.115583934 0.6585803
0.7374732 0.54318964 0.6421122 -0.36338103 -0.121986546 -0.2824954 0.32457867 0.17724295
-0.5462068 -0.14906877 -0.5766138 -0.66547006 0.7412592 -0.35568956 0.40424934 -0.1574575
-0.16359295 0.00097526837 0.66316944 0.001055384 0.6768444 0.3826281 0.57920784 -0.64130366
-0.33063984 -0.5760971 -0.15018144 -0.14645734 0.26247856 0.68157184 0.27455997 -0.49204564
-0.44345734 0.62933844 0.16046815 0.15434565 -0.36984178 -0.12959053 0.29308242 -0.46402135
0.566759 0.471252 -0.41236502 -0.289971 -0.1662415 0.23923251 -0.25938088 0.6711576
-0.6810918 -0.3996564 -0.42919862 0.2810712 0.23949887 -0.20149438 0.58148247 -0.6104121
0.3060077 -0.38908663 -0.16101427 -0.6809441 -0.52786016 -0.5999442 0.47796088 -0.2655232
0.4754317 -0.38321576 -0.17519602 0.052237187 0.68228227 -0.1905749 0.39614224 0.1649601
0.4799733 0.61423236 0.38885278 -0.21322612 -0.19287783 0.23229094 0.4948004 -0.13692479
0.44239986 -0.42540896 0.50768656 -0.062282905 -0.48661098 -0.3435719 -0.5400162 0.23441398
-0.41935727 -0.20248955 -0.092177026 -0.43144876 0.12010861 -0.14922695 0.18158838 0.6066531
-0.42685854 0.42064264 -0.12584478 -0.40415034 -0.32068273 0.27142 0.2377357 0.00061973394
-0.35202995 0.4646581 0.065473795 -0.6874004 -0.12496465 -0.19184689 -0.3017292 -0.39223054

layers.2.weight f4 [1, 200]
00000000: 515a 62bd befe 403c 4b90 07be 4ff5 73bf
00000010: 9b92 fcbd 6569 b7bd b69a e4bc 7157 15bd
00000020: dd65 c63c ca49 c1bc c448 37bd 37c1 e7bd
00000030: 51c9 33bd 6be7 06bc 08e8 873c f7e1 113d
00000040: a443 cebc 968a eebd dcd8 1abd a67e bfbd
00000050: 06b9 39bd 962d d0be 3ebb 01bd 9390 953e
00000060: 14fa 6dbd 7253 f03c aba1 73bd 6a18 3cbd
00000070: 37e7 70bc 237d 2dbc c1d8 babd 66d8 0abc
00000080: d421 0ebd b69f 623c 4657 06be f8f8 0e3d
00000090: c0c3 25bd 6b6e 65bd a285 d5bc 13a4 f53b
000000a0: a012 10bd 3c79 e0bb 1fa8 ef3c 21f6 2dbd
000000b0: 3b3d c5bd 1c2d d9bd 3221 16bd 5dc7 603e
000000c0: 1753 963c f97d f6bd 72e3 7d3d 987a b9bc
000000d0: 4eae e2be 135b 103d de8b ecbc 9497 2abd
000000e0: 593b 683d a15b 06be 7eca f3bd 9555 a8bd
000000f0: 9ded 203c d015 61bd 2690 37bd adc9 d5bb
00000100: 25a9 aabd dfb9 703c 3aaa 81bd f3f2 643c
00000110: d11b 8bbd 0b23 83bd 91d5 80bb 7041 29bd
00000120: 3007 aabd d23d 0bbd 54a1 e1bd fb4b 13bd
00000130: d7c0 f3bd 9f51 353d 55d4 04bd 0370 80bd
00000140: 92e8 c7bd 5a5f 94bd 379a 5cbd 3765 06be
00000150: 12e6 c5ba 2141 7abd 1e83 67bd b965 c5bd
00000160: 846d 8cbd 418d 51bd 6138 d8bd db99 d8bb
00000170: 7e39 79bc 1775 693d 61b1 a1bb 6078 2cbd
00000180: 4a24 dcb9 c441 e23c 3f45 61bd 2e27 e93c
00000190: 6742 e3bd 4f97 593d 2c62 06be fd55 cf3c
000001a0: 68bd 5ebd 0fa5 343f ccd7 60bd ecaf 913f
000001b0: 3551 fdbd bbf7 a8bc 475c f2bd 719b 16bd
000001c0: bc3f d43c 86db 3bbc 364a 5cbd 566a 6dbd
000001d0: 919b c7bd afad 44bd 81c1 c8bb bd33 4d3d
000001e0: 1153 923a c202 e6bd c002 10be 095d ba3b
000001f0: f08f 1bbd 40ed 07bc 6661 09be 60db 40bd
00000200: d6a8 68bd bf8c bcbd 219b ff3b 9090 08ba
00000210: dc71 633b d5ad cbbd a2a1 2cbb 4b58 16bd
00000220: f2d2 4b3d 6fd4 6b3d 26a3 63bd 106f 06be
00000230: eaa0 d4bd a047 aabb 8f01 eebc 6753 833d
00000240: 558f 44bd e52b 46bd c2a6 fcbb 0072 343d
00000250: b7e2 cd3c 6152 45bd 31f5 90bd d8b3 86bd
00000260: 279d cebd 7924 433d 0210 f2bc 4e25 36bc
00000270: f87c ffbd 06ad 763d c0a4 03bd bd98 c3bc
00000280: 37c0 49bd 307c 88bd 2349 e4bd 13f5 19bd
00000290: aa70 49bd d50a e7ba bfda c7bd a764 8bbd
000002a0: 4af9 0bbe 5fc4 953c 50b6 c0bd b450 aebd
000002b0: 3720 0a3c f083 80bd 5eeb dbbb b7cf 0cbe
000002c0: 9764 303d f994 5dbd bfa7 a7bc ef26 0a3d
000002d0: 17d4 4abe 966e 8a3c e912 2bbb 246b eabd
000002e0: cfe8 ba3b 18f3 3fbd da2d 82bf f8fb 593d
000002f0: 250a 6abd 12b4 0abe a30c 13be aa56 15bf
00000300: 7648 61bc 1be3 c7bd 8e28 64bb bd49 40bd
00000310: 0ab0 5ebd f71b 5abd 7cb0 24bd 47a4 883d
-0.055261914 0.011779485 -0.13238637 -0.95296186 -0.1233265 -0.08955649 -0.027905803 -0.036460344
0.024218494 -0.023594756 -0.04474713 -0.1131615 -0.043893162 -0.008233885 0.016590133 0.035615887
-0.025178738 -0.11647527 -0.03780447 -0.09350328 -0.045342468 -0.4065978 -0.03167271 0.29211864
-0.05809982 0.029336665 -0.05948035 -0.04592172 -0.014703563 -0.010588917 -0.09123374 -0.008474445
-0.03470023 0.013832023 -0.1311923 0.034905404 -0.040469885 -0.056013506 -0.026064698 0.007496366
-0.035174012 -0.0068503898 0.029254971 -0.042471055 -0.096308194 -0.10604307 -0.03665275 0.21951051
0.018350167 -0.12035746 0.061984487 -0.022641465 -0.4427361 0.035243105 -0.028875288 -0.041648462
0.056697223 -0.13120891 -0.11903857 -0.082194485 0.009822276 -0.054952443 -0.044815205 -0.006524286
-0.08333043 0.014692753 -0.06331296 0.013973939 -0.06792415 -0.06403168 -0.003931709 -0.04132217
-0.08302152 -0.033994503 -0.11017099 -0.035961132 -0.11902016 0.044267293 -0.032429058 -0.062713645
-0.09761156 -0.07244749 -0.05385801 -0.13124548 -0.0015098474 -0.061097268 -0.056521527 -0.09638543
-0.06856826 -0.0511601 -0.105576284 -0.006610138 -0.015211461 0.05699643 -0.0049344753 -0.042106986
-0.00041988707 0.02761925 -0.05499768 0.028461065 -0.110966496 0.053122815 -0.13123387 0.025309557
-0.05437985 0.7056436 -0.0548933 1.1381812 -0.12369005 -0.02062594 -0.11834007 -0.036769334
0.025909297 -0.011465913 -0.05378171 -0.057962738 -0.09746469 -0.0480172 -0.006126583 0.05009817
0.0011163672 -0.11230995 -0.14063549 0.00568736 -0.037979066 -0.008296311 -0.13416061 -0.047084212
-0.05680164 -0.09206533 0.007800475 -0.000520953 0.0034705317 -0.09945265 -0.0026341458 -0.036705296
0.04976172 0.05757564 -0.055575512 -0.13128304 -0.103822544 -0.0051965266 -0.029053478 0.06412392
-0.047988255 -0.048381705 -0.007710309 0.04405403 0.02513252 -0.048174266 -0.070780165 -0.06577271
-0.10088568 0.047642205 -0.029548649 -0.011117293 -0.12475008 0.0602236 -0.03213954 -0.023876542
-0.049255576 -0.06664312 -0.11146762 -0.037587237 -0.04917971 -0.001762713 -0.097585194 -0.06806307
-0.13669315 0.018282114 -0.09409773 -0.08511487 0.008430532 -0.06275165 -0.0067114076 -0.13751112
0.04306468 -0.05409715 -0.02046573 0.033728536 -0.19807468 0.016898435 -0.00261038 -0.11446217
0.0057040225 -0.04686269 -1.0170243 0.05321881 -0.05713858 -0.13545254 -0.1436029 -0.58335364
-0.013750186 -0.09760114 -0.0034814212 -0.046945322 -0.054367103 -0.053249326 -0.04020737 0.066719584

grad_avg f4 [118, 1]
00000000: 0000 0000 f2be ceb8 87e5 3bbb 04b7 cfba
00000010: a5f5 0a39 2f34 153c f797 1f3a 99f4 1dba
00000020: e8d4 f0ba c3a8 b3bb 77e9 9e39 e700 c8bb
00000030: 2378 50b9 f944 f33b e426 50bb d3aa 05bc
00000040: dae3 2bba 146e 78bc 0018 9e3c 1131 b3bb
00000050: e728 7cb8 19af 15bb e78c 94ba f1b9 853b
00000060: 4051 09bc 63e1 a0bb 83ba 03bc 3ca0 71bb
00000070: e3a1 bfb8 b9d8 28bb 6fac b0bc de69 5abb
00000080: 53d5 96bb 7ad7 853c b68a 8dbb ddce 4e3b
00000090: 2867 b039 e2bd a7bc 13cb 7e3b 9b21 afbc
000000a0: 8a90 2bbc e5f8 92bc 5733 e9bc fd7d bb3b
000000b0: 32c8 f5bb 6b36 ecbb d60f dfba 5b29 73bc
000000c0: 7ede 263b 9c9f 3bbb e1ee d33b 364c 8a3b
000000d0: ade1 94bc e295 f8bb 7bd5 583b f61b 0bbc
000000e0: 565b d2bb 2b6a e03a f7a8 c2bb fe8b e53c
000000f0: 21d8 b23b 64ed 743c a8eb d0bc dce7 18bd
00000100: 0e23 3d3c 526e 27bc 82a3 98bb 2d52 c4bb
00000110: cc00 ef3b ee98 85bc 2ea4 243c c956 e23a
00000120: f7e8 533b 3aeb ac3b 3ba4 bd3b c18f febc
00000130: 70e1 19bc 0314 1aba c4af eabb c359 e0ba
00000140: 9621 f6bc 6a3c 0bbc 264f ed3a 2692 133c
00000150: 96ad 7eb9 10fc 29bb 3189 47bc c5b6 87bc
00000160: 7380 a2bc c245 09bb a3c4 0abc ca4a 543c
00000170: 8406 cabc 8b7e 87b9 cb23 dfbb ef2e fd3b
00000180: 9d0e e6bc 3850 3bbc 5134 883c b4a6 66bc
00000190: de32 eabc 72e0 08bc a75b f8bc 58e1 18bc
000001a0: 4447 eb3c 2873 1dbc 9027 823a ac2d 16bd
000001b0: b770 debc d474 01bd 522e 053d 2c56 ecbb
000001c0: b77e 33bc 1dba c43c 94e1 f33c f19c 60bd
000001d0: a129 583b 5094 a03b
0.0 -9.858412e-05 -0.0028670745 -0.001584739 0.00013252215 0.00910668 0.0006088013 -0.00060255226
-0.0018373998 -0.0054827644 0.00030310053 -0.006103623 -0.0001988118 0.0074239937 -0.0031761462 -0.008158403
-0.0006557085 -0.015162963 0.019298553 -0.0054684957 -6.0119575e-05 -0.0022839962 -0.0011333496 0.004081004
-0.008381188 -0.0049096807 -0.008040073 -0.0036869189 -9.1377435e-05 -0.0025763942 -0.021566598 -0.0033327262
-0.004603067 0.016338099 -0.004319514 0.0031556406 0.00033646193 -0.020476285 0.0038878366 -0.021378329
-0.0104714725 -0.017940948 -0.028466864 0.005721806 -0.007500672 -0.0072086356 -0.0017018269 -0.014841403
0.0025462206 -0.002862907 0.0064676856 0.004220511 -0.018174017 -0.007586227 0.0033086229 -0.008490553
-0.0064195795 0.0017121484 -0.0059405523 0.028020855 0.0054578935 0.014949176 -0.025502995 -0.037330493
0.011544002 -0.0102191735 -0.0046581635 -0.0059912414 0.007293796 -0.016308274 0.010048909 0.0017268296
0.0032334903 0.0052770646 0.0057874 -0.031074407 -0.009392127 -0.0005877616 -0.007162066 -0.0017116595
-0.030045312 -0.008498291 0.0018105253 0.0090070125 -0.00024287993 -0.0025937594 -0.012178705 -0.016566643
-0.01983664 -0.002094612 -0.008469733 0.012957284 -0.02466131 -0.00025843488 -0.006809687 0.007726542
-0.02808314 -0.0114327 0.016626509 -0.014077831 -0.028588708 -0.008354293 -0.03031714 -0.00933107
0.028720506 -0.009609975 0.0009930003 -0.03666465 -0.027153356 -0.031605557 0.032514878 -0.007212421
-0.010955504 0.024014527 0.02977065 -0.05483717 0.0032983797 0.0049004927

sqr_avg f4 [118, 1]
00000000: 0000 0000 580b 123b cb32 d539 c50e 813a
00000010: 3c07 d43a 0870 223c 4a15 f43a 9f55 bb3b
00000020: 8dc9 363a b0d5 133b 429b de3b 6e5f 093c
00000030: e2a7 823b 0a0d 733c 9b93 973b b4fe 723b
00000040: 0f19 953c 87af 2c3d d211 843d a2bb ee3a
00000050: d278 033c 9108 933b bdd4 9b3c 7fba 833d
00000060: a11c 253d 9e08 dd3c 5e7e 2d3d eea5 a53b
00000070: 4a77 8a3a 0eeb f93c aab3 133d e3ba 233c
00000080: 1da6 983d aff6 973d 2234 b63a 9c16 043c
00000090: fc10 6b3c 17e8 803d 606b 433d 9ea7 da3c
000000a0: fa02 ab3c 8198 de3d 4ed7 273d ad3a 893c
000000b0: 2cb2 0d3b 2325 053c ea18 943d 3ff1 5f3d
000000c0: c903 003c cd35 883c 88f3 623d 5d88 af3d
000000d0: b620 7c3d 63a2 503c c754 c73c 1b20 733b
000000e0: 3390 2f3c 7395 153d c02f c73d 3b80 803d
000000f0: 4a7e 6c3d c3c7 d73d 6fcc e03d c769 163e
00000100: 6149 8e3d ed9d 403c e496 e43b 828a cf3d
00000110: c314 a23c 3a8e 843d ec1f f53c 5d62 8f3d
00000120: 0bc8 3b3d f23e 413d 3831 f13d ef18 d63d
00000130: f8f8 3f3b 9493 ed3b 3c94 533c fe0d aa3c
00000140: 26fe 7a3d c837 973d 6431 bb3c 7f1e bd3c
00000150: 4bbb 183d 41e7 273d e354 8b3d 5a78 863d
00000160: dcc8 7c3d 440d 733b f61b 423c f803 753d
00000170: ff23 dc3c 851d 283d bdac ae3c 500c ea3c
00000180: 676a f83d 1e61 a53c 7b94 883d a36e 973d
00000190: 8914 763d 4f12 bf3d b1d1 f53c d787 133c
000001a0: 7eaa 803d b2a3 d83b 188e be3c a64c 8a3d
000001b0: 77b6 1b3e 64da 823d a829 d43d ee5c 0f3e
000001c0: 042c 5c3d becd 053e 2ba5 f83d 4c72 383e
000001d0: a0ed 013e aadf 263e
0.0 0.0022284593 0.0004066437 0.0009846321 0.0016176472 0.009914406 0.0018622067 0.005716994
0.00069727824 0.0022557788 0.0067934105 0.008384569 0.0039872983 0.014834652 0.0046257502 0.0037078084
0.018200425 0.042159583 0.064487115 0.0018213878 0.008024411 0.004487105 0.01902234 0.06432056
0.040310506 0.026981648 0.04235684 0.0050551808 0.0010564115 0.03050759 0.036060013 0.009993288
0.074535586 0.07420098 0.0013901035 0.008062031 0.014347311 0.062942676 0.047709823 0.026691254
0.020875443 0.108689316 0.040976815 0.016751612 0.0021621091 0.00812653 0.072313145 0.05467343
0.007813402 0.016627217 0.05540803 0.08570931 0.061554633 0.0127340285 0.024332417 0.0037097994
0.010715532 0.03651948 0.097259045 0.06274458 0.057737626 0.105361484 0.109764926 0.14688788
0.0694759 0.011756402 0.0069759954 0.1013384 0.01978529 0.0647244 0.029922448 0.07001183
0.045845073 0.04717917 0.11776966 0.104539745 0.0029292684 0.0072502587 0.01291376 0.020758625
0.06127753 0.07383686 0.0228507 0.02308583 0.03728799 0.040992025 0.068033 0.06565924
0.061714992 0.0037086764 0.011847487 0.059818238 0.026872633 0.041043777 0.021322602 0.028570324
0.1212967 0.02018791 0.066689454 0.07394149 0.060078178 0.09329664 0.030007215 0.009004555
0.06282519 0.006611311 0.023261115 0.06752901 0.15206324 0.06389311 0.10359508 0.14000294
0.053752914 0.13066766 0.12140878 0.18012351 0.12688303 0.16296259

grad_avg f4 [200, 2]
00000000: 0000 0000 0000 0000 f32e d235 af41 48b8
00000010: 04db 88b8 a436 163a f7cb c0bb 43fd dcbb
00000020: 301a 7eb8 670d 0c3a b080 35b8 a4f2 cb39
00000030: 0000 0000 0000 0000 0000 0000 0000 0000
00000040: 0000 0000 0000 0000 edc8 30b7 a84b d938
00000050: 0000 0000 0000 0000 ac1a 65b8 f0e3 003a
00000060: 9121 15ba 1165 7c38 0000 0000 0000 0000
00000070: 0000 0000 0000 0000 0000 0000 0000 0000
00000080: 0000 0000 0000 0000 6683 6db8 0a6e 043a
00000090: d5fa 4eb9 1d0c c938 b228 3fb8 d597 d439
000000a0: 0000 0000 0000 0000 c0a6 473a dfbb 773a
000000b0: 0000 0000 0000 0000 89a6 de3a d92c 1cba
000000c0: 6a6f e2b7 6621 8539 0000 0000 0000 0000
000000d0: 7cf0 ebb7 caf1 8739 0000 0000 0000 0000
000000e0: 4b5b c7b6 c79f 8938 0000 0000 0000 0000
000000f0: cafb 38b8 b1b4 cf39 08ec 3cb6 b650 2238
00000100: 0000 0000 0000 0000 0000 0000 0000 0000
00000110: dbed 86b8 0007 153a 0000 0000 0000 0000
00000120: e726 9cb7 3fd8 3939 0000 0000 0000 0000
00000130: 35b4 43b7 c75b f038 0000 0000 0000 0000
00000140: 0000 0000 0000 0000 42e4 00b6 6a88 0538
00000150: 0000 0000 0000 0000 89eb a5b7 2a91 4239
00000160: 6833 44b8 dd28 db39 dce5 59b8 3de9 f039
00000170: 0000 0000 0000 0000 4fb9 a93a 43b8 d8b9
00000180: 0000 0000 0000 0000 0dc1 74b8 3ef9 083a
00000190: 0000 0000 0000 0000 2539 26b7 6fba d138
000001a0: 4c57 00b9 25b1 043b 0000 0000 0000 0000
000001b0: 0000 0000 0000 0000 e603 a3b7 44ba 3e39
000001c0: 0000 0000 0000 0000 575b 87b8 d5f4 143a
000001d0: 1237 70b8 b6a6 073a 45bd 22b8 b803 bc39
000001e0: 4036 c82b 4036 c82b 52a9 01b8 6c8a 2737
000001f0: 0000 0000 0000 0000 0000 0000 0000 0000
00000200: 1beb 27b8 57f2 bd39 0000 0000 0000 0000
00000210: dcab f9b7 26d4 9039 0000 0000 0000 0000
00000220: 93fb 06b8 a726 9b39 8dc0 fdb7 9c5e 9239
00000230: 0000 0000 0000 0000 5edf a0b7 fe7d 3d39
00000240: c96e 0aba bcee 0eba 0000 0000 0000 0000
00000250: 4a9f 60b8 7fa6 fa39 8763 8ab7 1e23 2539
00000260: 4654 75b8 d41e 073a 0000 0000 0000 0000
00000270: 8fb2 79b7 88ea 1439 03a7 f7b7 956c 8f39
00000280: 9616 48b8 b8d9 dd39 ba0b 10b8 9a7c a539
00000290: 0000 0000 0000 0000 bd92 87b8 34f4 143a
000002a0: cdb0 6435 6f8f 1637 0000 0000 0000 0000
000002b0: 0000 0000 0000 0000 6505 45b8 fd25 db39
000002c0: 8f97 08b8 4f95 9c39 2693 c9b7 3c0a 6a39
000002d0: 67ed 57b8 d90f f039 0000 0000 0000 0000
000002e0: 0000 0000 0000 0000 0000 0000 0000 0000
000002f0: 10e9 8db5 88bd c337 2a00 a0b7 58cd 4139
00000300: 0000 0000 0000 0000 e4a2 102c e4a2 102c
00000310: 0000 0000 0000 0000 0000 0000 0000 0000
00000320: e5a3 63b8 3b30 fc39 0000 0000 0000 0000
00000330: ff6c 87b8 84f1 143a 0000 0000 0000 0000
00000340: 1856 9ea7 60c0 b828 f48a 3e3b 37aa a93b
00000350: f018 d9b7 4400 7b39 0c83 a83b 42d3 103c
00000360: cf7e 7eb8 047b 0c3a 0843 15b7 1338 bf38
00000370: ebee 72b8 c773 063a 0000 0000 0000 0000
00000380: 0000 0000 0000 0000 0000 0000 0000 0000
00000390: 0000 0000 0000 0000 0000 0000 0000 0000
000003a0: 807d 43b8 5c51 de39 0b7a bcb7 a0e8 5b39
000003b0: 7fc5 cfb5 434a f037 0000 0000 0000 0000
000003c0: 0000 0000 0000 0000 738c 66b8 623a ff39
000003d0: 2b46 8fb8 9f04 203a d129 28b7 4148 0ab8
000003e0: 0000 0000 0000 0000 8e3b 2028 2124 a229
000003f0: 9034 89b8 d18a 183a 0000 0000 0000 0000
0.0 0.0 1.5659883e-06 -4.774489e-05 -6.52578e-05 0.0005730188 -0.0058836895 -0.0067440583
-6.0582708e-05 0.0005342573 -4.3273612e-05 0.0003889996 0.0 0.0 0.0 0.0
0.0 0.0 -1.0537199e-05 0.000103614584 0.0 0.0 -5.4622695e-05 0.0004916778
-0.0005688901 6.0175607e-05 0.0 0.0 0.0 0.0 0.0 0.0
0.0 0.0 -5.6627578e-05 0.00050517975 -0.00019739133 9.586683e-05 -4.557585e-05 0.00040548915
0.0 0.0 0.0007616095 0.0009450297 0.0 0.0 0.0016986887 -0.00059576106
-2.699318e-05 0.0002539262 0.0 0.0 -2.8126167e-05 0.00025929353 0.0 0.0
-5.94129e-06 6.56243e-05 0.0 0.0 -4.4103515e-05 0.00039616742 -2.8151571e-06 3.8698978e-05
0.0 0.0 0.0 0.0 -6.433922e-05 0.0005684942 0.0 0.0
-1.8614764e-05 0.00017723533 0.0 0.0 -1.1664863e-05 0.00011461187 0.0 0.0
0.0 0.0 -1.920635e-06 3.1836717e-05 0.0 0.0 -1.9779212e-05 0.0001855536
-4.6777917e-05 0.0004180138 -5.1950905e-05 0.00045950143 0.0 0.0 0.0012948903 -0.00041336016
0.0 0.0 -5.8353926e-05 0.0005225128 0.0 0.0 -9.907676e-06 0.000100006226
-0.00012239552 0.0020247188 0.0 0.0 0.0 0.0 -1.943293e-05 0.00018189201
0.0 0.0 -6.454315e-05 0.0005682235 -5.7271747e-05 0.0005174683 -3.880008e-05 0.00035860925
1.4225912e-12 1.4225912e-12 -3.091369e-05 9.9862045e-06 0.0 0.0 0.0 0.0
-4.003486e-05 0.00036229446 0.0 0.0 -2.9763141e-05 0.00027623883 0.0 0.0
-3.2182386e-05 0.00029592702 -3.0249614e-05 0.0002791778 0.0 0.0 -1.91775e-05 0.0001807138
-0.00052807905 -0.00054524443 0.0 0.0 -5.355411e-05 0.00047807765 -1.6497228e-05 0.00015748708
-5.8491038e-05 0.0005154435 0.0 0.0 -1.48831305e-05 0.0001420175 -2.9522465e-05 0.00027355985
-4.770475e-05 0.00042314618 -3.4343197e-05 0.00031564088 0.0 0.0 -6.464634e-05 0.0005682141
8.51939e-07 8.974092e-06 0.0 0.0 0.0 0.0 -4.6973484e-05 0.00041799239
-3.2566077e-05 0.00029865882 -2.4029589e-05 0.00022319792 -5.1481093e-05 0.00045788175 0.0 0.0
0.0 0.0 0.0 0.0 -1.0573149e-06 2.3334069e-05 -1.9073563e-05 0.00018482411
0.0 0.0 2.0554053e-12 2.0554053e-12 0.0 0.0 0.0 0.0
-5.4273656e-05 0.0004810112 0.0 0.0 -6.457604e-05 0.00056817406 0.0 0.0
-4.3947153e-15 2.0511533e-14 0.0029074522 0.005177762 -2.5880028e-05 0.00023937324 0.005142575 0.00883943
-6.067642e-05 0.0005358907 -8.896699e-06 9.118034e-05 -5.7919806e-05 0.00051289465 0.0 0.0
0.0 0.0 0.0 0.0 0.0 0.0 0.0 0.0
-4.6608504e-05 0.00042403757 -2.2468177e-05 0.00020972127 -1.5480181e-06 2.864481e-05 0.0 0.0
0.0 0.0 -5.4967077e-05 0.0004868089 -6.831841e-05 0.0006104204 -1.00233165e-05 -3.2969056e-05
0.0 0.0 8.894698e-15 7.2005126e-14 -6.5424596e-05 0.0005819025 0.0 0.0

sqr_avg f4 [200, 2]
00000000: 0000 0000 0000 0000 1b97 f035 b186 ff35
00000010: b4fc 1a38 57d7 1e38 310d b53a 63fe b13a
00000020: f688 0538 adcf 0838 196c 8337 eb70 8637
00000030: 0000 0000 0000 0000 0000 0000 0000 0000
00000040: 0000 0000 0000 0000 0eb0 a535 6347 ac35
00000050: 0000 0000 0000 0000 91c0 d537 7eba da37
00000060: 05ea 7036 09a0 6836 0000 0000 0000 0000
00000070: 0000 0000 0000 0000 0000 0000 0000 0000
00000080: 0000 0000 0000 0000 1281 e337 1dee e837
00000090: 3aa2 1d36 8b89 0436 0d30 9237 d5a3 9537
000000a0: 0000 0000 0000 0000 974f 4d39 af73 1e39
000000b0: 0000 0000 0000 0000 8c14 5e38 f642 d838
000000c0: 635b ce36 8415 d336 0000 0000 0000 0000
000000d0: 7717 db36 1c0d e036 0000 0000 0000 0000
000000e0: 467a 7f35 5451 8735 0000 0000 0000 0000
000000f0: 3c14 8837 ac39 8b37 5aa1 8235 76c6 8b35
00000100: 0000 0000 0000 0000 0000 0000 0000 0000
00000110: a40e 1738 c9c2 1a38 0000 0000 0000 0000
00000120: 1498 4a36 f4a5 4f36 0000 0000 0000 0000
00000130: 4377 c035 1662 c735 0000 0000 0000 0000
00000140: 0000 0000 0000 0000 0929 8e35 cc3a 9835
00000150: 0000 0000 0000 0000 e6eb 5b36 cb44 6136
00000160: 263d 9b37 b7df 9e37 128c c037 022e c537
00000170: 0000 0000 0000 0000 6b80 f637 cdd2 6e38
00000180: 0000 0000 0000 0000 2638 f537 1f0e fb37
00000190: 0000 0000 0000 0000 5b3c a035 82a5 a635
000001a0: e1b2 7639 c80b 4439 0000 0000 0000 0000
000001b0: 0000 0000 0000 0000 e16e 5236 a487 5736
000001c0: 0000 0000 0000 0000 6900 1838 07c2 1b38
000001d0: 8fa6 eb37 b829 f137 b55c 5737 9636 5c37
000001e0: 859f 3d2b 859f 3d2b 80e6 dd32 d3a1 aa31
000001f0: 0000 0000 0000 0000 0000 0000 0000 0000
00000200: fcf8 5f37 9912 6537 0000 0000 0000 0000
00000210: 7fbc f736 fd57 fd36 0000 0000 0000 0000
00000220: 0a6e 0f37 61ae 1237 4dae fe36 3a33 0237
00000230: 0000 0000 0000 0000 518a 5136 85a8 5636
00000240: 4b2f 3237 7de7 1f37 0000 0000 0000 0000
00000250: a844 cd37 ad22 d237 1e37 2136 928b 2536
00000260: b68c f637 d393 fc37 0000 0000 0000 0000
00000270: dbda 0436 20ac 0836 f305 f336 827c f836
00000280: b51d a137 56f2 a437 a92e 2437 efe4 2737
00000290: 0000 0000 0000 0000 3e66 1838 b42e 1c38
000002a0: 97ac b135 5642 be35 0000 0000 0000 0000
000002b0: 0000 0000 0000 0000 5580 9b37 812b 9f37
000002c0: abee 1237 cd3d 1637 e39b 9f36 3c4a a336
000002d0: 32e1 bc37 7b5b c137 0000 0000 0000 0000
000002e0: 0000 0000 0000 0000 0000 0000 0000 0000
000002f0: a7bb 9035 1d22 9b35 44fd 5c36 656f 6236
00000300: 0000 0000 0000 0000 aef6 ae2c aef6 ae2c
00000310: 0000 0000 0000 0000 0000 0000 0000 0000
00000320: 7400 d337 8c0e d837 0000 0000 0000 0000
00000330: 3e76 1738 7439 1b38 0000 0000 0000 0000
00000340: 20c7 012c f3b0 302e 5149 473a f47b b939
00000350: 1ff9 b836 4632 bd36 ac24 013b 5b05 793a
00000360: f12c 0538 d26a 0838 b0ce 9835 10d9 9f35
00000370: 5e62 f137 7435 f737 0000 0000 0000 0000
00000380: 0000 0000 0000 0000 0000 0000 0000 0000
00000390: 0000 0000 0000 0000 0000 0000 0000 0000
000003a0: 29da 9937 526b 9d37 314d 8d36 eb91 9036
000003b0: 5596 9835 555f a335 0000 0000 0000 0000
000003c0: 0000 0000 0000 0000 0746 d937 2882 de37
000003d0: 575b 2b38 2b99 2f38 45ae a635 67f8 b135
000003e0: 0000 0000 0000 0000 d4eb 8628 78ad 8a2b
000003f0: 91c1 1b38 ed86 1f38 0000 0000 0000 0000
0.0 0.0 1.7925371e-06 1.9038181e-06 3.695181e-05 3.7870686e-05 0.0013813135 0.0013579841
3.1837226e-05 3.261834e-05 1.5666754e-05 1.6026626e-05 0.0 0.0 0.0 0.0
0.0 0.0 1.2344697e-06 1.2835775e-06 0.0 0.0 2.548125e-05 2.6074467e-05
3.5899004e-06 3.4663847e-06 0.0 0.0 0.0 0.0 0.0 0.0
0.0 0.0 2.7120612e-05 2.7767435e-05 2.3489251e-06 1.9749593e-06 1.7426932e-05 1.7838474e-05
0.0 0.0 0.00019579973 0.0001511115 0.0 0.0 5.294806e-05 0.00010312155
6.149917e-06 6.2907948e-06 0.0 0.0 6.5294403e-06 6.6772463e-06 0.0 0.0
9.5172834e-07 1.0081953e-06 0.0 0.0 1.6221886e-05 1.6596947e-05 9.732714e-07 1.0414067e-06
0.0 0.0 0.0 0.0 3.601484e-05 3.689787e-05 0.0 0.0
3.0188867e-06 3.0942e-06 0.0 0.0 1.4339824e-06 1.4855202e-06 0.0 0.0
0.0 0.0 1.0591767e-06 1.1341995e-06 0.0 0.0 3.2770854e-06 3.3567655e-06
1.8505914e-05 1.8939243e-05 2.2953409e-05 2.3505654e-05 0.0 0.0 2.9385285e-05 5.6939945e-05
0.0 0.0 2.9232422e-05 2.9928107e-05 0.0 0.0 1.1938495e-06 1.2416133e-06
0.00023527026 0.00018696405 0.0 0.0 0.0 0.0 3.1356979e-06 3.211645e-06
0.0 0.0 3.6240006e-05 3.713558e-05 2.8091743e-05 2.8748866e-05 1.2836584e-05 1.3125731e-05
6.7367666e-13 6.7367666e-13 2.5832605e-08 4.9660485e-09 0.0 0.0 0.0 0.0
1.3349807e-05 1.3653794e-05 0.0 0.0 7.3831175e-06 7.5502307e-06 0.0 0.0
8.549085e-06 8.742879e-06 7.590081e-06 7.760531e-06 0.0 0.0 3.1223938e-06 3.1986576e-06
1.0620638e-05 9.531036e-06 0.0 0.0 2.4469875e-05 2.5050098e-05 2.4022952e-06 2.4668157e-06
2.9391009e-05 3.0109577e-05 0.0 0.0 1.9796923e-06 2.036577e-06 7.242657e-06 7.4054706e-06
1.9206529e-05 1.966317e-05 9.786026e-06 1.0007278e-05 0.0 0.0 3.6334844e-05 3.7236794e-05
1.3237758e-06 1.417541e-06 0.0 0.0 0.0 0.0 1.85372e-05 1.8974535e-05
8.757847e-06 8.955086e-06 4.756717e-06 4.8664206e-06 2.2516211e-05 2.3049992e-05 0.0 0.0
0.0 0.0 0.0 0.0 1.078345e-06 1.1558328e-06 3.2929975e-06 3.3741464e-06
0.0 0.0 4.9727644e-12 4.9727644e-12 0.0 0.0 0.0 0.0
2.5153371e-05 2.575598e-05 0.0 0.0 3.6111327e-05 3.7008387e-05 0.0 0.0
1.844254e-12 4.017493e-11 0.00076021726 0.00035378302 5.512629e-06 5.6384915e-06 0.0019705696 0.0009499394
3.1751526e-05 3.252441e-05 1.1385036e-06 1.1909597e-06 2.8775245e-05 2.9469586e-05 0.0 0.0
0.0 0.0 0.0 0.0 0.0 0.0 0.0 0.0
1.834061e-05 1.8765833e-05 4.2111137e-06 4.3085215e-06 1.1368635e-06 1.2172192e-06 0.0 0.0
0.0 0.0 2.5901025e-05 2.6525071e-05 4.0854644e-05 4.18659e-05 1.2418683e-06 1.3259822e-06
0.0 0.0 1.4979263e-14 9.853637e-13 3.7135153e-05 3.8034214e-05 0.0 0.0

grad_avg f4 [200]
00000000: 0000 0000 75a2 0d3b ab37 c3bc 574c adbd
00000010: bac8 b5bc 76c1 83bc 0000 0000 0000 0000
00000020: 0000 0000 1c46 89bb 0000 0000 9588 a6bc
00000030: 1eaf 70ba 0000 0000 0000 0000 0000 0000
00000040: 0000 0000 d97a abbc 9f1b 9bbb 25a4 89bc
00000050: 0000 0000 1120 a4bd 0000 0000 8402 973d
00000060: a211 2abc 0000 0000 1b70 2ebc 0000 0000
00000070: 5a07 29bb 0000 0000 e935 86bc 37ab beba
00000080: 0000 0000 0000 0000 785f c1bc 0000 0000
00000090: 38bc ecbb 0000 0000 9cba 97bb 0000 0000
000000a0: 0000 0000 9a21 98ba 0000 0000 e4a8 f8bb
000000b0: 2dc1 8dbc c439 9cbc 0000 0000 4dda 623d
000000c0: 0000 0000 1429 b1bc 0000 0000 aa7e 83bb
000000d0: 54f6 acbd 0000 0000 0000 0000 6cb7 f3bb
000000e0: 0000 0000 1d73 c1bc a016 afbc ac26 71bc
000000f0: 76b7 c22c 1ea8 16b9 0000 0000 0000 0000
00000100: 14fe 74bc 0000 0000 e297 39bc 0000 0000
00000110: d046 47bc e9d9 3bbc 0000 0000 acd5 f1bb
00000120: b478 18bc 0000 0000 e233 a2bc 6f2e d2bb
00000130: 1d6f afbc 0000 0000 8960 bdbb 7bed 37bc
00000140: 8dbf 8fbc db99 54bc 0000 0000 8b84 c1bc
00000150: 1657 4bb9 0000 0000 0000 0000 aae7 8dbc
00000160: e844 49bc 1be4 15bc ec7d 9bbc 0000 0000
00000170: 0000 0000 0000 0000 8f8b 56ba b62f f6bb
00000180: 0000 0000 4ac3 0d2d 0000 0000 0000 0000
00000190: 017e a3bc 0000 0000 d973 c1bc 0000 0000
000001a0: 5fe2 c829 be00 4b3e d5e6 20bc 5fb1 a33e
000001b0: d251 b6bc 6b29 6fbb 8f61 aebc 0000 0000
000001c0: 0000 0000 0000 0000 0000 0000 0000 0000
000001d0: b42a 8fbc b3aa 0cbc 1260 87ba 0000 0000
000001e0: 0000 0000 2a78 a5bc 36ea cebc 059b 893a
000001f0: 0000 0000 4908 a02a 43a5 c5bc 0000 0000
00000200: ad7d 26bc f665 87bc 0000 0000 0000 0000
00000210: 0000 0000 6def 91bc 0000 0000 b0a3 d6bb
00000220: 0000 0000 0000 0000 0000 0000 646b c1bc
00000230: 5558 98bc 0000 0000 a85b a9bb 0000 0000
00000240: 3c55 0cbc 0000 0000 0000 0000 0000 0000
00000250: 0000 0000 0000 0000 4989 4fbc 0000 0000
00000260: 537d 94bc 0000 0000 0000 0000 e5bc 0abb
00000270: 23ea b7bc 0000 0000 a4af bbbb 78b6 8abb
00000280: 9745 10bc 0776 43bc 4319 a4bc 0000 0000
00000290: 4071 b5b7 53bd 7fb9 9e9a 8fbc b21a 3338
000002a0: 7989 c9bc 0000 0000 e273 8abc 3513 0139
000002b0: 0000 0000 0000 0000 0000 0000 3089 cabc
000002c0: 0000 0000 0000 0000 bed9 d700 0000 0000
000002d0: b4ac 11bd f328 9929 191f d4b9 17a4 a8bc
000002e0: 0000 0000 3e3c 09bc 8253 70bb 0000 0000
000002f0: 0000 0000 a08e c7bc 7e91 d3bc 9ef3 3cbd
00000300: 0000 0000 d1a2 8fbc 9a48 22ba 0000 0000
00000310: 0000 0000 0000 0000 0000 0000 0000 0000
0.0 0.0021611725 -0.023830255 -0.08461826 -0.02219044 -0.01608346 0.0 0.0
0.0 -0.004189266 0.0 -0.0203288 -0.0009181368 0.0 0.0 0.0
0.0 -0.020932602 -0.0047335173 -0.016801903 0.0 -0.08013929 0.0 0.07373527
-0.010380181 0.0 -0.010646845 0.0 -0.0025791735 0.0 -0.016383128 -0.0014546876
0.0 0.0 -0.023605093 0.0 -0.007224586 0.0 -0.0046304 0.0
0.0 -0.0011606694 0.0 -0.0075884927 -0.017304027 -0.019070514 0.0 0.05538397
0.0 -0.021626033 0.0 -0.0040129023 -0.08445421 0.0 0.0 -0.007437637
0.0 -0.02361446 -0.021373093 -0.014718693 5.53418e-12 -0.00014367743 0.0 0.0
-0.014953155 0.0 -0.011327716 0.0 -0.012162879 -0.011465528 0.0 -0.007380208
-0.009306122 0.0 -0.01980013 -0.0064142267 -0.021415288 0.0 -0.00577933 -0.011226053
-0.017547393 -0.012976135 0.0 -0.023622772 -0.0001939203 0.0 0.0 -0.01732238
-0.012284495 -0.009148623 -0.018980943 0.0 0.0 0.0 -0.0008184248 -0.007513012
0.0 8.058285e-12 0.0 0.0 -0.019957544 0.0 -0.02361481 0.0
8.921053e-14 0.19824502 -0.00982066 0.3197126 -0.022255812 -0.0036493193 -0.021286754 0.0
0.0 0.0 0.0 0.0 -0.017476417 -0.00858562 -0.0010328314 0.0
0.0 -0.0201989 -0.025258165 0.001049847 0.0 2.8427458e-13 -0.024126654 0.0
-0.010161799 -0.016528111 0.0 0.0 0.0 -0.017814362 0.0 -0.006550275
0.0 0.0 0.0 -0.023610778 -0.018596807 0.0 -0.005168397 0.0
-0.008565243 0.0 0.0 0.0 0.0 0.0 -0.012667009 0.0
-0.018126165 0.0 0.0 -0.0021169719 -0.022450512 0.0 -0.005727725 -0.0042331778
-0.008805654 -0.011929995 -0.020031577 0.0 -2.1629618e-05 -0.00024389224 -0.017529782 4.2701788e-05
-0.024601685 0.0 -0.01690096 0.00012309554 0.0 0.0 0.0 -0.02472362
0.0 0.0 1.9822743e-38 0.0 -0.035565093 6.8016685e-14 -0.0004045896 -0.020586057
0.0 -0.008376179 -0.0036670868 0.0 0.0 -0.024360001 -0.025826212 -0.04613077
0.0 -0.017533692 -0.0006190628 0.0 0.0 0.0 0.0 0.0

sqr_avg f4 [200]
00000000: 0000 0000 9837 b43c 30bc 2c3d ff84 653e
00000010: 6e50 093d 1f94 0e3c 0000 0000 0000 0000
00000020: 0000 0000 bf31 d53b 0000 0000 4c09 913c
00000030: 74f2 aa3b 0000 0000 0000 0000 0000 0000
00000040: 0000 0000 a3e2 af3c 3270 253b a8b3 493c
00000050: 0000 0000 ef75 783d 0000 0000 0944 d33c
00000060: 1a18 0a3b 0000 0000 f5b1 0a3b 0000 0000
00000070: be40 2f3c 0000 0000 dff9 163c f1d3 673c
00000080: 0000 0000 0000 0000 c0a4 1c3d 0000 0000
00000090: 81e3 513b 0000 0000 a2db c43b 0000 0000
000000a0: 0000 0000 e2a4 803c 0000 0000 497f 2c3b
000000b0: a322 513c be47 a43c 0000 0000 1d84 563c
000000c0: 0000 0000 2368 c33c 0000 0000 144e d73b
000000d0: 93e0 8d3d 0000 0000 0000 0000 9392 0d3b
000000e0: 0000 0000 fde4 243d 501d a03c d1c8 9f3b
000000f0: 5a5b 332d 273b 3135 0000 0000 0000 0000
00000100: 0555 cb3b 0000 0000 097c 193b 0000 0000
00000110: 4bbb 363b fffe 1d3b 0000 0000 1b50 303b
00000120: 2c33 293c 0000 0000 bd37 9e3c 3091 743b
00000130: 8b8a f23c 0000 0000 1a9c 843b 075f 173b
00000140: ed12 743c 85a5 583b 0000 0000 2eaa 283d
00000150: 3496 a13c 0000 0000 0000 0000 2f7c 593c
00000160: 3f73 3d3b 431f fa3a cb20 923c 0000 0000
00000170: 0000 0000 0000 0000 7e10 863c aab7 643b
00000180: 0000 0000 2fd9 d62e 0000 0000 0000 0000
00000190: eb2f b43c 0000 0000 e397 243d 0000 0000
000001a0: 87e5 5030 a923 253e 5801 fb3a 4c7e df3e
000001b0: 0765 023d ce3a 073c 894e db3c 0000 0000
000001c0: 0000 0000 0000 0000 0000 0000 0000 0000
000001d0: 5abd 203c 466e 093b 69cc 893c 0000 0000
000001e0: 0000 0000 9801 c13c e7f5 2b3d 80e9 8f3c
000001f0: 0000 0000 3511 882d 05fa 133d 0000 0000
00000200: 074e 063b fd0f 143c 0000 0000 0000 0000
00000210: 0000 0000 e042 0e3c 0000 0000 3e08 713b
00000220: 0000 0000 0000 0000 0000 0000 5835 1b3d
00000230: d18e 053c 0000 0000 b638 c23b 0000 0000
00000240: 423c fe3a 0000 0000 0000 0000 0000 0000
00000250: 0000 0000 0000 0000 541e 453b 0000 0000
00000260: 22ca 683c 0000 0000 0000 0000 f9b9 eb3b
00000270: b4b9 103d 0000 0000 b9ff 8d3b e98a 0a3c
00000280: 4acd 0a3b 41ee 303b 537d 973c 0000 0000
00000290: 62e1 f532 d896 6f3c a73d 473c 9e35 3b35
000002a0: 491d 363d 0000 0000 4af3 3e3c 821e 7038
000002b0: 0000 0000 0000 0000 0000 0000 a1f2 173d
000002c0: 0000 0000 0000 0000 aee9 502f 0000 0000
000002d0: b8fc 3d3d c7ae 3d2e 7387 673c cee7 c23c
000002e0: 0000 0000 42e2 143b 9b46 813d 0000 0000
000002f0: 0000 0000 185b 163d b3d0 2b3d fe66 453d
00000300: 0000 0000 2887 4c3c 2e1b 0d3c 0000 0000
00000310: 0000 0000 0000 0000 0000 0000 0000 0000
0.0 0.021999165 0.042171657 0.22414015 0.03352397 0.008702307 0.0 0.0
0.0 0.0065061743 0.0 0.017704628 0.005216891 0.0 0.0 0.0
0.0 0.021470373 0.0025243876 0.0123109 0.0 0.060659345 0.0 0.025789278
0.0021071495 0.0 0.00211632 0.0 0.010696588 0.0 0.009214847 0.014149652
0.0 0.0 0.038243055 0.0 0.0032026472 0.0 0.0060076276 0.0
0.0 0.015703622 0.0 0.0026320985 0.012764606 0.02005374 0.0 0.013093022
0.0 0.023853367 0.0 0.006570587 0.069276 0.0 0.0 0.0021602258
0.0 0.040257443 0.019545227 0.004876234 1.0195256e-11 6.6023716e-07 0.0 0.0
0.0062052035 0.0 0.0023419878 0.0 0.0027882631 0.0024108288 0.0 0.0026903215
0.010327142 0.0 0.019313687 0.0037317984 0.029607078 0.0 0.004046929 0.0023097412
0.01489709 0.0033057642 0.0 0.04117792 0.019724943 0.0 0.0 0.013274237
0.0028907803 0.0019082803 0.017837903 0.0 0.0 0.0 0.016365286 0.0034899511
0.0 9.770173e-11 0.0 0.0 0.021995505 0.0 0.040183913 0.0
7.5996137e-10 0.16126885 0.0019150181 0.43651044 0.03183463 0.008253766 0.026770847 0.0
0.0 0.0 0.0 0.0 0.00981077 0.002097027 0.016821103 0.0
0.0 0.02356033 0.041982558 0.017567396 0.0 1.5469051e-11 0.03612711 0.0
0.0020493285 0.009037015 0.0 0.0 0.0 0.008682936 0.0 0.0036778594
0.0 0.0 0.0 0.03789267 0.008151726 0.0 0.0059271706 0.0
0.001939662 0.0 0.0 0.0 0.0 0.0 0.0030077891 0.0
0.0142083485 0.0 0.0 0.0071938005 0.03533335 0.0 0.004333463 0.00845597
0.002117949 0.002699748 0.018492376 0.0 2.8624246e-08 0.014623366 0.012160695 6.974095e-07
0.044461522 0.0 0.011654684 5.724887e-05 0.0 0.0 0.0 0.037096623
0.0 0.0 1.900051e-10 0.0 0.04638359 4.3128858e-11 0.014131415 0.023792174
0.0 0.0022717868 0.06312295 0.0 0.0 0.036707968 0.041947078 0.048193924
0.0 0.012483396 0.008612437 0.0 0.0 0.0 0.0 0.0

grad_avg f4 [1, 200]
00000000: 0000 0000 3989 5a3c 74e4 f33d 69c3 4c3c
00000010: 30b0 e23d d957 f43d 0000 0000 0000 0000
00000020: 0000 0000 d6f5 513d 0000 0000 365f 603d
00000030: db12 b13b 0000 0000 0000 0000 0000 0000
00000040: 0000 0000 904b 623d ec3f 2b3c f1dc ee3d
00000050: 0000 0000 1cae ed3c 0000 0000 63e1 45bb
00000060: 9414 873d 0000 0000 1c8c 0d3e 0000 0000
00000070: c6ed da3d 0000 0000 bafb c03d 2ee0 e23d
00000080: 0000 0000 0000 0000 6508 a33d 0000 0000
00000090: 0ff9 973d 0000 0000 8204 eb3d 0000 0000
000000a0: 0000 0000 f863 b43d 0000 0000 3c85 e73d
000000b0: a93c d53d f1e0 093e 0000 0000 718b 8abb
000000c0: 0000 0000 ab0e 3f3d 0000 0000 9d8a 3b3d
000000d0: 3b69 0e3d 0000 0000 0000 0000 9f33 953d
000000e0: 0000 0000 5d10 dc3d 0407 233d 0451 803d
000000f0: ecbd 1f2a 3976 7237 0000 0000 0000 0000
00000100: f752 d23d 0000 0000 5497 cf3d 0000 0000
00000110: 5bf0 e33d e904 0b3e 0000 0000 33d5 d83d
00000120: f65b 013c 0000 0000 f314 8c3d 543d 923d
00000130: f3ce 043e 0000 0000 ee9f ea3d c29d f83d
00000140: cdf5 133e efa3 cc3d 0000 0000 eec3 e43d
00000150: 7d79 db3d 0000 0000 0000 0000 e3e5 f53d
00000160: d2c2 073e 7f90 cb3d a9dd e83d 0000 0000
00000170: 0000 0000 0000 0000 4921 793d 0dbe fa3c
00000180: 0000 0000 eb06 ae29 0000 0000 0000 0000
00000190: 5768 063e 0000 0000 a30e 983d 0000 0000
000001a0: 5c66 4fa6 36d6 e9ba 82ae f63d 7b6e 68bb
000001b0: bba9 f43d 565e 8e3d ed95 d23d 0000 0000
000001c0: 0000 0000 0000 0000 0000 0000 0000 0000
000001d0: 4f4d 413d a64a f63d d68d 503d 0000 0000
000001e0: 0000 0000 8736 e33d d2ac e83c f10a 033d
000001f0: 0000 0000 3214 faa8 55b5 4e3d 0000 0000
00000200: ea89 d33d 2ee8 a93d 0000 0000 0000 0000
00000210: 0000 0000 8bbf 283d 0000 0000 cdb7 fd3d
00000220: 0000 0000 0000 0000 0000 0000 23b1 4f3d
00000230: e5e7 313d 0000 0000 de2e d73d 0000 0000
00000240: fbaa 593d 0000 0000 0000 0000 0000 0000
00000250: 0000 0000 0000 0000 e30e b33d 0000 0000
00000260: 2927 ab3d 0000 0000 0000 0000 6463 2b3c
00000270: 5f7b fb3d 0000 0000 3f16 983d 4e6d e03c
00000280: 90ec b03d bc69 dd3d 568d 893d 0000 0000
00000290: 04fc b336 577b 383d 6f34 b33d 7dcd de37
000002a0: dc70 a43d 0000 0000 3ff0 b43d 9d9b 803a
000002b0: 0000 0000 0000 0000 0000 0000 eb46 2c3d
000002c0: 0000 0000 0000 0000 5fc9 0800 0000 0000
000002d0: e22e ac3c 69a9 2827 9dff 0a3d 1afc da3d
000002e0: 0000 0000 b0f8 9e3d faf7 013b 0000 0000
000002f0: 0000 0000 3f21 4a3d 41a1 303d 3a63 903c
00000300: 0000 0000 a3c4 ad3d 5430 743c 0000 0000
00000310: 0000 0000 0000 0000 0000 0000 0000 0000
0.0 0.0133383805 0.11908808 0.012497761 0.11068761 0.11930818 0.0 0.0
0.0 0.051259838 0.0 0.0547783 0.005403859 0.0 0.0 0.0
0.0 0.055247843 0.010452252 0.11663235 0.0 0.029013686 0.0 -0.0030194155
0.06595722 0.0 0.13822979 0.0 0.10689883 0.0 0.09423013 0.11077915
0.0 0.0 0.079605855 0.0 0.07420551 0.0 0.11475469 0.0
0.0 0.0880813 0.0 0.11304709 0.10411961 0.13464715 0.0 -0.0042280485
0.0 0.046644848 0.0 0.04578649 0.034768324 0.0 0.0 0.072852366
0.0 0.107453085 0.039801612 0.062654525 1.4187929e-13 1.445185e-05 0.0 0.0
0.102697305 0.0 0.101362854 0.0 0.111298285 0.13576092 0.0 0.105875395
0.00789546 0.0 0.06839933 0.07140604 0.1296957 0.0 0.114562854 0.12139465
0.14449234 0.09992205 0.0 0.11170183 0.107165314 0.0 0.0 0.12006738
0.13257912 0.0993967 0.11370403 0.0 0.0 0.0 0.06082276 0.030608201
0.0 7.728352e-14 0.0 0.0 0.1312574 0.0 0.07424667 0.0
-7.1956275e-16 -0.0017840329 0.120450035 -0.0035466242 0.11946436 0.06951587 0.10282502 0.0
0.0 0.0 0.0 0.0 0.047192868 0.12025957 0.050916515 0.0
0.0 0.11094385 0.02840272 0.031992856 0.0 -2.7764334e-14 0.0504659 0.0
0.103290394 0.08296238 0.0 0.0 0.0 0.041198295 0.0 0.12388573
0.0 0.0 0.0 0.05070604 0.043434042 0.0 0.10506986 0.0
0.053141575 0.0 0.0 0.0 0.0 0.0 0.08743074 0.0
0.083570786 0.0 0.0 0.010460708 0.122793905 0.0 0.07426118 0.02739587
0.08638871 0.10811183 0.06716411 0.0 5.363954e-06 0.0450395 0.08750235 2.656015e-05
0.08029339 0.0 0.08834886 0.0009812001 0.0 0.0 0.0 0.04205982
0.0 0.0 8.06922e-40 0.0 0.02101845 2.340652e-15 0.033935178 0.10692616
0.0 0.07762277 0.0019831643 0.0 0.0 0.049348112 0.043122534 0.01762544
0.0 0.08484771 0.0149041 0.0 0.0 0.0 0.0 0.0
